tests/test_data_path/og_processed/dimer_ap3_train_spec_7_95.pt (torch, 250671 bytes, 17 tensors)

y f4 [16, 4]
33.061996 22.131102 -12.005758 -6.7776027 33.093544 21.79446 -13.2421 -6.7479897
-40.03405 32.464134 -21.255486 -9.472962 -37.09704 25.402985 -16.68814 -8.373251
-38.834293 25.509857 -16.802439 -8.168635 -37.017483 30.730042 -18.174772 -8.966207
-13.096123 18.099157 -6.2342496 -7.4789505 -19.659576 25.781507 -9.7871685 -9.997826
-25.382895 29.369333 -11.398973 -9.839683 -22.27895 25.59947 -9.247692 -9.0086975
-15.628051 21.753227 -7.8746724 -8.098129 -18.515526 25.496557 -9.73764 -10.200619
-25.14214 25.800308 -11.474098 -7.3018847 -25.498388 29.82927 -11.576635 -8.358138
-33.36911 41.652954 -19.497505 -9.529677 -27.835451 31.568937 -12.9666195 -8.576869
00000000: 7c3f 0442 7f0c b141 9617 40c1 1fe2 d8c0
00000010: ca5f 0442 0e5b ae41 a4df 53c1 88ef d7c0
00000020: de22 20c2 46db 0142 3c0b aac1 4191 17c1
00000030: 5e63 14c2 5039 cb41 5081 85c1 d6f8 05c1
00000040: 5156 1bc2 3014 cc41 656b 86c1 bbb2 02c1
00000050: e711 14c2 20d7 f541 ef65 91c1 9575 0fc1
00000060: b889 51c1 13cb 9041 f97e c7c0 9053 efc0
00000070: d046 9dc1 8740 ce41 3e98 1cc1 18f7 1fc1
00000080: 2b10 cbc1 65f4 ea41 3262 36c1 576f 1dc1
00000090: 4a3b b2c1 b7cb cc41 8cf6 13c1 a023 10c1
000000a0: 7f0c 7ac1 9c06 ae41 51fd fbc0 f091 01c1
000000b0: cc1f 94c1 f3f8 cb41 60cd 1bc1 bc35 23c1
000000c0: 1a23 c9c1 0867 ce41 e895 37c1 0aa9 e9c0
000000d0: b3fc cbc1 58a2 ee41 e639 39c1 efba 05c1
000000e0: f879 05c2 a09c 2642 e4fa 9bc1 8f79 18c1
000000f0: 01af dec1 2f8d fc41 4677 4fc1 db3a 09c1

RA f4 [156, 3]
0.865118 -2.43058 -1.71018 0.066898 -1.286451 0.38287 -0.265653 -0.231071
-1.73646 1.992684 -0.320603 -0.795499 0.735819 -0.990079 -1.056762 -0.342165
-0.535006 0.837929 0.866 -2.3878 -1.6558 0.0764 -1.3468 0.3977
-0.3055 -0.1966 -1.7939 1.987 -0.324 -0.8618 0.698 -1.03
-1.0818 -0.3173 -0.534 0.852 -0.596188 -2.372744 -1.810264 -1.378586
-4.621198 -1.123542 0.740383 -1.882515 -3.875288 -0.855047 -3.306276 -0.669607
0.412275 -2.67309 -2.640182 -1.772194 -2.545946 0.328277 -1.244407 -1.310152
-1.916675 -2.342504 -4.494957 -1.676858 -0.679432 -5.157526 -1.774861 -1.516704
-5.320263 -0.203563 0.940746 -2.584701 -4.692836 -0.176263 -1.306566 -4.101665
1.593004 -1.23085 -3.705662 0.140416 -3.457104 -0.079625 0.904234 -3.487252
-2.395509 -2.031091 -3.225139 1.041501 -2.591546 -2.31368 -0.258212 2.590444
-1.861476 1.203719 0.684449 -3.57753 1.741967 4.858966 -2.191385 0.321816
1.600818 -2.333211 2.305635 3.807504 -2.465519 1.307562 0.712916 -1.235684
2.593968 2.290146 -1.106471 0.34401 0.143348 -3.230528 0.775647 1.384622
-4.285056 1.394401 -0.013521 -3.871454 2.431387 5.650639 -2.874478 0.493583
4.472905 -2.365095 -0.720693 5.166507 -1.196729 0.470636 2.088062 -2.799486
3.143876 4.053835 -3.115799 2.116184 1.199073 -0.515313 3.106261 -0.062011
-1.617073 3.321199 2.5803 -1.9195 1.2402 0.7215 -3.5224 1.694
4.8412 -2.191 0.3215 1.5593 -2.3792 2.2852 3.7993 -2.477
1.3056 0.6834 -1.2515 2.6329 2.2884 -1.1088 0.3426 0.1865
-3.1783 0.7999 1.3571 -4.3738 1.4211 -0.0138 -3.8714 2.4311
5.6736 -2.8826 0.4808 4.4431 -2.3242 -0.6911 5.1999 -1.1584
0.4234 2.1131 -2.7654 3.16 4.008 -3.0983 2.0745 1.2075
-0.5261 3.1198 -0.0293 -1.5721 3.2854 -0.5933 -2.3381 -1.8141
-1.394 -4.6417 -1.108 0.7519 -1.9223 -3.8502 -0.8411 -3.2896
-0.6304 0.4187 -2.6746 -2.6429 -1.7354 -2.5839 0.311 -1.3034
-1.3417 -1.9777 -2.332 -4.4987 -1.6612 -0.6826 -5.1561 -1.7668
-1.5889 -5.2978 -0.2493 0.9633 -2.6178 -4.6705 -0.1047 -1.2964
-4.1164 1.628 -1.2794 -3.6881 0.1164 -3.4514 -0.1111 0.9677
-3.4944 -2.4262 -2.0358 -3.2226 1.0448 -2.574 -2.2952 -0.1957
0.851817 -2.438214 -1.952896 -0.046257 -2.788981 0.24306 -0.954601 -0.940711
-1.116433 1.424381 -0.856478 -0.137514 0.22064 -1.843363 -0.771485 1.088081
00000000: 6078 5d3f 9f8e 1bc0 2ee7 dabf d201 893d
00000010: 6daa a4bf 8907 c43e ac03 88be e09d 6cbe
00000020: 5244 debf 4510 ff3f 1426 a4be d3a5 4bbf
00000030: a25e 3c3f d175 7dbf fa43 87bf 4030 afbe
00000040: 27f6 08bf 8482 563f 2db2 5d3f b7d1 18c0
00000050: 41f1 d3bf 9a77 9c3d f163 acbf 569f cb3e
00000060: 7f6a 9cbe 8351 49be 849e e5bf 0456 fe3f
00000070: 54e3 a5be ed9e 5cbf 21b0 323f 0ad7 83bf
00000080: 6c78 8abf 2575 a2be 39b4 08bf ac1c 5a3f
00000090: c79f 18bf 0adb 17c0 bbb6 e7bf 8275 b0bf
000000a0: dbe0 93c0 39d0 8fbf be89 3d3f 40f6 f0bf
000000b0: b804 78c0 5ce4 5abf 079a 53c0 5d6b 2bbf
000000c0: b515 d33e e813 2bc0 bef8 28c0 41d7 e2bf
000000d0: c7f0 22c0 ec13 a83e bb48 9fbf 10b3 a7bf
000000e0: 9b55 f5bf 96eb 15c0 b0d6 8fc0 48a3 d6bf
000000f0: 41ef 2dbf 740a a5c0 a52e e3bf 5b23 c2bf
00000100: 983f aac0 d272 50be bbd4 703f be6b 25c0
00000110: b62b 96c0 4a7e 34be 8e3d a7bf d740 83c0
00000120: 8ee7 cb3f 7e8c 9dbf 9129 6dc0 36c9 0f3e
00000130: 3141 5dc0 6f12 a3bd e17b 673f 232f 5fc0
00000140: 0550 19c0 65fd 01c0 ad68 4ec0 e84f 853f
00000150: e4db 25c0 5513 14c0 5d34 84be d6c9 2540
00000160: d844 eebf 7713 9a3f 0d38 2f3f 40f6 64c0
00000170: c6f8 de3f a67c 9b40 a73f 0cc0 11c5 a43e
00000180: 9be7 cc3f 5453 15c0 868f 1340 25ae 7340
00000190: 10cb 1dc0 315e a73f aa81 363f e52a 9ebf
000001a0: 9203 2640 c191 1240 d7a0 8dbf 1422 b03e
000001b0: d1c9 123e f9c0 4ec0 cd90 463f 4b3b b13f
000001c0: 2e1f 89c0 bb7b b23f 2f87 5dbc e7c5 77c0
000001d0: d89b 1b40 09d2 b440 73f7 37c0 e9b6 fc3e
000001e0: 0a22 8f40 b75d 17c0 567f 38bf 0654 a540
000001f0: 6a2e 99bf 34f7 f03e cfa2 0540 c72a 33c0
00000200: 4435 4940 04b9 8140 4069 47c0 8f6f 0740
00000210: 397b 993f 8eeb 03bf fbcc 4640 3fff 7dbd
00000220: 40fc cebf 868e 5440 a323 2540 2db2 f5bf
00000230: e0be 9e3f 39b4 383f 006f 61c0 fed4 d83f
00000240: 1ceb 9a40 5839 0cc0 a69b a43e 2497 c73f
00000250: d044 18c0 b840 1240 bb27 7340 2b87 1ec0
00000260: e71d a73f 4df3 2e3f 2731 a0bf 6f81 2840
00000270: 2575 1240 29ed 8dbf 4469 af3e dbf9 3e3e
00000280: 4469 4bc0 3fc6 4c3f 74b5 ad3f 2bf6 8bc0
00000290: 9be6 b53f 6519 62bc 05c5 77c0 2497 1b40
000002a0: 228e b540 857c 38c0 6b2b f63e e02d 8e40
000002b0: b1bf 14c0 eeeb 30bf 9565 a640 7446 94bf
000002c0: e3c7 d83e 083d 0740 50fc 30c0 713d 4a40
000002d0: 8941 8040 8c4a 46c0 9cc4 0440 5c8f 9a3f
000002e0: 7dae 06bf ceaa 4740 8e06 f0bc 933a c9bf
000002f0: fe43 5240 82e2 17bf 6ea3 15c0 6e34 e8bf
00000300: 986e b2bf ce88 94c0 f2d2 8dbf 857c 403f
00000310: ed0d f6bf ad69 76c0 5452 57bf ce88 52c0
00000320: e561 21bf d95f d63e a52c 2bc0 4625 29c0
00000330: 9621 debf 9e5e 25c0 643b 9f3e d0d5 a6bf
00000340: d3bc abbf 4625 fdbf 7d3f 15c0 5af5 8fc0
00000350: 34a2 d4bf e0be 2ebf c5fe a4c0 8126 e2bf
00000360: 1361 cbbf 9487 a9c0 8048 7fbe d49a 763f
00000370: 098a 27c0 bc74 95c0 f46c d6bd 6ff0 a5bf
00000380: 8cb9 83c0 4e62 d03f 61c3 a3bf d509 6cc0
00000390: 2063 ee3d bde3 5cc0 6688 e3bd 30bb 773f
000003a0: 40a4 5fc0 dc46 1bc0 8c4a 02c0 143f 4ec0
000003b0: 02bc 853f 6abc 24c0 8fe4 12c0 9565 48be
000003c0: ae10 5a3f b30b 1cc0 7ff8 f9bf fb77 3dbd
000003d0: aa7e 32c0 b8e4 783e bb60 74bf 70d2 70bf
000003e0: 47e7 8ebf 1e52 b63f 2442 5bbf 78d0 0cbe
000003f0: 74ef 613e 52f3 ebbf 0a80 45bf 3d46 8b3f

RB f4 [236, 3]
-0.186189 2.259813 0.621547 -1.064211 1.77299 1.818116 -1.655514 2.652732
2.541825 -1.129606 0.514748 1.90125 -0.321034 3.450018 0.494846 -0.534758
1.823484 -0.255395 0.878416 2.017374 0.87862 -0.2234 2.3174 0.6404
-1.0816 1.7823 1.8022 -1.6841 2.6176 2.5335 -1.0955 0.5166
1.934 -0.3441 3.4055 0.5354 -0.4743 1.8031 -0.2979 0.834
2.0781 0.8325 0.2659 1.903193 0.33229 0.69303 2.155069 1.668165
0.500331 1.124463 2.699295 -0.171514 -0.044686 2.208177 -0.613458 -0.056312
0.918053 -0.37603 0.763729 0.013521 0.538576 3.076627 -0.391322 1.151421
3.874977 0.43241 1.278305 3.331662 1.652442 1.941888 4.046761 2.796468
0.855841 1.293834 3.718312 -0.406008 -0.787876 2.930296 -0.743961 0.605265
-0.935266 1.541557 4.786483 0.219081 2.278038 4.976498 2.578752 2.804927
3.404483 3.239415 1.214447 4.189884 3.578706 -1.065214 -1.067466 0.715997
0.851071 -0.330145 0.205521 -2.078672 1.290791 -0.204162 -1.799231 1.827888
-1.526765 -0.515149 1.505125 -2.081663 0.405812 0.697595 -1.405145 0.018295
0.202838 -0.222206 -1.054681 0.43297 0.461978 -3.305616 1.657332 0.188283
-3.648208 2.432298 -0.714474 -2.825225 2.50965 -1.852498 -3.065079 3.294241
-3.026486 -0.250362 1.95651 -3.058944 1.344178 0.462508 -1.859114 -1.114427
0.062892 1.436301 -4.718002 2.900597 -0.791645 -4.058802 3.744048 -2.986348
-3.052545 2.615811 -3.878376 -2.297147 4.034551 -3.187211 0.8381 -0.3456
0.2123 -2.0174 1.2717 -0.1904 -1.744 1.8011 -1.4856 -0.5355
1.5421 -2.1461 0.3667 0.746 -1.4636 0.087 0.251 -0.2281
-1.0621 0.4808 0.4311 -3.2672 1.6707 0.24 -3.7264 2.4032
-0.7436 -2.8559 2.5223 -1.8168 -3.0775 3.2638 -3.0551 -0.2961
1.9301 -3.1331 1.3393 0.4713 -1.8631 -1.1603 0.0272 1.4125
-4.6966 2.892 -0.758 -4.058 3.7461 -3.0061 -3.0567 2.5804
-3.9129 -2.3057 4.0337 -3.1758 0.2203 1.9788 0.3555 0.6835
2.1512 1.693 0.4968 1.1642 2.6708 -0.1529 0.0187 2.2496
-0.5828 -0.1344 0.9676 -0.4261 0.8005 0.0095 0.5284 3.0865
-0.409 1.1461 3.8864 0.423 1.2733 3.3822 1.7098 1.9141
4.0284 2.8521 0.8327 1.2658 3.7 -0.3539 -0.8167 2.9159
-0.8065 0.5598 -0.9807 1.5408 4.8663 0.1696 2.2914 5.0056
2.5375 2.7535 3.4181 3.2075 1.1883 4.1685 3.6623 -1.0573
00000000: 54a8 3ebe c7a0 1040 b41d 1f3f 1138 88bf
00000010: 56f1 e23f 06b8 e83f e2e7 d3bf 5cc6 2940
00000020: 43ad 2240 ee96 90bf 86c6 033f 295c f33f
00000030: 925e a4be 18cd 5c40 745c fd3e e6e5 08bf
00000040: ec67 e93f 22c3 82be dfdf 603f a81c 0140
00000050: 3eed 603f f8c2 64be 4850 1440 41f1 233f
00000060: de71 8abf 6822 e43f 7dae e63f 9790 d7bf
00000070: c286 2740 dd24 2240 5839 8cbf e63f 043f
00000080: 508d f73f e02d b0be b6f3 5940 f90f 093f
00000090: 73d7 f2be fbcb e63f 5986 98be 0681 553f
000000a0: 97ff 0440 b81e 553f 0b24 883e d49b f33f
000000b0: ea21 aa3e 6a6a 313f a7ec 0940 6e86 d53f
000000c0: b115 003f 67ee 8f3f 40c1 2c40 5ea1 2fbe
000000d0: ab08 37bd c652 0d40 950b 1dbf 69a7 66bd
000000e0: 8505 6b3f 0187 c0be be83 433f 2f87 5d3c
000000f0: 1ee0 093f 75e7 4440 5b5b c8be c361 933f
00000100: a0ff 7740 d864 dd3e 809f a33f f339 5540
00000110: 3883 d33f c98f f83f 117f 8140 55f9 3240
00000120: 6518 5b3f 5a9c a53f d3f8 6d40 48e0 cfbe
00000130: 3eb2 49bf f889 3b40 3a74 3ebf a6f2 1a3f
00000140: 986d 6fbf bd51 c53f de2a 9940 c556 603e
00000150: 60cb 1140 793f 9f40 460a 2540 ed83 3340
00000160: 0de3 5940 9352 4f40 0073 9b3f 8813 8640
00000170: 8509 6540 ef58 88bf baa2 88bf 944b 373f
00000180: cadf 593f c408 a9be 1974 523e f608 05c0
00000190: a438 a53f d80f 51be 344d e6bf 3cf8 e93f
000001a0: 096d c3bf cee0 03bf f0a7 c03f f739 05c0
000001b0: 97c6 cf3e 9695 323f cbdb b3bf 65df 953c
000001c0: c4b4 4f3e f889 63be c9ff 86bf 3eae dd3e
000001d0: 6188 ec3e 368f 53c0 7423 d43f 42cd 403e
000001e0: 3d7c 69c0 c5aa 1b40 c5e7 36bf 7dd0 34c0
000001f0: 1b9e 2040 a81e edbf 412a 44c0 d8d4 5240
00000200: f2b1 41c0 732f 80be eb6e fa3f bdc5 43c0
00000210: 060e ac3f d9cd ec3e 73f7 edbf 8ba5 8ebf
00000220: 85cd 803d b6d8 b73f dff9 96c0 62a3 3940
00000230: 3fa9 4abf b5e1 81c0 7c9e 6f40 5320 3fc0
00000240: e65c 43c0 7369 2740 5037 78c0 7504 13c0
00000250: 0b1b 8140 44fb 4bc0 b98d 563f 7cf2 b0be
00000260: 2c65 593e 151d 01c0 11c7 a23f 38f8 42be
00000270: 643b dfbf 728a e63f 2428 bebf 8716 09bf
00000280: 8863 c53f b459 09c0 1ac0 bb3e dbf9 3e3f
00000290: 3f57 bbbf 0e2d b23d 1283 803e 0c93 69be
000002a0: e5f2 87bf 6b2b f63e 24b9 dc3e ce19 51c0
000002b0: 7fd9 d53f 8fc2 753e 567d 6ec0 07ce 1940
000002c0: 925c 3ebf 11c7 36c0 5d6d 2140 e78c e8bf
000002d0: c3f5 44c0 19e2 5040 c286 43c0 6b9a 97be
000002e0: 840d f73f b684 48c0 2f6e ab3f 3c4e f13e
000002f0: 107a eebf b684 94bf 89d2 de3c cdcc b43f
00000300: 8c4a 96c0 8716 3940 4a0c 42bf 23db 81c0
00000310: 1ac0 6f40 f163 40c0 f9a0 43c0 4625 2540
00000320: f46c 7ac0 9790 13c0 1214 8140 4f40 4bc0
00000330: 5396 613e 5249 fd3f 1904 b63e dbf9 2e3f
00000340: 43ad 0940 39b4 d83f 925c fe3e 8104 953f
00000350: 63ee 2a40 d191 1cbe be30 993c 72f9 0f40
00000360: 6132 15bf 27a0 09be a2b4 773f c729 dabe
00000370: 91ed 4c3f e3a5 1b3c 3945 073f 3789 4540
00000380: 7368 d1be 68b3 923f c7ba 7840 7593 d83e
00000390: 7ffb a23f f775 5840 bada da3f 3b01 f53f
000003a0: a7e8 8040 ce88 3640 d42b 553f bc05 a23f
000003b0: cdcc 6c40 6132 b5be 4013 51bf 1b9e 3a40
000003c0: c976 4ebf 0e4f 0f3f 280f 7bbf ef38 c53f
000003d0: bbb8 9b40 9fab 2d3e 4ca6 1240 e02d a040
000003e0: 6666 2240 5839 3040 27c2 5a40 ae47 4d40
000003f0: 371a 983f 5a64 8540 2063 6a40 9b55 87bf

qA f4 [156, 1]
-0.7509917 -0.71436477 -0.7671398 -0.678825 1.4372125 0.47410882 -0.74056506 -0.7099507
-0.7215072 -0.7091119 1.4246386 0.45649654 0.6681678 -0.5140838 -0.19652343 0.025276184
-0.58651274 -0.8759572 -0.6116561 0.16977394 0.15495187 0.14718154 0.12272656 0.15956825
0.12663707 0.09938055 0.3652919 0.36739096 0.37838674 0.67609817 -0.49762058 -0.18289626
0.007091254 -0.61005354 -0.7771157 -0.54262173 0.1406602 0.15104273 0.17422098 0.12208977
0.12132564 0.12729105 0.06331888 0.35006517 0.34690365 0.33019996 0.6602816 -0.4877177
-0.20311278 0.043498993 -0.57119745 -0.8192895 -0.57172316 0.17010435 0.14617315 0.14752448
0.12552774 0.13605314 0.12447038 0.056203842 0.34867114 0.34617698 0.3483541 0.6630491
-0.50601345 -0.18491465 0.032947242 -0.5798715 -0.8620549 -0.5989496 0.16006592 0.14495987
0.15662718 0.11975014 0.15238756 0.111174345 0.10982293 0.35828656 0.3528112 0.36992228
-0.73843354 -0.7282179 -0.7308051 -0.7305601 1.442344 0.48567206 -0.73085535 -0.7142774
-0.7421379 -0.7301862 1.4458956 0.47156134 -0.7212101 -0.7077936 -0.68383634 -0.7001678
1.385132 0.42787585 -0.7237023 -0.73753107 -0.7209672 -0.7096995 1.432069 0.45983127
-0.7114324 -0.70901114 -0.7519588 -0.7259794 1.429321 0.4690601 -0.72281915 -0.72973627
-0.72246605 -0.7164808 1.4330848 0.4584173 -0.53709245 0.09516296 -0.8788034 0.13641027
0.15529028 0.14575854 0.08460295 0.08426747 0.3651514 0.34925213 -0.50582886 0.099579096
-0.8635417 0.16294745 0.14333922 0.13456008 0.036319852 0.08886817 0.3508719 0.35288453
-0.5005361 0.125267 -0.87748015 0.13807881 0.16134167 0.13302264 0.085636675 0.059414327
0.3458602 0.32939482 -0.50412416 0.10626149 -0.8803129 0.15688452 0.14266971 0.14394295
0.046242952 0.08065328 0.354841 0.3529411
00000000: fe40 40bf 9ce0 36bf 4663 44bf 7ac7 2dbf
00000010: 94f6 b73f 64be f23e ac95 3dbf 54bf 35bf
00000020: b2b4 38bf 5c88 35bf 8f5a b63f eab9 e93e
00000030: 0c0d 2b3f ff9a 03bf 703d 49be 0010 cf3c
00000040: b325 16bf bb3e 60bf 7f95 1cbf 38d9 2d3e
00000050: b4ab 1e3e c2b6 163e 1058 fb3d dc65 233e
00000060: 26ad 013e 0888 cb3d 8a07 bb3e ab1a bc3e
00000070: e8bb c13e c514 2d3f 20c8 febe 2849 3bbe
00000080: c05d e83b 782c 1cbf 0ef1 46bf 42e9 0abf
00000090: 3a09 103e f2aa 1a3e fc66 323e 340a fa3d
000000a0: 9479 f83d 9658 023e 54ad 813d be3b b33e
000000b0: 5b9d b13e f80f a93e 3708 293f 22b6 f9be
000000c0: ccfc 4fbe 002c 323d ff39 12bf f5bc 51bf
000000d0: 735c 12bf d62f 2e3e 6aae 153e a810 173e
000000e0: 588a 003e 8451 0b3e 54ea fe3d 0036 663d
000000f0: 0685 b23e 1c3e b13e 785b b23e 96bd 293f
00000100: 198a 01bf 445a 3dbe b0f3 063d 7572 14bf
00000110: a1af 5cbf c354 19bf 52e8 233e 5c70 143e
00000120: e062 203e 903f f53d 7c0b 1c3e 60af e33d
00000130: d8ea e03d 5671 b73e aba3 b43e 7466 bd3e
00000140: fb09 3dbf 7d6c 3abf 0b16 3bbf fd05 3bbf
00000150: ba9e b83f 02aa f83e 5619 3bbf e2da 36bf
00000160: c0fc 3dbf 7ced 3abf 1b13 b93f 7d70 f13e
00000170: 3aa1 38bf f631 35bf e60f 2fbf 323e 33bf
00000180: 014c b13f 8b12 db3e 8e44 39bf d6ce 3cbf
00000190: 4e91 38bf deae 35bf 094e b73f 016f eb3e
000001a0: 6f20 36bf c181 35bf 5f80 40bf c9d9 39bf
000001b0: fef3 b63f a528 f03e ad0a 39bf ffcf 3abf
000001c0: 89f3 38bf 496b 37bf 536f b73f acb5 ea3e
000001d0: e47e 09bf cce4 c23d 42f9 60bf 22af 0b3e
000001e0: 6a04 1f3e ba41 153e 5044 ad3d 6c94 ac3d
000001f0: 20f5 ba3e 2dd1 b23e 007e 01bf 20f0 cb3d
00000200: 1211 5dbf b2db 263e 84c7 123e 1eca 093e
00000210: 20c4 143d 8400 b63d 7ba5 b33e 48ad b43e
00000220: 2223 00bf fe45 003e 8aa2 60bf 8864 0d3e
00000230: c036 253e 1637 083e 4862 af3d 705c 733d
00000240: 9714 b13e 70a6 a83e 480e 01bf a09f d93d
00000250: 305c 61bf 56a6 203e 0218 123e c865 133e
00000260: 4069 3d3d 8c2d a53d b8ad b53e b2b4 b43e

muA f4 [156, 3]
0.0032601058 -0.13184038 -0.06836283 0.014196187 -0.13542022 0.025300562 -0.09827343 0.076628834
-0.12072697 0.15318392 0.089959204 0.020751119 -0.014313728 -0.028019577 -0.005494982 -0.008672863
0.013860971 0.011691421 0.023555607 -0.13769862 -0.06434691 0.014893353 -0.15400207 0.038604647
-0.08882186 0.08465257 -0.1129137 0.14137068 0.064757824 -0.0043380857 0.0066532493 -0.041585952
0.0013397932 -0.007874936 0.0146920085 0.011115551 -0.009758055 0.0650959 -0.059480608 0.0062284768
0.064178154 0.024456918 -0.027883977 -0.07544309 0.13832204 -0.124201775 0.007816017 0.0979695
0.018174142 0.09109092 -0.1163716 0.09954794 -0.03187591 -0.07791492 -0.008678198 0.065461814
-0.015028268 -0.039317757 0.012990087 -0.024112076 0.029664189 -0.021965653 -0.024653792 -0.0019077063
-0.02314204 0.04099962 0.007705748 -0.043167055 -0.039531887 -0.05350408 0.02668798 -5.6385994e-05
0.046066716 0.03504607 0.019747049 0.040858716 -0.007040024 0.037174672 0.018411309 -0.028528512
0.008567721 0.0013602376 -0.0145171285 0.023171276 -0.014408827 0.013465047 -0.018479139 0.047543377
0.037527055 -0.07613665 0.018037975 0.04768668 0.032985 -0.11540449 -0.021562964 0.10211353
-0.13823241 0.069100544 0.018290222 0.08905737 0.042017817 -0.11543134 0.061740905 -0.09642193
-0.075626224 -0.020702273 0.04069552 -0.041933417 -0.018401027 0.02382499 -0.04327199 0.034158662
-0.027141213 -0.016350776 -0.03125128 -0.011121631 0.033213854 0.037991405 -0.03829792 0.014226794
-0.029126704 -0.009857386 -0.052242696 0.00540781 0.052176163 0.018010587 0.009139657 -0.026782364
0.05004835 0.010556132 -0.021752328 0.02608648 0.015810609 0.022608727 0.0041184127 -0.02647227
-0.014802337 0.014238954 0.037382662 0.03370318 -0.07647425 0.017697573 0.056508884 0.018440157
-0.115236536 -0.024445295 0.10531452 -0.1535868 0.06565744 0.01197961 0.085324794 0.051888973
-0.11941944 0.07200238 -0.1039255 -0.093305886 -0.018532753 0.03906858 -0.04315877 -0.019528002
0.025559634 -0.036049277 0.028502792 -0.03413248 -0.011039704 -0.029058248 -0.009344429 0.034051985
0.041952223 -0.038924873 0.012387246 -0.030596077 -0.006265402 -0.050081104 0.010316819 0.05756344
0.01159206 0.014301419 -0.017662168 0.04970005 0.011805356 -0.021769136 0.025200933 0.017487377
0.02398634 0.00402987 -0.022530735 -0.012875795 0.00870201 -0.008804947 0.06760682 -0.06492683
0.0047565997 0.04673253 0.023908526 -0.035700083 -0.073845804 0.13664377 -0.11712322 0.0070883334
0.10308382 0.018864632 0.08826375 -0.1202894 0.10870737 -0.04043898 -0.08921248 -0.019849151
0.06368381 -0.021023005 -0.039547086 0.011488706 -0.023883134 0.030204237 -0.02194056 -0.026330858
-0.0055535436 -0.024032027 0.03991878 0.008179247 -0.042155683 -0.039371192 -0.05017671 0.03033787
-0.0023536086 0.045236513 0.034002095 0.019468933 0.039776817 -0.007958084 0.03828302 0.021241933
-0.027963638 0.0057450533 0.0011612177 -0.016147465 0.024720222 -0.015424639 0.015793473 -0.018039227
0.05990237 -0.072720796 -0.12317878 -0.03426087 -0.1301029 0.106865466 -0.16808459 0.0614641
-0.070262775 0.1293813 -0.081174284 0.021773487 0.03216605 -0.05766298 0.012978673 -0.0015788078
00000000: 80a7 553b 2a01 07be d001 8cbd 2097 683c
00000010: 99ab 0abe 2043 cf3c 9443 c9bd 94ef 9c3d
00000020: b43f f7bd 3fdc 1c3e 883c b83d 40fe a93c
00000030: 2084 6abc 5089 e5bc 400f b4bb a018 0ebc
00000040: 2019 633c 608d 3f3c b0f7 c03c de00 0dbe
00000050: 50c8 83bd 4003 743c b8b2 1dbe e81f 1e3d
00000060: 3ce8 b5bd 545e ad3d 4c3f e7bd 7ac3 103e
00000070: c09f 843d 8026 8ebb 8003 da3b 0856 2abd
00000080: 009c af3a e005 01bc c0b6 703c 001e 363c
00000090: 40e0 1fbc 0051 853d f0a1 73bd 4018 cc3b
000000a0: d66f 833d e059 c83c f06c e4bc e881 9abd
000000b0: 4ba4 0d3e 805d febd c00e 003c 3ca4 c83d
000000c0: f0e1 943c e08d ba3d 3c54 eebd cadf cb3d
000000d0: 5090 02bd dc91 9fbd 002f 0ebc d810 863d
000000e0: 2039 76bc a80b 21bd 60d4 543c b086 c5bc
000000f0: 5002 f33c 50f1 b3bc c0f6 c9bc 000c faba
00000100: 6094 bdbc 38ef 273d 8080 fc3b f0cf 30bd
00000110: 30ec 21bd 1827 5bbd c0a0 da3c 0080 6cb8
00000120: 74b0 3c3d 788c 0f3d 90c4 a13c 785b 273d
00000130: 00b0 e6bb 7844 183d 50d3 963c a0b4 e9bc
00000140: a05f 0c3c 004a b23a 40d9 6dbc b0d1 bd3c
00000150: 0013 6cbc 809c 5c3c 9061 97bc d8bc 423d
00000160: f8b5 193d 88ed 9bbd 60c4 933c 1c53 433d
00000170: 481b 073d 3059 ecbd d0a4 b0bc e620 d13d
00000180: cc8c 0dbe 9684 8d3d 60d5 953c b663 b63d
00000190: e01a 2c3d 4467 ecbd 08e4 7c3d dc78 c5bd
000001a0: ece1 9abd d097 a9bc 58b0 263d 60c2 2bbd
000001b0: c0bd 96bc a02c c33c f83d 31bd f4e9 0b3d
000001c0: 4057 debc 10f2 85bc 5801 00bd 8037 36bc
000001d0: 400b 083d e09c 1b3d 48de 1cbd 8017 693c
000001e0: 209b eebc e080 21bc 70fc 55bd 0034 b13b
000001f0: acb6 553d f08a 933c 80be 153c b066 dbbc
00000200: 80ff 4c3d a0f3 2c3c f031 b2bc 50b3 d53c
00000210: 4085 813c f035 b93c c0f3 863b 60dc d8bc
00000220: 8085 72bc 804a 693c 901e 193d 580c 0a3d
00000230: 889e 9cbd 80fa 903c dc75 673d d00f 973c
00000240: 2201 ecbd 8041 c8bc 24af d73d dc45 1dbe
00000250: 6877 863d 2046 443c c4be ae3d 8889 543d
00000260: 2e92 f4bd fc75 933d e4d6 d4bd 2817 bfbd
00000270: 00d2 97bc 6006 203d 40c7 30bd 30f9 9fbc
00000280: 7062 d13c 68a8 13bd b07e e93c 80ce 0bbd
00000290: e0df 34bc 900b eebc 6019 19bc 187a 0b3d
000002a0: 18d6 2b3d b06f 1fbd e0f3 4a3c a0a4 fabc
000002b0: 004e cdbb d821 4dbd e007 293c a4c7 6b3d
000002c0: a0ec 3d3c 8050 6a3c 40b0 90bc 4892 4b3d
000002d0: 406b 413c 3055 b2bc 3072 ce3c b041 8f3c
000002e0: 007f c43c 000d 843b 6092 b8bc 00f5 52bc
000002f0: e092 0e3c a042 10bc 7275 8a3d 5cf8 84bd
00000300: 40dd 9b3b 9c6a 3f3d d0db c33c 403a 12bd
00000310: 783c 97bd 58ec 0b3e 4cde efbd 4045 e83b
00000320: 9c1d d33d 008a 9a3c a0c3 b43d 4a5a f6bd
00000330: f8a1 de3d 58a3 25bd 08b5 b6bd b09a a2bc
00000340: a86c 823d 7038 acbc 20fc 21bd 203b 3c3c
00000350: 90a6 c3bc e06e f73c b0bc b3bc d0b3 d7bc
00000360: 80fa b5bb d0de c4bc e081 233d 4002 063c
00000370: 70ab 2cbd b043 21bd 1886 4dbd 2087 f83c
00000380: 003f 1abb ec49 393d c845 0b3d 507d 9f3c
00000390: 04ed 223d a062 02bc a8ce 1c3d 9003 ae3c
000003a0: 0014 e5bc 0041 bc3b 0034 983a b047 84bc
000003b0: 1082 ca3c a0b7 7cbc 5061 813c 00c7 93bc
000003c0: 305c 753d a4ee 94bd 2845 fcbd 2055 0cbd
000003d0: b239 05be 48dc da3d 5e1e 2cbe c8c1 7b3d
000003e0: eee5 8fbd 887c 043e b43e a6bd 505e b23c
000003f0: 8cc0 033d 0430 6cbd 80a4 543c 00f0 ceba

quadA f4 [156, 3, 3]
0.00045832 0.002663955 -0.0022358298 0.002663955 -0.010042141 -0.001534164 -0.0022358298 -0.001534164
0.009583821 -0.0074713435 -0.02755867 -0.026057035 -0.02755867 0.015663946 0.040690646 -0.026057035
0.040690646 -0.008192604 -0.025782708 0.062450945 -0.025788933 0.062450945 0.013127308 0.02845034
-0.025788933 0.02845034 0.012655403 -0.030959642 -0.027764514 -0.01727724 -0.027764514 0.011981213
-0.01140213 -0.01727724 -0.01140213 0.018978426 -0.059148256 0.11580104 0.01988855 0.11580104
0.14359595 -0.2088713 0.01988855 -0.2088713 -0.08444768 -0.003985554 -0.0016271472 -0.006563306
-0.0016271472 -0.004116595 0.0022658557 -0.006563306 0.0022658557 0.008102149 0.025302643 0.0065315664
5.8740377e-05 0.0065315664 -0.043474786 -0.029035807 5.8740377e-05 -0.029035807 0.01817214 -0.013203913
-0.022940382 -0.016322672 -0.022940382 0.019836387 0.026438832 -0.016322672 0.026438832 -0.0066324715
-0.0136870835 0.030738816 0.0013803393 0.030738816 0.0061691757 0.002954498 0.0013803393 0.002954498
0.0075179096 -0.016144544 -0.0262976 -0.01552701 -0.0262976 0.0032474846 -0.011820972 -0.01552701
-0.011820972 0.012897059 -0.02711165 0.049413174 -0.01163812 0.049413174 -0.0175955 -0.107303455
-0.01163812 -0.107303455 0.04470715 -0.002800852 -0.0010528862 -0.004266605 -0.0010528862 -0.0017331839
0.0015254766 -0.004266605 0.0015254766 0.004534036 0.01655151 0.11869833 0.06969608 0.11869833
-0.047841176 0.0773336 0.06969608 0.0773336 0.031289667 -0.011743516 -0.035956576 0.017185494
-0.035956576 -0.006222233 0.027385607 0.017185494 0.027385607 0.017965749 -0.03499936 0.024290562
-0.022133619 0.024290562 -0.013866324 -0.047522873 -0.022133619 -0.047522873 0.048865687 -0.02030094
-0.041322038 0.030915156 -0.041322038 0.0041657686 0.051661775 0.030915156 0.051661775 0.016135171
-0.000428468 -0.010329708 0.016470626 -0.010329708 0.029035702 -0.0046144873 0.016470626 -0.0046144873
-0.028607234 0.01777193 -0.14522997 -0.051623583 -0.14522997 -0.09357299 -0.09134911 -0.051623583
-0.09134911 0.07580106 0.013877787 0.021089181 0.062446102 0.021089181 0.0025658682 0.04125528
0.062446102 0.04125528 -0.016443647 -0.006756842 0.004273966 -0.003368467 0.004273966 0.009826124
0.0029088557 -0.003368467 0.0029088557 -0.0030692816 -0.003105993 0.006896451 0.005751744 0.006896451
0.008216192 0.00030861795 0.005751744 0.00030861795 -0.005110199 0.0029259275 4.068017e-06 0.004888758
4.068017e-06 0.001097406 0.012299776 0.004888758 0.012299776 -0.004023333 -0.0066023516 0.0054085106
-0.003116265 0.0054085106 0.0022948338 -0.015304238 -0.003116265 -0.015304238 0.0043075187 -0.007945478
0.005943805 -0.002261579 0.005943805 -0.00033916533 -0.01002714 -0.002261579 -0.01002714 0.008284643
-0.010650928 -0.0010095686 -0.00075913966 -0.0010095686 -0.0052900566 -0.009570837 -0.00075913966 -0.009570837
0.015940983 -0.012960593 0.00034458935 -0.013094723 0.00034458935 0.007626017 0.005526334 -0.013094723
0.005526334 0.005334576 -0.00032765698 -0.00096283853 -0.009365469 -0.00096283853 -0.002640213 -0.005959466
-0.009365469 -0.005959466 0.002967869 0.0034020096 -0.012382448 -0.0058075488 -0.012382448 -0.0109819025
0.0020427853 -0.0058075488 0.0020427853 0.007579893 -0.004475802 -0.006423846 -0.009115025 -0.006423846
00000000: ab4a f039 c095 2e3b 0087 12bb c095 2e3b
00000010: cb87 24bc 0016 c9ba 0087 12bb 0016 c9ba
00000020: 7505 1d3c 2cd2 f4bb b8c2 e1bc 9075 d5bc
00000030: b8c2 e1bc ad51 803c 3cab 263d 9075 d5bc
00000040: 3cab 263d 463a 06bc 4236 d3bc 90cc 7f3d
00000050: 5043 d3bc 90cc 7f3d ec13 573c b010 e93c
00000060: 5043 d3bc b010 e93c 9c58 4f3c 139f fdbc
00000070: 6872 e3bc 0089 8dbc 6872 e3bc da4c 443c
00000080: 00d0 3abc 0089 8dbc 00d0 3abc a578 9b3c
00000090: 7145 72bd 1829 ed3d 50ed a23c 1829 ed3d
000000a0: d10a 133e 5ce2 55be 50ed a23c 5ce2 55be
000000b0: e8f2 acbd 4099 82bb 0046 d5ba 0011 d7bb
000000c0: 0046 d5ba 80e4 86bb c07e 143b 0011 d7bb
000000d0: c07e 143b e0be 043c 7d47 cf3c c006 d63b
000000e0: 0060 7638 c006 d63b 9e12 32bd 80dc edbc
000000f0: 0060 7638 80dc edbc bddd 943c 3a55 58bc
00000100: 78ed bbbc 20b7 85bc 78ed bbbc eb7f a23c
00000110: 4096 d83c 20b7 85bc 4096 d83c 3455 d9bb
00000120: ca3f 60bc f8cf fb3c 80ec b43a f8cf fb3c
00000130: cc26 ca3b 40a0 413b 80ec b43a 40a0 413b
00000140: cc58 f63b 9041 84bc 106e d7bc 0065 7ebc
00000150: 106e d7bc c0d3 543b c0ac 41bc 0065 7ebc
00000160: c0ac 41bc 304e 533c 4019 debc 7865 4a3d
00000170: d0ad 3ebc 7865 4a3d 7024 90bc eac1 dbbd
00000180: d0ad 3ebc eac1 dbbd d81e 373d 808e 37bb
00000190: 0001 8aba e0ce 8bbb 0001 8aba 002c e3ba
000001a0: 80f2 c73a e0ce 8bbb 80f2 c73a 4092 943b
000001b0: 0897 873c 1c18 f33d d2bc 8e3d 1c18 f33d
000001c0: 1cf5 43bd 1461 9e3d d2bc 8e3d 1461 9e3d
000001d0: 9829 003d e067 40bc 3447 13bd 98c8 8c3c
000001e0: 3447 13bd e0e3 cbbb c857 e03c 98c8 8c3c
000001f0: c857 e03c e82c 933c 7d5b 0fbd 00fd c63c
00000200: 9051 b5bc 00fd c63c 942f 63bc 58a7 42bd
00000210: 9051 b5bc 58a7 42bd 6327 483d 284e a6bc
00000220: 4c41 29bd c841 fd3c 4c41 29bd 0081 883b
00000230: 4c9b 533d c841 fd3c 4c9b 533d e82d 843c
00000240: 00a4 e0b9 f03d 29bc 68ed 863c f03d 29bc
00000250: 48dc ed3c 2035 97bb 68ed 863c 2035 97bb
00000260: b859 eabc 7096 913c 2ab7 14be 4073 53bd
00000270: 2ab7 14be 32a3 bfbd 3e15 bbbd 4073 53bd
00000280: 3e15 bbbd 963d 9b3d a85f 633c 38c3 ac3c
00000290: 7cc7 7f3d 38c3 ac3c 2028 283b 4cfb 283d
000002a0: 7cc7 7f3d 4cfb 283d d4b4 86bc 8068 ddbb
000002b0: a00c 8c3b 80c1 5cbb a00c 8c3b c0fd 203c
000002c0: 80a2 3e3b 80c1 5cbb 80a2 3e3b 0026 49bb
000002d0: ea8d 4bbb a0fb e13b 2079 bc3b a0fb e13b
000002e0: 359d 063c 00ce a139 2079 bc3b 00ce a139
000002f0: 7573 a7bb ebc0 3f3b 0080 8836 e031 a03b
00000300: 0080 8836 d6d6 8f3a 0085 493c e031 a03b
00000310: 0085 493c 2ad6 83bb 8a58 d8bb e039 b13b
00000320: 403a 4cbb e039 b13b ec64 163b a0be 7abc
00000330: 403a 4cbb a0be 7abc 1626 8d3b c02d 02bc
00000340: 40c4 c23b 0037 14bb 40c4 c23b 00d2 b1b9
00000350: e048 24bc 0037 14bb e048 24bc 50bc 073c
00000360: 3b81 2ebc 8053 84ba 0001 47ba 8053 84ba
00000370: 3658 adbb 00cf 1cbc 0001 47ba 00cf 1cbc
00000380: aa96 823c ab58 54bc 00aa b439 408b 56bc
00000390: 00aa b439 abe3 f93b 4016 b53b 408b 56bc
000003a0: 4016 b53b abcd ae3b 60c9 abb9 0067 7cba
000003b0: a071 19bc 0067 7cba 6c07 2dbb a047 c3bb
000003c0: a071 19bc a047 c3bb 9480 423b 40f4 5e3b
000003d0: c0df 4abc 404d bebb c0df 4abc 70ed 33bc
000003e0: 40e0 053b 404d bebb 40e0 053b c060 f83b
000003f0: c0a9 92bb 207f d2bb 3057 15bc 207f d2bb

hfvrA f4 [156, 1]
1.2841296 1.190869 1.1819674 1.1389486 0.9646364 0.1460023 1.1895113 1.1810842
1.1910471 1.1750745 1.0036137 0.1632514 0.63549995 1.1905535 0.98807216 0.90961677
1.1748712 1.4261725 1.1790127 0.32660013 0.33440447 0.37573415 0.3450461 0.32936275
0.33656573 0.421865 0.17897987 0.18458349 0.1879046 0.6215447 1.1353476 0.96485627
0.9146959 1.2132747 1.3774668 1.1257282 0.37976247 0.31287694 0.2728846 0.32511127
0.36524612 0.32261306 0.3776918 0.22211313 0.19242913 0.27966845 0.6447772 1.1411967
0.993832 0.9022292 1.1753578 1.3964343 1.1660926 0.313886 0.3390541 0.33549935
0.34330487 0.33764273 0.34847045 0.409069 0.19517303 0.20035243 0.20048302 0.64082265
1.170663 0.97536224 0.9037079 1.1782383 1.4125971 1.1679862 0.32193643 0.34363002
0.32922453 0.34396905 0.3267311 0.35312468 0.35215527 0.1900065 0.19168729 0.19061661
1.1935555 1.1506963 1.2412722 1.1779244 0.8711071 0.12344265 1.2051685 1.1581004
1.2288772 1.2123938 0.9709954 0.14318031 1.1952462 1.2123418 1.1424954 1.1773114
0.8475492 0.17317033 1.1930954 1.2113557 1.1666992 1.1876217 0.85568875 0.14509141
1.1666937 1.1678798 1.2528621 1.1955951 0.86724013 0.14584893 1.1929375 1.2014287
1.1687863 1.1957872 0.8595731 0.14761537 1.1994604 0.8498362 1.4074968 0.3636039
0.32726926 0.33095878 0.34984142 0.34830618 0.16620272 0.20419651 1.1344819 0.8846983
1.4326205 0.29613328 0.33250052 0.35227746 0.45446163 0.34282464 0.22014952 0.20950258
1.1477704 0.8312655 1.4371318 0.35219556 0.32525533 0.3470856 0.33455235 0.35630763
0.18776351 0.23896837 1.1471629 0.87733525 1.4327801 0.3314556 0.3448907 0.34127957
0.41618222 0.36817014 0.2020027 0.2024858
00000000: 5c5e a43f 656e 983f b54a 973f 11c9 913f
00000010: 69f2 763f a081 153e e841 983f c42d 973f
00000020: 3b74 983f d768 963f 6a76 803f 602b 273e
00000030: 20b0 223f 0f64 983f 4cf2 7c3f a5dc 683f
00000040: 2e62 963f d28c b63f e3e9 963f 2238 a73e
00000050: 1037 ab3e 3a60 c03e e2a9 b03e 3ca2 a83e
00000060: 5852 ac3e b0fe d73e 8046 373e 7403 3d3e
00000070: 106a 403e 8e1d 1f3f 1253 913f d200 773f
00000080: 8329 6a3f 964c 9b3f d550 b03f dd17 903f
00000090: 3a70 c23e 6831 a03e 88b7 8b3e fc74 a63e
000000a0: 8a01 bb3e 8a2d a53e d260 c13e a071 633e
000000b0: 240c 453e b430 8f3e 1e10 253f bc12 923f
000000c0: c66b 7e3f 7ef8 663f 2072 963f 5cbe b23f
000000d0: 8642 953f aab5 a03e 8098 ad3e 92c6 ab3e
000000e0: a8c5 af3e 82df ac3e b86a b23e 7e71 d13e
000000f0: 70db 473e 3029 4d3e 6c4b 4d3e f40c 243f
00000100: 49d8 953f 57b1 793f 6759 673f 83d0 963f
00000110: fbcf b43f 9280 953f dad4 a43e 46f0 af3e
00000120: 1e90 a83e b61c b03e 4c49 a73e c2cc b43e
00000130: b24d b43e 1091 423e ac49 443e 0031 433e
00000140: 6dc6 983f 044a 933f 02e2 9e3f 3ac6 963f
00000150: e000 5f3f 80cf fc3d f642 9a3f a23c 943f
00000160: d94b 9d3f b82f 9b3f 2893 783f dc9d 123e
00000170: d4fd 983f 042e 9b3f 4a3d 923f 24b2 963f
00000180: fcf8 583f 9053 313e 5ab7 983f b40d 9b3f
00000190: 6656 953f fd03 983f 6b0e 5b3f d892 143e
000001a0: 3856 953f 167d 953f c95d a03f 4309 993f
000001b0: 7303 5e3f 6c59 153e 2db2 983f 6ac8 993f
000001c0: ca9a 953f 8e0f 993f fc0c 5c3f 7c28 173e
000001d0: eb87 993f dd8e 593f db28 b43f 4a2a ba3e
000001e0: d68f a73e 6e73 a93e 6a1e b33e 3055 b23e
000001f0: 0c31 2a3e e418 513e b436 913f 967b 623f
00000200: 1c60 b73f c89e 973e 823d aa3e b65d b43e
00000210: 32af e83e b686 af3e e06e 613e d887 563e
00000220: 24ea 923f d1cd 543f eff3 b73f fa52 b43e
00000230: de87 a63e 34b5 b13e 724a ab3e f46d b63e
00000240: 1445 403e 20b4 743e 3cd6 923f 0b99 603f
00000250: 5765 b73f 8cb4 a93e 8495 b03e 32bc ae3e
00000260: d615 d53e cc80 bc3e ccd9 4e3e 7058 4f3e

vwA f4 [156, 1]
0.4004701 0.39993578 0.4027898 0.39860642 0.5787698 0.33481944 0.4002277 0.40125015
0.40092137 0.39970863 0.57916087 0.3477848 0.4739343 0.52713966 0.5115467 0.5050138
0.4518511 0.47229952 0.4028725 0.383162 0.3839095 0.39921984 0.3850447 0.38290197
0.3810813 0.40059495 0.34453487 0.35058346 0.35270578 0.4697414 0.5227621 0.5083756
0.50626916 0.45596695 0.4681876 0.3965388 0.3983653 0.3741473 0.3635113 0.37847382
0.39171898 0.37596434 0.38855973 0.3638229 0.3500313 0.3787207 0.4736279 0.5230667
0.51169276 0.5033853 0.4516772 0.46821266 0.40321794 0.37848458 0.38371265 0.38364032
0.38438952 0.3834695 0.3845791 0.39413044 0.35268995 0.35420975 0.35303274 0.47424766
0.52412117 0.5099263 0.5039252 0.45189303 0.4696105 0.40168977 0.3809544 0.3851589
0.38224435 0.38491526 0.38162416 0.38623974 0.38353068 0.35037938 0.35224086 0.35163367
0.39993012 0.39948303 0.40387827 0.4012829 0.5788376 0.31699008 0.3996597 0.40021673
0.39958555 0.40021053 0.5783591 0.33287376 0.4026845 0.4022778 0.39857838 0.40070692
0.57360417 0.35814583 0.40189266 0.40302858 0.39926475 0.4008073 0.5772367 0.3389706
0.3999108 0.3999025 0.40635455 0.40225926 0.5782864 0.3363993 0.4018179 0.4022084
0.39930698 0.4011026 0.57747155 0.3399482 0.5324342 0.49656415 0.47016776 0.39375988
0.38082072 0.38274583 0.38171342 0.38117707 0.33092135 0.3522267 0.5222221 0.50001705
0.47322485 0.37031263 0.38129127 0.38888785 0.40721008 0.37994626 0.3588809 0.35588497
0.52639824 0.49314404 0.47249153 0.388888 0.38102973 0.38735962 0.37587065 0.37768254
0.34526423 0.36389178 0.52573234 0.49929652 0.47237855 0.3819822 0.38585034 0.38517535
0.39620498 0.38710827 0.35271665 0.35186654
00000000: 6b0a cd3e 62c4 cc3e 773a ce3e 2416 cc3e
00000010: 422a 143f 746d ab3e a5ea cc3e a970 cd3e
00000020: 9145 cd3e 9ca6 cc3e e343 143f d910 b23e
00000030: 84a7 f23e a0f2 063f b9f4 023f 9648 013f
00000040: 0759 e73e 3ed1 f13e 4e45 ce3e cf2d c43e
00000050: c98f c43e 8b66 cc3e 9424 c53e ba0b c43e
00000060: 171d c33e c81a cd3e e066 b03e ad7f b33e
00000070: da95 b43e f281 f03e bdd3 053f e724 023f
00000080: db9a 013f 8074 e93e 49b6 ef3e 2207 cb3e
00000090: 89f6 cb3e 3c90 bf3e 271e ba3e 52c7 c13e
000000a0: 648f c83e 667e c03e 4df1 c63e ff46 ba3e
000000b0: 4d37 b33e aee7 c13e 5b7f f23e b3e7 053f
000000c0: 4cfe 023f dcdd 003f 3c42 e73e 92b9 ef3e
000000d0: 9572 ce3e bbc8 c13e fc75 c43e 816c c43e
000000e0: b4ce c43e 1d56 c43e 8de7 c43e 77cb c93e
000000f0: c793 b43e fb5a b53e b5c0 b43e 97d0 f23e
00000100: ce2c 063f 888a 023f 3e01 013f 865e e73e
00000110: ca70 f03e 48aa cd3e 750c c33e 8c33 c53e
00000120: 88b5 c33e 9d13 c53e 3e64 c33e 37c1 c53e
00000130: 225e c43e ed64 b33e ea58 b43e 5409 b43e
00000140: a4c3 cc3e 0a89 cc3e 22c9 ce3e f474 cd3e
00000150: b32e 143f 864c a23e 32a0 cc3e 35e9 cc3e
00000160: 7a96 cc3e 65e8 cc3e 580f 143f 6e6e aa3e
00000170: aa2c ce3e 5bf7 cd3e 7712 cc3e 7529 cd3e
00000180: b9d7 123f e45e b73e e0c4 cd3e c359 ce3e
00000190: 6e6c cc3e 9d36 cd3e c9c5 133f 8e8d ad3e
000001a0: 1cc1 cc3e 05c0 cc3e b40d d03e edf4 cd3e
000001b0: 940a 143f 873c ac3e 13bb cd3e 42ee cd3e
000001c0: f771 cc3e 525d cd3e 2dd5 133f b10d ae3e
000001d0: 9c4d 083f a83d fe3e d4b9 f03e e59a c93e
000001e0: effa c23e 43f7 c33e f16f c33e a429 c33e
000001f0: 866e a93e 0f57 b43e 59b0 053f 1e01 003f
00000200: 874a f23e 9e99 bd3e 9c38 c33e 4f1c c73e
00000210: d77d d03e 5188 c23e 3dbf b73e 8e36 b63e
00000220: 09c2 063f 607d fc3e 69ea f13e 541c c73e
00000230: 5416 c33e 0054 c63e 1e72 c03e 9b5f c13e
00000240: 79c6 b03e 0650 ba3e 6596 063f cba3 ff3e
00000250: 9adb f13e 2c93 c33e 2d8e c53e b435 c53e
00000260: 61db ca3e 0e33 c63e 4797 b43e da27 b43e

alpha_0_A f4 [2496]
5.2003264 5.2003264 5.2003264 5.2003264 19.496094 4.49916 5.2003264 5.2003264
5.2003264 5.2003264 19.496094 4.49916 11.699381 11.699381 11.699381 11.699381
7.2505245 7.2505245 5.2003264 4.49916 4.49916 4.49916 4.49916 4.49916
4.49916 4.49916 4.49916 4.49916 4.49916 11.699381 11.699381 11.699381
11.699381 7.2505245 7.2505245 5.2003264 4.49916 4.49916 4.49916 4.49916
4.49916 4.49916 4.49916 4.49916 4.49916 4.49916 11.699381 11.699381
11.699381 11.699381 7.2505245 7.2505245 5.2003264 4.49916 4.49916 4.49916
4.49916 4.49916 4.49916 4.49916 4.49916 4.49916 4.49916 11.699381
11.699381 11.699381 11.699381 7.2505245 7.2505245 5.2003264 4.49916 4.49916
4.49916 4.49916 4.49916 4.49916 4.49916 4.49916 4.49916 4.49916
5.2003264 5.2003264 5.2003264 5.2003264 19.496094 4.49916 5.2003264 5.2003264
5.2003264 5.2003264 19.496094 4.49916 5.2003264 5.2003264 5.2003264 5.2003264
19.496094 4.49916 5.2003264 5.2003264 5.2003264 5.2003264 19.496094 4.49916
5.2003264 5.2003264 5.2003264 5.2003264 19.496094 4.49916 5.2003264 5.2003264
5.2003264 5.2003264 19.496094 4.49916 11.699381 11.699381 7.2505245 4.49916
4.49916 4.49916 4.49916 4.49916 4.49916 4.49916 11.699381 11.699381
7.2505245 4.49916 4.49916 4.49916 4.49916 4.49916 4.49916 4.49916
11.699381 11.699381 7.2505245 4.49916 4.49916 4.49916 4.49916 4.49916
4.49916 4.49916 11.699381 11.699381 7.2505245 4.49916 4.49916 4.49916
4.49916 4.49916 4.49916 4.49916 5.2003264 5.2003264 5.2003264 5.2003264
19.496094 4.49916 5.2003264 5.2003264 5.2003264 5.2003264 19.496094 4.49916
11.699381 11.699381 11.699381 11.699381 7.2505245 7.2505245 5.2003264 4.49916
4.49916 4.49916 4.49916 4.49916 4.49916 4.49916 4.49916 4.49916
4.49916 11.699381 11.699381 11.699381 11.699381 7.2505245 7.2505245 5.2003264
4.49916 4.49916 4.49916 4.49916 4.49916 4.49916 4.49916 4.49916
4.49916 4.49916 11.699381 11.699381 11.699381 11.699381 7.2505245 7.2505245
5.2003264 4.49916 4.49916 4.49916 4.49916 4.49916 4.49916 4.49916
4.49916 4.49916 4.49916 11.699381 11.699381 11.699381 11.699381 7.2505245
7.2505245 5.2003264 4.49916 4.49916 4.49916 4.49916 4.49916 4.49916
4.49916 4.49916 4.49916 4.49916 5.2003264 5.2003264 5.2003264 5.2003264
19.496094 4.49916 5.2003264 5.2003264 5.2003264 5.2003264 19.496094 4.49916
5.2003264 5.2003264 5.2003264 5.2003264 19.496094 4.49916 5.2003264 5.2003264
00000000: 1369 a640 1369 a640 1369 a640 1369 a640
00000010: 00f8 9b41 1ef9 8f40 1369 a640 1369 a640
00000020: 1369 a640 1369 a640 00f8 9b41 1ef9 8f40
00000030: aa30 3b41 aa30 3b41 aa30 3b41 aa30 3b41
00000040: 4c04 e840 4c04 e840 1369 a640 1ef9 8f40
00000050: 1ef9 8f40 1ef9 8f40 1ef9 8f40 1ef9 8f40
00000060: 1ef9 8f40 1ef9 8f40 1ef9 8f40 1ef9 8f40
00000070: 1ef9 8f40 aa30 3b41 aa30 3b41 aa30 3b41
00000080: aa30 3b41 4c04 e840 4c04 e840 1369 a640
00000090: 1ef9 8f40 1ef9 8f40 1ef9 8f40 1ef9 8f40
000000a0: 1ef9 8f40 1ef9 8f40 1ef9 8f40 1ef9 8f40
000000b0: 1ef9 8f40 1ef9 8f40 aa30 3b41 aa30 3b41
000000c0: aa30 3b41 aa30 3b41 4c04 e840 4c04 e840
000000d0: 1369 a640 1ef9 8f40 1ef9 8f40 1ef9 8f40
000000e0: 1ef9 8f40 1ef9 8f40 1ef9 8f40 1ef9 8f40
000000f0: 1ef9 8f40 1ef9 8f40 1ef9 8f40 aa30 3b41
00000100: aa30 3b41 aa30 3b41 aa30 3b41 4c04 e840
00000110: 4c04 e840 1369 a640 1ef9 8f40 1ef9 8f40
00000120: 1ef9 8f40 1ef9 8f40 1ef9 8f40 1ef9 8f40
00000130: 1ef9 8f40 1ef9 8f40 1ef9 8f40 1ef9 8f40
00000140: 1369 a640 1369 a640 1369 a640 1369 a640
00000150: 00f8 9b41 1ef9 8f40 1369 a640 1369 a640
00000160: 1369 a640 1369 a640 00f8 9b41 1ef9 8f40
00000170: 1369 a640 1369 a640 1369 a640 1369 a640
00000180: 00f8 9b41 1ef9 8f40 1369 a640 1369 a640
00000190: 1369 a640 1369 a640 00f8 9b41 1ef9 8f40
000001a0: 1369 a640 1369 a640 1369 a640 1369 a640
000001b0: 00f8 9b41 1ef9 8f40 1369 a640 1369 a640
000001c0: 1369 a640 1369 a640 00f8 9b41 1ef9 8f40
000001d0: aa30 3b41 aa30 3b41 4c04 e840 1ef9 8f40
000001e0: 1ef9 8f40 1ef9 8f40 1ef9 8f40 1ef9 8f40
000001f0: 1ef9 8f40 1ef9 8f40 aa30 3b41 aa30 3b41
00000200: 4c04 e840 1ef9 8f40 1ef9 8f40 1ef9 8f40
00000210: 1ef9 8f40 1ef9 8f40 1ef9 8f40 1ef9 8f40
00000220: aa30 3b41 aa30 3b41 4c04 e840 1ef9 8f40
00000230: 1ef9 8f40 1ef9 8f40 1ef9 8f40 1ef9 8f40
00000240: 1ef9 8f40 1ef9 8f40 aa30 3b41 aa30 3b41
00000250: 4c04 e840 1ef9 8f40 1ef9 8f40 1ef9 8f40
00000260: 1ef9 8f40 1ef9 8f40 1ef9 8f40 1ef9 8f40
00000270: 1369 a640 1369 a640 1369 a640 1369 a640
00000280: 00f8 9b41 1ef9 8f40 1369 a640 1369 a640
00000290: 1369 a640 1369 a640 00f8 9b41 1ef9 8f40
000002a0: aa30 3b41 aa30 3b41 aa30 3b41 aa30 3b41
000002b0: 4c04 e840 4c04 e840 1369 a640 1ef9 8f40
000002c0: 1ef9 8f40 1ef9 8f40 1ef9 8f40 1ef9 8f40
000002d0: 1ef9 8f40 1ef9 8f40 1ef9 8f40 1ef9 8f40
000002e0: 1ef9 8f40 aa30 3b41 aa30 3b41 aa30 3b41
000002f0: aa30 3b41 4c04 e840 4c04 e840 1369 a640
00000300: 1ef9 8f40 1ef9 8f40 1ef9 8f40 1ef9 8f40
00000310: 1ef9 8f40 1ef9 8f40 1ef9 8f40 1ef9 8f40
00000320: 1ef9 8f40 1ef9 8f40 aa30 3b41 aa30 3b41
00000330: aa30 3b41 aa30 3b41 4c04 e840 4c04 e840
00000340: 1369 a640 1ef9 8f40 1ef9 8f40 1ef9 8f40
00000350: 1ef9 8f40 1ef9 8f40 1ef9 8f40 1ef9 8f40
00000360: 1ef9 8f40 1ef9 8f40 1ef9 8f40 aa30 3b41
00000370: aa30 3b41 aa30 3b41 aa30 3b41 4c04 e840
00000380: 4c04 e840 1369 a640 1ef9 8f40 1ef9 8f40
00000390: 1ef9 8f40 1ef9 8f40 1ef9 8f40 1ef9 8f40
000003a0: 1ef9 8f40 1ef9 8f40 1ef9 8f40 1ef9 8f40
000003b0: 1369 a640 1369 a640 1369 a640 1369 a640
000003c0: 00f8 9b41 1ef9 8f40 1369 a640 1369 a640
000003d0: 1369 a640 1369 a640 00f8 9b41 1ef9 8f40
000003e0: 1369 a640 1369 a640 1369 a640 1369 a640
000003f0: 00f8 9b41 1ef9 8f40 1369 a640 1369 a640

hlistA f4 [156, 4, 8]
0.0068835705 -0.049747508 0.13818692 0.13220993 0.21785524 -0.51369685 -0.23420969 0.16358294
0.046182275 -0.009316852 -0.043146994 0.07380667 -0.065867886 -0.009600393 -0.04345896 0.014447786
0.019357413 -0.08500483 -0.09331806 0.062490653 0.08698523 -0.42534173 -0.26080707 0.16451252
-0.17694008 -0.31891623 -0.079454064 4.7205524 -0.12930915 0.2497823 -0.16268972 12.779454
0.0068835705 -0.049747508 0.13818692 0.13220993 0.21785524 -0.51369685 -0.23420969 0.16358294
-0.22153562 0.31398118 -0.08938022 -0.14958961 -0.14074302 0.24881425 0.25122204 -0.24391653
0.3392785 0.33520326 -0.21791025 0.2651935 0.17672075 -0.37336022 -0.4862891 0.105779976
-0.24364588 -0.4085739 -0.077365324 6.5806975 -0.14734045 0.31325594 -0.20465182 17.274479
0.0068835705 -0.049747508 0.13818692 0.13220993 0.21785524 -0.51369685 -0.23420969 0.16358294
0.0639577 -0.008232795 -0.040673066 0.032808844 -0.06891612 -0.010918191 -0.04371479 0.03192765
-0.0017008632 0.06992226 -0.048694775 0.16408555 -0.04017906 -0.758423 -0.44096008 0.15049495
-0.32314628 -0.56038684 -0.14863072 8.989771 -0.28690013 0.4670812 -0.31824213 24.867533
0.0068835705 -0.049747508 0.13818692 0.13220993 0.21785524 -0.51369685 -0.23420969 0.16358294
0.04698883 -0.031202147 -0.03135501 -0.0058109313 -0.07696369 -0.008143954 -0.036349777 -0.0032262988
0.033385813 -0.038610935 -0.04896742 0.078994066 -0.008285522 -0.5273442 -0.3127202 0.13210687
-0.35434327 -0.668935 -0.2569399 10.144427 -0.47028282 0.61260504 -0.43207595 30.282742
0.15906984 -0.19087677 -0.016801996 -0.04473254 -0.0320124 -0.18350585 0.0833331 -0.020521495
0.58871484 -0.13726778 0.3683996 -2.230923 0.04037167 0.097553514 0.26274797 0.07823618
0.081655025 -0.35352677 -0.08158618 0.15338908 -0.1356293 1.9449143 -0.64759743 -0.029739417
-2.5657816 -5.6491036 -3.4815593 80.393105 -6.3410225 6.208248 -4.662654 279.15494
-0.06233268 -0.030108783 0.048307434 0.0558322 -0.09646012 0.12048854 -0.16117546 -0.11751986
0.08231346 0.09639912 0.28362414 0.08797227 0.29559502 -0.037507586 -0.34750074 -0.30717343
0.49688718 0.49636474 1.1733657 -1.2770436 -0.41003042 0.72423273 0.27553338 1.765093
-0.010589782 -0.09551318 -0.08496556 0.08252482 -0.08482725 0.091812946 -0.05830583 1.5789702
0.0068835705 -0.049747508 0.13818692 0.13220993 0.21785524 -0.51369685 -0.23420969 0.16358294
0.056424566 0.004101832 -0.044716682 0.09296006 -0.057012383 -0.009260441 -0.04205603 0.029719379
0.040741786 -0.07890701 -0.03271188 0.0819733 0.014831245 -0.5216374 -0.27573308 0.12905553
-0.28154686 -0.52141404 -0.17772351 7.902134 -0.3201431 0.4569538 -0.31602976 22.906773
0.0068835705 -0.049747508 0.13818692 0.13220993 0.21785524 -0.51369685 -0.23420969 0.16358294
-0.21301499 0.307806 -0.09596716 -0.14330804 -0.12956265 0.24134812 0.23042291 -0.23231949
0.34650144 0.35563174 -0.068626076 0.37380835 0.026700944 -0.35634357 -0.3466776 0.08244181
-0.25975937 -0.4345093 -0.083878286 7.048317 -0.16293004 0.33602697 -0.2208376 18.573034
00000000: 938f e13b 0bc4 4bbd df80 0d3e 0a62 073e
00000010: 7215 5f3e a381 03bf aad4 6fbe 4982 273e
00000020: a029 3d3d b6a5 18bc e7ba 30bd f427 973d
00000030: bee5 86bd f74a 1dbc 0602 32bd 68b6 6c3c
00000040: 7093 9e3c 0317 aebd 8a1d bfbd 33f6 7f3d
00000050: 5025 b23d 64c6 d9be 8188 85be f875 283e
00000060: c82f 35be fd48 a3be d0b8 a2bd c40e 9740
00000070: 9e69 04be eec6 7f3e 2298 26be a578 4c41
00000080: 938f e13b 0bc4 4bbd df80 0d3e 0a62 073e
00000090: 7215 5f3e a381 03bf aad4 6fbe 4982 273e
000000a0: 3cda 62be 24c2 a03e fa0c b7bd 052e 19be
000000b0: f01e 10be 2ac9 7e3e 2da0 803e 41c5 79be
000000c0: e9b5 ad3e c39f ab3e dd23 5fbe 71c7 873e
000000d0: 49f6 343e 1229 bfbe e3fa f8be 2ca3 d83d
000000e0: 4e7e 79be 9930 d1be b671 9ebd 1395 d240
000000f0: 6ae0 16be 1563 a03e 3f90 51be 2232 8a41
00000100: 938f e13b 0bc4 4bbd df80 0d3e 0a62 073e
00000110: 7215 5f3e a381 03bf aad4 6fbe 4982 273e
00000120: 41fc 823d d8e2 06bc cd98 26bd 9162 063d
00000130: e523 8dbd 36e2 32bc 480e 33bd 91c6 023d
00000140: 80ef deba 6733 8f3d 2c74 47bd 0b06 283e
00000150: cc92 24bd 0228 42bf 85c5 e1be 591b 1a3e
00000160: 6e73 a5be 8375 0fbf a732 18be 1ad6 0f41
00000170: 93e4 92be 4425 ef3e a2f0 a2be b5f0 c641
00000180: 938f e13b 0bc4 4bbd df80 0d3e 0a62 073e
00000190: 7215 5f3e a381 03bf aad4 6fbe 4982 273e
000001a0: 5c77 403d a59b ffbc 1c6e 00bd a069 bebb
000001b0: 249f 9dbd 386e 05bc 81e3 14bd 5070 53bb
000001c0: 90bf 083d 8026 1ebd 1092 48bd a4c7 a13d
000001d0: 00c0 07bc 0800 07bf dd1c a0be 0647 073e
000001e0: 7b6c b5be 533f 2bbf a08d 83be 934f 2241
000001f0: e9c8 f0be afd3 1c3f 0f39 ddbe 0e43 f241
00000200: 34e3 223e 3375 43be 57a4 89bc 7839 37bd
00000210: 6f1f 03bd f5e8 3bbe 8baa aa3d b21c a8bc
00000220: 04b6 163f ed8f 0cbe df9e bc3e 71c7 0ec0
00000230: c45c 253d 23ca c73d e786 863e 4a3a a03d
00000240: c03a a73d 7601 b5be a816 a7bd 0712 1d3e
00000250: 68e2 0abe f4f2 f83f f2c8 25bf 14a0 f3bc
00000260: c435 24c0 75c5 b4c0 ded1 5ec0 45c9 a042
00000270: a8e9 cac0 f8a9 c640 7634 95c0 d593 8b43
00000280: 8d50 7fbd b2a6 f6bc 04de 453d 4eb0 643d
00000290: e28c c5bd b2c2 f63d 2e0b 25be 41ae f0bd
000002a0: f693 a83d e76c c53d 2f37 913e ce2a b43d
000002b0: 3b58 973e 8ea1 19bd 9eeb b1be d645 9dbe
000002c0: ff67 fe3e 8523 fe3e d930 963f 2a76 a3bf
000002d0: 82ef d1be 5167 393f b612 8d3e 91ee e13f
000002e0: c480 2dbc 6a9c c3bd 6c02 aebd c602 a93d
000002f0: e9b9 adbd 6d08 bc3d 18d2 6ebd b21b ca3f
00000300: 938f e13b 0bc4 4bbd df80 0d3e 0a62 073e
00000310: 7215 5f3e a381 03bf aad4 6fbe 4982 273e
00000320: 721d 673d a968 863b d728 37bd d861 be3d
00000330: d185 69bd 1bb9 17bc f242 2cbd 0e76 f33c
00000340: dce0 263d 009a a1bd e4fc 05bd 9ee1 a73d
00000350: c0fe 723c 078a 05bf e32c 8dbe 2227 043e
00000360: e926 90be 647b 05bf 27fd 35be 48de fc40
00000370: cce9 a3be d9f5 e93e a7ce a1be 1241 b741
00000380: 938f e13b 0bc4 4bbd df80 0d3e 0a62 073e
00000390: 7215 5f3e a381 03bf aad4 6fbe 4982 273e
000003a0: 9a20 5abe bf98 9d3e 6e8a c4bd 58bf 12be
000003b0: 12ac 04be f623 773e fcf3 6b3e 29e5 6dbe
000003c0: a368 b13e 5d15 b63e d48b 8cbd cf63 bf3e
000003d0: f0bb da3c aa72 b6be ba7f b1be 40d7 a83d
000003e0: 2eff 84be 0178 debe 61c8 abbd d08b e140
000003f0: 22d7 26be ba0b ac3e 4023 62be 9395 9441
