tests/test_data_path/og_processed/dimer_ap3_train_spec_7_541.pt (torch, 245458 bytes, 17 tensors)

y f4 [16, 4]
000000 01 66 57 bd 0b 99 28 3a 7c cb dd bb d4 55 e9 bd
       -0.052587513 0.00064314966 -0.006768642 -0.113933235
000010 e4 38 9b bd a5 20 0b 3b ff bf 70 bd 83 86 4d be
       -0.075792104 0.0021229174 -0.05877685 -0.20070843
000020 dc 7b 44 bf 34 97 b8 3d 28 77 c4 bd 7d 88 3d bf
       -0.76751494 0.09013215 -0.0959304 -0.7403639
000030 72 19 39 3e aa 90 bd 3a ac af 84 bd 0a a4 4d be
       0.18076113 0.0014462669 -0.06478819 -0.20082107
000040 23 28 08 c0 e4 35 01 3f ff 80 af be df 56 7a bf
       -2.1274498 0.50472856 -0.34278104 -0.97788805
000050 61 74 10 be c5 53 7d 3b a8 81 24 bd c5 05 cf be
       -0.14106895 0.0038654667 -0.040162712 -0.4043409
000060 37 11 9b bf f6 97 8b 3d 6a 36 e4 bd 32 a5 42 bf
       -1.2114629 0.068160936 -0.11143191 -0.7603332
000070 77 12 58 c0 91 3e 04 41 ec fe 00 c0 be 57 9f c0
       -3.376127 8.265275 -2.0155592 -4.9794607
000080 41 4d 18 be 3f 90 bf 3f 26 63 2f bf 34 5e 0e c0
       -0.1487322 1.4965895 -0.68510664 -2.2244997
000090 8f 42 06 3f f0 8d eb 3e 86 0f ca be 70 b1 89 bf
       0.5244531 0.46006727 -0.39464968 -1.0757275
0000a0 37 ce 69 bf f6 cf b7 3f 8b 86 39 be bc cd e9 bf
       -0.91330284 1.436034 -0.1811773 -1.826591
0000b0 70 09 88 3f 52 f5 5b 3c 3a 69 53 bd 6a 77 a3 be
       1.062788 0.013425188 -0.051614024 -0.31927043
0000c0 3b d8 a1 bd b5 8e 3a 3d 6a e9 7c bc a8 ad 05 bf
       -0.07902571 0.045546252 -0.01543651 -0.52218103
0000d0 41 ab 1a c1 f4 fd 1a 41 5c e2 54 c0 fb 80 7b c0
       -9.66681 9.687 -3.3263159 -3.9297473
0000e0 19 96 28 bf 64 50 81 3d f6 27 57 be 8b cd 2a bf
       -0.6585403 0.063141614 -0.21011338 -0.66719884
0000f0 23 f6 27 be c2 41 3f 3d 01 9c 1a bd a4 d3 be be
       -0.16402487 0.04669357 -0.037746433 -0.37270844

RA f4 [192, 3]
000000 ac 3b b6 3d d4 bb 58 bf cc 96 30 3f f9 4c 76 3e
       0.088981 -0.846616 0.689801 0.240528
000010 63 27 a4 3e 8f c3 90 be 69 8b 27 bf 2c 2b 5d 3f
       0.320613 -0.282742 -0.654471 0.86394
000020 5d fb 52 bf 39 98 c9 3f bf b5 4f 3f aa d2 a6 be
       -0.824148 1.574958 0.811367 -0.325826
000030 09 df b7 bf c3 29 a1 bf 74 40 32 3f 7e 74 02 3f
       -1.436494 -1.259087 0.696296 0.50959
000040 d3 bc 23 bf 20 ed d7 3f 91 63 e3 3f ff ce cc 3f
       -0.6396 1.686924 1.776476 1.600067
000050 02 bc 81 bf 92 22 17 40 2b fc 89 3e 10 76 0a 3d
       -1.01355 2.361485 0.269502 0.033804
000060 94 87 2d 3f 6e a3 db bf fc 8b 98 3e c6 8b b9 bf
       0.67785 -1.715925 0.297943 -1.449578
000070 1b 64 0c c0 6c 3d a9 3f 15 36 fb bf 95 ee de be
       -2.19361 1.322187 -1.962588 -0.435414
000080 b7 7c 90 3f 97 ac e6 bf 76 aa cc bf af e9 51 be
       1.128806 -1.802142 -1.598952 -0.204993
000090 96 7a f6 3d 5b 08 72 bf d0 0a 24 3f 7b 83 7f 3e
       0.120351 -0.94544 0.64079 0.249525
0000a0 d9 25 c2 3e 45 d7 85 be dd 23 27 bf ae 9d 6c 3f
       0.379195 -0.261408 -0.652891 0.924281
0000b0 a7 5d 4c bf 24 0b c4 3f 20 45 51 3f af b0 d0 be
       -0.798304 1.53159 0.817461 -0.407598
0000c0 5b 09 af bf 37 e3 a6 bf 90 f9 50 3f 90 a2 02 3f
       -1.367473 -1.303809 0.816308 0.510293
0000d0 6e 18 25 bf cb 84 d1 3f 6a a1 e6 3f 25 59 cb 3f
       -0.644904 1.636865 1.801801 1.588658
0000e0 56 f5 7e bf 10 91 15 40 c8 d2 8f 3e 31 25 12 3d
       -0.995931 2.336979 0.280905 0.03568
0000f0 e8 c1 29 3f f4 a7 d9 bf 6c 23 6e 3e 24 0c c5 bf
       0.663115 -1.700438 0.232557 -1.539433
000100 03 98 0c c0 cb bc bb 3f f9 69 02 c0 1a a3 f5 be
       -2.196778 1.466699 -2.037718 -0.47976
000110 ea 07 99 3f 87 31 e7 bf ec c0 c1 bf 14 ea 49 be
       1.195554 -1.806199 -1.5137 -0.197182
000120 3e b3 14 3e cd 8f 53 bf ff 3c 25 3f f2 07 93 3e
       0.145215 -0.826413 0.645462 0.28717
000130 05 33 b6 3e 45 48 6d be a8 ff 14 bf cb 9d 71 3f
       0.355858 -0.231721 -0.582026 0.943814
000140 a1 85 40 bf f8 fb c3 3f 33 df 4d 3f fb 76 aa be
       -0.752039 1.531127 0.804187 -0.332939
000150 d3 31 ad bf 82 c8 a0 bf a0 a6 4a 3f 21 3c 02 3f
       -1.353083 -1.256119 0.791605 0.50873
000160 84 49 21 bf 32 e5 d7 3f f6 d2 e2 3f d3 4b bc 3f
       -0.630028 1.686682 1.772063 1.471064
000170 9e b6 7a bf e7 df 15 40 1b 4c 73 3e a5 12 9e bb
       -0.979349 2.341791 0.237595 -0.004824
000180 ff e8 37 3f 2b c3 d4 bf 50 ab 88 3e 14 b3 bc bf
       0.718399 -1.662206 0.266932 -1.474215
000190 b2 66 0b c0 1a 16 b3 3f f8 a4 f3 bf 99 0f d8 be
       -2.178143 1.399112 -1.903472 -0.421994
0001a0 dd 5d 99 3f 80 60 e6 bf c5 3b c8 bf 99 2c 1e be
       1.198177 -1.79982 -1.564324 -0.154467
0001b0 56 83 b0 3d 1f 12 5e bf a0 c4 27 3f 8f c5 9e 3e
       0.086188 -0.867464 0.655344 0.310101
0001c0 7b bd bb 3e 85 96 45 be 6e a5 1f bf bd fc 72 3f
       0.36668 -0.192957 -0.623618 0.949169
0001d0 75 cb 4e bf c8 ed c9 3f a4 fe 4e 3f b2 bb a8 be
       -0.807792 1.577569 0.808573 -0.329557
0001e0 67 b9 b4 bf e0 a0 9d bf 9e 0b 43 3f 93 c7 03 3f
       -1.411908 -1.231472 0.761896 0.514764
0001f0 9e 7a 24 bf 67 f3 d2 3f c1 a7 e1 3f a8 1b c8 3f
       -0.642496 1.648053 1.762932 1.563344
000200 fa b6 78 bf 5b 5e 18 40 d2 e2 5c 3e c5 04 35 3d
       -0.971542 2.380759 0.215709 0.044194
000210 37 8e 2c 3f 50 51 d9 bf 7a 39 6c 3e 56 b7 bc bf
       0.674045 -1.697794 0.230688 -1.474345
000220 38 2e 0b c0 09 e1 b3 3f d1 06 fc bf 71 e5 ec be
       -2.174696 1.405305 -1.968958 -0.462688
000230 73 d7 9a 3f 5d c5 ea bf 88 12 c3 bf 74 b7 7b be
       1.2097 -1.834148 -1.524003 -0.245817
000240 d6 6e 0b 3e 8f 00 62 bf 02 d3 19 3f 77 9e 78 3e
       0.136165 -0.882821 0.600876 0.242792
000250 3b 8c a1 3e 9e 99 98 be e4 a3 21 bf bd ac 6d 3f
       0.315523 -0.298047 -0.631407 0.928417
000260 1a db 4f bf 47 c8 cc 3f 65 8c 4b 3f 43 c7 a6 be
       -0.811937 1.599862 0.795111 -0.325739
000270 60 e9 ac bf 86 cb 9e bf cd e6 45 3f cc 0d 0a 3f
       -1.350872 -1.240586 0.773053 0.539273
000280 52 7d 23 bf 48 18 ca 3f df 52 e2 3f 11 1c c7 3f
       -0.638631 1.578866 1.768154 1.555544
000290 b4 02 7b bf b3 60 18 40 c1 72 8c 3e f4 f9 28 3d
       -0.98051 2.380902 0.274313 0.041254
0002a0 0b 27 35 3f 4f 78 d7 bf d6 37 70 3e 36 e5 c4 bf
       0.707627 -1.683359 0.234588 -1.538245
0002b0 ed 9f 0e c0 f8 e0 b3 3f cc 7b f8 bf ef 00 03 bf
       -2.228511 1.405303 -1.941278 -0.511733
0002c0 39 62 97 3f 88 9c de bf 8c f3 b9 bf a9 f6 59 be
       1.182685 -1.739152 -1.452745 -0.212855
0002d0 b7 ec 90 3d 07 b5 53 bf d4 47 1c 3f ae ef 8b 3e
       0.070764 -0.826981 0.610471 0.273313
0002e0 8a e5 9e 3e 09 8d 20 be d8 80 1c bf c7 66 73 3f
       0.310345 -0.156788 -0.611341 0.950787
0002f0 45 da 46 bf 61 de c5 3f 0e bf 47 3f 21 5b c6 be
       -0.776768 1.545849 0.780259 -0.387414
000300 5d 31 a9 bf e7 c8 a8 bf cf da 35 3f b7 ee 0e 3f
       -1.321819 -1.318631 0.71037 0.55833
000310 8d b3 25 bf b1 c2 d3 3f a2 46 e7 3f c2 de c8 3f
       -0.647271 1.654379 1.806843 1.569298
000320 10 41 81 bf 9a 06 16 40 66 83 9c 3e 6c 7c 86 3d
       -1.009798 2.344153 0.30569 0.065667
000330 7c 7e 28 3f fb 95 d8 bf 72 dd 8c 3e 01 da bc bf
       0.65818 -1.692077 0.275127 -1.475403
000340 50 56 0d c0 3e 78 b1 3f d4 b7 fc bf 72 c1 e9 be
       -2.208393 1.386482 -1.97436 -0.456554
000350 51 14 96 3f 77 a0 e2 bf 3c 9f c5 bf 6c 3e 7e be
       1.172495 -1.770522 -1.543922 -0.248285
000360 34 bf da 3d 88 83 68 bf 94 a2 29 3f b4 94 ac 3e
       0.10681 -0.908257 0.662637 0.337072
000370 79 3b ba 3e 4a 79 3d be b9 1b 14 bf 77 68 64 3f
       0.363735 -0.185033 -0.578548 0.892219
000380 b0 8e 5f bf 6d 8c c9 3f 61 1c 50 3f 0f 29 ae be
       -0.873271 1.574598 0.812933 -0.340157
000390 0d c6 ae bf eb 57 a6 bf fa 29 42 3f 99 b8 fd 3e
       -1.365419 -1.299558 0.758453 0.495549
0003a0 40 85 1f bf 5e d8 d6 3f ea e8 e0 3f 1f 4c c8 3f
       -0.623127 1.678478 1.757108 1.564823
0003b0 74 ea 72 bf 47 01 15 40 5f 28 80 3e b2 bb 00 3d
       -0.94889 2.328203 0.250308 0.031429
0003c0 d4 28 34 3f 07 78 da bf 8c 2d 84 3e 35 26 bc bf
       0.703748 -1.706788 0.25816 -1.469916
0003d0 bf ee 0b c0 11 1c b5 3f 25 3e 02 c0 ad df cc be
       -2.186447 1.414919 -2.035043 -0.400144
0003e0 8f 70 9a 3f 1c ed e8 bf 59 8a ca bf ee 04 7b be
       1.20656 -1.819736 -1.582347 -0.245136
0003f0 76 51 d4 3d d3 2d 67 bf ff 22 2c 3f 27 4f 91 3e
       0.103671 -0.903043 0.672409 0.283807

RB f4 [208, 3]
000000 74 dc 25 c1 f3 c8 d7 bf bd 71 e8 bf 97 03 14 c1
       -10.366322 -1.68582 -1.815971 -9.250876
000010 51 f8 15 c0 44 50 1c c0 5a f6 f4 c0 dc d5 c1 bf
       -2.343281 -2.442399 -7.655072 -1.514339
000020 b3 b1 29 c0 e6 f8 df c0 49 83 46 c0 3e 75 50 c0
       -2.651471 -6.999133 -3.101763 -3.257156
000030 53 e9 b2 c0 4c fb 4b c0 b4 ab 72 c0 7d 4f fd c0
       -5.590982 -3.187213 -3.79173 -7.915953
000040 c7 cc 81 c0 2c 10 4d c0 1f e7 12 c1 3a 3c 6b c0
       -4.056247 -3.204112 -9.181426 -3.675551
000050 94 dc 2b c0 57 aa 32 c1 4f 1e 14 c0 bb 5f f7 bf
       -2.685338 -11.166587 -2.31435 -1.932609
000060 c9 a0 26 c1 ef 03 4c bf 53 93 02 c0 05 0b 9c c0
       -10.414254 -0.796935 -2.040242 -4.876345
000070 72 87 39 c0 3d 7e 3c c0 f8 88 ab c0 58 d8 84 c0
       -2.898892 -2.945205 -5.36047 -4.151409
000080 fa 6e 84 c0 e7 37 ae c0 d5 94 20 c0 a5 f7 90 c0
       -4.138547 -5.444324 -2.509084 -4.53023
000090 e5 18 fa c0 19 39 a1 c0 ac c4 62 c0 62 05 c7 c0
       -7.815539 -5.03822 -3.543254 -6.219407
0000a0 d3 bd 70 40 e0 4b bd bf 6c bf bc c0 17 00 80 40
       3.761586 -1.478878 -5.898367 4.000011
0000b0 39 ef 2e c0 bc d7 8a c0 d2 70 60 40 fd db 57 c0
       -2.733351 -4.338835 3.506886 -3.372802
0000c0 94 09 98 c0 50 c3 82 40 03 17 a0 c0 a3 b1 7b c0
       -4.751169 4.086342 -5.002809 -3.932717
0000d0 6e d2 81 40 0e b1 c6 c0 c4 ed c2 c0 f4 dd 94 40
       4.056937 -6.209113 -6.091524 4.652094
0000e0 e9 1d 9d c0 36 3c d7 c0 5d f9 93 40 2f dd 64 c0
       -4.909901 -6.7261 4.62419 -3.576
0000f0 88 9c e0 c0 1c 43 89 40 da 00 92 bf 70 98 ae c0
       -7.019108 4.289442 -1.140651 -5.456108
000100 73 65 73 40 76 ff 4c bf 81 22 6f c0 88 67 3e 40
       3.803067 -0.800773 -3.736481 2.975069
000110 9d 04 d0 c0 36 94 90 c0 d2 c2 90 40 df 35 e4 c0
       -6.500563 -4.518092 4.523782 -7.131576
000120 7b 9f 3f c0 56 9d 91 40 4e d3 c2 c0 e0 a2 d4 c0
       -2.994109 4.550456 -6.088294 -6.644882
000130 e6 14 a5 40 27 e8 b4 c0 31 d2 9b 3f 2a 44 8c c0
       5.158801 -5.653339 1.217352 -4.383321
000140 b1 88 56 40 00 00 1e 40 ad 7a 9c c0 f2 95 3c 40
       3.352093 2.46875 -4.889975 2.946652
000150 db 13 4c 40 ae 9e ca c0 f1 66 65 40 41 e5 92 40
       3.188712 -6.33187 3.584408 4.590485
000160 36 e7 c0 c0 78 ef 20 40 9d ac b8 40 79 cc e2 c0
       -6.028224 2.514616 5.771071 -7.08746
000170 8a 92 21 40 ed 1a 8f 40 5e 74 9c c0 c9 ab ed 3f
       2.524569 4.472037 -4.889205 1.856805
000180 10 cb 4d 40 93 9c 84 c0 25 b2 03 40 f6 23 87 3f
       3.215519 -4.144113 2.057748 1.055785
000190 e5 45 5a c0 01 bf 46 40 3c 4f 7c 3f b0 f6 93 c0
       -3.410516 3.105408 0.985584 -4.623863
0001a0 8f 19 8b 40 c1 8c ac 40 8c db fd c0 d4 2c 09 40
       4.34687 5.392182 -7.93305 2.143361
0001b0 92 4e cf 40 f1 e3 d4 c0 42 7b e5 3f f9 a0 c8 40
       6.478341 -6.652825 1.792824 6.26965
0001c0 79 a1 e3 c0 65 c8 62 40 7e 0c a3 40 b4 e8 8f c0
       -7.113461 3.543481 5.095275 -4.497156
0001d0 08 21 90 3f 73 73 c7 c0 f7 74 ad 3f d4 7c 35 c0
       1.126008 -6.232843 1.355132 -2.835744
0001e0 3e 4b bb c0 fb 95 1c 40 32 04 70 c0 4f 3d 92 c0
       -5.852935 2.446654 -3.750256 -4.569984
0001f0 5d c1 61 40 96 5c 56 c0 3d 5f 9c c0 be 1f 8c 40
       3.527427 -3.349401 -4.886626 4.378875
000200 7d c0 9b c0 1a 22 84 c0 ab 22 b3 40 11 52 a9 c0
       -4.867247 -4.129163 5.597982 -5.291268
000210 ef 9c bd c0 ac a8 6f 40 23 b1 af c0 69 7f d0 c0
       -5.925407 3.74467 -5.490373 -6.515553
000220 a0 6f 28 40 31 d0 9b c0 4c 6b e3 c0 de 71 62 3f
       2.631813 -4.869164 -7.106848 0.88455
000230 c5 76 4a c0 8d e3 c3 c0 c2 30 cc 3f 9f 04 f6 bf
       -3.163499 -6.121527 1.595238 -1.922016
000240 5d 4e 3e c0 be 13 aa 40 7f a5 ab c0 b6 74 90 c0
       -2.973533 5.31491 -5.363952 -4.514247
000250 ee 87 bf 40 ec a0 c8 c0 47 5a 86 c0 9a 22 cd 40
       5.985343 -6.269644 -4.19852 6.410474
000260 dd 45 92 c0 b3 52 ca c0 38 65 82 40 11 e1 ce c0
       -4.571028 -6.322595 4.074856 -6.464974
000270 52 81 26 c0 c4 cc 54 40 52 2b 05 c0 2b 69 66 c0
       -2.601643 3.324998 -2.080769 -3.600169
000280 eb 9d 8a 40 0f b7 05 c0 36 23 53 c0 64 4e be 40
       4.331777 -2.089298 -3.299024 5.947069
000290 24 48 c3 bf 05 25 a0 c0 0a 3e ca 40 ea 06 ee bf
       -1.525639 -5.004519 6.320073 -1.859586
0002a0 13 8f b1 c0 23 a2 f6 40 1a 35 cb bf a6 c8 af c0
       -5.548715 7.707292 -1.587558 -5.493243
0002b0 ad 21 a7 40 0b 44 19 c0 c5 63 99 c0 02 92 82 40
       5.222861 -2.394778 -4.793429 4.080323
0002c0 14 ea 1e c0 c9 3e 3e c0 3b 52 18 40 ec 14 18 c0
       -2.483037 -2.972582 2.380019 -2.376277
0002d0 ca a3 f1 bf e8 f5 5c 40 78 09 ae bf 99 81 a0 c0
       -1.887811 3.452509 -1.359664 -5.01582
0002e0 29 e2 07 41 8f a9 07 c0 d6 54 d1 c0 4a c2 f5 40
       8.492715 -2.119724 -6.541606 7.679967
0002f0 e3 6d f7 bf 7c 0d af c0 12 6c fe 40 bb 7b 04 bf
       -1.933041 -5.470396 7.950692 -0.517513
000300 78 b8 d3 c0 e5 62 a5 40 fe 81 2c c0 64 75 9b c0
       -6.616268 5.168322 -2.695434 -4.85808
000310 53 ec 3b 40 90 c0 39 40 a7 c9 68 c0 95 2b 62 40
       2.936299 2.902378 -3.637308 3.53391
000320 2d 08 54 40 ed 9f 4e c0 c2 5f a8 40 45 9b 2c 40
       3.312999 -3.228511 5.261689 2.696977
000330 11 01 e3 bf e7 55 a5 40 c6 17 6f 40 3c 15 50 bf
       -1.77347 5.166736 3.735826 -0.812824
000340 d9 df c7 40 e8 a0 6e 40 0a b9 e2 bf 47 57 78 40
       6.246075 3.728571 -1.771272 3.880327
000350 f0 89 89 40 0c e6 35 c0 32 ff 43 40 96 ec 83 40
       4.298088 -2.842166 3.062451 4.12263
000360 1d d7 99 c0 61 51 f1 3f f7 06 47 40 ba 76 a5 c0
       -4.807509 1.885296 3.1098 -5.170743
000370 81 97 49 40 17 a0 f3 3f f2 79 a7 bf 0c 4a e7 40
       3.149872 1.903323 -1.308409 7.227789
000380 c9 cc 84 40 3c d9 4d 3b 5d ce c1 40 7b 75 8f 40
       4.149998 0.003141 6.056441 4.483091
000390 39 2b e2 be a0 c3 cf 40 05 17 2f 40 b7 b2 80 bf
       -0.441736 6.49263 2.73578 -1.005454
0003a0 7d ae 66 40 72 b1 9f 40 51 68 18 40 79 02 b9 3e
       3.6044 4.990411 2.381367 0.361347
0003b0 05 6b 96 c0 10 41 27 40 f7 78 85 bf 3c ad 9d c0
       -4.700564 2.613346 -1.042754 -4.927397
0003c0 9e 41 5c 40 57 7b d2 bf cb d8 c7 c0 0d 70 52 40
       3.441505 -1.644389 -6.245214 3.288089
0003d0 49 64 53 c0 51 11 b0 c0 84 67 75 40 1c cd 90 c0
       -3.302996 -5.502114 3.834443 -4.525038
0003e0 38 76 c4 c0 95 ee 28 40 32 73 4b c0 18 24 8a c0
       -6.139431 2.639562 -3.178906 -4.316906
0003f0 9d 12 0e 40 0a dc f4 bf a6 d1 7c c0 73 f7 d5 3f
       2.219886 -1.912965 -3.950296 1.671614

qA f4 [192, 1]
000000 30 bc e3 be 53 7f 55 3f d6 fb 12 bf 94 70 80 bf
       -0.44479513 0.83397406 -0.5741552 -1.0034356
000010 ee 6b cc be 78 ef 2b 3e 35 f4 d7 3e 89 93 d9 3e
       -0.39926094 0.16790569 0.42178503 0.42495373
000020 9a 8a 17 3e dc 7a dc 3d 10 56 21 3e ba a9 23 3e
       0.14798966 0.10765621 0.15755486 0.15982714
000030 50 12 da be d6 36 57 3f 5d 4a 17 bf d7 e5 7c bf
       -0.42592096 0.8406805 -0.59097844 -0.9878821
000040 c0 7f cc be 1a ca 0b 3e dd 22 df 3e da 57 ce 3e
       -0.39941216 0.13651314 0.43581286 0.403014
000050 a4 8a 32 3e c2 d7 09 3e fe 20 12 3e ca c6 0b 3e
       0.174357 0.13461211 0.14270398 0.13650051
000060 24 51 dd be 4c 94 60 3f e8 3a 1c bf 66 48 7b bf
       -0.43225968 0.87726283 -0.61027384 -0.98157346
000070 a2 1b ca be 9e 9a 14 3e 5d 65 dc 3e 89 8d c9 3e
       -0.39474207 0.14512107 0.43046084 0.39365795
000080 9c 20 1e 3e f4 28 f6 3d 3c b0 1d 3e d0 2f 13 3e
       0.15442127 0.1201953 0.1539926 0.14373708
000090 2e 2c d0 be a2 aa 53 3f c5 bd 20 bf 05 43 77 bf
       -0.40658706 0.8268224 -0.62789565 -0.9658664
0000a0 a4 fa cd be 6a d0 18 3e a4 0b e2 3e eb c5 cf 3e
       -0.40230286 0.14923254 0.44149506 0.40580687
0000b0 9a 61 1b 3e 54 db f5 3d 72 b9 29 3e 20 2a 11 3e
       0.15173951 0.12004724 0.16574648 0.14176226
0000c0 54 cb d6 be 16 9b 52 3f 70 de 10 bf 00 8b 82 bf
       -0.41952002 0.8226789 -0.5658941 -1.019867
0000d0 98 6e c7 be ce c0 1c 3e 6c 41 dd 3e f4 7a d9 3e
       -0.38951564 0.15307924 0.43213975 0.42476618
0000e0 68 43 29 3e 84 36 bd 3d fc 97 23 3e 10 29 14 3e
       0.1652962 0.09238914 0.15975946 0.14468789
0000f0 22 9a cb be e9 c2 5c 3f b5 87 2b bf bf e0 78 bf
       -0.39766032 0.8623491 -0.6700395 -0.97217935
000100 90 46 bf be 06 24 0e 3e 17 fa dd 3e b4 6b d3 3e
       -0.37358522 0.1388093 0.43354866 0.41293108
000110 a6 b4 19 3e dc da 03 3e 1c 2d 04 3e 46 ab 21 3e
       0.15010318 0.12876457 0.12907833 0.15787992
000120 50 87 c9 be 49 72 53 3f 2f 38 23 bf 7d bb 75 bf
       -0.39361048 0.8259626 -0.63757604 -0.9598921
000130 ce 25 d4 be 80 21 11 3e 3e d6 e2 3e 55 18 d3 3e
       -0.41435093 0.14172935 0.4430408 0.412295
000140 0a a2 27 3e 08 75 13 3e da 34 01 3e 38 15 18 3e
       0.16370407 0.14400113 0.12617818 0.14851844
000150 ec f9 b8 be b5 40 3f 3f be f2 19 bf e6 29 76 bf
       -0.36128175 0.7470811 -0.6013602 -0.9615768
000160 c4 33 ce be 8c ae 21 3e 1f d8 e5 3e 64 a0 d9 3e
       -0.4027387 0.1578924 0.4489145 0.4250518
000170 94 18 1c 3e 24 42 0e 3e f2 d0 21 3e c0 ff c9 3d
       0.15243751 0.13892418 0.15802363 0.098632336
000180 4c 3e ce be 1f 6b 56 3f 83 7c 20 bf 45 bf 72 bf
       -0.40281904 0.83757204 -0.6268999 -0.94823104
000190 d8 bc d3 be de 02 0d 3e 39 68 ca 3e a7 e9 d3 3e
       -0.41355014 0.13770625 0.3953264 0.413892
0001a0 b8 bf 26 3e 48 35 25 3e 48 93 fe 3d a0 53 22 3e
       0.16284072 0.16133606 0.124304354 0.15852213
0001b0 7c 0c d2 be 8c 73 4b 3f 26 93 1d bf 3c 20 75 bf
       -0.4102515 0.79473186 -0.61552656 -0.9575231
0001c0 02 a6 d2 be 90 2e 10 3e b7 d1 e3 3e 74 dc cf 3e
       -0.4114228 0.14080262 0.44495937 0.4059788
0001d0 ac b7 23 3e 4c 5d 23 3e c6 e0 18 3e e0 e3 0e 3e
       0.15988034 0.15953559 0.14929494 0.13954115
0001e0 d4 f9 da be 80 26 57 3f 49 e0 1c bf c1 c9 7b bf
       -0.4276873 0.8404312 -0.6127973 -0.9835473
0001f0 be ff cc be 06 ba 13 3e 83 3c dc 3e 4e 52 d6 3e
       -0.40038866 0.14426431 0.43014917 0.41859668
000200 c0 f3 1d 3e 46 ff 05 3e 2e ec 22 3e 52 4a 16 3e
       0.15425014 0.1308566 0.15910408 0.14676788
000210 6c 62 e0 be 5c 46 58 3f 27 ed 1d bf b9 4d 7b bf
       -0.4382509 0.8448236 -0.6168999 -0.9816547
000220 e6 31 c0 be 14 26 18 3e 05 6a e3 3e f9 ae d2 3e
       -0.3753807 0.14858276 0.44416824 0.4114912
000230 9c 10 21 3e 4c 4b 0a 3e 84 77 de 3d fe 0a 26 3e
       0.15728992 0.13505286 0.108626395 0.1621513
000240 94 6c d0 be ce 05 54 3f b8 f6 18 bf 62 1d 7e bf
       -0.4070784 0.8282136 -0.5975146 -0.99263585
000250 a8 2c de be 88 50 1d 3e 10 42 e8 3e 3a e5 cb 3e
       -0.43393445 0.15362751 0.45362902 0.39823323
000260 74 69 1e 3e e4 ff 0d 3e d2 1f 3b 3e 2c 87 f8 3d
       0.15469915 0.13867146 0.18273857 0.12135157
000270 22 e5 cb be 66 4e 4f 3f 87 a7 20 bf 29 8a 7a bf
       -0.39823252 0.80979 -0.62755626 -0.97867066
000280 9a 13 c5 be 08 ed 12 3e 94 d1 e0 3e 51 90 d8 3e
       -0.38491517 0.14348233 0.43909895 0.42297605
000290 6e 22 19 3e 98 92 06 3e 92 a1 21 3e 62 77 0a 3e
       0.1495454 0.13141859 0.1578429 0.13522103
0002a0 50 92 d4 be ea 71 5c 3f 39 32 26 bf a9 4b 7b bf
       -0.41517878 0.8611132 -0.64920384 -0.98162323
0002b0 e8 7d c0 be c8 68 ff 3d 6e 9d dd 3e fb ed d4 3e
       -0.3759606 0.12471157 0.43284172 0.41587815
0002c0 ea e3 1c 3e 40 64 fd 3d 68 8f 16 3e 7e 5f 27 3e
       0.15321317 0.12372637 0.14703143 0.16345021
0002d0 70 8e d7 be cd 07 4d 3f 2e ef 0c bf 1d d9 80 bf
       -0.4210086 0.8009003 -0.5505246 -1.0066258
0002e0 f4 0b cd be 3e d3 34 3e 0d 8a e0 3e a3 52 d8 3e
       -0.40048182 0.17658707 0.43855324 0.42250547
0002f0 1e 3d 06 3e b4 75 b2 3d 58 03 14 3e 36 93 35 3e
       0.13109252 0.08713856 0.144544 0.17731938

muA f4 [192, 3]
000000 2c e3 d6 bd 50 61 f8 bc c0 75 e3 3c 20 76 98 3c
       -0.10492548 -0.03031984 0.027766109 0.018611014
000010 04 f9 6c 3d b0 e3 0b bd a0 c1 af bd c0 60 7c 3c
       0.057854667 -0.034152687 -0.08581853 0.015403926
000020 e0 69 95 bc 90 60 f7 bc e0 1b 7e 3c f0 5a c6 3c
       -0.018238962 -0.030197412 0.015509576 0.024213284
000030 a4 93 ac 3d 78 5b 20 3d 00 f0 ff bb e0 39 0a 3c
       0.08426598 0.03914973 -0.0078105927 0.00843665
000040 00 3d 28 3c 8c 18 3f 3d 00 74 fb b9 90 ef ae 3c
       0.01026845 0.04665427 -0.00047960877 0.021354467
000050 e0 7c 87 bc 20 a3 aa 3c 20 04 68 bc 80 e0 45 3c
       -0.016539037 0.020829737 -0.01416114 0.012077451
000060 20 14 53 3c e8 dd 2e bd 20 54 ad bc 60 e8 29 3c
       0.012883216 -0.042692095 -0.021158278 0.010370344
000070 b8 ea 2e bd 10 17 db 3c 00 79 59 bc 80 1e 35 3d
       -0.042704314 0.026744395 -0.013273478 0.04421854
000080 40 8a 96 3c 40 6d 2a bc 20 d1 5b bc d8 76 37 bd
       0.01837647 -0.010402024 -0.0134165585 -0.044791073
000090 78 7a c9 bd d0 b1 84 bd a0 db 9d 3c 70 45 92 3c
       -0.09837812 -0.064792275 0.019269764 0.017855376
0000a0 90 da 6f 3d 10 0c 1e bd 6a 91 9e bd 30 71 0a 3d
       0.058558047 -0.038585722 -0.07742579 0.03379935
0000b0 30 68 0c bd 78 c3 18 bd 00 89 98 3c 40 bc c1 bb
       -0.03427905 -0.03729579 0.018620014 -0.0059123337
0000c0 c4 b9 ef 3d 70 f0 ce 3c 80 be 5e bb 00 90 57 39
       0.11705354 0.025261134 -0.0033988059 0.00020557642
0000d0 40 fc 6c 3c e8 5e 39 3d 00 4c 62 3a a0 70 b3 3c
       0.014464438 0.045256525 0.00086325407 0.02190429
0000e0 f0 11 84 bc 60 33 ae 3c d0 13 82 bc 00 4b 6a 3c
       -0.016121835 0.021264732 -0.015878588 0.014300108
0000f0 e0 b7 1b 3c c8 77 16 bd 50 bb 9c bc 00 3a 52 ba
       0.009504288 -0.036735326 -0.019132286 -0.0008019507
000100 e0 06 2a bd 20 92 01 3d 30 b8 d0 bc c0 be 32 3d
       -0.041510463 0.031633496 -0.025478452 0.043638945
000110 c0 2d 5e 3c 00 87 1b bc 00 9e 39 ba f8 02 49 bd
       0.013560712 -0.009492636 -0.0007080734 -0.049075097
000120 28 8f cf bd f0 bc 3c bd 60 d9 a5 3c 40 75 18 3c
       -0.10134727 -0.046078622 0.020245254 0.009305298
000130 00 c9 52 3d f0 1b de bc f4 16 91 bd 80 46 f9 3c
       0.05146122 -0.027112931 -0.07084456 0.030429125
000140 20 2a c5 bc 80 56 d4 bc 78 63 18 3d f0 19 93 3c
       -0.024067938 -0.025920153 0.037204236 0.017956704
000150 f6 3b cf 3d 60 cc 11 3d 40 86 f4 bb 00 f0 16 3a
       0.101188585 0.035595298 -0.007462293 0.00057578087
000160 20 54 2b 3c 70 b0 3e 3d 00 20 80 b9 80 da ad 3c
       0.010457069 0.046554983 -0.00024437904 0.021222353
000170 a0 ea 8b bc 30 1c a4 3c a0 01 91 bc 60 ec 64 3c
       -0.017079651 0.020032972 -0.01770097 0.013972372
000180 c0 95 34 3c 00 39 24 bd c0 35 a5 bc 00 ac ed b9
       0.011022031 -0.040093422 -0.020167232 -0.00045332313
000190 78 db 3b bd c0 bd e2 3c 40 30 7d bc 00 8c 38 3d
       -0.0458636 0.02767837 -0.015453398 0.04505539
0001a0 b0 0b 86 3c e0 2c 6c bc 00 fa 2d bc 10 58 39 bd
       0.016362995 -0.014414996 -0.010618687 -0.04525
0001b0 9c 2c f7 bd b0 97 27 bd e0 19 73 3c e0 28 5a 3c
       -0.120690554 -0.040916145 0.014837712 0.013315409
0001c0 38 4e 68 3d b8 5a 06 bd 86 4f 9c bd a0 2f f8 3c
       0.05671522 -0.03280136 -0.076323554 0.030296147
0001d0 00 77 0f bd 00 06 da bc 40 a7 d9 3c c0 23 1a 3c
       -0.035025597 -0.02661419 0.026569009 0.0094079375
0001e0 88 16 cb 3d 98 ab 3d 3d 20 51 3e bc c0 da 86 3b
       0.09916407 0.046306223 -0.011616021 0.0041154325
0001f0 c0 c1 4e 3c 4c 1f 3a 3d 00 00 91 37 40 91 b1 3c
       0.012619436 0.045440003 1.7285347e-05 0.021675706
000200 60 fc 85 bc f0 8e b3 3c a0 d9 7f bc 40 c8 46 3c
       -0.016355693 0.021918744 -0.015615851 0.012132704
000210 e0 63 3a 3c f0 e5 1f bd 00 51 b9 bc 40 cc f8 3b
       0.011376351 -0.039037645 -0.022621632 0.007592708
000220 a8 72 25 bd 30 e9 ed 3c 70 3c 87 bc 28 66 29 3d
       -0.040392548 0.029041857 -0.016508311 0.04135719
000230 80 ac a0 3c c0 32 1e bc 40 44 0c bc 70 bd 4f bd
       0.019613504 -0.009655654 -0.008561194 -0.05071777
000240 20 9b c4 bd d0 b8 41 bd 70 ba bf 3c a0 3c 59 3c
       -0.095999 -0.04729539 0.02340433 0.013259083
000250 98 4e 64 3d 78 f9 03 bd b0 3f 9a bd e0 da 0e 3d
       0.055739015 -0.032220334 -0.07531679 0.034876704
000260 00 36 bd bc 10 c4 02 bd e0 e0 3b 3c 60 a7 ba 3c
       -0.023097038 -0.03192526 0.011467189 0.022784889
000270 a0 68 c9 3d f8 52 0d 3d 00 10 92 39 00 d5 1a 3b
       0.09834409 0.034502953 0.0002785921 0.0023625493
000280 60 4e 46 3c 00 55 30 3d 00 4a 9f ba 40 bf ae 3c
       0.012103647 0.043049812 -0.0012152791 0.02133143
000290 70 1c 85 bc b0 1e a8 3c 60 31 66 bc 60 a1 4d 3c
       -0.016248912 0.020522445 -0.014049858 0.012550682
0002a0 20 b9 39 3c 78 88 1e bd a0 b2 8c bc 00 29 fe ba
       0.011335641 -0.038704365 -0.017175019 -0.0019390881
0002b0 d8 3a 34 bd e0 78 fd 3c 60 df ae bc d0 d9 20 3d
       -0.04400143 0.030941427 -0.021346748 0.039270222
0002c0 80 d5 8a 3c 80 be 03 bc 80 87 4e bb 98 dc 3d bd
       0.016947508 -0.008041024 -0.003151387 -0.046352953
0002d0 ae 20 fb bd 68 4a 67 bd d0 ba 83 3c 20 b5 33 3c
       -0.122620925 -0.056467444 0.01608029 0.0109684765
0002e0 3a 3f 89 3d 48 a7 42 bd c4 8f 70 bd c0 4b 20 3d
       0.06701513 -0.047522813 -0.058730856 0.03913474
0002f0 d0 f5 24 bd 40 57 34 bd 40 18 c5 3b 80 68 bc bb
       -0.040273488 -0.04402852 0.0060148537 -0.005749762
000300 74 be de 3d 38 1a 13 3d 50 06 a9 bc 40 c8 db 3b
       0.1087617 0.035913676 -0.020632893 0.0067072213
000310 a0 65 02 3c 84 ca 30 3d 00 b8 a1 39 10 ac b4 3c
       0.0079588 0.043161884 0.00030845404 0.022054702
000320 90 9c 8d bc 50 02 b0 3c 60 06 6b bc 00 68 6a 3c
       -0.017286569 0.021485478 -0.014344782 0.014307022
000330 a0 46 13 3c 70 d4 19 bd 50 00 8b bc 00 f2 5a 3a
       0.008989006 -0.03755611 -0.016967922 0.0008352101
000340 08 a7 1b bd 70 5e f9 3c 70 41 99 bc 78 63 3f 3d
       -0.03800109 0.03044054 -0.01870796 0.04672572
000350 a0 fe 8a 3c c0 89 3a bc 40 47 94 bb d8 1c 40 bd
       0.016967118 -0.011385381 -0.004525095 -0.046902508
000360 7e 05 f5 bd 90 52 54 bd 00 f1 09 3c 60 77 36 3c
       -0.11963938 -0.05183655 0.008419275 0.01113686
000370 28 e0 67 3d 98 9d 15 bd 80 aa 86 bd 40 7b fd 3c
       0.056610256 -0.036527246 -0.06575489 0.03094256
000380 c8 51 38 bd 00 36 7a bc 50 01 d2 3c 00 78 02 3b
       -0.044999868 -0.015271664 0.025635391 0.0019907951
000390 9e 50 e6 3d 80 f4 08 3d a0 16 60 bc 00 df b6 3a
       0.11245845 0.0334363 -0.013677269 0.0013951957
0003a0 60 21 7e 3c 38 8e 3d 3d 00 18 eb b9 40 27 b0 3c
       0.015510887 0.04627821 -0.00044840574 0.02150309
0003b0 20 df 81 bc 10 4c a0 3c 60 5d 83 bc 00 dc 4f 3c
       -0.015853465 0.01956752 -0.016035736 0.012686729
0003c0 20 97 2b 3c 28 1e 1f bd 10 05 b0 bc c0 6e 00 3c
       0.010473043 -0.03884712 -0.021486789 0.007838905
0003d0 68 e7 16 bd 00 e7 eb 3c 50 65 9b bc d0 6a 3d 3d
       -0.03684178 0.028796673 -0.018969208 0.046244442
0003e0 10 6c 88 3c 40 34 3a bc 00 f4 02 bc b8 2d 49 bd
       0.01665309 -0.011364996 -0.007992744 -0.049115866
0003f0 00 8a db bd 70 dd 4d bd 40 e4 fd 3c 80 f3 1f 3c
       -0.10719681 -0.050260007 0.030992627 0.009762645

quadA f4 [192, 3, 3]
000000 79 76 87 bd 00 ee 07 bb b0 e6 aa bc 00 ee 07 bb
       -0.06614394 -0.0020741224 -0.020861953 -0.0020741224
000010 ec 67 bf 3c 66 5e 91 3d b0 e6 aa bc 66 5e 91 3d
       0.023364983 0.07098083 -0.020861953 0.07098083
000020 fe 38 2f 3d 28 e0 bb bc 00 5d dc 3c ec 95 31 bd
       0.04277896 -0.022934034 0.026899815 -0.043355867
000030 00 5d dc 3c a0 2d 16 bc 3a 92 11 3e ec 95 31 bd
       0.026899815 -0.009166151 0.14215937 -0.043355867
000040 3a 92 11 3e 84 7b 03 3d 84 bc b2 bc 00 96 0e 3a
       0.14215937 0.032100216 -0.021818407 0.0005439222
000050 18 09 af bc 00 96 0e 3a b8 83 53 bc a2 6c ba 3d
       -0.02136664 0.0005439222 -0.012909822 0.09102751
000060 18 09 af bc a2 6c ba 3d 2e 3f 0e 3d 4d f5 df 3c
       -0.02136664 0.09102751 0.03472822 0.027338648
000070 38 d0 a5 3c 60 47 b6 bb 38 d0 a5 3c 00 bb b7 b8
       0.020240888 -0.005562708 0.020240888 -8.7609515e-05
000080 80 b1 f7 bc 60 47 b6 bb 80 b1 f7 bc 93 3d df bc
       -0.030236006 -0.005562708 -0.030236006 -0.02725104
000090 40 9e 5b bb c0 eb 7f bb c0 4a 36 bb c0 eb 7f bb
       -0.0033511072 -0.003905043 -0.002781555 -0.003905043
0000a0 80 4b e8 ba b8 9a d1 3c c0 4a 36 bb b8 9a d1 3c
       -0.0017722696 0.025586471 -0.002781555 0.025586471
0000b0 00 e2 a7 3b aa 40 7d 3a 00 8b 2e 3b 40 2b a6 bb
       0.005123377 0.000966082 0.0026633143 -0.005071074
0000c0 00 8b 2e 3b 6b a1 44 3b 00 25 d3 ba 40 2b a6 bb
       0.0026633143 0.003000344 -0.0016109049 -0.005071074
0000d0 00 25 d3 ba cb f8 81 bb aa 36 0c 3c 80 bf 8c 3a
       -0.0016109049 -0.003966426 0.008557955 0.0010738224
0000e0 00 a2 eb 3a 80 bf 8c 3a 8b 26 81 bb 00 22 48 3a
       0.0017977357 0.0010738224 -0.0039413623 0.0007634461
0000f0 00 a2 eb 3a 00 22 48 3a cb 46 97 bb 00 ae 8a 39
       0.0017977357 0.0007634461 -0.0046165935 0.0002645105
000100 e0 86 f3 3b 80 ba 52 bb e0 86 f3 3b 40 8a 37 3b
       0.00743185 -0.003215462 0.00743185 0.0028005987
000110 60 e8 c6 bb 80 ba 52 bb 60 e8 c6 bb 00 e0 48 bb
       -0.0060701817 -0.003215462 -0.0060701817 -0.0030651093
000120 d5 e7 4c bb 90 fe 37 3c 00 44 2b 3a 90 fe 37 3c
       -0.0031266112 0.011230126 0.0006533265 0.011230126
000130 55 c7 06 bb c0 d4 4e bb 00 44 2b 3a c0 d4 4e bb
       -0.0020565588 -0.0031559914 0.0006533265 -0.0031559914
000140 96 d7 a9 3b 1b c4 03 3c 00 f0 5a bb e0 24 96 3b
       0.0051831705 0.008042361 -0.0033407211 0.0045820326
000150 00 f0 5a bb ca 20 fc bb a0 5e f8 3b e0 24 96 3b
       -0.0033407211 -0.0076943384 0.0075796396 0.0045820326
000160 a0 5e f8 3b a8 76 b6 b9 96 ad 28 3b 20 43 ea 3b
       0.0075796396 -0.0003480215 0.002573823 0.007149115
000170 80 0f b6 3a 20 43 ea 3b aa 2b 19 bb 00 da 9a b9
       0.0013890117 0.007149115 -0.0023371973 -0.00029535592
000180 80 0f b6 3a 00 da 9a b9 a8 1e 78 b9 60 8d bc 3b
       0.0013890117 -0.00029535592 -0.00023662543 0.005754158
000190 80 d8 f4 3a 00 cb b0 ba 80 d8 f4 3a 00 b5 a4 ba
       0.0018680245 -0.0013488233 0.0018680245 -0.0012566149
0001a0 00 eb 04 3a 00 cb b0 ba 00 eb 04 3a 20 60 93 bb
       0.0005070418 -0.0013488233 0.0005070418 -0.004497543
0001b0 f9 5a 83 bd 18 1e 8d bc 70 51 08 bc 18 1e 8d bc
       -0.06413836 -0.017226264 -0.008320197 -0.017226264
0001c0 88 a2 55 3c b8 34 59 3d 70 51 08 bc b8 34 59 3d
       0.013039239 0.053028792 -0.008320197 0.053028792
0001d0 4e 4d 51 3d 20 e7 58 bc 40 91 cc 3b 70 ae e9 bc
       0.051099114 -0.013238698 0.006242901 -0.028525561
0001e0 40 91 cc 3b 64 02 1e bd 66 98 19 3e 70 ae e9 bc
       0.006242901 -0.0385765 0.14999542 -0.028525561
0001f0 66 98 19 3e 30 3c 54 3d b8 de 1a bc d0 fd 01 3c
       0.14999542 0.05181521 -0.009452514 0.007934049
000200 88 7c c1 bc d0 fd 01 3c e4 c8 c6 bc c8 53 c9 3d
       -0.023618951 0.007934049 -0.024265714 0.09830433
000210 88 7c c1 bc c8 53 c9 3d 26 1c 0a 3d 9b 78 05 bc
       -0.023618951 0.09830433 0.03371825 -0.00814643
000220 30 d1 25 bc 80 68 c2 3b 30 d1 25 bc ca b4 a4 3b
       -0.010120675 0.0059328675 -0.010120675 0.0050264345
000230 40 58 5f bb 80 68 c2 3b 40 58 5f bb d5 78 4c 3b
       -0.00340797 0.0059328675 -0.00340797 0.0031199951
000240 4d 7f 2f bd 40 26 d8 bb 80 61 ea ba 40 26 d8 bb
       -0.042846013 -0.0065963566 -0.001788184 -0.0065963566
000250 ae 53 8e 3c 80 87 31 3c 80 61 ea ba 80 87 31 3c
       0.017373886 0.010835528 -0.001788184 0.010835528
000260 ee aa d0 3c 80 b5 0c b8 00 48 05 3b 70 ae 04 bc
       0.02547213 -3.3547636e-05 0.0020337105 -0.00809823
000270 00 48 05 3b d5 e6 d9 3b e0 1b 86 bb 70 ae 04 bc
       0.0020337105 0.006649832 -0.0040926784 -0.00809823
000280 e0 1b 86 bb 6b cd d8 bb 36 75 15 3c 00 41 b0 ba
       -0.0040926784 -0.0066162846 0.009122184 -0.0013447106
000290 c0 bf 66 3b 00 41 b0 ba 15 8c 8f bb 00 e2 82 ba
       0.0035209507 -0.0013447106 -0.0043807128 -0.0009985566
0002a0 c0 bf 66 3b 00 e2 82 ba 55 5e 9b bb a8 4c c4 ba
       0.0035209507 -0.0009985566 -0.00474147 -0.0014976459
0002b0 90 99 30 3c 00 86 cc bb 90 99 30 3c 96 fb 91 3b
       0.0107788 -0.00624156 0.0107788 0.00445504
0002c0 f0 a9 00 bc 00 86 cc bb f0 a9 00 bc d4 d0 41 bb
       -0.007853016 -0.00624156 -0.007853016 -0.0029573934
0002d0 80 2b 2c bb 20 01 82 3b 40 94 19 bb 20 01 82 3b
       -0.0026271045 0.0039674193 -0.002343431 0.0039674193
0002e0 c0 cf 88 3b 00 c8 c3 39 40 94 19 bb 00 c8 c3 39
       0.0041751564 0.0003734231 -0.002343431 0.0003734231
0002f0 00 e8 ca ba 6b b7 2f 3c 00 e8 0b ba 00 80 06 3b
       -0.0015480518 0.010724883 -0.0005337 0.0020523071
000300 00 e8 0b ba 2b cc de bb 00 1c b7 3b 00 80 06 3b
       -0.0005337 -0.006799241 0.0055880547 0.0020523071
000310 00 1c b7 3b ab a2 80 bb ab 12 57 3b 80 25 0b 3c
       0.0055880547 -0.0039256415 0.0032817523 0.008492827
000320 c0 c5 51 3b 80 25 0b 3c aa d4 f6 ba 80 44 e4 ba
       0.0032008737 0.008492827 -0.0018831689 -0.0017415434
000330 c0 c5 51 3b 80 44 e4 ba aa 50 b7 ba ab 14 c7 3b
       0.0032008737 -0.0017415434 -0.0013985832 0.006075462
000340 00 a3 1c 3a 30 f7 0c bc 00 a3 1c 3a aa 2a 8c 3a
       0.00059752166 -0.008603856 0.00059752166 0.0010693867
000350 00 96 1e bb 30 f7 0c bc 00 96 1e bb 55 1f ea bb
       -0.0024198294 -0.008603856 -0.0024198294 -0.0071448484
000360 c9 d9 97 bd 40 9c 6b bb 58 fa 96 bc 40 9c 6b bb
       -0.07414586 -0.0035951287 -0.01842992 -0.0035951287
000370 8c c8 ab 3c f6 88 80 3d 58 fa 96 bc f6 88 80 3d
       0.020969652 0.06276123 -0.01842992 0.06276123
000380 4e cf 59 3d 30 5e d1 bc 20 03 49 3c f8 57 db bc
       0.053176217 -0.025557607 0.012268811 -0.026775345
000390 20 03 49 3c 68 26 bf bc 6b f0 06 3e f8 57 db bc
       0.012268811 -0.023333743 0.1317765 -0.026775345
0003a0 6b f0 06 3e 50 42 48 3d e8 ea 2f bc 60 bc 82 3b
       0.1317765 0.048891366 -0.010737158 0.003989741
0003b0 d0 06 85 bc 60 bc 82 3b 24 fa ea bc 1c bd d5 3d
       -0.0162386 0.003989741 -0.02868373 0.104364604
0003c0 d0 06 85 bc 1c bd d5 3d ca 77 21 3d ac ca f2 3b
       -0.0162386 0.104364604 0.03942088 0.0074094143
0003d0 e0 c7 c7 bc 40 93 9b 3c e0 c7 c7 bc 2c 90 d5 3b
       -0.0243873 0.018991113 -0.0243873 0.006517431
0003e0 00 4b c3 ba 40 93 9b 3c 00 4b c3 ba 6a 2d 64 bc
       -0.0014899671 0.018991113 -0.0014899671 -0.013926843
0003f0 a0 db b2 bc 50 67 33 bc 00 5e 9d ba 50 67 33 bc
       -0.021833241 -0.010949925 -0.0012006164 -0.010949925

hfvrA f4 [192, 1]
000000 34 45 8f 3f ef d0 12 3f 27 02 93 3f c6 87 ba 3f
       1.1192994 0.5735006 1.1485032 1.4572685
000010 6c b9 89 3f 38 d9 a5 3e 7c 27 33 3e a0 cc 21 3e
       1.0759711 0.32392287 0.17495531 0.15800714
000020 c8 6c b4 3e 84 78 c2 3e ac 93 9e 3e b6 5f 92 3e
       0.35239244 0.3798257 0.3097204 0.28588647
000030 b6 44 8c 3f 96 16 13 3f ad de 93 3f e5 70 b7 3f
       1.0958469 0.5745634 1.155233 1.4331328
000040 34 6b 8d 3f 4a cb b2 3e d4 da 13 3e 8c 3a 40 3e
       1.1048341 0.34920722 0.14438945 0.18772334
000050 10 dd 89 3e 12 88 b5 3e c0 f6 b2 3e c6 90 b4 3e
       0.2692647 0.35455376 0.3495388 0.35266703
000060 73 6c 8c 3f f4 5c 0e 3f a0 b6 94 3f ba 56 b4 3f
       1.0970596 0.55610585 1.1618233 1.4088967
000070 bf 17 8b 3f 06 4e b2 3e 0c f9 04 3e 14 bb 3f 3e
       1.0866622 0.34825152 0.12985629 0.18723708
000080 2e 04 a3 3e 8c 11 b8 3e 90 79 a4 3e 62 9a ab 3e
       0.31839126 0.35950887 0.32123995 0.33516222
000090 69 67 8b 3f 84 40 16 3f bb de 9a 3f 19 30 b5 3f
       1.0890933 0.58692193 1.2099222 1.4155303
0000a0 1a 2b 8c 3f d6 50 aa 3e 50 74 12 3e 84 32 42 3e
       1.0950654 0.33264798 0.14302182 0.18964583
0000b0 80 7b a9 3e c4 67 c3 3e 12 d5 95 3e 62 31 b6 3e
       0.33102036 0.38165104 0.29264122 0.3558455
0000c0 42 76 88 3f dd b7 14 3f fe 63 93 3f 18 dd bc 3f
       1.066109 0.58093053 1.151489 1.4754972
0000d0 a1 00 8b 3f 68 87 a5 3e 68 7d 1c 3e 78 4b 1d 3e
       1.0859567 0.3232987 0.15282214 0.1536082
0000e0 b0 fc 95 3e e6 96 df 3e 6c 9f 91 3e 0c cb a7 3e
       0.29294348 0.43669814 0.28441942 0.327721
0000f0 23 f0 88 3f 32 52 11 3f ce dc 9c 3f f4 8a b6 3f
       1.0698284 0.56766045 1.2254884 1.4261155
000100 83 16 8d 3f a4 e5 c8 3e 84 23 24 3e 60 f5 2f 3e
       1.1022495 0.39237702 0.16029173 0.17183447
000110 a4 10 ad 3e 42 d3 b7 3e 88 0f d0 3e 4c 39 a3 3e
       0.33801758 0.35903364 0.4063685 0.31879652
000120 fd e4 8a 3f 36 b9 16 3f b7 9a 9b 3f 81 5b b2 3f
       1.0851132 0.5887636 1.215659 1.3934175
000130 da 26 94 3f 5e e2 b3 3e e0 a4 07 3e c0 bd 28 3e
       1.1574357 0.35133642 0.13246489 0.16478634
000140 f8 92 9f 3e f8 fe b1 3e da d1 d4 3e 58 c3 b4 3e
       0.31166816 0.34764838 0.41566354 0.35305285
000150 b4 aa 84 3f ea ab 22 3f 19 a0 9a 3f 00 e3 b5 3f
       1.0364594 0.6354357 1.2080108 1.42099
000160 3f f2 8f 3f b4 ca 90 3e 50 84 0b 3e 80 b7 1d 3e
       1.1245803 0.2827965 0.13624692 0.15402031
000170 28 0a a2 3e 48 96 af 3e f4 aa a4 3e a0 be ec 3e
       0.31648374 0.34294343 0.32161677 0.46239185
000180 99 f0 8b 3f d8 81 13 3f c9 fe 9b 3f 24 a8 b2 3f
       1.09328 0.5762 1.2187129 1.3957562
000190 f6 e8 8d 3f 1e fc b4 3e 1c 7d 4b 3e 38 c4 28 3e
       1.1086719 0.353486 0.19871944 0.16481102
0001a0 08 30 95 3e 96 d0 97 3e 94 d1 d2 3e 9e a4 9d 3e
       0.29138207 0.29651326 0.4117552 0.30789655
0001b0 07 2d 8b 3f 98 89 1b 3f f3 6e 9a 3f 0c b3 b5 3f
       1.0873116 0.60756826 1.2065109 1.4195266
0001c0 74 8a 8c 3f d6 9e b5 3e e8 cb 1c 3e 9c 9b 50 3e
       1.0979753 0.35472745 0.15312159 0.2037186
0001d0 bc a3 a0 3e 26 a3 9a 3e 86 07 aa 3e 50 aa b8 3e
       0.3137492 0.30202597 0.33208865 0.36067438
0001e0 5d e0 8c 3f 94 3a 14 3f fc 94 98 3f e7 43 b4 3f
       1.100597 0.57901883 1.1920466 1.4083222
0001f0 c2 e9 8a 3f de 12 b1 3e 3c d7 0f 3e ec c9 1b 3e
       1.0852587 0.34584707 0.14046949 0.15213746
000200 98 41 a4 3e 4c 9d b1 3e 28 3d 9d 3e 62 15 a4 3e
       0.32081294 0.3469032 0.3071072 0.32047564
000210 8e 17 8e 3f ba 73 13 3f 61 09 98 3f 3b 78 b5 3f
       1.1100938 0.5759846 1.1877862 1.4177316
000220 cd a3 88 3f fc 13 b1 3e ec c6 05 3e d4 90 2b 3e
       1.0674988 0.3458556 0.13064164 0.16754466
000230 8a a2 a7 3e c6 26 a5 3e c6 76 d8 3e 4c dd 8c 3e
       0.32741195 0.32256144 0.42278117 0.27512586
000240 d3 fd 89 3f 10 43 15 3f 6c e6 95 3f 8a 58 b7 3f
       1.0780586 0.58305454 1.1710944 1.4323895
000250 b4 0e 92 3f 76 b3 a0 3e 50 7d e3 3d 50 46 45 3e
       1.1410737 0.31386918 0.11107886 0.19265103
000260 d6 71 a2 3e 1a 19 bb 3e 9e 36 91 3e 40 42 d7 3e
       0.31727475 0.36542588 0.28361982 0.42042732
000270 d3 01 8a 3f ba 17 18 3f 14 59 9b 3f a4 73 b6 3f
       1.0781807 0.59411204 1.213656 1.4254041
000280 90 0e 88 3f 80 48 ab 3e 54 7f 1c 3e c4 72 1a 3e
       1.0629444 0.3345375 0.15282947 0.15082842
000290 3a 09 aa 3e 80 9b a5 3e ce 8b 9c 3e 6a 23 b5 3e
       0.33210164 0.323452 0.30575413 0.3537858
0002a0 d1 2d 8d 3f 71 6e 12 3f 08 a4 9b 3f 83 52 b5 3f
       1.1029607 0.5719977 1.2159433 1.4165806
0002b0 7e 1d 88 3f 64 c3 d5 3e fc e8 12 3e 48 f3 25 3e
       1.0634 0.41750634 0.14346689 0.16206086
0002c0 3c a7 ad 3e f6 96 b4 3e 82 eb ab 3e 66 8c 92 3e
       0.33916652 0.35271424 0.33578116 0.2862274
0002d0 eb 29 8c 3f 54 89 17 3f 43 c3 93 3f 4a 6a b8 3f
       1.0950292 0.5919392 1.1543964 1.4407437
0002e0 d1 c5 8b 3f ca b7 8d 3e 40 af 0e 3e 14 38 18 3e
       1.0919744 0.27679282 0.1393404 0.14865142
0002f0 6c 05 bc 3e b8 b0 00 3f 16 fa a4 3e c4 2b 80 3e
       0.36722887 0.5026965 0.3222205 0.2503339

vwA f4 [192, 1]
000000 6e 7f 05 3f ca a3 ec 3e 39 e3 cb 3e 3d 80 f1 3e
       0.5214757 0.4621871 0.39821795 0.4716815
000010 91 4a 04 3f 76 2f c2 3e 80 fc b3 3e 97 9c ad 3e
       0.5167628 0.37926835 0.3515358 0.3390853
000020 4f bf c5 3e 45 ef ca 3e fd 1e c0 3e 24 62 bc 3e
       0.3862252 0.39635673 0.37523642 0.36793625
000030 cf b9 04 3f 35 3b ed 3e 5a 83 cc 3e f2 44 f0 3e
       0.5184602 0.46334234 0.39943963 0.469276
000040 da 24 06 3f 4b d6 c5 3e 1c a4 aa 3e 63 cc b4 3e
       0.5239998 0.38640055 0.3332833 0.35312185
000050 28 0b b9 3e 5f 36 c7 3e 23 f0 c7 3e 24 24 c8 3e
       0.36141324 0.3890867 0.39050397 0.39090073
000060 bc cb 04 3f 0b e8 e9 3e 61 48 cc 3e 5e 05 ef 3e
       0.51873374 0.45684847 0.3989897 0.46683782
000070 09 14 05 3f 14 7c c6 3e 0a 75 a4 3e a9 84 b3 3e
       0.51983696 0.3876654 0.32120544 0.3506215
000080 aa df c1 3e 83 10 c8 3e 4c f9 c1 3e b9 44 c4 3e
       0.37865955 0.39075097 0.3788551 0.3833368
000090 38 eb 04 3f 84 d1 ee 3e 1d cf ce 3e bc b7 ef 3e
       0.51921415 0.46644223 0.4039239 0.46819866
0000a0 f7 80 05 3f f4 4c c4 3e c7 fb a9 3e 10 62 b4 3e
       0.5214991 0.3833996 0.33199903 0.35231066
0000b0 b3 e6 c3 3e 06 8d cb 3e a7 4f bd 3e 31 55 c8 3e
       0.38261947 0.3975603 0.36974832 0.39127496
0000c0 bd 0f 04 3f 00 a8 ed 3e b8 d4 cb 3e e4 6e f1 3e
       0.51586515 0.46417236 0.3981073 0.47154915
0000d0 f6 df 04 3f 76 65 c2 3e fe 2a ac 3e cc 63 ac 3e
       0.5190424 0.37968034 0.3362655 0.3366989
0000e0 9e 22 be 3e ff 99 d1 3e 96 5b bb 3e 83 0b c3 3e
       0.37135786 0.40937802 0.36593312 0.3809472
0000f0 0c 3c 04 3f 27 c2 eb 3e 83 16 cf 3e e0 9c f0 3e
       0.51654124 0.46046564 0.40446863 0.46994686
000100 f0 88 06 3f 38 95 cb 3e b8 86 af 3e 4a 84 b0 3e
       0.525527 0.39762282 0.3428247 0.3447593
000110 77 f7 c4 3e 7a ed c8 3e 1e dd ce 3e e1 15 c2 3e
       0.3847005 0.3924368 0.40403074 0.37907317
000120 e3 e5 04 3f 8e e5 ee 3e 3b ff ce 3e d3 7c ee 3e
       0.5191328 0.4665951 0.404291 0.46579608
000130 64 10 08 3f 75 fa c6 3e e1 a3 a6 3e cd 7d ae 3e
       0.5315001 0.3886296 0.32546905 0.34080353
000140 f9 fc c0 3e 1f 71 c5 3e 7a 56 d0 3e c6 f2 c7 3e
       0.37693003 0.38562867 0.40690976 0.3905241
000150 64 22 03 3f 7c 09 f3 3e 58 20 d0 3e fd c9 ef 3e
       0.5122435 0.47468174 0.40649676 0.46833792
000160 33 dc 06 3f 58 a0 bb 3e cd e3 a7 3e 55 2d ac 3e
       0.5267975 0.3664577 0.32790986 0.33628336
000170 df 66 c2 3e ca de c4 3e 40 be c2 3e 38 67 d5 3e
       0.3796911 0.38451225 0.38035774 0.41680312
000180 f2 b9 04 3f af 5b ed 3e 8e b5 ce 3e 72 67 ee 3e
       0.5184623 0.46359012 0.4037289 0.46563298
000190 02 6d 05 3f 7a cc c6 3e 62 63 ba 3e c3 b1 ad 3e
       0.5211946 0.38827878 0.36403948 0.33924684
0001a0 b4 f5 bc 3e 9e 64 bd 3e 8d 6d cf 3e ea a0 bf 3e
       0.36906207 0.36990827 0.40513268 0.37427455
0001b0 98 ef 04 3f 43 ce f0 3e 0c 49 cf 3e 93 1e f1 3e
       0.5192809 0.47032365 0.40485418 0.4709364
0001c0 3e 60 05 3f a7 9d c7 3e 31 f8 ad 3e 76 f3 b8 3e
       0.5209998 0.38987467 0.33978418 0.36123246
0001d0 73 47 c1 3e e5 41 bf 3e 72 f9 c3 3e ea f5 c8 3e
       0.37749824 0.3735496 0.3827625 0.39250118
0001e0 1c fc 04 3f 43 15 ed 3e c5 f1 cd 3e f8 ff ee 3e
       0.5194719 0.46305284 0.40223518 0.46679664
0001f0 1d ae 04 3f 6c 67 c6 3e 05 d9 a7 3e d0 42 aa 3e
       0.51828176 0.3875078 0.3278276 0.332541
000200 c5 75 c2 3e 48 61 c6 3e 2e b5 bf 3e d1 ac c1 3e
       0.37980476 0.38746095 0.37442917 0.3782716
000210 b5 67 05 3f 1b 54 ed 3e 26 cc cd 3e 8c 9c ef 3e
       0.5211137 0.4635323 0.40194815 0.46799123
000220 2e 13 04 3f d9 a1 c5 3e 7a c2 a6 3e 51 77 af 3e
       0.51591766 0.38600042 0.3257025 0.3427072
000230 37 26 c3 3e 8e 40 c1 3e 8f f3 cf 3e b6 5e b9 3e
       0.38115093 0.37744564 0.40615508 0.3620507
000240 64 70 04 3f 36 3f ee 3e 3a 22 cd 3e a3 e1 ef 3e
       0.51733994 0.465326 0.40065175 0.46851835
000250 e5 8c 07 3f c1 4b c1 3e 47 a7 9f 3e b8 b2 b5 3e
       0.52949363 0.37753108 0.3118231 0.35487914
000260 e6 f3 c1 3e eb 15 ca 3e 01 62 bc 3e 7b cf d0 3e
       0.37881392 0.39469847 0.3679352 0.40783295
000270 45 82 04 3f 88 ee ef 3e 10 23 cf 3e 0e b0 ef 3e
       0.51761276 0.46861672 0.40456438 0.46814007
000280 70 d7 03 3f 67 64 c4 3e 52 7b ad 3e c6 d5 aa 3e
       0.51500607 0.3835785 0.33883148 0.3336622
000290 54 75 c4 3e cc 0e c1 3e 8e a2 be 3e 29 6f c7 3e
       0.38370764 0.37706602 0.37233394 0.38951996
0002a0 f0 88 06 3f 96 2c ec 3e a9 cd ce 3e c8 a1 ef 3e
       0.525527 0.46127766 0.4039128 0.46803117
0002b0 43 e2 03 3f 8f d4 ce 3e 67 cb a8 3e 59 be ac 3e
       0.51517123 0.40396544 0.32967684 0.33738974
0002c0 9f 60 c5 3e c5 ca c6 3e f7 c3 c3 3e 49 01 bb 3e
       0.3855028 0.38826576 0.38235447 0.36524418
0002d0 18 ba 04 3f 1e 01 f0 3e ff ed cc 3e c4 22 f0 3e
       0.51846457 0.46875852 0.40025327 0.46901524
0002e0 d3 ed 04 3f 34 c9 ba 3e e4 65 a8 3e e0 06 ab 3e
       0.5192539 0.3648163 0.32890236 0.33403683
0002f0 7b c2 c7 3e 4b f2 d7 3e 45 82 c2 3e b6 b5 b5 3e
       0.39015564 0.42177042 0.37990013 0.35490197
