tests/test_data_path/og_processed/dimer_ap3_train_spec_7_617.pt (torch, 205906 bytes, 17 tensors)

y f4 [16, 4]
000000 67 43 23 c0 bf 1d 4b 3b 07 65 66 be cf e0 33 be
       -2.550989 0.0030993072 -0.22499476 -0.17566226
000010 8c e3 79 40 14 06 8b 3d eb 81 2a bf a3 8a 31 bf
       3.9045134 0.06788269 -0.6660449 -0.6935217
000020 c0 40 78 c1 33 70 1c 42 9a d1 dd c0 49 87 22 c1
       -15.515808 39.10957 -6.931836 -10.158029
000030 0e c5 4f 40 15 eb f6 3c db f6 2b bf 11 96 12 bf
       3.2464023 0.030141393 -0.67173547 -0.57260233
000040 e4 98 c5 c1 9c 78 22 42 23 7a 12 c1 bb ad 54 c1
       -24.699654 40.617783 -9.154819 -13.292415
000050 1b 00 fd c0 75 d6 8f 3f ef 66 ed bf ef 20 ac bf
       -7.906263 1.1237322 -1.8547038 -1.344755
000060 c6 82 fa bf df c9 90 38 6a 1c 90 be dc 55 a4 bd
       -1.9571159 6.9040565e-05 -0.28146678 -0.08024189
000070 f3 79 26 c0 3d 9a 92 3b a4 b6 0f bf 1c 94 bf be
       -2.6011932 0.004473953 -0.5613806 -0.37417686
000080 4b c5 71 c1 b5 93 82 41 5b 91 b5 c0 cd 66 ed c0
       -15.110667 16.322123 -5.6739936 -7.418799
000090 56 8a 06 c0 5d af 78 3c 3d b1 71 be 33 05 ac be
       -2.1021934 0.015178529 -0.23602767 -0.33597717
0000a0 b4 6b 68 c0 63 3c 8f 3e ab ab ae bf 65 de e5 bf
       -3.6315737 0.2797576 -1.3646139 -1.7958494
0000b0 b1 d4 5f 40 11 f3 40 41 6b a2 52 c0 35 2f bb c0
       3.4973567 12.059342 -3.2911632 -5.8495126
0000c0 cf f4 65 bf a6 de 9e 3c 31 48 0f bf 73 43 16 bf
       -0.89826673 0.019393276 -0.5596953 -0.5869667
0000d0 01 97 b1 40 de e5 96 3c 62 30 3a bf 7a 46 e3 be
       5.549683 0.018420156 -0.72730076 -0.44389707
0000e0 f2 37 27 c2 6a ca 7e 42 7e d4 b3 c1 1c ad 4b c1
       -41.804634 63.69767 -22.478756 -12.729763
0000f0 1b 77 72 40 bd 5a 88 41 8e 4c 8d c0 b2 28 f7 c0
       3.7885196 17.044306 -4.415595 -7.7237177

RA f4 [192, 3]
000000 2c b8 d7 be ee 5e da bf da 91 aa 3f 1e 15 2f be
       -0.421327 -1.706022 1.332576 -0.170979
000010 81 5f 03 bf c4 b3 e4 3e 8a 57 8f 3f 45 62 e2 bd
       -0.513176 0.446684 1.119859 -0.110539
000020 85 79 af 3d be d8 91 bf c9 b0 5a 3e 25 c9 53 be
       0.085681 -1.139427 0.213565 -0.206822
000030 38 32 7f 3f 23 d9 6b 3f 4b 56 2d bf 75 ab c7 be
       0.99686 0.921282 -0.677098 -0.38998
000040 0b 5e 92 3f cd 75 62 bf 50 a7 b8 bf 90 86 f3 bf
       1.143495 -0.88461 -1.442606 -1.902544
000050 19 55 c2 3f 92 79 24 3d 57 21 c5 bf 03 95 12 40
       1.518222 0.040155 -1.54008 2.290345
000060 3f 6f 0b c0 90 87 86 3e d1 40 4c be 77 67 d5 3f
       -2.178665 0.262753 -0.199466 1.66722
000070 d7 a6 bd 3f e3 34 90 bf 5d 86 47 bf 85 7c f4 3f
       1.481654 -1.126614 -0.779394 1.91005
000080 d1 79 bb bf ad 16 98 3d 69 8e 28 c0 15 72 65 3f
       -1.464655 0.074262 -2.633692 0.896272
000090 83 e0 b1 be ea 58 d5 bf ba a2 ae 3f 0f 7e 12 be
       -0.347416 -1.666776 1.364341 -0.143059
0000a0 65 c5 04 bf b0 c9 d2 3e 4c 52 95 3f 1b 81 d8 bd
       -0.518637 0.411695 1.166574 -0.105715
0000b0 54 8d de 3d af 09 8f bf 14 5c 6c 3e 8b 8a 18 be
       0.108668 -1.117483 0.23082 -0.148966
0000c0 e7 01 78 3f 9f 56 69 3f b3 96 32 bf 04 1d cd be
       0.968779 0.911478 -0.697612 -0.400612
0000d0 b0 c5 96 3f 3b 1d 74 bf 9d 2b ba bf dc 9d f3 bf
       1.177908 -0.953571 -1.454456 -1.903255
0000e0 7a 6e c1 3f 83 f7 05 3e 1e fe c4 bf b1 f8 15 40
       1.511184 0.130827 -1.539005 2.343304
0000f0 67 ee 0a c0 cf f3 87 3e 32 e4 38 be cd ce dc 3f
       -2.170801 0.265532 -0.180558 1.725061
000100 be 83 c3 3f 56 f5 90 bf 5c 59 36 bf 44 88 f3 3f
       1.527458 -1.132487 -0.712301 1.902596
000110 ad bf b3 bf 7b 85 85 3d c8 45 28 c0 4f 03 66 3f
       -1.404287 0.065196 -2.629259 0.898488
000120 02 61 cf be e2 56 d5 bf 10 23 9e 3f ba 4e 13 be
       -0.405037 -1.666714 1.235445 -0.143855
000130 8c 15 0d bf ea e9 cb 3e 07 7d 91 3f 38 d8 9b bd
       -0.55111 0.398269 1.136628 -0.076096
000140 fd 2e ec 3d d0 b6 86 bf df c3 75 3e fb 3f 27 be
       0.115324 -1.052454 0.240005 -0.16333
000150 60 3b 6c 3f 22 55 64 3f 23 bc 2d bf 06 0e b8 be
       0.922781 0.891924 -0.678652 -0.359482
000160 ac aa 9f 3f a3 05 7c bf b5 a7 c4 bf a8 3a f8 bf
       1.247396 -0.984461 -1.536368 -1.93929
000170 cd 1d c1 3f 98 da 92 3d 7b 6a c7 bf a7 3d 15 40
       1.508722 0.071706 -1.557937 2.331888
000180 06 f4 07 c0 a4 c7 9f 3e a6 5f 12 be 7a fc e0 3f
       -2.124269 0.31207 -0.142943 1.757705
000190 d2 ff c0 3f f7 3f 94 bf d0 61 46 bf 00 90 f7 3f
       1.507807 -1.158202 -0.77493 1.934082
0001a0 ba 4b ba bf 8c a1 9c 3c d6 c6 29 c0 cc 99 5d 3f
       -1.455436 0.01912 -2.652761 0.865628
0001b0 a6 43 cf be 5a f3 dd bf f1 29 a0 3f 3f 52 34 be
       -0.404813 -1.733989 1.25128 -0.176095
0001c0 6e c2 0d bf 27 67 d0 3e 8d 44 90 3f 87 18 ef bd
       -0.553748 0.407037 1.127092 -0.116746
0001d0 9b e3 bc 3d 35 0a 8d bf 46 9a 80 3e 7d cf 58 be
       0.092231 -1.101874 0.251177 -0.211729
0001e0 89 26 7c 3f dd 0c 6b 3f 4d 0f 36 bf fc 1a b9 be
       0.984963 0.918165 -0.711171 -0.361534
0001f0 bc 22 9a 3f a3 c8 6a bf 72 51 bf bf 56 b6 ef bf
       1.204185 -0.917124 -1.494673 -1.872752
000200 c0 09 c3 3f f1 bc 14 3d cc 7d ca bf 33 c2 16 40
       1.523735 0.036313 -1.581964 2.355603
000210 0a db 09 c0 c2 de 74 3e 89 d1 53 be 40 6d dc 3f
       -2.153994 0.239131 -0.206854 1.722084
000220 3c 66 bc 3f dd b3 8a bf 04 56 3e bf 0d 1d fd 3f
       1.47187 -1.083614 -0.7435 1.977449
000230 64 24 c3 bf 0f d1 68 3d 13 9d 27 c0 b7 d0 65 3f
       -1.524548 0.05684 -2.618962 0.897716
000240 91 9c cc be d1 06 dc bf 6d 8e a9 3f f5 47 38 be
       -0.399632 -1.718958 1.324659 -0.179962
000250 b8 3e 10 bf 65 c2 cf 3e c7 4b 8b 3f b8 74 cc bd
       -0.563457 0.40578 1.08825 -0.099832
000260 4a 42 82 3d aa 2d 8f bf 2f 6b 72 3e 4e d3 27 be
       0.063603 -1.118581 0.236737 -0.163892
000270 21 22 71 3f 8a 3d 64 3f cd ca 3e bf 1b 2c cc be
       0.941927 0.891564 -0.745282 -0.398774
000280 4d bd 90 3f fb ca 6f bf b7 b4 be bf 56 61 f3 bf
       1.130777 -0.936691 -1.48989 -1.901408
000290 a7 05 b7 3f 63 42 ac 3d 98 a7 c3 bf 92 95 11 40
       1.42986 0.084111 -1.528552 2.274754
0002a0 eb 00 0e c0 71 ae a1 3e 7a 36 7b be 34 4a dd 3f
       -2.218806 0.315784 -0.245325 1.728827
0002b0 2c d3 c3 3f 90 f7 96 bf 0d c4 32 bf a5 6a f1 3f
       1.529882 -1.17943 -0.698304 1.886067
0002c0 b7 43 bf bf 3f ac 97 3d 11 57 28 c0 d9 27 64 3f
       -1.494254 0.074059 -2.630314 0.891233
0002d0 d4 62 d0 be 5c 76 dc bf b9 4f a4 3f 4a ef 2b be
       -0.407004 -1.722362 1.283683 -0.167905
0002e0 0f 45 1d bf 8d 62 d9 3e d6 a7 8c 3f 93 3a a1 bd
       -0.614335 0.42458 1.098872 -0.078725
0002f0 10 94 bb 3d 90 88 87 bf 1c 0c 9d 3e 5f 99 27 be
       0.091591 -1.058855 0.306733 -0.163671
000300 6c cf 68 3f 86 90 6f 3f 1e 8a 42 bf a4 19 bb be
       0.909415 0.935799 -0.75992 -0.36543
000310 d3 11 98 3f 85 43 6b bf a7 96 bb bf a6 b7 f3 bf
       1.188044 -0.918999 -1.465535 -1.904042
000320 56 48 bb 3f 33 fd 92 3d 73 f1 c5 bf 9b 1d 17 40
       1.463145 0.071772 -1.546431 2.361182
000330 42 05 0d c0 ea cb 8a 3e 35 eb 7c be 23 2f d7 3f
       -2.203446 0.271087 -0.246991 1.681126
000340 07 d1 c2 3f 09 a8 9a bf 4c fd 34 bf 9b 1e fa 3f
       1.522004 -1.208253 -0.70699 1.954059
000350 af 41 c5 bf 1b d7 7f 3d ff 23 27 c0 e0 81 69 3f
       -1.541067 0.062461 -2.611572 0.912138
000360 89 d0 d0 be 08 8f da bf 37 34 a9 3f f8 de 1f be
       -0.407841 -1.70749 1.321906 -0.156124
000370 6e 13 0a bf 48 4f d9 3e 5d 8c 91 3f 7b da e1 bd
       -0.539359 0.424433 1.137096 -0.11028
000380 9c 53 89 3d f6 ed 8a bf 86 91 9e 3e 5e bd 2a be
       0.067054 -1.085387 0.309704 -0.166738
000390 e8 30 77 3f 46 ce 66 3f 22 c7 3a bf 94 17 d1 be
       0.96559 0.901585 -0.729601 -0.408383
0003a0 60 1d 9f 3f ec a3 73 bf 3f 36 c1 bf f2 41 ef bf
       1.243084 -0.95172 -1.509468 -1.8692
0003b0 91 d2 be 3f e2 cb c4 3d 27 84 cc bf 13 0f 12 40
       1.490801 0.096092 -1.597783 2.28217
0003c0 bf 0f 0e c0 cc 0c b3 3e 63 9a 39 be d1 02 e4 3f
       -2.219711 0.349707 -0.181253 1.781336
0003d0 b6 be c0 3f a2 25 93 bf ca 17 3c bf 06 f3 f9 3f
       1.50582 -1.149586 -0.734738 1.952729
0003e0 93 ac bf bf 46 d3 09 3e 0a f8 2a c0 fc 8e 6d 3f
       -1.497454 0.134595 -2.671389 0.927963
0003f0 ec db c1 be d6 74 d7 bf f0 fd a7 3f c2 4f 0c be
       -0.378631 -1.683253 1.312437 -0.137023

RB f4 [160, 3]
000000 42 42 34 3f 9c 16 e8 40 15 56 5d c0 02 2b ff be
       0.704136 7.25276 -3.458379 -0.498375
000010 a5 07 00 41 0a cd a3 c0 bc 57 75 3f 8f 7e d4 40
       8.001866 -5.118779 0.95837 6.640449
000020 9e 09 02 c0 ad 8a 04 bf d6 56 ea 40 96 04 7e c0
       -2.031837 -0.517741 7.3231 -3.96903
000030 9f 71 e9 3f 47 59 fc 40 b1 fd 82 c0 5c 00 b8 bf
       1.82378 7.885898 -4.093468 -1.437511
000040 86 9b 02 41 f7 22 bf c0 62 67 a6 3f fb b3 08 41
       8.16297 -5.973018 1.30003 8.543941
000050 b1 89 ae c0 a6 45 1d 3f f0 40 b4 40 4c a6 0a c0
       -5.454308 0.614344 5.632927 -2.1664
000060 b2 f2 ff 3f 01 c3 d5 40 22 18 e7 bf d5 96 82 3e
       1.999594 6.680054 -1.805424 0.255057
000070 6b e6 e4 40 1e 1a aa bf be 58 e2 40 f4 17 9a bd
       7.153127 -1.328922 7.073333 -0.075241
000080 9a cf 65 3f 7c f0 db 40 03 ee d3 3f 0f 7c 0f 40
       0.897699 6.873106 1.655701 2.241947
000090 ed aa fd 40 be bc 92 bf a1 6a b4 3d d9 5a f8 40
       7.927115 -1.146385 0.088094 7.76109
0000a0 f7 e6 53 3f c8 ed d5 3f 42 cf b8 40 f8 34 27 bd
       0.827743 1.671319 5.7753 -0.040822
0000b0 38 d9 3a 3f b7 6b e5 40 f8 70 29 40 f8 a5 43 40
       0.729877 7.169399 2.64752 3.057005
0000c0 74 37 a7 40 76 c5 9e 3f f7 78 d5 3f dc 26 07 41
       5.225519 1.240401 1.667754 8.446987
0000d0 b2 2b db bf 6c 94 55 3f 09 62 e9 40 12 a0 de bf
       -1.712271 0.834296 7.293217 -1.73926
0000e0 dd b4 05 bf 7a cd 08 41 65 fc 2b bf f3 ca 09 bf
       -0.522291 8.550165 -0.67182 -0.538253
0000f0 46 b5 a6 3f df 7e 8c 40 6a fb b7 bd d2 8e d9 3f
       1.302407 4.390487 -0.089835 1.699671
000100 53 a5 bb 40 8a 02 df bf f8 a5 dc 3f 65 38 4c 40
       5.863931 -1.742265 1.723815 3.190942
000110 73 da 47 3f 5b 7b 0f 40 f0 df 98 40 2c 47 8a bf
       0.780677 2.241904 4.777336 -1.080297
000120 1f 81 7f 3e 81 97 a1 40 65 ff 2c 3e a8 8f 0e 40
       0.249516 5.049744 0.168943 2.227518
000130 bf 49 d0 40 c9 8e 2a c0 6a 86 14 3d f4 09 cb 40
       6.509002 -2.664965 0.036261 6.344965
000140 5d 4f 84 bf 52 60 2c 40 da ac 57 40 be f7 a3 3f
       -1.033672 2.693379 3.369925 1.280998
000150 65 37 77 3f 7d 91 42 40 0f b8 bc 3f 58 ff e3 3f
       0.965689 3.04013 1.474367 1.78123
000160 35 46 13 40 fc 72 66 3d c9 80 e1 40 6e 8a 9f 3e
       2.30116 0.056262 7.046971 0.311603
000170 1a 4d 6a bf 03 d2 f4 40 d3 6a bc 3f 2d 60 52 3f
       -0.915239 7.650636 1.47201 0.82178
000180 91 50 ea 40 2f 86 e2 be 04 fe 10 c0 ae 9a 01 41
       7.322335 -0.44243 -2.265504 8.100264
000190 f0 16 44 3f 41 29 8a be 5b 98 b9 40 c2 c3 00 3f
       0.765975 -0.269846 5.799848 0.502987
0001a0 93 55 21 bf 82 38 06 41 4c 6c fc 3f 75 cd dc 3f
       -0.630212 8.388796 1.972055 1.72502
0001b0 bd 1c b9 40 ad bf af 3f c4 cc 5a 3f fa 33 fc 40
       5.784758 1.373037 0.854687 7.881345
0001c0 ce e2 b1 bf 89 b4 00 c0 69 45 cc 40 5a f4 42 bf
       -1.389734 -2.011019 6.383473 -0.761541
0001d0 5c 71 2e c0 7e c3 fc 40 ba dc 30 3e 9a 27 41 c0
       -2.725669 7.898864 0.172717 -3.018042
0001e0 1f 2e fb bf 02 45 5e 40 01 32 bc bf ab 59 09 c0
       -1.962345 3.472962 -1.470276 -2.146098
0001f0 a5 69 32 40 4b 8f 6b c0 a1 a1 04 c0 3e 21 50 40
       2.787698 -3.680621 -2.072365 3.252029
000200 dc d8 ec 3b 76 fe 14 c0 e1 46 20 40 6a a5 14 c0
       0.007228 -2.328031 2.504326 -2.322596
000210 7f 85 b4 bf b9 55 93 40 1f f5 f3 bf 21 e6 17 c0
       -1.410324 4.604214 -1.905918 -2.373421
000220 32 b0 0b 40 68 22 93 c0 c9 3b b5 bf 85 09 92 40
       2.182629 -4.59795 -1.415887 4.563662
000230 0a bf 66 c0 45 b7 be bf 22 72 17 40 18 d2 a1 3e
       -3.60541 -1.489968 2.366341 0.316056
000240 47 e3 e0 bf 8e 9e 85 40 ae 47 1d 3f e3 e2 47 c0
       -1.756936 4.175605 0.614375 -3.123223
000250 dc bd 43 40 d4 9d 87 3e 3e 06 81 c0 ea 69 b4 40
       3.058463 0.264876 -4.032012 5.637929
000260 02 28 6a bf d6 39 f6 bf c9 ad c5 40 b5 32 c3 bf
       -0.914673 -1.92364 6.177464 -1.524985
000270 b3 51 ab c0 6e 35 bf 40 9b af 22 be ec 17 41 c0
       -5.353723 5.975272 -0.158873 -3.017085
000280 99 45 d1 40 95 0d 4f bf 1f d9 7a c0 a8 e2 90 40
       6.539746 -0.808801 -3.919502 4.527668
000290 4c 8e db bf 85 0b 51 bf ef c9 d6 40 18 98 d1 bf
       -1.71528 -0.816582 6.71215 -1.637454
0002a0 60 03 16 c0 00 1a 90 40 51 f4 14 c0 34 3f b8 c0
       -2.343956 4.503174 -2.327412 -5.757715
0002b0 0d aa db 40 e8 69 04 bf 85 35 c1 c0 73 74 a3 40
       6.864508 -0.517241 -6.037783 5.107965
0002c0 a1 da c0 be 15 9e a3 c0 c6 b2 bf 40 08 39 5b 3f
       -0.376668 -5.113047 5.990573 0.856339
0002d0 11 6f 2c 40 25 95 70 40 14 9a 19 c1 e4 49 c0 3f
       2.694279 3.759103 -9.600117 1.502255
0002e0 d0 5f 67 40 3b 01 f6 c0 eb 3b 36 40 90 d7 87 40
       3.615223 -7.68765 2.847407 4.245064
0002f0 72 ac 2f c1 bf 49 c5 3f 09 26 83 40 d5 c7 0f c1
       -10.979601 1.541313 4.098393 -8.986287
000300 b7 46 6e 40 fd 88 4a 40 85 8c 0f c1 a6 f1 33 3f
       3.723066 3.164611 -8.971807 0.702906
000310 82 c6 6f 40 b7 35 db c0 2a c9 4d 40 f9 db 2e 40
       3.746491 -6.850307 3.215403 2.732176
000320 5e a0 ec c0 b8 75 32 40 79 78 a8 40 d2 22 32 c1
       -7.394576 2.788435 5.264706 -11.133501
000330 01 f9 7a 40 55 f8 75 40 ca c5 35 c1 09 de 05 40
       3.921448 3.843282 -11.360788 2.091677
000340 af 44 76 40 ab b3 39 c1 47 73 58 40 e3 c6 b8 40
       3.847942 -11.606364 3.382036 5.774278
000350 59 c1 ff bf 0e 16 9e 40 e4 67 9e 40 5d 8b 5c c0
       -1.998088 4.940192 4.950182 -3.446006
000360 44 15 36 40 fe 72 c2 40 5c ac 30 bf 6b 8d 93 40
       2.845048 6.076537 -0.69013 4.611013
000370 2b 85 a8 40 ff 5c 09 c0 3c f7 1f 40 24 0e bc 40
       5.266256 -2.146301 2.499465 5.876726
000380 60 af 49 c0 1f 94 be 40 e0 9f 90 40 cd e4 78 c0
       -3.151329 5.955581 4.519516 -3.888965
000390 ed 4a 5d 40 ec 42 a9 40 23 4e 8d c0 06 f7 58 40
       3.457698 5.289419 -4.415788 3.390077
0003a0 1b 0d dd 40 f6 0b 86 be 99 45 e6 3f 1f 3b cf 40
       6.90785 -0.26181 1.798999 6.475967
0003b0 9c a7 3e bf 9b 56 37 40 21 1d a9 40 70 b1 a2 3c
       -0.744745 2.864661 5.284806 0.01986
0003c0 57 41 25 40 3c 7a c4 40 33 4e 2f bf 2f 18 b6 3f
       2.582113 6.139921 -0.684787 1.422613
0003d0 b0 8c 88 40 11 37 a3 bf 65 8a 2f 40 41 75 f5 40
       4.267174 -1.275118 2.742822 7.670563
0003e0 75 c8 0d bf 72 e0 b3 3f 47 3b b1 40 ba 10 99 bf
       -0.55384 1.405287 5.538486 -1.195823
0003f0 c7 62 66 40 9c d3 a9 40 cd ac 8d be df 18 1e 3f
       3.599779 5.307081 -0.276709 0.617567

qA f4 [192, 1]
000000 8a f7 fd be 82 3c 91 3e 15 52 07 bf 34 fd 24 be
       -0.4960292 0.28366476 -0.5285962 -0.16112214
000010 29 6d 8e 3e 34 3c f3 be 9e fa 25 3e a4 59 21 3e
       0.27817658 -0.4750687 0.16208884 0.15756851
000020 9a 9f 28 3e e0 03 df 3d 1c c1 b7 3e 9e 61 16 3e
       0.16467133 0.10889411 0.35889518 0.14685676
000030 6c 57 02 bf b4 03 9e 3e 3c 7b 02 bf 30 e8 4a be
       -0.50914645 0.308622 -0.5096929 -0.19815135
000040 94 50 4a 3e c6 db e4 be ea 23 1d 3e 9e 33 3c 3e
       0.197573 -0.44698924 0.15345731 0.18379065
000050 46 04 2f 3e b4 a1 df 3d 50 f7 c1 3e 10 77 25 3e
       0.17091474 0.10919514 0.37883997 0.161587
000060 8d a9 08 bf 2b ef b5 3e f3 0f 04 bf a4 5b 64 be
       -0.53383714 0.35534033 -0.51586837 -0.22300583
000070 26 b4 7a 3e ec 00 e2 be 5c 25 1b 3e 24 8b 17 3e
       0.24482784 -0.44141328 0.1515097 0.14799172
000080 f2 10 2d 3e ac 7f b0 3d 9b 49 c3 3e 82 1c 36 3e
       0.16900995 0.086181015 0.38142094 0.17784312
000090 5a 58 ff be b1 43 a1 3e 7d ce 06 bf 10 8e 4f be
       -0.49872094 0.31496957 -0.52658826 -0.20269036
0000a0 f2 fd 7d 3e f0 b7 e0 be 70 6b 17 3e 6c bf f5 3d
       0.24803904 -0.43890333 0.14787078 0.119994015
0000b0 b0 51 30 3e e4 14 df 3d c5 33 bc 3e 98 d4 3f 3e
       0.17218661 0.108926564 0.36758247 0.18733442
0000c0 be 4a 01 bf 59 61 9c 3e f4 c8 02 bf d8 64 56 be
       -0.5050467 0.3054302 -0.5108788 -0.20936906
0000d0 30 b2 52 3e b8 02 ce be e0 e5 20 3e 7c 99 2e 3e
       0.20575786 -0.4023645 0.1571269 0.17050737
0000e0 6c 57 24 3e 80 3b d9 3d c0 6d ba 3e 2c f4 21 3e
       0.16048974 0.10607052 0.36411858 0.158158
0000f0 a2 dd fa be c5 31 a3 3e 8f eb 06 bf 34 02 69 be
       -0.48997217 0.3187391 -0.52703184 -0.22754747
000100 d6 41 5e 3e 36 d8 c1 be 3e d8 26 3e 18 ac 0a 3e
       0.21704802 -0.37860268 0.16293427 0.13542211
000110 8c c8 1c 3e cc b3 d7 3d 70 e9 b7 3e 32 7d 2f 3e
       0.15310878 0.105323404 0.35920286 0.17137602
000120 8b 4b 00 bf bd f4 95 3e 4a 4e f8 be bc 47 56 be
       -0.5011527 0.29288283 -0.4849723 -0.20925802
000130 0e 49 29 3e 4a 2a d3 be 56 27 2b 3e f6 a6 32 3e
       0.16531774 -0.41243201 0.16714224 0.17446503
000140 2e 58 26 3e f0 11 ec 3d d4 36 c2 3e 4c 97 1a 3e
       0.16244575 0.11526859 0.37932456 0.15096778
000150 d6 5f 00 bf 05 be a7 3e 46 0d 04 bf fc 29 5a be
       -0.50146234 0.3276216 -0.51582754 -0.21305078
000160 06 51 49 3e ba 3b bc be 90 a4 17 3e c6 ed 24 3e
       0.19659814 -0.36764318 0.1480887 0.16106328
000170 44 7d 1a 3e e0 08 d3 3d 45 b4 b8 3e 72 8c 19 3e
       0.15086848 0.10304427 0.36075035 0.14994982
000180 b5 08 06 bf f0 11 b9 3e 6b 2c 02 bf 2c 92 77 be
       -0.52357036 0.36146498 -0.50849026 -0.24176854
000190 f0 91 1f 3e f6 e0 c9 be f2 54 21 3e c0 7a 27 3e
       0.15583014 -0.39429444 0.1575506 0.16355419
0001a0 26 12 33 3e 94 1b ff 3d e2 2a bd 3e 78 ad 24 3e
       0.17487392 0.12456432 0.3694678 0.16081798
0001b0 38 0c ff be 05 3a 85 3e 38 dc fd be c4 9f 4f be
       -0.4981401 0.26020828 -0.49582076 -0.2027579
0001c0 92 57 43 3e 60 53 c5 be 18 aa 12 3e 1e 2b 33 3e
       0.19076374 -0.38540173 0.14322698 0.17496917
0001d0 b4 19 2a 3e d0 d7 c9 3d b0 7c bd 3e a4 77 36 3e
       0.16611367 0.09855616 0.37009192 0.17819077
0001e0 f2 2c fd be 9e b8 a2 3e 52 78 fc be fc b5 3e be
       -0.49448353 0.31781477 -0.49310547 -0.18624109
0001f0 50 55 36 3e 92 7f e8 be f0 1a 23 3e 86 e9 3d 3e
       0.17805982 -0.45409828 0.15928245 0.18546113
000200 e4 3e 2a 3e 00 18 f6 3d 54 07 c5 3e 3c b6 ed 3d
       0.16625553 0.120162964 0.38482153 0.11607024
000210 4f ce 00 bf c6 56 a6 3e f3 65 02 bf a0 76 5b be
       -0.503148 0.32488078 -0.5093681 -0.2143197
000220 48 a5 1e 3e 78 50 b4 be 08 f4 ef 3d 88 9c 40 3e
       0.15492737 -0.35217643 0.11716467 0.18809712
000230 fa 48 1d 3e a0 44 eb 3d b1 55 b9 3e 96 68 27 3e
       0.1535987 0.114876986 0.3619819 0.1634849
000240 c4 d9 fd be 34 6e 85 3e d4 96 fd be 48 db 35 be
       -0.49580204 0.2606064 -0.49529135 -0.1775943
000250 7e 63 4d 3e 36 e7 d8 be f0 b6 26 3e 18 1f 18 3e
       0.20057485 -0.423639 0.16280723 0.14855611
000260 78 2e 30 3e f0 56 d7 3d 00 46 be 3e 12 0f 2f 3e
       0.17205226 0.10514629 0.3716278 0.17095593
000270 3d ef 08 bf d6 ef a8 3e 33 31 05 bf 3c 6c 5b be
       -0.5349005 0.3299548 -0.520282 -0.21428007
000280 2e 89 70 3e 56 60 d4 be 1e bc 28 3e 3a 8c 10 3e
       0.2348983 -0.41479748 0.16478011 0.14115992
000290 70 a2 33 3e 10 75 db 3d b2 d4 b6 3e 3c f7 31 3e
       0.17542434 0.10715687 0.3570915 0.17379469
0002a0 af 34 01 bf 07 2f a3 3e 6f 15 03 bf 04 5e 57 be
       -0.50471014 0.31871817 -0.5120458 -0.21031958
0002b0 7c ce 45 3e fa 81 bf be ae 35 16 3e 74 04 28 3e
       0.19317049 -0.37403852 0.14668915 0.16407949
0002c0 10 74 19 3e 90 29 d4 3d ec f5 b9 3e 2c af 25 3e
       0.1498568 0.1035949 0.36320436 0.16180104
0002d0 d3 0e 09 bf 1c cb bf 3e cf 8c 03 bf 06 20 86 be
       -0.53538245 0.37459648 -0.5138673 -0.26196307
0002e0 bc f6 34 3e a2 74 c6 be 86 7a 53 3e 62 81 14 3e
       0.17672247 -0.3876086 0.20652208 0.1450248
0002f0 58 96 30 3e 90 f5 e7 3d 0e ce bf 3e b0 e1 0a 3e
       0.17244852 0.11326134 0.37461895 0.13562655

muA f4 [192, 3]
000000 00 6a 6f 3c 18 38 36 3d f0 57 09 bd 0a a7 d4 3d
       0.014612675 0.04448709 -0.03353113 0.10383423
000010 f0 6c 84 bc a0 73 98 3c 90 44 bb bd 00 12 bf bb
       -0.016165227 0.018609822 -0.09143937 -0.005831003
000020 00 d6 b9 3b a0 44 6d 3c ae 37 b0 3d b6 93 a3 bd
       0.0056712627 0.0144816935 0.0860437 -0.07987158
000030 80 08 5f bd 20 99 06 bd 50 c1 db 3c 38 77 0c bd
       -0.054451466 -0.032860875 0.026825577 -0.034293383
000040 4c 9f 8c bd 08 ba 4f 3d 58 d6 2e bd 00 ba 31 bb
       -0.06866321 0.050714523 -0.042684883 -0.0027118921
000050 00 66 cd 3b f0 f1 c3 3c 20 e4 7e 3c cc 98 1c 3d
       0.006268263 0.023919076 0.015557319 0.038231656
000060 60 9e 64 bd c0 73 83 3b 00 aa 6d 3a 10 86 66 3d
       -0.0558151 0.004011601 0.00090661645 0.056280196
000070 28 8a 1d 3d 50 6e fe bc 60 af 7d bc a0 1c db 3c
       0.038461834 -0.03105846 -0.015483707 0.026747048
000080 f0 0f a1 bc 50 84 df 3c c8 10 0a bd c0 06 cf bc
       -0.01966092 0.027284771 -0.03370741 -0.025271773
000090 40 a3 f1 3c 7c 8e 70 3d a0 6c d9 bc 42 55 e9 3d
       0.029496789 0.058729634 -0.026541054 0.11393215
0000a0 50 77 c5 bc c0 97 94 3c bc f2 b1 bd 20 8a 06 bc
       -0.024104744 0.018138766 -0.08688876 -0.0082116425
0000b0 80 ab cf 3b 40 a9 5b 3c 84 40 ce 3d 24 7b a0 bd
       0.006337583 0.013407052 0.10070899 -0.07835987
0000c0 a0 53 87 bd c0 1c 5c bd 50 84 12 3d 00 04 d0 bc
       -0.06607747 -0.053738356 0.035770714 -0.025392532
0000d0 c0 7d 87 bd e0 4f 59 3d a8 af 3b bd 00 8b a9 bb
       -0.06615782 0.05305469 -0.045821816 -0.005174041
0000e0 80 43 18 3b 50 4c d2 3c 40 90 5c 3c bc e5 22 3d
       0.0023233593 0.025671154 0.013462126 0.039769873
0000f0 30 be 67 bd 80 91 37 3b 80 1e 1c bb 70 5b 79 3d
       -0.05657786 0.0028010309 -0.002382189 0.060878217
000100 5c 44 1d 3d b0 4a d4 bc 20 bd 49 bc 10 ad e4 3c
       0.03839527 -0.02591452 -0.012313157 0.027914554
000110 80 bc 8c bc 50 34 b0 3c c0 7e 0e bd 30 a5 e5 bc
       -0.017179728 0.02150932 -0.034788847 -0.02803287
000120 f0 6d e6 3c 18 a4 51 3d 20 5b 3d bd 34 9b ef 3d
       0.028128594 0.051181883 -0.04622948 0.116995245
000130 78 fb 0f bd 30 82 c3 3c e0 0b dd bd 80 ee 47 bc
       -0.03515193 0.02386579 -0.107932806 -0.012202859
000140 c0 b2 9d 3b 00 7e a3 3b ee c7 c6 3d 0c 15 9f bd
       0.0048125684 0.0049893856 0.09706102 -0.07767686
000150 a0 8a a2 bd 48 0a 3c bd 88 e0 0c 3d 60 e3 d6 bc
       -0.07936597 -0.045908242 0.034393817 -0.026231468
000160 e0 90 7d bd fc e3 44 3d f0 4a 45 bd 40 d8 10 bc
       -0.06190574 0.048068985 -0.04816717 -0.0088406205
000170 20 5f 30 3c e0 2d d2 3c 20 c8 60 3c e8 49 32 3d
       0.010764867 0.02565664 0.0137195885 0.043527514
000180 98 b5 6b bd 80 dc 0f 3b 80 6f 54 3b 60 10 87 3d
       -0.05754623 0.0021951497 0.0032415092 0.0659492
000190 50 af 21 3d 40 a4 f5 bc f0 01 8b bc d0 17 d3 3c
       0.03947383 -0.029985547 -0.016968697 0.02576819
0001a0 d0 3d 8e bc 60 e5 b7 3c f8 03 11 bd 60 bd ab bc
       -0.017363459 0.022448242 -0.035404176 -0.020964324
0001b0 c0 a7 ea 3c 98 5c 14 3d 20 ac 6c bd 72 8c db 3d
       0.028644443 0.036221117 -0.05778134 0.10720147
0001c0 80 35 00 bd 90 10 c8 3c 18 05 be bd 40 58 23 bc
       -0.03130102 0.02442196 -0.09278315 -0.009969771
0001d0 40 b3 95 3b 20 7f bd 3c 88 03 d4 3d 30 55 a0 bd
       0.0045684874 0.023131907 0.10352236 -0.07828748
0001e0 18 fe 73 bd 30 b6 1a bd 10 d3 d9 3c 50 60 09 bd
       -0.059568495 -0.037771404 0.0265899 -0.033539116
0001f0 9c b9 8d bd 6c da 58 3d 08 ea 39 bd 00 5a 82 3a
       -0.06920168 0.05294268 -0.045389205 0.0009945035
000200 a0 d8 11 3c 70 56 b6 3c e0 2a 5c 3c a0 f0 30 3d
       0.008901745 0.022258013 0.013437957 0.043198228
000210 b0 bd 68 bd 00 66 e7 ba 00 42 e3 3a dc 79 7d 3d
       -0.056821525 -0.00176543 0.0017338395 0.061883792
000220 34 d3 18 3d 80 e4 bd bc 00 db 5d bc 88 bb 00 3d
       0.037310794 -0.023180246 -0.013540983 0.031428844
000230 90 d3 c3 bc f0 ca ce 3c f8 ae 05 bd 00 18 ab bc
       -0.023904592 0.025243253 -0.032637566 -0.020885468
000240 c0 be 92 3c e0 74 1e 3d 30 fa a6 bc c0 b1 d0 3d
       0.017913222 0.03868568 -0.02038297 0.10190153
000250 40 31 de bc a0 71 95 3c 08 63 be bd 00 63 e0 ba
       -0.027123094 0.018242657 -0.092962325 -0.0017119348
000260 00 e7 8a 3a 10 65 89 3c 80 e8 c5 3d 54 8f 8b bd
       0.0010597408 0.016771823 0.096634865 -0.06814447
000270 5c b7 82 bd f0 9b 4a bd 68 dd 07 3d 50 c6 e2 bc
       -0.06382629 -0.04946512 0.033170134 -0.027682453
000280 88 a7 8f bd 04 1e 67 3d 20 c4 41 bd 00 23 42 bb
       -0.07014376 0.05642511 -0.04730618 -0.0029622912
000290 00 04 84 3a 50 c7 d9 3c 60 e0 89 3c 68 70 1a 3d
       0.0010071993 0.026584297 0.016830623 0.037704855
0002a0 f8 3e 75 bd 40 de c3 3b c0 29 ba bb ba 6b 86 3d
       -0.059874505 0.005977422 -0.0056812465 0.06563516
0002b0 f4 16 29 3d d0 1f d5 bc 20 ce 31 bc 40 ef d9 3c
       0.041281655 -0.026016146 -0.010852367 0.026603341
0002c0 b0 39 9d bc 00 16 d0 3c 28 c6 05 bd 70 b8 c9 bc
       -0.019192547 0.025401115 -0.03265968 -0.02462408
0002d0 e0 76 78 3c 68 ef 0c 3d a0 3a 23 bd d0 2a c2 3d
       0.015165061 0.034408003 -0.03985083 0.09480822
0002e0 a8 f0 0a bd b0 86 a7 3c 42 90 ca bd 80 17 3f 3b
       -0.033920914 0.020449966 -0.09890796 0.0029158294
0002f0 40 1f ad bb a4 11 33 3d 50 50 db 3d b8 ba 78 bd
       -0.0052832663 0.043717995 0.10708678 -0.060724944
000300 48 64 67 bd 20 7c 66 bd 80 9b 37 3d d8 36 05 bd
       -0.05649212 -0.05627072 0.04482603 -0.032523006
000310 94 c6 97 bd 90 7a 82 3d 38 73 35 bd 00 e2 1c bb
       -0.07410923 0.06371033 -0.044299334 -0.0023938417
000320 80 66 81 3b 10 69 dc 3c 50 12 90 3c 20 83 2f 3d
       0.0039489865 0.026905566 0.017586857 0.04284966
000330 b0 87 86 bd 80 dd 50 bb c0 cb 87 bb 94 15 82 3d
       -0.06568849 -0.0031870306 -0.004144162 0.06351772
000340 78 41 18 3d 00 42 dc bc c0 f9 62 bc 80 ba eb 3c
       0.03717181 -0.02688694 -0.01385349 0.028775454
000350 c0 1c b9 bc 30 7c c8 3c 50 29 fe bc 10 fd b9 bc
       -0.022596717 0.02447328 -0.031025559 -0.022703677
000360 e0 f4 39 3c 08 c2 61 3d 50 68 21 bd d6 6b d3 3d
       0.011349887 0.055116683 -0.03940612 0.103233024
000370 54 ce 18 bd 40 8e bf 3c e4 38 b8 bd 00 f8 c5 b9
       -0.037306145 0.02338326 -0.08995226 -0.00037759542
000380 80 68 62 3b 48 cc 08 3d ec 46 d9 3d f8 34 9f bd
       0.003454715 0.033397943 0.106092304 -0.07773775
000390 9c 72 9d bd c8 66 39 bd 80 95 05 3d 40 33 ca bc
       -0.07687876 -0.045264035 0.032613277 -0.024682641
0003a0 08 7b 89 bd 44 f4 61 3d d8 db 3d bd 00 ef e3 ba
       -0.067129195 0.05516459 -0.046352237 -0.0017389953
0003b0 c0 17 95 3b f0 fd e0 3c 60 5b 3d 3c 70 b1 15 3d
       0.0045499504 0.027464837 0.01155743 0.03654617
0003c0 30 b8 81 bd 00 34 d9 3a 00 28 35 39 e0 16 84 3d
       -0.06333959 0.0016571283 0.00017276406 0.064496756
0003d0 f0 5a 12 3d c0 fc bc bc a0 2f 62 bc f0 fc d5 3c
       0.035731256 -0.02306974 -0.0138053 0.026121587
0003e0 40 c6 9f bc d0 69 f1 3c b8 78 0a bd c0 1c b1 bc
       -0.019503713 0.0294694 -0.033806533 -0.021620154
0003f0 70 87 ba 3c a8 40 56 3d 70 76 e0 bc 6c cf d2 3d
       0.02276966 0.052307755 -0.027400225 0.10293469

quadA f4 [192, 3, 3]
000000 e2 c0 06 3d 40 48 5f 3b 70 68 2b bc 40 48 5f 3b
       0.03289879 0.0034070164 -0.010461912 0.0034070164
000010 b5 f5 e0 bc b0 7c 2f 3d 70 68 2b bc b0 7c 2f 3d
       -0.027460912 0.04284352 -0.010461912 0.04284352
000020 34 30 b2 bb 30 ec 78 bc e0 23 af 3c 50 f0 9c bc
       -0.005437875 -0.01519303 0.021379411 -0.019157559
000030 e0 23 af 3c 90 94 2f bc 3a 36 b4 3d 50 f0 9c bc
       0.021379411 -0.010716572 0.087994054 -0.019157559
000040 3a 36 b4 3d 60 40 d4 3c 85 f5 1f be 1c 58 a2 3d
       0.087994054 0.025909603 -0.15621002 0.07926962
000050 e4 fc 38 bd 1c 58 a2 3d 9c 98 2c 3d 5c 08 e9 3d
       -0.04516305 0.07926962 0.042137727 0.113785475
000060 e4 fc 38 bd 5c 08 e9 3d bc 9e e9 3d 33 21 96 bd
       -0.04516305 0.113785475 0.11407229 -0.07330551
000070 ac b5 52 3d 1c 07 40 bd ac b5 52 3d 0c 01 fa 3c
       0.051442787 -0.04688178 0.051442787 0.030518077
000080 08 74 0e 3d 1c 07 40 bd 08 74 0e 3d e2 41 2f 3d
       0.034778625 -0.04688178 0.034778625 0.04278744
000090 b0 f7 6d bc 70 33 af 3c 90 00 92 bc 70 33 af 3c
       -0.014524385 0.021386832 -0.017822534 0.021386832
0000a0 c0 23 79 bc d0 38 a5 3d 90 00 92 bc d0 38 a5 3d
       -0.015206277 0.08067477 -0.017822534 0.08067477
0000b0 b8 8d f3 3c cc 97 e4 bc 30 22 5a bc d0 fe 28 3c
       0.029730663 -0.027904414 -0.013313815 0.010314658
0000c0 30 22 5a bc c0 a2 bf ba 88 95 7c 3d d0 fe 28 3c
       -0.013313815 -0.0014620647 0.06166604 0.010314658
0000d0 88 95 7c 3d f4 91 f0 3c 75 48 eb bb 40 7b 6d bb
       0.06166604 0.02936647 -0.0071802684 -0.0036236793
0000e0 c0 a3 61 3b 40 7b 6d bb 6b 50 aa 3b a0 ec 83 bb
       0.0034429878 -0.0036236793 0.005197575 -0.0040260106
0000f0 c0 a3 61 3b a0 ec 83 bb 16 f0 01 3b 55 67 9c ba
       0.0034429878 -0.0040260106 0.001982694 -0.0011932651
000100 40 75 44 3b 40 75 0e bb 40 75 44 3b ab 55 d8 3b
       0.0029977113 -0.0021737367 0.0029977113 0.0066020093
000110 00 3c b2 ba 40 75 0e bb 00 3c b2 ba d5 3b b1 bb
       -0.0013598204 -0.0021737367 -0.0013598204 -0.005408744
000120 c0 e4 bf b9 40 55 74 3b 00 ea d4 ba 40 55 74 3b
       -0.0003660079 0.0037282258 -0.0016244054 0.0037282258
000130 b4 24 bd 3b 30 f5 a0 bc 00 ea d4 ba 30 f5 a0 bc
       0.0057721976 -0.019648165 -0.0016244054 -0.019648165
000140 6c 26 b1 bb b0 60 33 3c 40 52 42 3b 00 8f 64 ba
       -0.0054061916 0.010948345 0.0029651076 -0.00087188184
000150 40 52 42 3b 40 a4 04 bb a0 cf 38 bc 00 8f 64 ba
       0.0029651076 -0.0020239502 -0.01127997 -0.00087188184
000160 a0 cf 38 bc a0 37 12 bc e5 8c 06 3c c0 56 90 3b
       -0.01127997 -0.008924395 0.008212303 0.0044048727
000170 80 f7 19 bb c0 56 90 3b 2c 5b 25 bb e0 ee 92 bb
       -0.0023493469 0.0044048727 -0.0025231345 -0.0044840425
000180 80 f7 19 bb e0 ee 92 bb 36 6c ba bb aa a4 d0 39
       -0.0023493469 -0.0044840425 -0.0056891693 0.00039795536
000190 a0 ee ce 3b 00 12 2d ba a0 ee ce 3b 75 80 e0 bb
       0.0063150674 -0.00066021085 0.0063150674 -0.006851251
0001a0 a0 7b d4 bb 00 12 2d ba a0 7b d4 bb 2b 76 d3 3b
       -0.006484464 -0.00066021085 -0.006484464 0.0064532957
0001b0 30 65 d0 3c 60 86 a2 3b c0 88 71 bb 60 86 a2 3b
       0.025438875 0.0049598664 -0.003685519 0.0049598664
0001c0 48 06 ab bc 78 c6 01 3d c0 88 71 bb 78 c6 01 3d
       -0.020877019 0.031683415 -0.003685519 0.031683415
0001d0 a0 7b 95 bb b8 81 e3 bc fc e8 23 3d a0 53 ef bc
       -0.0045618564 -0.027771816 0.040017113 -0.02921468
0001e0 fc e8 23 3d 00 da c0 bb b4 1f a6 3d a0 53 ef bc
       0.040017113 -0.0058853626 0.08111516 -0.02921468
0001f0 b4 1f a6 3d 18 dc 09 3d 7d e6 2c be de eb ae 3d
       0.08111516 0.033657163 -0.168848 0.08541082
000200 28 31 92 bd de eb ae 3d 4c 97 78 3d 28 fe ca 3d
       -0.07138282 0.08541082 0.060691163 0.09911758
000210 28 31 92 bd 28 fe ca 3d 4e 81 dd 3d 1c 39 9c bd
       -0.07138282 0.09911758 0.108156785 -0.0762808
000220 94 db 9d 3d 08 6b 6a bd 94 db 9d 3d 18 c5 cf 3c
       0.07707897 -0.05723098 0.07707897 0.025362536
000230 3c 81 20 3d 08 6b 6a bd 3c 81 20 3d ac 8f 50 3d
       0.039185748 -0.05723098 0.039185748 0.050918266
000240 94 28 90 3c e0 89 8f 3b c0 e8 54 bb e0 89 8f 3b
       0.017597474 0.0043804497 -0.0032487363 0.0043804497
000250 22 c8 0a bd ea 29 c1 3d c0 e8 54 bb ea 29 c1 3d
       -0.033882268 0.094318226 -0.0032487363 0.094318226
000260 b4 67 85 3c 54 e1 a3 bb 68 66 8a bc a0 cd c2 3b
       0.016284801 -0.0050012264 -0.016894534 0.0059449226
000270 68 66 8a bc 56 d7 39 3c 78 1b c1 3c a0 cd c2 3b
       -0.016894534 0.011342844 0.023572668 0.0059449226
000280 78 1b c1 3c 54 cd cf bb d5 51 34 bc c0 96 b0 bb
       0.023572668 -0.0063416157 -0.011005838 -0.0053890646
000290 40 c4 a7 3b c0 96 b0 bb 55 95 d5 3b 80 d5 79 bb
       0.0051198304 -0.0053890646 0.006518046 -0.003812164
0002a0 40 c4 a7 3b 80 d5 79 bb 55 0e 93 3b aa b2 08 ba
       0.0051198304 -0.003812164 0.0044877925 -0.00052146113
0002b0 00 3f 44 3b c0 2e 67 bb 00 3f 44 3b ab b4 fa 3b
       0.0029944777 -0.0035275668 0.0029944777 0.007650932
0002c0 80 89 b7 ba c0 2e 67 bb 80 89 b7 ba 55 9e e9 bb
       -0.001400277 -0.0035275668 -0.001400277 -0.0071294704
0002d0 30 65 d7 3a 40 31 4e 3b 00 96 08 bb 40 31 4e 3b
       0.0016433354 0.003146246 -0.002084136 0.003146246
0002e0 d8 0e 4d 3b f8 cc a0 bc 00 96 08 bb f8 cc a0 bc
       0.0031289365 -0.019628987 -0.002084136 -0.019628987
0002f0 b4 60 9c bb 60 8e 31 3c 80 31 89 bb 20 b4 98 3b
       -0.00477227 0.0108371675 -0.004186809 0.0046601444
000300 80 31 89 bb 00 68 27 bb e0 35 30 bc 20 b4 98 3b
       -0.004186809 -0.0025544167 -0.010755032 0.0046601444
000310 e0 35 30 bc 60 b4 07 bc 4a 08 8b 3b 00 66 c2 3b
       -0.010755032 -0.008282751 0.0042429315 0.0059325695
000320 a0 b2 80 bb 00 66 c2 3b 28 f6 cf 3a f0 b6 22 bc
       -0.0039275438 0.0059325695 0.0015866207 -0.009931311
000330 a0 b2 80 bb f0 b6 22 bc d6 05 bf bb 50 cd 99 38
       -0.0039275438 -0.009931311 -0.005829553 7.333851e-05
000340 e0 9a c2 3b 00 84 61 39 e0 9a c2 3b ab 60 d3 bb
       0.0059388727 0.00021506846 0.0059388727 -0.0064507327
000350 80 54 dd bb 00 84 61 39 80 54 dd bb 75 f9 d0 3b
       -0.006754458 0.00021506846 -0.006754458 0.006377394
000360 37 9f 79 3d 00 74 76 ba 00 78 11 3b 00 74 76 ba
       0.060942855 -0.00094014406 0.002219677 -0.00094014406
000370 b1 b8 41 bd e4 e0 a1 3d 00 78 11 3b e4 e0 a1 3d
       -0.047295276 0.079042226 0.002219677 0.079042226
000380 14 9a 5f bc 3e 09 01 bd 10 c9 bf 3c a0 a9 6c bc
       -0.013647575 -0.031502955 0.023411304 -0.014444739
000390 10 c9 bf 3c 98 1d 18 bc 4c 48 a7 3d a0 a9 6c bc
       0.023411304 -0.009284399 0.081680864 -0.014444739
0003a0 4c 48 a7 3d a2 10 27 3d e7 11 3d be 10 47 89 3d
       0.081680864 0.040787347 -0.1846386 0.06703007
0003b0 d8 0c a3 bd 10 47 89 3d 84 ed 96 3d 00 7d e3 3d
       -0.07961434 0.06703007 0.07369521 0.11107826
0003c0 d8 0c a3 bd 00 7d e3 3d 48 36 e3 3d ff 77 5b bd
       -0.07961434 0.11107826 0.11094338 -0.053581234
0003d0 66 6e a6 3d d0 83 6a bd 66 6e a6 3d f4 db 42 3c
       0.081265256 -0.057254612 0.081265256 0.011893261
0003e0 9c 12 02 3d d0 83 6a bd 9c 12 02 3d 01 c1 2a 3d
       0.03175603 -0.057254612 0.03175603 0.04168797
0003f0 e8 db 21 3c 00 85 11 bb 00 8c d2 3a 00 85 11 bb
       0.00987909 -0.0022204518 0.0016063452 -0.0022204518

hfvrA f4 [192, 1]
000000 d4 11 8f 3f d0 5c 46 3f f0 22 9c 3f f1 58 76 3f
       1.1177316 0.7748537 1.2198162 0.96229464
000010 62 ca 49 3f f7 65 94 3f e6 f0 9a 3e a0 96 a2 3e
       0.78824437 1.1593617 0.30261916 0.31755543
000020 dc cd 91 3e 72 60 95 3e 90 ce 48 3e 54 6a b5 3e
       0.2847737 0.29175144 0.19610047 0.35432684
000030 27 df 92 3f 10 e7 43 3f ae 83 9b 3f 13 c3 7f 3f
       1.1474351 0.7652445 1.214956 0.99907035
000040 90 41 5d 3f a0 7f 8f 3f cc 65 b3 3e 00 8b 9e 3e
       0.86428165 1.1210823 0.35038602 0.30965424
000050 de f8 96 3e 28 d9 ad 3e c8 a6 18 3e 9e 59 b7 3e
       0.29486746 0.3395474 0.14907372 0.3581056
000060 0f c8 95 3f c4 ae 3d 3f c8 98 9a 3f 22 ff 82 3f
       1.1701678 0.74094796 1.2077875 1.023411
000070 87 52 59 3f 9e 6c 8e 3f e4 47 c9 3e 20 eb ca 3e
       0.8489155 1.1126897 0.3931266 0.3963251
000080 68 11 a0 3e 5e ca d5 3e 04 7a 1e 3e 06 9a ac 3e
       0.3126328 0.41755956 0.15476233 0.3371126
000090 15 3b 91 3f fe 24 42 3f a8 4a 9e 3f 1b cd 80 3f
       1.1346155 0.75837696 1.2366533 1.0062593
0000a0 10 c5 50 3f b3 74 92 3f 6a 4d b0 3e 64 fe d4 3e
       0.81550694 1.1441864 0.34434062 0.41600335
0000b0 1a b6 96 3e d0 da 9b 3e d4 6d 4d 3e 34 75 8f 3e
       0.29435807 0.30440378 0.20061427 0.28019106
0000c0 92 49 90 3f 42 af 41 3f 68 0e 9b 3f aa 44 82 3f
       1.1272452 0.7565805 1.2113771 1.0177205
0000d0 9a d4 59 3f e8 ca 8d 3f 10 50 a9 3e 8e 9d 9f 3e
       0.8509003 1.1077547 0.33068895 0.31174892
0000e0 be 7d a8 3e a8 ea b8 3e c8 66 38 3e a8 f2 ad 3e
       0.32908434 0.3611653 0.18007958 0.33974195
0000f0 26 d6 8e 3f ac 63 41 3f 7b a4 9f 3f fc f4 86 3f
       1.1159103 0.7554271 1.247207 1.0543513
000100 4e 21 54 3f af c3 8a 3f 62 1c a2 3e 32 44 d0 3e
       0.8286332 1.0840968 0.3166228 0.4067703
000110 92 2d b9 3e d0 81 b4 3e 40 00 4d 3e 2c 7c 9b 3e
       0.3616758 0.3525529 0.20019627 0.30368173
000120 aa 1d 92 3f 74 8d 45 3f 40 36 9a 3f 6f cf 85 3f
       1.1415303 0.77168965 1.2047806 1.0453929
000130 48 53 61 3f c8 82 8e 3f de 06 aa 3e 86 d7 a0 3e
       0.880177 1.1133661 0.33208364 0.3141443
000140 72 2f b3 3e 6e 26 b7 3e 90 2f 25 3e 70 1b c3 3e
       0.34997135 0.35771507 0.16131425 0.3810687
000150 50 e4 8f 3f 61 82 3c 3f 8b 6f 9e 3f 24 70 84 3f
       1.124155 0.7363644 1.237779 1.0346723
000160 a0 86 5b 3f af 20 8c 3f dc 41 ad 3e 1e ae a5 3e
       0.85752296 1.0947474 0.3383931 0.32359403
000170 fa 5a c6 3e 1c 75 c8 3e 1c c9 42 3e 2e 9c b1 3e
       0.38741285 0.39151847 0.1902203 0.34689468
000180 aa db 91 3f 40 01 3a 3f 32 0d 9c 3f b4 32 86 3f
       1.1395161 0.7265816 1.2191527 1.0484223
000190 6a 20 5e 3f 5c 7b 8c 3f b0 bd a4 3e fc 0e a8 3e
       0.8676821 1.0975146 0.3217597 0.32823932
0001a0 78 69 93 3e 84 84 9f 3e d0 b8 23 3e f4 97 ae 3e
       0.28791404 0.3115579 0.15988469 0.34100306
0001b0 ba 5b 92 3f f1 59 4b 3f cc 11 99 3f 50 b2 82 3f
       1.1434243 0.79434115 1.1958556 1.0210667
0001c0 61 2d 60 3f b5 6c 8c 3f 1a 14 c3 3e 04 b8 a7 3e
       0.8756924 1.0970675 0.38101274 0.3275758
0001d0 9a f7 a1 3e 24 a7 d8 3e f4 b4 30 3e 8c dc a1 3e
       0.31634218 0.42315018 0.17256528 0.31613576
0001e0 16 56 91 3f 82 47 3f 3f 73 a8 99 3f cf 79 81 3f
       1.1354396 0.7471849 1.2004532 1.0115298
0001f0 73 b3 62 3f a1 58 93 3f 84 cc ad 3e 64 a8 98 3e
       0.8855507 1.1511422 0.33945096 0.29815972
000200 66 dc a9 3e 5e c7 bd 3e c8 dd 35 3e 1c 50 dd 3e
       0.33175963 0.37066168 0.17760384 0.4322518
000210 58 a3 8e 3f a0 e1 3b 3f e3 71 a2 3f 50 ea 82 3f
       1.1143599 0.7339115 1.2691005 1.0227757
000220 2d 34 5f 3f 8e 53 8c 3f 26 1c d8 3e 10 4f 85 3e
       0.8718899 1.0962999 0.42208976 0.26036882
000230 ca 48 be 3e 02 b1 b2 3e cc b8 53 3e 9a 9d 9f 3e
       0.3716491 0.3490067 0.20675963 0.31174928
000240 9b 29 90 3f 10 2f 4a 3f 16 9f 96 3f ec db 7c 3f
       1.1262697 0.7897806 1.1767299 0.98773074
000250 f7 4f 5c 3f a1 01 8e 3f a2 e7 a0 3e 1c ca b3 3e
       0.86059517 1.1094247 0.31426722 0.35115135
000260 b8 44 8e 3e 1c 2f bf 3e cc 11 2d 3e 98 1c a1 3e
       0.27786803 0.3734063 0.1690132 0.31467128
000270 44 7d 95 3f 11 26 41 3f cb dd 9b 3f 7c b2 83 3f
       1.1678853 0.7544871 1.2177061 1.0288844
000280 3a 56 53 3f ae 46 90 3f 4e 43 a8 3e 5a e8 d2 3e
       0.82553446 1.127157 0.3286385 0.41192895
000290 52 67 91 3e 4e 5c 9f 3e cc 6a 57 3e b2 3a a2 3e
       0.2839914 0.3112511 0.21036834 0.31685406
0002a0 4f 34 91 3f 8a a0 3e 3f f9 ec 9d 3f 3f cb 82 3f
       1.1344088 0.74463713 1.2337943 1.0218276
0002b0 e6 3a 5a 3f f0 c4 8b 3f 10 fa b4 3e 8e a6 aa 3e
       0.8524612 1.0919476 0.35347033 0.33330196
0002c0 70 5f bf 3e 7a bf b6 3e dc 72 3b 3e 98 b8 a9 3e
       0.373775 0.3569296 0.18305534 0.33148646
0002d0 09 d1 94 3f 46 e6 3b 3f f9 6b 9d 3f 3d b8 86 3f
       1.1626292 0.73398244 1.2298576 1.0524975
0002e0 7e 67 5c 3f 1b fe 8b 3f ec 5a 8a 3e 70 c7 cb 3e
       0.86095417 1.0936922 0.27022493 0.39800596
0002f0 66 29 a8 3e dc 1f b1 3e 7c ae 26 3e ac da ce 3e
       0.32844085 0.3459462 0.16277498 0.40401208

vwA f4 [192, 1]
000000 96 3a 05 3f 55 29 f9 3e da 72 ea 3e d3 be 02 3f
       0.5204252 0.48664346 0.4579075 0.51072425
000010 d8 ca fa 3e 54 49 e7 3e 80 6d be 3e b5 ad c1 3e
       0.48982882 0.45173132 0.37192917 0.3782784
000020 cf 86 bc 3e b9 ab b9 3e c0 12 b6 3e 27 06 c9 3e
       0.368216 0.36263826 0.3556118 0.39262506
000030 cb 8a 06 3f ba 8a f8 3e 3e 7c ea 3e 8e a7 03 3f
       0.5255553 0.4854334 0.45797914 0.51427543
000040 c7 e3 ff 3e b5 26 e5 3e 6d 49 c8 3e 64 33 c1 3e
       0.49978468 0.44756094 0.3911852 0.3773452
000050 64 39 be 3e 73 10 c3 3e 53 17 a4 3e 7f 02 ca 3e
       0.3715316 0.38098487 0.32049045 0.3945503
000060 2e c1 07 3f 7a 6d f6 3e b4 b8 e9 3e 92 77 04 3f
       0.53029144 0.481304 0.4564873 0.5174495
000070 aa 2f fe 3e 32 27 e5 3e 31 ba cd 3e ba 9b ce 3e
       0.4964574 0.44756466 0.40181115 0.40353185
000080 34 40 c0 3e 86 a6 cd 3e b3 95 a6 3e 0c d3 c6 3e
       0.37548983 0.4016611 0.32536086 0.3883289
000090 78 eb 05 3f db 14 f8 3e 1d 46 eb 3e 83 9c 03 3f
       0.5231242 0.4845341 0.4595193 0.5141069
0000a0 64 fc fb 3e 0e c8 e6 3e 72 47 c7 3e 5b d4 cf 3e
       0.49215996 0.45074505 0.38921696 0.40591702
0000b0 ff fa bd 3e 31 49 bb 3e 24 61 b7 3e c7 04 bc 3e
       0.37105557 0.36579278 0.358163 0.36722395
0000c0 a3 bb 05 3f 93 13 f8 3e f2 19 ea 3e a4 2a 04 3f
       0.52239436 0.48452434 0.4572292 0.51627564
0000d0 aa de fe 3e bf b8 e4 3e c6 d3 c3 3e 73 d2 c0 3e
       0.49779254 0.446722 0.38247508 0.3766056
0000e0 d6 ff c3 3e fa c2 c6 3e e4 f5 ae 3e 77 e1 c5 3e
       0.38281125 0.3882063 0.34171975 0.3864858
0000f0 a2 48 05 3f 62 f5 f7 3e 70 1f ec 3e 42 00 05 3f
       0.52063954 0.484294 0.46117735 0.5195352
000100 58 34 fd 3e 86 f3 e3 3e 14 78 c1 3e a0 b9 ce 3e
       0.49453998 0.4452173 0.37786925 0.40375996
000110 a7 82 c9 3e 43 20 c4 3e 5d b6 b5 3e 60 db bf 3e
       0.39357492 0.38305864 0.35490695 0.37472057
000120 f0 88 06 3f 51 e2 f9 3e 4b bb e9 3e 73 ea 04 3f
       0.525527 0.48805478 0.45650706 0.5192024
000130 09 7f 00 3f e6 07 e5 3e b8 e7 c4 3e e0 ef c1 3e
       0.5019384 0.4473259 0.38458037 0.37878323
000140 65 6f c7 3e 57 df c5 3e fb 89 a9 3e 0f 86 cd 3e
       0.38952175 0.38646957 0.33113083 0.4014134
000150 2b 80 05 3f 3a 14 f6 3e f0 71 eb 3e 47 a3 04 3f
       0.52148694 0.48062307 0.45985365 0.5181164
000160 c0 25 ff 3e a5 28 e4 3e 48 84 c4 3e 44 c6 c2 3e
       0.49833488 0.4456226 0.38382173 0.3804189
000170 9a f2 cb 3e 9a 2b cc 3e e4 34 b3 3e f8 51 c7 3e
       0.39833528 0.39877015 0.3500129 0.38929725
000180 71 e9 05 3f f6 76 f5 3e 6e 5b ea 3e cb df 04 3f
       0.5230933 0.47942322 0.4577288 0.5190398
000190 51 2a 00 3f a8 06 e4 3e ab 05 c3 3e 76 42 c4 3e
       0.5006457 0.44536328 0.38090262 0.38331956
0001a0 79 f0 bc 3e fd 99 bf 3e b4 79 a7 3e d2 0a c7 3e
       0.36902216 0.3742217 0.3271004 0.38875443
0001b0 a7 92 06 3f 90 35 fb 3e fe 98 e9 3e 08 35 04 3f
       0.52567524 0.49064302 0.45624536 0.5164342
0001c0 91 0f 00 3f 0a 07 e4 3e 6b 37 cd 3e dc 1a c4 3e
       0.5002375 0.4453662 0.40081343 0.38301742
0001d0 a0 5d c1 3e 66 59 ce 3e 17 04 ab 3e ab 1a c2 3e
       0.37766743 0.4030258 0.33401558 0.3791097
0001e0 ad c0 05 3f be b0 f7 3e 43 53 e9 3e a8 f7 03 3f
       0.52247125 0.4837703 0.45571336 0.5154977
0001f0 e8 b0 00 3f 8e f9 e6 3e b9 0e c5 3e a7 31 bf 3e
       0.5026994 0.4511227 0.38487795 0.3734257
000200 b9 2a c4 3e e4 5f c8 3e 40 6e af 3e e9 8b d1 3e
       0.38313845 0.3913566 0.34263802 0.40927055
000210 36 a9 04 3f b2 20 f6 3e 1c 9d ec 3e 22 65 04 3f
       0.51820695 0.4807182 0.46213615 0.51716816
000220 e8 25 00 3f ed 90 e4 3e 89 64 d0 3e cc 36 b8 3e
       0.5005784 0.4464182 0.40701702 0.35979307
000230 10 d3 ca 3e 94 61 c4 3e 75 1d b8 3e fa 42 c0 3e
       0.39614153 0.38355696 0.35959974 0.375511
000240 40 d0 05 3f d1 7a fa 3e 14 93 e8 3e 65 2d 03 3f
       0.5227089 0.48921826 0.45424712 0.5124114
000250 52 1e ff 3e 3e 18 e5 3e 28 f1 c0 3e 3a 86 c8 3e
       0.4982782 0.44745058 0.37683988 0.39164907
000260 39 b1 ba 3e a5 09 c8 3e c2 66 ab 3e db 98 c1 3e
       0.36463335 0.39069858 0.33476835 0.37811932
000270 28 03 08 3f 9b 1a f8 3e da 27 ea 3e 7b 4c 04 3f
       0.53129816 0.48457798 0.4573353 0.516792
000280 72 74 fc 3e 22 63 e6 3e 92 30 c4 3e b3 eb cf 3e
       0.4930759 0.44997507 0.38318306 0.40609512
000290 0b fe bb 3e 9d 8e bc 3e 4b 56 b9 3e 54 05 c3 3e
       0.36717257 0.36827555 0.3619865 0.38090003
0002a0 a6 f1 05 3f ca d1 f6 3e 94 57 eb 3e 6e 62 04 3f
       0.5232185 0.4820693 0.45965254 0.5171269
0002b0 7d c0 fe 3e ca e8 e3 3e de 36 ca 3e 50 bd c4 3e
       0.49756232 0.4451354 0.39494985 0.38425684
0002c0 ef 36 ca 3e 8b 2f c5 3e 63 e2 af 3e f9 6b c4 3e
       0.39495036 0.38512835 0.34352407 0.38363627
0002d0 0f 69 07 3f 1e 68 f5 3e da 1c eb 3e 5f e3 04 3f
       0.5289468 0.47930998 0.4592045 0.5190944
0002e0 53 e0 ff 3e 08 33 e4 3e d8 7f b9 3e 8c e3 ce 3e
       0.49975833 0.44570184 0.3623035 0.4040798
0002f0 2c 2d c3 3e 48 f2 c3 3e b0 aa a8 3e cc bb cf 3e
       0.381204 0.38270783 0.32942724 0.40572965
