tests/test_data_path/og_processed/dimer_ap3_train_spec_7_535.pt (torch, 122770 bytes, 17 tensors)

y f4 [16, 4]
000000 a4 9f 10 41 d4 c0 97 3d 6c 99 21 c0 64 81 b2 be
       9.038975 0.07409826 -2.5249891 -0.34864342
000010 dc 8d d8 40 86 e7 2d 3c 18 0c b5 bf 4c f2 13 be
       6.767317 0.0106142815 -1.4144316 -0.14447898
000020 9f 9c 78 3f 36 38 80 38 cd ff 21 bf 0a 17 0b bd
       0.97113985 6.113986e-05 -0.63280946 -0.03395752
000030 da ae 7e c1 83 11 33 42 df 58 7d c1 55 20 36 c1
       -15.917688 44.7671 -15.834197 -11.382894
000040 01 f4 4d 41 d1 33 ed 3f cb dd b8 c0 3d 7c e5 bf
       12.872071 1.8531438 -5.7770743 -1.792854
000050 c8 ee 06 c1 e8 94 1d 3d 4b 4c 12 c0 81 2c 8f be
       -8.433296 0.038472086 -2.2859066 -0.2796364
000060 91 4b 87 bf 76 0a 1f 40 24 8c da c0 26 00 07 c0
       -1.0569936 2.4850135 -6.829607 -2.109384
000070 75 3b dd 40 3e 0d 8b 40 11 c1 d5 c0 ea 5a 38 c0
       6.913508 4.3453665 -6.6798177 -2.880549
000080 0f f7 8f bf 9e 1d be 3d 65 d5 25 c0 c5 db df be
       -1.1247271 0.09282993 -2.5911496 -0.43722358
000090 30 e7 42 c1 b2 73 22 42 af 14 4b c1 61 39 e6 c0
       -12.181442 40.612984 -12.69255 -7.1945043
0000a0 5c 39 81 3f ae c3 1e 3c 30 11 c9 bf a6 24 63 be
       1.009563 0.009690208 -1.570837 -0.22181949
0000b0 51 cd 72 c2 38 4e d1 42 c0 9e 59 c2 fb 36 89 c1
       -60.700504 104.65277 -54.40503 -17.151846
0000c0 5c 08 95 bf 09 e9 e8 3b 53 18 f8 bf 09 8a 7f be
       -1.1643176 0.007107858 -1.9382423 -0.24955
0000d0 cd 53 40 c1 da 27 4e 3d f3 56 1f c0 8e f3 98 be
       -12.020459 0.050330974 -2.489682 -0.29873317
0000e0 95 96 20 c1 1e 2c 2c 3c 8e fe ea bf cb 08 48 be
       -10.036763 0.010508565 -1.8358934 -0.19534604
0000f0 93 1f 43 bf e9 bd 27 3b 13 21 9e bf 02 85 05 be
       -0.76220053 0.0025595373 -1.2353843 -0.1303902

RA f4 [80, 3]
000000 f8 e3 f6 3d c0 24 11 bf 78 ec b3 bf db c1 e0 be
       0.120552 -0.566967 -1.405654 -0.438979
000010 35 7f 8e bf 95 d7 6e 3f e8 f4 88 bf 83 17 8f 3f
       -1.113257 0.932977 -1.069974 1.117905
000020 ae 48 4c 3d ed 49 b4 3f 3a e7 0f 3f c4 99 c7 3e
       0.049874 1.408506 0.562122 0.389845
000030 d3 11 40 3c 7e e2 40 3d 4b b1 23 bc b5 a4 e3 3d
       0.011723 0.047091 -0.009991 0.111154
000040 67 7c 07 bf 5b b5 b5 bf d8 b7 d3 be 25 93 8f bf
       -0.529242 -1.419597 -0.413512 -1.121678
000050 00 36 74 3f bd 1b 87 bf 92 3b 94 3f 45 f3 80 3c
       0.953949 -1.055534 1.158068 0.015741
000060 6e f7 b2 3f 41 d7 12 3f 69 73 cc 3e fe 7b 70 3c
       1.398176 0.573597 0.399318 0.014678
000070 b8 c9 a8 bb 70 9a be bc e7 6e 07 3e d8 f0 0c bf
       -0.005151 -0.023267 0.132259 -0.55055
000080 5a 48 ba bf c7 bd e1 be 2f df 92 bf 4e 2a 7a 3f
       -1.455333 -0.440901 -1.147436 0.977208
000090 01 da 88 bf e2 ab 8f 3f b2 2b 2d 3d 37 51 a9 3f
       -1.069153 1.122433 0.042278 1.322791
0000a0 fc 52 13 3f 47 1c c2 3e 48 c4 94 3c b5 fa ea bc
       0.575485 0.379122 0.01816 -0.028684
0000b0 c9 58 ed bc 1c 78 d5 3d d0 f0 0e bf b8 3f b5 bf
       -0.028973 0.104233 -0.558362 -1.416007
0000c0 c2 89 e8 be e5 9b 8d bf ba 12 6d 3f af 78 84 bf
       -0.454176 -1.10632 0.926067 -1.034933
0000d0 6e dd 85 3f fd db 65 3d d6 54 b0 3f 4a 9b 12 3f
       1.04582 0.056118 1.377589 0.572682
0000e0 e9 7f e1 3e 31 24 a7 bc 6a 14 12 3c 8d 80 0a bd
       0.440429 -0.020403 0.008916 -0.033814
0000f0 d9 06 1e 3e 70 3e 1d bf 4d 2c b6 bf 95 d8 d5 be
       0.154323 -0.614234 -1.423227 -0.417668
000100 a3 03 8a bf d7 87 6d 3f df df 86 bf a1 6a 8e 3f
       -1.078236 0.927854 -1.053707 1.112629
000110 f1 45 7b 3d f9 48 b0 3f 8e cc 13 3f 22 19 da 3e
       0.061346 1.377227 0.57734 0.425973
000120 0a f4 09 3d 2e 72 8f 3d 90 d7 03 3d 07 27 a2 3d
       0.03368 0.070042 0.032188 0.079176
000130 da 58 11 bf 8d ed b9 bf 9d 63 d8 be 80 60 94 bf
       -0.567762 -1.452562 -0.422635 -1.159195
000140 96 04 74 3f e3 1b 84 bf ad a2 8d 3f 1e 52 0c 3d
       0.953195 -1.032101 1.106527 0.034258
000150 e9 9c b9 3f 58 c9 03 3f ef 58 dc 3e 5d 35 4f bc
       1.450101 0.514791 0.430366 -0.012647
000160 1c 27 05 3c 6d 8f de 3a 8e 59 b6 3d 51 30 13 bf
       0.008127 0.001698 0.089038 -0.574956
000170 1f db b6 bf a6 b9 e5 be 62 84 98 bf a8 e4 70 3f
       -1.428562 -0.448682 -1.19154 0.940989
000180 63 61 8a bf ba dd 95 3f 75 94 83 3c 8a e9 b2 3f
       -1.081097 1.170829 0.016062 1.397752
000190 61 df 1a 3f 59 e0 e3 3e bf d1 8e 3c 6c cb 80 3c
       0.604971 0.445071 0.017434 0.015722
0001a0 f1 48 bc 3b d9 77 05 3e 4b 91 08 bf db f7 b0 bf
       0.005746 0.13034 -0.533467 -1.382564
0001b0 2e 3c d7 be 5a b7 91 bf 7f 6d 79 3f 06 10 90 bf
       -0.420381 -1.138408 0.974327 -1.125489
0001c0 c1 aa 8e 3f 2f 4d 91 3d f4 51 b0 3f 4f 22 12 3f
       1.114586 0.070948 1.377501 0.570836
0001d0 c3 d8 d2 3e 90 d8 6e 3d 56 48 f9 bc 41 2c 1b 3c
       0.41181 0.058312 -0.03043 0.009471
0001e0 c7 11 eb 3c 0f 29 fe be 1b bc bb bf 3a 21 d4 be
       0.028695 -0.496407 -1.466678 -0.414316
0001f0 e9 2b 92 bf b2 2c 7c 3f ea 25 8a bf f4 51 8c 3f
       -1.141965 0.985057 -1.079282 1.096251
000200 0b 5f 1f 3d 7c 80 a8 3f 0b 7b 12 3f 79 1f ef 3e
       0.038909 1.316421 0.57219 0.467037
000210 b3 98 d8 3b 3a 04 0e bb 4a 09 c1 3b 60 58 fe 3d
       0.00661 -0.002167 0.005891 0.124192
000220 e0 13 03 bf f7 3e af bf 0d e0 cd be 95 d8 8d bf
       -0.512022 -1.369109 -0.4021 -1.108172
000230 fb 96 6d 3f 7e ab 8f bf 2c 7e 89 3f 1d 5b 4f 3d
       0.928085 -1.122421 1.074163 0.050624
000240 ae 81 ab 3f 06 0d 11 3f 85 b3 db 3e 73 69 3c 3d
       1.339895 0.566605 0.429104 0.045999
000250 70 ce 88 bc 8d d0 cf 3c 7a a5 0c 3e a9 a3 07 bf
       -0.0167 0.025368 0.13735 -0.529841
000260 61 50 b4 bf 5f cf d7 be e4 32 92 bf d8 ba 74 3f
       -1.408703 -0.421504 -1.142178 0.955976
000270 91 47 8a bf e8 f8 8e 3f 85 23 c8 bc df 8a ae 3f
       -1.080309 1.116971 -0.024431 1.363613
000280 d9 7c 0c 3f 87 32 00 3f 18 97 2a bb fe 48 91 bc
       0.54878 0.500771 -0.002603 -0.017735
000290 d6 6e 3b bc bf 7d fd 3d d4 27 19 bf f6 0a b9 bf
       -0.01144 0.123775 -0.598264 -1.445647
0002a0 7d b1 df be 79 ca 96 bf 2c 63 81 3f d6 c9 8f bf
       -0.436901 -1.178054 1.010839 -1.123347
0002b0 22 fc 93 3f ae f1 99 3c f1 2b a8 3f d7 18 1c 3f
       1.156132 0.018792 1.313841 0.609754
0002c0 55 88 c7 3e 5d 37 a5 3c 3f ad a2 3c 69 90 02 bc
       0.389712 0.020168 0.019858 -0.007969
0002d0 72 6e b3 3d 57 77 10 bf fa 62 b7 bf a0 8c d1 be
       0.087613 -0.564321 -1.432708 -0.409276
0002e0 ed 66 92 bf 54 19 7a 3f 25 1f 91 bf 50 a8 89 3f
       -1.143766 0.976949 -1.133763 1.075449
0002f0 6d aa ee 3c 6b b8 b0 3f af 60 0f 3f 69 8f cf 3e
       0.029134 1.380628 0.560069 0.405391
000300 32 ab 97 bd a3 79 40 bd 98 17 e0 3c 8d d2 c5 3d
       -0.074057 -0.046991 0.027355 0.096593
000310 5d de 10 bf 09 18 b9 bf 2f 52 f0 be 61 52 8e bf
       -0.565893 -1.446046 -0.469377 -1.111889
000320 13 f4 77 3f 47 57 8d bf 83 fa 8e 3f 1e 54 e2 3c
       0.968568 -1.104226 1.11702 0.027628
000330 62 f7 af 3f 30 d9 14 3f fe 43 da 3e 0b 9a 16 3c
       1.374737 0.581439 0.4263 0.009192
000340 df c3 a5 bd 8e 77 47 3d e2 59 82 3d 8b 54 10 bf
       -0.08094 0.048698 0.063648 -0.56379
000350 c0 5f b2 bf f4 e0 ee be df 33 8c bf 06 84 7e 3f
       -1.393547 -0.46656 -1.095333 0.994202
000360 e4 15 86 bf 3d 2b 95 3f 73 65 d0 bc 2e 90 b0 3f
       -1.047543 1.165382 -0.025439 1.3794
000370 fc 1c 13 3f ff 3d d8 3e 69 54 60 bb 2d 77 a6 bd
       0.574661 0.422348 -0.003423 -0.081282
000380 4b 22 3b 3d 2b a4 fc 3c 65 8d 02 bf da e5 b3 bf
       0.045687 0.03084 -0.50997 -1.405452
000390 ba f7 b8 be 0e 83 95 bf 77 4b 86 3f 0d c4 86 bf
       -0.361265 -1.168062 1.049178 -1.052858
0003a0 a2 b4 93 3f 44 8b 6c 3d 11 8e a9 3f 3f 6e 1f 3f
       1.15395 0.05775 1.324648 0.622776
0003b0 19 75 f5 3e 2d cd 6d 3d c6 8a 5a bd fa 80 c0 3c
       0.479409 0.058057 -0.053355 0.023499

RB f4 [160, 3]
000000 20 25 56 3e af 40 10 bf 87 41 ab c0 d1 06 18 3f
       0.209126 -0.563487 -5.351749 0.593854
000010 a9 67 71 be 30 e6 ce c0 f6 45 3a 3f 33 a7 97 bf
       -0.235747 -6.465599 0.72763 -1.18479
000020 b2 cc ef c0 ea af 3f 3f 18 22 1f c0 f3 e3 de c0
       -7.493737 0.748778 -2.486456 -6.965326
000030 54 90 53 3f d0 7b 91 3f 3c a0 da c0 58 8c be 3f
       0.826421 1.136591 -6.83206 1.488658
000040 79 06 8b bf 44 5e 02 c1 9e 40 d0 3e 42 b1 12 c0
       -1.086135 -8.148014 0.406743 -2.292069
000050 91 5f c1 c0 c6 31 02 be c2 c3 e0 3f bc da d5 c0
       -6.042916 -0.127143 1.755974 -6.682951
000060 b5 37 94 3f 5b b6 a6 3f ef 72 fe c0 29 7b df 3f
       1.15795 1.30244 -7.95153 1.745946
000070 90 13 ce 3f 50 c2 c8 c0 1d 56 c6 c0 6b d6 26 40
       1.609972 -6.27372 -6.198012 2.606837
000080 e1 d2 74 c0 e3 0a b2 c0 dc 7e 65 40 ba e8 83 c0
       -3.825371 -5.563829 3.585868 -4.122159
000090 15 b8 90 c0 3b 01 7f 40 a1 82 4e c0 d2 01 95 c0
       -4.522471 3.98445 -3.226723 -4.656472
0000a0 f5 68 60 40 6f d7 fb bf 94 a5 af c0 bc 11 88 40
       3.506406 -1.967512 -5.488962 4.252165
0000b0 f0 7c af c0 7d 21 87 c0 f9 58 9e 40 e3 c2 50 c0
       -5.484001 -4.222838 4.948361 -3.261895
0000c0 81 cc ac c0 d2 70 37 40 3a 78 03 c0 7f c2 ac c0
       -5.399964 2.866261 -2.054213 -5.398742
0000d0 9a 7a 64 40 c4 a3 c8 c0 72 fe 94 c0 85 26 a0 40
       3.569983 -6.269991 -4.65606 5.004702
0000e0 9b 47 b2 c0 81 5f ce c0 22 e1 98 40 b7 4f b2 c0
       -5.571241 -6.449158 4.777482 -5.572231
0000f0 a0 c2 7a 40 7d e8 dc 40 07 d0 dd 3f 6a bc 82 40
       3.918129 6.90338 1.732911 4.0855
000100 78 f2 f2 40 3e 42 41 3f 3d 9c 7f 40 8b fb 0e 41
       7.592098 0.754917 3.993911 8.936412
000110 1e 37 60 3f 46 cd 59 40 11 f5 14 41 85 b2 02 40
       0.875841 3.403154 9.309831 2.042146
000120 69 80 92 40 1b f3 e2 40 ea 96 29 bf 57 ee 69 40
       4.578175 7.092176 -0.662459 3.655172
000130 b4 89 17 41 8e 05 05 3d bd 1d 59 40 54 52 07 41
       9.471119 0.032476 3.39244 8.4576
000140 c4 b1 20 40 c6 ce af 40 09 de d1 40 83 6d 18 bf
       2.51085 5.493991 6.558354 -0.595421
000150 5e 59 96 40 7d d9 fc 40 b2 80 af bf 7e c4 73 40
       4.698409 7.901549 -1.371115 3.808868
000160 f0 78 cd 40 c9 8f 88 bf 9c 19 45 3f 04 e3 32 c0
       6.421013 -1.066888 0.769922 -2.795106
000170 e9 0d 21 c0 32 3c 82 3f df a9 d6 bf 96 e9 48 c0
       -2.516474 1.017462 -1.677059 -3.139257
000180 df 53 b9 3d 4b 05 79 bf 5f 09 6d c0 89 09 96 bf
       0.090492 -0.972737 -3.703697 -1.172166
000190 2d 41 b8 bf de 02 69 c0 7c d3 20 40 1f 10 96 bf
       -1.439489 -3.6408 2.512908 -1.172367
0001a0 88 bd 4e c0 b2 12 73 3e a3 75 cc be 34 1c 8f c0
       -3.230318 0.237376 -0.399335 -4.472193
0001b0 39 97 80 bf f3 e3 10 c0 8e af 4d c0 e3 c4 38 40
       -1.004615 -2.263913 -3.21384 2.887017
0001c0 c4 7b 8a bf 5f 60 13 c0 f1 f4 20 40 84 81 77 be
       -1.081902 -2.302757 2.51495 -0.241705
0001d0 cf d9 6f c0 2b 2f 44 40 a9 bd f6 bf da 91 73 c0
       -3.747669 3.065379 -1.927663 -3.805777
0001e0 67 ed 96 3e 7c d1 3f c0 7b 31 4c 40 8b 4e c2 3f
       0.29478 -2.997161 3.19052 1.518022
0001f0 a6 5e 5e c0 d3 a3 5a 40 6a 6b 1c 40 9d 81 2c c0
       -3.474527 3.416249 2.444056 -2.695411
000200 bc 5d 7f 40 be f9 09 40 e3 8d b0 bf 33 ea 81 40
       3.990096 2.155868 -1.37933 4.059839
000210 d0 97 ec 3f fc 55 9b c0 82 02 48 40 f3 ff 5b 40
       1.848383 -4.854246 3.125153 3.437497
000220 fe ba 30 c0 47 1e 70 40 9d d8 97 3f 2e c6 b0 bf
       -2.761413 3.751848 1.186298 -1.381048
000230 23 be 74 40 fe 47 9a 3f da d3 b2 c0 59 6a 66 40
       3.824105 1.205322 -5.588361 3.600241
000240 7f bf 36 40 96 33 a3 c0 59 30 55 40 66 16 dd 3f
       2.855438 -5.100047 3.331076 1.727246
000250 0c e5 a3 c0 00 c7 01 40 b4 1c 10 c0 1c ce dc c0
       -5.12171 2.027771 -2.251752 -6.90016
000260 a3 02 47 bf 81 25 2f c0 53 2f bf c0 49 68 c3 bf
       -0.777384 -2.736664 -5.974527 -1.52662
000270 4a b8 3a c0 ef 8d c7 c0 3a 5d 36 c0 d9 af 0d c0
       -2.917498 -6.236076 -2.84944 -2.213858
000280 ba d9 ec c0 53 06 4f c0 92 95 53 c0 aa ba 95 c0
       -7.401578 -3.234761 -3.306004 -4.679036
000290 1e 6d 80 bf fa d5 35 c0 c6 c2 ae c0 2a 03 61 c0
       -1.00333 -2.841185 -5.461276 -3.515818
0002a0 36 e9 f8 bf 95 ff f6 c0 0f b4 1a c0 da 7f 80 c0
       -1.944617 -7.718699 -2.41724 -4.015607
0002b0 0f 48 9b c0 09 fc 71 be 39 0a 6d c0 27 da 80 c0
       -4.852546 -0.236313 -3.703749 -4.02663
0002c0 44 69 e3 bf e4 c0 1f c0 57 95 83 c0 b6 30 03 bf
       -1.77665 -2.496148 -4.11198 -0.512462
0002d0 dd 5f 5c c0 20 7f bf 3f cb f2 36 c0 90 f6 2c c0
       -3.443351 1.496067 -2.858569 -2.702549
0002e0 6d 20 ab 3f 37 dd 73 c0 a3 c9 0d c0 8a 57 1c 40
       1.336927 -3.810377 -2.215432 2.442843
0002f0 0f 01 90 c0 83 86 42 c0 15 c6 68 40 a6 7e 87 c0
       -4.500129 -3.03946 3.63709 -4.23421
000300 1c 25 01 c0 0f d6 9f 3d 28 d4 84 c0 6d e2 01 c0
       -2.01789 0.078045 -4.150898 -2.029445
000310 ea 95 19 40 01 cd ae c0 77 6a 63 c0 ee 7a 59 40
       2.399775 -5.462525 -3.553373 3.398128
000320 9e 7c 5e c0 d6 90 c2 bf 6b 62 d1 be bc 03 53 c0
       -3.476356 -1.520045 -0.408954 -3.297103
000330 cb be ad bf f6 0d 1c 3e 85 4c 9e c0 af 44 35 c0
       -1.357385 0.152397 -4.946841 -2.832317
000340 54 ff 20 bf b3 6d 8f c0 8b e2 09 bf 74 9b 80 bf
       -0.628896 -4.482141 -0.538613 -1.004744
000350 ac 29 80 c0 15 fe a4 3e 1b 10 dd bf 6b 1d 89 c0
       -4.005087 0.322251 -1.727054 -4.284841
000360 9a 5c bc 3f 8b 88 9e bf 5f b6 9b c0 88 be b5 3f
       1.471576 -1.238542 -4.866012 1.419877
000370 e3 a9 87 3d de ae ab c0 a7 02 5e 3e 3a 74 48 c0
       0.066242 -5.365096 0.216807 -3.132094
000380 43 59 7f c0 cb 9f 01 40 08 ca eb bf ec 67 b1 c0
       -3.989823 2.025378 -1.842103 -5.543936
000390 bb 27 ef 3e 93 36 a5 3e 00 c8 9f c0 1e fb f9 3d
       0.4671 0.322682 -4.993164 0.122061
0003a0 59 a2 56 c0 38 65 38 c0 b3 78 a3 3f fa 5f 68 c0
       -3.353659 -2.881178 1.277121 -3.630858
0003b0 07 c1 87 c0 47 04 0f bf 4e 62 69 c0 b4 9f 8f c0
       -4.242313 -0.558659 -3.646625 -4.488245
0003c0 70 bf b2 c0 7c 9c bd 3f b6 db 0a 40 93 ef 99 c0
       -5.585869 1.481338 2.16966 -4.810495
0003d0 93 8d f5 3f 64 74 3b 40 45 f3 92 c0 ab 5c ac 3f
       1.918383 2.928979 -4.592196 1.346578
0003e0 58 b8 85 40 63 b5 b0 c0 96 5b 82 3e 96 40 8d 40
       4.178753 -5.522142 0.254605 4.414134
0003f0 7b 3f 81 c0 53 21 4c 40 2c f1 2c 40 7d 88 8d c0
       -4.038999 3.189534 2.70222 -4.422911

qA f4 [80, 1]
000000 58 94 56 bf 6a f9 58 bf e0 e3 4c bf 56 e1 4e bf
       -0.83820105 -0.84755576 -0.8003521 -0.80812585
000010 7c a9 a5 3f d0 61 50 bf 7c c5 4f bf 4c 7d 54 bf
       1.2942348 -0.8139925 -0.8116071 -0.8300369
000020 20 ad 52 bf dc a8 a3 3f e6 97 4c bf 1e e0 50 bf
       -0.8229542 1.2785907 -0.7991928 -0.81591976
000030 da e4 57 bf f6 db 51 bf 6b 9c a3 3f 53 7d 52 bf
       -0.84333575 -0.8197626 1.278211 -0.8222248
000040 d7 d9 59 bf 13 a8 52 bf 13 89 55 bf 25 44 aa 3f
       -0.8509802 -0.8228771 -0.83412284 1.3302046
000050 34 6a 5a bf d8 cb 5b bf 68 ab 4c bf 3a 70 49 bf
       -0.85318303 -0.85857916 -0.79949045 -0.7868687
000060 d6 28 a6 3f b6 e8 53 bf 94 ca 51 bf 22 92 47 bf
       1.2981212 -0.82776964 -0.81949735 -0.77957356
000070 48 ed 51 bf 56 99 9f 3f 60 1c 50 bf 44 8f 50 bf
       -0.8200269 1.246867 -0.81293297 -0.81468606
000080 6a 7f 4f bf ce 45 44 bf 6c 38 9a 3f 54 56 50 bf
       -0.81053793 -0.76669014 1.2048469 -0.81381726
000090 5c c0 51 bf 28 0e 59 bf 08 39 49 bf ef 2e a2 3f
       -0.8193414 -0.84787226 -0.7860265 1.2670573
0000a0 ee 3c 51 bf f8 8d 52 bf 1e e7 59 bf d6 14 4c bf
       -0.81733596 -0.8224788 -0.8511828 -0.79719293
0000b0 70 e3 a4 3f d2 ba 57 bf 78 a7 55 bf be 91 5b bf
       1.2881908 -0.8426944 -0.8345866 -0.8576926
0000c0 da 25 4e bf f3 8c ab 3f ea 59 50 bf b4 bb 51 bf
       -0.80526507 1.3402389 -0.813872 -0.8192704
0000d0 12 12 53 bf 2e b8 53 bf ec 6f a4 3f 9a 63 4c bf
       -0.8244945 -0.8270291 1.2846656 -0.7983948
0000e0 9c d9 51 bf 48 0e 51 bf be b3 44 bf 9b ff 99 3f
       -0.8197267 -0.81662416 -0.76836765 1.203113
0000f0 22 a5 55 bf 70 6d 47 bf 1c de 4c bf 18 ed 56 bf
       -0.834551 -0.77901363 -0.8002641 -0.83955526
000100 e4 6e a0 3f 37 6d 53 bf 9b 20 41 bf c3 33 5c bf
       1.2533841 -0.82588524 -0.75440377 -0.8601648
000110 9d 94 4c bf 1a ab 9e 3f 2b b3 53 bf 2d 6e 3f bf
       -0.79914266 1.2395966 -0.82695264 -0.7477749
000120 13 a9 5e bf 4f 4f 53 bf e0 8c a2 3f 83 99 48 bf
       -0.86976737 -0.8254289 1.2699242 -0.7835924
000130 13 5d 4a bf 99 38 60 bf c7 46 4d bf f8 3a a0 3f
       -0.7904827 -0.8758636 -0.8018612 1.2517996

muA f4 [80, 3]
000000 60 29 82 3c d0 f0 81 bd 34 91 bf bd 30 69 2e bd
       0.01588887 -0.063447595 -0.09353867 -0.042580783
000010 bc 14 ae bd 64 18 46 3d c0 23 df bd 72 e2 a8 3d
       -0.085000485 0.048363104 -0.10895491 0.08246316
000020 80 c2 55 3c a4 e4 06 3e 80 8b 19 3d 00 ca a2 3c
       0.013046861 0.13173157 0.037486553 0.019871712
000030 80 cd b2 bb 30 4e c3 bc 00 54 1f bb 60 e3 74 3c
       -0.0054566264 -0.023840994 -0.0024311543 0.014946789
000040 68 83 30 bd 18 f0 fc bd c8 fc 20 bd 2c 23 dd bd
       -0.04309407 -0.12350482 -0.03930357 -0.10797724
000050 ac df a9 3d e0 c8 b2 bd d8 ac c0 3d c0 b1 80 bb
       0.08294615 -0.0872972 0.09407967 -0.0039274395
000060 0c da f8 3d 24 41 3b 3d 60 8a b6 3c 00 f8 2a ba
       0.12150964 0.04571642 0.02228278 -0.000652194
000070 c0 dc e3 3b 40 87 be bb f0 87 f2 3c 60 1e 1a bd
       0.0069538057 -0.005814463 0.029605836 -0.037626624
000080 20 08 04 be 68 9a 30 bd c4 9f c9 bd cc 9d c2 3d
       -0.12893724 -0.043116003 -0.09844926 0.095027536
000090 14 b5 8b bd c4 34 c0 3d c0 5b 42 3c 2e fa de 3d
       -0.06821647 0.09385064 0.011862695 0.10887562
0000a0 64 b0 81 3d 00 17 9d 3c 80 63 1d bb d0 68 9a 3c
       0.06332472 0.019176006 -0.0024015605 0.018848807
0000b0 00 c6 d7 3b 80 65 03 bc 20 31 3e bd c8 09 bf bd
       0.0065848827 -0.008019805 -0.046433568 -0.093280375
0000c0 48 f1 46 bd a8 bc 89 bd 00 db 5b 3d 48 dd 98 bd
       -0.048569947 -0.067254364 0.05367565 -0.07464081
0000d0 00 ae 57 3d 20 70 71 3c 50 8e c0 3d 4c bd 47 3d
       0.052656174 0.014736205 0.09402144 0.048764512
0000e0 b0 74 13 3d 60 37 7d bc 80 ae 88 3b c0 03 3b 3c
       0.035999954 -0.015455097 0.0041711926 0.011414468
0000f0 00 63 a1 3b 84 fd 82 bd 9c 8a a2 bd 60 7c 1d bd
       0.004925132 -0.063960105 -0.07936594 -0.03844869
000100 24 1f 97 bd 60 e9 3a 3d d8 35 dc bd 0c ac 9e 3d
       -0.073789865 0.04563272 -0.107524574 0.07747659
000110 a0 51 ad 3c 78 60 00 3e ac ea 0d 3d fc e6 33 3d
       0.021157086 0.125368 0.03464763 0.043921456
000120 00 f4 b0 bb 10 58 ed bc c0 d3 d7 bb 00 2e 29 3b
       -0.005400181 -0.028972656 -0.006586522 0.0025814772
000130 b0 36 3c bd 6c cf fe bd c0 be 1b bd 64 a9 de bd
       -0.04595059 -0.12441906 -0.03802371 -0.108721524
000140 de b6 b0 3d 42 39 e2 bd b4 a0 e1 3d 80 e9 9d bb
       0.08628629 -0.11046077 0.1101698 -0.004819095
000150 bc 96 f9 3d 68 dd 1e 3d e8 8a 0e 3d 40 6e c3 3b
       0.121869534 0.03878537 0.03480044 0.0059640706
000160 a0 8a 34 bc 00 f6 bd bb 00 02 35 3b f0 aa 70 bd
       -0.011019379 -0.0057971478 0.00276196 -0.05875677
000170 6e 7f 05 be a0 4b 28 bd b4 03 df bd ce 18 92 3d
       -0.13036892 -0.041087747 -0.10889378 0.07133637
000180 74 76 c2 bd 88 d2 ce 3d 00 9a 57 bb b0 a5 0a 3e
       -0.094952494 0.100987494 -0.0032898188 0.13539767
000190 dc b1 73 3d 38 8d 23 3d a0 14 69 bc 80 98 fb bb
       0.05949579 0.0399296 -0.014226109 -0.0076780915
0001a0 60 eb 09 bc 30 87 9e 3c a0 e0 3b bd c4 53 f6 bd
       -0.008417934 0.019351572 -0.045868516 -0.12027696
0001b0 d8 93 43 bd a0 f1 d2 bd 5e 81 9a 3d a0 1e a6 bd
       -0.047748417 -0.102999926 0.07544206 -0.0811131
0001c0 54 d1 92 3d 00 94 6d 3b 50 3a 06 3e a0 e9 56 3d
       0.071688324 0.0036251545 0.13108182 0.052468896
0001d0 00 65 96 3c 80 d0 af bc a0 64 21 3c 40 ef 0a bc
       0.018358707 -0.021461725 0.009850651 -0.008479893
0001e0 70 ca 91 bc c0 1c b9 bc 87 75 00 be a0 15 fc bc
       -0.017796725 -0.022596717 -0.12544833 -0.03077203
0001f0 40 53 ac bd ae 4c b5 3d d4 50 97 bd 46 a6 a8 3d
       -0.08414316 0.08852516 -0.073884636 0.08234839
000200 e0 b7 3b bc 8c 39 d8 3d 08 cb 73 3d 8c 7d 5d 3d
       -0.011457413 0.10557851 0.059519798 0.05407481
000210 f0 ad 88 bc 00 ca 4d 3c 00 e8 4d 3b 00 8e a9 3a
       -0.016684502 0.012560368 0.00314188 0.0012935996
000220 50 f7 d6 bc c4 78 91 bd c8 c3 0b bd f0 14 7c bd
       -0.026240975 -0.07103112 -0.03412226 -0.061543405
000230 10 4f 34 3d d8 5a 93 bd 98 ac 13 3d 00 6e c8 bb
       0.044020712 -0.071950614 0.03605327 -0.0061166286
000240 b4 31 db 3d d8 fe d3 3c 60 52 b2 3c 70 62 81 bc
       0.107028395 0.025878355 0.021767795 -0.015794009
000250 80 90 09 bb 60 09 1c bc 80 36 76 3b c0 0b 1c bd
       -0.002099067 -0.00952372 0.0037569106 -0.038097143
000260 60 5f 01 be 10 6d de bc 30 fe cd bd 18 fa a8 3d
       -0.12634039 -0.027151614 -0.10058248 0.082508266
000270 e4 f7 b3 bd 04 1d b5 3d 20 cb 95 bc 18 34 ec 3d
       -0.08787516 0.08843425 -0.018285334 0.115333736
000280 d8 7d 21 3d 78 84 34 3d 80 2a 17 3b 00 22 2b 3b
       0.039426655 0.044071645 0.0023066103 0.0026112795
000290 00 b4 f6 ba c0 ae 8d 3c 80 3b 5e bd b4 30 02 be
       -0.0018821955 0.017295241 -0.054255962 -0.12713891
0002a0 c0 f1 03 bd a8 f7 b6 bd 24 2b 98 3d 04 b5 b8 bd
       -0.032212973 -0.089339554 0.074301034 -0.09018901
0002b0 9a 98 c7 3d 80 47 5e 3b 28 2d 11 3e 3e ca 87 3d
       0.09745903 0.003391713 0.14177382 0.066303715
0002c0 80 a7 15 3d 80 06 d3 bb 80 0b 2c bb 00 78 e4 3a
       0.036536694 -0.006439984 -0.0026251972 0.0017430782
0002d0 e0 00 96 3c 80 11 2a bd 36 7e 07 be 60 5c 12 bd
       0.018310964 -0.041520596 -0.1323174 -0.035732627
0002e0 b4 ab f8 bd 52 5d d7 3d 34 c8 d6 bd d0 a7 da 3d
       -0.12142125 0.10515846 -0.104874045 0.10676539
0002f0 00 28 bb bb 94 a2 e0 3d c0 0a 27 3d c0 be bb 3c
       -0.0057115555 0.10968509 0.040781736 0.022918105
000300 30 c6 be 3c 80 c2 af 3b a0 b2 15 bc 00 b9 bf 3b
       0.023287863 0.0053637624 -0.009136826 0.005850911
000310 70 d3 1a bd 4c d0 09 be 20 3c 85 bd 20 0e db bd
       -0.0377993 -0.13458365 -0.065056086 -0.106960535
000320 20 70 d2 3d 7c 49 99 bd cc c6 99 3d 00 3e 64 ba
       0.102752924 -0.07484719 0.075086206 -0.00087067485
000330 d5 7c 03 3e 2e 1b 89 3d 40 c8 03 3d 90 8f b3 bc
       0.12840588 0.06694637 0.032173395 -0.021919042
000340 30 f1 d8 3c e0 a3 69 bc 80 17 0b bc 40 d6 ad bc
       0.026482195 -0.014260262 -0.00848949 -0.021220326
000350 9c 29 fb bd c0 c0 5f bd 5a 79 ec bd 98 54 c5 3d
       -0.12263796 -0.05462718 -0.115465835 0.096352756
000360 90 9c 76 bd f4 df 95 3d b0 de d2 bc 8c a5 ee 3d
       -0.060207903 0.07318106 -0.025740951 0.11652669
000370 34 da 7a 3d 20 f5 c1 3c 60 11 3f bc b0 e9 05 3d
       0.06124325 0.023676455 -0.011661857 0.032693565
000380 40 e8 8a bc 40 4d b8 bc 10 c7 b9 bc 40 db 12 be
       -0.016956449 -0.022497773 -0.022677928 -0.1434145
000390 28 4a 1a bd 18 03 d4 bd a4 92 cc 3d b0 de 2f bd
       -0.037668377 -0.103521526 0.09988907 -0.04293698
0003a0 c0 1d 90 3d a0 d7 39 bc a4 0b d4 3d 58 09 b0 3d
       0.07036924 -0.011342913 0.10353783 0.08595532
0003b0 d0 84 45 3d 20 93 db bc 24 18 25 3d 80 3a 50 3b
       0.048222363 -0.026803553 0.040306225 0.003177315

quadA f4 [80, 3, 3]
000000 00 d5 e5 3c 00 a5 e6 3a 40 10 74 3b 00 a5 e6 3a
       0.028055668 0.0017596781 0.003724113 0.0017596781
000010 c8 33 9c 3c 50 96 ca bc 40 10 74 3b 50 96 ca bc
       0.01906766 -0.024729878 0.003724113 -0.024729878
000020 64 04 41 bd 35 52 81 3c a0 74 f5 bb 20 e6 01 3c
       -0.047123328 0.01578627 -0.0074907094 0.007928401
000030 a0 74 f5 bb 8c 8c fe bb a0 5d d6 3c 20 e6 01 3c
       -0.0074907094 -0.0077682193 0.02616769 0.007928401
000040 a0 5d d6 3c 26 5e 03 bc 74 02 9f bb c8 b0 e7 3c
       0.02616769 -0.008018052 -0.0048525874 0.028282538
000050 00 b2 ba 39 c8 b0 e7 3c 9a d8 67 bc 00 29 2c 3a
       0.00035609305 0.028282538 -0.014150763 0.0006567389
000060 00 b2 ba 39 00 29 2c 3a eb ac 9b 3c 9e da 92 bc
       0.00035609305 0.0006567389 0.019003352 -0.01792651
000070 90 b3 5f bc 10 5b 3a bc 90 b3 5f bc 25 80 06 3c
       -0.013653651 -0.01137425 -0.013653651 0.008209263
000080 c0 e6 a3 bb 10 5b 3a bc c0 e6 a3 bb 15 35 1f 3c
       -0.005001873 -0.01137425 -0.005001873 0.009717246
000090 d5 fd c8 ba c0 a2 05 bb 00 c0 5e 37 c0 a2 05 bb
       -0.0015334437 -0.0020391196 1.3276935e-05 -0.0020391196
0000a0 56 39 30 3a 80 a5 ec bb 00 c0 5e 37 80 a5 ec bb
       0.0006722411 -0.0072218776 1.3276935e-05 -0.0072218776
0000b0 56 c2 61 3a 88 30 e8 3c 00 4d b9 3a 80 47 56 3b
       0.0008612027 0.028343454 0.0014137328 0.0032696426
0000c0 00 4d b9 3a b8 5b 93 3c 20 a2 e1 bc 80 47 56 3b
       0.0014137328 0.01798807 -0.027543128 0.0032696426
0000d0 20 a2 e1 bc 20 c6 3d bd 85 9d 2f 3c 40 ac ec bb
       -0.027543128 -0.046331525 0.010718708 -0.0072226822
0000e0 00 41 f0 3b 40 ac ec bb d6 b8 f0 bb 10 40 9c 3c
       0.0073319674 -0.0072226822 -0.007346253 0.019073516
0000f0 00 41 f0 3b 10 40 9c 3c 6c 04 5d bb aa 4c 42 bb
       0.0073319674 0.019073516 -0.003372456 -0.0029647746
000100 50 11 4a 3c 00 b1 5d 3a 50 11 4a 3c 75 b2 9f bb
       0.012333229 0.0008456856 0.012333229 -0.0048735687
000110 00 20 32 b8 00 b1 5d 3a 00 20 32 b8 66 6c 00 3c
       -4.246831e-05 0.0008456856 -4.246831e-05 0.007838344
000120 20 b5 91 bc 40 52 51 bc 90 b2 27 bc 40 52 51 bc
       -0.017786562 -0.012775958 -0.010235444 -0.012775958
000130 20 57 05 3c a0 9d 89 bb 90 b2 27 bc a0 9d 89 bb
       0.008138448 -0.0041996986 -0.010235444 -0.0041996986
000140 20 13 1e 3c 65 7a 13 bc 20 e2 e8 bb c0 0f 9a bb
       0.009648114 -0.009001349 -0.0071070343 -0.0047015846
000150 20 e2 e8 bb cb da 21 3c 10 0d 84 3c c0 0f 9a bb
       -0.0071070343 0.009878824 0.01611951 -0.0047015846
000160 10 0d 84 3c 50 06 66 ba 55 f1 8f 3c 00 08 73 39
       0.01611951 -0.00087747443 0.01757113 0.00023177266
000170 00 b6 a3 39 00 08 73 39 ca f7 23 3c 78 88 9c bc
       0.00031225383 0.00023177266 0.010007808 -0.019108042
000180 00 b6 a3 39 78 88 9c bc 3b ed e1 bc 16 f7 f6 3b
       0.00031225383 -0.019108042 -0.02757894 0.007536779
000190 80 b1 99 bb c0 a8 99 3b 80 b1 99 bb 0a 2e c2 bb
       -0.004690349 0.004689306 -0.004690349 -0.0059258984
0001a0 00 c8 58 3c c0 a8 99 3b 00 c8 58 3c 28 24 d3 ba
       0.0132312775 0.004689306 0.0132312775 -0.0016108798
0001b0 aa 5f cb bb 70 33 6e 3c 00 34 07 3a 70 33 6e 3c
       -0.0062064724 0.014538631 0.000515759 0.014538631
0001c0 94 d2 6c bb 00 80 82 b7 00 34 07 3a 00 80 82 b7
       -0.0036136257 -1.5556812e-05 0.000515759 -1.5556812e-05
0001d0 7b e4 20 3c 08 af 25 bd 78 89 f2 bc 90 c6 ef bc
       0.009820099 -0.040450126 -0.029606566 -0.029269487
0001e0 78 89 f2 bc b8 4a a3 3c 10 39 3d bc 90 c6 ef bc
       -0.029606566 0.01993309 -0.011549249 -0.029269487
0001f0 10 39 3d bc 58 13 a8 3c 4b bd f0 3c 80 04 fd bb
       -0.011549249 0.020517036 0.029387137 -0.0077214837
000200 e0 ba 97 bc 80 04 fd bb 05 8b a7 bc 40 71 0d 3b
       -0.018521726 -0.0077214837 -0.020452032 0.0021582395
000210 e0 ba 97 bc 40 71 0d 3b 8a 64 12 bc 96 a1 ee 3c
       -0.018521726 0.0021582395 -0.008935103 0.029129785
000220 e0 c1 c1 3b 40 bd 74 3c e0 c1 c1 3b 4e 6e a5 3c
       0.0059130043 0.014937699 0.0059130043 0.020194199
000230 08 be f9 bc 40 bd 74 3c 08 be f9 bc f1 07 4a bd
       -0.030486122 0.014937699 -0.030486122 -0.04932398
000240 eb c2 38 3d 40 89 31 bb 80 bd 98 3b 40 89 31 bb
       0.045107763 -0.0027089864 0.004661262 -0.0027089864
000250 a5 5f 2b bd 06 07 8a 3d 80 bd 98 3b 06 07 8a 3d
       -0.04183926 0.06739621 0.004661262 0.06739621
000260 50 34 56 bb 60 57 4b bb f8 e7 cc 3d 00 c0 d2 b7
       -0.003268499 -0.0031027421 0.10005182 -2.5123358e-05
000270 f8 e7 cc 3d 39 74 89 bd 80 c1 be 3b 00 c0 d2 b7
       0.10005182 -0.06711621 0.005821407 -2.5123358e-05
000280 80 c1 be 3b f5 ce 8f 3d 1a bf 80 bc 80 4d 0a bc
       0.005821407 0.07021896 -0.015716124 -0.008441329
000290 e0 a0 01 bc 80 4d 0a bc 76 8c f9 3b c0 c5 1e bb
       -0.007911891 -0.008441329 0.007615621 -0.0024226755
0002a0 e0 a0 01 bc c0 c5 1e bb fb b7 04 3c fd e0 85 3c
       -0.007911891 -0.0024226755 0.008100505 0.016342634
0002b0 70 18 3c bc d0 18 f0 3c 70 18 3c bc f6 1a 4e bc
       -0.011480436 0.029308707 -0.011480436 -0.01257967
0002c0 60 5c be bb d0 18 f0 3c 60 5c be bb 18 9c 76 bb
       -0.005809352 0.029308707 -0.005809352 -0.003762966
0002d0 db 54 48 3c 00 72 b2 3a e0 11 93 3b 00 72 b2 3a
       0.012227262 0.0013614297 0.004488215 0.0013614297
0002e0 5b d6 13 3c 80 fb 10 bc e0 11 93 3b 80 fb 10 bc
       0.009023274 -0.008849025 0.004488215 -0.008849025
0002f0 9a 15 ae bc 10 a0 ff 3c a8 68 89 bc c0 63 74 3c
       -0.021250535 0.031204253 -0.016773537 0.01491636
000300 a8 68 89 bc 20 c8 c1 bc 38 06 53 3d c0 63 74 3c
       -0.016773537 -0.023654997 0.051519603 0.01491636
000310 38 06 53 3d c0 5f f7 bb 6c 84 f5 bb 5c 5a 00 3d
       0.051519603 -0.007549256 -0.0074925926 0.031336173
000320 80 86 81 ba 5c 5a 00 3d a6 1a 67 bc 80 49 6c 3b
       -0.0009882003 0.031336173 -0.014105475 0.0036054552
000330 80 86 81 ba 80 49 6c 3b 6d ee b0 3c 10 48 08 bd
       -0.0009882003 0.0036054552 0.021598065 -0.03327185
000340 f8 d4 b5 bc c0 fc 7d bc f8 d4 b5 bc 10 9a 69 3c
       -0.022196278 -0.015502155 -0.022196278 0.014257923
000350 20 54 bb bb c0 fc 7d bc 20 54 bb bb 18 c3 9b 3c
       -0.0057168156 -0.015502155 -0.0057168156 0.019013926
000360 c9 33 03 bd 20 33 9a 3b 30 0e 11 3c 20 33 9a 3b
       -0.032031808 0.0047058016 0.00885348 0.0047058016
000370 30 12 26 3b 4c e8 70 3d 30 0e 11 3c 4c e8 70 3d
       0.002534043 0.058815286 0.00885348 0.058815286
000380 4e a5 f1 3c 30 a1 38 3c 80 6e a8 3a c0 3c 23 3b
       0.029497769 0.011268899 0.0012850314 0.0024908036
000390 80 6e a8 3a e0 e9 de 3b d0 72 38 bc c0 3c 23 3b
       0.0012850314 0.0068027824 -0.011257842 0.0024908036
0003a0 d0 72 38 bc 10 0b 94 bc db bc 1a 3c 40 42 da bb
       -0.011257842 -0.018071681 0.009444441 -0.0066607296
0003b0 00 23 d4 3b 40 42 da bb 2a 0d f4 bb b8 8d 8b 3c
       0.006473899 -0.0066607296 -0.0074478583 0.01703535
0003c0 00 23 d4 3b b8 8d 8b 3c 14 d9 02 bb 94 39 a1 bb
       0.006473899 0.01703535 -0.0019965814 -0.004920194
0003d0 a8 39 e8 3c 00 e9 27 3b a8 39 e8 3c 2a f0 60 bc
       0.028347805 0.0025621057 0.028347805 -0.013729135
0003e0 80 85 00 bb 00 e9 27 3b 80 85 00 bb 7b c6 98 3c
       -0.0019610822 0.0025621057 -0.0019610822 0.01864933
0003f0 00 6d 05 bc c0 d3 96 bb 00 b1 6d bb c0 d3 96 bb
       -0.008143663 -0.0046028793 -0.003626883 -0.0046028793

hfvrA f4 [80, 1]
000000 44 b9 ab 3f 2c 8c ad 3f 45 f7 a7 3f f0 5e a9 3f
       1.3415914 1.3558402 1.3122336 1.3232098
000010 3c 82 8b 3f ea 2f a7 3f 7e a7 a8 3f d3 89 ac 3f
       1.0899119 1.3061497 1.3176115 1.3479561
000020 08 e8 aa 3f fc bb 8b 3f 1b 8d a6 3f a7 37 ab 3f
       1.335206 1.0916743 1.3011812 1.3376359
000030 a8 a1 ad 3f b3 75 a8 3f f4 b3 8b 3f 1f 86 ac 3f
       1.3564959 1.3160919 1.0914292 1.347843
000040 a0 6b b0 3f eb 94 ab 3f 64 3c b0 3f 3c 0a 8b 3f
       1.3782845 1.3404821 1.376843 1.0862498
000050 94 9c b1 3f 6d 37 ae 3f b0 96 a8 3f d6 37 a6 3f
       1.3875909 1.3610665 1.3170986 1.298579
000060 78 41 8b 3f 40 8c a9 3f 77 3e a8 3f e0 ce 9e 3f
       1.0879354 1.3245926 1.3144063 1.2406883
000070 57 35 ab 3f 6c e9 8b 3f 9a 0b a4 3f 51 a6 a6 3f
       1.3375653 1.093061 1.281604 1.3019506
000080 c9 96 a6 3f e8 25 a1 3f bc 38 8c 3f 4b 6c a7 3f
       1.3014766 1.2589693 1.0954814 1.3079923
000090 a1 9e aa 3f 43 8b b1 3f d7 d5 a3 3f 96 67 8b 3f
       1.332966 1.3870624 1.2799634 1.0890987
0000a0 e2 64 aa 3f 3e 5f ab 3f bb bb ac 3f 52 83 a5 3f
       1.3312037 1.3388441 1.3494791 1.2930701
0000b0 c6 99 8b 3f 42 17 af 3f 4b 35 ae 3f 41 21 b5 3f
       1.0906303 1.3678973 1.3610014 1.4150773
0000c0 e3 97 aa 3f b7 e5 8a 3f c3 a7 a7 3f c0 1d aa 3f
       1.3327602 1.0851353 1.3098072 1.3290329
0000d0 86 af ab 3f 26 dd ab 3f b0 a8 8b 3f b5 b4 a6 3f
       1.341294 1.3426864 1.0910854 1.3023897
0000e0 96 3f ab 3f d5 45 a9 3f e2 01 9a 3f 5f 27 8c 3f
       1.337878 1.3224436 1.2031825 1.0949515
0000f0 3d 2b ab 3f 9d 0c 9f 3f 4a b6 a6 3f 26 88 ae 3f
       1.337257 1.2425724 1.302438 1.3635299
000100 17 e4 8b 3f c8 2c aa 3f 3e 85 99 3f 23 7d b0 3f
       1.0928982 1.3294916 1.1993787 1.3788189
000110 bc ea a7 3f 6e d8 8b 3f 62 5a aa 3f 48 17 9c 3f
       1.311851 1.0925424 1.3308833 1.2194605
000120 a2 1d b2 3f 2d 3f ac 3f 00 53 8b 3f 2e b5 a0 3f
       1.3915293 1.345678 1.0884705 1.2555292
000130 2c 9a a8 3f 90 af b1 3f 5a 42 a4 3f 38 b2 8b 3f
       1.317205 1.3881702 1.2832749 1.0913763

vwA f4 [80, 1]
000000 4b bf d1 3e 9f 8c d2 3e d0 20 d1 3e 05 4b d1 3e
       0.40966257 0.4112291 0.40845346 0.40877548
000010 84 88 18 3f 70 e4 d0 3e 76 26 d1 3e 2b a1 d1 3e
       0.59583306 0.40799284 0.40849656 0.40943274
000020 d4 5c d1 3e a0 2a 18 3f 67 fb d0 3e 31 49 d1 3e
       0.40891135 0.5944004 0.40816805 0.40876153
000030 7f 39 d2 3e 02 00 d1 3e 97 28 18 3f c0 00 d2 3e
       0.4105949 0.40820318 0.59436935 0.41016197
000040 bd 19 d4 3e d9 92 d1 3e 69 ec d3 3e bc 8e 1a 3f
       0.41425887 0.40932348 0.41391304 0.60374045
000050 ad c6 d3 3e 36 1b d3 3e 46 4f d1 3e d6 f9 d0 3e
       0.41362515 0.41231698 0.40880793 0.4081561
000060 57 b6 18 3f 75 18 d1 3e 17 f4 d0 3e 6d 01 d0 3e
       0.5965323 0.40838972 0.40811226 0.40626088
000070 29 4b d1 3e c2 64 17 3f be ee cf 3e 80 33 d0 3e
       0.40877655 0.5913812 0.40611833 0.4066429
000080 ad 1b d0 3e f8 6e cf 3e a0 2f 16 3f 42 e9 d0 3e
       0.40646115 0.4051435 0.5866642 0.40802962
000090 ec 65 d1 3e 5e 7c d4 3e 60 c6 d0 3e 8b 1e 18 3f
       0.40898073 0.41501135 0.40776348 0.59421605
0000a0 17 5e d1 3e 46 77 d1 3e 0b 44 d2 3e 70 e6 d0 3e
       0.40892097 0.4091131 0.41067538 0.4080081
0000b0 c6 63 18 3f c6 88 d3 3e 8f 30 d3 3e 6b ab d4 3e
       0.5952724 0.41315287 0.41247985 0.41537032
0000c0 66 f0 d1 3e 6d f8 1a 3f c2 f5 d0 3e 6b 54 d1 3e
       0.41003722 0.6053532 0.40812498 0.40884718
0000d0 bf 82 d1 3e da 8b d1 3e 38 50 18 3f 4a 75 d0 3e
       0.40920064 0.4092701 0.59497404 0.40714484
0000e0 1a ce d0 3e 10 f5 d0 3e 36 51 cf 3e 6d bd 16 3f
       0.40782243 0.40811968 0.40491647 0.5888279
0000f0 2d 34 d1 3e 91 02 d0 3e 6c bf d0 3e 88 8f d1 3e
       0.4086012 0.40626958 0.40771043 0.40929818
000100 d2 9f 17 3f a5 15 d1 3e 5e 33 cf 3e ae c7 d2 3e
       0.5922824 0.40836826 0.40468878 0.4116797
000110 e5 c6 d0 3e 17 43 17 3f 09 84 d1 3e b6 d9 cf 3e
       0.40776744 0.59086746 0.40921047 0.40595788
000120 08 1c d4 3e b6 a7 d1 3e d9 ff 17 3f ce 55 d0 3e
       0.41427636 0.40948266 0.5937477 0.40690464
000130 f7 e8 d0 3e 6d a1 d4 3e f6 ac d0 3e 30 82 17 3f
       0.40802738 0.41529408 0.4075696 0.59183025

alpha_0_A f4 [1280]
000000 13 69 a6 40 13 69 a6 40 13 69 a6 40 13 69 a6 40
       5.2003264 5.2003264 5.2003264 5.2003264
000010 00 f8 9b 41 13 69 a6 40 13 69 a6 40 13 69 a6 40
       19.496094 5.2003264 5.2003264 5.2003264
000020 13 69 a6 40 00 f8 9b 41 13 69 a6 40 13 69 a6 40
       5.2003264 19.496094 5.2003264 5.2003264
000030 13 69 a6 40 13 69 a6 40 00 f8 9b 41 13 69 a6 40
       5.2003264 5.2003264 19.496094 5.2003264
000040 13 69 a6 40 13 69 a6 40 13 69 a6 40 00 f8 9b 41
       5.2003264 5.2003264 5.2003264 19.496094
000050 13 69 a6 40 13 69 a6 40 13 69 a6 40 13 69 a6 40
       5.2003264 5.2003264 5.2003264 5.2003264
000060 00 f8 9b 41 13 69 a6 40 13 69 a6 40 13 69 a6 40
       19.496094 5.2003264 5.2003264 5.2003264
000070 13 69 a6 40 00 f8 9b 41 13 69 a6 40 13 69 a6 40
       5.2003264 19.496094 5.2003264 5.2003264
000080 13 69 a6 40 13 69 a6 40 00 f8 9b 41 13 69 a6 40
       5.2003264 5.2003264 19.496094 5.2003264
000090 13 69 a6 40 13 69 a6 40 13 69 a6 40 00 f8 9b 41
       5.2003264 5.2003264 5.2003264 19.496094
0000a0 13 69 a6 40 13 69 a6 40 13 69 a6 40 13 69 a6 40
       5.2003264 5.2003264 5.2003264 5.2003264
0000b0 00 f8 9b 41 13 69 a6 40 13 69 a6 40 13 69 a6 40
       19.496094 5.2003264 5.2003264 5.2003264
0000c0 13 69 a6 40 00 f8 9b 41 13 69 a6 40 13 69 a6 40
       5.2003264 19.496094 5.2003264 5.2003264
0000d0 13 69 a6 40 13 69 a6 40 00 f8 9b 41 13 69 a6 40
       5.2003264 5.2003264 19.496094 5.2003264
0000e0 13 69 a6 40 13 69 a6 40 13 69 a6 40 00 f8 9b 41
       5.2003264 5.2003264 5.2003264 19.496094
0000f0 13 69 a6 40 13 69 a6 40 13 69 a6 40 13 69 a6 40
       5.2003264 5.2003264 5.2003264 5.2003264
000100 00 f8 9b 41 13 69 a6 40 13 69 a6 40 13 69 a6 40
       19.496094 5.2003264 5.2003264 5.2003264
000110 13 69 a6 40 00 f8 9b 41 13 69 a6 40 13 69 a6 40
       5.2003264 19.496094 5.2003264 5.2003264
000120 13 69 a6 40 13 69 a6 40 00 f8 9b 41 13 69 a6 40
       5.2003264 5.2003264 19.496094 5.2003264
000130 13 69 a6 40 13 69 a6 40 13 69 a6 40 00 f8 9b 41
       5.2003264 5.2003264 5.2003264 19.496094
000140 13 69 a6 40 13 69 a6 40 13 69 a6 40 13 69 a6 40
       5.2003264 5.2003264 5.2003264 5.2003264
000150 00 f8 9b 41 13 69 a6 40 13 69 a6 40 13 69 a6 40
       19.496094 5.2003264 5.2003264 5.2003264
000160 13 69 a6 40 00 f8 9b 41 13 69 a6 40 13 69 a6 40
       5.2003264 19.496094 5.2003264 5.2003264
000170 13 69 a6 40 13 69 a6 40 00 f8 9b 41 13 69 a6 40
       5.2003264 5.2003264 19.496094 5.2003264
000180 13 69 a6 40 13 69 a6 40 13 69 a6 40 00 f8 9b 41
       5.2003264 5.2003264 5.2003264 19.496094
000190 13 69 a6 40 13 69 a6 40 13 69 a6 40 13 69 a6 40
       5.2003264 5.2003264 5.2003264 5.2003264
0001a0 00 f8 9b 41 13 69 a6 40 13 69 a6 40 13 69 a6 40
       19.496094 5.2003264 5.2003264 5.2003264
0001b0 13 69 a6 40 00 f8 9b 41 13 69 a6 40 13 69 a6 40
       5.2003264 19.496094 5.2003264 5.2003264
0001c0 13 69 a6 40 13 69 a6 40 00 f8 9b 41 13 69 a6 40
       5.2003264 5.2003264 19.496094 5.2003264
0001d0 13 69 a6 40 13 69 a6 40 13 69 a6 40 00 f8 9b 41
       5.2003264 5.2003264 5.2003264 19.496094
0001e0 13 69 a6 40 13 69 a6 40 13 69 a6 40 13 69 a6 40
       5.2003264 5.2003264 5.2003264 5.2003264
0001f0 00 f8 9b 41 13 69 a6 40 13 69 a6 40 13 69 a6 40
       19.496094 5.2003264 5.2003264 5.2003264
000200 13 69 a6 40 00 f8 9b 41 13 69 a6 40 13 69 a6 40
       5.2003264 19.496094 5.2003264 5.2003264
000210 13 69 a6 40 13 69 a6 40 00 f8 9b 41 13 69 a6 40
       5.2003264 5.2003264 19.496094 5.2003264
000220 13 69 a6 40 13 69 a6 40 13 69 a6 40 00 f8 9b 41
       5.2003264 5.2003264 5.2003264 19.496094
000230 13 69 a6 40 13 69 a6 40 13 69 a6 40 13 69 a6 40
       5.2003264 5.2003264 5.2003264 5.2003264
000240 00 f8 9b 41 13 69 a6 40 13 69 a6 40 13 69 a6 40
       19.496094 5.2003264 5.2003264 5.2003264
000250 13 69 a6 40 00 f8 9b 41 13 69 a6 40 13 69 a6 40
       5.2003264 19.496094 5.2003264 5.2003264
000260 13 69 a6 40 13 69 a6 40 00 f8 9b 41 13 69 a6 40
       5.2003264 5.2003264 19.496094 5.2003264
000270 13 69 a6 40 13 69 a6 40 13 69 a6 40 00 f8 9b 41
       5.2003264 5.2003264 5.2003264 19.496094
000280 13 69 a6 40 13 69 a6 40 13 69 a6 40 13 69 a6 40
       5.2003264 5.2003264 5.2003264 5.2003264
000290 00 f8 9b 41 13 69 a6 40 13 69 a6 40 13 69 a6 40
       19.496094 5.2003264 5.2003264 5.2003264
0002a0 13 69 a6 40 00 f8 9b 41 13 69 a6 40 13 69 a6 40
       5.2003264 19.496094 5.2003264 5.2003264
0002b0 13 69 a6 40 13 69 a6 40 00 f8 9b 41 13 69 a6 40
       5.2003264 5.2003264 19.496094 5.2003264
0002c0 13 69 a6 40 13 69 a6 40 13 69 a6 40 00 f8 9b 41
       5.2003264 5.2003264 5.2003264 19.496094
0002d0 13 69 a6 40 13 69 a6 40 13 69 a6 40 13 69 a6 40
       5.2003264 5.2003264 5.2003264 5.2003264
0002e0 00 f8 9b 41 13 69 a6 40 13 69 a6 40 13 69 a6 40
       19.496094 5.2003264 5.2003264 5.2003264
0002f0 13 69 a6 40 00 f8 9b 41 13 69 a6 40 13 69 a6 40
       5.2003264 19.496094 5.2003264 5.2003264
000300 13 69 a6 40 13 69 a6 40 00 f8 9b 41 13 69 a6 40
       5.2003264 5.2003264 19.496094 5.2003264
000310 13 69 a6 40 13 69 a6 40 13 69 a6 40 00 f8 9b 41
       5.2003264 5.2003264 5.2003264 19.496094
000320 13 69 a6 40 13 69 a6 40 13 69 a6 40 13 69 a6 40
       5.2003264 5.2003264 5.2003264 5.2003264
000330 00 f8 9b 41 13 69 a6 40 13 69 a6 40 13 69 a6 40
       19.496094 5.2003264 5.2003264 5.2003264
000340 13 69 a6 40 00 f8 9b 41 13 69 a6 40 13 69 a6 40
       5.2003264 19.496094 5.2003264 5.2003264
000350 13 69 a6 40 13 69 a6 40 00 f8 9b 41 13 69 a6 40
       5.2003264 5.2003264 19.496094 5.2003264
000360 13 69 a6 40 13 69 a6 40 13 69 a6 40 00 f8 9b 41
       5.2003264 5.2003264 5.2003264 19.496094
000370 13 69 a6 40 13 69 a6 40 13 69 a6 40 13 69 a6 40
       5.2003264 5.2003264 5.2003264 5.2003264
000380 00 f8 9b 41 13 69 a6 40 13 69 a6 40 13 69 a6 40
       19.496094 5.2003264 5.2003264 5.2003264
000390 13 69 a6 40 00 f8 9b 41 13 69 a6 40 13 69 a6 40
       5.2003264 19.496094 5.2003264 5.2003264
0003a0 13 69 a6 40 13 69 a6 40 00 f8 9b 41 13 69 a6 40
       5.2003264 5.2003264 19.496094 5.2003264
0003b0 13 69 a6 40 13 69 a6 40 13 69 a6 40 00 f8 9b 41
       5.2003264 5.2003264 5.2003264 19.496094
0003c0 13 69 a6 40 13 69 a6 40 13 69 a6 40 13 69 a6 40
       5.2003264 5.2003264 5.2003264 5.2003264
0003d0 00 f8 9b 41 13 69 a6 40 13 69 a6 40 13 69 a6 40
       19.496094 5.2003264 5.2003264 5.2003264
0003e0 13 69 a6 40 00 f8 9b 41 13 69 a6 40 13 69 a6 40
       5.2003264 19.496094 5.2003264 5.2003264
0003f0 13 69 a6 40 13 69 a6 40 00 f8 9b 41 13 69 a6 40
       5.2003264 5.2003264 19.496094 5.2003264

hlistA f4 [80, 4, 8]
000000 93 8f e1 3b 0b c4 4b bd df 80 0d 3e 0a 62 07 3e
       0.0068835705 -0.049747508 0.13818692 0.13220993
000010 72 15 5f 3e a3 81 03 bf aa d4 6f be 49 82 27 3e
       0.21785524 -0.51369685 -0.23420969 0.16358294
000020 30 ed 0b 3d f1 7c cd bc e2 7a 1f bd 9c 5b 5c 3d
       0.034161747 -0.02508399 -0.03893555 0.053798303
000030 d8 b0 96 bd 31 ac 0f bc 06 3e 23 bd d8 a3 f7 bb
       -0.07357949 -0.008769081 -0.039854072 -0.0075573735
000040 a8 40 17 3d af cd 93 bd 80 9d ed bc 07 ab bf 3d
       0.036926895 -0.072169654 -0.029005766 0.09358793
000050 78 9d a8 3c ed 83 0b bf 9e 80 92 be 0a 7c 09 3e
       0.0205829 -0.5449818 -0.28613752 0.13426223
000060 f8 11 60 be a6 b2 ca be f6 8c e5 bd df 41 bf 40
       -0.21881855 -0.39589423 -0.11208527 5.976791
000070 2a a5 47 be 3f b6 a6 3e 61 88 5f be 1c 0b 85 41
       -0.19496599 0.32560918 -0.21829368 16.630424
000080 93 8f e1 3b 0b c4 4b bd df 80 0d 3e 0a 62 07 3e
       0.0068835705 -0.049747508 0.13818692 0.13220993
000090 72 15 5f 3e a3 81 03 bf aa d4 6f be 49 82 27 3e
       0.21785524 -0.51369685 -0.23420969 0.16358294
0000a0 01 ef f2 3c 34 06 e6 bc e4 fb 1e bd 90 a0 53 3d
       0.029654982 -0.02807913 -0.03881444 0.051666796
0000b0 90 f3 97 bd 50 e6 03 bc 0b c7 22 bd 64 08 68 bc
       -0.07419503 -0.008050516 -0.039740603 -0.014162157
0000c0 00 00 98 39 b6 fe a6 bd 6d ae 18 be 04 39 b7 3d
       0.000289917 -0.08154051 -0.14910288 0.08946422
0000d0 b6 22 cf 3d 5d d1 04 bf 65 06 83 be 75 01 2d 3e
       0.101140425 -0.51881963 -0.25590816 0.16895087
0000e0 20 3d 46 be 24 1b b4 be b1 d5 c4 bd 76 59 a7 40
       -0.19359255 -0.35176957 -0.09611071 5.2296705
0000f0 6c 2e 25 be f1 52 91 3e 16 7c 40 be eb c1 66 41
       -0.1613099 0.28383592 -0.18797335 14.422343
000100 93 8f e1 3b 0b c4 4b bd df 80 0d 3e 0a 62 07 3e
       0.0068835705 -0.049747508 0.13818692 0.13220993
000110 72 15 5f 3e a3 81 03 bf aa d4 6f be 49 82 27 3e
       0.21785524 -0.51369685 -0.23420969 0.16358294
000120 10 e4 79 3c 3b 0d 5e bd da 4d fa bc d0 7f 2f bc
       0.015252128 -0.054211836 -0.0305547 -0.010711625
000130 c0 74 b0 bd d8 a6 b7 bb 8c b6 12 bd 66 46 40 bd
       -0.08616018 -0.005604606 -0.03581862 -0.046942137
000140 a0 e0 f2 3c f5 50 9e bd a8 80 b8 bc 10 22 9e 3d
       0.029648125 -0.07730285 -0.022522286 0.07721341
000150 5e 9a 29 3d da 6c ef be 1b f9 84 be f6 23 0f 3e
       0.04140698 -0.46762735 -0.25971302 0.13978562
000160 5e 98 6d be 27 7b d6 be 92 61 f6 bd 53 c3 cb 40
       -0.23202655 -0.41890833 -0.12030329 6.3675933
000170 5c 73 59 be c2 d4 b1 3e 01 a9 6f be c9 41 8e 41
       -0.21235412 0.34732634 -0.23404314 17.782122
000180 93 8f e1 3b 0b c4 4b bd df 80 0d 3e 0a 62 07 3e
       0.0068835705 -0.049747508 0.13818692 0.13220993
000190 72 15 5f 3e a3 81 03 bf aa d4 6f be 49 82 27 3e
       0.21785524 -0.51369685 -0.23420969 0.16358294
0001a0 80 df 75 3c e8 98 5c bd 0c df fd bc 18 b6 07 bc
       0.0150069 -0.05385676 -0.030990146 -0.008283161
0001b0 ce 83 b0 bd d6 39 bc bb 6e 0b 14 bd 02 c0 3e bd
       -0.0861889 -0.0057441993 -0.036143713 -0.04656983
0001c0 70 ce ff 3c 9c 4d a0 bd f0 38 d3 bc b2 09 8f 3d
       0.031226367 -0.07827303 -0.025783986 0.06984271
0001d0 2c 38 60 3d f6 4a e0 be ef 07 86 be c2 d3 18 3e
       0.05474107 -0.4380719 -0.26177928 0.14924529
0001e0 68 25 56 be 72 af c0 be f0 3b d0 bd 57 b7 b5 40
       -0.20912707 -0.37633854 -0.10167682 5.6786304
0001f0 2a 67 33 be 4e 2d 9c 3e 8c d5 4f be 2b 71 7a 41
       -0.17519823 0.30503315 -0.20296305 15.652629
000200 34 e3 22 3e 33 75 43 be 57 a4 89 bc 78 39 37 bd
       0.15906984 -0.19087677 -0.016801996 -0.04473254
000210 6f 1f 03 bd f5 e8 3b be 8b aa aa 3d b2 1c a8 bc
       -0.0320124 -0.18350585 0.0833331 -0.020521495
000220 a6 5d 09 3f 5c 0d 12 be ee 87 af 3e d6 af 05 c0
       0.5365852 -0.14262909 0.34283394 -2.0888572
000230 dc 17 e4 3c 3c 7c bc 3d fe 6d 79 3e 28 5f 4b 3d
       0.027843408 0.09203383 0.24358365 0.049651295
000240 56 64 44 be 4f d6 17 bf ac 2a b2 3d 48 94 d0 3d
       -0.191789 -0.59311384 0.08699545 0.101845324
000250 f6 04 56 be b0 9d d1 3f db de 19 bf da f7 f0 3e
       -0.2090033 1.6376247 -0.60105675 0.47064096
000260 9d 7a 2d c0 e0 ef bc c0 36 e2 64 c0 77 61 a9 42
       -2.7106087 -5.9042816 -3.5763068 84.69036
000270 5d 40 d1 c0 fe 70 ce 40 e9 db 9a c0 44 f6 91 43
       -6.539107 6.451293 -4.8393445 291.92395
000280 93 8f e1 3b 0b c4 4b bd df 80 0d 3e 0a 62 07 3e
       0.0068835705 -0.049747508 0.13818692 0.13220993
000290 72 15 5f 3e a3 81 03 bf aa d4 6f be 49 82 27 3e
       0.21785524 -0.51369685 -0.23420969 0.16358294
0002a0 63 c3 c8 3c fa 77 2b bd ed 05 0e bd 20 0e 83 3c
       0.02450723 -0.041862465 -0.03467362 0.015997946
0002b0 d7 5e a8 bd 76 cc fa bb 08 ac 1d bd 3c f1 e2 bc
       -0.08221214 -0.007653768 -0.03849414 -0.02770292
0002c0 70 32 e5 3c 92 92 8c bd 40 9f b7 bc 80 89 b6 3d
       0.027978152 -0.068638936 -0.022414804 0.08912945
0002d0 c0 65 25 3c ad ba 06 bf bc 42 88 be 54 7a fb 3d
       0.01009506 -0.52628595 -0.26613414 0.122791916
0002e0 66 ad 8c be 85 e2 01 bf c5 ec 2d be 62 23 f6 40
       -0.27476043 -0.50736266 -0.16984852 7.691819
0002f0 63 58 9c be d7 43 e2 3e 4b 0d 9c be 65 a2 b1 41
       -0.30536184 0.44192383 -0.30478892 22.204294
000300 93 8f e1 3b 0b c4 4b bd df 80 0d 3e 0a 62 07 3e
       0.0068835705 -0.049747508 0.13818692 0.13220993
000310 72 15 5f 3e a3 81 03 bf aa d4 6f be 49 82 27 3e
       0.21785524 -0.51369685 -0.23420969 0.16358294
000320 f0 02 73 3c bd 8f 5b bd b8 34 00 bd 70 bf d6 bb
       0.014832243 -0.053603876 -0.031300277 -0.006553583
000330 87 8e b0 bd d4 7b bf bb 36 fe 14 bd f6 a9 3d bd
       -0.08620935 -0.005843619 -0.036375247 -0.046304666
000340 98 e0 fb 3c 94 7a a5 bd 28 36 be bc 34 dc 92 3d
       0.030746743 -0.080800205 -0.023219183 0.07170907
000350 d6 ca 6f 3d 74 c3 e0 be fb a7 84 be 20 91 19 3e
       0.05854305 -0.4389912 -0.2590941 0.14996767
000360 06 c8 5d be 4d 78 c7 be 18 9b da bd b8 cf bc 40
       -0.21658334 -0.3895897 -0.10674113 5.9003563
000370 bc 26 3e be 48 af a2 3e 4f 50 59 be 82 86 82 41
       -0.18569463 0.31774354 -0.21222042 16.315678
000380 93 8f e1 3b 0b c4 4b bd df 80 0d 3e 0a 62 07 3e
       0.0068835705 -0.049747508 0.13818692 0.13220993
000390 72 15 5f 3e a3 81 03 bf aa d4 6f be 49 82 27 3e
       0.21785524 -0.51369685 -0.23420969 0.16358294
0003a0 30 ea 64 3c 6f bd 50 bd d8 b5 07 bd 10 1d f7 3b
       0.01397185 -0.050961908 -0.033132404 0.0075413063
0003b0 25 b9 ae bd 38 dc cf bb da ed 18 bd 42 3b 35 bd
       -0.08531407 -0.006343391 -0.037336208 -0.044245966
0003c0 00 f8 b5 ba c7 2c b7 bd 0a c9 ff bd b6 7a 97 3d
       -0.0013883114 -0.089440875 -0.12489517 0.07396452
0003d0 77 52 02 3e 3a 25 dd be 7e 99 76 be 8e fd 36 3e
       0.1272677 -0.43192464 -0.2408199 0.17870161
0003e0 02 33 3f be 25 f9 ac be 86 83 b5 bd cb 92 a0 40
       -0.18671802 -0.33783832 -0.08862977 5.017919
0003f0 90 a9 16 be 4d cc 89 3e 43 43 35 be d4 9c 5b 41
       -0.1471312 0.26913682 -0.1770144 13.725788
