tests/test_data_path/og_processed/dimer_ap3_train_spec_7_511.pt (torch, 189586 bytes, 17 tensors)

y f4 [16, 4]
000000 8b 7a 86 c0 d6 92 52 3d ff af 37 c0 16 99 8c be
       -4.202459 0.051409565 -2.870117 -0.27460545
000010 fe de 26 40 4a b0 10 3f e1 ce ef c0 a2 18 c4 bf
       2.6073604 0.56518996 -7.494004 -1.5320017
000020 78 d2 b4 3f b0 a8 3f 39 1d 28 8c bf 28 5e 94 bd
       1.412673 0.0001827802 -1.0949742 -0.072445214
000030 89 33 c4 40 13 8b 1c 40 28 1e 24 c1 9c f3 56 c0
       6.131291 2.4459884 -10.257362 -3.3586187
000040 09 3c 53 c1 7f c3 e0 41 6b 18 af c1 c0 7a 1f c1
       -13.202157 28.095457 -21.886923 -9.967468
000050 75 ee dc 3e c4 41 3a 3b 30 8c 12 c0 4d de 1c be
       0.43150678 0.0028420547 -2.2898064 -0.15319176
000060 bd 0c 42 c1 af 7c e1 41 e9 33 a7 c1 af 4a e7 c0
       -12.12811 28.18588 -20.900347 -7.2278666
000070 bd 72 5b 40 af e1 f6 3b b6 38 37 c0 fd f0 aa be
       3.428878 0.007534228 -2.8628364 -0.33386984
000080 a1 da 6e bf b4 9b 87 3f cb d4 f7 c0 81 5c f8 bf
       -0.9330235 1.0594392 -7.7447257 -1.940323
000090 64 ea 77 3d c2 22 fd 3e 7d 67 d0 c0 27 10 91 bf
       0.060526267 0.4944058 -6.512633 -1.1333054
0000a0 bd f3 b1 3f 2b 7f 50 37 83 ed 49 bf 27 3f f7 bc
       1.3902508 1.2427375e-05 -0.7887804 -0.03018148
0000b0 f7 d7 e0 3f 71 bd 42 3c 93 02 2a c0 d9 04 69 be
       1.7565907 0.011885987 -2.656407 -0.22755755
0000c0 96 2a 76 c1 11 7c 2f 42 1c b1 c5 c1 dc f0 18 c1
       -15.385397 43.87116 -24.71148 -9.558804
0000d0 6d 2e 11 3f d5 dc ae 38 d2 c6 71 bf 47 21 10 bd
       0.56711465 8.3381e-05 -0.94444 -0.035187986
0000e0 50 3e 62 c0 63 02 00 3c 6f 7b 11 c0 11 eb 30 be
       -3.5350533 0.007813069 -2.2731588 -0.1727717
0000f0 b9 3e 81 c0 ba 55 de 3b ff f3 22 c0 df 2a 42 be
       -4.0389066 0.0067851217 -2.5461423 -0.18961667

RA f4 [80, 3]
000000 6b 47 91 3d 33 53 16 bf 6c 92 b9 bf 50 c5 e5 be
       0.070937 -0.587207 -1.449781 -0.448771
000010 72 4e 96 bf 4d 82 83 3f 5c 02 90 bf ba d7 8f 3f
       -1.174269 1.027414 -1.125072 1.123771
000020 d1 ca 3d bc 91 47 aa 3f 7d ca 15 3f 3c 9f f1 3e
       -0.011584 1.330309 0.585121 0.471918
000030 2b 50 8b bc 46 60 6c 3d cf 65 2a bd d3 c1 9a 3d
       -0.017006 0.057709 -0.041601 0.075565
000040 58 1d 11 bf 89 61 bd bf a1 f4 b5 be 4e 44 97 bf
       -0.566854 -1.479539 -0.355382 -1.181772
000050 07 44 86 3f 9a ed 88 bf 12 a3 8f 3f 86 e3 39 3d
       1.048951 -1.069751 1.122164 0.045383
000060 55 de a6 3f 74 d3 1a 3f f7 cd d5 3e 09 8b 4a bd
       1.30366 0.604789 0.417587 -0.049449
000070 3e 22 26 3b ed 9a 50 3d c8 d3 92 3d ba dd 0b bf
       0.002535 0.050929 0.071693 -0.546352
000080 49 2e c3 bf 81 78 c5 be b3 61 8f bf 80 11 78 3f
       -1.52485 -0.385685 -1.120169 0.969017
000090 7c 5f 8a bf 66 4d 8a 3f 0f 5e 9b 3d 92 22 b0 3f
       -1.081039 1.080487 0.075863 1.376055
0000a0 a5 9f 14 3f a1 d7 d7 3e b8 03 f5 bc 53 58 29 3d
       0.580561 0.421567 -0.029909 0.041344
0000b0 80 ba 81 3c 73 d7 f2 3d eb c6 03 bf 8f fa b3 bf
       0.015836 0.118575 -0.514754 -1.406084
0000c0 0c 23 ad be eb 02 94 bf 15 55 77 3f 8a cc 90 bf
       -0.338158 -1.156339 0.966142 -1.131242
0000d0 91 d3 8b 3f 8e af bd 3c f6 0d aa 3f 3a 57 0c 3f
       1.092394 0.023155 1.328551 0.548206
0000e0 09 34 f0 3e 2c 66 04 3c 37 df 88 bb 96 21 0e bc
       0.469147 0.008081 -0.004177 -0.008675
0000f0 54 37 d7 3d 0e f7 15 bf 31 0a b6 bf 40 d9 ec be
       0.105086 -0.585801 -1.422186 -0.462595
000100 ca a6 8a bf 9d 65 6a 3f 26 fd 89 bf db 88 8f 3f
       -1.083215 0.915613 -1.078038 1.121364
000110 89 d2 5e 3d 43 3b b1 3f c3 f1 10 3f e1 79 e1 3e
       0.0544 1.384621 0.566189 0.440383
000120 6c 26 df 3b 39 7e a8 3b 90 88 a9 3c 51 11 a7 3d
       0.00681 0.005142 0.020695 0.081576
000130 ee 5c 10 bf 5b 78 b6 bf cf db d0 be eb 3b 93 bf
       -0.563918 -1.425548 -0.407927 -1.150266
000140 e1 ed 79 3f 8b df 88 bf 82 36 8f 3f 17 7f 1b 3d
       0.976286 -1.069322 1.118851 0.037963
000150 d1 90 b1 3f b2 2b 15 3f 1c 06 db 3e f8 1b ed ba
       1.387232 0.582698 0.427781 -0.001809
000160 5c 3a e6 3b 19 c6 dd 39 31 60 c9 3d d4 9a 06 bf
       0.007026 0.000423 0.098328 -0.5258
000170 ba 11 b6 bf 9d 4a ce be 46 7c 93 bf e7 1b 75 3f
       -1.422416 -0.402913 -1.15223 0.957457
000180 10 ae 8a bf a5 69 8e 3f 03 0b 20 3d f8 a4 ad 3f
       -1.083437 1.112599 0.039073 1.356597
000190 47 e7 1c 3f 28 b9 d3 3e 44 c1 0c bc 59 fc 86 3d
       0.612904 0.413522 -0.008591 0.065911
0001a0 35 96 b0 bc 4a 9b 1a 3e 13 66 0e bf ec 30 b2 bf
       -0.021556 0.150983 -0.556245 -1.392118
0001b0 bb ec b7 be 2b f7 8a bf 95 0b 85 3f 9d bc 88 bf
       -0.359228 -1.085668 1.039416 -1.068256
0001c0 32 21 92 3f 68 95 19 3d a6 7c ba 3f f1 9e 07 3f
       1.141638 0.037496 1.456929 0.529769
0001d0 34 f6 e5 3e 0e dc 81 3d fe 7f 9c 3a 18 3f 0d 3c
       0.449144 0.063408 0.001194 0.008621
0001e0 23 dc e4 3d 9b 3c 05 bf 4c 37 bf bf 12 a1 d1 be
       0.111748 -0.520456 -1.493875 -0.409432
0001f0 ef 73 90 bf 47 59 77 3f fe b9 8a bf 4c fd 8e 3f
       -1.128538 0.966206 -1.083801 1.117105
000200 40 4b 97 3d 90 6a b2 3f ed f0 23 3f 02 2c ca 3e
       0.073874 1.393877 0.640395 0.394867
000210 29 24 19 3c 25 eb 70 3d e1 f0 02 3c ff 07 f8 3d
       0.009347 0.058818 0.007992 0.121109
000220 16 13 03 bf f1 2f ba bf ad 17 cb be 46 d2 90 bf
       -0.51201 -1.454588 -0.396665 -1.131417
000230 5d 37 79 3f e3 38 82 bf 2b c0 8d 3f 21 ce 03 3d
       0.973501 -1.017361 1.107427 0.032179
000240 7a 6e b5 3f 43 55 18 3f bc c9 c7 3e 48 dc 23 3d
       1.417434 0.595051 0.390211 0.040005
000250 71 00 fd 3c bd 1c f6 3c 6e 16 af 3d 38 f4 1a bf
       0.030884 0.030043 0.085492 -0.605289
000260 c8 cd b4 bf 2e 91 d3 be bd 56 8e bf 69 aa 63 3f
       -1.41253 -0.413217 -1.112022 0.889319
000270 d1 ca 8d bf 92 3d 90 3f 2a 3b fd 3b 08 72 b6 3f
       -1.107752 1.126879 0.007728 1.425355
000280 fb b0 16 3f 46 06 f9 3e 9f e6 64 3c a1 d9 35 bd
       0.588638 0.486376 0.013971 -0.044397
000290 a5 6a 3b 3d b4 c8 26 3e 86 a9 0d bf 88 bc c1 bf
       0.045756 0.162875 -0.553368 -1.513566
0002a0 db de ce be 3e ca 8e bf 4b 56 75 3f 24 d4 88 bf
       -0.404044 -1.115547 0.958348 -1.068974
0002b0 22 38 92 3f 43 fe 19 3d 03 ec af 3f 06 63 18 3f
       1.142338 0.037596 1.37439 0.595261
0002c0 8e b0 d8 3e 9a 60 38 bd e5 b7 e8 3b db 31 35 bd
       0.423222 -0.045014 0.007102 -0.044237
0002d0 1f be cc 3d 4e 63 03 bf f8 6f bc bf 91 7b ca be
       0.099972 -0.513234 -1.472167 -0.395474
0002e0 db c1 90 bf 53 95 72 3f d4 b9 90 bf 03 cc 8a 3f
       -1.130916 0.947591 -1.130671 1.084351
0002f0 4e 2b 85 bc 8a 92 ae 3f d6 c8 0e 3f 09 35 cb 3e
       -0.016256 1.363847 0.557752 0.396889
000300 30 7f 05 3c 05 f9 d9 3a 15 57 15 bc 5f 62 ec 3d
       0.008148 0.001663 -0.009115 0.115422
000310 77 d6 06 bf aa 43 b6 bf c6 35 d6 be a7 af 93 bf
       -0.52671 -1.42394 -0.418379 -1.153798
000320 18 5f 68 3f a7 ae 88 bf 91 7e 93 3f 23 2d d5 3d
       0.907701 -1.06783 1.1523 0.10409
000330 1a c0 af 3f af 99 18 3f 8a 3e c7 3e 93 c3 87 3d
       1.37305 0.596095 0.389149 0.066291
000340 21 76 26 bb 79 58 28 bd 5b ef 37 3d 54 35 19 bf
       -0.00254 -0.0411 0.044906 -0.59847
000350 11 54 b7 bf 96 07 b1 be 20 d2 93 bf ed b9 68 3f
       -1.432253 -0.345761 -1.15485 0.909087
000360 ec 16 89 bf 01 f8 8f 3f 18 77 43 3d d3 30 b4 3f
       -1.071012 1.124756 0.047721 1.40774
000370 e5 99 07 3f a4 53 bf 3e 86 3d 6d 3b f4 36 b6 bc
       0.529692 0.373685 0.00362 -0.022243
000380 0f b8 2e bb 37 4f 95 3d 1b 64 12 bf ee 5a b8 bf
       -0.002666 0.072905 -0.57184 -1.440275
000390 e0 83 cf be f6 b5 92 bf 1d 76 6b 3f ed 99 8b bf
       -0.405303 -1.146178 0.919771 -1.090635
0003a0 2d cd 8f 3f d1 02 74 3d 1e a7 ae 3f c0 5f 08 3f
       1.123449 0.059573 1.364475 0.532711
0003b0 52 7c d4 3e c4 5c 12 3d 2a 73 73 bc 06 9f e6 bb
       0.415011 0.035733 -0.014859 -0.007038

RB f4 [256, 3]
000000 20 a9 a6 c0 57 5e 92 be 47 2a e9 c0 0f 48 bc c0
       -5.208145 -0.285876 -7.286411 -5.883796
000010 7e 73 9f bd b5 4f 08 c1 87 0b a1 c0 41 f5 6f 3e
       -0.077857 -8.51946 -5.032657 0.234334
000020 3f 5b 1a c1 e0 84 6f c0 52 98 cf 3e 40 65 18 c1
       -9.647277 -3.742485 0.405459 -9.524719
000030 18 cd 43 c0 fc 1c 87 3e d0 e5 04 c1 20 f1 73 c0
       -3.059393 0.263893 -8.306107 -3.811592
000040 27 6c 5f be 5b 27 e6 c0 61 8c ba c0 8e ea 24 bf
       -0.218186 -7.192304 -5.829636 -0.644204
000050 97 8c ce c0 7f 2f de c0 07 5f b0 be 79 3f 0a c1
       -6.454662 -6.943298 -0.344475 -8.640496
000060 55 a3 b1 c0 1a 34 dc 3e 17 75 2a c1 eb 3b 44 c0
       -5.551188 0.430085 -10.653586 -3.066157
000070 b2 11 2c 3f 19 47 25 c1 fa 0e 01 c0 7b 83 af 3e
       0.672145 -10.329858 -2.016539 0.3428
000080 38 c1 01 c1 48 c2 5b c0 21 5a c3 be 1c dd be c0
       -8.109673 -3.433733 -0.381547 -5.964491
000090 ab 92 01 c0 f6 0a 6b be dc 83 b5 c0 5d a7 e9 bf
       -2.024577 -0.229534 -5.672346 -1.82542
0000a0 bb 7e f9 be a2 e0 92 c0 d4 f2 b5 bf 40 33 70 bf
       -0.487295 -4.589921 -1.421473 -0.938282
0000b0 10 3f c8 c0 a9 2f d7 bf ed f3 48 3f f7 57 bd c0
       -6.257698 -1.681142 0.784972 -5.916988
0000c0 2a 8b 01 40 29 ec aa 40 00 e3 39 3f d9 77 69 3f
       2.024119 5.341328 0.72612 0.911985
0000d0 89 6e 92 40 d8 46 5c 3e 77 2c 0e 3f fa 1a 95 40
       4.575993 0.215114 0.555366 4.659543
0000e0 38 f3 89 bf f1 46 a8 3f c2 43 ab 40 14 b0 f7 bf
       -1.077735 1.314665 5.352021 -1.935061
0000f0 1d 94 15 40 0c ca c6 40 96 94 bf bf 1d 3e 2f 40
       2.337165 6.212164 -1.496722 2.738166
000100 c4 89 c5 40 05 c4 44 be 16 4f 15 40 aa 10 a9 40
       6.173067 -0.192154 2.332952 5.283284
000110 81 ed de 3f 31 d2 cb 3e af 5f 7d 40 02 10 7b 3f
       1.741623 0.398088 3.958965 0.980713
000120 da aa 94 be f2 26 80 40 d3 dd b3 bf 51 f9 7f 3f
       -0.290366 4.004754 -1.405207 0.999898
000130 f8 1c b1 40 a6 42 3d c0 c1 ac 3a 40 a9 11 d9 40
       5.534786 -2.957193 2.916794 6.783406
000140 69 3a 0d c0 e7 53 6c 40 aa 8e db 40 be a0 ad 3e
       -2.20669 3.692621 6.861165 0.339117
000150 18 8b 90 40 ae 2e f7 40 12 83 f8 be 17 81 a9 40
       4.516979 7.724448 -0.485375 5.297008
000160 cd d5 02 41 9b 1e 94 3d 32 f6 9f 40 2c f4 e5 40
       8.177197 0.072324 4.998803 7.186056
000170 52 f2 a0 bf 6d 55 76 40 48 5c 08 41 b8 57 72 bf
       -1.257395 3.848964 8.52253 -0.946651
000180 f2 40 3d c0 dd 5b 62 c0 2b 09 fd 40 a4 70 c1 bf
       -2.957089 -3.536857 7.907369 -1.51125
000190 82 36 65 c0 ed 10 00 41 da e3 4d bf 13 b9 1a c0
       -3.581452 8.004132 -0.804258 -2.417546
0001a0 b6 5a fb 40 2a 74 b6 bf 46 b1 96 bf da 11 f8 40
       7.854823 -1.42542 -1.177285 7.752179
0001b0 be 88 30 c0 b1 86 91 bf 09 40 f6 40 bf 82 66 c0
       -2.758346 -1.136923 7.695317 -3.60173
0001c0 9c fa 10 c0 00 1f f9 40 fe f2 62 c0 6c 4d 8d c0
       -2.265296 7.785034 -3.546081 -4.415701
0001d0 07 15 fe 40 59 14 86 bf 54 00 90 c0 84 ff 00 41
       7.940067 -1.047496 -4.50004 8.062382
0001e0 36 cb 9d 3e 20 b6 1d c0 42 94 fc 40 21 07 5d bf
       0.308191 -2.464241 7.893098 -0.86339
0001f0 44 fa 7d be ab a3 f5 40 fc 53 50 c0 9d 80 a6 bd
       -0.248025 7.676229 -3.255126 -0.0813
000200 82 b7 f2 40 c8 d0 9c c0 ed 0b 19 c0 b8 f8 f9 40
       7.584901 -4.900486 -2.391353 7.811611
000210 cc 60 b6 c0 01 df 8b bf 88 03 f4 40 f0 b0 d7 c0
       -5.699316 -1.092743 7.625431 -6.740349
000220 bb 0a b3 bf e1 fb f4 40 84 0c b0 c0 8f c3 d8 be
       -1.398765 7.655747 -5.501528 -0.423367
000230 da 46 08 41 b4 80 ae c0 0f 29 22 bf 01 fc d7 40
       8.517298 -5.453211 -0.633439 6.749512
000240 00 3b fb bf 01 32 36 c0 76 c6 41 c0 db c3 c2 bf
       -1.962738 -2.846802 -3.027738 -1.521602
000250 9a ef 6f c0 d6 8e 7b c0 b1 86 c7 bf ab 79 62 c0
       -3.748999 -3.930593 -1.558798 -3.538676
000260 9c 7c aa c0 3b 36 02 c0 a1 4c 10 c0 a7 79 b7 c0
       -5.327711 -2.03456 -2.254677 -5.7336
000270 4a d3 23 c0 7e a7 a7 bf 19 e5 9d c0 8e 78 1e c0
       -2.559771 -1.309799 -4.934216 -2.476108
000280 2f e0 cf bf 93 c9 5e c0 7f bc f9 bf 75 af 44 c0
       -1.624029 -3.481053 -1.951065 -3.073209
000290 75 e8 f4 bf 53 08 90 bf c0 f5 98 c0 77 86 67 c0
       -1.913344 -1.125254 -4.779999 -3.617582
0002a0 51 2e a3 bf 5f 43 88 c0 9e 24 c0 c0 27 4c 05 c0
       -1.274851 -4.258224 -6.00447 -2.082773
0002b0 76 ff 07 c0 5b 95 da c0 2b 16 38 c0 27 32 c3 be
       -2.124967 -6.830732 -2.876353 -0.381242
0002c0 fa ee a7 c0 f3 75 38 c0 30 f3 3d bf 51 4e 21 c0
       -5.247922 -2.882199 -0.741992 -2.520405
0002d0 62 6a 56 c0 88 12 05 3f 85 44 3d c0 53 93 69 c0
       -3.350243 0.519814 -2.957307 -3.649617
0002e0 a4 6e 87 3f e5 62 01 c0 30 67 2b c0 28 29 90 3f
       1.058064 -2.021661 -2.678173 1.126256
0002f0 91 46 61 c0 de 11 88 c0 9f 5b f8 3e 14 5b 5f c0
       -3.519932 -4.252181 0.485074 -3.489934
000300 65 fc 1b 3e 39 46 73 40 99 66 57 40 80 27 af 3f
       0.15233 3.801161 3.365637 1.368393
000310 b0 3d 8c 40 09 c3 2f 40 3c 83 bc 3f ae 29 8c 40
       4.38253 2.746279 1.472755 4.380088
000320 34 be ad 3f 27 15 0d 3f 77 cb 81 40 cb d7 01 3f
       1.357367 0.551104 4.056087 0.507199
000330 2b 16 2b bf 8d 96 5d 40 18 24 85 3f 61 c4 56 bf
       -0.668307 3.462314 1.040164 -0.838934
000340 dd 94 5a 40 cd cb 1c 40 54 74 a4 3c 26 fd 72 40
       3.415336 2.449939 0.020075 3.796701
000350 cc 6f 8b 40 be 66 0b 40 01 17 99 40 6d 3c 59 40
       4.357397 2.178146 4.784058 3.394313
000360 61 fa 1d 40 a5 ae 9b 40 3a 08 7a 3f f3 71 29 3f
       2.468407 4.865069 0.976688 0.661895
000370 0e ac 81 40 2f e0 09 bf cc 63 c1 bf 54 8c 44 40
       4.052253 -0.538577 -1.510858 3.071065
000380 bb 0f c0 3e cb d9 ff bf 79 90 38 40 9a 77 47 40
       0.37512 -1.998834 2.883818 3.116675
000390 9d 48 42 c0 48 15 1a 40 1f bb 0b 40 2b da 73 c0
       -3.035682 2.407549 2.183296 -3.810191
0003a0 61 55 09 40 1f 67 40 40 ab ae 5d c0 3e 42 50 40
       2.145836 3.006294 -3.463786 3.254043
0003b0 16 15 cd 3f f8 54 2d c0 5a 2c c1 3f a6 7f cf 3f
       1.602206 -2.708311 1.509166 1.621083
0003c0 c8 26 05 40 d8 70 92 40 ab 3d 96 40 2a 91 b0 3f
       2.080492 4.576275 4.695028 1.37943
0003d0 9a b6 6b 40 da 20 af 40 d5 ec bd 3f d8 d7 71 40
       3.68302 5.47276 1.48379 3.778799
0003e0 8e 92 dc 40 54 c5 11 40 9d 49 96 40 50 81 ed 40
       6.89289 2.277669 4.696486 7.422035
0003f0 f8 fe 3f 40 37 5d b6 40 38 db d3 40 e7 aa 34 40
       2.999937 5.698879 6.62051 2.822931

qA f4 [80, 1]
000000 1c c6 47 bf c4 fb 5b bf 14 71 46 bf ce 6b 46 bf
       -0.78036666 -0.8593104 -0.77516294 -0.77508247
000010 5f 4f 98 3f cb bb 54 bf 7d d3 47 bf ad a3 49 bf
       1.1899222 -0.8309905 -0.7805708 -0.78765374
000020 31 2b 54 bf 13 2f 9d 3f 24 d0 53 bf 42 6f 51 bf
       -0.82878405 1.2279991 -0.8273947 -0.8181039
000030 8e c9 47 bf 32 12 4f bf 92 0d 9e 3f f5 23 51 bf
       -0.78041923 -0.8088714 1.2347891 -0.8169549
000040 f9 51 56 bf f3 e6 52 bf 6d 7e 53 bf a6 ed a6 3f
       -0.8371883 -0.8238365 -0.82614785 1.3041275
000050 95 72 55 bf d3 b1 53 bf 61 17 54 bf 4d e0 4d bf
       -0.83377963 -0.82693213 -0.82848173 -0.8042038
000060 0a 8e a5 3f 92 31 51 bf 5e 88 52 bf 10 42 4f bf
       1.2933972 -0.81716263 -0.8223933 -0.8096018
000070 24 bc 4f bf 11 5c a1 3f 10 7b 53 bf 48 87 58 bf
       -0.81146455 1.2606221 -0.82609653 -0.8458142
000080 90 46 4b bf ca ea 4f bf dc 99 a3 3f 87 b2 4b bf
       -0.79404545 -0.81217635 1.2781329 -0.79569286
000090 19 37 53 bf 87 2b 52 bf 7b 9b 4e bf 52 d8 9f 3f
       -0.8250595 -0.8209767 -0.80705994 1.2487891
0000a0 d7 8b 54 bf c7 5e 51 bf 3f e1 4b bf 3d bb 47 bf
       -0.8302588 -0.81785244 -0.79640573 -0.7802008
0000b0 89 c3 9c 3f c4 f5 58 bf 16 05 4f bf ca 63 52 bf
       1.2247173 -0.8475001 -0.80867136 -0.82183516
0000c0 c2 97 4c bf 36 7b a3 3f 14 7f 54 bf 7e ba 4a bf
       -0.79919064 1.2771976 -0.83006406 -0.79190814
0000d0 4c d2 53 bf 30 8d 4b bf 88 4c 9f 3f d8 d7 4a bf
       -0.8274276 -0.7951231 1.244523 -0.792356
0000e0 02 7f 4c bf 6a 0d 48 bf be b3 59 bf 05 8c 9c 3f
       -0.798813 -0.7814547 -0.8503989 1.223023
0000f0 d6 6b 56 bf 22 78 50 bf e2 1e 54 bf 78 c3 4b bf
       -0.83758295 -0.8143331 -0.82859623 -0.79595137
000100 29 63 a3 3f a6 b2 4b bf 80 a9 55 bf 9a aa 59 bf
       1.2764636 -0.7956947 -0.8346176 -0.8502594
000110 86 9e 4a bf a4 d2 a2 3f a3 53 56 bf 17 d6 51 bf
       -0.7914814 1.2720532 -0.8372137 -0.819673
000120 bf fe 4f bf d5 4a 51 bf a4 b9 a4 3f fa 25 53 bf
       -0.81248087 -0.8175481 1.2869153 -0.8247982
000130 ae 69 55 bf 80 ad 55 bf b0 d4 49 bf e9 08 a4 3f
       -0.8336438 -0.83467865 -0.7884016 1.2815219

muA f4 [80, 3]
000000 40 a2 ba 3b 38 f7 81 bd 1e 7f 0e be f0 57 b1 bc
       0.0056956112 -0.06345981 -0.13915679 -0.021648377
000010 34 72 92 bd c6 98 82 3d 70 bf e6 bd 04 16 dd 3d
       -0.07150689 0.063767955 -0.112669826 0.10795215
000020 00 00 b1 3a 34 96 0e 3e 24 bd 5b 3d d0 ff 68 3d
       0.0013504028 0.13924485 0.053647175 0.056884587
000030 60 b9 0d bc c0 f6 bf bc 30 40 8e 3c 40 a5 4c 3c
       -0.008650154 -0.02343309 0.017364591 0.012490571
000040 f0 0d 0d bd 10 49 e4 bd 40 4b a5 bc 06 24 e2 bd
       -0.03443712 -0.11146748 -0.020177484 -0.11042027
000050 90 bf cb 3d 34 90 a0 bd 12 2e f9 3d 00 bb 87 ba
       0.09948647 -0.078400046 0.1216699 -0.0010355413
000060 d4 45 e4 3d 9c 3f 88 3d 38 db 07 3d 70 8e a4 3c
       0.11146131 0.066527575 0.033168048 0.02008745
000070 c0 f5 d7 3b 10 c1 88 bc 80 e4 d1 3b 38 d4 22 bd
       0.006590575 -0.016693622 0.006405413 -0.03975317
000080 30 e0 da bd 08 fb 18 bd 70 21 b7 bd e8 62 b7 3d
       -0.106872916 -0.037348777 -0.089419246 0.08954412
000090 84 d8 e9 bd 3a 83 c7 3d 70 e0 8f 3c a0 da 05 3e
       -0.1141825 0.09741826 0.017563075 0.1307168
0000a0 f0 5a 3f 3d e0 e0 36 3d 00 ec 3d 3a e0 56 0e bc
       0.046717584 0.04464805 0.00072449446 -0.008687705
0000b0 40 15 c1 bb 70 87 82 3c 08 02 1c bd 8c 88 d9 bd
       -0.005892426 0.015933722 -0.038087875 -0.106217474
0000c0 00 66 49 ba ac ee ab bd 46 9d 92 3d c0 71 b9 bd
       -0.00076827407 -0.083951324 0.07158904 -0.09054899
0000d0 3c ef a9 3d e0 70 35 bc da b4 da 3d 40 f3 80 3c
       0.082975835 -0.011074275 0.10679026 0.01574099
0000e0 ac c0 20 3d 80 58 7e 3b 40 27 c9 bb 00 04 de 3a
       0.039246246 0.0038810074 -0.006138712 0.0016938448
0000f0 00 0c 95 39 04 ea 82 bd e0 f2 cf bd d8 82 67 bd
       0.00028428435 -0.06392291 -0.101537466 -0.056521267
000100 4c 3a b0 bd 54 3f 69 3d ac c2 c7 bd 34 35 94 3d
       -0.08604869 0.05694516 -0.097539276 0.0723671
000110 c0 93 8b 3c 90 04 09 3e 58 9d 4d 3d 78 93 33 3d
       0.017038226 0.13380647 0.050198883 0.04384181
000120 e0 bb 7b bc 80 28 64 bc 00 00 ab 38 80 84 7b 3b
       -0.015364617 -0.013925672 8.1539154e-05 0.0038378537
000130 a0 47 58 bd 18 c4 0b be 38 4a 18 bd a2 0c db bd
       -0.052802682 -0.13649023 -0.037180156 -0.10695769
000140 dc 0d b2 3d 42 80 d3 bd 18 f5 d7 3d 00 e3 dd ba
       0.0869405 -0.103271976 0.10544795 -0.0016928613
000150 f3 e5 06 3e f8 68 5f 3d 48 b8 25 3d 00 1f a6 ba
       0.13173656 0.054543465 0.040458947 -0.0012674034
000160 c0 75 90 bb 00 e4 c6 b9 e0 5d 08 3c 40 cb 42 bd
       -0.004408568 -0.00037935376 0.008323163 -0.047557116
000170 90 89 f1 bd f0 48 eb bc 60 4d be bd a6 c3 8a 3d
       -0.11793816 -0.028721303 -0.09292102 0.06775598
000180 20 62 d6 bd 38 2d cc 3d c0 f8 9b bb aa 8c 03 3e
       -0.104679346 0.09969562 -0.004759878 0.12846628
000190 c8 29 45 3d c0 6a 01 3d 00 fc 4d bb 90 9d a0 bc
       0.04813555 0.031595945 -0.0031430721 -0.019606382
0001a0 c0 d7 8a 3b 60 f4 5d 3c 60 25 64 bd ba 02 14 be
       0.004237145 0.013547033 -0.055699706 -0.14454165
0001b0 c0 83 06 bd 0c ea c4 bd d8 f7 c8 3d 7a 76 c8 bd
       -0.03284049 -0.096149534 0.098128974 -0.097882226
0001c0 76 c5 b5 3d 00 c0 96 3a 43 e2 05 3e 48 24 12 3d
       0.08875553 0.0011501312 0.13074593 0.03567913
0001d0 c0 e6 27 3d 00 3f d7 bb 00 83 c8 ba 00 1c cc 3b
       0.040991545 -0.0065687895 -0.001529783 0.006228924
0001e0 40 6c 0f 3c d0 6a 33 bd 48 d7 ef bd b0 d3 2f bd
       0.008753836 -0.043803036 -0.117109835 -0.04292649
0001f0 b8 58 d2 bd c8 3e af 3d ce 3a e9 bd b8 be d7 3d
       -0.10270828 0.085568964 -0.11388169 0.105344236
000200 60 07 1a 3c 16 ef 0d 3e e4 c3 74 3d 50 ff 14 3d
       0.009401172 0.13860735 0.05975713 0.036376297
000210 80 c1 ad bb c0 19 2b bc 40 e4 07 bc 80 fa 2f bb
       -0.005302608 -0.010443151 -0.008294165 -0.002685219
000220 e0 a7 de bc 1a e0 e5 bd c0 ba 45 bd a0 1f d1 bd
       -0.027179658 -0.112243846 -0.0482738 -0.1021111
000230 54 3e af 3d 5c 7c c6 bd 52 bf bd 3d 40 22 6e bc
       0.0855681 -0.096916884 0.09265007 -0.014534533
000240 0b 81 05 3e 7c 95 70 3d 70 50 cf 3c c0 90 05 bc
       0.13037507 0.05873631 0.02530691 -0.008152187
000250 00 a8 32 3a 00 fc af bc 40 4c 00 bc c8 60 75 bd
       0.0006815195 -0.021482468 -0.007830679 -0.05990675
000260 50 93 db bd e0 08 49 bd 02 eb f2 bd 70 4d 89 3d
       -0.10721457 -0.04908073 -0.118612304 0.06704223
000270 54 94 b3 bd 08 c1 a5 3d 80 5c bc bb 9a 69 fe 3d
       -0.08768526 0.080934584 -0.0057483315 0.12422486
000280 c4 22 56 3d 88 13 27 3d 60 8e bd bc 00 5a 44 bc
       0.05227925 0.04079011 -0.023139179 -0.011984348
000290 00 c4 53 bb 50 02 d8 3c 20 7c 50 bd 87 1f 0a be
       -0.003231287 0.02636829 -0.050899625 -0.13488589
0002a0 d0 6b fd bc 60 ae d8 bd dc d2 d5 3d 86 91 d1 bd
       -0.030935198 -0.105801344 0.10440609 -0.102328345
0002b0 f8 e8 f5 3d 10 80 82 3c b0 40 d8 3d 88 db 31 3d
       0.12007326 0.015930206 0.10559213 0.043422252
0002c0 38 ed 17 3d 00 67 ef 3c 80 9c e6 3b 00 4e 64 3c
       0.037091464 0.029223919 0.007037699 0.013934612
0002d0 c0 3a ca 3b 00 04 ed bc 38 ab f7 bd 78 d5 04 bd
       0.0061715543 -0.028932571 -0.12093204 -0.032430142
0002e0 4c a8 d6 bd c8 d5 c1 3d 40 59 c6 bd fc 9a a9 3d
       -0.10481319 0.09464604 -0.09684992 0.08281514
0002f0 60 32 7f bc 99 9e 04 3e 8c a3 23 3d 58 88 03 3d
       -0.015575975 0.12951125 0.039950892 0.03211245
000300 00 5b f1 bb 00 8a 9d ba e0 95 46 bc a0 48 45 3c
       -0.0073655844 -0.0012019277 -0.012120694 0.012041241
000310 78 20 6e bd d0 54 ed bd 08 99 33 bd 6c b9 c3 bd
       -0.058136433 -0.11588442 -0.043847114 -0.09556851
000320 fc 2a 80 3d 40 6e a5 bd 30 ab a7 3d c0 cd 78 3c
       0.062581986 -0.08077669 0.08186948 0.015185773
000330 12 76 02 3e a8 26 74 3d 40 65 eb 3c 70 ef ac bc
       0.12740353 0.059607178 0.028734803 -0.021110266
000340 00 ae d4 3b c0 03 b9 3b 00 8e ec ba 98 bb 8c bd
       0.006490469 0.005646199 -0.001804769 -0.06871718
000350 9c 3f d9 bd 90 7f 90 bc 14 4b e0 bd 18 e8 77 3d
       -0.10607836 -0.017638952 -0.1095182 0.060524076
000360 fa f6 cb bd 50 d4 d4 3d 80 3e 1e 3b 82 20 f6 3d
       -0.099592164 0.10392058 0.002414614 0.12017919
000370 20 b3 0b 3d c8 54 20 3d 00 fa 6e 3a 40 6a 59 bc
       0.034106374 0.039143354 0.00091162324 -0.013269961
000380 c0 c2 cd bb 00 88 19 ba 98 32 7f bd 68 ca e5 bd
       -0.0062793195 -0.00058567524 -0.06230411 -0.112202466
000390 e0 25 eb bc 88 cf c8 bd 12 7d 86 3d ec eb ba bd
       -0.028704584 -0.098052084 0.06566824 -0.0912703
0003a0 92 00 b3 3d 40 ba d3 3b 71 3d 04 3e 98 fe 29 3d
       0.08740343 0.0064614117 0.12914063 0.041502565
0003b0 80 75 44 3d b0 6f 82 bc 80 52 04 bb 80 8b 15 3b
       0.04796362 -0.015922397 -0.0020190775 0.0022818744

quadA f4 [80, 3, 3]
000000 a0 cc dc 3b 80 84 9c 3a 00 66 f7 3a 80 84 9c 3a
       0.0067382604 0.0011941344 0.0018875003 0.0011941344
000010 00 d8 0e 3b 30 12 0a bc 00 66 f7 3a 30 12 0a bc
       0.0021796227 -0.008427188 0.0018875003 -0.008427188
000020 50 1c 12 bc 40 e3 8e 3b 80 61 54 bb 00 54 69 3b
       -0.008917883 0.0043605864 -0.0032406747 0.0035603046
000030 80 61 54 bb 80 f6 5f bb 90 c0 08 3c 00 54 69 3b
       -0.0032406747 -0.0034174025 0.008346692 0.0035603046
000040 90 c0 08 3c 00 40 77 ba 35 ef a4 bb f0 64 4f 3c
       0.008346692 -0.0009431839 -0.0050333985 0.012658343
000050 80 3e e2 3a f0 64 4f 3c aa 2f 4a bb 00 23 62 ba
       0.0017261058 0.012658343 -0.0030851164 -0.0008626431
000060 80 3e e2 3a 00 23 62 ba 86 03 05 3c 00 fd 1b bc
       0.0017261058 -0.0008626431 0.008118516 -0.009520769
000070 e0 46 a7 bb 20 c5 d5 bb e0 46 a7 bb 40 ba ae 3b
       -0.0051048845 -0.0065237433 -0.0051048845 0.0053322613
000080 80 b0 fd ba 20 c5 d5 bb 80 b0 fd ba c0 3f 89 3b
       -0.0019354969 -0.0065237433 -0.0019354969 0.004188508
000090 e9 7b 0c bd 50 9c f3 3c a8 ba 9d bc 50 9c f3 3c
       -0.034297857 0.029737622 -0.019254044 0.029737622
0000a0 ab 16 27 3d ac a9 68 bd a8 ba 9d bc ac a9 68 bd
       0.040793102 -0.056802437 -0.019254044 -0.056802437
0000b0 08 d6 d4 bb b5 d8 a2 3b 00 ad 62 3a 00 6d bb 3a
       -0.006495241 0.004969681 0.0008646995 0.0014299452
0000c0 00 ad 62 3a 2a 84 3e 3b 60 14 a3 bb 00 6d bb 3a
       0.0008646995 0.0029070475 -0.004976794 0.0014299452
0000d0 60 14 a3 bb 66 0d 01 bc cb 96 8f 3b 80 8a ec ba
       -0.004976794 -0.00787673 0.0043819896 -0.0018046647
0000e0 40 4e 2c 3b 80 8a ec ba aa 53 0f bb 40 e5 fc 3b
       0.0026291758 -0.0018046647 -0.0021869936 0.0077177584
0000f0 40 4e 2c 3b 40 e5 fc 3b ea d9 0f bb 80 b2 51 bc
       0.0026291758 0.0077177584 -0.0021949955 -0.012798905
000100 68 9c bb 3c 00 6f 81 ba 68 9c bb 3c 00 91 1e bb
       0.022901729 -0.0009875 0.022901729 -0.0024195313
000110 00 1c e7 3a 00 6f 81 ba 00 1c e7 3a c0 56 79 3c
       0.0017632246 -0.0009875 0.0017632246 0.015218437
000120 7e 9b 04 bd 90 65 82 bc 60 96 3b bc 90 65 82 bc
       -0.03237485 -0.01591757 -0.011449426 -0.01591757
000130 f6 57 71 3c 00 5e 3e bb 60 96 3b bc 00 5e 3e bb
       0.014730444 -0.0029047728 -0.011449426 -0.0029047728
000140 03 8b 90 3c 11 01 0f bd e0 e2 3c bc 60 ad be bb
       0.017644411 -0.034913126 -0.011528701 -0.0058190078
000150 e0 e2 3c bc f6 fa b1 3c 90 68 59 3d 60 ad be bb
       -0.011528701 0.021726113 0.053078234 -0.0058190078
000160 90 68 59 3d 5c 0e 58 3c c0 62 68 3b 00 5e 73 3a
       0.053078234 0.013187017 0.003545925 0.00092837214
000170 00 c8 de 3a 00 5e 73 3a c0 7c 0d 3b 80 b0 5a bb
       0.001699686 0.00092837214 0.002158925 -0.0033369362
000180 00 c8 de 3a 80 b0 5a bb c0 ef ba bb 00 cd 50 3c
       0.001699686 -0.0033369362 -0.00570485 0.012744188
000190 20 f7 ea bb a0 2b c9 3b 20 f7 ea bb 20 d4 50 bc
       -0.007170573 0.0061392337 -0.007170573 -0.012745887
0001a0 58 ac ad 3c a0 2b c9 3b 58 ac ad 3c 00 00 e4 35
       0.021200344 0.0061392337 0.021200344 1.6987324e-06
0001b0 e0 7c 13 bc 1c cb 02 3d 00 2e f1 ba 1c cb 02 3d
       -0.0090019405 0.03193198 -0.001840055 0.03193198
0001c0 80 fa 4e bc 40 4f 46 3b 00 2e f1 ba 40 4f 46 3b
       -0.012632966 0.003025964 -0.001840055 0.003025964
0001d0 b0 3b b1 3c e6 ac 82 bc b0 f0 2c bc e0 42 c2 bb
       0.021634907 -0.015951585 -0.010555431 -0.0059283823
0001e0 b0 f0 2c bc 4a e0 d1 3b 80 ab 0c bb e0 42 c2 bb
       -0.010555431 0.006404911 -0.0021464527 -0.0059283823
0001f0 80 ab 0c bb a5 69 1c 3c 30 c9 96 bc 4c a7 03 bd
       -0.0021464527 0.009546672 -0.01840648 -0.03214197
000200 9c 67 2d bd 4c a7 03 bd 80 fa 7c bb 18 78 54 3d
       -0.042335138 -0.03214197 -0.0038601458 0.051872343
000210 9c 67 2d bd 18 78 54 3d 80 68 b6 3c 8c 1c 0c 3d
       -0.042335138 0.051872343 0.022266626 0.034206912
000220 40 49 04 3b e0 cb 9b 3b 40 49 04 3b 58 f3 b2 3c
       0.0020185262 0.0047545284 0.0020185262 0.021844551
000230 f8 8c 08 bd e0 cb 9b 3b f8 8c 08 bd 38 96 65 bd
       -0.033337563 0.0047545284 -0.033337563 -0.056051463
000240 c0 15 40 3c 68 c7 82 bc 00 8f 56 3c 68 c7 82 bc
       0.011723936 -0.015964225 0.013095617 -0.015964225
000250 a0 17 45 bc b8 01 dc 3c 00 8f 56 3c b8 01 dc 3c
       -0.012029558 0.026856288 0.013095617 0.026856288
000260 00 3c a0 39 60 ac 81 bb 60 4c 4a 3c 00 de a6 3a
       0.00030562282 -0.0039573163 0.012347311 0.0012730956
000270 60 4c 4a 3c 80 63 6f bb 00 e7 04 ba 00 de a6 3a
       0.012347311 -0.0036527812 -0.0005069822 0.0012730956
000280 00 e7 04 ba 20 5e f9 3b cf 0c 13 bd b4 50 29 bd
       -0.0005069822 0.0076100975 -0.035900887 -0.04133673
000290 a8 9c b7 bc b4 50 29 bd 04 3a 10 3c b0 1a 54 bc
       -0.022413567 -0.04133673 0.0088028945 -0.012945816
0002a0 a8 9c b7 bc b0 1a 54 bc 9a fc dd 3c c5 88 39 3c
       -0.022413567 -0.012945816 0.027097989 0.011324112
0002b0 60 66 03 bc 00 4f 71 bc 60 66 03 bc db 87 1d bc
       -0.008020014 -0.014728308 -0.008020014 -0.00961491
0002c0 40 10 d3 3b 00 4f 71 bc 40 10 d3 3b 58 07 e0 ba
       0.006441146 -0.014728308 0.006441146 -0.0017092032
0002d0 3b c7 62 3c 00 6a 92 3a a0 6d 93 3b 00 6a 92 3a
       0.013841446 0.0011170506 0.0044991523 0.0011170506
0002e0 9b 94 24 3c 60 72 28 bc a0 6d 93 3b 60 72 28 bc
       0.010045196 -0.010281175 0.0044991523 -0.010281175
0002f0 ea ad c3 bc ff 78 1b 3d 78 07 a7 bc f0 92 9a 3c
       -0.02388664 0.037957188 -0.020389304 0.018868893
000300 78 07 a7 bc 62 7c d3 bc 94 dc 81 3d f0 92 9a 3c
       -0.020389304 -0.025816146 0.063409 0.018868893
000310 94 dc 81 3d 34 eb 46 bc c0 5e 03 bb 90 da af 3c
       0.063409 -0.012141038 -0.002004549 0.021466523
000320 00 a0 41 b9 90 da af 3c 20 0f 50 bc 80 1e 32 3b
       -0.00018465519 0.021466523 -0.012698919 0.0027178824
000330 00 a0 41 b9 80 1e 32 3b d0 e6 70 3c de 6b 83 bc
       -0.00018465519 0.0027178824 0.0147034675 -0.016042646
000340 20 23 30 bc 50 52 12 bc 20 23 30 bc ea 49 f0 3b
       -0.010750562 -0.008930758 -0.010750562 0.00733303
000350 c0 33 58 bb 50 52 12 bc c0 33 58 bb c5 b2 0e 3c
       -0.003298983 -0.008930758 -0.003298983 0.008709614
000360 c0 ff 04 bc 40 1f 7d bb 80 66 be 3a 40 1f 7d bb
       -0.008117616 -0.0038623363 0.0014526397 -0.0038623363
000370 40 1b 23 bb 10 2f 05 bc 80 66 be 3a 10 2f 05 bc
       -0.0024888068 -0.008128896 0.0014526397 -0.008128896
000380 90 c6 2d 3c 5b ab 7f 3c 00 1b f7 3a 40 f0 86 3b
       0.010606423 0.015604819 0.0018852651 0.0041179955
000390 00 1b f7 3a 2b 0a 1e 3c 08 67 80 bc 40 f0 86 3b
       0.0018852651 0.009645979 -0.01567413 0.0041179955
0003a0 08 67 80 bc c2 da ce bc cb 5f 0c 3c 80 32 b4 bb
       -0.01567413 -0.025250796 0.008567761 -0.005499184
0003b0 80 07 bb 3b 80 32 b4 bb 4a 3d c5 bb f0 42 7a 3c
       0.005707681 -0.005499184 -0.006019269 0.015274748
0003c0 80 07 bb 3b f0 42 7a 3c 94 04 27 bb f6 94 b4 bb
       0.005707681 0.015274748 -0.0025484907 -0.0055109216
0003d0 10 89 aa 3c c0 43 00 3b 10 89 aa 3c 7b 2b 03 bc
       0.02081731 0.0019571632 0.02081731 -0.008005972
0003e0 80 5d 9c ba c0 43 00 3b 80 5d 9c ba f5 75 5d 3c
       -0.0011929721 0.0019571632 -0.0011929721 0.013516893
0003f0 b0 04 61 bc 20 03 1b bc 40 1f e6 bb 20 03 1b bc
       -0.013734028 -0.009461194 -0.0070227683 -0.009461194

hfvrA f4 [80, 1]
000000 d8 cb a2 3f c8 d6 ad 3f dd 5b a0 3f 38 d3 9f 3f
       1.2718458 1.3581171 1.2528034 1.2486334
000010 4c 30 8c 3f 9e 54 ae 3f 57 14 a7 3f e4 5f a1 3f
       1.0952239 1.3619573 1.3053082 1.2607388
000020 a5 6f a7 3f 46 fd 8b 3f f5 5b af 3f 6c 5f a8 3f
       1.3080946 1.0936668 1.3699938 1.315412
000030 57 bd 9e 3f 5b b5 a8 3f a4 e5 8b 3f c1 f2 a9 3f
       1.2401532 1.3180345 1.0929456 1.3277208
000040 e7 4e ad 3f 27 a1 ad 3f 10 2e ab 3f 3c 48 8b 3f
       1.3539704 1.3564805 1.3373432 1.0881419
000050 75 e3 ac 3f e6 de a9 3f 9b 64 ac 3f 79 dd a9 3f
       1.3506914 1.3271148 1.3468202 1.3270713
000060 a3 7c 8b 3f 79 b5 a6 3f f4 e1 a8 3f d3 33 a6 3f
       1.0897411 1.3024131 1.3193955 1.2984565
000070 4f de a7 3f 6c ea 8b 3f 3c f2 a9 3f ec 53 af 3f
       1.3114718 1.0930915 1.3277049 1.3697486
000080 5a b8 a4 3f 90 aa a8 3f ec 9d 8b 3f e2 7e a2 3f
       1.286876 1.3177052 1.0907569 1.2694972
000090 12 fe a8 3f 4b 06 ac 3f 95 21 a7 3f b4 f2 8b 3f
       1.3202536 1.343942 1.3057123 1.0933442
0000a0 00 c8 aa 3f eb 0a a8 3f 4b 69 a1 3f f8 7c a3 3f
       1.3342285 1.3128332 1.2610258 1.2772512
0000b0 1b 1f 8c 3f 37 87 ad 3f 77 05 a9 3f 48 9a a8 3f
       1.0946993 1.3556889 1.3204793 1.3172083
0000c0 20 94 a6 3f 47 bc 8b 3f 71 72 ac 3f 06 98 9e 3f
       1.3013954 1.0916833 1.3472425 1.2390144
0000d0 89 b6 ae 3f 6d d3 ab 3f 38 61 8b 3f 82 e1 a5 3f
       1.3649455 1.3423897 1.0889044 1.2959445
0000e0 12 cf a3 3f 34 53 a0 3f d0 e3 ac 3f 6c 22 8c 3f
       1.2797568 1.2525392 1.3507023 1.0948005
0000f0 b1 98 ab 3f 60 05 a8 3f bf ad ab 3f 63 5a a5 3f
       1.3405973 1.312664 1.3412398 1.2918209
000100 41 c9 8b 3f 32 ea a4 3f 17 c8 ac 3f bc 77 b0 3f
       1.0920793 1.2883971 1.3498563 1.378654
000110 64 00 a5 3f 7b 7b 8b 3f d7 a7 ab 3f 10 8e a8 3f
       1.2890744 1.0897058 1.3410596 1.3168354
000120 36 08 ab 3f da 7b aa 3f 72 93 8b 3f 3b 97 aa 3f
       1.3361881 1.3319046 1.0904372 1.3327402
000130 20 c4 aa 3f ad 39 ae 3f 48 b1 a3 3f 24 9f 8b 3f
       1.3341103 1.3611351 1.2788477 1.0907941

vwA f4 [80, 1]
000000 3f ad cf 3e 44 af d3 3e 47 6a cf 3e 5a 6b cf 3e
       0.40561864 0.41344655 0.4051077 0.4051159
000010 8a 64 16 3f 58 6d d1 3e 81 9f d0 3e 16 36 d0 3e
       0.5874716 0.40903735 0.40746692 0.40666264
000020 e4 fb d0 3e eb 2c 17 3f df 3b d2 3e 0a ff d0 3e
       0.40817177 0.59052914 0.41061303 0.4081958
000030 bd 0d d0 3e f3 e3 d0 3e 42 81 17 3f ad 5b d1 3e
       0.4063548 0.4079891 0.59181607 0.40890256
000040 0d 96 d2 3e f3 8f d2 3e dd a8 d1 3e a8 d8 18 3f
       0.41130105 0.4112545 0.40949145 0.5970559
000050 2c 22 d2 3e 68 3e d1 3e d6 db d1 3e 14 4c d1 3e
       0.41041696 0.40867925 0.40988034 0.40878356
000060 6c 9b 18 3f f6 e3 d0 3e a4 07 d1 3e 9c d1 d0 3e
       0.59612155 0.4079892 0.40826142 0.4078492
000070 1d e5 d0 3e de 94 17 3f 0b 68 d1 3e 69 ad d2 3e
       0.407998 0.5921153 0.4089969 0.41147926
000080 17 c6 d0 3e 74 2d d1 3e 14 2b 18 3f b7 55 d0 3e
       0.4077613 0.4085499 0.5944073 0.40690395
000090 35 f7 d0 3e 55 32 d1 3e 89 c6 d0 3e 1f 78 17 3f
       0.40813604 0.40858713 0.4077647 0.59167665
0000a0 74 f2 d0 3e ce 91 d0 3e ee ed cf 3e fc f7 cf 3e
       0.40809977 0.4073624 0.40611213 0.40618885
0000b0 5e dd 16 3f ef 28 d2 3e 67 1a d1 3e f7 14 d1 3e
       0.5893153 0.41046855 0.40840456 0.40836307
0000c0 cf e6 d0 3e a6 09 18 3f 88 70 d1 3e 42 7b cf 3e
       0.40801093 0.5938972 0.40906167 0.40523726
0000d0 d2 67 d1 3e ba 3e d1 3e d5 c6 17 3f 58 48 d0 3e
       0.4089952 0.4086817 0.5928777 0.40680194
0000e0 2e 14 d0 3e ae b3 cf 3e f8 40 d1 3e ec c2 16 3f
       0.40640396 0.40566772 0.4086988 0.5889118
0000f0 2f 79 d1 3e a2 17 d1 3e e2 6f d1 3e bb d6 d0 3e
       0.40912768 0.40838343 0.40905672 0.40788826
000100 68 17 18 3f 0c 99 d0 3e cf e0 d1 3e 40 13 d3 3e
       0.59410715 0.40741765 0.40991828 0.41225624
000110 cc c4 d0 3e 59 2d 18 3f 67 b3 d1 3e 05 23 d1 3e
       0.40775144 0.59444195 0.40957186 0.4084703
000120 7e 5b d1 3e a0 5e d1 3e 6d 4f 18 3f 25 68 d1 3e
       0.40890115 0.40892506 0.59496194 0.40899768
000130 2a 8b d1 3e 03 42 d2 3e 5d aa d0 3e 6d 45 18 3f
       0.40926486 0.41065988 0.40754977 0.59480935

alpha_0_A f4 [1280]
000000 13 69 a6 40 13 69 a6 40 13 69 a6 40 13 69 a6 40
       5.2003264 5.2003264 5.2003264 5.2003264
000010 00 f8 9b 41 13 69 a6 40 13 69 a6 40 13 69 a6 40
       19.496094 5.2003264 5.2003264 5.2003264
000020 13 69 a6 40 00 f8 9b 41 13 69 a6 40 13 69 a6 40
       5.2003264 19.496094 5.2003264 5.2003264
000030 13 69 a6 40 13 69 a6 40 00 f8 9b 41 13 69 a6 40
       5.2003264 5.2003264 19.496094 5.2003264
000040 13 69 a6 40 13 69 a6 40 13 69 a6 40 00 f8 9b 41
       5.2003264 5.2003264 5.2003264 19.496094
000050 13 69 a6 40 13 69 a6 40 13 69 a6 40 13 69 a6 40
       5.2003264 5.2003264 5.2003264 5.2003264
000060 00 f8 9b 41 13 69 a6 40 13 69 a6 40 13 69 a6 40
       19.496094 5.2003264 5.2003264 5.2003264
000070 13 69 a6 40 00 f8 9b 41 13 69 a6 40 13 69 a6 40
       5.2003264 19.496094 5.2003264 5.2003264
000080 13 69 a6 40 13 69 a6 40 00 f8 9b 41 13 69 a6 40
       5.2003264 5.2003264 19.496094 5.2003264
000090 13 69 a6 40 13 69 a6 40 13 69 a6 40 00 f8 9b 41
       5.2003264 5.2003264 5.2003264 19.496094
0000a0 13 69 a6 40 13 69 a6 40 13 69 a6 40 13 69 a6 40
       5.2003264 5.2003264 5.2003264 5.2003264
0000b0 00 f8 9b 41 13 69 a6 40 13 69 a6 40 13 69 a6 40
       19.496094 5.2003264 5.2003264 5.2003264
0000c0 13 69 a6 40 00 f8 9b 41 13 69 a6 40 13 69 a6 40
       5.2003264 19.496094 5.2003264 5.2003264
0000d0 13 69 a6 40 13 69 a6 40 00 f8 9b 41 13 69 a6 40
       5.2003264 5.2003264 19.496094 5.2003264
0000e0 13 69 a6 40 13 69 a6 40 13 69 a6 40 00 f8 9b 41
       5.2003264 5.2003264 5.2003264 19.496094
0000f0 13 69 a6 40 13 69 a6 40 13 69 a6 40 13 69 a6 40
       5.2003264 5.2003264 5.2003264 5.2003264
000100 00 f8 9b 41 13 69 a6 40 13 69 a6 40 13 69 a6 40
       19.496094 5.2003264 5.2003264 5.2003264
000110 13 69 a6 40 00 f8 9b 41 13 69 a6 40 13 69 a6 40
       5.2003264 19.496094 5.2003264 5.2003264
000120 13 69 a6 40 13 69 a6 40 00 f8 9b 41 13 69 a6 40
       5.2003264 5.2003264 19.496094 5.2003264
000130 13 69 a6 40 13 69 a6 40 13 69 a6 40 00 f8 9b 41
       5.2003264 5.2003264 5.2003264 19.496094
000140 13 69 a6 40 13 69 a6 40 13 69 a6 40 13 69 a6 40
       5.2003264 5.2003264 5.2003264 5.2003264
000150 00 f8 9b 41 13 69 a6 40 13 69 a6 40 13 69 a6 40
       19.496094 5.2003264 5.2003264 5.2003264
000160 13 69 a6 40 00 f8 9b 41 13 69 a6 40 13 69 a6 40
       5.2003264 19.496094 5.2003264 5.2003264
000170 13 69 a6 40 13 69 a6 40 00 f8 9b 41 13 69 a6 40
       5.2003264 5.2003264 19.496094 5.2003264
000180 13 69 a6 40 13 69 a6 40 13 69 a6 40 00 f8 9b 41
       5.2003264 5.2003264 5.2003264 19.496094
000190 13 69 a6 40 13 69 a6 40 13 69 a6 40 13 69 a6 40
       5.2003264 5.2003264 5.2003264 5.2003264
0001a0 00 f8 9b 41 13 69 a6 40 13 69 a6 40 13 69 a6 40
       19.496094 5.2003264 5.2003264 5.2003264
0001b0 13 69 a6 40 00 f8 9b 41 13 69 a6 40 13 69 a6 40
       5.2003264 19.496094 5.2003264 5.2003264
0001c0 13 69 a6 40 13 69 a6 40 00 f8 9b 41 13 69 a6 40
       5.2003264 5.2003264 19.496094 5.2003264
0001d0 13 69 a6 40 13 69 a6 40 13 69 a6 40 00 f8 9b 41
       5.2003264 5.2003264 5.2003264 19.496094
0001e0 13 69 a6 40 13 69 a6 40 13 69 a6 40 13 69 a6 40
       5.2003264 5.2003264 5.2003264 5.2003264
0001f0 00 f8 9b 41 13 69 a6 40 13 69 a6 40 13 69 a6 40
       19.496094 5.2003264 5.2003264 5.2003264
000200 13 69 a6 40 00 f8 9b 41 13 69 a6 40 13 69 a6 40
       5.2003264 19.496094 5.2003264 5.2003264
000210 13 69 a6 40 13 69 a6 40 00 f8 9b 41 13 69 a6 40
       5.2003264 5.2003264 19.496094 5.2003264
000220 13 69 a6 40 13 69 a6 40 13 69 a6 40 00 f8 9b 41
       5.2003264 5.2003264 5.2003264 19.496094
000230 13 69 a6 40 13 69 a6 40 13 69 a6 40 13 69 a6 40
       5.2003264 5.2003264 5.2003264 5.2003264
000240 00 f8 9b 41 13 69 a6 40 13 69 a6 40 13 69 a6 40
       19.496094 5.2003264 5.2003264 5.2003264
000250 13 69 a6 40 00 f8 9b 41 13 69 a6 40 13 69 a6 40
       5.2003264 19.496094 5.2003264 5.2003264
000260 13 69 a6 40 13 69 a6 40 00 f8 9b 41 13 69 a6 40
       5.2003264 5.2003264 19.496094 5.2003264
000270 13 69 a6 40 13 69 a6 40 13 69 a6 40 00 f8 9b 41
       5.2003264 5.2003264 5.2003264 19.496094
000280 13 69 a6 40 13 69 a6 40 13 69 a6 40 13 69 a6 40
       5.2003264 5.2003264 5.2003264 5.2003264
000290 00 f8 9b 41 13 69 a6 40 13 69 a6 40 13 69 a6 40
       19.496094 5.2003264 5.2003264 5.2003264
0002a0 13 69 a6 40 00 f8 9b 41 13 69 a6 40 13 69 a6 40
       5.2003264 19.496094 5.2003264 5.2003264
0002b0 13 69 a6 40 13 69 a6 40 00 f8 9b 41 13 69 a6 40
       5.2003264 5.2003264 19.496094 5.2003264
0002c0 13 69 a6 40 13 69 a6 40 13 69 a6 40 00 f8 9b 41
       5.2003264 5.2003264 5.2003264 19.496094
0002d0 13 69 a6 40 13 69 a6 40 13 69 a6 40 13 69 a6 40
       5.2003264 5.2003264 5.2003264 5.2003264
0002e0 00 f8 9b 41 13 69 a6 40 13 69 a6 40 13 69 a6 40
       19.496094 5.2003264 5.2003264 5.2003264
0002f0 13 69 a6 40 00 f8 9b 41 13 69 a6 40 13 69 a6 40
       5.2003264 19.496094 5.2003264 5.2003264
000300 13 69 a6 40 13 69 a6 40 00 f8 9b 41 13 69 a6 40
       5.2003264 5.2003264 19.496094 5.2003264
000310 13 69 a6 40 13 69 a6 40 13 69 a6 40 00 f8 9b 41
       5.2003264 5.2003264 5.2003264 19.496094
000320 13 69 a6 40 13 69 a6 40 13 69 a6 40 13 69 a6 40
       5.2003264 5.2003264 5.2003264 5.2003264
000330 00 f8 9b 41 13 69 a6 40 13 69 a6 40 13 69 a6 40
       19.496094 5.2003264 5.2003264 5.2003264
000340 13 69 a6 40 00 f8 9b 41 13 69 a6 40 13 69 a6 40
       5.2003264 19.496094 5.2003264 5.2003264
000350 13 69 a6 40 13 69 a6 40 00 f8 9b 41 13 69 a6 40
       5.2003264 5.2003264 19.496094 5.2003264
000360 13 69 a6 40 13 69 a6 40 13 69 a6 40 00 f8 9b 41
       5.2003264 5.2003264 5.2003264 19.496094
000370 13 69 a6 40 13 69 a6 40 13 69 a6 40 13 69 a6 40
       5.2003264 5.2003264 5.2003264 5.2003264
000380 00 f8 9b 41 13 69 a6 40 13 69 a6 40 13 69 a6 40
       19.496094 5.2003264 5.2003264 5.2003264
000390 13 69 a6 40 00 f8 9b 41 13 69 a6 40 13 69 a6 40
       5.2003264 19.496094 5.2003264 5.2003264
0003a0 13 69 a6 40 13 69 a6 40 00 f8 9b 41 13 69 a6 40
       5.2003264 5.2003264 19.496094 5.2003264
0003b0 13 69 a6 40 13 69 a6 40 13 69 a6 40 00 f8 9b 41
       5.2003264 5.2003264 5.2003264 19.496094
0003c0 13 69 a6 40 13 69 a6 40 13 69 a6 40 13 69 a6 40
       5.2003264 5.2003264 5.2003264 5.2003264
0003d0 00 f8 9b 41 13 69 a6 40 13 69 a6 40 13 69 a6 40
       19.496094 5.2003264 5.2003264 5.2003264
0003e0 13 69 a6 40 00 f8 9b 41 13 69 a6 40 13 69 a6 40
       5.2003264 19.496094 5.2003264 5.2003264
0003f0 13 69 a6 40 13 69 a6 40 00 f8 9b 41 13 69 a6 40
       5.2003264 5.2003264 19.496094 5.2003264

hlistA f4 [80, 4, 8]
000000 93 8f e1 3b 0b c4 4b bd df 80 0d 3e 0a 62 07 3e
       0.0068835705 -0.049747508 0.13818692 0.13220993
000010 72 15 5f 3e a3 81 03 bf aa d4 6f be 49 82 27 3e
       0.21785524 -0.51369685 -0.23420969 0.16358294
000020 ae 8b 86 3c 75 00 65 bd ec 41 e9 bc 60 d1 b6 bc
       0.016424026 -0.05590864 -0.028473817 -0.022316635
000030 d0 2c b0 bd fe ca a1 bb 8e 59 0c bd 02 90 47 bd
       -0.08602297 -0.0049375286 -0.034265094 -0.04872132
000040 80 c3 21 3c 14 a5 47 bc 90 49 9a bc ac e0 4b 3d
       0.009873271 -0.012185354 -0.018833905 0.04977481
000050 20 7e e3 3c a6 5b 9e be 4c 3a 7d be 94 0f 16 3e
       0.027770102 -0.30929297 -0.2472927 0.1465438
000060 bd 1f 84 be 19 79 ec be 59 be 07 be 36 14 e4 40
       -0.25805464 -0.4618614 -0.13256206 7.127467
000070 26 16 76 be 5d 9b c5 3e c8 fb 85 be 82 75 9f 41
       -0.24031886 0.38595095 -0.26168656 19.932377
000080 93 8f e1 3b 0b c4 4b bd df 80 0d 3e 0a 62 07 3e
       0.0068835705 -0.049747508 0.13818692 0.13220993
000090 72 15 5f 3e a3 81 03 bf aa d4 6f be 49 82 27 3e
       0.21785524 -0.51369685 -0.23420969 0.16358294
0000a0 38 72 5d 3c 72 12 3e bd 5e 4e 0f bd 34 5b bc 3c
       0.013516001 -0.04640431 -0.034986846 0.022992708
0000b0 60 d5 a7 bd 20 2f c7 bb 65 f6 1a bd 8c 6f 2c bd
       -0.08194995 -0.006078616 -0.037832636 -0.042098567
0000c0 e8 b6 b8 3d 69 ae 13 3e 76 b1 44 3e dc 58 91 3e
       0.090192616 0.14422001 0.19208321 0.28388107
0000d0 98 f8 19 bd 28 dd 9c be a6 16 d8 bd eb 22 58 3d
       -0.037590593 -0.3063748 -0.10551195 0.052767675
0000e0 08 48 13 be 1f 51 81 be dd ed 36 bd 92 0c 6d 40
       -0.14382946 -0.25257203 -0.044660438 3.7038922
0000f0 2f 06 81 bd d9 9f 38 3e 3b 46 e3 bd ab 64 17 41
       -0.063000076 0.18029727 -0.1109738 9.462077
000100 93 8f e1 3b 0b c4 4b bd df 80 0d 3e 0a 62 07 3e
       0.0068835705 -0.049747508 0.13818692 0.13220993
000110 72 15 5f 3e a3 81 03 bf aa d4 6f be 49 82 27 3e
       0.21785524 -0.51369685 -0.23420969 0.16358294
000120 56 01 89 3c 4e c8 66 bd dd e3 e4 bc b8 2c cf bc
       0.01672427 -0.05634337 -0.027940685 -0.025289878
000130 62 1a b0 bd 50 31 9c bb 34 b8 0a bd fe 6d 49 bd
       -0.08598782 -0.0047666207 -0.033867076 -0.049177162
000140 60 b6 81 3b 32 ab 30 bc f0 a0 a3 bc be 21 43 3d
       0.0039585084 -0.010783004 -0.019974202 0.0476396
000150 78 c5 b8 3c bc 8e a0 be 34 da 7a be b2 d4 10 3e
       0.022555098 -0.31358898 -0.244973 0.14143637
000160 46 e3 8b be 59 d7 fa be 60 29 14 be 26 a9 f2 40
       -0.27321833 -0.48992422 -0.14468908 7.583148
000170 85 78 87 be 61 d5 d3 3e f1 6d 90 be 91 b0 aa 41
       -0.26459137 0.41373733 -0.2820888 21.336214
000180 93 8f e1 3b 0b c4 4b bd df 80 0d 3e 0a 62 07 3e
       0.0068835705 -0.049747508 0.13818692 0.13220993
000190 72 15 5f 3e a3 81 03 bf aa d4 6f be 49 82 27 3e
       0.21785524 -0.51369685 -0.23420969 0.16358294
0001a0 20 96 89 3c 05 34 67 bd ab db e3 bc 24 ee d4 bc
       0.016795218 -0.056446094 -0.027814707 -0.02599246
0001b0 06 16 b0 bd 88 de 9a bb 94 55 0a bd f0 de 49 bd
       -0.08597951 -0.004726235 -0.03377302 -0.049284875
0001c0 80 b9 19 3b c6 72 34 bc d0 15 ac bc 92 a4 3f 3d
       0.0023456514 -0.011013692 -0.021006495 0.046787806
0001d0 f0 80 ab 3c 16 15 a2 be 4e dd 7a be 9c 32 0f 3e
       0.020935506 -0.31656712 -0.24498484 0.1398415
0001e0 c0 6d 8c be 3e aa fb be fb 71 14 be 1d a1 f3 40
       -0.27427483 -0.49153322 -0.14496605 7.613417
0001f0 01 df 87 be 39 84 d4 3e 15 e8 90 be 9e 55 ab 41
       -0.26537326 0.41507128 -0.28302065 21.416805
000200 34 e3 22 3e 33 75 43 be 57 a4 89 bc 78 39 37 bd
       0.15906984 -0.19087677 -0.016801996 -0.04473254
000210 6f 1f 03 bd f5 e8 3b be 8b aa aa 3d b2 1c a8 bc
       -0.0320124 -0.18350585 0.0833331 -0.020521495
000220 18 64 df 3e 00 94 4d be 9e a4 aa 3e a6 5c 02 c0
       0.43631053 -0.20075989 0.33328718 -2.0369048
000230 00 a8 69 b8 53 00 c4 3d 56 ee 71 3e 4f 6d 8d bd
       -5.570799e-05 0.09570374 0.23626074 -0.069056146
000240 1c 4b b3 bd 90 f4 17 bf 5c 02 fb 3d eb 4e 3d 3d
       -0.0875456 -0.5935755 0.122563094 0.04621784
000250 22 db 3a be a4 76 cc 3f 17 2d 32 bf 19 05 bd 3e
       -0.18247655 1.5973706 -0.6960005 0.36917952
000260 06 c5 22 c0 26 c1 b2 c0 74 6c 5b c0 37 40 9f 42
       -2.5432754 -5.5860777 -3.4284945 79.62542
000270 ae f6 c7 c0 a4 27 c4 40 c4 44 93 c0 11 01 8a 43
       -6.2488623 6.129839 -4.6021442 276.00833
000280 93 8f e1 3b 0b c4 4b bd df 80 0d 3e 0a 62 07 3e
       0.0068835705 -0.049747508 0.13818692 0.13220993
000290 72 15 5f 3e a3 81 03 bf aa d4 6f be 49 82 27 3e
       0.21785524 -0.51369685 -0.23420969 0.16358294
0002a0 78 e7 64 3c cd ab 50 bd ac ba 07 bd c0 66 f9 3b
       0.013971202 -0.050945092 -0.03313701 0.0076111257
0002b0 3e b3 ae bd 40 e0 cf bb 9a ec 18 bd 44 31 35 bd
       -0.085302815 -0.0063438714 -0.037335016 -0.044236436
0002c0 28 69 76 3d 39 56 8a 3d 90 98 08 bc db b3 26 3e
       0.06015888 0.06754727 -0.008337155 0.16279547
0002d0 e7 e2 b7 3d 2a 94 a0 be 5f da 06 be df 8c b0 3d
       0.08978825 -0.3136304 -0.1316924 0.08620619
0002e0 f0 c6 27 be 0b 40 96 be 43 29 89 bd 2a 4c 8a 40
       -0.16384482 -0.29345736 -0.06697323 4.3217974
0002f0 ff 4f d7 bd 89 06 65 3e 97 c7 12 be 8a 19 38 41
       -0.10513305 0.22365774 -0.1433395 11.506235
000300 93 8f e1 3b 0b c4 4b bd df 80 0d 3e 0a 62 07 3e
       0.0068835705 -0.049747508 0.13818692 0.13220993
000310 72 15 5f 3e a3 81 03 bf aa d4 6f be 49 82 27 3e
       0.21785524 -0.51369685 -0.23420969 0.16358294
000320 c6 68 84 3c 85 74 63 bd 0b 0d ed bc 74 a9 a1 bc
       0.016163241 -0.055531044 -0.028936883 -0.019734122
000330 d2 3c b0 bd 44 a8 a6 bb 10 c4 0d bd d8 f0 45 bd
       -0.086053506 -0.005085977 -0.034610808 -0.04832539
000340 c0 ec d8 3b 30 40 29 bd 60 eb f3 bb 9a cc 46 3d
       0.0066200197 -0.04132098 -0.0074438304 0.048534967
000350 a4 90 54 3d 84 57 98 be 5c ae 5f be 8c 3e 15 3e
       0.051895753 -0.2975427 -0.21843857 0.14574641
000360 ac d7 5c be fb 31 c5 be d8 e0 cf bd df 8d bb 40
       -0.21566647 -0.38514695 -0.101503074 5.8610682
000370 90 43 35 be 38 61 9f 3e f0 12 54 be fd c0 80 41
       -0.17701554 0.3112886 -0.20710349 16.094233
000380 93 8f e1 3b 0b c4 4b bd df 80 0d 3e 0a 62 07 3e
       0.0068835705 -0.049747508 0.13818692 0.13220993
000390 72 15 5f 3e a3 81 03 bf aa d4 6f be 49 82 27 3e
       0.21785524 -0.51369685 -0.23420969 0.16358294
0003a0 8c d3 82 3c 26 4f 62 bd 98 dc ef bc 90 fc 91 bc
       0.015970014 -0.055251263 -0.029279992 -0.017820626
0003b0 ae 48 b0 bd f0 42 aa bb a9 d0 0e bd 3c bd 44 bd
       -0.086076126 -0.005195968 -0.034866963 -0.04803203
0003c0 30 29 0a 3c ce 31 49 bd 08 c8 a3 bc d8 11 7a 3d
       0.008432671 -0.049119763 -0.019992843 0.061052173
0003d0 14 33 03 3d be fa cb be 78 82 7a be 56 f3 09 3e
       0.032031134 -0.3983974 -0.24463832 0.13471732
0003e0 b8 60 8a be 67 70 f9 be 91 50 16 be 56 32 f0 40
       -0.27026916 -0.4871857 -0.14679171 7.5061445
0003f0 d7 b5 88 be d8 7c d3 3e eb 5d 90 be 5f 96 a9 41
       -0.26701233 0.41306186 -0.28196654 21.198423
