tests/test_data_path/og_processed/dimer_ap3_train_spec_7_268.pt (torch, 157202 bytes, 17 tensors)

y f4 [16, 4]
000000 20 5e 11 bf bd a6 08 3c 28 23 89 bd 37 c5 60 be
       -0.5678425 0.008340535 -0.06696159 -0.21950231
000010 af 31 d0 bc af ca b8 3e 6c b3 b3 be 07 ff 49 bf
       -0.025414316 0.36092135 -0.35097826 -0.78904766
000020 58 4a 18 bf bb 18 87 3b 65 ed 23 bd c4 35 64 be
       -0.5948844 0.004122821 -0.04002132 -0.22286135
000030 f7 c6 26 bd 9f 8e 5b 3c b8 df 91 bc b3 5c 72 be
       -0.04071709 0.013400703 -0.017806873 -0.23668174
000040 01 82 b1 c0 dc ea d4 41 67 82 85 c0 d4 4a d6 c0
       -5.5471196 26.614677 -4.1721683 -6.6966343
000050 b8 02 e1 c0 00 9b 80 41 35 e1 dc bf 75 f1 e6 c0
       -7.031582 16.075684 -1.7256228 -7.2169747
000060 dd d2 60 bf 60 c3 e4 3e f8 9c cc be ba 0e 5c bf
       -0.8782175 0.4468031 -0.39963508 -0.8595997
000070 71 c1 25 bf 0e f9 0d 3a c7 20 45 bd 0a dc f0 bd
       -0.64748293 0.0005415835 -0.048126962 -0.11760719
000080 13 8a f5 bd b1 7b 87 3d 99 f5 24 be 29 dd f0 be
       -0.11989226 0.06615389 -0.16109313 -0.47043732
000090 96 b7 9b be 5f 15 20 3a b4 f3 12 bd 3a af ce bd
       -0.30413502 0.00061067 -0.035876945 -0.100920156
0000a0 48 72 34 be a5 e2 67 3c 82 be 39 bd 7e ac bd be
       -0.1762172 0.014153157 -0.045347698 -0.37045664
0000b0 7d 74 bf bf 47 7e 5d 3f 4f 0e df be 3d 78 97 bf
       -1.4957424 0.8652081 -0.43565604 -1.1833569
0000c0 b3 cc 28 bd a5 70 04 3c 32 65 95 bc ce 05 62 be
       -0.04121084 0.008083497 -0.01823673 -0.22072527
0000d0 1a 99 05 bf d8 58 3d 3d 8c 32 28 bd dc 5f e2 be
       -0.5218674 0.046227306 -0.04106383 -0.4421376
0000e0 05 98 23 c0 73 fe 36 40 a3 4b 97 bf 16 ef f6 bf
       -2.5561535 2.8592803 -1.1819957 -1.9291713
0000f0 35 0f 99 c1 e0 5b 30 42 9a f4 15 c1 a7 6a 2e c1
       -19.132425 44.08972 -9.372217 -10.901038

RA f4 [96, 3]
000000 9e 5e 29 be a7 93 6c bf 76 6b 4d 3f 0a 84 fd 3d
       -0.1654 -0.924128 0.802421 0.123787
000010 fb 3c ae 3e a2 f1 d4 be fe f2 97 bf 9d bc 50 bf
       0.340309 -0.415906 -1.187103 -0.815378
000020 99 d9 a1 3f 91 26 0e 3f 71 cc 72 bf c4 d1 c9 3f
       1.264453 0.555276 -0.948432 1.576714
000030 0f ef 39 3d 2b 30 c2 3f e5 47 f4 3e dc 82 45 be
       0.045394 1.517095 0.477111 -0.192882
000040 ad 89 f3 bf 73 9f 6c 3e b9 fa 61 be 81 07 6e bf
       -1.902639 0.231077 -0.220683 -0.929802
000050 6e 6d 4d 3f 24 28 de 3d 3a 94 e9 3e ff 7a b5 be
       0.802451 0.108475 0.456209 -0.354454
000060 17 9a 97 bf 34 2b 4f bf e0 a1 a4 3f da e2 0e 3f
       -1.18439 -0.809253 1.28619 0.558149
000070 90 4e 7d bf a0 54 cf 3f c8 42 34 3d 16 df ba 3f
       -0.98948 1.61977 0.044009 1.459933
000080 be c1 d7 3e 57 3d 10 be 15 fd ef bf 13 f1 66 3e
       0.4214 -0.140859 -1.874911 0.225529
000090 a9 6a 12 be ff ce 5e bf cf f9 55 3f a4 a6 bd 3d
       -0.142985 -0.870346 0.835843 0.092603
0000a0 6e 4d da 3e 7a 34 ad be 29 5b a2 bf 32 e4 58 bf
       0.426372 -0.338291 -1.268407 -0.847232
0000b0 3c 13 9e 3f 04 00 13 3f 9d 84 72 bf 56 7e cb 3f
       1.234962 0.574219 -0.947336 1.589793
0000c0 e8 db 02 bd 87 a3 b7 3f 55 de fe 3e f3 3d 43 be
       -0.031948 1.434678 0.49779 -0.190666
0000d0 bf 0f ef bf ef 1e 70 3e 33 1a 39 be e7 56 5c bf
       -1.867668 0.234493 -0.180764 -0.860701
0000e0 47 c7 51 3f 5b b4 00 3e 7b 82 bc 3e 8e 06 e8 be
       0.819447 0.125688 0.368183 -0.453175
0000f0 83 68 a3 bf e3 fb 56 bf cc 27 9f 3f 1a bf 0c 3f
       -1.276627 -0.839781 1.243402 0.549791
000100 7d e8 6a bf 3b df c3 3f 9e 97 0a bc 80 44 b3 3f
       -0.91761 1.53025 -0.008459 1.400528
000110 78 61 eb 3e cc 45 1c be 35 7c ed bf 0d 39 56 3e
       0.459728 -0.15261 -1.855353 0.209202
000120 b3 d1 89 be 8b df 64 bf cc 42 5f 3f 2d 3f b0 3d
       -0.269178 -0.894036 0.872113 0.086058
000130 2a 74 c6 3e 21 c9 e4 be 3d 82 9f bf 22 6c 54 bf
       0.387605 -0.446847 -1.246162 -0.829775
000140 ad 17 a5 3f 34 a2 18 3f aa ba 6f bf 85 08 ca 3f
       1.289785 0.596225 -0.936442 1.578385
000150 c9 1c 4b bc ae f1 b1 3f b4 aa fd 3e 8f ff e2 bd
       -0.012397 1.390188 0.495443 -0.110839
000160 89 60 ec bf f8 4f 47 3e 3d 49 7a be 79 92 68 bf
       -1.846696 0.194641 -0.24442 -0.908485
000170 9d f4 56 3f 64 3c 8a 3d 65 18 cf 3e 16 6b d8 be
       0.83967 0.067498 0.404483 -0.422692
000180 07 62 99 bf 79 1f 4b bf 17 9c a5 3f 94 32 1d 3f
       -1.198304 -0.793449 1.293826 0.614053
000190 c5 70 69 bf 01 fb c0 3f 97 a8 5e 3c 1c 26 c2 3f
       -0.911877 1.50766 0.01359 1.516788
0001a0 43 1e d1 3e ad 31 48 be 37 1c ea bf e8 67 4a 3e
       0.408434 -0.195502 -1.828986 0.197662
0001b0 e7 8d 43 be ad dc 5f bf b0 c6 59 3f 44 fa cd 3d
       -0.190971 -0.874461 0.850688 0.100575
0001c0 c3 d7 cf 3e c3 b7 d8 be c9 39 99 bf fb 58 51 bf
       0.405943 -0.423277 -1.197076 -0.817764
0001d0 db a4 a2 3f fe ef 10 3f 6b f0 5e bf 09 c2 c5 3f
       1.270656 0.566162 -0.870856 1.544984
0001e0 38 4b c9 3b ea 20 b9 3f 6a 4e ee 3e b8 01 5f be
       0.006143 1.446317 0.465442 -0.21778
0001f0 b2 d9 e7 bf b2 46 95 3e ca 87 40 be a0 a8 6c bf
       -1.811331 0.291555 -0.188018 -0.924448
000200 65 39 41 3f 53 58 a9 3d da e1 df 3e ea 03 d1 be
       0.754782 0.082688 0.43727 -0.408233
000210 db 18 93 bf 80 9c 48 bf bd 8c 98 3f 86 ff 10 3f
       -1.149196 -0.783638 1.191795 0.566399
000220 7f da 68 bf 02 bc cb 3f 36 e7 60 3c eb e6 ba 3f
       -0.909584 1.591675 0.013727 1.460172
000230 c2 33 e9 3e ad c0 30 be 04 00 ed bf 29 e9 71 3e
       0.455473 -0.17261 -1.851563 0.236241
000240 4d 4a 71 be f7 5b 67 bf 11 e4 44 3f 77 82 fd 3d
       -0.235635 -0.903747 0.769105 0.123784
000250 91 ed f4 3e 1d 01 e4 be 6f 9f 9b bf 1f bd 65 bf
       0.478375 -0.445321 -1.215803 -0.897417
000260 96 ed a1 3f 41 7d 23 3f 5c 39 63 bf 98 8a c9 3f
       1.265063 0.63863 -0.887594 1.574542
000270 e2 1f 36 3c ea 96 b9 3f da 8e e9 3e 32 3d 11 be
       0.011116 1.449918 0.456168 -0.141835
000280 2b 6e ee bf e0 f5 89 3e 8f 00 1e be 78 7f 5c bf
       -1.862737 0.269454 -0.154299 -0.86132
000290 6c 93 5a 3f e9 10 b8 3d 8b 6e ed 3e e4 30 d8 be
       0.853812 0.089876 0.463734 -0.422248
0002a0 05 87 91 bf 4a 7a 54 bf c3 9e a4 3f da 39 25 3f
       -1.136933 -0.829991 1.286095 0.645414
0002b0 bc b3 66 bf 0d c4 cc 3f 9c 4f 1d bd 51 d9 be 3f
       -0.90118 1.599733 -0.038406 1.491007
0002c0 2e 73 02 3f d5 96 1a be 90 15 ee bf a1 bf 80 3e
       0.50957 -0.150966 -1.860033 0.251462
0002d0 bb 28 3a be 09 a4 68 bf ce 16 48 3f 70 d1 c9 3d
       -0.181796 -0.908753 0.781598 0.098544
0002e0 b5 6d b8 3e a7 08 c0 be 13 0d 9a bf a4 fa 52 bf
       0.360212 -0.375066 -1.203524 -0.824137
0002f0 ca c3 a2 3f bd 38 11 3f 8c a0 6d bf 5f 7f ca 3f
       1.2716 0.567272 -0.928231 1.582012
000300 76 8d 16 3c f0 33 ba 3f c4 97 e9 3e 26 70 6b be
       0.009189 1.45471 0.456236 -0.22992
000310 1e 16 ea bf fa ee 76 3e b2 68 4a be 25 22 70 bf
       -1.8288 0.241146 -0.197665 -0.938021
000320 f2 40 50 3f 9e 61 aa 3d bb 48 d9 3e 0b 60 da be
       0.813491 0.083194 0.424383 -0.426514
000330 f5 a0 9c bf 81 0a 53 bf 68 1f a7 3f 64 73 11 3f
       -1.223662 -0.824379 1.305646 0.568167
000340 0d e1 6c bf 2e 73 ca 3f 2f de 0f bc e7 a7 b4 3f
       -0.925309 1.58164 -0.008781 1.411374
000350 f1 d4 eb 3e d4 44 3f be 23 2d e9 bf 06 9e 93 3e
       0.460609 -0.186786 -1.82169 0.288315
000360 52 5f 56 be 39 d0 6b bf 8c 31 50 3f fd 4e 93 3d
       -0.209348 -0.921146 0.813256 0.071928
000370 f5 b9 da 3e fb 94 b3 be 71 54 9a bf 7c 2c 55 bf
       0.4272 -0.350746 -1.205702 -0.83271
000380 b7 24 a3 3f 48 8a 0c 3f 65 e1 83 bf 05 bf cd 3f
       1.274558 0.548985 -1.030316 1.607392
000390 6e 14 59 bd 42 7c bc 3f c3 0e fb 3e 1b 85 14 be
       -0.052998 1.472542 0.490347 -0.145039
0003a0 47 c6 ec bf 33 fc 67 3e f3 1f 8a be 0f b8 62 bf
       -1.849801 0.226548 -0.269775 -0.885621
0003b0 62 66 3f 3f d9 b0 c6 3d 35 27 d7 3e e2 ac d8 be
       0.747656 0.097017 0.420221 -0.423194
0003c0 ba 65 91 bf cf 4e 5e bf e8 dd a6 3f 32 91 12 3f
       -1.135917 -0.86839 1.303647 0.572528
0003d0 05 df 70 bf cf 87 cb 3f 4a b8 90 bc 62 2c bb 3f
       -0.940903 1.590082 -0.017666 1.462292
0003e0 53 21 ee 3e f2 24 19 be b7 d0 ef bf 04 ae 6b 3e
       0.465098 -0.149555 -1.873557 0.230156
0003f0 27 c2 46 be 21 21 6a bf b7 44 56 3f 55 88 27 3e
       -0.1941 -0.914568 0.836986 0.163606

RB f4 [192, 3]
000000 a1 4a ad 3e d2 0f c9 40 40 85 a2 40 7f 32 c6 bc
       0.33846 6.283181 5.078766 -0.024194
000010 06 46 a3 40 4a 29 8f 40 37 de a5 bf 24 6f 99 40
       5.102298 4.47379 -1.295844 4.794817
000020 e2 5c 7d 40 62 4d 0e c0 38 2d ba 40 42 40 85 40
       3.958794 -2.223473 5.81802 4.164094
000030 9f e7 f3 bf fd a2 e0 40 fc 1b 99 40 27 2f 26 bf
       -1.905506 7.019896 4.784666 -0.649157
000040 3d 52 e8 40 de b8 a7 40 13 2b cb be f4 96 03 41
       7.260039 5.241317 -0.396813 8.224354
000050 de 49 b7 40 41 45 b9 bf ec be 72 40 e9 ed 5a 40
       5.727767 -1.447426 3.792903 3.420771
000060 a4 88 31 c0 96 db f8 40 92 11 9d 40 89 d1 51 c0
       -2.773965 7.776805 4.908395 -3.278414
000070 6a 30 b4 40 6b 9e 71 40 20 d5 aa 3f bb 1c cd 40
       5.63091 3.775294 1.334629 6.409757
000080 ad 95 ad 40 b5 1b 2d 3f 3f 82 8d 40 77 10 89 40
       5.424521 0.676204 4.422149 4.28326
000090 b2 aa 90 40 85 24 5c 40 33 6a 6c c0 2e 8f 6a 40
       4.520837 3.439729 -3.693982 3.664989
0000a0 84 9c 3f 40 aa 44 2c c0 ef 70 79 40 b1 6a 5e 40
       2.993928 -2.691691 3.897518 3.475262
0000b0 46 7c b5 bf 73 20 9f 40 a0 43 8b 40 b9 df 97 bf
       -1.417855 4.972711 4.352005 -1.186515
0000c0 b8 4c b8 40 74 08 97 40 26 e4 0d c0 cf 5a b3 40
       5.759365 4.719782 -2.21705 5.604835
0000d0 c2 24 87 40 b7 46 64 c0 ed b9 c6 40 64 4e 91 40
       4.223237 -3.566816 6.210196 4.540819
0000e0 7f 6c 8b c0 e1 99 47 40 6f f1 41 40 63 f0 e8 be
       -4.356994 3.118767 3.030361 -0.454959
0000f0 39 8d d4 40 6d 0f ad 40 71 56 fc bf f1 9e a2 40
       6.642239 5.408133 -1.971388 5.081902
000100 8b ce 95 40 76 6d 1f be a3 cd 89 40 35 62 3f 40
       4.681463 -0.155691 4.306352 2.990369
000110 5c f6 97 c0 9e 61 37 40 bc 76 1e 40 15 e5 3b c0
       -4.748823 2.865333 2.475997 -2.935857
000120 cb f7 b1 c0 06 a1 5a 40 2f 4e 40 bf 30 e8 96 c0
       -5.561498 3.416078 -0.751193 -4.715843
000130 cc 7b 5a 40 eb ab bb 3e 0a a2 89 c0 6f f3 8f 40
       3.413806 0.366546 -4.30103 4.498466
000140 d9 ea 92 3f 21 04 98 c0 6d f0 b8 40 18 ea 28 3f
       1.147792 -4.750504 5.779349 0.659822
000150 0f 36 b3 c0 6d 8c bb 40 84 0f cd be f2 89 c2 c0
       -5.600349 5.860892 -0.400509 -6.079339
000160 22 aa 97 40 9f ab 97 bf f1 b7 d6 c0 31 51 98 40
       4.739518 -1.184925 -6.709954 4.759911
000170 36 1f 02 c0 13 0c 60 c0 a6 64 8a 40 be f6 07 40
       -2.033155 -3.500737 4.324786 2.124435
000180 06 e7 bd c0 03 c1 db 40 e4 d6 38 bf 46 c5 8c c0
       -5.934451 6.867311 -0.722029 -4.399081
000190 52 0f d6 40 3b 35 9f 3f 93 e3 b8 c0 f7 72 25 40
       6.68937 1.243812 -5.77778 2.585142
0001a0 a2 7e a1 bf 92 6c 8c c0 97 03 23 40 01 db 29 3f
       -1.261677 -4.388253 2.547094 0.663498
0001b0 c9 f7 a1 40 70 b0 09 40 1c b2 2d 40 13 44 b8 40
       5.061497 2.151394 2.713996 5.75831
0001c0 a3 58 46 40 d8 f1 56 40 75 56 d7 40 2b 68 7f 40
       3.09916 3.358511 6.729304 3.990733
0001d0 cd 20 39 40 87 43 dd 40 8a e7 71 40 33 89 b0 3f
       2.892627 6.914493 3.779757 1.379187
0001e0 b9 9a c4 40 ad 6c 36 40 75 92 21 3f 9c 17 a6 40
       6.143887 2.850383 0.631141 5.190382
0001f0 d9 5b 04 40 df e2 a9 3f f1 72 92 40 05 86 ae 3f
       2.068106 1.327236 4.576531 1.363465
000200 c4 08 3d 3f a9 cb eb 40 dd ee 96 40 13 d5 62 40
       0.738415 7.368611 4.716658 3.544255
000210 5f 24 ca 40 ec 34 32 40 8e 5a d1 be ae b7 f5 40
       6.31694 2.78448 -0.408894 7.678672
000220 63 09 8e 40 e5 b9 6e 3f 16 f6 88 40 87 89 d4 3f
       4.438646 0.932524 4.28004 1.660447
000230 4c 6e 4c 40 80 a9 b3 40 ad fc 4a 40 1e 40 8d 40
       3.194232 5.614441 3.171672 4.414077
000240 4b 05 5b c0 fb 2f 8a c0 8f c3 5d 40 8d 44 68 c0
       -3.422198 -4.318357 3.465061 -3.629184
000250 81 77 42 c0 40 6a 7b 40 3d 64 56 c0 7d 97 f2 bf
       -3.038544 3.92836 -3.349868 -1.895248
000260 61 50 4e 40 4a 95 33 c0 70 43 0d c0 e4 9f e9 3f
       3.223656 -2.805987 -2.207241 1.825192
000270 f5 64 23 c0 78 5e 5b c0 2a ff b6 3f d2 37 37 c0
       -2.553037 -3.427641 1.429662 -2.862782
000280 8e 06 92 c0 fd a2 11 40 80 45 2c c0 de 73 b0 c0
       -4.5633 2.275573 -2.691742 -5.514144
000290 92 97 eb 3f d5 42 66 c0 9d f6 48 bf a5 d9 68 40
       1.840563 -3.597829 -0.785013 3.638284
0002a0 9d f4 07 c0 9d f4 67 c0 10 e8 e4 3e ae f5 1e c0
       -2.124305 -3.624305 0.447083 -2.483745
0002b0 51 68 a5 bf 33 de a4 3f 74 46 6a c0 0e 68 a4 c0
       -1.292246 1.288031 -3.66055 -5.137702
0002c0 49 4c 88 40 ba 6a 7d c0 6f 0e 33 c0 5e 00 9c 40
       4.259312 -3.959639 -2.797756 4.875045
0002d0 ae 2b 08 40 d2 6d 0b 40 10 ca 05 c0 8d 08 80 3f
       2.127666 2.178578 -2.090458 1.000261
0002e0 97 36 da 3f 5a 0e 32 c0 dd 08 8b bd 18 43 19 40
       1.704791 -2.782126 -0.067888 2.39472
0002f0 0e 10 4d c0 14 ea a9 bd 19 e4 78 40 b9 70 33 c0
       -3.204105 -0.082966 3.888922 -2.803755
000300 aa 0d 80 3f 27 85 88 40 1d 20 03 c0 4b 76 08 40
       1.000417 4.266254 -2.048835 2.13222
000310 4d 10 5d 40 39 80 d8 bf 9c f8 3b 40 20 97 72 40
       3.45412 -1.691413 2.937049 3.790474
000320 ca c3 94 bf 75 05 89 bf a3 73 fa 3f 03 42 71 c0
       -1.162225 -1.070479 1.956654 -3.769654
000330 f1 d6 87 3f 81 43 aa 40 51 85 df bf 9d a0 69 bf
       1.061247 5.32074 -1.746256 -0.912607
000340 33 a5 8e 40 71 91 3c c0 c6 4f 36 40 6b 46 b6 3f
       4.457666 -2.946377 2.848619 1.424024
000350 0f 46 f0 bf 9e 42 6a 3f e8 d9 28 3f a2 7a 43 c0
       -1.877138 0.915079 0.659575 -3.05436
000360 6b 11 87 bf 49 06 e4 40 14 5b 22 40 cd 23 63 bf
       -1.055219 7.125767 2.536809 -0.887265
000370 a2 9a bc 40 92 3e 06 40 fe 28 92 be 69 d3 ae 40
       5.893876 2.097569 -0.285469 5.463307
000380 bf 9b 62 3f d6 c8 9e 3e 5f 51 d3 40 ee ce 2a 3e
       0.885189 0.310126 6.603683 0.166805
000390 5f 7a 6b 3e cb 1e fc 40 5f 41 22 3f 60 cb eb be
       0.229959 7.878759 0.63381 -0.460536
0003a0 34 bf 02 41 3e b1 ec 3f 2c 4a 09 bf 89 bb 12 41
       8.17168 1.849159 -0.536288 9.170785
0003b0 81 98 12 40 66 f4 83 be 74 8c 88 40 83 16 0a 3f
       2.290558 -0.257724 4.267145 0.539406
0003c0 a7 eb 31 3f 49 0a 0b 41 d1 74 b6 3d 38 4d 63 3f
       0.695002 8.690011 0.08909 0.887897
0003d0 7c 9a cb 40 b7 b8 36 bf e6 92 ce bf 0c cc e7 40
       6.362608 -0.713756 -1.613858 7.243658
0003e0 93 36 5e 40 e2 58 b3 bf b3 29 a2 40 f1 46 25 40
       3.472081 -1.40115 5.06759 2.582455
0003f0 77 69 a3 bd 68 09 f0 3f 54 71 13 41 49 d6 a1 3d
       -0.079791 1.875287 9.215168 0.079022

qA f4 [96, 1]
000000 7b 17 f0 be c2 89 23 be a2 d6 1c 3e 8a d6 32 3e
       -0.46892914 -0.15970519 0.15316251 0.17464653
000010 88 d3 0d 3e 0e 38 26 3e 94 e7 de be c4 89 92 be
       0.13850224 0.1623232 -0.43536055 -0.28620732
000020 e0 67 38 3e 40 14 2d 3e 34 74 3d 3e 46 f2 3f 3e
       0.18008375 0.16902256 0.18501359 0.18744764
000030 3c dc e2 be ce 75 81 be 42 52 11 3e 56 48 4b 3e
       -0.4430865 -0.2528519 0.14191535 0.19851813
000040 8c 9c 39 3e ea 6c 32 3e 22 fb e6 be a8 a9 65 be
       0.18126124 0.1742436 -0.45113474 -0.22428
000050 6e be 23 3e 42 6d 4a 3e d4 0c 24 3e 4e 67 21 3e
       0.15990612 0.19768241 0.16020519 0.15762064
000060 e2 4a f4 be e4 bb 7f be 94 fa 53 3e 34 b5 3b 3e
       -0.4771338 -0.24974018 0.20701057 0.18330842
000070 e0 0d 28 3e ec 93 30 3e 20 59 e7 be 32 9d 82 be
       0.16411543 0.17243928 -0.45185184 -0.25510556
000080 7c 23 40 3e 5e 81 34 3e 04 46 2d 3e d0 01 32 3e
       0.18763536 0.17627475 0.1692124 0.17383504
000090 22 22 db be 2c d8 7a be 36 2b 22 3e 3c 11 38 3e
       -0.4279948 -0.24496526 0.15836796 0.17975324
0000a0 e0 a4 2f 3e 34 3b 27 3e d4 f1 d8 be c0 9b 86 be
       0.17152739 0.16331178 -0.42372 -0.26290703
0000b0 48 a4 28 3e 7c 7b 21 3e a6 a9 35 3e c6 51 3f 3e
       0.16468918 0.15769762 0.17740497 0.18683538
0000c0 12 e5 e4 be 82 e1 8c be 28 94 3d 3e 32 f5 21 3e
       -0.44706017 -0.275158 0.18513548 0.15816191
0000d0 ce 72 3e 3e 00 91 45 3e 12 bf e7 be aa 03 81 be
       0.18598482 0.19293594 -0.45262963 -0.25198108
0000e0 42 04 39 3e 32 4d 38 3e 56 5f 32 3e aa d4 2d 3e
       0.1806803 0.17998198 0.1741918 0.16975656
0000f0 ba ef de be f4 1c 58 be 96 a2 16 3e 5c f2 23 3e
       -0.43542272 -0.21104795 0.14710459 0.16010422
000100 46 4e 2a 3e 3a 19 31 3e d2 45 dd be 60 cd 8e be
       0.16631421 0.1729478 -0.4321733 -0.27891064
000110 32 5f 23 3e cc e5 2f 3e 46 d6 39 3e 18 0b 4b 3e
       0.15954283 0.17177504 0.18148145 0.1982845
000120 a0 83 dd be 24 d9 84 be a8 b0 2a 3e fa 4e 2d 3e
       -0.43264484 -0.25946915 0.16668952 0.16924658
000130 04 ca 39 3e e6 ef 32 3e 9c 76 db be b0 04 77 be
       0.18143469 0.17474326 -0.4286393 -0.24122882
000140 90 15 39 3e 52 7d 10 3e ec 9d 36 3e 18 c1 2d 3e
       0.18074632 0.14110306 0.1783368 0.1696819
000150 94 cb e5 be b0 86 68 be 88 f0 27 3e 5a a0 36 3e
       -0.4488188 -0.22707629 0.16400349 0.17834607
000160 5c 64 2c 3e 90 28 29 3e 15 e0 da be 06 22 45 be
       0.16835159 0.1651938 -0.42749086 -0.1925126
000170 bc 62 05 3e 86 94 1d 3e 16 48 25 3e d4 a2 32 3e
       0.13025945 0.15388688 0.1614078 0.17444927

muA f4 [96, 3]
000000 50 55 ba 3c 6c 1d 40 3d e8 ef 2d bd 00 7e 0a 3b
       0.022745758 0.04690306 -0.04246512 0.002113223
000010 12 d7 2d be f0 51 8b bd 60 3e 3a bd e0 f7 5e 3c
       -0.16976574 -0.06802738 -0.04546964 0.013608903
000020 e0 d7 71 3c f8 4a 14 3d 40 e6 d0 3b 80 42 ff 3c
       0.014760941 0.03620431 0.006375104 0.03115964
000030 80 e0 69 bb 0c d4 82 3d 38 62 4a 3d 00 98 35 3a
       -0.003568679 0.06388101 0.049410075 0.0006927252
000040 10 fe 0e bd 28 8e 13 bd 40 f8 18 3c 54 d5 6f 3d
       -0.03491026 -0.036024243 0.009336531 0.058553055
000050 10 95 61 bd 00 aa 7f 3b a0 7c fe bd c4 3d 9b bd
       -0.055073798 0.003901124 -0.12426114 -0.0758014
000060 b8 76 37 bd a0 43 8b 3c 20 5f 88 3c 20 a4 29 3d
       -0.044790953 0.01700002 0.016646922 0.041416287
000070 00 04 fc 3b 10 8d 06 3d 00 9e 36 bb 58 87 78 3d
       0.0076909065 0.03284937 -0.0027865171 0.06067595
000080 14 78 38 3d 40 b2 e2 3b a0 46 10 bd 70 2a 0f bd
       0.04503639 0.0069182217 -0.035223603 -0.03495258
000090 08 8b 18 3d 04 75 9e 3d 70 18 42 bd 40 09 4a 3c
       0.037241966 0.07737163 -0.047386587 0.012331307
0000a0 44 0d 10 be 58 5a 9e bd 60 74 4c bd 00 69 47 3c
       -0.1406756 -0.077320755 -0.04991567 0.01217103
0000b0 c0 bc df 3b 30 a7 16 3d c0 18 aa 3b f0 32 e6 3c
       0.0068279207 0.036780536 0.0051909387 0.02810046
0000c0 40 fe d9 bb 84 70 60 3d 58 08 4d 3d 00 3b c2 ba
       -0.0066526234 0.054794803 0.050056785 -0.0014818609
0000d0 88 d7 08 bd e8 67 1b bd 90 c5 c0 3c 90 25 9b 3d
       -0.03340867 -0.03794089 0.023531705 0.07575524
0000e0 d8 fa 32 bd 20 84 34 3c d0 be 12 be 48 0d b8 bd
       -0.043696254 0.011017829 -0.14330602 -0.08986908
0000f0 38 2b 51 bd a0 ab 11 3c e0 ed 4d 3c d8 ff 19 3d
       -0.051066607 0.008891016 0.012568921 0.037597507
000100 00 8d 4d 3b 20 aa d2 3c 00 71 ee bb b8 09 55 3d
       0.003136456 0.025715888 -0.0072766542 0.05201122
000110 20 db 54 3d 80 1d 8f 3b d8 4b 05 bd 38 6a 1d bd
       0.051966786 0.0043675303 -0.032543033 -0.038431376
000120 40 dd b4 bb 4c af 8e 3d 98 e5 10 bd 70 f9 89 3c
       -0.005519539 0.06967029 -0.035375208 0.016842574
000130 48 aa ef bd 70 18 fe bd 38 37 3e bd 80 66 2f 3c
       -0.117024004 -0.12407005 -0.04643938 0.01070559
000140 20 0c 5f 3c 68 48 31 3d 40 d5 c7 3b e0 15 c6 3c
       0.013613731 0.043281943 0.0060984194 0.024180353
000150 c0 fb b0 bb 8c 50 57 3d 64 3a 59 3d 80 9f 29 3c
       -0.0054011047 0.05256705 0.0530342 0.010352969
000160 40 7d e9 bc 08 04 21 bd 00 e7 1b 3b 48 66 49 3d
       -0.028502107 -0.039310485 0.002378881 0.04916981
000170 c0 e3 11 bd 00 b0 6c 3b 88 24 14 be f8 cf bd bd
       -0.03561759 0.0036115646 -0.1446706 -0.092681825
000180 88 b8 3b bd a0 0c 55 3c e0 f1 79 3c e0 26 3d 3d
       -0.04583028 0.013003498 0.015255421 0.046179652
000190 00 07 14 3c 80 a1 bf 3c 00 ff 1b bb d4 2d 80 3d
       0.009034872 0.023392439 -0.0023803115 0.06258741
0001a0 d4 30 3b 3d c0 68 cd 3b 88 1c 06 bd a8 a5 28 bd
       0.045700863 0.0062685907 -0.032742053 -0.041173607
0001b0 a0 58 81 3c 50 02 61 3d 40 09 35 bd 60 7c 1c 3c
       0.01578933 0.054933846 -0.044198275 0.009551138
0001c0 b9 45 0a be f0 a5 cf bd 18 40 46 bd e0 e6 14 3c
       -0.1350316 -0.10139072 -0.04840097 0.009088248
0001d0 a0 0c 42 3c 08 23 21 3d 40 26 fb 3b 20 60 ca 3c
       0.01184383 0.03934005 0.007664472 0.02470404
0001e0 80 ed c6 bb 18 96 60 3d a0 2b 4f 3d 00 b2 37 3a
       -0.0060707927 0.05483064 0.050578713 0.000700742
0001f0 20 ac 05 bd 08 42 0b bd d0 73 89 3c c4 28 41 3d
       -0.032634854 -0.03399852 0.016778857 0.047158018
000200 a8 25 75 bd 80 22 1c 3c 1d 50 0f be b4 b7 c0 bd
       -0.059850365 0.00952971 -0.13995405 -0.094100386
000210 80 f3 2f bd 40 19 8f 3c 60 dd 1c 3c b0 3f 27 3d
       -0.04295683 0.017468095 0.009574264 0.04083222
000220 e0 9d 43 3c 3c 4b 14 3d 80 67 59 bb 50 f2 6c 3d
       0.011939496 0.03620456 -0.0033173263 0.057848275
000230 08 ba 4d 3d 00 eb d7 3a b0 39 12 bd 88 ce 0a bd
       0.05022624 0.0016473234 -0.035699546 -0.03388837
000240 80 28 2d bb 20 c9 88 3d f8 7b 8f bd 60 2f 29 3c
       -0.0026421845 0.066789865 -0.07006067 0.0103262365
000250 86 f3 07 be fc a1 e1 bd 40 10 47 bd 80 fd 90 3b
       -0.1327649 -0.11017224 -0.04859948 0.004424751
000260 d0 9e 9f 3c e0 8c 33 3d 60 15 13 3c a0 77 ef 3c
       0.019484907 0.04383552 0.008977264 0.029231846
000270 40 1b cb bb 98 ad 65 3d 9c 4d 54 3d 00 e5 ca 3b
       -0.006198317 0.056073755 0.051831827 0.0061918497
000280 98 cd 26 bd e0 ff f7 bc 80 a1 70 3c 70 24 97 3d
       -0.040723413 -0.030273378 0.014686942 0.07379997
000290 58 1b 49 bd 20 3f 7d 3c 07 dc 11 be f8 39 de bd
       -0.049098343 0.015456945 -0.1424409 -0.108509004
0002a0 60 b4 41 bd 40 54 09 3c 00 2a 5c 3c a8 9e 2b 3d
       -0.04729116 0.008381903 0.013437748 0.041899353
0002b0 00 80 bc 3b 20 96 fa 3c c0 cc dc bb 84 df 67 3d
       0.0057525635 0.030589163 -0.0067382753 0.056609645
0002c0 30 a1 55 3d 00 28 9f 3a 98 dc 18 bd e0 c5 17 bd
       0.052155674 0.0012142658 -0.03731975 -0.037053943
0002d0 30 54 b6 3c 94 12 45 3d 28 7f 52 bd 00 b8 f3 3b
       0.02225694 0.04811342 -0.051390797 0.007437706
0002e0 8e 53 1f be fc 86 9a bd f0 68 43 bd a0 88 47 3c
       -0.15559217 -0.075452775 -0.047707498 0.01217857
0002f0 60 bd 55 3c 10 66 1d 3d 60 35 03 3c f0 ee f7 3c
       0.013045639 0.038427413 0.008008331 0.030265301
000300 c0 e4 a6 bb d0 f8 71 3d c4 4b 42 3d 00 58 8b ba
       -0.005093187 0.059075177 0.047435537 -0.0010631084
000310 10 fd 07 bd 40 2a 0d bd 40 f6 94 3c 40 a9 48 3d
       -0.033200324 -0.03446412 0.018183827 0.048989534
000320 b0 bf 65 bd c0 f1 3e 3c a4 41 fd bd 70 25 de bd
       -0.05609101 0.011654317 -0.123660356 -0.108469844
000330 d8 ba 51 bd 20 ea 5d 3c a0 ad 88 3c 58 cc 29 3d
       -0.05120358 0.013544589 0.016684353 0.041454643
000340 c0 f7 fa 3b e0 8f f7 3c 40 9a a7 bb 50 e9 5d 3d
       0.0076589286 0.030219972 -0.0051148236 0.054177582
000350 88 3a 56 3d 80 35 38 3b 08 8d 07 bd 58 57 05 bd
       0.052301913 0.002810806 -0.033093482 -0.032554
000360 20 ba 92 3c 60 dc 7a 3d 20 fa 55 bd c0 68 46 3c
       0.017911017 0.061245322 -0.05224049 0.012109935
000370 5e 1e 19 be 4c 7b a6 bd a0 3c 3e bd 00 4b 6f 3c
       -0.1495299 -0.08128986 -0.046444535 0.014605284
000380 40 a5 64 3c 88 37 27 3d 80 f9 24 3b d0 ce fd 3c
       0.013955414 0.040824443 0.0025173128 0.030982405
000390 c0 f2 c9 bb d0 17 71 3d d0 6d 44 3d 00 92 e5 3b
       -0.0061629713 0.0588606 0.047956288 0.00700593
0003a0 b8 5b 06 bd 28 9d 18 bd c0 00 bf bb 20 3a 98 3d
       -0.032802314 -0.03725925 -0.005828947 0.074329615
0003b0 60 ad 91 bd 00 ea 16 3b 59 3b 22 be 50 20 b3 bd
       -0.07113147 0.0023027658 -0.15842952 -0.087463975
0003c0 40 13 2c bd e0 ad 08 3c b0 93 bb 3c d8 4f 2e 3d
       -0.042010546 0.008342236 0.022897571 0.042556614
0003d0 80 90 d7 3b e8 79 0f 3d c0 54 bb bb d8 51 61 3d
       0.006578505 0.03502837 -0.00571689 0.055009693
0003e0 f0 6c 51 3d 40 4d 0d 3c f0 31 14 bd 30 30 05 bd
       0.05112928 0.008624375 -0.036180437 -0.03251666
0003f0 40 0b 99 3c 1c ab 7a 3d 20 ef 52 bd 20 9b 3e 3c
       0.018682122 0.06119834 -0.05149758 0.011633664

quadA f4 [96, 3, 3]
000000 2b a3 3b 3d e0 a6 92 bc a8 40 9a 3c e0 a6 92 bc
       0.045809906 -0.017901838 0.018829659 -0.017901838
000010 fa b3 f1 bc 90 69 81 3d a8 40 9a 3c 90 69 81 3d
       -0.029504765 0.063189626 0.018829659 0.063189626
000020 5a 92 85 bc 39 7d 7c be 6c 74 00 3d e0 34 50 bd
       -0.016305137 -0.24657144 0.03136103 -0.050831676
000030 6c 74 00 3d 2e 03 4f 3e 00 14 d6 3a e0 34 50 bd
       0.03136103 0.20216057 0.0016332865 -0.050831676
000040 00 14 d6 3a 20 e8 35 3d 00 81 c7 bb 00 98 b2 ba
       0.0016332865 0.044410825 -0.006088376 -0.0013625622
000050 90 5b 01 3c 00 98 b2 ba 40 b3 db 3b 80 1b 94 ba
       0.007895365 -0.0013625622 0.006704718 -0.00112997
000060 90 5b 01 3c 80 1b 94 ba 00 92 21 ba 00 ed b4 3a
       0.007895365 -0.00112997 -0.00061634183 0.0013803542
000070 c0 ed 82 3b 00 d7 a5 bb c0 ed 82 3b c0 12 8c 3b
       0.003995627 -0.0050610304 0.003995627 0.004274696
000080 80 d6 14 3b 00 d7 a5 bb 80 d6 14 3b 00 4e b9 bb
       0.002271086 -0.0050610304 0.002271086 -0.0056550503
000090 d5 d7 a2 ba 80 8e dd 3a 00 73 2b 3a 80 8e dd 3a
       -0.0012423942 0.001690343 0.00065402687 0.001690343
0000a0 2b e2 bf 3b 20 75 87 bb 00 73 2b 3a 20 75 87 bb
       0.0058558187 -0.0041338354 0.00065402687 -0.0041338354
0000b0 35 2c 97 bb aa d3 87 3b 00 b2 d7 b9 00 51 26 ba
       -0.004613424 0.0041451054 -0.00041140616 -0.00063444674
0000c0 00 b2 d7 b9 fb c9 4f bc 80 be 47 bb 00 51 26 ba
       -0.00041140616 -0.012682433 -0.0030478537 -0.00063444674
0000d0 80 be 47 bb 25 e0 0b 3c 22 9b ef 3c 30 d8 41 bc
       -0.0030478537 0.008537327 0.029248778 -0.011831328
0000e0 80 ca 3c 3c 30 d8 41 bc 5e b0 b0 bc 0c 07 37 3d
       0.011522889 -0.011831328 -0.021568473 0.044684455
0000f0 80 ca 3c 3c 0c 07 37 3d 18 ab fb bb d3 55 2b bf
       0.011522889 0.044684455 -0.007680308 -0.6692783
000100 9e 4f b2 3d d6 56 19 be 9e 4f b2 3d 5b 7f 09 3f
       0.08706592 -0.14974532 0.08706592 0.53709954
000110 78 24 1a 3d d6 56 19 be 78 24 1a 3d e8 59 07 3e
       0.037632436 -0.14974532 0.037632436 0.1321789
000120 eb ef 2b bb 00 13 98 ba 80 df 84 3b 00 13 98 ba
       -0.0026235532 -0.0011602342 0.0040549636 -0.0011602342
000130 15 11 60 3b 00 9c b4 39 80 df 84 3b 00 9c b4 39
       0.003418987 0.00034448504 0.0040549636 0.00034448504
000140 ab 84 50 ba 00 e2 d3 39 80 12 4c 3b 00 cd 9c bb
       -0.00079543394 0.0004041344 0.0031138957 -0.00478518
000150 80 12 4c 3b 00 0d 84 3b 80 fc f1 3a 00 cd 9c bb
       0.0031138957 0.00402987 0.0018462092 -0.00478518
000160 80 fc f1 3a 20 4b 91 bb 75 94 ce bb 80 ee 8a 3a
       0.0018462092 -0.0044340044 -0.0063043186 0.0010599643
000170 80 dc f4 ba 80 ee 8a 3a 2c cc eb 3a 40 3b 15 3b
       -0.0018681437 0.0010599643 0.0017989925 0.0022770911
000180 80 dc f4 ba 40 3b 15 3b 6b a1 93 3b 56 5e 14 3b
       -0.0018681437 0.0022770911 0.0045053265 0.0022639236
000190 00 30 5d 39 00 5b 52 ba 00 30 5d 39 3b 89 05 bc
       0.00021094084 -0.00080244243 0.00021094084 -0.008150394
0001a0 40 05 38 bb 00 5b 52 ba 40 05 38 bb 4b e3 c0 3b
       -0.00280793 -0.00080244243 -0.00280793 0.0058864704
0001b0 d9 7a 63 3d 60 e9 cc bc 64 7b 09 3d 60 e9 cc bc
       0.05553708 -0.025013626 0.03356494 -0.025013626
0001c0 91 bb 7d bd 42 37 cc 3d 64 7b 09 3d 42 37 cc 3d
       -0.061946455 0.09971477 0.03356494 0.09971477
0001d0 a8 05 d2 3b 75 35 1c bf b0 e2 38 3c 9a 92 10 be
       0.0064093657 -0.6101907 0.011284515 -0.14118424
0001e0 b0 e2 38 3c 36 32 ef 3e d8 65 03 3e 9a 92 10 be
       0.011284515 0.46717995 0.12831819 -0.14118424
0001f0 d8 65 03 3e 64 71 12 3e 76 0c 30 bc 00 5d 03 ba
       0.12831819 0.14301068 -0.010745158 -0.00050111115
000200 20 3e 22 3c 00 5d 03 ba 3a 75 04 3c 00 70 24 b8
       0.009902507 -0.00050111115 0.00808459 -3.9204955e-05
000210 20 3e 22 3c 00 70 24 b8 ea 5c 2e 3b 00 66 41 3a
       0.009902507 -3.9204955e-05 0.0026605674 0.0007377565
000220 40 0b a7 3b e0 02 c4 bb 40 0b a7 3b e0 8a e1 3b
       0.0050977767 -0.005981788 0.0050977767 0.0068830103
000230 00 af c8 3a e0 02 c4 bb 00 af c8 3a a0 b7 f9 bb
       0.0015310943 -0.005981788 0.0015310943 -0.0076207668
000240 3b df 0c bc 00 c4 a8 b9 00 3f 04 bb 00 c4 a8 b9
       -0.008598144 -0.00032189488 -0.0020179152 -0.00032189488
000250 ea 4f 97 3b c0 0a 10 3b 00 3f 04 bb c0 0a 10 3b
       0.004617681 0.0021979064 -0.0020179152 0.0021979064
000260 8a 6e 82 3b 60 ed eb 3b 00 eb 1f ba 00 00 99 b8
       0.0039804624 0.007199928 -0.00061003864 -7.2956085e-05
000270 00 eb 1f ba 58 cb 84 bc 00 a7 bf bb 00 00 99 b8
       -0.00061003864 -0.016210243 -0.0058487654 -7.2956085e-05
000280 00 a7 bf bb 00 a0 13 3c 17 e5 39 3d 28 8c 32 bd
       -0.0058487654 0.009010315 0.045384493 -0.043590695
000290 f0 9c 20 3d 28 8c 32 bd a5 03 67 bd 20 5c 9a 3d
       0.039212167 -0.043590695 -0.05639996 0.07537103
0002a0 f0 9c 20 3d 20 5c 9a 3d 3c 7a 34 3c bc cd 06 bf
       0.039212167 0.07537103 0.011015471 -0.52657676
0002b0 d0 f1 ce 3c 18 44 08 be d0 f1 ce 3c 02 d8 a5 3e
       0.02526179 -0.13307226 0.02526179 0.32391363
0002c0 b0 fe bb 3d 18 44 08 be b0 fe bb 3d e8 86 4f 3e
       0.09179437 -0.13307226 0.09179437 0.20266306
0002d0 80 8a ee bb 00 fc 1a 39 d0 49 10 3c 00 fc 1a 39
       -0.007279694 0.00014780462 0.008806661 0.00014780462
0002e0 80 b9 cd 3b 00 d8 45 b9 d0 49 10 3c 00 d8 45 b9
       0.006278217 -0.0001886785 0.008806661 -0.0001886785
0002f0 00 44 83 3a aa 20 27 3a 00 ba 83 3b 20 03 a7 bb
       0.0010014772 0.0006375412 0.0040199757 -0.005096808
000300 00 ba 83 3b 75 d1 a2 3b 00 a2 9d 39 20 03 a7 bb
       0.0040199757 0.004968817 0.00030066073 -0.005096808
000310 00 a2 9d 39 8b b5 b7 bb 80 c2 18 bb 80 fc 26 3b
       0.00030066073 -0.0056063584 -0.002330929 0.0025480092
000320 00 d8 e5 b8 80 fc 26 3b 40 04 57 bb 60 a1 a3 bb
       -0.00010959804 0.0025480092 -0.003280893 -0.0049936026
000330 00 d8 e5 b8 60 a1 a3 bb 60 e3 b7 3b 20 22 e8 3b
       -0.00010959804 -0.0049936026 0.005611822 0.007084146
000340 00 d1 68 3a 80 d6 a1 ba 00 d1 68 3a 60 5c 69 bc
       0.0008881241 -0.0012347251 0.0008881241 -0.014243215
000350 40 62 fc bb 80 d6 a1 ba 40 62 fc bb a0 96 ea 3b
       -0.007702142 -0.0012347251 -0.007702142 0.007159069
000360 bb 37 0e 3d a0 22 8b bb 48 c8 be bc a0 22 8b bb
       0.034721117 -0.004246071 -0.02328886 -0.004246071
000370 80 9c 82 bd 44 24 71 3d 48 c8 be bc 44 24 71 3d
       -0.06377506 0.058872476 -0.02328886 0.058872476
000380 8e 02 ee 3c f3 b5 1c bf 26 29 82 3d bd ad 20 be
       0.029053953 -0.6121513 0.06355505 -0.15691276
000390 26 29 82 3d 8e 76 b9 3e 88 f0 6c 3d bd ad 20 be
       0.06355505 0.36223263 0.057846576 -0.15691276
0003a0 88 f0 6c 3d b0 ea 7f 3e 55 14 e1 ba 60 a0 dd bb
       0.057846576 0.2499187 -0.0017172197 -0.006763503
0003b0 80 09 d5 3b 60 a0 dd bb eb 47 c1 3b 00 ed d3 3a
       0.0065013766 -0.006763503 0.005898466 0.0016168654
0003c0 80 09 d5 3b 00 ed d3 3a d5 02 89 bb 54 04 3c 3a
       0.0065013766 0.0016168654 -0.004181246 0.0007172276
0003d0 c0 15 03 3b c0 d6 c7 bb c0 15 03 3b d5 7f 7f 3b
       0.0020001978 -0.0060985982 0.0020001978 0.0038986106
0003e0 00 eb 5d 3a c0 d6 c7 bb 00 eb 5d 3a 76 40 97 bb
       0.00084654987 -0.0060985982 0.00084654987 -0.0046158386
0003f0 60 6a ba bb 80 7c 57 3b 80 5d 8a ba 80 7c 57 3b
       -0.0056889504 0.0032880604 -0.001055643 0.0032880604

hfvrA f4 [96, 1]
000000 42 8c 8d 3f fa 09 8d 3f e0 45 a3 3e 38 2f 88 3e
       1.1058428 1.101867 0.31889248 0.26598525
000010 5a c6 f3 3e c4 00 9d 3e 64 2f 8b 3f 76 ed 91 3f
       0.47612268 0.30664647 1.0873837 1.1400592
000020 aa 66 8f 3e 8c ff a5 3e 8a 70 9d 3e 6c b4 93 3e
       0.28008014 0.3242153 0.30749923 0.28848588
000030 ae 7a 91 3f 8f fb 8d 3f 68 89 d5 3e 82 83 86 3e
       1.1365564 1.1092395 0.41706395 0.26272207
000040 3e d2 a7 3e 9e fd a8 3e ff 05 8f 3f 74 fb 8c 3f
       0.3277759 0.33005995 1.1173705 1.1014237
000050 ae 3c c0 3e 08 69 81 3e 84 68 b0 3e 7e bf ad 3e
       0.37546295 0.25275445 0.3445474 0.3393516
000060 84 73 90 3f 09 42 8d 3f 1e a9 88 3e 9c 4d 9e 3e
       1.1285253 1.1035777 0.26691526 0.30918586
000070 0c 7b b1 3e 8e dd ad 3e 50 20 8c 3f 2b ff 8e 3f
       0.3466419 0.33958095 1.0947361 1.1171621
000080 e6 8c 85 3e 78 7d 8f 3e 98 bb b4 3e 70 e1 97 3e
       0.2608406 0.28025413 0.35299373 0.29664183
000090 78 00 88 3f 7c 91 90 3f aa c9 a0 3e 5e 2c 83 3e
       1.0625143 1.1294398 0.31403857 0.25619787
0000a0 86 85 ac 3e 24 15 9b 3e 3d 0d 89 3f dd ef 90 3f
       0.3369562 0.30289567 1.0707165 1.13232
0000b0 ba a0 90 3e 2e e0 a8 3e 0e 34 a8 3e 2a 0c 87 3e
       0.28247625 0.32983536 0.32852215 0.26376468
0000c0 d5 1b 8c 3f 65 83 90 3f 18 a7 99 3e 42 92 c4 3e
       1.0945994 1.1290098 0.30010295 0.38392836
0000d0 a0 e5 a2 3e f4 18 8c 3e b7 6d 8c 3f b9 ce 8d 3f
       0.31815815 0.27362788 1.0970982 1.1078712
0000e0 08 ff 8e 3e f2 07 95 3e d6 d7 af 3e fe 71 ab 3e
       0.27928948 0.29107624 0.34344357 0.33485407
0000f0 74 3e 8c 3f fa 0c 8e 3f 5a af ae 3e 62 da 96 3e
       1.0956559 1.109771 0.34118158 0.29463488
000100 68 0e b0 3e 5a 6b 8a 3e 48 34 88 3f 5b 7e 92 3f
       0.3438599 0.27035028 1.0640955 1.1444811
000110 5c ad b0 3e 7c d8 96 3e a4 3f a5 3e 08 8f 78 3e
       0.34507263 0.2946204 0.32275116 0.24273312
000120 11 82 8a 3f b2 0c 90 3f 40 e8 97 3e 66 47 9d 3e
       1.0820943 1.1253874 0.2966938 0.30718535
000130 f2 88 aa 3e d4 26 93 3e 32 ba 8b 3f 36 b0 8f 3f
       0.33307606 0.2874056 1.0916197 1.122565
000140 a4 66 84 3e 00 e9 ce 3e 72 db ac 3e 8a 1d 9d 3e
       0.2585956 0.4041214 0.33761173 0.306866
000150 02 c7 8b 3f 50 b6 8d 3f a4 96 a1 3e 36 df 86 3e
       1.0920107 1.1071262 0.31560242 0.2634217
000160 92 27 c1 3e e6 3b a2 3e ac 7e 8b 3f bd 0f 8e 3f
       0.37725502 0.31686324 1.0898032 1.1098553
000170 88 55 c4 3e 82 15 9d 3e 58 56 ba 3e b6 f7 80 3e
       0.38346505 0.30680472 0.36394 0.25188988

vwA f4 [96, 1]
000000 54 bd 05 3f 00 e9 14 3f 46 a9 c4 3e 42 f7 ba 3e
       0.52242017 0.5816803 0.38410395 0.36516768
000010 e5 4a e3 3e d0 00 c4 3e ac e7 05 3f f8 05 17 3f
       0.44393077 0.3828187 0.5230663 0.5899348
000020 ef 73 be 3e be 5f c5 3e a9 11 c5 3e 78 45 c0 3e
       0.37197825 0.38549608 0.38490036 0.37553
000030 c7 03 07 3f 45 f6 15 3f ff 23 cd 3e 20 e0 b8 3e
       0.5274014 0.585789 0.40066525 0.36108494
000040 b0 72 c7 3e ee 88 c7 3e 4b 0a 06 3f ed 5d 15 3f
       0.38954687 0.38971657 0.52359456 0.58346444
000050 cd 8a ca 3e 78 ee b6 3e 88 30 c9 3e 75 e2 c7 3e
       0.39559022 0.35728812 0.3929484 0.3903996
000060 f6 a0 07 3f 14 0d 16 3f d1 ee ba 3e 3f b5 c2 3e
       0.5297998 0.58613706 0.36510327 0.38028905
000070 c2 76 c9 3e bc 99 c7 3e 08 87 05 3f b6 17 16 3f
       0.39348418 0.38984478 0.52159166 0.5862993
000080 a5 d1 ba 3e 63 a5 be 3e db d7 c8 3e 6e 20 c2 3e
       0.3648807 0.37235555 0.39227185 0.37915367
000090 b4 7a 04 3f b7 07 16 3f 33 33 c2 3e 12 2e b8 3e
       0.5174973 0.5860552 0.37929687 0.3597265
0000a0 97 a0 c8 3e b9 2c c1 3e f4 da 04 3f 08 2c 16 3f
       0.3918502 0.37729433 0.51896596 0.58660936
0000b0 e9 b5 bd 3e bf c7 c4 3e 48 79 c7 3e 27 5c bb 3e
       0.3705285 0.38433644 0.38959718 0.36593744
0000c0 a9 5b 06 3f 10 97 16 3f 7f 56 c0 3e ae 41 cb 3e
       0.5248361 0.58824253 0.3756599 0.39698547
0000d0 92 6b c6 3e 25 98 bd 3e 95 0f 06 3f 8e 13 16 3f
       0.38753945 0.3703014 0.52367526 0.5862359
0000e0 42 89 bd 3e bd 63 bf 3e a3 c7 c8 3e 10 69 c7 3e
       0.37018782 0.37380782 0.3921481 0.38947344
0000f0 fc 26 05 3f 2c 48 15 3f 01 ca c6 3e ed 6e c0 3e
       0.5201261 0.5831325 0.38825992 0.3758463
000100 c5 a5 c8 3e 46 56 bc 3e 64 13 05 3f bc 98 16 3f
       0.39188972 0.3678457 0.5198271 0.58826804
000110 8f dc c6 3e 34 ac bf 3e bd 91 c6 3e 4c d9 b6 3e
       0.38840148 0.37436068 0.38783064 0.3571266
000120 44 7b 05 3f c4 23 16 3f cf be c0 3e 2d 14 c2 3e
       0.52141213 0.58648324 0.37645575 0.37906018
000130 e6 96 c7 3e c3 1b c0 3e c4 81 05 3f aa d9 15 3f
       0.38982314 0.3752118 0.5215113 0.58535254
000140 94 9c b8 3e 7b 94 cf 3e 4b 7d c7 3e 89 7c c2 3e
       0.3605696 0.4054297 0.38962778 0.37985638
000150 12 ab 05 3f d7 d0 15 3f d3 54 c3 3e cd 6f ba 3e
       0.5221416 0.5852179 0.38150653 0.36413422
000160 4d b8 c9 3e bf 6e c4 3e 89 c3 04 3f ee 1d 15 3f
       0.39398423 0.38365743 0.5186086 0.58248794
000170 d6 08 cc 3e c1 f7 c1 3e f7 e9 c8 3e 99 c6 b7 3e
       0.3985049 0.37884334 0.39241 0.35893705

alpha_0_A f4 [1536]
000000 aa 30 3b 41 00 f8 9b 41 1e f9 8f 40 1e f9 8f 40
       11.699381 19.496094 4.49916 4.49916
000010 1e f9 8f 40 1e f9 8f 40 aa 30 3b 41 00 f8 9b 41
       4.49916 4.49916 11.699381 19.496094
000020 1e f9 8f 40 1e f9 8f 40 1e f9 8f 40 1e f9 8f 40
       4.49916 4.49916 4.49916 4.49916
000030 aa 30 3b 41 00 f8 9b 41 1e f9 8f 40 1e f9 8f 40
       11.699381 19.496094 4.49916 4.49916
000040 1e f9 8f 40 1e f9 8f 40 aa 30 3b 41 00 f8 9b 41
       4.49916 4.49916 11.699381 19.496094
000050 1e f9 8f 40 1e f9 8f 40 1e f9 8f 40 1e f9 8f 40
       4.49916 4.49916 4.49916 4.49916
000060 aa 30 3b 41 00 f8 9b 41 1e f9 8f 40 1e f9 8f 40
       11.699381 19.496094 4.49916 4.49916
000070 1e f9 8f 40 1e f9 8f 40 aa 30 3b 41 00 f8 9b 41
       4.49916 4.49916 11.699381 19.496094
000080 1e f9 8f 40 1e f9 8f 40 1e f9 8f 40 1e f9 8f 40
       4.49916 4.49916 4.49916 4.49916
000090 aa 30 3b 41 00 f8 9b 41 1e f9 8f 40 1e f9 8f 40
       11.699381 19.496094 4.49916 4.49916
0000a0 1e f9 8f 40 1e f9 8f 40 aa 30 3b 41 00 f8 9b 41
       4.49916 4.49916 11.699381 19.496094
0000b0 1e f9 8f 40 1e f9 8f 40 1e f9 8f 40 1e f9 8f 40
       4.49916 4.49916 4.49916 4.49916
0000c0 aa 30 3b 41 00 f8 9b 41 1e f9 8f 40 1e f9 8f 40
       11.699381 19.496094 4.49916 4.49916
0000d0 1e f9 8f 40 1e f9 8f 40 aa 30 3b 41 00 f8 9b 41
       4.49916 4.49916 11.699381 19.496094
0000e0 1e f9 8f 40 1e f9 8f 40 1e f9 8f 40 1e f9 8f 40
       4.49916 4.49916 4.49916 4.49916
0000f0 aa 30 3b 41 00 f8 9b 41 1e f9 8f 40 1e f9 8f 40
       11.699381 19.496094 4.49916 4.49916
000100 1e f9 8f 40 1e f9 8f 40 aa 30 3b 41 00 f8 9b 41
       4.49916 4.49916 11.699381 19.496094
000110 1e f9 8f 40 1e f9 8f 40 1e f9 8f 40 1e f9 8f 40
       4.49916 4.49916 4.49916 4.49916
000120 aa 30 3b 41 00 f8 9b 41 1e f9 8f 40 1e f9 8f 40
       11.699381 19.496094 4.49916 4.49916
000130 1e f9 8f 40 1e f9 8f 40 aa 30 3b 41 00 f8 9b 41
       4.49916 4.49916 11.699381 19.496094
000140 1e f9 8f 40 1e f9 8f 40 1e f9 8f 40 1e f9 8f 40
       4.49916 4.49916 4.49916 4.49916
000150 aa 30 3b 41 00 f8 9b 41 1e f9 8f 40 1e f9 8f 40
       11.699381 19.496094 4.49916 4.49916
000160 1e f9 8f 40 1e f9 8f 40 aa 30 3b 41 00 f8 9b 41
       4.49916 4.49916 11.699381 19.496094
000170 1e f9 8f 40 1e f9 8f 40 1e f9 8f 40 1e f9 8f 40
       4.49916 4.49916 4.49916 4.49916
000180 aa 30 3b 41 00 f8 9b 41 1e f9 8f 40 1e f9 8f 40
       11.699381 19.496094 4.49916 4.49916
000190 1e f9 8f 40 1e f9 8f 40 aa 30 3b 41 00 f8 9b 41
       4.49916 4.49916 11.699381 19.496094
0001a0 1e f9 8f 40 1e f9 8f 40 1e f9 8f 40 1e f9 8f 40
       4.49916 4.49916 4.49916 4.49916
0001b0 aa 30 3b 41 00 f8 9b 41 1e f9 8f 40 1e f9 8f 40
       11.699381 19.496094 4.49916 4.49916
0001c0 1e f9 8f 40 1e f9 8f 40 aa 30 3b 41 00 f8 9b 41
       4.49916 4.49916 11.699381 19.496094
0001d0 1e f9 8f 40 1e f9 8f 40 1e f9 8f 40 1e f9 8f 40
       4.49916 4.49916 4.49916 4.49916
0001e0 aa 30 3b 41 00 f8 9b 41 1e f9 8f 40 1e f9 8f 40
       11.699381 19.496094 4.49916 4.49916
0001f0 1e f9 8f 40 1e f9 8f 40 aa 30 3b 41 00 f8 9b 41
       4.49916 4.49916 11.699381 19.496094
000200 1e f9 8f 40 1e f9 8f 40 1e f9 8f 40 1e f9 8f 40
       4.49916 4.49916 4.49916 4.49916
000210 aa 30 3b 41 00 f8 9b 41 1e f9 8f 40 1e f9 8f 40
       11.699381 19.496094 4.49916 4.49916
000220 1e f9 8f 40 1e f9 8f 40 aa 30 3b 41 00 f8 9b 41
       4.49916 4.49916 11.699381 19.496094
000230 1e f9 8f 40 1e f9 8f 40 1e f9 8f 40 1e f9 8f 40
       4.49916 4.49916 4.49916 4.49916
000240 aa 30 3b 41 00 f8 9b 41 1e f9 8f 40 1e f9 8f 40
       11.699381 19.496094 4.49916 4.49916
000250 1e f9 8f 40 1e f9 8f 40 aa 30 3b 41 00 f8 9b 41
       4.49916 4.49916 11.699381 19.496094
000260 1e f9 8f 40 1e f9 8f 40 1e f9 8f 40 1e f9 8f 40
       4.49916 4.49916 4.49916 4.49916
000270 aa 30 3b 41 00 f8 9b 41 1e f9 8f 40 1e f9 8f 40
       11.699381 19.496094 4.49916 4.49916
000280 1e f9 8f 40 1e f9 8f 40 aa 30 3b 41 00 f8 9b 41
       4.49916 4.49916 11.699381 19.496094
000290 1e f9 8f 40 1e f9 8f 40 1e f9 8f 40 1e f9 8f 40
       4.49916 4.49916 4.49916 4.49916
0002a0 aa 30 3b 41 00 f8 9b 41 1e f9 8f 40 1e f9 8f 40
       11.699381 19.496094 4.49916 4.49916
0002b0 1e f9 8f 40 1e f9 8f 40 aa 30 3b 41 00 f8 9b 41
       4.49916 4.49916 11.699381 19.496094
0002c0 1e f9 8f 40 1e f9 8f 40 1e f9 8f 40 1e f9 8f 40
       4.49916 4.49916 4.49916 4.49916
0002d0 aa 30 3b 41 00 f8 9b 41 1e f9 8f 40 1e f9 8f 40
       11.699381 19.496094 4.49916 4.49916
0002e0 1e f9 8f 40 1e f9 8f 40 aa 30 3b 41 00 f8 9b 41
       4.49916 4.49916 11.699381 19.496094
0002f0 1e f9 8f 40 1e f9 8f 40 1e f9 8f 40 1e f9 8f 40
       4.49916 4.49916 4.49916 4.49916
000300 aa 30 3b 41 00 f8 9b 41 1e f9 8f 40 1e f9 8f 40
       11.699381 19.496094 4.49916 4.49916
000310 1e f9 8f 40 1e f9 8f 40 aa 30 3b 41 00 f8 9b 41
       4.49916 4.49916 11.699381 19.496094
000320 1e f9 8f 40 1e f9 8f 40 1e f9 8f 40 1e f9 8f 40
       4.49916 4.49916 4.49916 4.49916
000330 aa 30 3b 41 00 f8 9b 41 1e f9 8f 40 1e f9 8f 40
       11.699381 19.496094 4.49916 4.49916
000340 1e f9 8f 40 1e f9 8f 40 aa 30 3b 41 00 f8 9b 41
       4.49916 4.49916 11.699381 19.496094
000350 1e f9 8f 40 1e f9 8f 40 1e f9 8f 40 1e f9 8f 40
       4.49916 4.49916 4.49916 4.49916
000360 aa 30 3b 41 00 f8 9b 41 1e f9 8f 40 1e f9 8f 40
       11.699381 19.496094 4.49916 4.49916
000370 1e f9 8f 40 1e f9 8f 40 aa 30 3b 41 00 f8 9b 41
       4.49916 4.49916 11.699381 19.496094
000380 1e f9 8f 40 1e f9 8f 40 1e f9 8f 40 1e f9 8f 40
       4.49916 4.49916 4.49916 4.49916
000390 aa 30 3b 41 00 f8 9b 41 1e f9 8f 40 1e f9 8f 40
       11.699381 19.496094 4.49916 4.49916
0003a0 1e f9 8f 40 1e f9 8f 40 aa 30 3b 41 00 f8 9b 41
       4.49916 4.49916 11.699381 19.496094
0003b0 1e f9 8f 40 1e f9 8f 40 1e f9 8f 40 1e f9 8f 40
       4.49916 4.49916 4.49916 4.49916
0003c0 aa 30 3b 41 00 f8 9b 41 1e f9 8f 40 1e f9 8f 40
       11.699381 19.496094 4.49916 4.49916
0003d0 1e f9 8f 40 1e f9 8f 40 aa 30 3b 41 00 f8 9b 41
       4.49916 4.49916 11.699381 19.496094
0003e0 1e f9 8f 40 1e f9 8f 40 1e f9 8f 40 1e f9 8f 40
       4.49916 4.49916 4.49916 4.49916
0003f0 aa 30 3b 41 00 f8 9b 41 1e f9 8f 40 1e f9 8f 40
       11.699381 19.496094 4.49916 4.49916

hlistA f4 [96, 4, 8]
000000 79 98 b5 3b 33 b9 93 3e 6e a2 48 bd 95 b5 90 3c
       0.005541858 0.28852233 -0.04898303 0.01766471
000010 99 5b 22 3e c1 cf e3 3b b7 d1 14 3d e6 f1 ea 3c
       0.15855254 0.0069522564 0.036332812 0.0286798
000020 26 81 1c be 38 ae 83 3d 0c 65 8c 3d 58 97 95 3d
       -0.15283641 0.06429714 0.06855211 0.07304257
000030 b6 ff ba bd 0c d0 1e bc 9f 72 fd 3d 12 f8 41 3e
       -0.09130804 -0.009693157 0.12375378 0.18942288
000040 c0 c1 bc 3c c9 62 35 be 64 95 e7 be e8 57 17 3d
       0.023041606 -0.17713465 -0.45231164 0.03694907
000050 b6 f6 f5 3d 49 2b 16 bf bb a2 87 be 3e d4 28 3e
       0.12009947 -0.586598 -0.2649134 0.16487214
000060 e7 65 a1 3d 42 7e d4 3c 9a bc 34 bd 7c 3e 7d 3e
       0.078807645 0.02593911 -0.044125177 0.24730867
000070 1e f9 18 be 72 24 2d 3e 87 50 4e 3e 28 8b 8e bf
       -0.1493878 0.16908434 0.20147906 -1.1136217
000080 34 e3 22 3e 33 75 43 be 57 a4 89 bc 78 39 37 bd
       0.15906984 -0.19087677 -0.016801996 -0.04473254
000090 6f 1f 03 bd f5 e8 3b be 8b aa aa 3d b2 1c a8 bc
       -0.0320124 -0.18350585 0.0833331 -0.020521495
0000a0 df 00 b9 3d e0 56 8c 3d 0f 53 50 bd 64 4f bd bd
       0.09033369 0.068525076 -0.05086046 -0.09243658
0000b0 1e 32 38 3d c2 fc 11 3d a2 0f 36 bd 2f ca ed 3c
       0.04496967 0.03564144 -0.044448502 0.029027073
0000c0 0a 4f b8 bd 9c f3 17 3d e8 0b 8d 3d 12 76 91 bd
       -0.089994505 0.03709756 0.068870366 -0.07102598
0000d0 42 e9 d3 3d d3 a4 4b 3e da e0 50 3d 30 1d dd bb
       0.10347225 0.19887094 0.050995685 -0.006747864
0000e0 11 70 d6 be 18 99 69 bf 37 26 03 bf f2 ce 49 41
       -0.41882375 -0.9124923 -0.51230186 12.613024
0000f0 52 55 66 bf c9 5f 72 3f 79 cb 31 bf 91 b8 29 42
       -0.8997394 0.94677407 -0.694511 42.43024
000100 8d 50 7f bd b2 a6 f6 bc 04 de 45 3d 4e b0 64 3d
       -0.06233268 -0.030108783 0.048307434 0.0558322
000110 e2 8c c5 bd b2 c2 f6 3d 2e 0b 25 be 41 ae f0 bd
       -0.09646012 0.12048854 -0.16117546 -0.11751986
000120 3c 75 b7 bc 73 ae dc bc ee 3b 9e bd 8c 42 f4 3c
       -0.022394769 -0.026938653 -0.077262744 0.029816888
000130 6b e6 8d bd 90 5e a3 bc b8 39 b0 bd fe 14 49 3d
       -0.06928714 -0.019942552 -0.08604759 0.049092285
000140 00 fd 88 bc 8c 9a 99 bc fa 39 8e bd 6a 61 e5 3c
       -0.016722202 -0.018750452 -0.06944652 0.028000552
000150 24 01 3c be e4 f3 c2 3c 7e 69 a8 bd fe 0a 3f be
       -0.1835981 0.023797937 -0.08223246 -0.18656537
000160 03 fc 61 bc 39 1f b5 bd d0 91 87 bd 80 57 fc 3d
       -0.013792994 -0.08843846 -0.066196084 0.12321377
000170 90 95 64 bd 93 bf 99 3d a8 27 35 bd a7 4b 9d 3f
       -0.055806696 0.07507243 -0.044227272 1.2288712
000180 8d 50 7f bd b2 a6 f6 bc 04 de 45 3d 4e b0 64 3d
       -0.06233268 -0.030108783 0.048307434 0.0558322
000190 e2 8c c5 bd b2 c2 f6 3d 2e 0b 25 be 41 ae f0 bd
       -0.09646012 0.12048854 -0.16117546 -0.11751986
0001a0 70 3c 51 3c dd 37 85 bc cf 17 40 bd 64 08 79 3d
       0.012770757 -0.01626199 -0.046897706 0.060799018
0001b0 b8 c4 8b bd fc a7 94 bc 60 dc 96 bd e6 c0 0e 3d
       -0.068246305 -0.018146507 -0.07366252 0.03485193
0001c0 e9 d6 ce bd da 02 6e 3c 05 da 89 3d 52 51 e8 3c
       -0.100995846 0.014527047 0.06731037 0.028359089
0001d0 b6 91 25 3d 4a d4 92 3c 57 55 34 bd 78 dd 3f 3c
       0.040422164 0.017923493 -0.0440267 0.011710517
0001e0 3c dd 2f bc 88 f5 c2 bd ae 47 ac bd 92 c2 ac 3d
       -0.010733899 -0.095194876 -0.08412109 0.08435549
0001f0 5b 0d ab bd 8b 7d ba 3d e8 39 6c bd 8d 17 c8 3f
       -0.08352157 0.09105977 -0.05767241 1.5632187
000200 8d 50 7f bd b2 a6 f6 bc 04 de 45 3d 4e b0 64 3d
       -0.06233268 -0.030108783 0.048307434 0.0558322
000210 e2 8c c5 bd b2 c2 f6 3d 2e 0b 25 be 41 ae f0 bd
       -0.09646012 0.12048854 -0.16117546 -0.11751986
000220 eb d1 93 3d 56 e0 46 bc f7 25 25 3d ab 64 c0 3d
       0.07217773 -0.012138447 0.04031941 0.09394201
000230 c0 b2 c1 ba 3d 28 3a bd a0 6f f3 bc 08 7e b3 3c
       -0.0014778003 -0.04544853 -0.029716313 0.021910682
000240 81 30 90 3e e2 00 bb be 67 ff 98 3e ec 51 0f be
       0.28162006 -0.3652411 0.29882357 -0.13996094
000250 19 40 d1 3e f1 ee 08 be 34 95 0a 3c 84 81 e6 3c
       0.40869215 -0.13372399 0.008458424 0.02813793
000260 24 1b 48 bc 1c 13 b1 bd fb cf 82 bd 60 1e ff 3d
       -0.012213502 -0.08646223 -0.063873254 0.124569654
000270 ca fe 62 bd 01 74 94 3d 92 5f 29 bd 26 48 95 3f
       -0.055418767 0.072486885 -0.04135091 1.1662643
000280 8d 50 7f bd b2 a6 f6 bc 04 de 45 3d 4e b0 64 3d
       -0.06233268 -0.030108783 0.048307434 0.0558322
000290 e2 8c c5 bd b2 c2 f6 3d 2e 0b 25 be 41 ae f0 bd
       -0.09646012 0.12048854 -0.16117546 -0.11751986
0002a0 24 fd 92 bc 87 e2 c4 bc df 0e 4e bd 22 b3 0e 3d
       -0.017942972 -0.024033798 -0.05030715 0.034838803
0002b0 7e 4b 84 bd de e0 a8 bc 7f 44 bb bd 52 ec 22 3d
       -0.064597115 -0.020615038 -0.09143924 0.039776154
0002c0 ac 16 69 bd a7 3b aa bc 80 d6 89 bb c4 71 2a bc
       -0.056906387 -0.020780398 -0.0042064786 -0.0104031
0002d0 02 12 c5 bd 78 0b ad 3c 55 f4 01 bd 51 1a e4 bd
       -0.09622575 0.021123633 -0.031727154 -0.11137832
0002e0 ee 01 2b bc 06 e7 b6 bd d1 73 93 bd 98 8f d9 3d
       -0.010437472 -0.08930783 -0.071998246 0.106230915
0002f0 c7 84 8c bd 44 16 a3 3d a0 6b 41 bd b1 31 a8 3f
       -0.06861263 0.07963231 -0.04722178 1.3140165
000300 79 98 b5 3b 33 b9 93 3e 6e a2 48 bd 95 b5 90 3c
       0.005541858 0.28852233 -0.04898303 0.01766471
000310 99 5b 22 3e c1 cf e3 3b b7 d1 14 3d e6 f1 ea 3c
       0.15855254 0.0069522564 0.036332812 0.0286798
000320 52 03 1c be 39 8c 83 3d ac 93 8b 3d 08 9c 95 3d
       -0.15235642 0.0642323 0.068152755 0.07305151
000330 d8 36 bb bd 9c 69 22 bc 83 87 fc 3d 35 a2 41 3e
       -0.0914132 -0.009912875 0.12330534 0.18909533
000340 60 13 0d 3c 10 a0 1a be e0 a9 d6 be 52 03 81 3d
       0.008610576 -0.15100121 -0.4192648 0.062994614
000350 40 5f ab 3d e8 98 27 bf 39 26 89 be d8 46 13 3e
       0.08367777 -0.6546769 -0.26786974 0.14382493
000360 e4 1b 7e 3d e4 95 0b bc 9a 3b 8e bd 62 6f 2b 3e
       0.062038317 -0.008519623 -0.06944962 0.16741708
000370 7a 65 25 be f2 2c 26 3e c6 b9 01 3e 00 fb 3e be
       -0.16151991 0.16228083 0.12668523 -0.18650436
000380 34 e3 22 3e 33 75 43 be 57 a4 89 bc 78 39 37 bd
       0.15906984 -0.19087677 -0.016801996 -0.04473254
000390 6f 1f 03 bd f5 e8 3b be 8b aa aa 3d b2 1c a8 bc
       -0.0320124 -0.18350585 0.0833331 -0.020521495
0003a0 24 24 65 bd 4d 09 ba 3e d7 da 5d 3d dc 30 97 bd
       -0.05594267 0.3633522 0.05416378 -0.07382366
0003b0 0f 1e 9e 3e 97 00 8a bd bc 6b 19 be 74 08 38 bd
       0.30882308 -0.06738394 -0.14982504 -0.044929937
0003c0 24 5c 4a bd d0 a7 52 3d 40 bb 26 3d e4 dd 2d 3c
       -0.04940428 0.05142957 0.04070592 0.010611985
0003d0 34 50 6f 3d bc d1 82 bd ae 50 db bd f2 b6 bd 3d
       0.058426097 -0.0638766 -0.10708748 0.0926341
0003e0 21 37 85 be 39 a8 0a bf 80 6e 84 be 8b 7f f0 40
       -0.26018623 -0.5416294 -0.25865555 7.515569
0003f0 47 be e2 be 60 8e 05 3f 4f 5a be be 46 34 bf 41
       -0.44285795 0.5217037 -0.37178275 23.900524
