tests/test_data_path/og_processed/dimer_ap3_train_spec_7_44.pt (torch, 302703 bytes, 17 tensors)

y f4 [16, 4]
000000 97 e1 ed c1 e5 df 06 42 21 27 85 c1 c6 7c ff c0
       -29.735151 33.718647 -16.644106 -7.983981
000010 d1 56 f0 c1 75 e2 06 42 52 3e 86 c1 2d 44 00 c1
       -30.04239 33.72115 -16.78043 -8.0166445
000020 1c dc 9f c1 53 cf b4 41 32 0d 1f c1 b3 14 00 c1
       -19.982475 22.601233 -9.9407215 -8.0050535
000030 a3 70 c7 c1 cc 95 e2 41 96 ec 50 c1 f5 25 f1 c0
       -24.929998 28.323143 -13.05776 -7.5358834
000040 6f 9d c2 c1 03 ac dc 41 87 33 49 c1 b6 d2 ee c0
       -24.326872 27.58399 -12.57508 -7.4632215
000050 15 c4 a8 c1 44 8b cc 41 45 e2 24 c1 15 47 07 c1
       -21.095743 25.568 -10.305242 -8.454854
000060 db cc dc c1 29 af e9 41 e6 23 6b c1 47 06 20 c1
       -27.600027 29.210527 -14.696264 -10.001533
000070 bf f3 c0 c1 17 6a d8 41 9d 8f 3e c1 ec d2 18 c1
       -24.119017 27.051802 -11.910062 -9.551495
000080 2e 74 da c1 6f 7c 01 42 6f 46 65 c1 0d 79 27 c1
       -27.306728 32.371517 -14.329696 -10.467053
000090 8d bc e3 c1 55 96 08 42 3a b1 76 c1 cd e4 29 c1
       -28.467066 34.14681 -15.418268 -10.61836
0000a0 a9 7e b6 c1 ea 7f c3 41 a0 81 2d c1 74 03 e1 c0
       -22.811846 24.437458 -10.844147 -7.0316715
0000b0 8a 11 ad c1 b3 11 b5 41 81 76 23 c1 99 05 d7 c0
       -21.633564 22.633642 -10.216432 -6.7194333
0000c0 e5 2d fd c1 1d 71 a0 41 c5 40 3d c1 12 17 f6 c0
       -31.64741 20.055231 -11.828313 -7.690316
0000d0 2e 4e 17 c2 9c 20 ca 41 d5 ba 80 c1 ce 73 08 c1
       -37.826347 25.265923 -16.091227 -8.528273
0000e0 1f fc c5 c1 a1 94 ee 41 1e 16 22 c1 77 58 06 c1
       -24.748106 29.822573 -10.1304 -8.396598
0000f0 e8 f4 e7 c1 0f ed 14 42 9f 1e 88 c1 37 71 1e c1
       -28.994583 37.231503 -17.014952 -9.90264

RA f4 [200, 3]
000000 c5 20 20 40 ce 88 12 40 5b d3 f4 3f eb e2 26 3f
       2.502 2.2896 1.9127 0.6519
000010 31 08 dc 3f 94 f6 5a 40 5e 4b 68 40 5a f5 45 40
       1.719 3.4213 3.6296 3.0931
000020 95 65 e0 3f 52 49 f5 3f 73 68 19 40 58 a8 49 40
       1.7531 1.9163 2.397 3.1509
000030 de 93 ff 3f 55 30 c2 3f a7 e8 80 3f c3 64 2a be
       1.9967 1.5171 1.0071 -0.1664
000040 ba 6b 05 40 ac 1c 32 40 93 18 44 3f 86 c9 24 3f
       2.0847 2.783 0.766 0.6437
000050 5b b1 4f 40 0c 93 c9 3e 79 58 f0 3f 02 2b 8f 40
       3.2452 0.3937 1.8777 4.474
000060 33 33 87 40 ce aa 4b 40 d6 56 24 40 5d dc 84 40
       4.225 3.1823 2.5678 4.1519
000070 d9 ce 3b 40 5d dc 66 3f 90 31 03 40 fa 7e 52 40
       2.9345 0.9018 2.0499 3.289
000080 01 de 66 40 41 f1 23 40 80 48 b7 3f 67 44 29 3e
       3.6073 2.5616 1.4319 0.1653
000090 48 50 2c 40 48 e1 26 40 94 f6 36 3f 25 75 2e 40
       2.6924 2.6075 0.7147 2.7259
0000a0 10 e9 57 3f 48 e1 1a 40 5c 8f 4a 40 47 03 78 40
       0.8434 2.42 3.165 3.8752
0000b0 0a d7 c3 3e de 71 4e 40 9d 80 06 40 0b 24 f0 3f
       0.3825 3.2257 2.1016 1.8761
0000c0 69 6f e8 3f c2 86 f7 3f ec 51 38 3d 3d 2c d4 3f
       1.8159 1.9338 0.045 1.6576
0000d0 4f af 64 3f 7b 83 2b 40 a0 1a 37 40 10 e9 37 3d
       0.8933 2.6799 2.861 0.0449
0000e0 64 3b d7 3f 8c b9 53 40 30 2a 19 3f f6 28 54 40
       1.6815 3.3082 0.5983 3.315
0000f0 8a 8e 84 40 c5 8f 81 40 06 81 15 3f 6a bc 38 40
       4.1424 4.0488 0.584 2.8865
000100 83 c0 86 40 87 a7 07 bf d8 f0 60 40 db f9 32 40
       4.211 -0.5299 3.5147 2.7965
000110 4f 40 23 40 69 00 c7 3f e9 48 16 40 8c db 58 bf
       2.5508 1.5547 2.3482 -0.8471
000120 1e e1 28 3f e3 c5 0a 40 56 d7 5f c0 17 67 10 bf
       0.659685 2.168328 -3.497518 -0.564073
000130 88 0e 35 3f 2b 51 13 c0 41 10 a0 3f 86 72 f4 3f
       0.707253 -2.301829 1.250496 1.909745
000140 92 ea 0d c0 a2 08 1d 40 2e 3c 2a 40 28 b5 d3 bf
       -2.217442 2.453652 2.659923 -1.653966
000150 0c 73 f2 3e 43 e2 92 3f 5b 26 cd bf ad be fa be
       0.473534 1.14753 -1.602733 -0.489736
000160 dc d7 a5 3f 07 b5 65 c0 37 8a 5c 3f 4c 35 2c 40
       1.29565 -3.589174 0.861484 2.690753
000170 cd bb 8d c0 10 7a aa bf 29 26 6f 3d 4b 39 f9 bf
       -4.429175 -1.33185 0.058386 -1.947061
000180 a5 be 0d 40 fc 8b 4a 40 fa b3 4b bf ae 9d 50 40
       2.214761 3.164794 -0.795715 3.259624
000190 37 89 e5 3f 9b ae bf bf 3b 89 37 40 3a cf 51 40
       1.79325 -1.497516 2.867751 3.278273
0001a0 04 92 1d c0 67 0c 8b bf 63 ee 8c 3f 46 d2 86 c0
       -2.462037 -1.086316 1.101025 -4.213168
0001b0 fb 92 b3 3f 3c 66 80 bf a3 02 8a c0 10 e9 67 be
       1.402923 -1.00312 -4.312822 -0.226475
0001c0 de e5 03 c0 2a 8d 4b c0 3f 57 8b 3f 60 23 81 be
       -2.060905 -3.180491 1.0886 -0.252223
0001d0 4f 3f 4f c0 8d 5d d6 3f 59 dc 7f 3f 4d 4e 31 c0
       -3.238239 1.67473 0.999456 -2.770404
0001e0 e5 9d 03 3e f0 14 76 bf 7a aa 1e c0 ca 8a 11 3f
       0.128532 -0.961257 -2.479155 0.568524
0001f0 5e 11 0a c0 36 1e 8a c0 cd ac 07 40 1a 36 5e bf
       -2.15731 -4.316188 2.119922 -0.868013
000200 55 5f a5 c0 ec 34 6a bf 0e 4c 36 c0 ac 55 35 c0
       -5.167887 -0.91487 -2.848392 -2.833354
000210 61 54 5a 3f 4e 99 e1 3f 91 f2 2b c0 92 96 08 40
       0.85285 1.762491 -2.68668 2.13419
000220 51 bb 6f 3f 7f dc e6 bf 0a 2f 1f 40 6f 82 ab 3f
       0.936452 -1.803604 2.487246 1.339918
000230 f4 fe 5a c0 76 32 18 3f e0 68 37 c0 76 ff 9d c0
       -3.421811 0.59452 -2.865776 -4.937434
000240 6d e7 b3 3f f5 b9 82 bf 8c db 8a c0 07 5f 18 be
       1.4055 -1.0213 -4.3393 -0.1488
000250 05 c5 03 c0 d0 b3 49 c0 5b 42 8e 3f d8 81 93 be
       -2.0589 -3.1516 1.1114 -0.2881
000260 af 94 4d c0 19 73 d7 3f fc a9 81 3f 1b 0d 30 c0
       -3.2122 1.6832 1.013 -2.7508
000270 3b 01 0d 3e 54 74 74 bf e7 1d 1f c0 b0 72 18 3f
       0.1377 -0.9549 -2.4862 0.5955
000280 05 34 09 c0 d1 22 89 c0 41 82 06 40 9e 5e 59 bf
       -2.1438 -4.2855 2.1017 -0.8491
000290 e5 d0 a4 c0 8d 97 5e bf 5d fe 33 c0 f5 b9 36 c0
       -5.1505 -0.8695 -2.8124 -2.8551
0002a0 b0 72 68 3f 32 77 e5 3f ba da 2e c0 c1 a8 04 40
       0.908 1.7927 -2.7321 2.0728
0002b0 88 85 6a 3f b4 59 dd bf 02 2b 1f 40 81 95 ab 3f
       0.9161 -1.7293 2.487 1.3405
0002c0 7f fb 5a c0 9c c4 10 3f 46 25 39 c0 27 c2 9e c0
       -3.4216 0.5655 -2.8929 -4.9612
0002d0 9d 11 25 3f ab cf 05 40 ac 1c 62 c0 1f f4 0c bf
       0.6448 2.0908 -3.533 -0.5506
0002e0 61 54 32 3f 1b 9e 12 c0 7a 36 9b 3f f8 53 fb 3f
       0.6966 -2.2909 1.2126 1.9635
0002f0 45 47 12 c0 f1 63 1c 40 68 b3 26 40 bf 7d dd bf
       -2.2856 2.4436 2.6047 -1.7304
000300 b9 8d e6 3e f3 8e 8b 3f a8 c6 c3 bf 8f 53 f4 be
       0.4503 1.0903 -1.5295 -0.4772
000310 d8 81 a3 3f d9 3d 61 c0 44 fa 6d 3f 5d dc 2a 40
       1.2774 -3.5194 0.9296 2.6697
000320 bd e3 8c c0 ee 5a aa bf 27 a0 09 3c 02 2b ff bf
       -4.4028 -1.3309 0.0084 -1.9935
000330 47 72 0d 40 51 6b 4a 40 89 41 50 bf b5 37 4c 40
       2.2101 3.1628 -0.8135 3.1909
000340 da 1b ec 3f c1 39 bb bf b7 d1 38 40 52 b8 52 40
       1.8446 -1.4627 2.8878 3.2925
000350 47 72 1d c0 9e ef 8f bf d7 12 92 3f 0c 02 89 c0
       -2.4601 -1.1245 1.1412 -4.2815
000360 98 4c 0d 40 d2 c6 4e 40 20 2a a9 bf ec 13 ca 3f
       2.2078 3.230885 -1.321598 1.578733
000370 a6 2a 2f 40 aa 9b 6b 3f 40 12 28 40 3d 70 88 40
       2.736978 0.920344 2.626114 4.263701
000380 6d 01 0f c0 c8 08 06 40 94 bc 65 40 dd 0c 97 bd
       -2.234462 2.094286 3.589635 -0.073755
000390 72 19 03 40 53 91 01 40 2e 70 d5 bf 2d 78 01 3f
       2.048428 2.024495 -1.667486 0.50574
0003a0 f7 3c 1c 40 b2 9f 41 3f f4 32 0b 40 9e 28 eb 3f
       2.441221 0.756343 2.174985 1.837177
0003b0 01 df 85 3f e9 45 cb 3f 6e c0 4d 40 0a 69 00 40
       1.045868 1.588071 3.21487 2.006411
0003c0 f7 3d 4d 40 32 cb 9d 40 d8 f0 f2 bf bc 03 36 40
       3.206907 4.931054 -1.897975 2.843978
0003d0 02 45 7d 40 d2 fe 47 c0 11 ac ec 3f f9 0f 96 40
       3.957337 -3.124928 1.849001 4.68945
0003e0 f8 1b 6d 3d b6 64 0e 40 da 1f e6 3f 29 95 28 c0
       0.057888 2.224897 1.797847 -2.634104
0003f0 e9 0c 7d 40 97 8f fc 3f 66 a1 e5 3e 93 37 da 3f
       3.953913 1.973132 0.448497 1.704821

RB f4 [258, 3]
000000 eb e2 26 3f fb 3a 30 3f 24 28 4e 3f f6 28 4c c0
       0.6519 0.6884 0.8053 -3.19
000010 b3 ea 0f c0 2c d4 82 bf 2d 21 33 c0 1d 5a 24 c0
       -2.2487 -1.0221 -2.7989 -2.568
000020 cc 5d 13 c0 8a b0 a1 bf b4 c8 96 bf 1b 2f 85 bf
       -2.3026 -1.2632 -1.178 -1.0405
000030 5b 42 be bd 45 47 b2 be b2 9d 1f bf 01 4d 14 c0
       -0.0929 -0.3482 -0.6235 -2.3172
000040 a1 67 bb bf 53 05 a3 be d0 44 58 3f af 25 24 be
       -1.4641 -0.3184 0.8448 -0.1603
000050 cc ee b1 bf 5c 8f 42 be 81 04 05 3e 71 3d 1a 3f
       -1.3901 -0.19 0.1299 0.6025
000060 9f cd a2 bf 09 1b ee bf 53 96 29 c0 4b c8 83 c0
       -1.2719 -1.8602 -2.6498 -4.1182
000070 ed 9e 24 c0 96 21 0e bf 9d 11 55 c0 c5 fe 4a c0
       -2.5722 -0.5552 -3.3292 -3.1718
000080 f9 31 42 c0 89 41 60 3f 1a 51 2a 3f 6e a3 81 3e
       -3.0343 0.876 0.6653 0.2532
000090 17 48 50 c0 a7 e8 18 c0 10 e9 c7 bf 2a a9 3f c0
       -3.2544 -2.3892 -1.5618 -2.9947
0000a0 d0 44 44 c0 39 b4 c8 be de 71 ca bf 13 f2 91 bf
       -3.0667 -0.392 -1.5816 -1.1402
0000b0 be 30 59 bf c5 20 10 bf a1 67 33 bd 40 13 51 bf
       -0.8484 -0.563 -0.0438 -0.8167
0000c0 2b 18 1d c0 d2 6f a7 bf 34 80 e7 bf bc 96 50 3e
       -2.4546 -1.3081 -1.8086 0.2037
0000d0 1f 85 eb bd b1 50 8b 3e 7b 83 ef be 9f 3c 4c 3f
       -0.115 0.2721 -0.4678 0.7978
0000e0 ec 51 d8 bf 79 58 d8 bf 12 83 14 c0 6e a3 e1 3e
       -1.69 -1.6902 -2.3205 0.4407
0000f0 b0 03 81 c0 cc ee 29 c0 3d 9b 11 c0 5d fe 5f c0
       -4.0317 -2.6552 -2.2751 -3.4999
000100 9a 77 7c c0 fa ed eb 3a b9 c7 ea bf 92 97 2f c0
       -3.9448 0.0018 -1.83422 -2.743626
000110 0a 65 1f 40 2a c8 19 c0 49 11 2c c0 0c 93 a3 3f
       2.490542 -2.402842 -2.688555 1.277925
000120 60 e9 30 bf b4 90 f0 bf 42 ce 2d 40 d7 89 fb bf
       -0.691061 -1.879416 2.715714 -1.965144
000130 43 a9 df bf 1b 80 ad 3e 16 32 8f be f7 ad 7e bf
       -1.747353 0.338868 -0.279679 -0.994842
000140 ed 7f d8 3f f0 6a 61 3f 71 1d a3 bd 18 b3 fb 3f
       1.691404 0.880538 -0.079646 1.966403
000150 df 19 6d bf 03 cd 6f bf 97 e3 01 3f 05 14 9a 3f
       -0.926176 -0.936722 0.507379 1.203736
000160 c8 ed 37 3f 9d 46 7e 3f 82 8e ba 3f 3e ed 00 be
       0.718472 0.993265 1.457474 -0.125905
000170 7d 5d 3d 40 ae d3 06 c0 19 3a 5a c0 e1 0a 52 40
       2.958831 -2.10667 -3.409796 3.281914
000180 fb 79 52 c0 62 f4 4f c0 28 d1 86 3f a1 2f 9d bd
       -3.288695 -3.249291 1.053258 -0.076751
000190 68 b1 ee bf 97 1b 6e 40 2f f8 20 c0 47 3d d0 bf
       -1.864789 3.720434 -2.515148 -1.62687
0001a0 2a c9 22 bf c8 08 44 3f 53 af 1b 3f ee 23 37 3d
       -0.635882 0.765759 0.608144 0.044712
0001b0 c4 25 12 c0 4c 1c 49 3f e5 64 68 40 10 e8 ae bf
       -2.283555 0.785588 3.631158 -1.366457
0001c0 27 d9 9e 3f 44 5c 91 40 39 80 e6 bf ab 5f b9 3e
       1.241002 4.542513 -1.800788 0.362058
0001d0 69 ab 1c 40 c8 b3 4b bc 2c 2c b8 3f 0e 74 85 40
       2.447962 -0.012433 1.438848 4.170417
0001e0 bc e6 e5 be 29 75 09 3f f6 d3 03 40 13 b6 ff 3d
       -0.449026 0.536944 2.059812 0.124859
0001f0 ae f1 39 3e 56 b9 3c 3f d5 b4 a3 3e a3 94 84 3f
       0.181586 0.737203 0.319739 1.035786
000200 ea 22 3f 40 09 a9 a3 3f cb 14 93 3e 80 b8 eb 3e
       2.986506 1.278596 0.287268 0.460392
000210 bb 47 52 bf ce c7 85 be 25 af 8e bd e6 e7 55 c0
       -0.821407 -0.26129 -0.06967 -3.342279
000220 21 ca 2f 3f 8f fd 7a 40 74 5f da bf 07 d1 c6 3f
       0.686678 3.921726 -1.706038 1.553254
000230 69 82 b1 40 18 b2 1f c0 5f 46 b1 3b 66 a3 cf 3f
       5.547169 -2.495245 0.00541 1.622174
000240 55 f7 1c 3f e6 ae db 3f d2 a7 9f 40 56 11 d6 be
       0.613149 1.716275 4.989236 -0.418101
000250 a9 4b fe be 8d 28 79 bf 52 27 14 c0 2e 90 40 3f
       -0.496671 -0.973275 -2.3149 0.7522
000260 39 d6 69 40 42 60 b5 bf 59 86 a0 3f 40 13 93 40
       3.6537 -1.417 1.2541 4.5961
000270 48 e1 ea bf c4 42 cd 3e de 02 19 40 e1 0b 93 bd
       -1.835 0.4009 2.3908 -0.0718
000280 35 ef b0 3f f2 41 87 40 ce aa ef be 05 34 11 3f
       1.3823 4.2268 -0.4681 0.5672
000290 46 b6 07 40 8b fd e5 3d 05 34 51 3e f4 fd 44 3f
       2.1205 0.1123 0.2043 0.7695
0002a0 96 b2 cc 3e 3b 70 86 3f 8e 75 41 40 a1 d6 a4 3f
       0.3998 1.0503 3.0228 1.2878
0002b0 95 65 a8 3e 91 0f fa 3e 85 eb 51 bf d4 9a 86 be
       0.3289 0.4884 -0.82 -0.2629
0002c0 72 8a 8e bd 36 cd 57 c0 ae b6 22 3f ca 54 79 40
       -0.0696 -3.3719 0.6356 3.8958
0002d0 74 24 df bf 88 63 c5 3f f9 0f b3 40 ff b2 1f c0
       -1.7433 1.5421 5.5957 -2.4953
0002e0 17 b7 d1 3b e9 b7 cf 3f 70 ce 28 3f ba da e2 3f
       0.0064 1.6228 0.6594 1.7723
0002f0 ed 0d 9e 40 57 ec cf be 77 be ff be f0 a7 76 bf
       4.9392 -0.4061 -0.4995 -0.9635
000300 1f 85 e3 bf 68 91 2d c0 dc 68 20 40 b0 72 1c c0
       -1.7775 -2.712 2.5064 -2.4445
000310 e4 14 29 c0 6d e7 a3 3f c0 ec 2e bf f0 16 f0 bf
       -2.6419 1.2805 -0.6833 -1.8757
000320 bc 05 2e 40 eb 73 fd bf f9 31 de bf 94 87 a5 3e
       2.7191 -1.9801 -1.7359 0.3233
000330 90 31 97 be 6e 34 80 bf 9c c4 d8 3f 86 38 66 3f
       -0.2953 -1.0016 1.6935 0.8993
000340 5d dc c6 bd 39 b4 f8 3f 29 ed 6d bf ed 0d 6e bf
       -0.0971 1.943 -0.9294 -0.9299
000350 0f 9c 03 3f 39 d6 a5 3f 06 12 34 3f 94 f6 76 3f
       0.5141 1.2956 0.7034 0.9647
000360 e3 a5 bb 3f 22 6c f8 bd 10 58 41 40 3c bd 06 c0
       1.466 -0.1213 3.021 -2.1053
000370 13 f2 59 c0 75 02 52 40 81 95 53 c0 f0 85 51 c0
       -3.4054 3.2814 -3.306 -3.2738
000380 22 6c 88 3f 22 fd f6 bd 89 41 f0 bf f6 97 69 40
       1.0658 -0.1206 -1.877 3.6499
000390 38 f8 1e c0 b6 84 d4 bf 14 d0 24 bf 55 30 4a 3f
       -2.4839 -1.6603 -0.6438 0.7898
0003a0 9e 5e 29 3f 7f d9 bd 3d 5f 99 b5 3f 25 58 30 3f
       0.6616 0.0927 1.418743 0.688845
0003b0 c5 8c 64 bf 85 d0 04 c0 52 28 f7 3f 0e f6 06 40
       -0.892773 -2.075227 1.930918 2.108768
0003c0 c5 53 cf bf 88 ba 5f 3f 8e ca 3d 40 6b 0c 0f c0
       -1.619744 0.87394 2.965488 -2.235133
0003d0 8d ee cc 3f 84 63 3e 3f d4 80 a5 bf 47 1c 8a c0
       1.60103 0.743706 -1.292994 -4.315952
0003e0 f9 9d 16 3f 50 19 0b bf 4f bd 90 c0 b4 3e f5 be
       0.588348 -0.543355 -4.523109 -0.478994
0003f0 94 a5 a0 bf 1c 28 b8 be 2e 58 1b 40 59 c2 ec bf
       -1.255053 -0.359681 2.427257 -1.849681

qA f4 [200, 1]
000000 cd e6 67 3f e4 be 45 be f1 d2 7f bf 1d be 23 bf
       0.9058655 -0.193111 -0.99931246 -0.63961965
000010 c3 80 79 bf f4 01 e8 3d 5e e1 0d 3e 94 f6 f4 3d
       -0.974621 0.113284975 0.13855502 0.119610935
000020 46 0e c9 3e 41 b6 ce 3e 72 d4 b5 3e bd 6d c1 3e
       0.39268702 0.40373424 0.35513645 0.37779036
000030 62 1c 68 3f 2c 33 46 be e3 c6 7f bf 7b da 23 bf
       0.9066831 -0.19355458 -0.9991285 -0.6400525
000040 43 a6 79 bf 6c 18 eb 3d 94 5d 0c 3e 70 b1 f4 3d
       -0.9751932 0.114792675 0.13707572 0.11947906
000050 a2 0d c9 3e 65 c0 ce 3e 8c d8 b5 3e 49 a8 c1 3e
       0.39268214 0.4038116 0.35516775 0.37823704
000060 30 a3 7a be 88 9e 29 3e fb 4b bc 3e e2 88 08 bf
       -0.24476314 0.16564381 0.36776718 -0.53333867
000070 e0 db ed be d8 97 e2 be e4 f7 28 3e 10 63 e5 3d
       -0.46456814 -0.44256473 0.16500813 0.11200535
000080 ee 2e 4f 3e 34 ce 0b 3e 4a 39 22 3e e3 4b c1 3e
       0.20232746 0.13652879 0.15842167 0.3775321
000090 04 94 60 be 08 d4 20 3e fc 12 a0 3e 4a 95 fc be
       -0.21931463 0.15705884 0.31264484 -0.4933265
0000a0 6b 7d 02 bf 60 63 c8 be 1e 69 25 3e 90 5b fe 3d
       -0.5097262 -0.39138317 0.1615338 0.12419808
0000b0 a2 9b 24 3e fa 19 2b 3e 28 59 1f 3e ac ed bf 3e
       0.16074994 0.16709128 0.15561354 0.37486017
0000c0 64 8a 62 be 0c a1 43 3e 0c eb 9d 3e a4 2f 00 bf
       -0.22123104 0.19104403 0.3084339 -0.50072694
0000d0 1c bb 02 bf e0 07 c7 be a4 83 2e 3e 58 6f dc 3d
       -0.51066756 -0.38873196 0.17042404 0.10763425
0000e0 2a 3f 25 3e 3e 96 28 3e 6c fd 1c 3e fc 9f ba 3e
       0.16137376 0.16463563 0.15331048 0.36450183
0000f0 18 0d 62 be f8 e6 45 3e e4 30 9e 3e 80 21 00 bf
       -0.22075307 0.19326389 0.30896676 -0.50051117
000100 8a a7 02 bf a6 25 c8 be 58 85 2e 3e dc c1 db 3d
       -0.51036894 -0.39091223 0.17043054 0.10730335
000110 10 fd 26 3e b0 b3 25 3e bc 7d 1c 3e 90 cf ba 3e
       0.16307473 0.16181827 0.15282339 0.36486483
000120 38 3c 69 3f d4 cb 4b be 72 d9 83 bf bb bd 12 bf
       0.9110751 -0.19901973 -1.0300734 -0.57320756
000130 7d c5 7b bf b0 72 e5 3d 78 64 12 3e 4c 54 bb 3d
       -0.9834822 0.112035155 0.14296138 0.09146938
000140 e5 2e d0 3e 94 1b ce 3e d6 92 ac 3e 83 98 c3 3e
       0.40660778 0.40255415 0.33705777 0.38202295
000150 02 80 60 3f fc 62 31 be 16 5b 82 bf 95 a7 1b bf
       0.87695324 -0.17322916 -1.0184047 -0.60802585
000160 6b 1c 7c bf ac d3 04 3e 5c 54 0b 3e a8 c7 b1 3d
       -0.9848086 0.12971371 0.136064 0.086806595
000170 47 18 d2 3e 20 48 d0 3e d0 ac b5 3e ab 12 c4 3e
       0.41034147 0.40680027 0.35483408 0.38295493
000180 06 14 67 3f 44 9d 43 be 5a 37 80 bf bf 9f 22 bf
       0.9026493 -0.19102961 -1.0016892 -0.63525003
000190 11 1e 78 bf 44 4c e9 3d 82 9f 0d 3e 34 88 f7 3d
       -0.9692088 0.113915 0.13830379 0.120865256
0001a0 d0 80 c7 3e 84 30 cd 3e 7f 89 b5 3e da bf c0 3e
       0.38965464 0.40076077 0.35456464 0.3764637
0001b0 8b a9 67 3f 1c 7a 45 be 35 d1 7f bf d1 21 23 bf
       0.9049308 -0.19284862 -0.999286 -0.63723475
0001c0 5d ff 78 bf b0 bd eb 3d 12 72 0c 3e 48 ec f7 3d
       -0.97264653 0.115107894 0.1371539 0.12105614
0001d0 15 d0 c7 3e 33 b2 cd 3e a6 eb b4 3e 57 bd c1 3e
       0.39025941 0.40175018 0.35336035 0.37839767
0001e0 d2 b8 81 be cc e0 59 3e 67 41 be 3e 3f 79 08 bf
       -0.2533632 0.2127716 0.37159273 -0.53310007
0001f0 b5 3d 04 bf ba 56 b4 be a8 7e 2b 3e c0 00 9b 3d
       -0.5165666 -0.35222417 0.16747534 0.075685024
000200 08 14 1e 3e 88 3d f7 3d 9e 7b 44 3e cf b4 b8 3e
       0.15437329 0.12072283 0.19187781 0.36075446
000210 30 e3 61 be 70 14 43 3e fa c0 9d 3e f9 01 00 bf
       -0.22059321 0.19050765 0.30811292 -0.5000301
000220 6b 91 02 bf ae 94 c6 be aa 84 2e 3e 78 a1 dc 3d
       -0.5100314 -0.3878531 0.17042795 0.10772985
000230 f0 af 25 3e 36 3a 27 3e d2 d7 1b 3e 28 96 ba 3e
       0.16180396 0.163308 0.15219048 0.36442685
000240 92 05 24 3f c8 ac 01 bf a0 4a 25 be f8 ac 3e 3d
       0.64071 -0.5065427 -0.16141748 0.046551675
000250 e8 9a 15 bf 3c 8c 58 bf 86 eb 14 bf 56 2e 31 3e
       -0.58439493 -0.8458898 -0.5817188 0.17302832
000260 58 03 0c 3e ca e1 32 3e 0c 0a bf 3d e0 38 17 3e
       0.1367315 0.17468944 0.09328088 0.1476779
000270 68 5d ce 3d 18 ef 9f 3d e6 52 b6 3e 6a 82 be 3e
       0.100764096 0.078092754 0.3561012 0.37208873
000280 5b 72 b8 3e b6 29 2a 3f a4 a2 f6 be c0 85 3b be
       0.36024746 0.66469896 -0.4817096 -0.1831274
000290 38 7b 02 3d 98 e4 14 bf 30 bd 53 bf 5e 3c 17 bf
       0.03185579 -0.58161306 -0.8271055 -0.5907649
0002a0 58 0b 31 3e 84 01 0e 3e 82 48 1d 3e 00 32 e8 3d
       0.17289484 0.13867766 0.15359691 0.11337662
0002b0 6e c4 20 3e bc b0 e3 3d b0 3f 79 3d 48 89 b5 3e
       0.15699932 0.11117694 0.060851753 0.354563
0002c0 b5 cd b2 3e 86 7a b6 3e 77 49 55 3f 94 14 c1 be
       0.34922567 0.35640353 0.83315223 -0.37711012
0002d0 fe eb d7 be 40 58 17 bf a8 f7 26 bf 60 a2 1b 3e
       -0.42172235 -0.59119034 -0.65221643 0.1519866
0002e0 40 9b 05 3e 82 a3 06 3e 8e 12 1f 3e 44 f3 2f 3e
       0.13047504 0.13148311 0.15534422 0.17182642
0002f0 e1 99 ef 3e ca da 5e 3f 28 46 c9 be e8 b9 da be
       0.46797088 0.87052596 -0.39311337 -0.4271996
000300 96 d3 20 bf ec e8 1b bf 8c a6 2e 3e 24 71 16 3e
       -0.62822855 -0.60902286 0.1705572 0.14691597
000310 c8 df a8 3d 58 df 25 3e 3a 40 35 3e f6 6f e5 3e
       0.08245808 0.1619848 0.17700282 0.44811982

muA f4 [200, 3]
000000 50 e4 96 bc 30 8e 87 3c 48 28 25 3d 58 72 1a 3e
       -0.018419415 0.016547292 0.04032162 0.15082681
000010 66 13 96 3d 48 0a 48 bd 18 25 52 bd f8 83 49 3d
       0.07327919 -0.04883793 -0.051304907 0.04919812
000020 80 0a 4c bc 4a 56 06 be a4 ba c4 bd 10 bb bb bc
       -0.012453675 -0.13118854 -0.096059114 -0.022916347
000030 60 83 4c bd a8 29 34 bd d0 88 ca bc d0 86 0c bd
       -0.049929976 -0.04398504 -0.02472344 -0.034308255
000040 e0 33 ba 3c 08 aa 32 bd f0 a1 81 3c 18 4d 56 bd
       0.022729814 -0.043619186 0.015824288 -0.052319616
000050 a0 e5 6a bc c0 1f cd bb a0 76 28 3c 18 22 61 3d
       -0.014336973 -0.0062598884 0.010282189 0.054964155
000060 a0 e6 7c 3c 00 4c b1 3b 50 9b c6 3c 20 75 49 3c
       0.015435845 0.0054106712 0.02424398 0.012295991
000070 00 26 99 3a c0 95 cd bc 00 1c da 39 00 e5 f0 3c
       0.0011684299 -0.02509582 0.00041601062 0.02940607
000080 60 ad 94 3c 00 d5 d0 3b 80 79 db bb b0 78 a5 bc
       0.018149078 0.006373048 -0.0066978335 -0.02019915
000090 a0 b4 84 3c 00 4e 9a bb 68 a1 36 3d 28 e2 46 3d
       0.01619941 -0.0047090054 0.044587523 0.048555523
0000a0 e2 2d 17 3e e0 e6 a2 bd f8 4c 4f bd 60 e8 93 3c
       0.14763597 -0.07954192 -0.050610512 0.018055141
0000b0 4c 65 44 3d c8 24 b0 bd 1e 07 0f be 80 85 3b 3c
       0.047948167 -0.086007655 -0.13967559 0.011445403
0000c0 60 6b 31 bd e8 33 61 bd e0 e1 14 bc d8 91 6f bd
       -0.04331529 -0.054981142 -0.009087056 -0.058488697
0000d0 00 05 4a 3c 40 71 9a 3b c0 1d 12 3c 48 cc 03 bd
       0.012330294 0.0047132075 0.008918226 -0.03217724
0000e0 b8 88 3a bd c8 52 0d 3d 00 5c f9 bb e8 09 33 3d
       -0.04554054 0.034502774 -0.007609844 0.04371062
0000f0 a0 d4 dd 3c 40 a7 cd 3b 00 5f 12 3c 00 c7 36 bc
       0.027078927 0.0062760413 0.008933783 -0.011155844
000100 00 fd 58 3c 10 e8 b2 bc 60 4c 18 3c 00 13 a5 3c
       0.013243914 -0.021839172 0.009295553 0.020150661
000110 20 69 da 3c 40 71 26 bc 80 ac 1d 3b 60 0b 9f bc
       0.026661456 -0.010158837 0.0024059117 -0.019414604
000120 b8 94 c1 bd 20 b8 33 bd 20 4d ac bc 7e f2 8a 3d
       -0.09452194 -0.043876767 -0.02103287 0.06784533
000130 68 ff 63 3d f0 ac b8 bc 80 9c 4c 3c 40 92 e7 bc
       0.055663496 -0.0225434 0.012488484 -0.02826798
000140 28 a6 75 3d 98 88 44 bd 40 1a ac bb a0 b0 11 3c
       0.059972912 -0.04798183 -0.0052521527 0.008892208
000150 00 66 62 ba 78 8b 18 3d 28 7d 9f bd f8 1c 8e 3d
       -0.0008636415 0.037242383 -0.077875435 0.06939119
000160 68 a4 3b 3d 70 29 a5 3c 60 09 02 3c 10 a6 d0 3c
       0.045811087 0.02016136 0.0079368055 0.02546981
000170 a8 8b 49 bd b8 f7 4b bd d8 29 3c bd 68 d3 0d 3d
       -0.049205452 -0.04979679 -0.045938343 0.03462544
000180 10 dc 93 bc 90 42 9d 3c c8 fb 1a 3d 40 bf ef 3c
       -0.01804927 0.019196779 0.037837774 0.029266
000190 f0 f9 3c bd c0 bb a6 3b e0 cd 68 3c c0 0a c8 3c
       -0.046136796 0.0050882995 0.014209241 0.024419188
0001a0 28 72 1a bd 50 fc a0 bc c0 32 bc bb 10 38 b3 bc
       -0.037706524 -0.019651562 -0.0057433546 -0.021877319
0001b0 90 63 59 bd ac d7 f2 bd c8 dd 0b bd d0 15 78 3d
       -0.053073466 -0.118575424 -0.034147054 0.060567677
0001c0 54 ca 89 3d c0 de fc bc e8 7e 6c bd 80 e9 c0 3c
       0.06728044 -0.030867934 -0.057738215 0.023548841
0001d0 16 d0 c3 3d 20 6c ef bc a0 cb 45 bd 00 4a a6 bb
       0.095611736 -0.029226363 -0.048289895 -0.0050747395
0001e0 5c 91 6d 3d c0 0f 13 3c 9a c0 9e bd e8 43 2b 3d
       0.057999954 0.008975923 -0.077515796 0.041812807
0001f0 30 ff 99 3d a0 3b 65 3c e8 33 29 3d 40 16 34 3c
       0.07519376 0.0139912665 0.041309267 0.010991633
000200 d0 ed 3c bd e0 f7 4b bd f0 27 4f bd a8 b2 09 3d
       -0.046125233 -0.04979694 -0.050575197 0.033617646
000210 80 1a 35 bd 20 2d cf 3c 80 12 7f 3b 30 1a 8e 3c
       -0.044214725 0.025290072 0.003892094 0.017346472
000220 00 97 1e bc 80 71 2d 3d 68 2a 0e 3d a0 db 0d 3c
       -0.009679556 0.04234457 0.03470841 0.00865832
000230 50 39 e4 bc 00 e2 20 3b 60 63 cc bc d0 48 c1 bc
       -0.02785936 0.002454877 -0.02494973 -0.02359429
000240 d8 43 5e bd ea fa ed bd d0 14 16 bd 5c aa 6f 3d
       -0.05426392 -0.11620124 -0.036640942 0.058512077
000250 cc ce 81 3d 80 cb b1 bc e8 bd 4e bd 80 b5 b2 3c
       0.063382715 -0.021703482 -0.050474077 0.021815062
000260 00 c4 bd 3d 00 8f de bc 10 b9 3b bd 00 5c 08 bb
       0.092659 -0.027167797 -0.045830786 -0.002080679
000270 84 11 73 3d c0 bc 53 3c 76 8d 92 bd 10 81 35 3d
       0.059342876 0.0129234195 -0.07155888 0.044312537
000280 cc 73 a4 3d 60 dc 7b 3c 90 01 1f 3d a0 82 4b 3c
       0.08029899 0.015372366 0.03881985 0.01242128
000290 88 cd 2b bd b0 02 59 bd c8 af 43 bd 60 c4 f3 3c
       -0.041944057 -0.05298108 -0.04777506 0.029756725
0002a0 38 04 1f bd 30 6f d8 3c 00 a4 ff b9 e0 97 4c 3c
       -0.038822383 0.026420206 -0.0004875958 0.012487382
0002b0 20 70 50 bc 30 6b 37 3d 30 d1 05 3d 00 bd 0e 3c
       -0.012722045 0.044779956 0.0326702 0.008712053
0002c0 f0 ea ff bc 00 40 b2 b8 40 e2 d7 bc b0 cb c9 bc
       -0.031239957 -8.499622e-05 -0.026353002 -0.024633259
0002d0 40 4d e0 bd a8 fa 73 bd a8 bc 36 bd 50 b8 82 3d
       -0.10952234 -0.059565216 -0.04461351 0.06382811
0002e0 f0 11 64 3d e0 68 b8 bc 40 5b 09 3c a0 98 15 bd
       0.05568117 -0.022510946 0.008383572 -0.036522508
0002f0 8a 97 cc 3d 28 3c 3c bd f0 18 f1 bc c0 ea be bb
       0.09989841 -0.045955807 -0.029430836 -0.005826324
000300 70 a5 cf 3c 40 76 50 3d ec 0f 9b bd e4 76 9e 3d
       0.025347441 0.050894022 -0.07571396 0.0773752
000310 64 a8 41 3d 50 3f a3 3c d0 fa 96 3c 00 75 06 3d
       0.04727973 0.01992765 0.018430144 0.032826424
000320 60 a4 37 bd 60 ea 4f bd c8 ec 4a bd c0 cf fe 3c
       -0.044834495 -0.050760627 -0.04954222 0.031104922
000330 c0 ed 95 bc a0 7e a2 3c 28 92 20 3d 50 2b ce 3c
       -0.018301845 0.01983577 0.039201885 0.025167137
000340 98 96 1d bd 40 4f 29 3c 60 84 68 3c 00 23 e1 3c
       -0.038473696 0.010333836 0.014191717 0.02748251
000350 b8 2a 0b bd 40 0c b9 bc 00 b0 77 bb 20 79 e7 bc
       -0.033976287 -0.022588849 -0.0037794113 -0.028256
000360 40 d4 a0 bb 50 2a d7 3c 98 bc 01 3d b0 c7 8f 3d
       -0.0049081147 0.026265293 0.031673998 0.07020509
000370 f4 43 c8 3d 7a 95 1d be 90 9a 73 bd 60 fd 01 3c
       0.09778586 -0.15389052 -0.059473574 0.007933944
000380 20 ac 07 3c a0 c1 31 bd 69 54 07 be 90 a9 97 3d
       0.008280784 -0.043397546 -0.13215794 0.07405388
000390 c0 63 63 bc 00 e5 9a bd 40 18 c0 3b 98 44 54 bd
       -0.013878763 -0.075632095 0.005862266 -0.05182323
0003a0 c0 7c 42 bc 40 fd b7 bc 10 f8 14 3d 40 2c 2d bd
       -0.011870563 -0.022459626 0.036369383 -0.04227853
0003b0 00 a6 60 bb 80 78 81 3b 40 cf d7 3c 90 1b 5c 3d
       -0.0034278631 0.0039511323 0.026343942 0.053737223
0003c0 20 45 6c 3c 10 fa a7 3c 20 4e 40 3c 00 04 a7 3a
       0.014420778 0.020504981 0.011737376 0.0012742281
0003d0 c0 e1 ee bb 80 1e dd bc 40 3b 20 bc b0 a6 05 3d
       -0.007290095 -0.026992083 -0.009779751 0.03262967
0003e0 40 d5 02 3c 00 ad b3 3a 40 ce 43 bc 10 af 82 bc
       0.007985413 0.0013708174 -0.011951029 -0.015952617
0003f0 d0 a8 ac bc 90 85 ef 3c d8 0a 08 3d 17 db 2e 3e
       -0.02107659 0.029238492 0.033213466 0.17075764

quadA f4 [200, 3, 3]
000000 94 a0 03 bc 14 85 0e bd 00 aa a8 3c 14 85 0e bd
       -0.00803389 -0.034794882 0.020588875 -0.034794882
000010 7e ab ce 3c e0 9e 56 bc 00 aa a8 3c e0 9e 56 bc
       0.025228258 -0.013099402 0.020588875 -0.013099402
000020 32 db 8c bc 9c 4f 2a 3d b8 f9 e3 3c f0 1f c8 bc
       -0.017194364 0.041579828 0.027829036 -0.024429291
000030 b8 f9 e3 3c 78 9f c4 bc 70 3d 80 bc f0 1f c8 bc
       0.027829036 -0.024001822 -0.015654296 -0.024429291
000040 70 3d 80 bc c0 ff 8f bc 68 d0 b2 3c f8 dd 62 3d
       -0.015654296 -0.017578006 0.021827891 0.055387467
000050 00 7e d2 bb f8 dd 62 3d 69 d6 8e bd 80 f9 b9 3b
       -0.006423712 0.055387467 -0.06974489 0.0056754947
000060 00 7e d2 bb 80 f9 b9 3b a0 44 44 3d 3d 70 b5 bc
       -0.006423712 0.0056754947 0.04791701 -0.022148246
000070 70 28 88 3c 60 45 b5 bc 70 28 88 3c de db 72 3d
       0.016620845 -0.022127807 0.016620845 0.059291713
000080 f8 75 f0 3c 60 45 b5 bc f8 75 f0 3c be 23 18 bd
       0.029353127 -0.022127807 0.029353127 -0.03714346
000090 21 c2 96 bd 0a 81 ba bd b0 20 3f 3c 0a 81 ba bd
       -0.07361246 -0.091066435 0.011665508 -0.091066435
0000a0 dc 4d c9 3c 38 6c ae bc b0 20 3f 3c 38 6c ae bc
       0.024573259 -0.021291837 0.011665508 -0.021291837
0000b0 52 dd 48 3d ac 56 33 3b 00 26 49 3c a0 fe e5 bb
       0.049039192 0.0027364893 0.012277126 -0.007018879
0000c0 00 26 49 3c 58 b2 9a 3a c0 35 99 bb a0 fe e5 bb
       0.012277126 0.0011802418 -0.004675597 -0.007018879
0000d0 c0 35 99 bb ea 57 80 bb 70 19 64 3c 60 68 cf 3b
       -0.004675597 -0.00391673 0.01392208 0.006329581
0000e0 a0 b0 8f bb 60 68 cf 3b 20 1a f2 bb 00 95 d1 ba
       -0.004385069 0.006329581 -0.0073883682 -0.001598984
0000f0 a0 b0 8f bb 00 95 d1 ba c0 18 d6 bb 80 5c 43 3c
       -0.004385069 -0.001598984 -0.006533712 0.011923909
000100 80 bd 47 3c 00 a9 52 ba 80 bd 47 3c c0 c2 1c bb
       0.012191176 -0.0008036047 0.012191176 -0.002391979
000110 80 19 92 ba 00 a9 52 ba 80 19 92 ba d0 2b 1c bc
       -0.0011146516 -0.0008036047 -0.0011146516 -0.00953193
000120 2a 24 ea 3b 60 f1 da 3b c0 62 fd bb 60 f1 da 3b
       0.0071454244 0.006681606 -0.007732719 0.006681606
000130 1b 10 0e bc 40 9a 04 bb c0 62 fd bb 40 9a 04 bb
       -0.008670832 -0.0020233542 -0.007732719 -0.0020233542
000140 28 f0 c7 3a 4a b3 ae 3b 30 e9 11 3c 20 3c 86 3b
       0.0015254067 0.0053314315 0.008905694 0.004096523
000150 30 e9 11 3c 56 e9 8c bb 00 c9 86 3b 20 3c 86 3b
       0.008905694 -0.0043002767 0.0041133165 0.004096523
000160 00 c9 86 3b d8 27 87 ba ec 60 3b 3b 80 74 7a 3b
       0.0041133165 -0.0010311557 0.0028591705 0.0038216412
000170 90 c4 43 bc 80 74 7a 3b aa 29 fc bb c0 64 26 3b
       -0.01194872 0.0038216412 -0.0076953964 0.0025389642
000180 90 c4 43 bc c0 64 26 3b 36 79 9e 3b f5 c5 a1 bb
       -0.01194872 0.0025389642 0.004836227 -0.0049369284
000190 80 ce 35 3b 60 46 c7 3b 80 ce 35 3b 2c 71 df 3a
       0.0027741492 0.0060813874 0.0027741492 0.0017047278
0001a0 d0 36 03 3c 60 46 c7 3b d0 36 03 3c 56 d3 53 3b
       0.008008674 0.0060813874 0.008008674 0.003232201
0001b0 a8 45 92 3c 50 12 b9 bc 28 5f db bc 50 12 b9 bc
       0.01785548 -0.02259174 -0.026778772 -0.02259174
0001c0 70 bb 5c bc 60 20 e7 3c 28 5f db bc 60 20 e7 3c
       -0.013472423 0.02821368 -0.026778772 0.02821368
0001d0 c0 9f 8f bb 9d 16 9a bc 58 11 8e 3c 10 08 5a bc
       -0.0043830574 -0.018809611 0.017342255 -0.013307586
0001e0 58 11 8e 3c 53 ce e3 3c 68 db 2d bd 10 08 5a bc
       0.017342255 0.027808344 -0.04244557 -0.013307586
0001f0 68 db 2d bd 6a 6f 13 bc dc fb 67 3c cc 41 0d 3d
       -0.04244557 -0.008998731 0.014159169 0.034486577
000200 70 fa 3b 3d cc 41 0d 3d 38 b7 9f 3b 7c 3e 67 bd
       0.045893133 0.034486577 0.0048741363 -0.056456074
000210 70 fa 3b 3d 7c 3e 67 bd ba eb 9b bc 46 41 74 bd
       0.045893133 -0.056456074 -0.019033302 -0.059632562
000220 80 18 81 3c 80 40 43 3b 80 18 81 3c 2a 34 29 3d
       0.015758753 0.0029793084 0.015758753 0.041309513
000230 24 d4 11 3d 80 40 43 3b 24 d4 11 3d 3b 1a 96 3c
       0.035602704 0.0029793084 0.035602704 0.018323055
000240 64 3c 10 3d 48 9e b2 bd 80 be b7 3a 48 9e b2 bd
       0.035213843 -0.08721596 0.0014018565 -0.08721596
000250 5c 4d 8d bd 64 cf 38 3d 80 be b7 3a 64 cf 38 3d
       -0.06899521 0.045119658 0.0014018565 0.045119658
000260 54 5e 0a 3d 90 f3 17 bc c0 a6 2f 3b 80 71 af 3a
       0.033781365 -0.009274378 0.0026802272 0.0013385266
000270 c0 a6 2f 3b 90 7a 6a 3c 20 fb f1 bb 80 71 af 3a
       0.0026802272 0.014311448 -0.0073846728 0.0013385266
000280 20 fb f1 bb 00 0e a5 bb ec b9 67 bb 20 bf f9 3b
       -0.0073846728 -0.0050370693 -0.003535862 0.007621661
000290 40 97 a6 bb 20 bf f9 3b 6a ff 9c 3b e0 a4 26 bc
       -0.0050839484 0.007621661 0.00479119 -0.010171145
0002a0 40 97 a6 bb e0 a4 26 bc d8 89 a4 ba 94 39 76 bb
       -0.0050839484 -0.010171145 -0.0012553288 -0.003757094
0002b0 10 53 27 3c 00 75 5e bb 10 53 27 3c cb bb 39 3c
       0.010212675 -0.003394425 0.010212675 0.011336277
0002c0 e0 bb cd bb 00 75 5e bb e0 bb cd bb ca 5a f8 bb
       -0.0062785 -0.003394425 -0.0062785 -0.0075791823
0002d0 6a 7a a0 bb 40 ef 47 3b 80 98 d7 3a 40 ef 47 3b
       -0.0048974054 0.0030507594 0.0016448647 0.0030507594
0002e0 b6 97 81 3b 30 76 3d bc 80 98 d7 3a 30 76 3d bc
       0.003954853 -0.011563823 0.0016448647 -0.011563823
0002f0 b0 15 77 3a 00 be 19 3b 10 ce 22 3c 80 25 44 3b
       0.0009425534 0.0023459196 0.009936824 0.0029929578
000300 10 ce 22 3c 80 27 3d 3b 00 ba db ba 80 25 44 3b
       0.009936824 0.0028862655 -0.0016763806 0.0029929578
000310 00 ba db ba c0 72 ab bb 10 14 19 bc 00 1d f1 3a
       -0.0016763806 -0.005232185 -0.009343162 0.0018395483
000320 e0 2d a9 3b 00 1d f1 3a 00 4d 0b 3a 00 fa 20 bc
       0.0051629394 0.0018395483 0.0005313903 -0.00982523
000330 e0 2d a9 3b 00 fa 20 bc 40 5f 10 3c 2a 88 3e 3b
       0.0051629394 -0.00982523 0.008811772 0.002907286
000340 e0 ab ae 3b a0 f2 d7 3b e0 ab ae 3b 56 df 19 bb
       0.0053305477 0.0065902025 0.0053305477 -0.0023479066
000350 60 ec e4 3b a0 f2 d7 3b 60 ec e4 3b 58 a3 12 ba
       0.006986186 0.0065902025 0.006986186 -0.0005593798
000360 6d 14 59 3d 40 26 c4 3c e8 10 2d bd 40 26 c4 3c
       0.052997995 0.02394402 -0.04225245 0.02394402
000370 65 ca 41 3d 6c 45 3e 3d e8 10 2d bd 6c 45 3e 3d
       0.04731216 0.046452925 -0.04225245 0.046452925
000380 6a 6f cd bd d2 51 2c bd b8 a2 6f bd 18 14 51 bd
       -0.10031016 -0.042070217 -0.05850479 -0.051044554
000390 b8 a2 6f bd ae c9 14 3d 60 f9 cc bb 18 14 51 bd
       -0.05850479 0.03632515 -0.0062553138 -0.051044554
0003a0 60 f9 cc bb 30 41 bc 3b d8 ee ed bc 28 23 e3 bd
       -0.0062553138 0.0057450756 -0.029044554 -0.1109069
0003b0 84 84 53 bd 28 23 e3 bd 94 80 66 3d 90 c0 41 3d
       -0.05164005 -0.1109069 0.056274965 0.047302783
0003c0 84 84 53 bd 90 c0 41 3d 40 12 df bc 6d cf d3 bc
       -0.05164005 0.047302783 -0.027230382 -0.025855744
0003d0 00 c3 b9 bc e4 98 05 bd 00 c3 b9 bc 2b e8 b7 3c
       -0.022675991 -0.03261651 -0.022675991 0.022449574
0003e0 d8 60 88 bc e4 98 05 bd d8 60 88 bc 18 3a 5f 3b
       -0.016647741 -0.03261651 -0.016647741 0.0034061726
0003f0 0c 15 9c 3d 9c 3b 8f bd 80 61 62 bc 9c 3b 8f bd
       0.07621202 -0.069937915 -0.013817191 -0.069937915

hfvrA f4 [200, 1]
000000 cb 89 0f 3f 92 6f 7f 3f f0 cf b7 3f 5e 52 9c 3f
       0.5606963 0.9977962 1.4360332 1.2212636
000010 02 82 bf 3f 9a 8f b7 3e 4a e4 a9 3e b6 29 ae 3e
       1.496155 0.35851747 0.33181983 0.34016198
000020 88 b5 2c 3e b0 a6 22 3e 14 dc 40 3e 14 70 3a 3e
       0.16866124 0.15883899 0.18833953 0.18206817
000030 1e 70 0f 3f 8a b2 7f 3f 5b c1 b7 3f 08 89 9c 3f
       0.5603045 0.99881804 1.4355882 1.2229319
000040 0e 9a bf 3f b8 89 b6 3e 5c 89 aa 3e 48 a4 ae 3e
       1.4968889 0.35651946 0.33307922 0.34109712
000050 c0 a3 2c 3e cc 89 22 3e 5c fc 40 3e 1c 60 3a 3e
       0.1685934 0.15872878 0.18846267 0.18200725
000060 eb 70 88 3f 5e 58 5d 3f ec 8e 35 3f 7c 72 91 3f
       1.065946 0.8646296 0.70921206 1.1363063
000070 b4 07 96 3f cf 8e 8d 3f 58 b1 a2 3e 2a 6f a5 3e
       1.1721101 1.1059207 0.31775928 0.32311374
000080 10 ac 77 3e 84 c5 ce 3e d0 aa a2 3e c4 82 0c 3e
       0.2418673 0.40385067 0.31770945 0.13721758
000090 fe c8 85 3f d6 af 60 3f a2 36 3f 3f 76 b9 8e 3f
       1.0451963 0.87768304 0.7469274 1.1150348
0000a0 30 24 9f 3f ec c4 8c 3f 9a a0 af 3e 24 ce af 3e
       1.2432919 1.0997596 0.34302217 0.3433696
0000b0 b8 af b0 3e 5c 96 9f 3e 0c 46 a9 3e d8 15 24 3e
       0.34509063 0.31169403 0.33061254 0.16023958
0000c0 e3 2e 84 3f 00 21 5a 3f 9c dd 41 3f 19 9d 8f 3f
       1.0326809 0.85206604 0.75728774 1.1219817
0000d0 fc 25 9c 3f dc 69 8d 3f d0 81 a1 3e 3a 16 b5 3e
       1.2199092 1.1047931 0.31544352 0.3536852
0000e0 c8 37 a8 3e d2 23 a6 3e a2 05 a7 3e c8 54 3f 3e
       0.32855058 0.32449204 0.32621485 0.18684685
0000f0 de 24 84 3f 36 e1 59 3f 93 d0 41 3f 32 93 8f 3f
       1.0323751 0.8510927 0.75708884 1.1216795
000100 40 f5 9b 3f 0c 96 8d 3f ba 77 a1 3e 60 18 b5 3e
       1.2184219 1.1061416 0.31536657 0.3537016
000110 20 2c a7 3e e4 e6 a7 3e 00 5e a7 3e 1c 2c 3f 3e
       0.32650852 0.32793343 0.32688904 0.1866917
000120 09 1c 0c 3f 13 1a 83 3f f2 51 bd 3f 74 b8 98 3f
       0.5473028 1.0242332 1.4790633 1.1931291
000130 58 11 c1 3f 5e e7 c2 3e e8 e0 a4 3e 26 a3 d3 3e
       1.5083418 0.38067144 0.3220284 0.4133541
000140 b0 85 04 3e 0c 07 0c 3e ea 04 88 3e bc 5d 38 3e
       0.12941623 0.13674563 0.2656625 0.18004507
000150 60 79 0f 3f 6a cc 74 3f 70 56 c0 3f 2e ef 97 3f
       0.5604458 0.9562441 1.5026379 1.1869867
000160 08 4e c1 3f 38 fc 98 3e 36 e7 98 3e 00 3b d4 3e
       1.5101938 0.29879928 0.298639 0.41451263
000170 54 ac 06 3e 34 55 22 3e 1c b5 40 3e 20 ff 4d 3e
       0.13151675 0.15852815 0.18819088 0.20116854
000180 0a 2d 10 3f 52 71 7e 3f 08 9f b8 3f 07 0a 9b 3f
       0.56318724 0.99391663 1.4423532 1.2112435
000190 ab 2d be 3f 1c 32 b7 3e b6 a8 a9 3e da ed ac 3e
       1.4857687 0.35780418 0.3313653 0.33775216
0001a0 24 44 2d 3e 9c 1d 25 3e 94 1b 41 3e dc 8f 3c 3e
       0.16920525 0.16124576 0.18858176 0.18414253
0001b0 50 cf 0f 3f 7a fb 7e 3f 8c 35 b8 3f 84 af 9b 3f
       0.5617571 0.9960247 1.4391341 1.2162938
0001c0 e0 d0 be 3f d8 1a b5 3e 54 46 aa 3e 14 6c ad 3e
       1.4907494 0.35372043 0.3325678 0.3387152
0001d0 d4 96 2d 3e 38 97 24 3e 9c bf 42 3e f4 d7 3a 3e
       0.16952068 0.1607331 0.19018406 0.18246442
0001e0 69 c5 86 3f 99 10 5b 3f 6c e1 3b 3f c5 d7 94 3f
       1.0528995 0.855722 0.7339084 1.1628348
0001f0 2b 97 9b 3f 5f 96 8a 3f 42 7d a3 3e 7a 41 e2 3e
       1.2155508 1.082714 0.31931502 0.4419058
000200 96 68 c0 3e 56 f8 d9 3e e2 67 96 3e bc 2e 5d 3e
       0.37579793 0.42572278 0.2937613 0.21599859
000210 9c 00 84 3f 9a 3e 5a 3f a3 ef 41 3f 74 8f 8f 3f
       1.0312686 0.8525177 0.7575628 1.1215653
000220 35 1d 9c 3f 9e 67 8d 3f c4 69 a1 3e f4 2a b5 3e
       1.2196413 1.1047246 0.31526005 0.35384333
000230 e2 dd a7 3e 6e 11 a7 3e e8 99 a7 3e 44 b1 3f 3e
       0.3278647 0.32630485 0.3273461 0.18719965
000240 b6 e1 27 3f ff 7c 92 3f 7c 50 7c 3f f8 1d 62 3f
       0.6557878 1.1444396 0.9856031 0.8832698
000250 16 6e 98 3f 9a 2b b4 3f 83 be 95 3f fa 12 9f 3e
       1.1908596 1.4075806 1.1698765 0.31069165
000260 f6 5c b5 3e f0 9f 93 3e 2c e4 d1 3e a4 25 aa 3e
       0.35422486 0.2883296 0.40994394 0.33231843
000270 70 f4 cd 3e e6 32 bc 3e 08 1e 49 3e 54 e8 17 3e
       0.40225554 0.36757582 0.19640362 0.1483472
000280 bc 0b 4d 3e 46 fa 23 3f c3 06 92 3f 62 20 78 3f
       0.20024008 0.6405376 1.1408314 0.9692441
000290 52 c5 67 3f 45 37 96 3f 32 93 b3 3f 15 96 95 3f
       0.9053546 1.1735617 1.4029295 1.1686426
0002a0 f8 a0 a0 3e ca 63 af 3e c6 d0 a9 3e b2 d1 b4 3e
       0.3137281 0.3425582 0.33167094 0.35316235
0002b0 36 a6 a5 3e ba 8f b4 3e c8 3d cc 3e e8 68 46 3e
       0.3235337 0.35265905 0.39890885 0.19375956
0002c0 e8 0b 4e 3e b0 40 4a 3e 8a 3c 1b 3f de aa 89 3f
       0.2012173 0.19751239 0.6063925 1.075527
0002d0 f9 c4 8b 3f b3 a1 94 3f 63 f2 95 3f f2 cf 9e 3e
       1.0919486 1.1611847 1.1714596 0.31018025
0002e0 fe 49 b6 3e aa 9b b3 3e 58 36 a9 3e b8 0d 9f 3e
       0.35603327 0.350797 0.33049273 0.31065154
0002f0 e4 74 18 3e 20 0d 17 3f 6a 65 8b 3f bf 07 8c 3f
       0.1488834 0.590044 1.0890324 1.0939864
000300 81 8f 98 3f 58 12 92 3f de 00 95 3e 0e fc a4 3e
       1.1918794 1.1411848 0.29102224 0.32223552
000310 90 25 e3 3e fa ee a2 3e 82 37 9b 3e 08 28 45 3e
       0.44364595 0.3182295 0.30315787 0.19253552

vwA f4 [200, 1]
000000 7a 52 eb 3e 80 0c 03 3f f4 49 f1 3e c9 18 e8 3e
       0.45961362 0.5119095 0.47126734 0.4533141
000010 88 8f f3 3e 05 41 c5 3e 6e 21 c3 3e 7e bd c4 3e
       0.47570443 0.38526168 0.38111442 0.3842582
000020 4d ce ad 3e a5 a1 aa 3e b2 a5 b1 3e f6 8e b1 3e
       0.33946458 0.3332645 0.34696728 0.34679383
000030 60 4e eb 3e 54 0f 03 3f d0 44 f1 3e ec 18 e8 3e
       0.45958233 0.51195264 0.47122812 0.45331514
000040 15 91 f3 3e 0e 1b c5 3e 61 3b c3 3e 01 c1 c4 3e
       0.47571626 0.38497204 0.3813124 0.384285
000050 6f d1 ad 3e 06 a0 aa 3e cd a6 b1 3e 84 9a b1 3e
       0.33948848 0.33325213 0.3469757 0.346882
000060 83 61 05 3f 0e f7 ff 3e ed 15 f5 3e 38 c9 05 3f
       0.52101916 0.49993175 0.4786829 0.5226016
000070 c0 6a e7 3e 6f 9e e4 3e 8a 8e c1 3e 18 b1 c1 3e
       0.4519863 0.44652125 0.3780406 0.37830424
000080 a2 ce b6 3e f7 64 cf 3e d4 7a c2 3e f6 09 9f 3e
       0.35704523 0.40506718 0.37984335 0.31062287
000090 fc e4 04 3f f0 ce 00 3f 8d c1 f7 3e 3a 12 05 3f
       0.519119 0.5031576 0.48389855 0.51980937
0000a0 71 83 eb 3e 16 40 e4 3e c6 ac c6 3e 16 96 c5 3e
       0.4599872 0.44580144 0.3880369 0.3859107
0000b0 c0 0a c7 3e 56 e0 c0 3e aa 5d c3 3e 50 c6 a8 3e
       0.3887539 0.37671155 0.38157398 0.329638
0000c0 d5 87 04 3f 40 38 ff 3e 5a 38 f8 3e 10 96 05 3f
       0.51769763 0.49847603 0.48480493 0.521821
0000d0 62 b2 ea 3e 62 ce e4 3e 89 5d c1 3e 83 e7 c4 3e
       0.4583922 0.44688708 0.37766674 0.3845788
0000e0 05 fb c3 3e a7 37 c3 3e 42 28 c3 3e cd c3 b1 3e
       0.3827745 0.38128397 0.38116652 0.34719697
0000f0 c8 86 04 3f 89 1a ff 3e 0a 2d f8 3e c0 92 05 3f
       0.5176816 0.49824932 0.48471862 0.5217705
000100 20 96 ea 3e 9d dd e4 3e 64 52 c1 3e 03 b9 c4 3e
       0.4581766 0.44700328 0.37758172 0.38422403
000110 9d 81 c3 3e a2 c4 c3 3e 9a 35 c3 3e e1 b9 b1 3e
       0.38184825 0.38235956 0.38126832 0.34712127
000120 e6 a9 ea 3e 3a bf 03 3f 19 c5 f0 3e 18 e0 e6 3e
       0.45832747 0.51463664 0.47025374 0.45092845
000130 29 d1 f3 3e 98 07 c8 3e 9e 97 c1 3e 5e 4e cf 3e
       0.47620514 0.39068294 0.37810987 0.40489477
000140 a6 b9 a4 3e e8 46 a6 3e 13 c7 c2 3e 7d 25 b1 3e
       0.3217289 0.32475972 0.38042507 0.34598914
000150 a1 38 ec 3e 66 bb 01 3f c5 41 f2 3e 78 7c e6 3e
       0.46136954 0.5067657 0.47315803 0.45016837
000160 4a 8b f3 3e f6 2a bc 3e a7 39 bd 3e 58 5d ce 3e
       0.47567207 0.36751527 0.36958048 0.4030559
000170 8d d8 a3 3e f4 17 ad 3e a7 56 b2 3e ca db b5 3e
       0.32001153 0.33807337 0.34831735 0.35519248
000180 a8 9b eb 3e 4b 04 03 3f ae 7d f1 3e a5 cf e7 3e
       0.46017194 0.51178426 0.47166198 0.45275608
000190 8a 9d f3 3e 70 41 c5 3e d5 ed c2 3e 70 8b c4 3e
       0.4758113 0.38526487 0.38072076 0.38387632
0001a0 d5 fa ad 3e 3a 0e ab 3e 78 b5 b1 3e 10 ae b1 3e
       0.33980432 0.33409292 0.34708762 0.34703112
0001b0 92 6e eb 3e 89 0a 03 3f 51 60 f1 3e 8a 0e e8 3e
       0.45982796 0.5118795 0.47143796 0.45323592
0001c0 4f a1 f3 3e 3a f3 c4 3e f0 0a c3 3e 19 99 c4 3e
       0.47584006 0.38466817 0.38094282 0.38398054
0001d0 f7 fb ad 3e 60 03 ab 3e e9 c1 b1 3e 67 96 b1 3e
       0.33981296 0.33401012 0.34718254 0.3468506
0001e0 35 cf 04 3f f6 91 fe 3e fc aa f5 3e 2e b8 07 3f
       0.5187867 0.49720734 0.47982013 0.5301541
0001f0 72 36 ea 3e c2 fa e3 3e 24 e0 c1 3e b0 d0 d1 3e
       0.45744663 0.4452725 0.37866318 0.40979528
000200 0b 40 cc 3e 68 2f d1 3e db fc bd 3e 3d f7 b8 3e
       0.3989261 0.4085648 0.37106976 0.36126128
000210 bc 80 04 3f 64 41 ff 3e de 36 f8 3e 63 92 05 3f
       0.51758933 0.49854577 0.4847936 0.52176493
000220 06 af ea 3e 59 ca e4 3e dc 59 c1 3e 3f eb c4 3e
       0.45836657 0.4468563 0.3776387 0.3846073
000230 15 d5 c3 3e 19 7f c3 3e 43 47 c3 3e 65 d5 b1 3e
       0.38248506 0.38182905 0.38140306 0.3473312
000240 80 28 f4 3e 47 2a 06 3f d2 cc 02 3f 59 23 00 3f
       0.4768715 0.5240826 0.5109378 0.50053936
000250 2d 45 e8 3e 28 00 ef 3e 5c f6 cd 3e ec a9 c0 3e
       0.45365277 0.46679807 0.4022702 0.3762964
000260 62 2c c8 3e ee 77 bc 3e d5 84 cd 3e 04 9e c3 3e
       0.3909636 0.3681025 0.40140405 0.38206494
000270 e2 16 cc 3e 11 d6 c2 3e dc 36 b5 3e 4a 19 a7 3e
       0.39861208 0.38053945 0.35393417 0.32636482
000280 67 97 b4 3e 73 b1 f2 3e 95 e3 05 3f fa 63 02 3f
       0.3527176 0.47401008 0.5230039 0.509338
000290 50 3d 01 3f 50 62 e7 3e ee f6 ef 3e 43 8a cd 3e
       0.5048418 0.45192194 0.4686808 0.40144548
0002a0 f8 7e c1 3e d7 6a c5 3e 16 d7 c3 3e 6a 02 c6 3e
       0.37792182 0.38558075 0.38250035 0.38673717
0002b0 13 e2 c2 3e f7 d7 c5 3e 1f 40 c9 3e dc 8f b4 3e
       0.38063106 0.3864133 0.39306733 0.35266006
0002c0 f1 e2 b4 3e 26 49 b4 3e 83 32 f0 3e 38 7d 04 3f
       0.35329393 0.35212058 0.46913537 0.5175357
0002d0 fb 87 04 3f 68 d5 cc 3e d1 fc cc 3e 8a 10 c0 3e
       0.5176999 0.40006566 0.40036634 0.37512618
0002e0 56 2d c6 3e 96 5e c6 3e d9 c0 c4 3e b8 b5 c0 3e
       0.38706464 0.38744038 0.3842838 0.3763864
0002f0 90 92 ac 3e 00 d8 ed 3e 08 16 05 3f f2 67 04 3f
       0.33705568 0.46453857 0.5198674 0.5172111
000300 30 f9 cd 3e 16 e9 ca 3e 40 44 bc 3e 64 6e c1 3e
       0.40229177 0.39630955 0.3677082 0.37779534
000310 58 8a d1 3e ad 74 c3 3e fa 98 be 3e 20 08 bb 3e
       0.4092586 0.38174954 0.37226087 0.36529636
