tests/test_data_path/og_processed/dimer_ap3_train_spec_7_562.pt (torch, 245650 bytes, 17 tensors)

y f4 [16, 4]
0	0xbfd36573	-1.6515335
1	0x4125c7b7	10.3612585
2	0xc00176e8	-2.0228825
3	0xc08a808c	-4.3281918
4	0xc1268cd9	-10.409387
5	0x415d2b30	13.823044
6	0xc03cb1f0	-2.9483604
7	0xc10b30b6	-8.699392
8	0xc1188889	-9.533334
9	0x41b2c4e8	22.346146
10	0xc03393c1	-2.8058932
11	0xc11d2c55	-9.823323
12	0xbe99465b	-0.2993649
13	0x3db690f2	0.08914365
14	0xbdbf3fa2	-0.09338309
15	0xbf1f2783	-0.62169665
16	0xbac5579a	-0.0015056015
17	0x3aa50878	0.0012591025
18	0xbcf3f76c	-0.029781066
19	0xbe29b951	-0.16574599
20	0xc093d47c	-4.619688
21	0x40943c6e	4.6323767
22	0xbfaf32fb	-1.3687433
23	0xc0385570	-2.8802147
24	0xbfc8fc36	-1.5701969
25	0x402263a9	2.5373328
26	0xbf316aaa	-0.6930338
27	0xbff687d5	-1.9260203
28	0xbf7afd47	-0.9804272
29	0x4186e8c0	16.863647
30	0xc03674eb	-2.850886
31	0xc0cd097e	-6.4074087
32	0x3f17bc76	0.59271944
33	0x3dec531b	0.115392886
34	0xbdc2dbfd	-0.09514616
35	0xbf5c4e69	-0.86057144
36	0xc0820dd3	-4.0641875
37	0x40fb6696	7.8562727
38	0xc0015328	-2.0207005
39	0xc09e32ae	-4.9436865
40	0xc0c2edb8	-6.0915184
41	0x41850ed8	16.632248
42	0xc028c4dc	-2.6370153
43	0xc0d64d7e	-6.6969595
44	0xc0f9f17d	-7.8107285
45	0x41c2fd44	24.373665
46	0xc0686aa0	-3.6315079
47	0xc11fe223	-9.992709
48	0xc1b5ed8a	-22.740986
49	0x42135bf9	36.839817
50	0xc1279668	-10.47422
51	0xc1322d79	-11.136102
52	0x3d1f04b1	0.038822833
53	0x3af00af0	0.0018313807
54	0xbd0cfa9c	-0.034418687
55	0xbea256b9	-0.3170679
56	0xbf4e59dd	-0.8060587
57	0x3f3443b5	0.7041581
58	0xbe869443	-0.2628499
59	0xc0001058	-2.0009975
60	0xbf6304d7	-0.8867926
61	0x402ee630	2.7327995
62	0xbe79058b	-0.2431852
63	0xc02141ee	-2.519649

RA f4 [192, 3]
0	0x3e0250b5	0.127261
1	0xbf51c561	-0.819418
2	0x3f2573a8	0.646296
3	0x3e8d36b5	0.275808
4	0x3eb95d92	0.362042
5	0xbe7715c6	-0.241294
6	0xbf2bb3b7	-0.670711
7	0x3f6650d7	0.899671
8	0xbf479ad0	-0.779706
9	0x3fc8ba17	1.568179
10	0x3f434107	0.762711
11	0xbe92786c	-0.286075
12	0xbfb1acb4	-1.388083
13	0xbfa2e371	-1.272566
14	0x3f57c41a	0.842836
15	0x3f056b66	0.52117
16	0xbf217332	-0.630664
17	0x3fd4808d	1.660173
18	0x3fe7904b	1.809091
19	0x3fc9fb1e	1.577976
20	0xbf810282	-1.007889
21	0x401549dc	2.332633
22	0x3e8f56a8	0.279958
23	0x3c570e6f	0.013126
24	0x3f374d6a	0.716025
25	0xbfdb584b	-1.713632
26	0x3e6becab	0.230395
27	0xbfba7768	-1.456769
28	0xc00ce5b8	-2.201521
29	0x3fb51da3	1.414967
30	0xbff716a0	-1.930378
31	0xbef9f9f0	-0.488235
32	0x3f9c1872	1.219496
33	0xbfe5d827	-1.795659
34	0xbfc2fe69	-1.523389
35	0xbe8baf96	-0.272824
36	0x3e11c609	0.142357
37	0xbf550481	-0.8321
38	0x3f18724b	0.595494
39	0x3ea97edc	0.331046
40	0x3eca8da8	0.395612
41	0xbe42352f	-0.189656
42	0xbf2cab93	-0.674493
43	0x3f7a3eaf	0.977519
44	0xbf4b311a	-0.793718
45	0x3fc42f8c	1.532701
46	0x3f523476	0.821113
47	0xbeab0857	-0.334048
48	0xbfb73b21	-1.431492
49	0xbfa97aab	-1.324056
50	0x3f40fe7a	0.753883
51	0x3f046f8b	0.517327
52	0xbf291c2a	-0.660586
53	0x3fd1cac9	1.639001
54	0x3fec0ce9	1.844144
55	0x3fc05c89	1.502824
56	0xbf724c83	-0.94648
57	0x40159abf	2.33757
58	0x3e7edf1e	0.248898
59	0x3c8f6274	0.017503
60	0x3f2b7964	0.669821
61	0xbfd78ad2	-1.683924
62	0x3e2065b6	0.156638
63	0xbfbdbc2c	-1.482305
64	0xc00bec57	-2.1863
65	0x3fb5f9d7	1.421687
66	0xc000b852	-2.01125
67	0xbefe4d3c	-0.496683
68	0x3f98cfe1	1.193844
69	0xbfe63993	-1.798632
70	0xbfc1e6d6	-1.514857
71	0xbe6ea78b	-0.233061
72	0x3dcfd08d	0.101472
73	0xbf583ec9	-0.844708
74	0x3f17294e	0.590474
75	0x3e967254	0.293841
76	0x3eb04b3c	0.344324
77	0xbe745f9e	-0.238646
78	0xbf2c1798	-0.672235
79	0x3f613405	0.8797
80	0xbf3fa4c6	-0.748608
81	0x3fc8e714	1.569552
82	0x3f4d5e4a	0.80222
83	0xbea3e964	-0.32014
84	0xbfb205c4	-1.390801
85	0xbfa83bb4	-1.314322
86	0x3f3f1759	0.74645
87	0x3ef7cac9	0.483969
88	0xbf275cd1	-0.65376
89	0x3fd024a2	1.626118
90	0x3fe45932	1.783972
91	0x3fd06d26	1.628331
92	0xbf805d9e	-1.002857
93	0x4017a3c6	2.369371
94	0x3e6b40b3	0.229739
95	0xbbcec41e	-0.00631
96	0x3f2c013f	0.671894
97	0xbfd381c7	-1.652398
98	0x3e73b363	0.237989
99	0xbfb43bbc	-1.408073
100	0xc008a387	-2.134981
101	0x3fbaecc0	1.46035
102	0xbffeb567	-1.989911
103	0xbef7861a	-0.483445
104	0x3f9a1b4c	1.203958
105	0xbfe51383	-1.789658
106	0xbfc0d62c	-1.506536
107	0xbe645847	-0.222993
108	0x3deaea74	0.114705
109	0xbf6e391d	-0.930559
110	0x3f36f2c7	0.714642
111	0x3e83293d	0.256174
112	0x3ebfeb8e	0.374844
113	0xbe83d5bb	-0.25749
114	0xbf38666f	-0.720313
115	0x3f68285f	0.906866
116	0xbf444b3c	-0.766773
117	0x3fcb7910	1.589632
118	0x3f483bd6	0.782163
119	0xbe91aeb4	-0.284536
120	0xbfa992b8	-1.32479
121	0xbf9a8bd2	-1.207392
122	0x3f486424	0.782778
123	0x3f0cd856	0.550176
124	0xbf3148ed	-0.692519
125	0x3fce67f1	1.612547
126	0x3fe6ee85	1.804154
127	0x3fc47ef1	1.535124
128	0xbf793b19	-0.973558
129	0x401842d5	2.379079
130	0x3e8dd8d8	0.277045
131	0x3c949e88	0.018142
132	0x3f3c07cc	0.734494
133	0xbfdadfad	-1.709951
134	0x3e86c871	0.263248
135	0xbfb8944f	-1.442026
136	0xc009ae08	-2.151247
137	0x3fad8d04	1.355866
138	0xc0001166	-2.001062
139	0xbef9e03f	-0.488039
140	0x3f9d903a	1.230964
141	0xbfe9f9ad	-1.827932
142	0xbfbe11ba	-1.484916
143	0xbe3ca03c	-0.184205
144	0x3e0b1d93	0.135855
145	0xbf570857	-0.839971
146	0x3f39b6b3	0.725444
147	0x3e880ffe	0.265747
148	0x3ebd171e	0.369317
149	0xbe805836	-0.250673
150	0xbf227696	-0.634622
151	0x3f5dcb14	0.86638
152	0xbf57401c	-0.840822
153	0x3fcee01a	1.616214
154	0x3f512d13	0.817094
155	0xbea25e14	-0.317124
156	0xbfaaddf8	-1.334899
157	0xbfa35b9a	-1.276233
158	0x3f379af2	0.717208
159	0x3efb8152	0.491221
160	0xbf2744c3	-0.653393
161	0x3fcfb489	1.622697
162	0x3fe5568f	1.791704
163	0x3fca63e0	1.581173
164	0xbf806c1a	-1.003299
165	0x40182fd7	2.37792
166	0x3e513dfb	0.204338
167	0x3c4ed4e5	0.012624
168	0x3f36bfba	0.713863
169	0xbfd951a4	-1.697804
170	0x3e775d57	0.241567
171	0xbfbe0232	-1.484442
172	0xc00d5376	-2.208219
173	0x3fac7275	1.347243
174	0xbfff2b4e	-1.993509
175	0xbee1cdc4	-0.441023
176	0x3f97b552	1.185221
177	0xbfdd93c4	-1.731072
178	0xbfbb9746	-1.465554
179	0xbe4868ba	-0.195712
180	0x3d896a27	0.067097
181	0xbf589753	-0.846059
182	0x3f2c83ba	0.673885
183	0x3e6a2ad4	0.228679
184	0x3eaa5a8a	0.332722
185	0xbe417e78	-0.188959
186	0xbf28a32f	-0.65874
187	0x3f7106cd	0.94151
188	0xbf537b07	-0.826096
189	0x3fcfa440	1.6222
190	0x3f5d9c39	0.865665
191	0xbeb17918	-0.346627
192	0xbfb237b5	-1.392325
193	0xbfa7f834	-1.312262
194	0x3f3c1872	0.734748
195	0x3ef72bed	0.482757
196	0xbf2b3440	-0.668766
197	0x3fd44e1e	1.658634
198	0x3fe526e1	1.790249
199	0x3fbe1954	1.485148
200	0xbf75b414	-0.959779
201	0x4017b110	2.370182
202	0x3e4df00b	0.201111
203	0xbced00b4	-0.028931
204	0x3f45610b	0.771012
205	0xbfddfc2b	-1.734258
206	0x3e853198	0.260144
207	0xbfbdd545	-1.483071
208	0xc00a1117	-2.157293
209	0x3fb2f1f5	1.398009
210	0xbffe97f2	-1.989012
211	0xbef6dd27	-0.482156
212	0x3f98b46c	1.193006
213	0xbfe5fc8f	-1.79677
214	0xbfc33693	-1.525103
215	0xbe6a5d6c	-0.228872
216	0x3daef673	0.085431
217	0xbf5f4602	-0.872162
218	0x3f251969	0.644919
219	0x3e629e90	0.221308
220	0x3eb3b14b	0.350962
221	0xbe241d4b	-0.160268
222	0xbf1e05de	-0.617277
223	0x3f662c99	0.899118
224	0xbf5241b3	-0.821315
225	0x3fc88f7e	1.566879
226	0x3f49f4a1	0.788889
227	0xbe8967a9	-0.268369
228	0xbfb70cb3	-1.430075
229	0xbfa10100	-1.257843
230	0x3f55f623	0.835787
231	0x3f017ecc	0.505841
232	0xbf24c8bd	-0.643688
233	0x3fd32a9d	1.649738
234	0x3fdac88a	1.709245
235	0x3fc9ff1e	1.578098
236	0xbf7807ee	-0.968871
237	0x4017aa04	2.369752
238	0x3e85dbdb	0.261443
239	0x3d3dc26e	0.046328
240	0x3f31784f	0.693242
241	0xbfd95fa2	-1.698231
242	0x3e713d32	0.235585
243	0xbfbc4ca5	-1.471089
244	0xc00b55d6	-2.177114
245	0x3fb37e24	1.402287
246	0xbffed76b	-1.990949
247	0xbee0bd01	-0.438942
248	0x3f945e24	1.159123
249	0xbfe4fd44	-1.788979
250	0xbfc24ac7	-1.517907
251	0xbe6c1c61	-0.230577
252	0x3d98cda7	0.074611
253	0xbf64054f	-0.890706
254	0x3f3aa21a	0.729036
255	0x3e756712	0.239651

RB f4 [208, 3]
0	0xc04d7d28	-3.210764
1	0x3f19c737	0.600696
2	0xc08b9855	-4.362345
3	0xc077f877	-3.87454
4	0x3f841f8e	1.032213
5	0xc04fa3d7	-3.244375
6	0xc038f916	-2.890203
7	0x40031d4b	2.048663
8	0xc0078e69	-2.118067
9	0xc08d2d8e	-4.411811
10	0x40147daa	2.32017
11	0xbf98e24c	-1.194406
12	0xc08ae358	-4.340252
13	0x40495981	3.146088
14	0x3dcf8c65	0.101342
15	0xc0ae37d6	-5.444316
16	0x3fd506dd	1.664272
17	0xbfe7fc87	-1.812394
18	0xc0a18e22	-5.0486
19	0x3f6def52	0.929433
20	0xc03bcc1d	-2.934333
21	0xc0729c34	-3.790784
22	0xbdf47d80	-0.11938
23	0xc09aa626	-4.832782
24	0xc0108aca	-2.258471
25	0x3e93ceea	0.288688
26	0xc08aa891	-4.333077
27	0xc0823a5e	-4.069625
28	0x4083279a	4.098584
29	0xbde41d4b	-0.111384
30	0xc0ac0b67	-5.376392
31	0x40497725	3.147897
32	0x3f004018	0.500978
33	0xc06dfb59	-3.718466
34	0x402a0043	2.656266
35	0x3f5c6bbe	0.861019
36	0xc0cf3670	-6.475395
37	0x3fd5e8a3	1.671162
38	0xbfb7c43b	-1.435676
39	0xc026cb25	-2.606149
40	0x401d7857	2.46047
41	0x3eef9896	0.467961
42	0xbfd43372	-1.65782
43	0x40232479	2.549101
44	0x3fd1e6e6	1.639859
45	0xbe638327	-0.22218
46	0x4061631b	3.521674
47	0x3fca599f	1.58086
48	0x3e03b2dd	0.128612
49	0x4041aa9b	3.026038
50	0x40534418	3.301031
51	0x3f9ea7d6	1.239497
52	0x4064bda5	3.574075
53	0x40816a53	4.044229
54	0xbf790d4a	-0.972859
55	0x4011cc29	2.278086
56	0x406b5105	3.67682
57	0xbff0e842	-1.882088
58	0x3ff4f4d8	1.913722
59	0x40353650	2.83144
60	0xc0519fcf	-3.275379
61	0x3fd9d684	1.701859
62	0x3f278d50	0.6545
63	0xc008265f	-2.127342
64	0x401ccfdd	2.450187
65	0xbebbf9e8	-0.367141
66	0x3fa59ab7	1.293784
67	0x4095c04f	4.679725
68	0x408496a2	4.143388
69	0x3fa2ac64	1.270886
70	0x4048be7f	3.136627
71	0x40a3e1ed	5.121329
72	0x400e1dbd	2.220565
73	0x40518c50	3.274189
74	0x40645e07	3.568239
75	0xbf7fc958	-0.999166
76	0x3feb0260	1.83601
77	0x409868a1	4.762772
78	0x3f593b8e	0.848565
79	0xc08d95cd	-4.424536
80	0xbff561b3	-1.917044
81	0x3f6bc3a4	0.920954
82	0xc04d66cb	-3.209399
83	0xc0239357	-2.555868
84	0x3f1554eb	0.583327
85	0xc040be94	-3.011632
86	0xc084d932	-4.151513
87	0x3f63ef5b	0.890371
88	0xbfa67dc3	-1.300713
89	0xc0821f0e	-4.066291
90	0x3f472dc3	0.778042
91	0xbeaf294e	-0.342112
92	0xc0a5228e	-5.160468
93	0x3f945250	1.158762
94	0xbf8d91f7	-1.106017
95	0xc02a8b15	-2.664739
96	0x3f9f89be	1.246391
97	0xc0098b11	-2.149113
98	0xbfee791c	-1.863071
99	0x3fa828aa	1.313741
100	0xc08ec374	-4.461359
101	0xbf805f63	-1.002911
102	0x3f865165	1.049359
103	0xc0a9a24d	-5.301062
104	0xc02359de	-2.55236
105	0xbea7fa1a	-0.32808
106	0xbe93e9a7	-0.288892
107	0xc0b12e6d	-5.536917
108	0x3f7b8866	0.98255
109	0x3f37480a	0.715943
110	0xc09921c9	-4.785374
111	0x3fb7ef8d	1.436998
112	0xbefbe271	-0.491962
113	0xc0bd7eef	-5.921745
114	0x3fb8e9ab	1.444631
115	0xbda4ed70	-0.080531
116	0xc014080b	-2.312991
117	0xc0b1b4e5	-5.553332
118	0xbf53176a	-0.824576
119	0xbe5b1572	-0.213949
120	0xc0cc74de	-6.389266
121	0xbdcd70e7	-0.100313
122	0xbf8a3d36	-1.079993
123	0xc0bb29ca	-5.848851
124	0x3fa92da1	1.321705
125	0xbff8e747	-1.944558
126	0xc0ec9225	-7.39284
127	0x3fb7d114	1.436068
128	0xc023c5b9	-2.558943
129	0xc0fb2789	-7.848576
130	0x401fc811	2.496586
131	0xc063b210	-3.557743
132	0xc103b370	-8.231308
133	0x3ef9da9d	0.487996
134	0xc0067957	-2.101156
135	0xc0f3e0b7	-7.621181
136	0xbed17508	-0.409096
137	0xbf9b47bf	-1.213127
138	0xc0c1b310	-6.053108
139	0xbfbbb85f	-1.466564
140	0x3eea9197	0.458142
141	0xc09b02de	-4.8441
142	0xbe89552e	-0.268228
143	0x3e8d0d06	0.27549
144	0xc0e5f38c	-7.18598
145	0x40224c98	2.535925
146	0xc08f14fd	-4.471312
147	0xc10dc15d	-8.859708
148	0x401daeb8	2.463789
149	0xc07a2d8c	-3.90903
150	0xc0f3bcea	-7.616811
151	0x40648b7e	3.571014
152	0xc047c554	-3.121419
153	0xc1145e97	-9.273093
154	0x3e82fddb	0.255843
155	0xc0192370	-2.392788
156	0x40e4f976	7.155452
157	0xbf2fec35	-0.687198
158	0xbf3fad3a	-0.748737
159	0x40e55771	7.166924
160	0xbfe87c95	-1.816302
161	0xbfbb03c0	-1.461052
162	0x410c0580	8.751343
163	0xc014bca1	-2.324013
164	0xc015c697	-2.340246
165	0x40fd0764	7.907152
166	0xc076a943	-3.854081
167	0xc0340b20	-2.813179
168	0x410965d4	8.58736
169	0xc09bfefc	-4.874876
170	0xc065a26e	-3.588039
171	0x40d6b984	6.710146
172	0xc076cfbc	-3.856429
173	0xc00fc615	-2.246465
174	0x40c59683	6.174623
175	0xc02bd33d	-2.684768
176	0xbfbfeb7d	-1.499374
177	0x40c79c20	6.237808
178	0xbecbe89b	-0.398259
179	0xbf0f7718	-0.560411
180	0x40f35cc4	7.605074
181	0x3db5b142	0.088717
182	0xbf87732a	-1.058202
183	0x4118a902	9.541262
184	0xc0a5be83	-5.179506
185	0xc04b0785	-3.172334
186	0x40fd4f83	7.915956
187	0xc0b725c8	-5.723362
188	0xc07185fd	-3.773803
189	0x410ecdf9	8.925286
190	0xc08db648	-4.428501
191	0xc0941521	-4.627579
192	0x40c01dfc	6.00366
193	0xc092971c	-4.580946
194	0xc01c9774	-2.446744
195	0x408ff86e	4.499076
196	0x4036f545	2.85872
197	0xc02cd749	-2.70064
198	0x40563fa3	3.347634
199	0x406761d8	3.615347
200	0xc033ea3a	-2.811171
201	0x40545465	3.317651
202	0x40a3b750	5.116127
203	0xc061a533	-3.525708
204	0x3fc4db27	1.537938
205	0x40a5e8e4	5.184679
206	0xc05b0254	-3.422017
207	0x3f30d552	0.690755
208	0x40cb1227	6.345966
209	0xc076f5c3	-3.85875
210	0x3f92dd7b	1.147384
211	0x407eb02d	3.979503
212	0xc0344fe8	-2.817377
213	0x4006434e	2.097858
214	0x40436bbe	3.053451
215	0xc025476b	-2.582484
216	0x408cc658	4.399212
217	0x4004c686	2.074617
218	0xc0077a8d	-2.116855
219	0x40a91eb8	5.285
220	0x405b713b	3.428786
221	0xc01a5e42	-2.412003
222	0x3f588a7a	0.845863
223	0x40d22f45	6.56827
224	0xc09e7838	-4.952175
225	0xbe9a66dc	-0.301566
226	0x40c35aff	6.104858
227	0xc0696f11	-3.647404
228	0x3f743fd5	0.954099
229	0x40e803a5	7.250445
230	0xc052c482	-3.293244
231	0x3db163bb	0.086616
232	0x406ce6cd	3.701587
233	0xc02d4bec	-2.707759
234	0x3fe6625f	1.799877
235	0x4103626e	8.211531
236	0xbf9ba6e7	-1.216031
237	0x3f5a44e9	0.852614
238	0x40e7801b	7.234388
239	0xbfbef7ba	-1.491935
240	0x3fb345ae	1.400564
241	0x40b4de55	5.65214
242	0xc00b9104	-2.180726
243	0xbeb340d5	-0.350104
244	0x40a59521	5.174454
245	0xc00b743a	-2.178969
246	0xbf2b4667	-0.669043
247	0x40728b8f	3.789768
248	0xc02d271c	-2.705512
249	0xbf8b3d5c	-1.08781
250	0x40c3aabd	6.114592
251	0xbfd97f20	-1.699192
252	0xbefc24a2	-0.492467
253	0x40e98245	7.297152
254	0xbfa37892	-1.277117
255	0x3fa974de	1.323879

qA f4 [192, 1]
0	0xbedb2c00	-0.42807007
1	0x3f5b0837	0.8555941
2	0xbf18ca5e	-0.5968379
3	0xbf7ac9ac	-0.97963977
4	0xbed367c4	-0.41290104
5	0x3e1de10e	0.15417883
6	0x3eccd3a2	0.40005213
7	0x3edeebd0	0.43539286
8	0x3e0fb0dc	0.1403231
9	0x3e12dd0c	0.14342135
10	0x3e33ad9a	0.17546692
11	0x3de77690	0.11301911
12	0xbed8d508	-0.4235003
13	0x3f5ab008	0.8542485
14	0xbf30ccc1	-0.6906243
15	0xbf727fe9	-0.94726425
16	0xbed0ee70	-0.40806913
17	0x3e1c4a82	0.15262797
18	0x3edf3494	0.435948
19	0x3ec87265	0.39149776
20	0x3e275616	0.16341433
21	0x3e1477c0	0.14498806
22	0x3e20ef1a	0.1571621
23	0x3e2da43e	0.16957185
24	0xbed3d8da	-0.41376382
25	0x3f5ab066	0.8542541
26	0xbf1c19cb	-0.60976857
27	0xbf78c9e1	-0.9718304
28	0xbed69556	-0.4191081
29	0x3e0c4f3e	0.13702103
30	0x3ed51fb7	0.4162576
31	0x3ed52963	0.41633138
32	0x3e1ec908	0.15506375
33	0x3e0d4556	0.13795981
34	0x3e0df1ee	0.1386182
35	0x3e22c7a6	0.15896472
36	0xbec91d5c	-0.39280212
37	0x3f4963ed	0.786681
38	0xbf0ba935	-0.54555064
39	0xbf7d987d	-0.99060804
40	0xbecd71bc	-0.40125835
41	0x3e276082	0.16345409
42	0x3ed767d6	0.42071408
43	0x3ed9ff29	0.42577484
44	0x3e10ea90	0.14151978
45	0x3de4a398	0.111640155
46	0x3e17b2a2	0.14814237
47	0x3e0777da	0.13229313
48	0xbeda2a6c	-0.4261049
49	0x3f504cea	0.8136736
50	0xbf0eb2a8	-0.5574136
51	0xbf80658e	-1.0030992
52	0xbec97900	-0.39350128
53	0x3e45f62e	0.19332191
54	0x3edaf684	0.42766201
55	0x3ed84b75	0.4224507
56	0x3dfbd1fc	0.12295911
57	0x3ded99f8	0.11601633
58	0x3df702b0	0.120610595
59	0x3e2758e6	0.16342506
60	0xbecf327e	-0.4046821
61	0x3f481b64	0.78166795
62	0xbf1324c7	-0.5747799
63	0xbf829236	-1.020087
64	0xbec48cdc	-0.38388717
65	0x3e307862	0.17233422
66	0x3eee2144	0.46509755
67	0x3eced92e	0.4040007
68	0x3dfd2dc0	0.12362242
69	0x3e0fb196	0.14032587
70	0x3e0c9494	0.13728553
71	0x3e22eba6	0.15910205
72	0xbedade1e	-0.42747587
73	0x3f569c43	0.83832186
74	0xbf170a05	-0.58999664
75	0xbf7fb989	-0.9989248
76	0xbecdb13c	-0.40174282
77	0x3e131414	0.14363128
78	0x3ed6ffa2	0.41991907
79	0x3ed9e350	0.42556238
80	0x3e21c7b0	0.15798831
81	0x3e139c2c	0.14415044
82	0x3e2c5e7a	0.16832915
83	0x3df63ed0	0.12023699
84	0xbed8d140	-0.42347145
85	0x3f4cc25c	0.7998407
86	0xbf08cc8b	-0.5343711
87	0xbf836290	-1.0264454
88	0xbec98f12	-0.39366966
89	0x3e2eedb0	0.17082858
90	0x3edebd27	0.43503687
91	0x3eda7c57	0.4267299
92	0x3e04f856	0.12985358
93	0x3e00b282	0.12568095
94	0x3e1075d0	0.14107442
95	0x3e187c82	0.14891246
96	0xbed6e37c	-0.41970432
97	0x3f549e6e	0.83054245
98	0xbf1acd0e	-0.6046914
99	0xbf7be05c	-0.9838922
100	0xbec9729e	-0.39345258
101	0x3e2c0d04	0.1680184
102	0x3edb10f0	0.4278636
103	0x3ed8f3fe	0.4237365
104	0x3e05f634	0.130822
105	0x3e165400	0.14680481
106	0x3e0cb5e6	0.13741264
107	0x3e0bd110	0.1365397
108	0xbedd5e58	-0.4323604
109	0x3f55776e	0.8338536
110	0xbf136f48	-0.57591677
111	0xbf7f82f8	-0.9980922
112	0xbed19edc	-0.40941513
113	0x3e26eda0	0.16301584
114	0x3ed582e1	0.41701415
115	0x3ed865d1	0.4226518
116	0x3e1e7fa0	0.15478373
117	0x3e0455e2	0.12923387
118	0x3e189a72	0.14902666
119	0x3e15b69e	0.14620444
120	0xbece8f94	-0.40343916
121	0x3f4c6b40	0.7985115
122	0xbf1766bf	-0.59141153
123	0xbf7a5e01	-0.9779969
124	0xbed16bba	-0.409025
125	0x3e0c2860	0.13687277
126	0x3ee7a7d3	0.45245227
127	0x3ed4d4af	0.41568515
128	0x3e18091a	0.14847222
129	0x3e11434a	0.14185825
130	0x3e1f5f2a	0.15563646
131	0x3e078fc0	0.1323843
132	0xbec5a184	-0.3859979
133	0x3f55ad92	0.8346797
134	0xbf15f6eb	-0.5857989
135	0xbf7d3601	-0.9891053
136	0xbec2d6e8	-0.38054585
137	0x3e02eb2c	0.12785023
138	0x3edb374d	0.4281563
139	0x3ed31065	0.41223446
140	0x3e173bec	0.14768952
141	0x3e000ce8	0.12504923
142	0x3e1c1578	0.15242565
143	0x3de82a60	0.113362074
144	0xbed95bdc	-0.42452896
145	0x3f478f60	0.7795315
146	0xbf1eeb62	-0.62077916
147	0xbf73454e	-0.95027626
148	0xbec5b00a	-0.3861087
149	0x3e22c2f6	0.15894684
150	0x3edfcb14	0.43709624
151	0x3ed501d1	0.41602948
152	0x3e29db10	0.16587472
153	0x3e069bd8	0.13145387
154	0x3e1b77ee	0.15182468
155	0x3e105182	0.14093593
156	0xbed3edc6	-0.41392344
157	0x3f56ede0	0.8395672
158	0xbf202f9d	-0.6257265
159	0xbf755ddd	-0.9584635
160	0xbec99108	-0.39368463
161	0x3e12ddcc	0.14342421
162	0x3edeaecd	0.43492737
163	0x3ecd4d02	0.40097815
164	0x3e18ff12	0.14941052
165	0x3df964c0	0.1217742
166	0x3e208642	0.15676215
167	0x3e146ec4	0.14495379
168	0xbec0994e	-0.37616962
169	0x3f491c22	0.7855855
170	0xbf11aa54	-0.56900525
171	0xbf7bf548	-0.98421144
172	0xbec647f6	-0.38726777
173	0x3e04e57c	0.12978166
174	0x3edd38e1	0.43207458
175	0x3edc9e18	0.43089366
176	0x3e0575d0	0.13033223
177	0x3e1e1b96	0.1544021
178	0x3e08f024	0.13372856
179	0x3df576ec	0.11985573
180	0xbee1aa16	-0.44075078
181	0x3f5da675	0.8658212
182	0xbf156de1	-0.58370787
183	0xbf80c594	-1.0060296
184	0xbed548f0	-0.4165721
185	0x3e0da0b8	0.1383084
186	0x3ed63987	0.41840765
187	0x3edaefe2	0.4276114
188	0x3e1728ae	0.14761612
189	0x3e135636	0.14388356
190	0x3e235ac2	0.1595259
191	0x3e15635a	0.14588681

muA f4 [192, 3]
0	0xbdd99304	-0.10623744
1	0xbd079d88	-0.033109218
2	0x3cc39840	0.02387631
3	0x3c8f8760	0.017520607
4	0x3d4e40b0	0.05035466
5	0xbcdac5a0	-0.026705563
6	0xbdbcb838	-0.092148244
7	0x3cb56df0	0.022147149
8	0xbccc4430	-0.024934858
9	0xbc8c0f10	-0.017097026
10	0x3b080500	0.0020754933
11	0x3d130900	0.035897255
12	0x3dc8627a	0.09784408
13	0x3d24ab58	0.04020247
14	0x3c05b2e0	0.008160323
15	0x3b300b80	0.0026862323
16	0x3c2c5080	0.01051724
17	0x3d420370	0.04736656
18	0x3ae9f500	0.0017849505
19	0x3cdda5a0	0.027056515
20	0xbcb16bb0	-0.021657795
21	0x3c9c0030	0.019043058
22	0xbc6fbd80	-0.014632583
23	0x3c461200	0.0120892525
24	0x3c688340	0.014191449
25	0xbd2bff98	-0.0419918
26	0xbcb41b40	-0.02198565
27	0x3b927680	0.0044696927
28	0xbd2ddb08	-0.042445213
29	0x3ce02170	0.027359694
30	0xbc87b960	-0.016567886
31	0x3d319328	0.04335323
32	0x3c80b480	0.01571107
33	0xbbc05dc0	-0.005870551
34	0xbb1afe80	-0.002365023
35	0xbd63ad60	-0.055585265
36	0xbddac068	-0.1068123
37	0xbd18a6a0	-0.03726828
38	0x3c0683a0	0.008210093
39	0xbb57f280	-0.0032950938
40	0x3d82afa0	0.06381154
41	0xbd1bdfd8	-0.03805527
42	0xbd9655ac	-0.07340559
43	0x3d1be7b0	0.03806275
44	0xbd1c9608	-0.03822902
45	0xbcfa9600	-0.030589104
46	0x3d14ffd8	0.036376804
47	0x3bc20a00	0.0059216022
48	0x3dcc04ec	0.09961876
49	0x3cf20480	0.029543161
50	0xbc81c610	-0.015841514
51	0x3b876600	0.0041320324
52	0x3c39e5e0	0.01134631
53	0x3d42e300	0.047579765
54	0x3a52a000	0.0008034706
55	0x3cb271d0	0.021782786
56	0xbc8cb1c0	-0.017174602
57	0x3c91d820	0.017803252
58	0xbc955080	-0.018226862
59	0x3c6495c0	0.013951719
60	0x3c1a8560	0.009431213
61	0xbd1fb630	-0.038992107
62	0xbcc235c0	-0.02370727
63	0x3b4dd480	0.0031407177
64	0xbd1fb640	-0.038992167
65	0x3d052420	0.032505155
66	0xbc9f7280	-0.019463778
67	0x3d3896c8	0.04506567
68	0x3c8d44a0	0.017244637
69	0xbc1447c0	-0.00905031
70	0xbacef400	-0.001578927
71	0xbd52cb88	-0.051463634
72	0xbde25d3c	-0.11052939
73	0xbd4b8798	-0.04968986
74	0x3c5438a0	0.012952954
75	0x3c939470	0.018015116
76	0x3d6b6de0	0.05747783
77	0xbd0026c0	-0.031286955
78	0xbdba5992	-0.090991154
79	0x3c8f6590	0.017504483
80	0xbca89e20	-0.020583212
81	0xbcc2e6f0	-0.02379176
82	0x3c7cf100	0.015438318
83	0x3cd790e0	0.026314199
84	0x3dbd531c	0.092443675
85	0x3cc998f0	0.02460906
86	0xbcc65530	-0.024210542
87	0x3b0b4f00	0.0021256804
88	0x3c265440	0.010151923
89	0x3d379338	0.044818133
90	0x3a9f3600	0.001214683
91	0x3cc26af0	0.023732632
92	0xbc8dc8d0	-0.017307669
93	0x3caac6c0	0.020846725
94	0xbc720820	-0.014772445
95	0x3c302980	0.010752082
96	0x3c180360	0.009278148
97	0xbd1d3ca8	-0.038387924
98	0xbc90e000	-0.017684937
99	0x3c340ae0	0.010988921
100	0xbd098e60	-0.033583045
101	0x3d09fdf0	0.03368944
102	0xbc8b0320	-0.016969264
103	0x3d309d98	0.043119043
104	0x3c8116f0	0.015758008
105	0xbc03c840	-0.008043349
106	0xba7f7200	-0.00097444654
107	0xbd44cac0	-0.04804492
108	0xbdc4e17c	-0.0961332
109	0xbd348288	-0.044069797
110	0x3d011d10	0.031521857
111	0x3c890980	0.016728163
112	0x3d753d38	0.059872836
113	0xbd051b78	-0.0324969
114	0xbdd917e4	-0.1060026
115	0x3c5d4300	0.013504744
116	0xbc881e40	-0.016615987
117	0xbce21c10	-0.027601272
118	0x3c2850e0	0.010273188
119	0x3d0b9880	0.034080982
120	0x3de8b18c	0.113619894
121	0x3d216c78	0.039410084
122	0xb9fc9400	-0.00048175454
123	0x3bd10440	0.0063786805
124	0x3c3a5260	0.011372179
125	0x3d2a869c	0.04163228
126	0xb5280000	-6.2584877e-07
127	0x3cbc7cb0	0.023008674
128	0xbc947480	-0.018121958
129	0x3cac1ce0	0.021009862
130	0xbc5f32a0	-0.01362291
131	0x3c3bc5a0	0.011460692
132	0x3c83d9c0	0.016095042
133	0xbd172c00	-0.036907196
134	0xbcaecd80	-0.021338224
135	0x3bcfed00	0.0063453913
136	0xbd1ad9a8	-0.03780523
137	0x3cbff8a0	0.023433983
138	0xbcd05450	-0.025430828
139	0x3d19a498	0.037510484
140	0x3c95f3c0	0.018304706
141	0xbc820770	-0.015872687
142	0xbc098e80	-0.008395791
143	0xbd2f25f0	-0.04276079
144	0xbdc4246c	-0.095772594
145	0xbd096768	-0.03354588
146	0x3d36e468	0.04465142
147	0x3c6eae80	0.014567971
148	0x3d79c370	0.0609774
149	0xbd11b768	-0.0355753
150	0xbdb554a8	-0.088540375
151	0x3c5a4d20	0.013324052
152	0xbccd03d0	-0.025026232
153	0xbcd556a0	-0.026042283
154	0x3c9f9370	0.019479483
155	0x3cd9f9e0	0.026608407
156	0x3dc8d2f0	0.09805858
157	0x3cbb1510	0.022837192
158	0xbc150940	-0.009096444
159	0x3b1c7200	0.002387166
160	0x3be18780	0.006882608
161	0x3d2f068c	0.042730853
162	0xb9ea4800	-0.00044685602
163	0x3cab3bd0	0.020902544
164	0xbc83a100	-0.016067982
165	0x3ca1fcf0	0.01977393
166	0xbc7b5780	-0.015340686
167	0x3c39cd00	0.01134038
168	0x3bf20480	0.0073857903
169	0xbd29c1c8	-0.04144457
170	0xbcc32dc0	-0.023825526
171	0x39cc0800	0.00038915873
172	0xbd2e9678	-0.042623967
173	0x3ce78a30	0.028264135
174	0xbca9c1a0	-0.02072221
175	0x3d32a530	0.043614566
176	0x3c892f00	0.016746044
177	0xbc391240	-0.011295855
178	0xbb9ec880	-0.004845679
179	0xbd32a8e8	-0.043618113
180	0xbdeffe90	-0.11718476
181	0xbcef9030	-0.029243559
182	0x3c91da30	0.017804235
183	0x3a92e200	0.0011206269
184	0x3d65b934	0.056084827
185	0xbd009c20	-0.031398892
186	0xbdb2f758	-0.08738583
187	0x3d202718	0.039099783
188	0xbd2ed918	-0.042687505
189	0xbc5e01e0	-0.013550252
190	0x3d411e90	0.047148287
191	0x3c2a8f80	0.01041019
192	0x3dc896d4	0.09794393
193	0x3c8c3910	0.017117053
194	0xbc360ae0	-0.011110991
195	0x3b9a27c0	0.0047044456
196	0x3c165f40	0.009177983
197	0x3d404eb0	0.046950042
198	0xbac16100	-0.001475364
199	0x3ca4d770	0.02012226
200	0xbc7d1ae0	-0.015448302
201	0x3cac9de0	0.021071374
202	0xbc8bcc50	-0.017065197
203	0x3c413360	0.011792034
204	0x3c9a70f0	0.01885268
205	0xbd32c080	-0.043640614
206	0xbcae5ba0	-0.021283925
207	0x3b823800	0.003973961
208	0xbd1882c8	-0.037234098
209	0x3d023550	0.031789124
210	0xbc8a9d30	-0.016920656
211	0x3d2ed560	0.04268396
212	0x3c9378f0	0.018002003
213	0xbc315640	-0.010823786
214	0xbb950980	-0.0045482516
215	0xbd434f98	-0.04768333
216	0xbdd8c3dc	-0.10584232
217	0xbd51ed90	-0.051251948
218	0x3c8cb6b0	0.017176956
219	0x3c9322c0	0.017960906
220	0x3d5a3b54	0.053279236
221	0xbcf1abb0	-0.029500812
222	0xbd8d4c02	-0.06899263
223	0x3ceaa9d0	0.028645426
224	0xbd2a3898	-0.04155788
225	0xbd033418	-0.032032102
226	0x3c08ac60	0.008341879
227	0x3cc22500	0.023699284
228	0x3db638fe	0.08897589
229	0x3cfdae80	0.030966997
230	0x3c634940	0.013872445
231	0x3b81d340	0.0039619505
232	0x3c5b8c60	0.013400167
233	0x3d3cf520	0.046132207
234	0x38a08000	7.6532364e-05
235	0x3caef150	0.021355301
236	0xbc87b5f0	-0.016566247
237	0x3cacf300	0.021111965
238	0xbc5661c0	-0.013084829
239	0x3c2c93e0	0.010533303
240	0x3c8621e0	0.016373575
241	0xbd207c18	-0.039180845
242	0xbcb0b600	-0.02157116
243	0x3c12f340	0.008969128
244	0xbd30d3e0	-0.04317081
245	0x3cd6fb10	0.026242763
246	0xbc971390	-0.018441945
247	0x3d363100	0.044480324
248	0x3c498920	0.01230076
249	0xbbabfdc0	-0.005248755
250	0xbb776680	-0.0037750304
251	0xbd4eb788	-0.050467998
252	0xbdd92498	-0.10602683
253	0xbd37c344	-0.044863954
254	0x3d206f00	0.039168358
255	0x3c82db90	0.015973836

quadA f4 [192, 3, 3]
0	0xbda836a3	-0.08213546
1	0xbbecd2a0	-0.007227257
2	0xbc15c690	-0.009141579
3	0xbbecd2a0	-0.007227257
4	0x3ce6d77c	0.028178923
5	0x3d71f2e4	0.05906953
6	0xbc15c690	-0.009141579
7	0x3d71f2e4	0.05906953
8	0x3d5d0186	0.05395653
9	0xbd0d4284	-0.034487262
10	0x3c0acdc0	0.008471906
11	0xbce3d3e0	-0.02781099
12	0x3c0acdc0	0.008471906
13	0xbc6d6650	-0.014489725
14	0x3e00c582	0.12575343
15	0xbce3d3e0	-0.02781099
16	0x3e00c582	0.12575343
17	0x3d489c14	0.048976973
18	0xbc8721e4	-0.016495652
19	0xbc057470	-0.008145437
20	0xbc41f1b0	-0.011837408
21	0xbc057470	-0.008145437
22	0xbc860634	-0.01636038
23	0x3da81b62	0.08208348
24	0xbc41f1b0	-0.011837408
25	0x3da81b62	0.08208348
26	0x3d06940e	0.03285604
27	0xbce0797b	-0.027401676
28	0xbcc28688	-0.02374579
29	0x3cae7b30	0.021298975
30	0xbcc28688	-0.02374579
31	0x3c8cf9ad	0.017208898
32	0xbcece528	-0.028917864
33	0x3cae7b30	0.021298975
34	0xbcece528	-0.028917864
35	0x3c26ff9a	0.010192776
36	0xbca40ce0	-0.02002567
37	0xbb9ccd60	-0.004785225
38	0xbc198b90	-0.009371653
39	0xbb9ccd60	-0.004785225
40	0x3b855940	0.0040694773
41	0x3c485b90	0.012228861
42	0xbc198b90	-0.009371653
43	0x3c485b90	0.012228861
44	0x3c82b690	0.015956193
45	0xb98c08ac	-0.00026709342
46	0x3b77d6c0	0.003781721
47	0xbc24b0d0	-0.010051921
48	0x3b77d6c0	0.003781721
49	0x3bc41af5	0.005984659
50	0xbb3f0300	-0.0029146075
51	0xbc24b0d0	-0.010051921
52	0xbb3f0300	-0.0029146075
53	0xbbbb5a6b	-0.005717566
54	0x3c245880	0.010030866
55	0xbb0a2700	-0.0021080375
56	0x3b8106e0	0.003937587
57	0xbb0a2700	-0.0021080375
58	0xbbaaf580	-0.005217254
59	0x3b039e80	0.0020083487
60	0x3b8106e0	0.003937587
61	0x3b039e80	0.0020083487
62	0xbb9dbb80	-0.0048136115
63	0x3b234e54	0.0024918513
64	0x3c1c4e40	0.009540141
65	0xbba3eb00	-0.0050023794
66	0x3c1c4e40	0.009540141
67	0x3b324814	0.0027203606
68	0xbc110ee0	-0.008853644
69	0xbba3eb00	-0.0050023794
70	0xbc110ee0	-0.008853644
71	0xbbaacb36	-0.005212213
72	0xb9b79156	-0.00035012764
73	0x3c23c640	0.009995997
74	0x39978400	0.00028899312
75	0x3c23c640	0.009995997
76	0xba73e4ab	-0.00093037885
77	0xbb823ee0	-0.0039747804
78	0x39978400	0.00028899312
79	0xbb823ee0	-0.0039747804
80	0x3aa7d6aa	0.0012805064
81	0x3be35660	0.006937787
82	0x3b01bb40	0.0019795448
83	0x3aad8900	0.0013239682
84	0x3b01bb40	0.0019795448
85	0xbb9c8ca0	-0.004777506
86	0x3b94afc0	0.0045375526
87	0x3aad8900	0.0013239682
88	0x3b94afc0	0.0045375526
89	0xbb0d9380	-0.002160281
90	0x3b6d8796	0.0036244146
91	0x3b989c60	0.004657313
92	0x3ac47300	0.0014987886
93	0x3b989c60	0.004657313
94	0xbb4907ea	-0.0030674883
95	0xb796c000	-1.79708e-05
96	0x3ac47300	0.0014987886
97	0xb796c000	-1.79708e-05
98	0xba11feaa	-0.0005569259
99	0x3c146330	0.009056851
100	0x3ac51580	0.0015036315
101	0xbbb79640	-0.005602628
102	0x3ac51580	0.0015036315
103	0x3b572480	0.0032828152
104	0xbb4da780	-0.0031380355
105	0xbbb79640	-0.005602628
106	0xbb4da780	-0.0031380355
107	0xbc4a2c50	-0.0123396665
108	0xbd854404	-0.065071136
109	0x3bcfd4a0	0.0063424855
110	0xbcc71a70	-0.024304599
111	0x3bcfd4a0	0.0063424855
112	0x3c081340	0.008305371
113	0x3d766868	0.060158163
114	0xbcc71a70	-0.024304599
115	0x3d766868	0.060158163
116	0x3d688338	0.056765765
117	0xbb864920	-0.0040980726
118	0xbc05d190	-0.008167639
119	0xbbdb4d40	-0.0066925585
120	0xbc05d190	-0.008167639
121	0xbd2ebb7c	-0.042659268
122	0x3df33468	0.1187523
123	0xbbdb4d40	-0.0066925585
124	0x3df33468	0.1187523
125	0x3d3f8498	0.04675731
126	0x3c0855aa	0.008321205
127	0xbc852e58	-0.01625745
128	0x3c11ca20	0.008898288
129	0xbc852e58	-0.01625745
130	0xbc8bf15b	-0.01708286
131	0x3d014604	0.031560913
132	0x3c11ca20	0.008898288
133	0x3d014604	0.031560913
134	0x3c0f8d0a	0.008761654
135	0xbd3b14b3	-0.045674037
136	0xbd249384	-0.040179744
137	0x3d0357d4	0.03206618
138	0xbd249384	-0.040179744
139	0x3cc97baa	0.0245951
140	0xbb0bf7c0	-0.0021357387
141	0x3d0357d4	0.03206618
142	0xbb0bf7c0	-0.0021357387
143	0x3cacadba	0.021078933
144	0xbbe03240	-0.0068419278
145	0x3a6d6700	0.0009056181
146	0xbabf3500	-0.0014587939
147	0x3a6d6700	0.0009056181
148	0x3b1cbdc0	0.002391681
149	0x3bd0a060	0.0063667744
150	0xbabf3500	-0.0014587939
151	0x3bd0a060	0.0063667744
152	0x3b91d360	0.0044502467
153	0x3a94a12b	0.0011339536
154	0x3b9f32c0	0.004858345
155	0xbc2e8ae0	-0.010653228
156	0x3b9f32c0	0.004858345
157	0x3befc74b	0.0073174587
158	0xbb2baa40	-0.0026194006
159	0xbc2e8ae0	-0.010653228
160	0xbb2baa40	-0.0026194006
161	0xbc0a77cb	-0.008451412
162	0x3c1cb47a	0.009564513
163	0xbadfd000	-0.0017075539
164	0x3b5ba1c0	0.0033513159
165	0xbadfd000	-0.0017075539
166	0xbb9f2e8b	-0.0048578433
167	0xb8e13000	-0.00010737777
168	0x3b5ba1c0	0.0033513159
169	0xb8e13000	-0.00010737777
170	0xbb9a3a6b	-0.004706671
171	0x3a693e50	0.000889753
172	0x3c1db150	0.009624794
173	0xbbaf39c0	-0.0053474605
174	0x3c1db150	0.009624794
175	0x3b1dd514	0.0024083303
176	0xbbcc9ec0	-0.0062445104
177	0xbbaf39c0	-0.0053474605
178	0xbbcc9ec0	-0.0062445104
179	0xbb5824ac	-0.0032980843
180	0xbb40b06b	-0.0029402028
181	0x3c53bf70	0.01292406
182	0x39942e00	0.00028263032
183	0x3c53bf70	0.01292406
184	0x3a4c3756	0.0007790228
185	0xbb3c8380	-0.0028764904
186	0x39942e00	0.00028263032
187	0xbb3c8380	-0.0028764904
188	0x3b0da295	0.00216118
189	0x3c161e25	0.00916246
190	0x3a15cf00	0.00057147443
191	0x3ab3ef80	0.0013727993
192	0x3a15cf00	0.00057147443
193	0xbbc24bf5	-0.005929465
194	0x3badf900	0.005309224
195	0x3ab3ef80	0.0013727993
196	0x3badf900	0.005309224
197	0xbb53e0ab	-0.0032329957
198	0x3b925060	0.004465148
199	0x3c085940	0.00832206
200	0x3b366dc0	0.0027836412
201	0x3c085940	0.00832206
202	0xbb1a9a80	-0.0023590624
203	0xbaea3900	-0.001786977
204	0x3b366dc0	0.0027836412
205	0xbaea3900	-0.001786977
206	0xbb0a0640	-0.0021060854
207	0x3bc076d6	0.0058735413
208	0x3b04e840	0.0020280033
209	0xbba82a40	-0.0051319897
210	0x3b04e840	0.0020280033
211	0xba64f054	-0.00087333214
212	0xbaa26d80	-0.0012392253
213	0xbba82a40	-0.0051319897
214	0xbaa26d80	-0.0012392253
215	0xbba3d8ca	-0.0050002085
216	0xbd67c4f6	-0.05658432
217	0xbcb702e8	-0.022340253
218	0xbba752a0	-0.005106285
219	0xbcb702e8	-0.022340253
220	0x3c119d68	0.008887626
221	0x3d84a142	0.0647607
222	0xbba752a0	-0.005106285
223	0x3d84a142	0.0647607
224	0x3d435d96	0.047696672
225	0xbd2611c4	-0.040544286
226	0x3a856000	0.0010175705
227	0xbcc74fc0	-0.02433002
228	0x3a856000	0.0010175705
229	0xbc92f520	-0.01793915
230	0x3df3ca76	0.11903851
231	0xbcc74fc0	-0.02433002
232	0x3df3ca76	0.11903851
233	0x3d6f8c54	0.058483437
234	0xbb9dc310	-0.004814513
235	0xbc04b0a0	-0.008098751
236	0xbc0f3f80	-0.008743167
237	0xbc04b0a0	-0.008098751
238	0xbcf61a5c	-0.030041866
239	0x3db53aa8	0.088490784
240	0xbc0f3f80	-0.008743167
241	0x3db53aa8	0.088490784
242	0x3d0ec596	0.0348564
243	0xbc2b3c20	-0.010451347
244	0xbc9a3c60	-0.018827617
245	0x3bb3eae0	0.0054906458
246	0xbc9a3c60	-0.018827617
247	0x3bbd6920	0.005780354
248	0xbca2ea28	-0.019887045
249	0x3bb3eae0	0.0054906458
250	0xbca2ea28	-0.019887045
251	0x3b990f20	0.0046709925
252	0xbcedf958	-0.02904956
253	0xbbd5eec0	-0.0065287054
254	0x3b0a7b40	0.0021130592
255	0xbbd5eec0	-0.0065287054

hfvrA f4 [192, 1]
0	0x3f8dd86c	1.1081672
1	0x3f10b91b	0.5653245
2	0x3f95f794	1.171618
3	0x3fb58ec8	1.4184198
4	0x3f8ecdb8	1.115653
5	0x3ea9702c	0.33093393
6	0x3e567dac	0.20946378
7	0x3e01e91c	0.1268658
8	0x3ec0322c	0.37538278
9	0x3ea9c1ee	0.3315577
10	0x3e8b9d90	0.27268648
11	0x3ede38f0	0.43402815
12	0x3f907f8d	1.1288925
13	0x3f143d00	0.5790558
14	0x3fa4b17e	1.2866666
15	0x3fb185a0	1.3868904
16	0x3f8e5082	1.1118319
17	0x3eb7e698	0.35918117
18	0x3e058e14	0.1304248
19	0x3e4485f0	0.19191718
20	0x3ea9d3fc	0.33169544
21	0x3eada4e6	0.3391487
22	0x3eac452a	0.33646518
23	0x3e9fcf4a	0.31212837
24	0x3f89fd54	1.0780435
25	0x3f11b014	0.569093
26	0x3f97bf8b	1.1855329
27	0x3fb570ea	1.4175084
28	0x3f8cf1b3	1.1011261
29	0x3eb45738	0.35222793
30	0x3e42bf80	0.19018364
31	0x3e2b3168	0.16718066
32	0x3e9a10be	0.30090898
33	0x3ea9a41a	0.33133012
34	0x3eb46ff2	0.35241657
35	0x3e9abb46	0.30221003
36	0x3f8830e5	1.0639921
37	0x3f19d6c7	0.6009335
38	0x3f936d74	1.1517777
39	0x3fb86a08	1.4407358
40	0x3f8ad82d	1.0847222
41	0x3e8cbdf0	0.2748866
42	0x3e2dc304	0.16968924
43	0x3e12871c	0.14309353
44	0x3ea64534	0.32474673
45	0x3ebef052	0.37292725
46	0x3ea8278e	0.32842678
47	0x3eb88b3c	0.36043727
48	0x3f8a80db	1.0820574
49	0x3f15b768	0.5848298
50	0x3f928940	1.1448135
51	0x3fba7b14	1.456881
52	0x3f8b7f90	1.0898304
53	0x3e764f78	0.24053752
54	0x3e257a14	0.1615985
55	0x3e287ec4	0.16454607
56	0x3ec47e74	0.38377726
57	0x3ec26f72	0.3797565
58	0x3eca07be	0.39459032
59	0x3e8b48d8	0.27204013
60	0x3f8be8dc	1.0930438
61	0x3f1bd7aa	0.6087595
62	0x3f9665dc	1.1749835
63	0x3fba9147	1.4575585
64	0x3f895967	1.0730408
65	0x3e9f075a	0.31060296
66	0x3dba6518	0.09101313
67	0x3e3a3c14	0.1818698
68	0x3eced780	0.40398788
69	0x3eaa05a0	0.33207417
70	0x3eb6ed48	0.35727906
71	0x3ea040a8	0.3129933
72	0x3f8c0282	1.0938265
73	0x3f12de64	0.5737059
74	0x3f952d76	1.1654499
75	0x3fba114a	1.4536526
76	0x3f8b98e6	1.0906036
77	0x3eb0437e	0.34426492
78	0x3e342664	0.1759277
79	0x3e1dc7b4	0.15408212
80	0x3ea88b9e	0.3291902
81	0x3ea65312	0.32485253
82	0x3e92935e	0.28628057
83	0x3ec8a776	0.39190263
84	0x3f8e388b	1.1111006
85	0x3f171bf1	0.5902701
86	0x3f8f757b	1.1207727
87	0x3fbb2ec8	1.4623652
88	0x3f8b4425	1.0880171
89	0x3e930f02	0.28722388
90	0x3e0afd64	0.13573223
91	0x3e109020	0.1411748
92	0x3ebe1448	0.37124848
93	0x3eba1e8a	0.36351424
94	0x3ead1a22	0.33809
95	0x3ea5a45c	0.3235196
96	0x3f8cef26	1.1010482
97	0x3f155996	0.5833982
98	0x3f98de07	1.1942757
99	0x3fb3a76c	1.4035468
100	0x3f8afa80	1.0857697
101	0x3e9b4cf2	0.30332142
102	0x3e18c178	0.14917552
103	0x3e10345c	0.14082474
104	0x3ec80e2a	0.39073306
105	0x3e9f4042	0.31103712
106	0x3eb74396	0.3579375
107	0x3eb7d31c	0.3590325
108	0x3f8f3756	1.1188762
109	0x3f13f87f	0.5780105
110	0x3f907358	1.12852
111	0x3fb7b848	1.4353113
112	0x3f8d5efe	1.1044614
113	0x3e982ca4	0.29721558
114	0x3e280c90	0.16411042
115	0x3e201334	0.15632325
116	0x3e9d883e	0.30768007
117	0x3eb4f76a	0.35345012
118	0x3ea9721c	0.3309487
119	0x3ea93a2c	0.33052194
120	0x3f8d3d92	1.1034415
121	0x3f1a7f54	0.6035054
122	0x3f980206	1.1875618
123	0x3fb654f0	1.4244671
124	0x3f8da49a	1.1065857
125	0x3ebe5866	0.37176818
126	0x3e045914	0.12924606
127	0x3e317da8	0.1733309
128	0x3eac2918	0.33625102
129	0x3eac98b4	0.33710253
130	0x3ea26fde	0.31725973
131	0x3ecce9ce	0.4002213
132	0x3f89e7b0	1.077383
133	0x3f13d411	0.5774546
134	0x3f94ece5	1.1634794
135	0x3fb616b3	1.4225677
136	0x3f8c8e48	1.0980921
137	0x3ec4735e	0.38369268
138	0x3e16514c	0.1467945
139	0x3e2cd090	0.16876435
140	0x3ead63e2	0.33865267
141	0x3ebd270e	0.3694386
142	0x3ea18840	0.31549263
143	0x3edea336	0.43483895
144	0x3f8ea34f	1.1143588
145	0x3f1e4dc5	0.61837417
146	0x3f9cf0b8	1.2260962
147	0x3fb17320	1.3863258
148	0x3f88223f	1.0635451
149	0x3ea5b134	0.32361758
150	0x3e12d3c4	0.14338595
151	0x3e2504bc	0.16115087
152	0x3e9ad11c	0.30237663
153	0x3eafc41e	0.34329313
154	0x3e9dba70	0.30806303
155	0x3eaa810a	0.33301574
156	0x3f8c4290	1.0957813
157	0x3f140a1d	0.5782793
158	0x3f9a544b	1.2056974
159	0x3fb457ae	1.4089258
160	0x3f8994d3	1.0748543
161	0x3eaf5b88	0.3424952
162	0x3e222cdc	0.15837425
163	0x3e49c920	0.1970563
164	0x3eab9892	0.3351484
165	0x3eb75534	0.35807192
166	0x3e95b112	0.29236656
167	0x3eada3ee	0.3391413
168	0x3f89b74e	1.0759065
169	0x3f1b8fb0	0.60766125
170	0x3f95d15c	1.1704516
171	0x3fb94439	1.4473945
172	0x3f8c1e53	1.0946754
173	0x3ebff7d2	0.3749376
174	0x3e252b44	0.16129786
175	0x3e0e8a04	0.13919836
176	0x3ebc1e84	0.36742032
177	0x3e9d825e	0.30763525
178	0x3ebbb544	0.36661732
179	0x3ed32960	0.41242504
180	0x3f8d8e86	1.105912
181	0x3f0e810e	0.5566567
182	0x3f91bf09	1.1386424
183	0x3fb9d464	1.4517941
184	0x3f8f2410	1.118288
185	0x3ec17c54	0.37790167
186	0x3e30a56c	0.17250603
187	0x3e295ab4	0.16538507
188	0x3eb2e20e	0.3493809
189	0x3eab180e	0.3341679
190	0x3ea07e10	0.31346178
191	0x3eb4f114	0.35340178

vwA f4 [192, 1]
0	0x3f053b11	0.52043253
1	0x3eebf074	0.4608189
2	0x3ecd414f	0.4008889
3	0x3eef70b1	0.46765664
4	0x3f05ca10	0.5226145
5	0x3ec38090	0.38184023
6	0x3ebc37b4	0.36761248
7	0x3ea3cfc9	0.31994465
8	0x3ec888f1	0.39166978
9	0x3ec3b3bd	0.38223067
10	0x3eb99124	0.36243546
11	0x3ed14440	0.40872383
12	0x3f0688f0	0.525527
13	0x3eed1b58	0.46309924
14	0x3ed21bcb	0.4103683
15	0x3eedc612	0.46440178
16	0x3f05d14a	0.52272475
17	0x3ec7de21	0.39036658
18	0x3ea65893	0.32489452
19	0x3eb5340e	0.35391277
20	0x3ec42d6c	0.38315904
21	0x3ec569bd	0.38557234
22	0x3ec4ffff	0.3847656
23	0x3ec0ddf6	0.37669343
24	0x3f043808	0.51647997
25	0x3eec076f	0.4609942
26	0x3ecd74ec	0.40128267
27	0x3ef0690b	0.4695514
28	0x3f057de8	0.5214524
29	0x3ec6d02f	0.38830706
30	0x3eb80b4a	0.35946113
31	0x3eaf102d	0.3419203
32	0x3ebee8ac	0.3728689
33	0x3ec3e897	0.3826339
34	0x3ec84e2c	0.3912214
35	0x3ebfa410	0.37429857
36	0x3f03c8d6	0.51478326
37	0x3ef0f786	0.47063845
38	0x3ecce9a2	0.40021998
39	0x3ef01a02	0.46894842
40	0x3f04e580	0.5191269
41	0x3ebb00fc	0.3652419
42	0x3eb2091f	0.34772584
43	0x3ea98989	0.33112743
44	0x3ec3aaf7	0.38216373
45	0x3ec9550b	0.39322695
46	0x3ec33c8a	0.38132125
47	0x3ec9dc55	0.39425912
48	0x3f044c3b	0.5167882
49	0x3eee5915	0.4655234
50	0x3ecbcd77	0.39805195
51	0x3ef1539a	0.47134095
52	0x3f0510c2	0.51978695
53	0x3eb40615	0.3516089
54	0x3eb00efb	0.3438643
55	0x3eae9ce7	0.34104082
56	0x3ec9bd0c	0.39402044
57	0x3ecb49e1	0.39704803
58	0x3ecd70bc	0.40125072
59	0x3eb97e0e	0.36228985
60	0x3f053f48	0.52049685
61	0x3ef1709c	0.47156227
62	0x3ecdee44	0.40220845
63	0x3ef0ced4	0.47032797
64	0x3f047af4	0.5175011
65	0x3ec0df48	0.3767035
66	0x3e96c958	0.29450488
67	0x3eb38196	0.35059804
68	0x3ece342b	0.40274176
69	0x3ec34c3e	0.38144106
70	0x3ec7ba5c	0.39009368
71	0x3ec05a0f	0.3756871
72	0x3f04ea0b	0.5191962
73	0x3eece919	0.4627159
74	0x3eccba7e	0.39986032
75	0x3ef14081	0.47119525
76	0x3f051e47	0.51999325
77	0x3ec5a967	0.38605806
78	0x3eb317de	0.34979147
79	0x3eac4bb6	0.33651513
80	0x3ec3366e	0.38127464
81	0x3ec28e1a	0.3799904
82	0x3ebc22de	0.36745352
83	0x3ecc98dc	0.39960372
84	0x3f051291	0.51981455
85	0x3eef7e96	0.46776265
86	0x3ecb4ea6	0.39708441
87	0x3ef088e7	0.46979448
88	0x3f04ed74	0.51924825
89	0x3ebc859c	0.36820686
90	0x3ea70a32	0.32624966
91	0x3ea86baa	0.3289464
92	0x3ec7acad	0.3899893
93	0x3ec859a7	0.391309
94	0x3ec5076f	0.38482234
95	0x3ec28ac0	0.37996483
96	0x3f0520f6	0.5200342
97	0x3eee5b52	0.46554047
98	0x3ece502f	0.4029555
99	0x3eee8f08	0.465935
100	0x3f0534a1	0.5203343
101	0x3ebfa589	0.3743098
102	0x3eab596a	0.33466655
103	0x3ea68703	0.3252488
104	0x3eccfaa7	0.40034983
105	0x3ec025ca	0.3752883
106	0x3ec81c61	0.3908415
107	0x3ec8ff91	0.39257482
108	0x3f050cef	0.5197286
109	0x3eed5718	0.4635551
110	0x3ecb5ed0	0.39720774
111	0x3ef01215	0.46888795
112	0x3f05a51b	0.52205056
113	0x3ebd5c90	0.36984682
114	0x3eaf9859	0.3429592
115	0x3eac2c7d	0.33627692
116	0x3ebf6796	0.37383717
117	0x3ec6ee6d	0.3885378
118	0x3ec40f60	0.3829298
119	0x3ec4319d	0.38319102
120	0x3f0591a1	0.5217534
121	0x3ef109af	0.470777
122	0x3ece8278	0.40333915
123	0x3eeff941	0.46869853
124	0x3f0609f8	0.5235896
125	0x3ec99747	0.39373228
126	0x3ea63752	0.3246408
127	0x3eb0bf0b	0.34520754
128	0x3ec4e89e	0.38458723
129	0x3ec4e709	0.38457516
130	0x3ec1ad1b	0.37827381
131	0x3ecef0b6	0.40418023
132	0x3f048886	0.5177082
133	0x3eed2332	0.46315914
134	0x3ecc8d37	0.39951488
135	0x3eefa922	0.46808726
136	0x3f058cde	0.5216807
137	0x3ecb6e30	0.39732504
138	0x3ea9c0e2	0.3315497
139	0x3eaf6b75	0.3426167
140	0x3ec54bb6	0.38534325
141	0x3ec9ef6f	0.39440486
142	0x3ec1729c	0.37782753
143	0x3ed0a801	0.40753177
144	0x3f055299	0.5207916
145	0x3ef22e36	0.4730088
146	0x3ed03d91	0.4067197
147	0x3eee23f0	0.46511793
148	0x3f03f5ee	0.51547134
149	0x3ec33b76	0.38131303
150	0x3ea99adf	0.3312597
151	0x3eada1a7	0.33912393
152	0x3ebf7b97	0.3739898
153	0x3ec4a093	0.38403758
154	0x3ebf3a9f	0.37349412
155	0x3ec3e153	0.38257846
156	0x3f050386	0.519585
157	0x3eed830c	0.46389043
158	0x3ece840f	0.40335128
159	0x3eefcb47	0.46834776
160	0x3f0472ae	0.5173749
161	0x3ec61646	0.38688868
162	0x3eaec4c0	0.34134483
163	0x3eb5e7b7	0.35528347
164	0x3ec49c7c	0.38400638
165	0x3ec7a0d7	0.389899
166	0x3ebc7d30	0.3681426
167	0x3ec528d2	0.38507706
168	0x3f04a995	0.5182126
169	0x3ef16770	0.4714923
170	0x3ece0780	0.40240097
171	0x3ef11f71	0.470943
172	0x3f0562d1	0.52103907
173	0x3ec995eb	0.3937219
174	0x3eb01392	0.3438993
175	0x3ea8721e	0.32899565
176	0x3ec8bd28	0.39206815
177	0x3ebf77aa	0.37395984
178	0x3eca057d	0.39457312
179	0x3ece39ec	0.40278566
180	0x3f0553e0	0.5208111
181	0x3eea3852	0.45746094
182	0x3ecb62a6	0.397237
183	0x3ef12cf8	0.4710462
184	0x3f06746a	0.52521384
185	0x3ec79038	0.38977218
186	0x3eb258a0	0.3483324
187	0x3eae2318	0.3401115
188	0x3ec550f2	0.3853832
189	0x3ec4504c	0.38342512
190	0x3ec14e81	0.37755206
191	0x3ec85530	0.39127493

alpha_0_A f4 [3072]
0	0x413b30aa	11.699381
1	0x413b30aa	11.699381
2	0x40a66913	5.2003264
3	0x40e8044c	7.2505245
4	0x413b30aa	11.699381
5	0x408ff91e	4.49916
6	0x408ff91e	4.49916
7	0x408ff91e	4.49916
8	0x408ff91e	4.49916
9	0x408ff91e	4.49916
10	0x408ff91e	4.49916
11	0x408ff91e	4.49916
12	0x413b30aa	11.699381
13	0x413b30aa	11.699381
14	0x40a66913	5.2003264
15	0x40e8044c	7.2505245
16	0x413b30aa	11.699381
17	0x408ff91e	4.49916
18	0x408ff91e	4.49916
19	0x408ff91e	4.49916
20	0x408ff91e	4.49916
21	0x408ff91e	4.49916
22	0x408ff91e	4.49916
23	0x408ff91e	4.49916
24	0x413b30aa	11.699381
25	0x413b30aa	11.699381
26	0x40a66913	5.2003264
27	0x40e8044c	7.2505245
28	0x413b30aa	11.699381
29	0x408ff91e	4.49916
30	0x408ff91e	4.49916
31	0x408ff91e	4.49916
32	0x408ff91e	4.49916
33	0x408ff91e	4.49916
34	0x408ff91e	4.49916
35	0x408ff91e	4.49916
36	0x413b30aa	11.699381
37	0x413b30aa	11.699381
38	0x40a66913	5.2003264
39	0x40e8044c	7.2505245
40	0x413b30aa	11.699381
41	0x408ff91e	4.49916
42	0x408ff91e	4.49916
43	0x408ff91e	4.49916
44	0x408ff91e	4.49916
45	0x408ff91e	4.49916
46	0x408ff91e	4.49916
47	0x408ff91e	4.49916
48	0x413b30aa	11.699381
49	0x413b30aa	11.699381
50	0x40a66913	5.2003264
51	0x40e8044c	7.2505245
52	0x413b30aa	11.699381
53	0x408ff91e	4.49916
54	0x408ff91e	4.49916
55	0x408ff91e	4.49916
56	0x408ff91e	4.49916
57	0x408ff91e	4.49916
58	0x408ff91e	4.49916
59	0x408ff91e	4.49916
60	0x413b30aa	11.699381
61	0x413b30aa	11.699381
62	0x40a66913	5.2003264
63	0x40e8044c	7.2505245
64	0x413b30aa	11.699381
65	0x408ff91e	4.49916
66	0x408ff91e	4.49916
67	0x408ff91e	4.49916
68	0x408ff91e	4.49916
69	0x408ff91e	4.49916
70	0x408ff91e	4.49916
71	0x408ff91e	4.49916
72	0x413b30aa	11.699381
73	0x413b30aa	11.699381
74	0x40a66913	5.2003264
75	0x40e8044c	7.2505245
76	0x413b30aa	11.699381
77	0x408ff91e	4.49916
78	0x408ff91e	4.49916
79	0x408ff91e	4.49916
80	0x408ff91e	4.49916
81	0x408ff91e	4.49916
82	0x408ff91e	4.49916
83	0x408ff91e	4.49916
84	0x413b30aa	11.699381
85	0x413b30aa	11.699381
86	0x40a66913	5.2003264
87	0x40e8044c	7.2505245
88	0x413b30aa	11.699381
89	0x408ff91e	4.49916
90	0x408ff91e	4.49916
91	0x408ff91e	4.49916
92	0x408ff91e	4.49916
93	0x408ff91e	4.49916
94	0x408ff91e	4.49916
95	0x408ff91e	4.49916
96	0x413b30aa	11.699381
97	0x413b30aa	11.699381
98	0x40a66913	5.2003264
99	0x40e8044c	7.2505245
100	0x413b30aa	11.699381
101	0x408ff91e	4.49916
102	0x408ff91e	4.49916
103	0x408ff91e	4.49916
104	0x408ff91e	4.49916
105	0x408ff91e	4.49916
106	0x408ff91e	4.49916
107	0x408ff91e	4.49916
108	0x413b30aa	11.699381
109	0x413b30aa	11.699381
110	0x40a66913	5.2003264
111	0x40e8044c	7.2505245
112	0x413b30aa	11.699381
113	0x408ff91e	4.49916
114	0x408ff91e	4.49916
115	0x408ff91e	4.49916
116	0x408ff91e	4.49916
117	0x408ff91e	4.49916
118	0x408ff91e	4.49916
119	0x408ff91e	4.49916
120	0x413b30aa	11.699381
121	0x413b30aa	11.699381
122	0x40a66913	5.2003264
123	0x40e8044c	7.2505245
124	0x413b30aa	11.699381
125	0x408ff91e	4.49916
126	0x408ff91e	4.49916
127	0x408ff91e	4.49916
128	0x408ff91e	4.49916
129	0x408ff91e	4.49916
130	0x408ff91e	4.49916
131	0x408ff91e	4.49916
132	0x413b30aa	11.699381
133	0x413b30aa	11.699381
134	0x40a66913	5.2003264
135	0x40e8044c	7.2505245
136	0x413b30aa	11.699381
137	0x408ff91e	4.49916
138	0x408ff91e	4.49916
139	0x408ff91e	4.49916
140	0x408ff91e	4.49916
141	0x408ff91e	4.49916
142	0x408ff91e	4.49916
143	0x408ff91e	4.49916
144	0x413b30aa	11.699381
145	0x413b30aa	11.699381
146	0x40a66913	5.2003264
147	0x40e8044c	7.2505245
148	0x413b30aa	11.699381
149	0x408ff91e	4.49916
150	0x408ff91e	4.49916
151	0x408ff91e	4.49916
152	0x408ff91e	4.49916
153	0x408ff91e	4.49916
154	0x408ff91e	4.49916
155	0x408ff91e	4.49916
156	0x413b30aa	11.699381
157	0x413b30aa	11.699381
158	0x40a66913	5.2003264
159	0x40e8044c	7.2505245
160	0x413b30aa	11.699381
161	0x408ff91e	4.49916
162	0x408ff91e	4.49916
163	0x408ff91e	4.49916
164	0x408ff91e	4.49916
165	0x408ff91e	4.49916
166	0x408ff91e	4.49916
167	0x408ff91e	4.49916
168	0x413b30aa	11.699381
169	0x413b30aa	11.699381
170	0x40a66913	5.2003264
171	0x40e8044c	7.2505245
172	0x413b30aa	11.699381
173	0x408ff91e	4.49916
174	0x408ff91e	4.49916
175	0x408ff91e	4.49916
176	0x408ff91e	4.49916
177	0x408ff91e	4.49916
178	0x408ff91e	4.49916
179	0x408ff91e	4.49916
180	0x413b30aa	11.699381
181	0x413b30aa	11.699381
182	0x40a66913	5.2003264
183	0x40e8044c	7.2505245
184	0x413b30aa	11.699381
185	0x408ff91e	4.49916
186	0x408ff91e	4.49916
187	0x408ff91e	4.49916
188	0x408ff91e	4.49916
189	0x408ff91e	4.49916
190	0x408ff91e	4.49916
191	0x408ff91e	4.49916
192	0x413b30aa	11.699381
193	0x413b30aa	11.699381
194	0x40a66913	5.2003264
195	0x40e8044c	7.2505245
196	0x413b30aa	11.699381
197	0x408ff91e	4.49916
198	0x408ff91e	4.49916
199	0x408ff91e	4.49916
200	0x408ff91e	4.49916
201	0x408ff91e	4.49916
202	0x408ff91e	4.49916
203	0x408ff91e	4.49916
204	0x413b30aa	11.699381
205	0x413b30aa	11.699381
206	0x40a66913	5.2003264
207	0x40e8044c	7.2505245
208	0x413b30aa	11.699381
209	0x408ff91e	4.49916
210	0x408ff91e	4.49916
211	0x408ff91e	4.49916
212	0x408ff91e	4.49916
213	0x408ff91e	4.49916
214	0x408ff91e	4.49916
215	0x408ff91e	4.49916
216	0x413b30aa	11.699381
217	0x413b30aa	11.699381
218	0x40a66913	5.2003264
219	0x40e8044c	7.2505245
220	0x413b30aa	11.699381
221	0x408ff91e	4.49916
222	0x408ff91e	4.49916
223	0x408ff91e	4.49916
224	0x408ff91e	4.49916
225	0x408ff91e	4.49916
226	0x408ff91e	4.49916
227	0x408ff91e	4.49916
228	0x413b30aa	11.699381
229	0x413b30aa	11.699381
230	0x40a66913	5.2003264
231	0x40e8044c	7.2505245
232	0x413b30aa	11.699381
233	0x408ff91e	4.49916
234	0x408ff91e	4.49916
235	0x408ff91e	4.49916
236	0x408ff91e	4.49916
237	0x408ff91e	4.49916
238	0x408ff91e	4.49916
239	0x408ff91e	4.49916
240	0x413b30aa	11.699381
241	0x413b30aa	11.699381
242	0x40a66913	5.2003264
243	0x40e8044c	7.2505245
244	0x413b30aa	11.699381
245	0x408ff91e	4.49916
246	0x408ff91e	4.49916
247	0x408ff91e	4.49916
248	0x408ff91e	4.49916
249	0x408ff91e	4.49916
250	0x408ff91e	4.49916
251	0x408ff91e	4.49916
252	0x413b30aa	11.699381
253	0x413b30aa	11.699381
254	0x40a66913	5.2003264
255	0x40e8044c	7.2505245
