tests/test_data_path/og_processed/dimer_ap3_train_spec_7_193.pt (torch, 326546 bytes, 17 tensors)

y f4 [16, 4]
00000000: 94a1 273f a8e8 143b 5a59 1abf dfae 63be
00000010: b6f8 513f 4dc0 ba3d d380 58bf 3d70 dfbe
00000020: f512 3240 cd64 ca3e ce6e 8fbf bf9f 38bf
00000030: 117d 3c3f 761f c834 2cb4 0abe 7ccb b7bc
00000040: 05a2 efbf b2f7 2c40 5190 24c0 4c12 0cc0
00000050: d344 d63f 97fd 103d 0565 20bf 22ae c1be
00000060: e86b f5c0 ddd0 2b40 ec3a f4bf 1474 ddbf
00000070: cf5c abc0 082f b741 d6c6 b6c0 c34f 28c1
00000080: 9687 33c1 30a7 8c3f db38 59c0 0712 b9bf
00000090: 8914 6e3f 117c f63a fb57 0abf 6ecb 51be
000000a0: 6e67 493e ca37 1b3c 4830 3abf 6854 a5be
000000b0: c4c9 443f d9cb ea3a d604 21bf ba84 58be
000000c0: 92a3 dcc0 6589 593e ddde d0bf 9bf1 73bf
000000d0: c057 efc1 9020 7b42 ebaf aac1 5fd9 67c1
000000e0: c6d9 aec0 69cf 8c41 12e8 bac0 e83a ecc0
000000f0: e4e1 13c0 7272 4e3b ce4e 25bf 3446 3bbe
0.65480924 0.0022721682 -0.6029259 -0.22234677 0.8202013 0.0911871 -0.8457157 -0.4364032
2.782407 0.3953003 -1.120569 -0.72118753 0.73628336 3.7275794e-07 -0.13545293 -0.022435896
-1.872132 2.7026181 -2.5713084 -2.1886168 1.6739753 0.035398092 -0.62654144 -0.37828165
-7.669422 2.684623 -1.9080482 -1.7301049 -5.355079 22.897964 -5.711772 -10.519473
-11.220602 1.0988522 -3.3940952 -1.4458627 0.93000084 0.0018805285 -0.540405 -0.20487759
0.19668362 0.00947375 -0.7272992 -0.3229096 0.7687037 0.0017913535 -0.62898004 -0.21144381
-6.894967 0.21243818 -1.6318012 -0.95290536 -29.917847 62.7818 -21.335897 -14.490569
-5.4640837 17.601274 -5.840829 -7.3821907 -2.3106623 0.003150132 -0.6457337 -0.18288499

RA f4 [208, 3]
00000000: 984f 463e cbdb 813e c1e1 c5be c618 3cbf
00000010: 61fe 84bf 35b2 cf3f ccb6 7b3f ca8b 9e3f
00000020: c8b1 71bf 98f8 633d 81b2 c93d 9acd 6b3f
00000030: b187 debe 5ce3 0bbf ca1b 98bf 78b7 e2bf
00000040: b3b1 4abf 0b0d c63f 4390 dbbe 1557 efbf
00000050: d4ef 923f 9cfc 0abf 6ec2 75bf 0247 2840
00000060: 162f c83f ff25 d73f c4af a8be bbd5 813f
00000070: 0421 ab3f 5a62 f7bf 18eb eb3e 76aa 5c3f
00000080: 8d29 be3f f069 9ebe 7fc2 0dbf 0740 0ec0
00000090: 8d41 9bbf 2846 92bf 54a8 62bf 535c 153e
000000a0: eb8e 353e d313 aebe a2b3 34bf fe7c 6fbf
000000b0: f181 cf3f 10af 833f 1d5a 983f 9819 66bf
000000c0: 06f4 02bd 3c50 a73d adc2 7a3f 06be dabe
000000d0: 5530 22bf 5e85 98bf 0471 e4bf e4d9 45bf
000000e0: 61e1 c23f 999a c4be bf45 f9bf 3b36 983f
000000f0: cc41 00bf 780e 59bf 514a 2d40 61a9 c83f
00000100: f372 d63f fe44 85be e141 813f 31ce af3f
00000110: 8d24 f1bf e658 d63e 4f58 5e3f 2d79 c03f
00000120: 085b 9cbe 6cb5 17bf ee3d 0dc0 58cb 9fbf
00000130: f38f 90bf 368f 6fbf 1d04 fd3d 9b3d 503e
00000140: 3049 e5be c37d 4cbf f2ce 65bf 6bb7 c73f
00000150: d89c 7f3f 62bb 9b3f 63b5 5dbf 83a6 253d
00000160: 5b44 f43d 55c2 6f3f 5bec febe d751 0dbf
00000170: 33c3 96bf 4b3d dfbf 16c2 5abf 5b99 c03f
00000180: 2a55 cabe a2ed fcbf a19d a33f 8029 07bf
00000190: b9a8 72bf 58cb 2640 ccb6 cf3f 9f71 d93f
000001a0: fb05 9bbe c2db 813f 1399 b13f 79e8 f5bf
000001b0: 2fe0 fd3e 72bf 473f 7095 c13f da54 9dbe
000001c0: c590 10bf 7ec5 0bc0 793b 96bf 7bc0 96bf
000001d0: 300f 5dbf ddb2 333e a724 7b3e 0515 c5be
000001e0: 77a0 46bf 9775 63bf 1fa0 cb3f 874f 803f
000001f0: 43e7 9b3f 64ac 5abf f1a1 043d a46c 113e
00000200: aa9b 5b3f f223 eebe a130 14bf 658b 9abf
00000210: 075e e7bf af7a 4cbf 103b bf3f 22a6 dcbe
00000220: 58ab f6bf 4183 9b3f 5a9f eabe 5c76 6cbf
00000230: cbd7 2c40 a985 d43f 7190 d43f 3e05 80be
00000240: 8578 823f 6518 b13f 5abd f1bf 6f66 f43e
00000250: c478 613f 6002 bf3f ee40 8dbe 5721 19bf
00000260: 514f 0ec0 f0dc 95bf 2f34 9bbf 836c 49bf
00000270: 8c4c 203e b5a6 913e 6535 edbe 0d34 3bbf
00000280: 3ecd 75bf 58cb cf3f 1b48 7b3f c991 963f
00000290: a5f6 66bf 6fbd e63d 02a0 0a3e 9c4e 763f
000002a0: 3659 07bf 0bd3 07bf 89b5 9cbf 7d94 e9bf
000002b0: 1495 59bf 1c7c bf3f 4166 d7be fcc6 f5bf
000002c0: 2042 9c3f c329 f3be da91 6ebf 3b6e 2a40
000002d0: 056f d63f 552e d23f e6ce 84be fb77 853f
000002e0: 12fa ab3f 6380 eebf 3eae c53e 6add 523f
000002f0: f7c7 bb3f 7a1d b9be ae9e 1bbf a5d8 08c0
00000300: c077 93bf f8c5 9fbf 98be 5fbf 0d36 553e
00000310: c9e6 8a3e 80f2 bfbe 7766 3ebf 6b63 74bf
00000320: 2639 ce3f e334 743f 57af 943f 1215 56bf
00000330: e02c 253d bc24 ae3d 3195 6a3f 4d67 03bf
00000340: 5c1b 0abf b45a 9ebf 5837 eebf 6a87 47bf
00000350: f2b6 c03f 965d f0be 5fcf fbbf 7f50 9f3f
00000360: 7ea9 03bf a164 5abf c8d3 2840 bebe d43f
00000370: 8750 d53f 67b5 a8be 698b 7b3f 17f2 b43f
00000380: e696 f0bf f3af d53e cfda 553f f722 ca3f
00000390: 1d74 91be b073 27bf 253f 09c0 01a1 97bf
000003a0: 9c18 98bf c971 67bf eb53 3e3e 7e71 813e
000003b0: ce00 dfbe a628 43bf 3b36 72bf b9ab cf3f
000003c0: ffcc 703f a81b 9c3f 19ff 72bf fab7 0bbd
000003d0: 15a9 203e 8c6a 713f 412d f6be 153b 16bf
000003e0: 38f5 9bbf 1ec3 e7bf 321c 4bbf 1687 bf3f
000003f0: 594c d4be 2cef f4bf 6b44 983f 6d8d e8be
0.193663 0.25363 -0.386488 -0.734753 -1.039013 1.622626 0.983258 1.238641
-0.944119 0.055657 0.098485 0.921106 -0.434629 -0.546438 -1.188348 -1.771224
-0.791774 1.547273 -0.428835 -1.869845 1.147944 -0.542917 -0.959998 2.629334
1.563937 1.680847 -0.329466 1.014335 1.336945 -1.932689 0.460778 0.861976
1.485643 -0.309402 -0.553749 -2.222658 -1.212938 -1.142766 -0.885381 0.14586
0.177303 -0.339995 -0.705866 -0.935501 1.621153 1.02878 1.19025 -0.898828
-0.031971 0.081696 0.979533 -0.427231 -0.63355 -1.19157 -1.784699 -0.772856
1.522503 -0.383992 -1.947441 1.189155 -0.501004 -0.847877 2.707661 1.567669
1.675383 -0.260292 1.009823 1.37348 -1.883928 0.418647 0.868535 1.503698
-0.305382 -0.592612 -2.206905 -1.248393 -1.129393 -0.935779 0.123543 0.20336
-0.447824 -0.798794 -0.897689 1.560285 0.998487 1.216656 -0.866049 0.040442
0.119271 0.936559 -0.497897 -0.55203 -1.177832 -1.744058 -0.854524 1.50468
-0.395181 -1.976002 1.278248 -0.527977 -0.947887 2.606161 1.622766 1.69878
-0.30278 1.014519 1.387484 -1.921157 0.495851 0.780265 1.512373 -0.307288
-0.564709 -2.183929 -1.17369 -1.177749 -0.863513 0.175487 0.245257 -0.384926
-0.775886 -0.888513 1.590824 1.002427 1.217995 -0.854193 0.032381 0.142016
0.857844 -0.465118 -0.578867 -1.207379 -1.807557 -0.798747 1.49399 -0.430955
-1.927104 1.214943 -0.458247 -0.923681 2.700671 1.660329 1.660658 -0.25004
1.019303 1.383557 -1.888591 0.477344 0.880749 1.49226 -0.275886 -0.598165
-2.223591 -1.170805 -1.21253 -0.786812 0.156542 0.284475 -0.463298 -0.731263
-0.960163 1.623393 0.981569 1.176324 -0.902201 0.112666 0.135376 0.962137
-0.528705 -0.530564 -1.22429 -1.824844 -0.849931 1.495975 -0.420702 -1.920135
1.220768 -0.474928 -0.931913 2.662978 1.675263 1.642039 -0.259391 1.042724
1.343569 -1.863293 0.386095 0.823691 1.46704 -0.361553 -0.60789 -2.138223
-1.152092 -1.248229 -0.874002 0.208214 0.271292 -0.374897 -0.743751 -0.954642
1.611119 0.953932 1.161601 -0.836259 0.040326 0.085031 0.916339 -0.513295
-0.53948 -1.237143 -1.861064 -0.77941 1.505583 -0.469464 -1.967266 1.244644
-0.514305 -0.853098 2.637926 1.662071 1.66652 -0.329509 0.982596 1.413638
-1.879605 0.417358 0.83537 1.579192 -0.284089 -0.654109 -2.144479 -1.184601
-1.188251 -0.90408 0.185867 0.252819 -0.435553 -0.762339 -0.94614 1.622428
0.940628 1.219594 -0.949205 -0.034111 0.156895 0.943032 -0.480814 -0.586839
-1.218421 -1.810642 -0.793399 1.49631 -0.414645 -1.913549 1.189588 -0.454204

RB f4 [272, 3]
00000000: a050 853f c495 7c40 7172 c540 f46e e43f
00000010: 868e 7e40 c009 a940 dee6 4140 09fc 6340
00000020: c5f4 a440 a089 5e40 ff93 3140 0e5c c940
00000030: e5b7 8240 99d6 7040 904f ea40 3df0 9040
00000040: d6e0 e33f 8e4d ba40 d715 2f40 0135 1440
00000050: 24d5 d740 8b8d a040 49f3 8b40 61d2 d740
00000060: b3ec 5940 0306 9340 c6bf f140 0bd0 8240
00000070: c1c5 8a3f 485d a340 5ce7 ab40 f5f1 1340
00000080: e1b5 aa40 6746 b33f 9dba 9540 390c 7a40
00000090: df6e 0b40 27cc 9340 fc53 4840 eb70 fc3e
000000a0: 7111 8540 7591 5e40 3239 8f3f f3cb b540
000000b0: da47 8040 f6b2 9040 1896 5240 0cca 0241
000000c0: 378c 9e40 01a5 9b3f a1d6 d440 a0a7 bd40
000000d0: 06e8 e840 53b1 62c0 76dd b140 d14c e340
000000e0: a9c2 1bc0 4d79 9740 2b6a c240 931e 08c0
000000f0: abe7 8640 c3a9 a740 514a 4bc0 abb0 3c40
00000100: 06f4 bb40 2e57 7ac0 ef1a 7c40 1cb1 7540
00000110: bda6 26c0 40dc 9f40 cc6d a440 f9a3 79c0
00000120: a720 0b40 4e7a c240 8d24 47c0 af3e 4e40
00000130: 8201 da40 6295 8ac0 c214 9a40 e7aa 5d40
00000140: 83da 05c0 dee5 4640 5f7a 7b40 3d80 e5bf
00000150: 2af1 bf40 f261 fa40 e02d 96bf 0a01 b040
00000160: b307 ef40 9031 97be 9d49 e140 3d1b fa40
00000170: d28d 94bf 540f b740 6413 0d41 4546 abbf
00000180: 7808 2740 78d1 a740 3789 95c0 261e 6440
00000190: d7fb 4940 0459 57c0 8eea a540 4c16 6040
000001a0: 133b 9fc0 6483 9b40 4e99 4740 8c86 7ac0
000001b0: 9f4b b740 912c 4840 6e52 35c0 d514 e140
000001c0: 6380 5840 5e12 43c0 966b f940 57e9 0a40
000001d0: da70 66c0 04c8 f340 36ab 7540 65a5 d7bf
000001e0: cc37 e640 2f41 8440 36ce 73c0 d235 f540
000001f0: efad a63f 5e67 3ac0 8d8d ed40 30bd e13f
00000200: f243 91c0 293e e140 603e 9840 b2f4 a9bf
00000210: b1e1 f140 5d88 4740 c83f 6fbf 41b8 5b40
00000220: e599 3340 4aef 62c0 8e40 5540 b456 2240
00000230: 66bf 1ec0 2cbc 3240 3c69 6b40 edd7 72c0
00000240: 75e8 4540 4299 fe3f 896a 86c0 b025 0e41
00000250: e943 1740 3e75 6dc0 375b 0b41 6770 8340
00000260: 2315 debf ba23 3ec1 5df9 2fc0 fdf6 11bf
00000270: cf83 31c1 0fd5 66c0 7fa2 7ebf 202b 20c1
00000280: 833f 82c0 87a2 c0be 6182 1bc1 0666 5cc0
00000290: bc3c 6d3f 7cfc 0fc1 55bd 09c0 6c3e 523f
000002a0: 0313 10c1 87df 8fc0 ab93 e13f 6257 2cc1
000002b0: 465f 4bc0 7efd ba3f b69e ffc0 08ac 10c0
000002c0: bd37 863e 1be4 18c1 c4d2 babf 2bd9 913e
000002d0: 1b46 19c1 0c90 aec0 af97 f23f aac2 01c1
000002e0: 6b03 97c0 d942 a83f feee 34c1 ef53 88c0
000002f0: d5cb 13c0 0979 27c1 d592 a0c0 226d 21c0
00000300: 4dc4 44c1 df35 98c0 5249 17c0 f625 35c1
00000310: 3d98 62c0 e469 46c0 fa8d 0cc1 ea05 d9bf
00000320: 8603 e73f b225 0dc1 fa80 83c0 5b5f 2e40
00000330: 2aa7 74c0 ba6b ef3f 3fe5 48c0 9581 7ac0
00000340: 6669 3240 623c 80c0 e63b 34c0 c8b3 4740
00000350: 2ee4 97c0 2445 cebf 97e1 1440 ff31 90c0
00000360: fe47 42bf d23a 3f40 aa0b 53c0 b3b3 58bf
00000370: 3fe4 1940 022d bbc0 24ed f2bf 03d2 aa3f
00000380: 104f 88c0 c7d4 15bf 3a5d 7f40 94a5 65c0
00000390: bc77 bebf 3d7d 3d40 d3a3 19c0 f437 b5bf
000003a0: e5b8 fb3f 4cc2 d5c0 f819 0bbf 70cf 5940
000003b0: 94a3 c4c0 fce4 a3c0 e5b9 6640 91e0 89c0
000003c0: 076c 9bc0 d9cc 8b40 9564 a5c0 2654 bec0
000003d0: 707a 4140 2fc3 96c0 4ed4 afc0 9404 8540
000003e0: 39d6 57c0 ff41 343e aa9c 1c40 3b36 4ec0
000003f0: 0c90 c83d 55f6 e73f 4a41 b8c0 52b0 08c1
1.041523 3.946641 6.17022 1.784636 3.977449 5.28244 3.029716 3.562258
5.154879 3.47715 2.774658 6.292487 4.084948 3.763098 7.322212 4.529326
1.780299 5.821967 2.735708 2.315735 6.744768 5.017278 4.373448 6.744431
3.405072 4.594484 7.55466 4.087896 1.08416 5.105137 5.371992 2.311643
5.334702 1.400586 4.67903 3.906996 2.178642 4.618671 3.130126 0.493049
4.158379 3.477628 1.118933 5.681146 4.008771 4.521846 3.290411 8.174328
4.954616 1.215973 6.6512 5.926712 7.278323 -3.542073 5.558284 7.103127
-2.433756 4.733557 6.07546 -2.126866 4.21578 5.239473 -3.176411 2.948283
5.873538 -3.911571 3.939144 3.838935 -2.603927 4.995636 5.138403 -3.900633
2.173868 6.07743 -3.111606 3.222576 6.812684 -4.330735 4.815034 3.463556
-2.091462 3.10778 3.929344 -1.792976 5.998189 7.824456 -1.173275 5.500127
7.46969 -0.2953 7.040236 7.815825 -1.160578 5.720621 8.817234 -1.338082
2.609892 5.24432 -4.673 3.56434 3.155996 -3.364808 5.184882 3.501361
-4.975961 4.859789 3.118732 -3.914462 5.727981 3.12772 -2.833156 7.033793
3.382836 -3.047996 7.794383 2.170492 -3.600638 7.618166 3.838575 -1.684735
7.194311 4.132957 -3.809461 7.66282 1.302183 -2.912559 7.423529 1.763586
-4.539544 7.038838 4.757614 -1.32778 7.5588 3.117698 -0.934567 3.433121
2.806268 -3.545855 3.332065 2.536542 -2.480432 2.792735 3.678298 -3.794429
3.092313 1.989052 -4.200505 8.884201 2.36352 -3.710281 8.709769 4.107471
-1.73502 -11.883722 -2.749595 -0.570175 -11.09468 -3.606754 -0.994667 -10.010529
-4.070253 -0.37624 -9.719331 -3.443727 0.926708 -8.999142 -2.152181 0.821265
-9.004642 -4.496036 1.762319 -10.771334 -3.17769 1.460861 -7.988124 -2.2605
0.262144 -9.55569 -1.459557 0.28486 -9.579616 -5.455084 1.895254 -8.110025
-4.719167 1.31454 -11.308348 -4.260246 -2.309316 -10.46705 -5.017924 -2.522286
-12.297925 -4.756576 -2.36385 -11.321768 -3.540542 -3.100213 -8.784662 -1.695493
1.804795 -8.821703 -4.109494 2.72457 -3.822703 1.870475 -3.138992 -3.914159
2.787683 -4.007371 -2.816156 3.120348 -4.746604 -1.611485 2.326269 -4.506103
-0.758911 2.987965 -3.297587 -0.846492 2.404556 -5.849244 -1.897862 1.334534
-4.259651 -0.585278 3.990065 -3.588231 -1.488029 2.960769 -2.400624 -1.41577
1.96658 -6.679968 -0.543365 3.403286 -6.144968 -5.121702 3.605096 -4.308663
-4.856937 4.368756 -5.168528 -5.947772 3.023098 -4.711326 -5.494666 4.156809
-3.37245 0.176033 2.447062 -3.22206 0.097931 1.812205 -5.75797 -8.543047

qA f4 [208, 1]
00000000: e43d 7a3f a8c9 0ebe 7338 76bf f1bf 20bf
00000010: 2bc4 6ebf 2c4f ec3d d475 2d3e 2088 1a3e
00000020: 13c6 eb3e ce73 f23e ce1f d13e a1fe e73e
00000030: 06f7 e73e 4117 723f 54e2 31be bf99 78bf
00000040: 852f 10bf 3f47 6dbf 50d3 093e d8af 183e
00000050: 206d 203e 5e74 ee3e 75ce f33e b216 cd3e
00000060: d682 ed3e 3e8f e23e 6b5b 7b3f 2440 07be
00000070: 1714 79bf 6b8c 21bf 831d 6dbf ac0b 2a3e
00000080: dc22 bb3d fcc7 093e 2874 f93e 2e2b e93e
00000090: 5840 da3e 5971 e63e d561 f03e 1e24 7d3f
000000a0: b0ef 63be 8a96 79bf 9c01 0ebf 0a7b 74bf
000000b0: 86d4 2d3e 5cda 143e 3815 323e bd68 ea3e
000000c0: 70b0 ec3e 9d4d c33e c23a ee3e 2fd2 ec3e
000000d0: 3540 793f b05e 53be 1ae3 6dbf 0e2f 27bf
000000e0: ceda 6fbf a03d 1d3e 0275 263e 6a51 3a3e
000000f0: f196 e93e 7fa3 eb3e f8f0 d83e 0035 e73e
00000100: 5aa6 ec3e 6c41 7f3f 4832 46be e04c 6fbf
00000110: d03a 13bf 6e07 79bf 1aec 0a3e b0fd 263e
00000120: 7e62 403e 6466 e83e 31b6 e53e 523a c73e
00000130: d88d e73e 91a9 e53e 6ab5 753f b4d8 4dbe
00000140: f064 71bf 34b3 22bf 2ed7 6fbf d6c7 1e3e
00000150: d8e7 213e 0c43 413e 24ce e13e 8e13 f33e
00000160: 54da ce3e 69e9 ec3e 65c1 f13e 3462 7d3f
00000170: 4c2e 3cbe 1970 70bf f76a 14bf 9d23 7bbf
00000180: 8670 283e 1223 193e 7804 323e d542 e43e
00000190: 426d e73e 9b66 c23e 9e37 ec3e b935 ef3e
000001a0: 6ee1 7b3f 80a8 4abe 00cb 68bf deaf 14bf
000001b0: 0085 77bf b83c 0c3e 4473 173e d465 2d3e
000001c0: 0e5e e13e f536 f13e 7c07 bf3e 4428 e93e
000001d0: 6241 f43e 7c8d 783f d827 50be 854e 7abf
000001e0: 7faa 0abf a15a 70bf 8e12 173e ba95 293e
000001f0: 5eb8 2f3e 4edc e23e 2aa9 f03e e2ac cc3e
00000200: 367a ef3e 5bc3 d93e d62e 713f 6c1d 3cbe
00000210: 2e08 7abf f255 16bf 32a4 6dbf 80bd 063e
00000220: cc20 1c3e 9201 2b3e 03ac f43e 1723 e93e
00000230: a6c9 d63e 845b ed3e 7fd1 ee3e cee3 7f3f
00000240: 2c78 21be d578 6abf df63 1ebf 3571 72bf
00000250: a806 f83d 363c 203e 70cb 1d3e 853d e23e
00000260: c774 ea3e f1e3 cd3e 269d e03e 7c57 ef3e
00000270: 2c7e 763f 4cc1 3dbe 5791 74bf bbf9 18bf
00000280: 89d6 70bf 480f 053e 9050 1e3e e455 2b3e
00000290: 810b e93e 9719 f13e 2f06 cd3e 68e0 f53e
000002a0: ef40 ea3e 2f6a 7c3f dc7e 5cbe eed5 78bf
000002b0: e621 0abf 56bb 75bf 049f 1a3e f016 103e
000002c0: 94f9 513e 72f8 e13e fbf7 f13e 25f1 c13e
000002d0: 632c ea3e b06b e83e 7309 6b3f 18d4 4bbe
000002e0: b8bc 7ebf 40d8 09bf 426b 6ebf c45c f83d
000002f0: 76e9 263e 96c0 323e ad41 f03e cb8d f33e
00000300: 2da5 ce3e b47e f73e 01f8 e83e 9f09 7e3f
00000310: e459 52be 21d0 77bf b502 15bf 2184 73bf
00000320: b8f9 293e d4b8 243e e4b9 2e3e 517d e83e
00000330: 78cb e73e 7411 d13e cf23 e33e 5493 ea3e
0.9775069 -0.13944113 -0.96179885 -0.6279288 -0.9326808 0.11538538 0.16939479 0.1509099
0.46049556 0.47353977 0.40844578 0.45311454 0.4530565 0.9456673 -0.17371494 -0.971096
-0.5632251 -0.9268684 0.13459516 0.14910829 0.15666628 0.46573156 0.47618452 0.40056378
0.46388882 0.4424991 0.9818637 -0.13208061 -0.9729628 -0.63104886 -0.92623156 0.16606015
0.09137508 0.13455194 0.48721433 0.45540756 0.42627215 0.45008352 0.4694964 0.98883235
-0.22259402 -0.9749533 -0.55471206 -0.9550024 0.16975603 0.14536422 0.17390907 0.45783034
0.4622836 0.38145152 0.46529204 0.46254107 0.973636 -0.20641589 -0.92924654 -0.65306175
-0.93693244 0.1535554 0.16255572 0.1819512 0.45622972 0.46023175 0.42371345 0.45157623
0.46220666 0.997092 -0.19355118 -0.93476677 -0.57511616 -0.9727696 0.13566628 0.16307712
0.18787572 0.45390618 0.44865564 0.38911682 0.45225406 0.4485593 0.9597994 -0.20102197
-0.94294643 -0.6355469 -0.93687713 0.15505919 0.15811098 0.18873233 0.44102585 0.47475857
0.40400946 0.46271828 0.4721786 0.9897797 -0.18377036 -0.9392105 -0.57975715 -0.98101217
0.16449174 0.14954785 0.17384517 0.4458224 0.45200545 0.37968907 0.46136183 0.46720675
0.98390853 -0.1979084 -0.90934753 -0.5808085 -0.96687317 0.13695037 0.14790064 0.16933376
0.4401707 0.4711224 0.37310398 0.45538533 0.47706133 0.9709089 -0.20327699 -0.9777606
-0.54166406 -0.9388829 0.14753172 0.16561022 0.17160174 0.44308704 0.47004062 0.3997565
0.46772927 0.42531857 0.9421209 -0.18370599 -0.9766873 -0.5872489 -0.9282867 0.13158226
0.15246886 0.16699818 0.47787485 0.45534584 0.4195072 0.46358883 0.46644208 0.9995698
-0.15768498 -0.91590625 -0.6187114 -0.9470399 0.121106446 0.15647969 0.15409636 0.4418756
0.4579222 0.40212968 0.43869895 0.46746433 0.96286273 -0.18530768 -0.9553427 -0.5975606
-0.94077355 0.1299411 0.1546042 0.16731983 0.4551659 0.47089836 0.4004378 0.4802277
0.45752665 0.98599523 -0.21532768 -0.9720143 -0.53957975 -0.95988977 0.15099722 0.1407125
0.20505363 0.4413486 0.47259507 0.3787929 0.4573699 0.4539466 0.91811293 -0.19905126
-0.9950671 -0.53845596 -0.9313241 0.12127069 0.16299996 0.17456278 0.46925107 0.47569117
0.40360394 0.48338854 0.45501712 0.9923343 -0.20542103 -0.96801955 -0.58207256 -0.9512349
0.16599166 0.16086131 0.17063099 0.4540811 0.45272422 0.40833628 0.44363257 0.45815527

muA f4 [208, 3]
00000000: 800e 08bb 80d9 ecbb 00a9 0abd 701b a43d
00000010: ce2a bf3d 488d 3dbd 0016 bdba 806e 9a3c
00000020: 00d7 5fbc 38e7 a1bd 02ff e7bd c87b 933d
00000030: e026 893c 004c 61ba 405d ef3c 0899 55bd
00000040: 20bd b23c 802f 5abb a0ff d53c d83e 0cbd
00000050: 8090 dfbc 007d 6b3c a0ca 2a3c 2061 703d
00000060: 80f7 8d3c 2021 5c3c 20b8 8b3c 0040 3db8
00000070: 4069 803b d0ff d9bc e054 443c d027 c83c
00000080: 10ec c63c 00d6 cb3b 0020 4539 50ae f2bc
00000090: f0e2 aabc 00d7 73bc 4031 3f3c 809c 103c
000000a0: 80c5 14bc 188d 08bd 7020 983d 3408 d63d
000000b0: f0fe 76bd 00bb 543c 000c b139 c087 8bbc
000000c0: 0c76 c4bd 028b 08be 2654 e63d 50c5 b43c
000000d0: 30fd e3bc 40d5 993b 98d2 68bd c0f5 aa3c
000000e0: 8083 59bb 00be d63c 10a3 4dbd 0023 dabc
000000f0: 60b0 653c 6000 403c f075 663d a0bd 973c
00000100: e0e7 7f3c c0ad 833c 006a 093b 60c6 0b3c
00000110: a05f e4bc 008d 6e3c 00d0 d93c a01c b13c
00000120: 809a c83b 0040 b637 20c8 ecbc 20b2 acbc
00000130: 60ea 51bc 2073 1f3c 0021 f63b a056 313c
00000140: 707d 9fbc 1851 633d de22 023e d40a 8fbd
00000150: e0e3 003c 6094 893c 1010 9b3c 5aae 9cbd
00000160: 8675 c4bd cc24 883d c06b b0bc 6015 a7bc
00000170: c0d4 9e3b 40ab 5cbd 40fe 173c 0075 61bb
00000180: b03c dd3c 8061 4dbd e03e 37bc 70dc 9c3c
00000190: 005c 6b3a f874 6f3d 00e2 9d3c 000e 7c3c
000001a0: 8012 883c 00fd 873a c0a4 ea3b f05c e8bc
000001b0: e033 603c 20bd a63c 107e d23c 80bb c63b
000001c0: 0084 fbb9 6037 e8bc e0fc 92bc a09d 7cbc
000001d0: c03d 383c c0e3 0cbc c0bd 5abc 004c c4bc
000001e0: 80f3 8f3d 6c74 033e 4816 85bd 004d 3d3b
000001f0: f0e8 9e3c 8037 eebb 6c9a a4bd 3a22 dbbd
00000200: 641c 853d 00e8 fdbb 6026 17bc 0010 bb3a
00000210: b0e7 7abd 00b7 4c3c 0080 6337 2014 dc3c
00000220: 6814 5ebd a04d 71bc e02b 953c 80e6 4fbb
00000230: 9865 7e3d 7054 9c3c 2087 513c c08e 8b3c
00000240: 0004 cb39 0033 e93b b00f e6bc 8030 553c
00000250: b0b1 cb3c 0021 e13c c015 9e3b 004c caba
00000260: 601b d9bc 407f 97bc 008c 72bc 606c 333c
00000270: 003e 7dbb 00e4 aebb 0014 51bc 380f a63d
00000280: 8a5e e43d 8820 7dbd 40bf 683c 38ae 043d
00000290: 2016 e5bc f8e3 99bd a0db cebd 9426 b13d
000002a0: f0eb acbc 0020 78b9 8021 3bbb d401 80bd
000002b0: c034 343c c046 94bb 009a db3c 50cd 42bd
000002c0: 6026 5dbc f092 953c 806b 683b 1433 613d
000002d0: b0f8 aa3c a071 663c 2093 8f3c 0000 c636
000002e0: 8097 af3b 607c d8bc 8099 dd3b 8004 ab3c
000002f0: 3048 ba3c 00f1 e63b 00aa 9d3a f0b4 e6bc
00000300: e0b4 95bc 103a 8dbc c0b5 5b3c 6016 7ebc
00000310: 602d 7dbc 50d0 b5bc 8082 ae3d 4a56 dd3d
00000320: b6b2 96bd 00ca 29ba 2086 663c c0fd cbbb
00000330: ee0f afbd 7aa5 edbd b49b 8b3d 4031 25bc
00000340: b0fc 8a3c 00fd 783b a0b1 6bbd f036 893c
00000350: 00cf 4fbb 2046 bc3c 789c 55bd e0ac 83bc
00000360: 0087 793c a00d 023c 14cb 573d 208f a83c
00000370: 20bb 5f3c f0fd 823c 8012 2cbb 40b4 c73b
00000380: 2046 f6bc e0c6 223c 90b6 bb3c 609b d93c
00000390: 00eb 143c 0002 78ba a096 f9bc f047 b8bc
000003a0: 004a 98bc 4050 3d3c c037 35bc 40ae f1bb
000003b0: c032 dfbc ec37 893d 68aa f73d 086d 77bd
000003c0: 808f 3fbb b81d 033d f0c9 1cbd f2cd b4bd
000003d0: 445b f5bd 9c56 c53d 00a0 9ebb e063 0bbc
000003e0: 4035 ba3b 48b0 63bd f01c a43c c079 8cbb
000003f0: 60d4 e23c 08bd 3fbd 60cc 9cbc 50da a33c
-0.0020760596 -0.0072280765 -0.033852577 0.08013046 0.09334336 -0.046277314 -0.0014426112 0.018851519
-0.0136621 -0.079054296 -0.11327936 0.07201344 0.01674217 -0.0008594394 0.02921927 -0.052147895
0.021818697 -0.0033292472 0.026122868 -0.03423962 -0.027290583 0.014373064 0.010424286 0.058686376
0.017329931 0.013435632 0.017055571 -4.5120716e-05 0.003918797 -0.026611239 0.011983126 0.024433047
0.024282485 0.006220579 0.00018799305 -0.029624134 -0.020860165 -0.014882803 0.011669457 0.008826375
-0.009080291 -0.033337682 0.07428062 0.10450783 -0.06030172 0.012984037 0.00033769011 -0.017032504
-0.09592828 -0.13334277 0.11246519 0.022066742 -0.02783069 0.004694611 -0.056841463 0.020869136
-0.0033189952 0.026213646 -0.050204337 -0.026628017 0.014019102 0.011718839 0.056264818 0.018523037
0.015619248 0.016074061 0.0020967722 0.008531183 -0.027877629 0.014559984 0.02658844 0.021620095
0.0061219335 2.1725893e-05 -0.02890402 -0.02108103 -0.012812227 0.009732038 0.007511258 0.010823876
-0.019468993 0.05549726 0.12708613 -0.06984487 0.00786683 0.016794384 0.018928558 -0.076504424
-0.09592728 0.066476434 -0.021535754 -0.020395935 0.004847139 -0.053874254 0.0092769265 -0.0034402013
0.027006477 -0.05014181 -0.011184424 0.019148082 0.00089782476 0.05846116 0.019272804 0.015384197
0.016610384 0.0010375082 0.007160753 -0.028364629 0.013684243 0.020353854 0.025694877 0.006064832
-0.00047972798 -0.028346717 -0.017942846 -0.01541844 0.011245191 -0.008599222 -0.013350904 -0.02396202
0.07028866 0.1283738 -0.064983904 0.0028885007 0.019398183 -0.0072697997 -0.08037266 -0.106998876
0.06499556 -0.007748604 -0.009225458 0.0014271736 -0.06125611 0.0124948025 1.3560057e-05 0.026865065
-0.05421868 -0.01472798 0.018209398 -0.0031723082 0.062108606 0.019083232 0.012788564 0.017035842
0.00038722157 0.0071166754 -0.028083652 0.013012052 0.024865001 0.027481556 0.00482437 -0.0015434027
-0.026502311 -0.018493295 -0.014803886 0.010951132 -0.0038641691 -0.0053372383 -0.012761116 0.081083715
0.111508444 -0.061798602 0.014205754 0.03239271 -0.027964652 -0.07514185 -0.10100484 0.08649936
-0.021108598 -0.00023663044 -0.0028553903 -0.06250349 0.010998905 -0.0045250356 0.026806831 -0.047559083
-0.013497919 0.018258542 0.0035464466 0.054980353 0.020870537 0.014065176 0.01752621 5.90086e-06
0.0053586364 -0.026426494 0.0067626834 0.02087617 0.0227395 0.0070477724 0.0012028813 -0.02816245
-0.018274724 -0.0172396 0.013410032 -0.015508264 -0.015452713 -0.022194058 0.08520985 0.10807474
-0.07358305 -0.0006476939 0.014070064 -0.0062253177 -0.0854796 -0.11603828 0.068168074 -0.010082543
0.016966194 0.0037992597 -0.057542443 0.016749829 -0.0031709075 0.022982657 -0.052151173 -0.016073644
0.01522994 0.007937819 0.052683905 0.02057606 0.013655454 0.015990227 -0.0026256144 0.0060944855
-0.030062735 0.009935111 0.022914201 0.026563346 0.0090892315 -0.0009460747 -0.030467331 -0.02249524
-0.018589973 0.011554778 -0.011060655 -0.0073755085 -0.02724588 0.067001194 0.12093049 -0.060406715
-0.002922982 0.032010764 -0.03827852 -0.088283435 -0.11980298 0.0963566 -0.004840851 -0.008507699
0.0056826174 -0.055588037 0.02003333 -0.0042869747 0.027689159 -0.046811134 -0.019140422 0.02000156

quadA f4 [208, 3, 3]
00000000: d030 b63c d8f3 11bd d03a 0cbc d8f3 11bd
00000010: 0056 89ba 8056 27bc d03a 0cbc 8056 27bc
00000020: 709b adbc d84b 96bb 0a5a 823d 0043 fabc
00000030: 0a5a 823d e11e 693d 94b4 0cbd 0043 fabc
00000040: 94b4 0cbd 6755 56bd a0a3 7eba f8a3 cd3c
00000050: 2819 adbc f8a3 cd3c d8b8 2f3b 2066 bbbc
00000060: 2819 adbc 2066 bbbc d01f e0ba 835e 943c
00000070: a0cc fa3b d00d 043c a0cc fa3b 6e78 0e3d
00000080: 2891 873c d00d 043c 2891 873c aea7 58bd
00000090: 145c 183b 807c 23bb c034 e3bb 807c 23bb
000000a0: a5ca 373c d04e 09bc c034 e3bb d04e 09bc
000000b0: abe1 5dbc 0afc 4bbc 407c ce3b a0f3 86bb
000000c0: 407c ce3b 367c 5b3c 101b 17bc a0f3 86bb
000000d0: 101b 17bc a802 78ba ea9b 993b a04d d13b
000000e0: e049 ecbb a04d d13b a054 bb39 5066 1bbc
000000f0: e049 ecbb 5066 1bbc 3651 a5bb 5867 663a
00000100: b026 2b3c 4055 6abb b026 2b3c 6b4b ac3b
00000110: 8015 28bb 4055 6abb 8015 28bb 5518 c9bb
00000120: 6c6f 47bb 603b c33b c099 43bb 603b c33b
00000130: d845 ffba 0094 acbb c099 43bb 0094 acbb
00000140: 2a89 a33b 00e4 4439 40fc 4a3c 8047 d3ba
00000150: 40fc 4a3c c0ad 2b3b 00ad 4dbb 8047 d3ba
00000160: 00ad 4dbb 00fc 37bb 80a5 cebb c031 ce3b
00000170: 00a8 46bb c031 ce3b c063 4cbb 0006 41bb
00000180: 00a8 46bb 0006 41bb b06b 1a3c a8e8 8e3a
00000190: 401b 3d3c 8093 9c3b 401b 3d3c 941f 093b
000001a0: 804b d03b 8093 9c3b 804b d03b ec93 50bb
000001b0: 2aa2 dfbb 2081 ce3b 20f5 cd3b 2081 ce3b
000001c0: 0a47 edbb e009 053c 20f5 cd3b e009 053c
000001d0: 9b74 663c 2660 163d a2c7 96bd 007b adba
000001e0: a2c7 96bd b07a e5bb 00f0 47bc 007b adba
000001f0: 00f0 47bc a461 f3bc 2098 95bb a06b 8b3b
00000200: f03b a9bc a06b 8b3b 80fd cdba 8883 c7bc
00000210: f03b a9bc 8883 c7bc 8017 c93b ec57 04bb
00000220: 0045 1c3c e082 b9bb 0045 1c3c b625 87bb
00000230: c02a e5bb e082 b9bb c02a e5bb aa51 c93b
00000240: 73f0 183d 1865 a5bc 0057 eb3c 1865 a5bc
00000250: 2cd1 653c 689b f93c 0057 eb3c 689b f93c
00000260: bd64 52bd ccb2 a3bb 80cc ee3a a043 903b
00000270: 80cc ee3a f498 863b 6005 103c a043 903b
00000280: 6005 103c a0ce 683a a654 78bc 2036 ea3b
00000290: c0e7 66bb 2036 ea3b 0aa0 673c 50b6 13bc
000002a0: c0e7 66bb 50b6 13bc d4a4 853a 50bd 7d3a
000002b0: 40ca fe3b 2008 b9bb 40ca fe3b 28b6 df3a
000002c0: 4094 45bc 2008 b9bb 4094 45bc 6c4a 2fbb
000002d0: a0f6 53b9 90d5 183c 4067 c5bb 90d5 183c
000002e0: 6b69 bd3b c0ee 02bc 4067 c5bb c0ee 02bc
000002f0: b5c9 b6bb ac87 4bbb 40ac ec3b 8072 41bb
00000300: 40ac ec3b d8b1 acba 60ff b9bb 8072 41bb
00000310: 60ff b9bb 4af0 903b 28d4 a63a 80ae 433c
00000320: 00f0 0fba 80ae 433c 9439 773b 00e2 d4ba
00000330: 00f0 0fba 00e2 d4ba d651 a5bb 1600 bcbb
00000340: 206d a23b 00d0 82bb 206d a23b 6c63 11bb
00000350: 4061 50bb 00d0 82bb 4061 50bb e558 023c
00000360: b008 1f3a 20b7 333c c000 793b 20b7 333c
00000370: 60d9 f639 0041 c03b c000 793b 0041 c03b
00000380: a83a 8dba eada 8cbb e098 9c3b 0099 bd3a
00000390: e098 9c3b 4a72 ccbb 807e 753b 0099 bd3a
000003a0: 807e 753b 9ba6 2c3c 78a4 443d e054 cbbd
000003b0: 48d1 56bd e054 cbbd 1001 563c 94e6 89bd
000003c0: 48d1 56bd 94e6 89bd b824 7abd ecf8 0b3d
000003d0: d835 e73c 5044 83bd d835 e73c 007c 3dbb
000003e0: e47d 2abd 5044 83bd e47d 2abd 2c21 00bd
000003f0: 3a62 6ebc a899 833c b0d8 74bc a899 833c
0.022240072 -0.03563294 -0.008558944 -0.03563294 -0.00104779 -0.010213494 -0.008558944 -0.010213494
-0.021192282 -0.004586678 0.0636483 -0.030549526 0.0636483 0.056914214 -0.0343519 -0.030549526
-0.0343519 -0.05232754 -0.0009713713 0.0251026 -0.02113016 0.0251026 0.0026813056 -0.022875845
-0.02113016 -0.022875845 -0.0017099325 0.018111473 0.0076537877 0.008059934 0.0076537877 0.03478282
0.016548708 0.008059934 0.016548708 -0.052894287 0.0023248242 -0.0024946034 -0.0069337785 -0.0024946034
0.011217748 -0.008380607 -0.0069337785 -0.008380607 -0.013542573 -0.0124502275 0.006301433 -0.004118398
0.006301433 0.013396313 -0.009222761 -0.004118398 -0.009222761 -0.0009460845 0.004687776 0.0063874274
-0.007210955 0.0063874274 0.0003573047 -0.009484842 -0.007210955 -0.009484842 -0.0050450815 0.0008789203
0.010446236 -0.003575638 0.010446236 0.005258014 -0.002564758 -0.003575638 -0.002564758 -0.006136934
-0.0030431403 0.005958006 -0.002984628 0.005958006 -0.0019475771 -0.0052666664 -0.002984628 -0.0052666664
0.0049907165 0.00018776953 0.012389243 -0.0016119331 0.012389243 0.0026196092 -0.0031383634 -0.0016119331
-0.0031383634 -0.0028073788 -0.00630635 0.0062925518 -0.0030312538 0.0062925518 -0.0031187385 -0.002945304
-0.0030312538 -0.002945304 0.009425089 0.0010903077 0.011542141 0.0047783256 0.011542141 0.0020923363
0.0063566566 0.0047783256 0.0063566566 -0.003182645 -0.0068247514 0.006302014 0.0062853247 0.006302014
-0.0072411345 0.00812003 0.0062853247 0.00812003 0.014065887 0.036712788 -0.07362296 -0.0013235509
-0.07362296 -0.007003151 -0.012203217 -0.0013235509 -0.012203217 -0.029709645 -0.004565254 0.0042547733
-0.020658463 0.0042547733 -0.0015715808 -0.024354711 -0.020658463 -0.024354711 0.0061368346 -0.0020194007
0.009537935 -0.0056613535 0.009537935 -0.0041243685 -0.0069936216 -0.0056613535 -0.0069936216 0.0061437683
0.037338685 -0.020189807 0.028728008 -0.020189807 0.014026921 0.030469611 0.028728008 0.030469611
-0.051365603 -0.0049956795 0.0018218905 0.004402593 0.0018218905 0.004107589 0.008790344 0.004402593
0.008790344 0.0008880887 -0.0151569005 0.0071475655 -0.0035233349 0.0071475655 0.014137277 -0.009015635
-0.0035233349 -0.009015635 0.0010196217 0.0009679394 0.007775575 -0.0056467205 0.007775575 0.0017067837
-0.012059271 -0.0056467205 -0.012059271 -0.002674724 -0.00020214403 0.009328261 -0.0060242712 0.009328261
0.005780389 -0.007991493 -0.0060242712 -0.007991493 -0.0055782446 -0.0031056209 0.0072226822 -0.002951771
0.0072226822 -0.001317556 -0.005676195 -0.002951771 -0.005676195 0.004423176 0.0012728022 0.0119434595
-0.000549078 0.0119434595 0.0037723528 -0.001624167 -0.000549078 -0.001624167 -0.005045156 -0.005737315
0.0049568564 -0.0039920807 0.0049568564 -0.0022184504 -0.0031796247 -0.0039920807 -0.0031796247 0.007955764
0.0006066663 0.010968953 0.0037994832 0.010968953 0.00047082733 0.0058671236 0.0037994832 0.0058671236
-0.0010774927 -0.0042985575 0.0047789663 0.0014465153 0.0047789663 -0.0062392103 0.0037459433 0.0014465153
0.0037459433 0.010537769 0.048008412 -0.09928298 -0.05244568 -0.09928298 0.013061777 -0.067334324
-0.05244568 -0.067334324 -0.061070174 0.034172937 0.028223917 -0.06409514 0.028223917 -0.002891302
-0.041623965 -0.06409514 -0.041623965 -0.031281635 -0.014549786 0.01606448 -0.01494424 0.01606448

hfvrA f4 [208, 1]
00000000: 20db 083f 7e25 6a3f 1f75 ae3f 522d 9c3f
00000010: 8228 ab3f e617 af3e 86a4 893e acf1 983e
00000020: d035 f33d c41f 033e d851 353e 0cd9 213e
00000030: 74d8 183e 22da 083f 0fcc 783f bb7e b13f
00000040: 47cc 923f 2a93 a93f 749e ab3e 0c1a b23e
00000050: e292 9f3e c83b e93d 245a 013e 8c4d 323e
00000060: 101f 0d3e 60a4 063e 5855 063f a98c 6d3f
00000070: fae5 af3f d48d 9a3f ebe9 a03f 8cfb 663e
00000080: 7a91 ec3e 0e7c b33e 2073 f33d 50ae 263e
00000090: 7415 183e 885a 153e d091 f03d c8d5 fe3e
000000a0: ce9b 7c3f 084a af3f a336 953f da4b ac3f
000000b0: 7eb6 913e e20a b63e ea4c a63e 5c8c 063e
000000c0: 0c66 173e 7ce6 453e 4811 123e 28b7 093e
000000d0: 9f48 0c3f 3efc 783f ca7e a63f d05c 9b3f
000000e0: 02b0 a53f 80c7 a63e dea2 a23e 1c7c 8d3e
000000f0: 782f 283e 08a8 f83d 4851 ed3d f84d e73d
00000100: 8899 0e3e 224e ff3e ba18 7a3f c21c a53f
00000110: ee02 983f 79a1 ae3f 2ea6 b13e fae5 aa3e
00000120: 1609 813e 10be 0c3e 987f 293e 08fa 433e
00000130: 083c f03d 943d 0a3e a846 0b3f 691e 783f
00000140: 6c99 a73f 96db 993f b267 ab3f 0246 9c3e
00000150: ac0f a53e de8f 953e 9c1e 153e 3861 c63d
00000160: 186b 243e 48d8 123e dcb4 0d3e 5c7c fe3e
00000170: c673 773f 7291 a53f 1986 973f 5cff b33f
00000180: 5c6b 8e3e bea6 b33e 7a3e 973e 3c8d 0c3e
00000190: 9030 2a3e 88bd 5a3e 141e 103e 10e9 fb3d
000001a0: 9c65 023f 99d9 7a3f 983e 9e3f e02a 973f
000001b0: ab03 af3f 0a72 aa3e 4617 ba3e 606a 9f3e
000001c0: 9cd6 233e 184e 203e 6c38 423e 20f6 113e
000001d0: b836 ec3d 9471 013f 59d4 7a3f 9e7e af3f
000001e0: 5b30 923f fbb5 ab3f 2c74 a63e dada 9f3e
000001f0: 280b a23e c476 143e 38c1 fd3d 6000 2f3e
00000200: f04a f03d 8c49 2e3e ed4d 0c3f a0ea 783f
00000210: d605 b13f 3cc0 953f 679d a33f 1cca ae3e
00000220: 0ce6 aa3e a0de 9d3e f865 cf3d 9cda 333e
00000230: 88c8 0d3e 180e e53d 0c1e 023e 34bd 033f
00000240: a558 733f 046f a03f a970 9a3f 2881 ae3f
00000250: f4a8 ac3e 1ecd a23e 8654 ad3e 8075 2f3e
00000260: 90f4 fa3d 6c07 323e c4ad 343e 1487 0a3e
00000270: 940e 093f 2368 783f 021e ab3f 6533 963f
00000280: 1005 ab3f 8818 aa3e 1aad a83e 5a3a 973e
00000290: 4015 133e 18ee 0e3e 3c64 263e 482d ef3d
000002a0: 1079 223e 06c3 fb3e ae25 7b3f d1c0 af3f
000002b0: 6689 953f aeac ae3f 42ed b03e f226 ba3e
000002c0: 4887 5d3e 84a7 283e 2884 ec3d e0ec 5c3e
000002d0: f4e9 053e 94b7 053e 1abc 063f 5968 783f
000002e0: 8dba b53f ffc9 8f3f f586 aa3f 4607 ba3e
000002f0: 4492 a43e 0051 733e c0eb e83d a8e6 f33d
00000300: 30dc 2d3e c891 de3d 7c7a 073e 414e 033f
00000310: f8d3 7b3f 72ac a93f f1c1 973f 3e60 a93f
00000320: b6be 963e 44d7 b43e 84b3 a23e 604e 083e
00000330: c0b6 f83d 0cba 323e 5055 093e 481f 023e
0.5345936 0.9146346 1.3629493 1.2201331 1.3371737 0.3419792 0.26883334 0.2987188
0.11875498 0.12805086 0.17707002 0.15805453 0.1492632 0.53457844 0.9718637 1.38668
1.146859 1.3248036 0.33519328 0.34785497 0.3116675 0.113883555 0.12632042 0.17412394
0.1378138 0.13148642 0.52473974 0.92792755 1.3742058 1.2074533 1.2571386 0.22556895
0.4620474 0.35055584 0.11887193 0.16277432 0.14851934 0.14585316 0.117465615 0.49772477
0.9867524 1.3694468 1.1657299 1.3460648 0.28459543 0.35555178 0.32480556 0.1313948
0.14785022 0.19326204 0.14264405 0.13448775 0.5479831 0.9725989 1.3007443 1.2137699
1.2944338 0.3257408 0.31764883 0.2763375 0.16424358 0.121414244 0.11587769 0.11294168
0.13925755 0.49864298 0.9769398 1.2899401 1.1875894 1.3643028 0.34697098 0.33378583
0.25202245 0.13744378 0.1655258 0.19138348 0.117302 0.13500053 0.5440469 0.969214
1.3093696 1.2020137 1.339102 0.30522162 0.3223852 0.29211324 0.14562458 0.09686512
0.16056478 0.14340317 0.13838524 0.49704254 0.9666103 1.2935011 1.1837798 1.4062304
0.27816284 0.35088152 0.29539853 0.13725752 0.16620088 0.21361363 0.14073974 0.123003125
0.50936294 0.9798828 1.2362852 1.180996 1.3672994 0.3329013 0.3634588 0.31135845
0.15999836 0.1565479 0.18966836 0.14254045 0.11533874 0.5056393 0.97980267 1.3710515
1.1421007 1.3414911 0.32510507 0.31221658 0.31649137 0.1449843 0.12390369 0.17089987
0.11733043 0.17020243 0.54806405 0.9723301 1.3829906 1.169929 1.278241 0.34138572
0.33378637 0.30833912 0.10126871 0.17563862 0.13846028 0.11184329 0.12706774 0.51460576
0.95057136 1.2533879 1.2065631 1.3633165 0.3372265 0.31797117 0.3385355 0.17134666
0.12253678 0.17385644 0.17644411 0.1352809 0.5353787 0.970339 1.3368533 1.1734434
1.336092 0.3322184 0.32944566 0.29536706 0.14363575 0.13958013 0.16249174 0.116785586
0.15866494 0.4917223 0.9810437 1.3730718 1.1682556 1.3646448 0.34556013 0.36357838
0.21633637 0.16470152 0.11548644 0.21574736 0.13077527 0.13058311 0.5263077 0.9703422
1.4197556 1.1233519 1.3322436 0.36333674 0.32142842 0.23761368 0.11373091 0.119092286
0.16978526 0.10867649 0.13230318 0.5129128 0.98370314 1.3255751 1.1856061 1.3232496
0.29442376 0.35320485 0.31777585 0.13311148 0.12144232 0.17453784 0.1341145 0.12707245

vwA f4 [208, 1]
00000000: 7e5b e93e c58b 003f ecf6 ee3e e1a5 e83e
00000010: 16a9 ed3e fae3 c53e 65cf b83e e63f be3e
00000020: ac19 a03e fb0f a53e 20c1 b03e 7806 ad3e
00000030: 8457 aa3e c512 ea3e 3a3b 023f f6e1 ee3e
00000040: a895 e53e c89a ea3e 67ec c43e 40e7 c63e
00000050: 46fa c23e 3513 a03e aadb a33e 1d88 b13e
00000060: 6fa5 a83e 3d91 a53e 9b4a e83e 8667 003f
00000070: a742 f03e 3ca4 e83e 7466 e83e dc9c b13e
00000080: 4616 d33e 4894 c53e 1450 a23e e8d0 af3e
00000090: d3d2 aa3e 9d50 ab3e b19e a33e 2cd3 e63e
000000a0: 5a9c 033f cea7 ef3e 8b05 e53e a692 ed3e
000000b0: 6f0e bb3e ac01 c93e 350f c63e 4e46 a53e
000000c0: efee ab3e cd1a b63e adb9 aa3e f0ca aa3e
000000d0: 378d e83e 4691 023f 12c9 ec3e baca e83e
000000e0: 54cc ea3e d53d c43e 692d c13e 21c6 be3e
000000f0: 002b ac3e 8a25 a33e dfb0 9c3e 33c7 a03e
00000100: 3e1e a83e 5924 e73e 6ba3 023f 4a06 ec3e
00000110: a2e4 e63e cc96 ec3e 1aaf c93e 3ac5 c43e
00000120: 5337 bc3e 9090 a83e 56c8 b13e 44b2 b43e
00000130: 272d a23e 8dab a63e ef47 e93e c45e 023f
00000140: 8caf eb3e ad31 e93e bf57 ed3e f666 be3e
00000150: 9a76 c33e 7777 c03e 9a84 a93e 460d 9b3e
00000160: d4dd ac3e 7c54 aa3e 8f2f a93e 7a56 e73e
00000170: df0d 023f ac1b ec3e 08e0 e63e e6e3 ed3e
00000180: 2e8b ba3e 9e0b c83e 64eb c13e f72b a83e
00000190: 022e b23e 6c66 ba3e 0b45 a93e cea6 a33e
000001a0: 46b8 e73e d60b 033f f087 e83e 943e e73e
000001b0: 2b8c ed3e 3152 c43e 0144 c83e 33c1 c23e
000001c0: 1d91 b13e d251 b13e 3482 b23e 502e a93e
000001d0: bcdb a13e c0f5 e73e 7adc 023f 9812 ef3e
000001e0: cead e43e e74e ec3e 5b7e c33e b17e c13e
000001f0: ccea c43e 96d1 a93e 0132 a33e 86a9 b03e
00000200: 6a9f a23e 1bcf b23e f2db e93e 1a57 023f
00000210: 4dd0 ef3e 401c e63e 2101 e93e 51d3 c53e
00000220: 1271 c33e 9900 c33e 6a76 9a3e ba8f b33e
00000230: e1b6 a63e 4ce0 a13e fcfe a43e f058 e73e
00000240: e861 013f d191 ea3e d1ea e73e 0e93 ee3e
00000250: a6c8 c43e 50e0 bf3e a56d c53e a492 af3e
00000260: 9e38 a43e a6b3 b03e 67b0 b13e dcbd a83e
00000270: 3fda e83e 8e2a 023f 763b ef3e 0099 e63e
00000280: 77a0 ed3e d2ab c33e 16c6 c23e 9db7 c13e
00000290: 11be a83e cfb3 a83e f91c ad3e 4b92 a33e
000002a0: aebf af3e 0932 e73e ec29 033f fb87 ef3e
000002b0: b2d3 e53e 62c3 ec3e a78f c73e f13f cb3e
000002c0: 85b2 b33e 3ba5 af3e 23d1 a13e ecb1 bc3e
000002d0: ccd7 a73e db2b a83e 8821 eb3e 8c96 013f
000002e0: ee45 ef3e 008b e43e 99fe ea3e 07c7 cc3e
000002f0: c70f c33e d385 b83e 5b9f 9f3e 6b1e a13e
00000300: d1c9 b03e 78b7 a03e 0e39 a93e 087e e73e
00000310: c83e 033f 4f22 ed3e e2b5 e63e a812 ec3e
00000320: 7ec8 bc3e a703 c73e bc27 c53e 7894 a43e
00000330: ad48 a33e 5f97 b03e ff23 a73e 1577 a33e
0.45577615 0.5021327 0.4667276 0.45439056 0.46418065 0.38650495 0.3609573 0.37158126
0.31269586 0.32238755 0.34522343 0.33793998 0.33269894 0.45717445 0.5087162 0.4665677
0.4484074 0.45821214 0.3846161 0.38848305 0.38081568 0.31264654 0.32003528 0.3467416
0.32938716 0.3233737 0.4536942 0.50157964 0.46925852 0.454378 0.45390666 0.34689987
0.4122793 0.38589692 0.3170172 0.3433907 0.3336397 0.3345994 0.3195701 0.45082986
0.5141045 0.46807712 0.4473079 0.46400946 0.3653445 0.39259088 0.38683477 0.322802
0.3358073 0.35567322 0.33344784 0.33357954 0.45420238 0.5100292 0.46247154 0.45467168
0.45859015 0.38328424 0.37729958 0.37260535 0.33626556 0.31864578 0.30603692 0.31401977
0.32835573 0.4514492 0.51030606 0.46098548 0.45096308 0.462088 0.39391404 0.38431722
0.3676096 0.32922792 0.34723157 0.35292256 0.31675074 0.32552758 0.45562693 0.5092585
0.4603237 0.45545712 0.46356007 0.37187928 0.38176423 0.37591144 0.3310898 0.30283564
0.3376299 0.3326758 0.33044097 0.45183164 0.50802416 0.46114862 0.45092797 0.46462935
0.3643431 0.39071363 0.378749 0.32846043 0.34800726 0.36406267 0.33060488 0.319632
0.45257777 0.51189935 0.45416212 0.4516493 0.46396002 0.38343957 0.39114383 0.38038024
0.34681025 0.34632736 0.34864962 0.33043146 0.31612957 0.4530468 0.5111767 0.46693873
0.44663852 0.46153948 0.3818234 0.3779197 0.38460386 0.33167714 0.31874087 0.34504336
0.31762248 0.34923634 0.45675617 0.50914156 0.46838608 0.44943428 0.45508674 0.38637784
0.38172203 0.38086393 0.30168468 0.35070592 0.325614 0.31616437 0.32225788 0.4518504
0.5054002 0.45814374 0.45296338 0.4659657 0.38434333 0.37475824 0.38560215 0.34291565
0.32074445 0.3451206 0.34704897 0.3295735 0.4547901 0.50846183 0.46725053 0.45038605
0.46411487 0.38217026 0.38041753 0.37835398 0.3295751 0.32949683 0.33811167 0.3194755
0.34325927 0.4515536 0.5123584 0.46783432 0.44888073 0.46242815 0.38976786 0.3969722
0.35097137 0.34305748 0.3160487 0.36854494 0.32781827 0.3284596 0.4592402 0.5062034
0.4673304 0.446373 0.45897368 0.39995596 0.38097975 0.360396 0.31176266 0.3146852
0.34528974 0.31389976 0.33051342 0.45213342 0.5126767 0.46315238 0.4506064 0.46107984
0.36871713 0.38869974 0.38506877 0.32144523 0.31891385 0.34490487 0.3264465 0.3192679

alpha_0_A f4 [3328]
00000000: aa30 3b41 aa30 3b41 4c04 e840 4c04 e840
00000010: 4c04 e840 1ef9 8f40 1ef9 8f40 1ef9 8f40
00000020: 1ef9 8f40 1ef9 8f40 1ef9 8f40 1ef9 8f40
00000030: 1ef9 8f40 aa30 3b41 aa30 3b41 4c04 e840
00000040: 4c04 e840 4c04 e840 1ef9 8f40 1ef9 8f40
00000050: 1ef9 8f40 1ef9 8f40 1ef9 8f40 1ef9 8f40
00000060: 1ef9 8f40 1ef9 8f40 aa30 3b41 aa30 3b41
00000070: 4c04 e840 4c04 e840 4c04 e840 1ef9 8f40
00000080: 1ef9 8f40 1ef9 8f40 1ef9 8f40 1ef9 8f40
00000090: 1ef9 8f40 1ef9 8f40 1ef9 8f40 aa30 3b41
000000a0: aa30 3b41 4c04 e840 4c04 e840 4c04 e840
000000b0: 1ef9 8f40 1ef9 8f40 1ef9 8f40 1ef9 8f40
000000c0: 1ef9 8f40 1ef9 8f40 1ef9 8f40 1ef9 8f40
000000d0: aa30 3b41 aa30 3b41 4c04 e840 4c04 e840
000000e0: 4c04 e840 1ef9 8f40 1ef9 8f40 1ef9 8f40
000000f0: 1ef9 8f40 1ef9 8f40 1ef9 8f40 1ef9 8f40
00000100: 1ef9 8f40 aa30 3b41 aa30 3b41 4c04 e840
00000110: 4c04 e840 4c04 e840 1ef9 8f40 1ef9 8f40
00000120: 1ef9 8f40 1ef9 8f40 1ef9 8f40 1ef9 8f40
00000130: 1ef9 8f40 1ef9 8f40 aa30 3b41 aa30 3b41
00000140: 4c04 e840 4c04 e840 4c04 e840 1ef9 8f40
00000150: 1ef9 8f40 1ef9 8f40 1ef9 8f40 1ef9 8f40
00000160: 1ef9 8f40 1ef9 8f40 1ef9 8f40 aa30 3b41
00000170: aa30 3b41 4c04 e840 4c04 e840 4c04 e840
00000180: 1ef9 8f40 1ef9 8f40 1ef9 8f40 1ef9 8f40
00000190: 1ef9 8f40 1ef9 8f40 1ef9 8f40 1ef9 8f40
000001a0: aa30 3b41 aa30 3b41 4c04 e840 4c04 e840
000001b0: 4c04 e840 1ef9 8f40 1ef9 8f40 1ef9 8f40
000001c0: 1ef9 8f40 1ef9 8f40 1ef9 8f40 1ef9 8f40
000001d0: 1ef9 8f40 aa30 3b41 aa30 3b41 4c04 e840
000001e0: 4c04 e840 4c04 e840 1ef9 8f40 1ef9 8f40
000001f0: 1ef9 8f40 1ef9 8f40 1ef9 8f40 1ef9 8f40
00000200: 1ef9 8f40 1ef9 8f40 aa30 3b41 aa30 3b41
00000210: 4c04 e840 4c04 e840 4c04 e840 1ef9 8f40
00000220: 1ef9 8f40 1ef9 8f40 1ef9 8f40 1ef9 8f40
00000230: 1ef9 8f40 1ef9 8f40 1ef9 8f40 aa30 3b41
00000240: aa30 3b41 4c04 e840 4c04 e840 4c04 e840
00000250: 1ef9 8f40 1ef9 8f40 1ef9 8f40 1ef9 8f40
00000260: 1ef9 8f40 1ef9 8f40 1ef9 8f40 1ef9 8f40
00000270: aa30 3b41 aa30 3b41 4c04 e840 4c04 e840
00000280: 4c04 e840 1ef9 8f40 1ef9 8f40 1ef9 8f40
00000290: 1ef9 8f40 1ef9 8f40 1ef9 8f40 1ef9 8f40
000002a0: 1ef9 8f40 aa30 3b41 aa30 3b41 4c04 e840
000002b0: 4c04 e840 4c04 e840 1ef9 8f40 1ef9 8f40
000002c0: 1ef9 8f40 1ef9 8f40 1ef9 8f40 1ef9 8f40
000002d0: 1ef9 8f40 1ef9 8f40 aa30 3b41 aa30 3b41
000002e0: 4c04 e840 4c04 e840 4c04 e840 1ef9 8f40
000002f0: 1ef9 8f40 1ef9 8f40 1ef9 8f40 1ef9 8f40
00000300: 1ef9 8f40 1ef9 8f40 1ef9 8f40 aa30 3b41
00000310: aa30 3b41 4c04 e840 4c04 e840 4c04 e840
00000320: 1ef9 8f40 1ef9 8f40 1ef9 8f40 1ef9 8f40
00000330: 1ef9 8f40 1ef9 8f40 1ef9 8f40 1ef9 8f40
00000340: aa30 3b41 aa30 3b41 4c04 e840 4c04 e840
00000350: 4c04 e840 1ef9 8f40 1ef9 8f40 1ef9 8f40
00000360: 1ef9 8f40 1ef9 8f40 1ef9 8f40 1ef9 8f40
00000370: 1ef9 8f40 aa30 3b41 aa30 3b41 4c04 e840
00000380: 4c04 e840 4c04 e840 1ef9 8f40 1ef9 8f40
00000390: 1ef9 8f40 1ef9 8f40 1ef9 8f40 1ef9 8f40
000003a0: 1ef9 8f40 1ef9 8f40 aa30 3b41 aa30 3b41
000003b0: 4c04 e840 4c04 e840 4c04 e840 1ef9 8f40
000003c0: 1ef9 8f40 1ef9 8f40 1ef9 8f40 1ef9 8f40
000003d0: 1ef9 8f40 1ef9 8f40 1ef9 8f40 aa30 3b41
000003e0: aa30 3b41 4c04 e840 4c04 e840 4c04 e840
000003f0: 1ef9 8f40 1ef9 8f40 1ef9 8f40 1ef9 8f40
11.699381 11.699381 7.2505245 7.2505245 7.2505245 4.49916 4.49916 4.49916
4.49916 4.49916 4.49916 4.49916 4.49916 11.699381 11.699381 7.2505245
7.2505245 7.2505245 4.49916 4.49916 4.49916 4.49916 4.49916 4.49916
4.49916 4.49916 11.699381 11.699381 7.2505245 7.2505245 7.2505245 4.49916
4.49916 4.49916 4.49916 4.49916 4.49916 4.49916 4.49916 11.699381
11.699381 7.2505245 7.2505245 7.2505245 4.49916 4.49916 4.49916 4.49916
4.49916 4.49916 4.49916 4.49916 11.699381 11.699381 7.2505245 7.2505245
7.2505245 4.49916 4.49916 4.49916 4.49916 4.49916 4.49916 4.49916
4.49916 11.699381 11.699381 7.2505245 7.2505245 7.2505245 4.49916 4.49916
4.49916 4.49916 4.49916 4.49916 4.49916 4.49916 11.699381 11.699381
7.2505245 7.2505245 7.2505245 4.49916 4.49916 4.49916 4.49916 4.49916
4.49916 4.49916 4.49916 11.699381 11.699381 7.2505245 7.2505245 7.2505245
4.49916 4.49916 4.49916 4.49916 4.49916 4.49916 4.49916 4.49916
11.699381 11.699381 7.2505245 7.2505245 7.2505245 4.49916 4.49916 4.49916
4.49916 4.49916 4.49916 4.49916 4.49916 11.699381 11.699381 7.2505245
7.2505245 7.2505245 4.49916 4.49916 4.49916 4.49916 4.49916 4.49916
4.49916 4.49916 11.699381 11.699381 7.2505245 7.2505245 7.2505245 4.49916
4.49916 4.49916 4.49916 4.49916 4.49916 4.49916 4.49916 11.699381
11.699381 7.2505245 7.2505245 7.2505245 4.49916 4.49916 4.49916 4.49916
4.49916 4.49916 4.49916 4.49916 11.699381 11.699381 7.2505245 7.2505245
7.2505245 4.49916 4.49916 4.49916 4.49916 4.49916 4.49916 4.49916
4.49916 11.699381 11.699381 7.2505245 7.2505245 7.2505245 4.49916 4.49916
4.49916 4.49916 4.49916 4.49916 4.49916 4.49916 11.699381 11.699381
7.2505245 7.2505245 7.2505245 4.49916 4.49916 4.49916 4.49916 4.49916
4.49916 4.49916 4.49916 11.699381 11.699381 7.2505245 7.2505245 7.2505245
4.49916 4.49916 4.49916 4.49916 4.49916 4.49916 4.49916 4.49916
11.699381 11.699381 7.2505245 7.2505245 7.2505245 4.49916 4.49916 4.49916
4.49916 4.49916 4.49916 4.49916 4.49916 11.699381 11.699381 7.2505245
7.2505245 7.2505245 4.49916 4.49916 4.49916 4.49916 4.49916 4.49916
4.49916 4.49916 11.699381 11.699381 7.2505245 7.2505245 7.2505245 4.49916
4.49916 4.49916 4.49916 4.49916 4.49916 4.49916 4.49916 11.699381
11.699381 7.2505245 7.2505245 7.2505245 4.49916 4.49916 4.49916 4.49916
