tests/test_data_path/og_processed/dimer_ap3_train_spec_7_415.pt (torch, 323346 bytes, 17 tensors)

y f4 [16, 4]
-0.6019784 1.1803093e-06 -0.16231516 -0.03011194 -36.765102 47.34594 -17.74865 -10.806627
-3.1384022 2.2086012e-06 -0.15223582 -0.015439403 2.2425516 2.0005229 -2.7853239 -2.5029895
-30.351822 33.970207 -15.000636 -7.685239 2.5196505 2.5450252e-05 -0.38972485 -0.0704392
-56.34856 123.245735 -50.68414 -16.99956 -3.524715 6.6075763e-06 -0.26343027 -0.03352261
1.3766953 0.07116537 -1.4880815 -0.6534117 2.3204072 1.1272795 -2.7711918 -2.1172624
0.6745639 6.590355e-05 -0.36935568 -0.10035433 -36.615444 57.654266 -13.69152 -13.240112
-2.6515458 0.1454649 -1.7446817 -1.0952923 4.036994 2.1535583 -2.6849637 -3.2887902
4.0226383 0.23359627 -1.9264929 -1.0645108 1.8153758 3.109628e-05 -0.41029596 -0.07983721
00000000: 421b 1abf 1e6b 9e35 f235 26be 51ad f6bc
00000010: 770f 13c2 3e62 3d42 3cfd 8dc1 f2e7 2cc1
00000020: 95db 48c0 7b37 1436 b5e3 1bbe 8df5 7cbc
00000030: f785 0f40 9108 0040 bf42 32c0 fb30 20c0
00000040: 88d0 f2c1 7ee1 0742 9b02 70c1 7aed f5c0
00000050: f441 2140 007e d537 048a c7be 6d42 90bd
00000060: ed64 61c2 d17d f642 8fbc 4ac2 19ff 87c1
00000070: ee94 61c0 a6b6 dd36 55e0 86be 014f 09bd
00000080: 8d37 b03f 26bf 913d 7479 bebf fd45 27bf
00000090: 8d81 1440 b24a 903f 355b 31c0 3a81 07c0
000000a0: 38b0 2c3f b335 8a38 301c bdbe 9286 cdbd
000000b0: 3776 12c2 f89d 6642 7710 5bc1 80d7 53c1
000000c0: edb2 29c0 c0f4 143e bb51 dfbf 8a32 8cbf
000000d0: 0e2f 8140 e6d3 0940 72d6 2bc0 8a7b 52c0
000000e0: 74b9 8040 dc33 6f3e 5297 f6bf e441 88bf
000000f0: 3c5e e83f 606d 0238 5012 d2be b181 a3bd

RA f4 [208, 3]
0.08505 -0.178459 -1.166189 -0.913115 -1.057228 0.664529 0.45649 0.559984
-0.037999 1.377152 1.714966 0.009437 -0.196215 0.00596 1.038207 -0.779327
-1.179371 -0.658763 0.302305 -0.141156 -2.218369 -1.434722 -1.759444 1.325563
0.803164 2.678106 0.397617 2.189723 1.568191 0.719584 1.804557 2.073342
-0.929695 -0.09669 0.320199 2.019323 -1.231009 -1.977621 -1.237726 0.090994
-0.138802 -1.10913 -0.937077 -1.069791 0.648816 0.4169 0.614636 -0.080593
1.343418 1.771033 0.053294 -0.198913 0.011905 1.065681 -0.792606 -1.175556
-0.68466 0.258261 -0.11951 -2.221855 -1.498801 -1.670439 1.338833 0.775979
2.629098 0.424402 2.242098 1.628315 0.695348 1.695906 2.049593 -0.903242
-0.118994 0.282757 1.956238 -1.242754 -1.896414 -1.229372 0.068836 -0.156348
-1.1121 -0.89502 -1.023673 0.654722 0.435238 0.584031 -0.053459 1.331504
1.77707 0.052062 -0.118582 0.050493 0.995543 -0.79424 -1.15494 -0.631755
0.297694 -0.087314 -2.205693 -1.476521 -1.694223 1.292472 0.761506 2.644133
0.462759 2.256216 1.59504 0.708555 1.757867 1.994265 -0.881268 -0.114678
0.280259 2.034425 -1.223761 -1.875908 -1.217464 0.053537 -0.155648 -1.119459
-0.936716 -1.072157 0.67494 0.428325 0.601866 -0.042651 1.271256 1.768702
0.068943 -0.15411 -0.085245 1.037214 -0.774197 -1.147796 -0.652741 0.352602
-0.03348 -2.21737 -1.48886 -1.693198 1.298324 0.825781 2.628391 0.501333
2.200894 1.53127 0.761778 1.706964 2.072011 -0.930002 -0.133452 0.283619
2.03251 -1.172738 -1.967203 -1.255091 0.046033 -0.166893 -1.135963 -0.913313
-1.056727 0.661366 0.511301 0.599715 -0.050063 1.347237 1.749193 0.044363
-0.204034 0.000339 1.060625 -0.784727 -1.156976 -0.655658 0.320301 -0.092244
-2.139142 -1.579178 -1.715181 1.354664 0.76625 2.616731 0.451762 2.205504
1.561586 0.712505 1.708501 1.970306 -0.96916 -0.135872 0.309111 1.961172
-1.261279 -1.849567 -1.25775 0.104208 -0.249592 -1.112422 -0.901292 -1.056089
0.666429 0.374006 0.597041 0.012401 1.256571 1.821233 0.020268 -0.167269
0.015903 1.056427 -0.784193 -1.113579 -0.725765 0.324548 -0.117917 -2.130769
-1.524621 -1.719234 1.311155 0.852612 2.699817 0.4757 2.231928 1.531835
0.678895 1.736688 2.012008 -0.975536 -0.120712 0.310191 2.056605 -1.204059
-1.896861 -1.239323 0.09013 -0.182481 -1.142941 -0.915678 -1.134284 0.655822
0.499089 0.538399 -0.106586 1.348537 1.762801 0.051815 -0.162611 0.065879
0.984485 -0.753315 -1.092101 -0.686177 0.336408 -0.070168 -2.187532 -1.495884
00000000: b22e ae3d f5bd 36be ae45 95bf e8c1 69bf
00000010: 3f53 87bf 931e 2a3f 0fb9 e93e 1d5b 0f3f
00000020: d7a4 1bbd 8446 b03f 0284 db3f a69d 1a3c
00000030: 96ec 48be 1b4c c33b f8e3 843f f981 47bf
00000040: a1f5 96bf b1a4 28bf b9c7 9a3e 338b 10be
00000050: c2f9 0dc0 f8a4 b7bf 7635 e1bf 0cac a93f
00000060: 289c 4d3f 1766 2b40 7594 cb3e 6c24 0c40
00000070: 7cba c83f a836 383f b9fb e63f a3b1 0440
00000080: 7e00 6ebf 6805 c6bd 20f1 a33e 973c 0140
00000090: b491 9dbf af22 fdbf ce6d 9ebf 105b ba3d
000000a0: 1d22 0ebe f9f7 8dbf 47e4 6fbf e9ee 88bf
000000b0: ce18 263f eb73 d53e c958 1d3f f10d a5bd
000000c0: 1ff5 ab3f 36b1 e23f cf4a 5a3d d9af 4bbe
000000d0: 300d 433c 3c68 883f 3ae8 4abf 9e78 96bf
000000e0: e145 2fbf c93a 843e a9c1 f4bd df32 0ec0
000000f0: b6d8 bfbf f2d0 d5bf e15e ab3f 8fa6 463f
00000100: 2443 2840 384b d93e 897e 0f40 a06c d03f
00000110: 5402 323f 7313 d93f 882c 0340 de3a 67bf
00000120: 20b3 f3bd 87c5 903e 0266 fa3f 9012 9fbf
00000130: b2bd f2bf 105c 9dbf e4f9 8c3d b119 20be
00000140: 4b59 8ebf 0820 65bf b807 83bf dc9b 273f
00000150: 84d7 de3e 0e83 153f d3f7 5abd b96e aa3f
00000160: 0877 e33f f73e 553d 1fdb f2bd bfd1 4e3d
00000170: e8db 7e3f 5053 4bbf 13d5 93bf b2ba 21bf
00000180: 596b 983e afd1 b2bd 132a 0dc0 a4fe bcbf
00000190: 4ddc d8bf b96f a53f 0ff2 423f 7a39 2940
000001a0: bfee ec3e d865 1040 452a cc3f dc63 353f
000001b0: c901 e13f 1344 ff3f c89a 61bf 4ddc eabd
000001c0: 1c7e 8f3e 0534 0240 33a4 9cbf c11d f0bf
000001d0: dcd5 9bbf 9d49 5b3d 3062 1fbe 6f4a 8fbf
000001e0: 9fcc 6fbf 713c 89bf dec8 2c3f 6a4d db3e
000001f0: e413 1a3f d1b2 2ebd 84b8 a23f d464 e23f
00000200: fd31 8d3d 03cf 1dbe ee94 aebd 6ec3 843f
00000210: c631 46bf fbea 92bf 091a 27bf 4088 b43e
00000220: 5322 09bd 64e9 0dc0 f792 bebf b6ba d8bf
00000230: 7b2f a63f 6266 533f 8f37 2840 5c57 003f
00000240: 73db 0c40 a800 c43f e203 433f cc7d da3f
00000250: d49b 0440 9c14 6ebf a4a7 08be 8236 913e
00000260: a514 0240 471c 96bf 4fcd fbbf d2a6 a0bf
00000270: 198d 3c3d 00e6 2abe 3c67 91bf e1ce 69bf
00000280: d542 87bf 484f 293f 9fe4 023f ec86 193f
00000290: dc0e 4dbd 4372 ac3f 8ee5 df3f fab5 353d
000002a0: 4aee 50be cfbb b139 8fc2 873f dee3 48bf
000002b0: ca17 94bf 34d9 27bf 7efe a33e 6cea bcbd
000002c0: b4e7 08c0 8122 cabf 0d8b dbbf a165 ad3f
000002d0: f628 443f 8578 2740 594d e73e fa26 0d40
000002e0: 0de2 c73f ba66 363f 29b0 da3f fd32 fc3f
000002f0: df1a 78bf 0822 0bbe cc43 9e3e af07 fb3f
00000300: 9771 a1bf 9dbe ecbf f4fd a0bf 016b d53d
00000310: 0c95 7fbe d863 8ebf 13bb 66bf ed2d 87bf
00000320: 179b 2a3f b77d bf3e aed7 183f 902d 4b3c
00000330: 52d7 a03f 2a1e e93f 1409 a63c 9148 2bbe
00000340: 0247 823c 0039 873f dfc0 48bf c289 8ebf
00000350: bccb 39bf 282b a63e 787e f1bd 855e 08c0
00000360: c826 c3bf dc0f dcbf edd3 a73f c844 5a3f
00000370: cdc9 2c40 f38e f33e e9d7 0e40 2b13 c43f
00000380: 10cc 2d3f cb4b de3f bdc4 0040 babc 79bf
00000390: da37 f7bd 5bd1 9e3e 6b9f 0340 9b1e 9abf
000003a0: 57cc f2bf 23a2 9ebf 1496 b83d 4ddc 3abe
000003b0: e44b 92bf e069 6abf 3830 91bf f3e3 273f
000003c0: 9888 ff3e 84d4 093f c349 dabd dc9c ac3f
000003d0: 77a3 e13f f73b 543d 7f83 26be 92eb 863d
000003e0: 3507 7c3f 40d9 40bf f7c9 8bbf 4ca9 2fbf
000003f0: ab3d ac3e 3eb4 8fbd 8600 0cc0 2079 bfbf

RB f4 [272, 3]
-2.10915 5.324625 10.899809 -3.433228 5.868086 10.564142 -1.212056 5.298578
9.816167 -3.718254 6.806441 11.167456 -4.256778 5.134637 10.665689 -0.047041
4.901374 9.972349 -1.878173 4.9596 11.820281 -3.238163 6.238051 9.077171
-1.86432 5.948274 8.657324 -1.487061 6.095246 7.448206 -2.281414 6.689094
6.487881 -3.568843 7.042283 6.780042 -4.055429 6.811813 8.139835 -0.398059
5.849496 7.163057 -1.948707 6.869337 5.459483 -4.219399 7.467741 6.131171
-5.081241 7.093917 8.427021 0.993785 3.535568 3.177611 1.50389 4.389773
4.251285 0.82624 2.228484 3.570211 0.788241 5.195127 4.541949 2.497166
4.823999 4.036915 0.367511 1.389517 2.771329 0.785176 3.869784 2.299332
1.689887 3.378772 5.487435 1.295269 2.154801 4.958693 1.345268 1.057026
5.791772 1.809306 1.200541 7.16089 2.237801 2.559691 7.496236 2.167003
3.595836 6.706981 1.01822 0.047673 5.377418 1.88362 0.365679 7.801008
2.553269 2.639225 8.535982 2.460535 4.60453 7.082236 -4.500333 -7.217458
-8.605445 -4.52186 -8.076518 -9.707903 -3.22167 -6.863835 -8.195429 -5.081448
-7.533393 -10.59314 -5.01691 -9.029755 -9.599237 -2.950456 -6.179728 -7.169086
-5.351302 -6.962885 -8.086712 -3.09827 -8.165499 -10.142169 -2.299709 -7.504059
-9.210359 -0.913038 -7.42945 -9.277879 -0.294705 -8.131017 -10.318284 -1.094909
-8.75528 -11.248844 -2.457644 -8.892215 -11.169272 -0.396785 -6.906428 -8.517864
0.767635 -8.084504 -10.384226 -0.54353 -9.336906 -12.072316 -3.022399 -9.421944
-11.936582 -0.092788 -2.636173 -3.982822 -0.324134 -1.37985 -4.696172 -0.889115
-3.635007 -4.349842 0.698569 -1.084786 -5.23527 -0.504506 -0.492012 -4.100873
-1.020979 -4.756396 -3.892094 0.586255 -2.809869 -3.307172 -1.388093 -1.728862
-5.694106 -1.778028 -3.032383 -5.470323 -2.814634 -3.627408 -6.208003 -3.446025
-2.858603 -7.116341 -2.986164 -1.510089 -7.451157 -1.915177 -0.94119 -6.639811
-3.024521 -4.718349 -5.981651 -4.212894 -3.264246 -7.820736 -3.575199 -0.907633
-8.207374 -1.728595 0.070825 -6.867075 -1.178159 -1.406511 -4.893826 -1.171809
-1.932715 -6.248654 -1.177363 -2.363407 -3.888843 -0.300263 -1.619906 -6.84584
-2.102573 -1.674905 -6.818564 -1.16631 -2.168628 -2.761627 -1.263411 -0.360964
-4.691515 -1.088753 -3.42655 -6.076009 -1.074941 -3.60279 -4.649678 -1.073929
-4.982947 -4.086001 -1.072458 -6.022759 -5.003539 -1.074854 -5.770525 -6.327433
-1.097589 -4.478724 -6.907838 -1.025241 -5.032373 -3.022203 -1.056341 -7.066534
-4.65482 -1.068066 -6.644766 -7.135875 -1.129066 -4.315799 -7.984357 -5.868619
00000000: 50fc 06c0 5463 aa40 9e65 2e41 02ba 5bc0
00000010: 5cc7 bb40 ba06 2941 a724 9bbf f38d a940
00000020: 050f 1d41 e0f7 6dc0 5dce d940 e6ad 3241
00000030: 8637 88c0 f24e a440 aaa6 2a41 10ae 40bd
00000040: 0ed8 9c40 be8e 1f41 f967 f0bf 0bb5 9e40
00000050: df1f 3d41 103e 4fc0 1d9e c740 183c 1141
00000060: 0aa2 eebf 4358 be40 6684 0a41 0458 bebf
00000070: 410c c340 b457 ee40 b002 12c0 0f0d d640
00000080: b99c cf40 ec67 64c0 625a e140 1bf6 d840
00000090: 13c6 81c0 5ffa d940 c43c 0241 64ce cbbe
000000a0: 122f bb40 c337 e540 3b6f f9bf 9cd1 db40
000000b0: 16b4 ae40 5105 87c0 bcf7 ee40 8e32 c440
000000c0: 8799 a2c0 5e01 e340 14d5 0641 b268 7e3f
000000d0: bf46 6240 fb5d 4b40 787f c03f 0579 8c40
000000e0: 870a 8840 7784 533f 7b9f 0e40 567e 6440
000000f0: 2aca 493f 7b3e a640 a557 9140 91d1 1f40
00000100: 335e 9a40 682e 8140 672a bc3e b1db b13f
00000110: 745d 3140 4b01 493f 8baa 7740 4128 1340
00000120: 384e d83f cd3d 5840 1199 af40 60cb a53f
00000130: 42e8 0940 9dad 9e40 be31 ac3f a14c 873f
00000140: 3256 b940 5797 e73f 54ab 993f 0326 e540
00000150: 2238 0f40 fad1 2340 2ae1 ef40 2db0 0a40
00000160: 2d22 6640 979f d640 0855 823f c344 433d
00000170: cf13 ac40 761a f13f 473a bb3e dca1 f940
00000180: c268 2340 10e9 2840 6293 0841 6879 1d40
00000190: 4f58 9340 ada1 e240 ba02 90c0 6af5 e6c0
000001a0: e7af 09c1 14b3 90c0 6b39 01c1 9253 1bc1
000001b0: d72f 4ec0 89a4 dbc0 7a20 03c1 399b a2c0
000001c0: 8e11 f1c0 807d 29c1 878a a0c0 e079 10c1
000001d0: 7a96 19c1 45d4 3cc0 55c0 c5c0 2769 e5c0
000001e0: de3d abc0 f4cf dec0 2c63 01c1 0e4a 46c0
000001f0: e2a5 02c1 5346 22c1 6f2e 13c0 4021 f0c0
00000200: a15d 13c1 dcbc 69bf 0ebe edc0 3172 14c1
00000210: 93e3 96be a518 02c1 b117 25c1 fa25 8cbf
00000220: a015 0cc1 44fb 33c1 0a4a 1dc0 8346 0ec1
00000230: 57b5 32c1 6727 cbbe 7501 ddc0 2c49 08c1
00000240: ba83 443f 215a 01c1 ca25 26c1 c824 0bbf
00000250: f863 15c1 3528 41c1 fc6e 41c0 48c0 16c1
00000260: 3dfc 3ec1 a307 bebd 0fb7 28c0 8ee6 7ec0
00000270: e4f4 a5be ed9e b0bf 0b47 96c0 0a9d 63bf
00000280: f4a3 68c0 e831 8bc0 6bd5 323f 45da 8abf
00000290: 5587 a7c0 4e27 01bf ffe8 fbbe 5a3a 83c0
000002a0: 71af 82bf 6534 98c0 1118 79c0 cf14 163f
000002b0: e5d4 33c0 b5a8 53c0 08ad b1bf 5a4b ddbf
000002c0: 1e36 b6c0 6c96 e3bf 9012 42c0 e30c afc0
000002d0: f722 34c0 7427 68c0 f6a7 c6c0 ac8b 5cc0
000002e0: 5af3 36c0 11b9 e3c0 501d 3fc0 994a c1bf
000002f0: e16f eec0 8524 f5bf d4f1 70bf 5579 d4c0
00000300: c191 41c0 b7fc 96c0 af69 bfc0 07d0 86c0
00000310: 68e9 50c0 7843 fac0 0fd0 64c0 a35a 68bf
00000320: 6751 03c1 9a42 ddbf b30c 913d 14bf dbc0
00000330: eacd 96bf 8d08 b4bf 399a 9cc0 d6fd 95bf
00000340: 3563 f7bf f9f4 c7c0 d5b3 96bf 0f42 17c0
00000350: cee2 78c0 12bc 99be 1459 cfbf 1f11 dbc0
00000360: 8e90 06c0 4963 d6bf ad31 dac0 a549 95bf
00000370: cdca 0ac0 7fbe 30c0 74b7 a1bf 46d0 b8be
00000380: e420 96c0 425c 8bbf 984c 5bc0 aa6e c2c0
00000390: ab97 89bf 1d94 66c0 2aca 94c0 8176 89bf
000003a0: 4d74 9fc0 85c0 82c0 4e46 89bf 71ba c0c0
000003b0: fe1c a0c0 d194 89bf 24a8 b8c0 557a cac0
000003c0: cc7d 8cbf b551 8fc0 020d ddc0 193b 83bf
000003d0: 3309 a1c0 c66b 41c0 2f36 87bf 0c21 e2c0
000003e0: 49f4 94c0 63b6 88bf eca1 d4c0 1759 e4c0
000003f0: 3c85 90bf 071b 8ac0 da7f ffc0 bacb bbc0

qA f4 [208, 1]
-0.14044058 0.25951627 0.26307926 -0.48502964 -0.37007654 -0.33248907 0.22672477 0.17358586
0.16537115 0.19390666 0.21223623 0.4154989 0.4181169 -0.12513214 0.25391877 0.26987028
-0.4779005 -0.41495693 -0.35005832 0.21561861 0.18752939 0.18675205 0.19188383 0.20626158
0.434937 0.42127576 -0.15039468 0.24900931 0.31535774 -0.50279063 -0.38227695 -0.3221683
0.21452078 0.17789766 0.18212369 0.17800102 0.21129116 0.4153642 0.41406435 -0.13914442
0.27545372 0.2804743 -0.49336857 -0.37606913 -0.32184064 0.21232352 0.1761781 0.19771275
0.16401726 0.20294166 0.4114834 0.40983817 -0.14817989 0.26322564 0.24279055 -0.4931382
-0.39713705 -0.3278761 0.23094857 0.16714153 0.19629258 0.20197368 0.22037932 0.42612305
0.41745636 -0.1073699 0.20106804 0.23980817 -0.50471336 -0.345899 -0.3192584 0.21753344
0.19936737 0.22064993 0.15365702 0.20728275 0.41776934 0.4201052 -0.10497552 0.21280146
0.2904328 -0.49909198 -0.42192125 -0.3161744 0.21547675 0.19616324 0.20666191 0.1726678
0.20824161 0.42028606 0.4194319 -0.12393093 0.23548698 0.20320934 -0.48146117 -0.37227052
-0.29299754 0.21968403 0.17745358 0.19121513 0.19843924 0.20311838 0.4253136 0.41673976
-0.13293111 0.23421648 0.25211444 -0.4807592 -0.38645768 -0.34741962 0.22575 0.19237041
0.18980148 0.18790117 0.20563036 0.43188646 0.42789686 -0.11230779 0.28946534 0.26841748
-0.5020336 -0.34973848 -0.34189916 0.2221812 0.16471356 0.17884049 0.19069475 0.20434448
0.3787894 0.40853223 -0.11544329 0.2969203 0.241303 -0.4377666 -0.49581772 -0.28924698
0.22049749 0.18046689 0.16724297 0.17838237 0.22920972 0.42372686 0.4005251 -0.1360752
0.29313794 0.29206517 -0.47399652 -0.38598204 -0.37779957 0.22219726 0.17489824 0.1911762
0.19071284 0.18606696 0.40710172 0.41649672 -0.13602465 0.2722863 0.25094885 -0.47201186
-0.39953017 -0.3260793 0.22065485 0.17360565 0.18050522 0.1884037 0.21414667 0.42057312
0.4125211 -0.1445958 0.26040065 0.26531565 -0.48840046 -0.4077878 -0.32831526 0.22569785
0.18015805 0.18229643 0.20011967 0.21479347 0.4226919 0.41762596 -0.115890205 0.24094835
0.2422471 -0.48124248 -0.35586852 -0.35123247 0.22318095 0.19298995 0.17434743 0.17959505
0.21532533 0.41433764 0.4212609 -0.11634815 0.28123355 0.20592406 -0.46010983 -0.3623501
-0.42172968 0.23763338 0.17781997 0.20631015 0.17822325 0.21932977 0.41995603 0.43410748
00000000: a8cf 0fbe 51df 843e 53b2 863e ce55 f8be
00000010: ac7a bdbe 023c aabe 8a2a 683e 7ec0 313e
00000020: 0e57 293e 788f 463e 7454 593e 46bc d43e
00000030: 6b13 d63e a422 00be a401 823e 702c 8a3e
00000040: 60af f4be 3c75 d4be d83a b3be 20cb 5c3e
00000050: b407 403e ee3b 3f3e 327d 443e 3c36 533e
00000060: 10b0 de3e 75b1 d73e 1001 1abe 4cfc 7e3e
00000070: 9276 a13e e3b6 00bf ceb9 c3be 3ef3 a4be
00000080: 56ab 5b3e ce2a 363e a27e 3a3e e645 363e
00000090: b65c 583e 9eaa d43e 3e00 d43e e07b 0ebe
000000a0: 4508 8d3e 549a 8f3e ce9a fcbe 228c c0be
000000b0: 4cc8 a4be 566b 593e 0868 343e 3675 4a3e
000000c0: 24f4 273e f0cf 4f3e f4ad d23e 4fd6 d13e
000000d0: 78bc 17be 83c5 863e 169e 783e 9c7c fcbe
000000e0: 8c55 cbbe 60df a7be c87d 6c3e 2627 2b3e
000000f0: ec00 493e 30d2 4e3e 1eab 613e cd2c da3e
00000100: d7bc d53e c0e4 dbbd c8e4 4d3e 4690 753e
00000110: e534 01bf ac19 b1be d675 a3be 16c1 5e3e
00000120: f626 4c3e 0ef2 613e 4458 1d3e ee41 543e
00000130: dde5 d53e 0718 d73e 68fd d6bd a0e8 593e
00000140: 9cb3 943e fc88 ffbe 1006 d8be 9ce1 a1be
00000150: f0a5 5c3e 04df 483e 2e9f 533e d4cf 303e
00000160: 4a3d 553e bc2f d73e c7bf d63e 80cf fdbd
00000170: 8023 713e 1c16 503e 1482 f6be 3e9a bebe
00000180: c603 96be daf4 603e 64b6 353e e6cd 433e
00000190: a833 4b3e 44fe 4f3e b4c2 d93e ea5e d53e
000001a0: 181f 08be 72d6 6f3e 2515 813e 1226 f6be
000001b0: c8dd c5be fce0 b1be 022b 673e c0fc 443e
000001c0: 525b 423e 2a69 403e c490 523e 3920 dd3e
000001d0: 4c15 db3e a001 e6bd cd34 943e 046e 893e
000001e0: 4685 00bf ec10 b3be 680d afbe 7883 633e
000001f0: acaa 283e f621 373e 7c45 433e ae3f 513e
00000200: aff0 c13e 232b d13e 886d ecbd f005 983e
00000210: 2218 773e f222 e0be d2db fdbe 2e18 94be
00000220: 18ca 613e 50cc 383e be41 2b3e dea9 363e
00000230: f4b5 6a3e baf2 d83e a011 cd3e 4c57 0bbe
00000240: 2d16 963e 9189 953e acaf f2be 709f c5be
00000250: f26e c1be ae87 633e 8618 333e b2c3 433e
00000260: 3a4a 433e 5688 3e3e a36f d03e 0f3f d53e
00000270: 0c4a 0bbe 1c69 8b3e 5e7c 803e 8aab f1be
00000280: 388f ccbe def3 a6be 58f3 613e aec5 313e
00000290: 5cd6 383e e6ec 403e 4449 5b3e 5c55 d73e
000002a0: f735 d33e ec10 14be 3c53 853e 74d7 873e
000002b0: a00f fabe 90c9 d0be f018 a8be 561d 673e
000002c0: 5a7b 383e eaab 3a3e 2cec 4c3e d2f2 5b3e
000002d0: 136b d83e 12d3 d53e d857 edbd 2abb 763e
000002e0: a00f 783e 6a65 f6be 6634 b6be bed4 b3be
000002f0: 8c89 643e 289f 453e 2288 323e c4e7 373e
00000300: 3e7e 5c3e 1024 d43e 82af d73e f047 eebd
00000310: d8fd 8f3e c2dd 523e 8493 ebbe f485 b9be
00000320: f4ec d7be 2a56 733e 7016 363e f842 533e
00000330: 2880 363e fc97 603e 7a04 d73e 5643 de3e

muA f4 [208, 3]
-0.07385886 -0.097527 -0.007872075 0.04663226 0.064643234 -0.05841729 -0.0020450652 0.020501673
0.09522362 -0.017020196 -0.048665434 -0.018699378 0.027514935 0.031180441 -0.046522826 0.056669205
0.07074015 -0.034526378 0.013677746 0.0034830868 -0.06087184 -0.04202342 -0.057439774 0.053328782
-0.029496431 0.04212144 0.014814794 0.037439585 -0.00959453 0.029955178 0.0174734 0.014475137
-0.041380674 0.0052823722 0.0138480365 0.036295444 -0.017809719 -0.03146112 -0.02409181 -0.07084802
-0.11098501 -0.008383274 0.049450427 0.054425552 -0.055964768 -0.0043051243 0.024087638 0.10659905
-0.015093803 -0.033749342 -0.004235506 0.02716899 0.031057745 -0.030092597 0.055777997 0.063410014
-0.037321538 0.009452224 0.00064614415 -0.06626266 -0.044560283 -0.04709339 0.05752106 -0.0294559
0.03995481 0.012932062 0.046629786 -0.0067251623 0.027874738 0.013124824 0.01000303 -0.04331541
0.0035645962 0.010904908 0.033729255 -0.017474145 -0.028392881 -0.022593617 -0.07807413 -0.10311824
0.0029533803 0.049519897 0.057795435 -0.05156344 0.0017439425 0.025841236 0.09795746 -0.025737584
-0.023277462 -0.008843601 0.023154855 0.018391877 -0.04228747 0.052956685 0.063504115 -0.032318294
0.01569736 0.006311506 -0.066854626 -0.046764523 -0.05472234 0.048704863 -0.029259682 0.04256785
0.017342687 0.046759933 -0.008467078 0.027117938 0.019068122 0.0057205856 -0.041284114 0.0010587871
0.009319842 0.038597226 -0.015081406 -0.025725514 -0.022052944 -0.08525652 -0.1091712 0.0032481551
0.04794109 0.050992727 -0.06137404 0.0012905598 0.022945583 0.095589995 -0.035749435 -0.023312986
-0.009473175 0.034048155 0.027303904 -0.05161813 0.056101635 0.07680187 -0.02278027 0.01931879
0.009555727 -0.065428615 -0.04439798 -0.050289392 0.05119589 -0.022199452 0.03654495 0.017216742
0.04254517 -0.015386641 0.030865282 0.015393019 0.009570807 -0.044767797 0.002151519 0.014302939
0.035929203 -0.016064465 -0.033061206 -0.025335997 -0.08692947 -0.10068071 0.0041303635 0.06505957
0.065854326 -0.060732245 0.0030894876 0.021214604 0.1017741 -0.011190832 -0.018975645 -0.0032287538
0.027953029 0.025330931 -0.03938067 0.05186142 0.058790207 -0.029165864 0.017320186 0.00511688
-0.058054745 -0.054878652 -0.053967297 0.059378013 -0.030361831 0.036414325 0.015230656 0.038715154
-0.01340735 0.027815998 0.0113610625 0.0024518669 -0.047050327 0.0033647716 0.012354016 0.032126844
-0.015761852 -0.024114102 -0.025243312 -0.061218828 -0.102157265 -0.0049225986 0.05774875 0.06479652
-0.061547548 -0.008349448 0.028575689 0.08545023 -0.051447242 -0.0109514 -0.011297792 0.015868604
0.010168552 -0.05147907 0.044670224 0.059054613 -0.015850127 0.0099336505 0.006453961 -0.057919502
-0.05393219 -0.057273597 0.05686313 -0.020940244 0.039382726 0.019410402 0.04516524 -0.020231128
0.028489351 0.018721372 0.002423972 -0.044974297 0.0031122267 0.012614876 0.03727886 -0.014471561
-0.027260542 -0.019652128 -0.08151835 -0.099285275 -0.003932208 0.053092778 0.057757497 -0.05563405
0.0034367442 0.026502967 0.10608928 -0.021661222 -0.013940662 -0.0055294335 0.02898404 0.026747733
-0.050407022 0.056061953 0.076214164 -0.022990465 0.014238 0.007912278 -0.055194944 -0.049071074
00000000: 5043 97bd 3cbc c7bd e0f9 00bc 7801 3f3d
00000010: ac63 843d f846 6fbd 8006 06bb 20f3 a73c
00000020: 9a04 c33d f06d 8bbc 6855 47bd 702f 99bc
00000030: 0067 e13c 206e ff3c b88e 3ebd f81d 683d
00000040: 36e0 903d 886b 0dbd a018 603c 8044 643b
00000050: c054 79bd c020 2cbd f845 6bbd 486f 5a3d
00000060: 80a2 f1bc 8887 2c3d c0b9 723c 405a 193d
00000070: 6032 1dbc 9064 f53c 6024 8f3c 2029 6d3c
00000080: c87e 29bd c017 ad3b e0e2 623c 88aa 143d
00000090: b0e5 91bc 60dd 00bd 305c c5bc c418 91bd
000000a0: 1c4c e3bd 005a 09bc 888c 4a3d 54ed 5e3d
000000b0: 503b 65bd 0012 8dbb 7053 c53c 9a50 da3d
000000c0: 004c 77bc c03c 0abd 00ca 8abb 8091 de3c
000000d0: d06c fe3c c084 f6bc 7877 643d 1cdd 813d
000000e0: 78de 18bd 80dd 1a3c 0062 293a b8b4 87bd
000000f0: d884 36bd 00e5 40bd 349b 6b3d 804d f1bc
00000100: a8a7 233d 00e1 533c e0fe 3e3d c05e dcbb
00000110: 9059 e43c 8009 573c c0e3 233c 806b 31bd
00000120: 009c 693b 80aa 323c b027 0a3d f025 8fbc
00000130: 3098 e8bc 4016 b9bc 54e5 9fbd a82f d3bd
00000140: 808d 413b 60d5 4a3d e8ba 6c3d 3034 53bd
00000150: 0095 e43a 00b1 d33c ec9d c83d a0d7 d2bc
00000160: 60b0 bebc c0e4 10bc 40af bd3c 90aa 963c
00000170: a035 2dbd 1ce9 583d 720e 823d 3060 04bd
00000180: c097 803c c0d0 ce3b 14eb 88bd 288c 3fbd
00000190: 8824 60bd c07e 473d 00b2 efbc a05b 2e3d
000001a0: 4012 8e3c 5887 3f3d 80b9 0abc 7026 de3c
000001b0: c034 9c3c c073 bb3b 8819 29bd 00c7 8a3a
000001c0: 40b2 183c 2018 1e3d 0018 77bc 50be d2bc
000001d0: 60a8 b4bc f89a aebd 2695 dfbd 00df 543b
000001e0: e05d 443d c0dd 503d 5863 7bbd 0028 a93a
000001f0: 60f8 bb3c b0c4 c33d 006e 12bd e0fa bebc
00000200: 6035 1bbc 1476 0b3d 70ac df3c 886d 53bd
00000210: d4ca 653d 4c4a 9d3d b09d babc 7042 9e3c
00000220: a08f 1c3c 70ff 85bd a8da 35bd 40fc 4dbd
00000230: c8b2 513d a0db b5bc 28b0 153d 200a 8d3c
00000240: d843 2e3d 4018 7cbc 30d9 fc3c 0033 7c3c
00000250: e0ce 1c3c 705e 37bd 8000 0d3b e056 6a3c
00000260: 802a 133d a099 83bc 306b 07bd 708d cfbc
00000270: 1408 b2bd b031 cebd 0058 873b f43d 853d
00000280: a2de 863d 60c2 78bd 0079 4a3b 40ca ad3c
00000290: f06e d03d c059 37bc d072 9bbc 8099 53bb
000002a0: c0fd e43c d082 cf3c a04d 21bd a46c 543d
000002b0: 00ce 703d 40ed eebc 10e3 8d3c 80ab a73b
000002c0: d0ca 6dbd 70c8 60bd d00c 5dbd 5c36 733d
000002d0: 60b9 f8bc 3027 153d 008a 793c c893 1e3d
000002e0: 80aa 5bbc 60de e33c c023 3a3c 80af 203b
000002f0: d8b7 40bd 8083 5c3b 8068 4a3c 7097 033d
00000300: 001f 81bc f08a c5bc 10cb cebc 98c0 7abd
00000310: d437 d1bd c04d a1bb f489 6c3d 0ab4 843d
00000320: 4819 7cbd 20cc 08bc 9017 ea3c 8800 af3d
00000330: 58ba 52bd 806d 33bc 601a 39bc e0fe 813c
00000340: 009a 263c b8db 52bd 20f8 363d 40e3 713d
00000350: 20d8 81bc c0c0 223c c07b d33b 003d 6dbd
00000360: 00e8 5cbd b897 6abd 50e9 683d e08a abbc
00000370: c84f 213d 9002 9f3c 30ff 383d c0bb a5bc
00000380: 8062 e93c 905d 993c 80db 1e3b f836 38bd
00000390: 80f6 4b3b a0ae 4e3c b8b1 183d 201a 6dbc
000003a0: 8051 dfbc 80fd a0bc 18f3 a6bd 1456 cbbd
000003b0: c0d9 80bb d077 593d 2093 6c3d 88e0 63bd
000003c0: 003b 613b c01c d93c 5645 d93d e072 b1bc
000003d0: 6067 64bc 4030 b5bb f06f ed3c 101e db3c
000003e0: 9877 4ebd 38a1 653d 2c16 9c3d 8056 bcbc
000003f0: 8046 693c 80a2 013c 1814 62bd c0fe 48bd

quadA f4 [208, 3, 3]
0.0567077 0.003216982 -0.014951199 0.003216982 0.04253647 -0.05325955 -0.014951199 -0.05325955
-0.09924418 0.012622036 -0.060145438 0.055579215 -0.060145438 -0.0070245788 0.06418042 0.055579215
0.06418042 -0.0055974647 0.042165846 -0.07711421 -0.016338736 -0.07711421 -0.0071653724 -0.047830045
-0.016338736 -0.047830045 -0.035000473 0.009767821 -0.026261255 0.0009742826 -0.026261255 -0.0065250937
-0.004818216 0.0009742826 -0.004818216 -0.0032427255 0.041062675 -0.05496876 0.023345947 -0.05496876
0.005745761 -0.008949712 0.023345947 -0.008949712 -0.04680843 0.028768323 -0.07491048 0.00533551
-0.07491048 -0.01498621 -0.011263818 0.00533551 -0.011263818 -0.013782136 -0.007055709 0.01645425
0.0011871308 0.01645425 0.0027216729 0.0066652745 0.0011871308 0.0066652745 0.004334038 -0.002896279
0.017147064 -0.014894605 0.017147064 0.002793461 -0.017643094 -0.014894605 -0.017643094 0.00010281801
0.006013339 0.009155199 0.0013685524 0.009155199 -0.004845033 -0.004060328 0.0013685524 -0.004060328
-0.0011683056 -0.0023231655 0.0041252226 -0.002560228 0.0041252226 0.0070033222 -0.00089359283 -0.002560228
-0.00089359283 -0.0046801567 0.00034687412 0.004371822 0.005223796 0.004371822 0.005161722 0.005952105
0.005223796 0.005952105 -0.005508597 -0.0033534719 0.008156672 -0.0019022375 0.008156672 0.00076845754
0.0007264763 -0.0019022375 0.0007264763 0.0025850134 -0.0023366362 0.0039761066 -0.0055918396 0.0039761066
-0.0028351247 -0.0054144114 -0.0055918396 -0.0054144114 0.005171761 0.07384312 -0.009726569 -0.0077426136
-0.009726569 0.04822351 -0.062447965 -0.0077426136 -0.062447965 -0.12206663 0.01023655 -0.0479891
0.051191673 -0.0479891 0.002461318 0.05283931 0.051191673 0.05283931 -0.012697872 0.055577278
-0.08188681 -0.027275711 -0.08188681 -0.018966958 -0.07856619 -0.027275711 -0.07856619 -0.036610335
0.0044389563 -0.013309523 -0.002167195 -0.013309523 -0.0039046062 -0.0071184337 -0.002167195 -0.0071184337
-0.000534351 0.018992051 -0.044059843 0.009461805 -0.044059843 -0.007386863 -0.0031175911 0.009461805
-0.0031175911 -0.011605188 0.03523297 -0.06348938 0.011437729 -0.06348938 -0.0005693659 -0.010646731
0.011437729 -0.010646731 -0.03466361 -0.0065420773 0.019711763 -0.0047812313 0.019711763 0.0028134976
-0.00034363568 -0.0047812313 -0.00034363568 0.0037285779 -0.0030298783 0.0054868013 -0.0057744384 0.0054868013
-0.0024269624 -0.004795626 -0.0057744384 -0.004795626 0.0054568397 0.003942986 0.007796243 0.0013936162
0.007796243 -0.00065370905 -0.0017520189 0.0013936162 -0.0017520189 -0.0032892774 -0.0038566887 0.005130112
-0.0040866733 0.005130112 0.007769838 -0.00022466481 -0.0040866733 -0.00022466481 -0.0039131492 0.00072434545
0.008070499 0.0031183213 0.008070499 0.005541578 0.0032201111 0.0031183213 0.0032201111 -0.0062659234
-0.0063780947 0.009482592 -0.004087761 0.009482592 -0.0024751974 -0.0009688288 -0.004087761 -0.0009688288
0.008853291 -0.0025757155 0.005588472 -0.003256455 0.005588472 -0.0010341606 -0.0019832402 -0.003256455
-0.0019832402 0.0036098757 0.06322591 0.005824834 -0.0047583133 0.005824834 0.05251612 -0.04762718
-0.0047583133 -0.04762718 -0.11574204 0.01696835 -0.047971904 0.048912346 -0.047971904 0.0068675093
0.047326535 0.048912346 0.047326535 -0.023835856 0.06381847 -0.08809826 -0.018000394 -0.08809826
00000000: 5546 683d 00d4 523b e0f5 74bc 00d4 523b
00000010: b93a 2e3d b026 5abd e0f5 74bc b026 5abd
00000020: 8840 cbbd a8cc 4e3c 105b 76bd 08a7 633d
00000030: 105b 76bd 702e e6bb 0671 833d 08a7 633d
00000040: 0671 833d f06a b7bb 18b6 2c3d 0eee 9dbd
00000050: d0d8 85bc 0eee 9dbd 80cb eabb 70e9 43bd
00000060: d0d8 85bc 70e9 43bd a85c 0fbd 3609 203c
00000070: d821 d7bc 0067 7f3a d821 d7bc 74d0 d5bb
00000080: 20e2 9dbb 0067 7f3a 20e2 9dbb e883 54bb
00000090: 5631 283d ec26 61bd 0040 bf3c ec26 61bd
000000a0: f046 bc3b d0a1 12bc 0040 bf3c d0a1 12bc
000000b0: 32ba 3fbd 8cab eb3c aa6a 99bd 80d5 ae3b
000000c0: aa6a 99bd b888 75bc e08b 38bc 80d5 ae3b
000000d0: e08b 38bc 78ce 61bc 9433 e7bb 10cb 863c
000000e0: 8099 9b3a 10cb 863c 185e 323b 6068 da3b
000000f0: 8099 9b3a 6068 da3b 8c04 8e3b 80cf 3dbb
00000100: 0078 8c3c 8008 74bc 0078 8c3c 8012 373b
00000110: 4088 90bc 8008 74bc 4088 90bc 00a0 d738
00000120: 8b0b c53b b0ff 153c 0061 b33a b0ff 153c
00000130: 15c3 9ebb 800c 85bb 0061 b33a 800c 85bb
00000140: d521 99ba 4040 18bb e02c 873b 80c9 27bb
00000150: e02c 873b 207c e53b 0040 6aba 80c9 27bb
00000160: 0040 6aba 005c 99bb a8dc b539 8041 8f3b
00000170: 602c ab3b 8041 8f3b aa23 a93b e009 c33b
00000180: 602c ab3b e009 c33b 7681 b4bb ecc5 5bbb
00000190: 90a3 053c 8054 f9ba 90a3 053c 5072 493a
000001a0: 0071 3e3a 8054 f9ba 0071 3e3a 5469 293b
000001b0: 4022 19bb 004a 823b c03b b7bb 004a 823b
000001c0: 80cd 39bb 606b b1bb c03b b7bb 606b b1bb
000001d0: e077 a93b 103b 973d 305c 1fbc c0b5 fdbb
000001e0: 305c 1fbc 0486 453d 70c9 7fbd c0b5 fdbb
000001f0: 70c9 7fbd 12fe f9bd 34b7 273c 3890 44bd
00000200: 5cae 513d 3890 44bd 104e 213b 086e 583d
00000210: 5cae 513d 086e 583d bc0a 50bc 00a5 633d
00000220: 46b4 a7bd 5071 dfbc 46b4 a7bd 9860 9bbc
00000230: 50e7 a0bd 5071 dfbc 50e7 a0bd b8f4 15bd
00000240: aa74 913b 3010 5abc 8007 0ebb 3010 5abc
00000250: 6ce4 7fbb c041 e9bb 8007 0ebb c041 e9bb
00000260: b013 0cba 3895 9b3c 1878 34bd b005 1b3c
00000270: 1878 34bd 800d f2bb 8050 4cbb b005 1b3c
00000280: 8050 4cbb b023 3ebc 7250 103d b806 82bd
00000290: 5065 3b3c b806 82bd 8041 15ba a06f 2ebc
000002a0: 5065 3b3c a06f 2ebc 6efb 0dbd ec5e d6bb
000002b0: 907a a13c e0ab 9cbb 907a a13c a862 383b
000002c0: 002a b4b9 e0ab 9cbb 002a b4b9 285b 743b
000002d0: ec90 46bb a0ca b33b 8037 bdbb a0ca b33b
000002e0: ac0d 1fbb a024 9dbb 8037 bdbb a024 9dbb
000002f0: 4acf b23b 2a34 813b a077 ff3b 00aa b63a
00000300: a077 ff3b ac5d 2bba 00a4 e5ba 00aa b63a
00000310: 00a4 e5ba eb90 57bb 80c0 7cbb 801a a83b
00000320: 80e9 85bb 801a a83b 209a fe3b 0094 6bb9
00000330: 80e9 85bb 0094 6bb9 e039 80bb 00e2 3d3a
00000340: 203a 043c c05c 4c3b 203a 043c 2096 b53b
00000350: 8008 533b c05c 4c3b 8008 533b 6052 cdbb
00000360: 56ff d0bb e05c 1b3c a0f2 85bb e05c 1b3c
00000370: ec36 22bb 00f9 7dba a0f2 85bb 00f9 7dba
00000380: 650d 113c 56cd 28bb 801f b73b 406a 55bb
00000390: 801f b73b ac8c 87ba 40f9 01bb 406a 55bb
000003a0: 40f9 01bb aa93 6c3b 967c 813d 40de be3b
000003b0: a0eb 9bbb 40de be3b 251b 573d b814 43bd
000003c0: a0eb 9bbb b814 43bd 2a0a edbd 3601 8b3c
000003d0: 307e 44bd 5058 483d 307e 44bd d808 e13b
000003e0: 78d9 413d 5058 483d 78d9 413d 6a43 c3bc
000003f0: 42b3 823d dc6c b4bd 9075 93bc dc6c b4bd

hfvrA f4 [208, 1]
0.97164565 0.74264354 0.76770186 1.1131942 1.0505354 1.0680937 0.28023905 0.30772293
0.37684816 0.31465036 0.28475058 0.17474157 0.1859262 0.91287386 0.7627415 0.7559787
1.098942 1.0690392 1.0576441 0.2922337 0.28050673 0.32074845 0.3287692 0.26890397
0.12476981 0.15052056 0.9438914 0.7511046 0.7095697 1.1102502 1.051795 1.0483105
0.29975748 0.30075645 0.31925285 0.34364927 0.2512396 0.17770267 0.1568355 0.96645784
0.7262259 0.7553376 1.111691 1.0667897 1.0657542 0.3270067 0.2796296 0.28840035
0.37083602 0.30831414 0.1855753 0.19365853 0.91711473 0.7523289 0.7821131 1.1089337
1.0646751 1.0504841 0.25504267 0.36839247 0.33653098 0.32552212 0.27824616 0.13927007
0.17141706 0.89670557 0.7978331 0.7833679 1.1319118 1.0377188 1.0512666 0.23770994
0.3125686 0.28004575 0.40400046 0.29576153 0.17536795 0.16232729 0.86479187 0.8037721
0.7464272 1.1105099 1.1037245 1.0524627 0.26468444 0.23606408 0.2816139 0.3475116
0.27123958 0.17281365 0.17462891 0.934306 0.76523435 0.8183214 1.1023552 1.0494949
1.020755 0.26882553 0.33276743 0.32395756 0.30576366 0.29639572 0.15212506 0.15935796
0.9109126 0.78432477 0.7723862 1.1024741 1.0572191 1.0574372 0.27409458 0.2983597
0.32461226 0.32344997 0.30623525 0.13060844 0.14144343 0.90487367 0.7289519 0.76463157
1.1274806 1.0735211 1.0714318 0.2611729 0.30639362 0.35522133 0.32280862 0.2881323
0.26284933 0.1817236 0.90812254 0.75012803 0.80076766 1.0750169 1.1449397 1.0393107
0.28858984 0.27111697 0.35347533 0.335285 0.19621104 0.14016438 0.19375348 0.93171346
0.7315613 0.74787545 1.1073498 1.0722624 1.0802652 0.29382765 0.2771169 0.31889325
0.30558658 0.37465286 0.19829613 0.16286719 0.9004582 0.745286 0.7796422 1.0944552
1.0768381 1.043126 0.24481642 0.310664 0.34627068 0.32710856 0.2527799 0.16408712
0.17056155 0.9595299 0.7468517 0.7655835 1.1064351 1.0837684 1.0617646 0.29895765
0.27725476 0.34787422 0.30642557 0.27089792 0.16378999 0.17204261 0.92371213 0.76017606
0.7666641 1.1011268 1.0279771 1.0624144 0.26529622 0.28458405 0.3436532 0.3325125
0.26996118 0.17043 0.15170372 0.93934315 0.7299099 0.82828563 1.1027845 1.0431914
1.0703192 0.22349524 0.31165397 0.28706962 0.3674525 0.2830162 0.17057055 0.12961835
00000000: c5bd 783f e31d 3e3f 1c88 443f 267d 8e3f
00000010: f277 863f 4bb7 883f 7e7b 8f3e dc8d 9d3e
00000020: 3ef2 c03e da19 a13e d4ca 913e 74ef 323e
00000030: 7063 3e3e 1ab2 693f 0743 433f d287 413f
00000040: 22aa 8c3f 47d6 883f e260 873f a89f 953e
00000050: 949e 8f3e 2439 a43e 7054 a83e c8ad 893e
00000060: 5087 ff3d 1022 1a3e dea2 713f 6448 403f
00000070: 5ca6 353f ae1c 8e3f 38a1 863f 0a2f 863f
00000080: d079 993e c0fc 993e 1c75 a33e ccf2 af3e
00000090: 7aa2 803e b0f7 353e 7c99 203e c869 773f
000000a0: f1e9 393f ce5d 413f e44b 8e3f 918c 883f
000000b0: a26a 883f 6c6d a73e 9c2b 8f3e 36a9 933e
000000c0: 38de bd3e 5adb 9d3e 7407 3e3e 6c4e 463e
000000d0: 08c8 6a3f a098 403f 9038 483f 8af1 8d3f
000000e0: 4647 883f 4376 863f f494 823e f09d bc3e
000000f0: ca4d ac3e d6aa a63e 4876 8e3e d09c 0e3e
00000100: f487 2f3e 7f8e 653f ca3e 4c3f cc8a 483f
00000110: 7ce2 903f f8d3 843f e78f 863f 3c6a 733e
00000120: fe08 a03e 2862 8f3e 26d9 ce3e 0e6e 973e
00000130: a893 333e 2039 263e 0063 5d3f 02c4 4d3f
00000140: da15 3f3f 3025 8e3f d846 8d3f 19b7 863f
00000150: b884 873e c8ba 713e b22f 903e 0aed b13e
00000160: eadf 8a3e 10f6 303e ecd1 323e ae2e 6f3f
00000170: 66e6 433f 837d 513f fa19 8d3f d955 863f
00000180: 1aa8 823f 80a3 893e 7e60 aa3e c4dd a53e
00000190: 0e8d 9c3e 2ec1 973e acc6 1b3e bc2e 233e
000001a0: 9131 693f 82c9 483f 1abb 453f df1d 8d3f
000001b0: f552 873f 1a5a 873f 2056 8c3e 9ac2 983e
000001c0: 9433 a63e 3c9b a53e deca 9c3e 38be 053e
000001d0: 8cd6 103e cda5 673f 979c 3a3f e5be 433f
000001e0: 4951 903f 2469 893f ad24 893f 74b8 853e
000001f0: a0df 9c3e 92df b53e 2c47 a53e 1486 933e
00000200: 3094 863e c015 3a3e b87a 683f 6408 403f
00000210: 1cff 4c3f 279a 893f 628d 923f 2208 853f
00000220: 0cc2 933e d8cf 8a3e b8fa b43e 7aaa ab3e
00000230: 8ceb 483e 4087 0f3e 5067 463e c684 6e3f
00000240: 9a47 3b3f c474 3f3f a3bd 8d3f e53f 893f
00000250: 2146 8a3f 9470 963e 44e2 8d3e fa45 a33e
00000260: d875 9c3e 80d2 bf3e 240e 4b3e a8c6 263e
00000270: 6e84 663f 10cb 3e3f a296 473f 1c17 8c3f
00000280: d5d5 893f 2785 853f 28b1 7a3e 5a0f 9f3e
00000290: 644a b13e c67a a73e 5e6c 813e 7406 283e
000002a0: b0a7 2e3e c0a3 753f ac31 3f3f 48fd 433f
000002b0: aa9f 8d3f ecb8 8a3f e7e7 873f fa10 993e
000002c0: 56f4 8d3e 921c b23e d0e3 9c3e 22b3 8a3e
000002d0: 90b8 273e f02b 303e 6678 6c3f e69a 423f
000002e0: 1944 443f b9f1 8c3f c194 833f 32fd 873f
000002f0: e8d4 873e 00b5 913e 50f3 af3e 143f aa3e
00000300: 5a38 8a3e 3485 2e3e 3858 1b3e cb78 703f
00000310: 60db 3a3f 870a 543f 0b28 8d3f 4c87 853f
00000320: 3800 893f f0db 643e 1c91 9f3e cafa 923e
00000330: bc22 bc3e 80e7 903e 0caa 2e3e acba 043e

vwA f4 [208, 1]
0.5093505 0.49074566 0.48753497 0.520709 0.44305158 0.44477144 0.36245832 0.37518024
0.397074 0.37660265 0.37260738 0.33750942 0.35181725 0.5044857 0.48962408 0.4848852
0.5167229 0.44236445 0.44251257 0.37408715 0.36615065 0.378666 0.38191435 0.36601013
0.30625945 0.32961926 0.50521713 0.4865889 0.4776964 0.5197701 0.4420305 0.4392326
0.3705627 0.37301153 0.37918705 0.38913152 0.3613699 0.34221676 0.33350432 0.5087322
0.48672718 0.48553675 0.5202844 0.44467667 0.44414854 0.3793904 0.3630919 0.3692236
0.39474893 0.38032132 0.34398973 0.35585642 0.5071374 0.49332285 0.4913387 0.51847464
0.44286463 0.44185176 0.35621923 0.3868876 0.38320425 0.3799587 0.37291875 0.3125401
0.3398967 0.5029079 0.49363035 0.4879353 0.5237252 0.44046277 0.44090015 0.35588092
0.37738475 0.3674361 0.4012093 0.375423 0.33854082 0.33672157 0.4989043 0.49182066
0.48247254 0.51970017 0.44791865 0.4414385 0.3650662 0.35232395 0.3701781 0.39131975
0.36594886 0.33630446 0.33907306 0.50580394 0.49017677 0.49431905 0.5191013 0.4407769
0.4331689 0.36278373 0.3832844 0.37857905 0.37490606 0.37543908 0.3226257 0.3300123
0.50572455 0.4921708 0.48759604 0.51852584 0.44043678 0.44106337 0.3634867 0.37046865
0.37796476 0.37867218 0.37633693 0.3077858 0.32274273 0.5050553 0.48798984 0.4870154
0.52466196 0.44551694 0.44513452 0.35578805 0.3753014 0.39275464 0.37927428 0.37430573
0.3802734 0.345235 0.5027789 0.48574337 0.4909869 0.51302534 0.4511636 0.44069442
0.37162736 0.36026272 0.39303693 0.3866063 0.338425 0.31459403 0.36065608 0.5081381
0.48665783 0.4842131 0.51798517 0.44476 0.44605187 0.368361 0.36180097 0.37824878
0.3727642 0.39138514 0.3506028 0.33670637 0.5024754 0.4879772 0.48874277 0.5169355
0.4449218 0.439562 0.35604644 0.37562144 0.38595206 0.379848 0.36054397 0.32836482
0.335501 0.50884575 0.49027428 0.48897716 0.51805437 0.4464739 0.4436544 0.36899644
0.36417103 0.38849834 0.37371308 0.36931002 0.33231926 0.34248495 0.5045511 0.48774928
0.4858371 0.51794267 0.43848914 0.44224077 0.3612277 0.36767393 0.38725036 0.38049763
0.36543795 0.33467534 0.33225647 0.50693613 0.4885316 0.4973848 0.5176983 0.44120762
0.44275588 0.34587723 0.37347728 0.3681839 0.39457384 0.37387913 0.33365467 0.3075332
00000000: cb64 023f 0443 fb3e 2f9e f93e 2f4d 053f
00000010: a8d7 e23e 15b9 e33e 2394 b93e a017 c03e
00000020: 494d cb3e 10d2 c03e 65c6 be3e 09ce ac3e
00000030: 6421 b43e fa25 013f 02b0 fa3e df42 f83e
00000040: f447 043f 987d e23e 0291 e23e 5a88 bf3e
00000050: 1978 bb3e 83e0 c13e 478a c33e ae65 bb3e
00000060: 0ace 9c3e dbc3 a83e e955 013f 2e22 f93e
00000070: 9f94 f43e a70f 053f d251 e23e 18e3 e03e
00000080: 65ba bd3e 5efb be3e ce24 c23e 3f3c c73e
00000090: 7a05 b93e 0937 af3e 14c1 aa3e 463c 023f
000000a0: 4e34 f93e 4698 f83e 5c31 053f a9ac e33e
000000b0: 7067 e33e 753f c23e 2ee7 b93e e00a bd3e
000000c0: 881c ca3e 7ab9 c23e 6c1f b03e d032 b63e
000000d0: c2d3 013f d094 fc3e bf90 fb3e c1ba 043f
000000e0: 27bf e23e 653a e23e 5e62 b63e 2216 c63e
000000f0: 5933 c43e f289 c23e 35ef be3e 4205 a03e
00000100: f106 ae3e 92be 003f 1ebd fc3e a8d2 f93e
00000110: db12 063f 5684 e13e aabd e13e 0636 b63e
00000120: 9338 c13e 9620 bc3e 4e6b cd3e 7237 c03e
00000130: 3955 ad3e c566 ac3e 6270 ff3e ebcf fb3e
00000140: a406 f73e 120b 053f 9855 e53e 3a04 e23e
00000150: f5e9 ba3e ce63 b43e fc87 bd3e 105b c83e
00000160: a65d bb3e 1930 ac3e fc9a ad3e 5e7c 013f
00000170: 73f8 fa3e 6317 fd3e d3e3 043f 83ad e13e
00000180: 50c8 dd3e cabe b93e da3d c43e 1dd5 c13e
00000190: b0f3 bf3e 8d39 c03e 322f a53e 5ff7 a83e
000001a0: 2a77 013f d0fd fb3e 30a6 f93e 1cbe 043f
000001b0: ee80 e13e 0fd3 e13e ee1a ba3e 11ae bd3e
000001c0: 9984 c13e 52e1 c13e 3caf c03e 1a96 9d3e
000001d0: 893e a53e 4e4b 013f ced9 f93e 155a f93e
000001e0: 3f50 063f cc1a e43e ace8 e33e da29 b63e
000001f0: 8127 c03e 2317 c93e 3d30 c23e 00a5 bf3e
00000200: 32b3 c23e a4c2 b03e 1eb6 003f 5bb3 f83e
00000210: a362 fb3e a155 033f eafe e63e b3a2 e13e
00000220: f145 be3e 5b74 b83e 233c c93e 43f1 c53e
00000230: 0b46 ad3e 7812 a13e eaa7 b83e 5715 023f
00000240: 372b f93e c8ea f73e ad9a 043f 95b7 e33e
00000250: e960 e43e d099 bc3e fa3d b93e d3a9 c13e
00000260: f3da be3e a263 c83e 3682 b33e c764 ac3e
00000270: 3aa2 003f 26d8 f93e 7e3c fa3e e355 043f
00000280: cacc e33e 450e e13e b84b b63e 7451 c03e
00000290: 829b c53e 707b c23e 3899 b83e 6f1f a83e
000002a0: c9c6 ab3e b743 023f 3b05 fb3e 375b fa3e
000002b0: 369f 043f 3a98 e43e ab26 e33e 1aed bc3e
000002c0: a074 ba3e 41e9 c63e 5257 bf3e 3416 bd3e
000002d0: c025 aa3e 305a af3e 432a 013f 46ba f93e
000002e0: a4bf f83e e497 043f a681 e03e 626d e23e
000002f0: d6f2 b83e c23f bc3e ae45 c63e 96d0 c23e
00000300: af1a bb3e 915a ab3e 851d aa3e 91c6 013f
00000310: d020 fa3e 38a9 fe3e e087 043f f7e5 e13e
00000320: e6b0 e23e d216 b13e 6a38 bf3e 9a82 bc3e
00000330: 9505 ca3e 166d bf3e c9d4 aa3e fe74 9d3e

alpha_0_A f4 [3328]
11.699381 11.699381 11.699381 11.699381 7.2505245 7.2505245 4.49916 4.49916
4.49916 4.49916 4.49916 4.49916 4.49916 11.699381 11.699381 11.699381
11.699381 7.2505245 7.2505245 4.49916 4.49916 4.49916 4.49916 4.49916
4.49916 4.49916 11.699381 11.699381 11.699381 11.699381 7.2505245 7.2505245
4.49916 4.49916 4.49916 4.49916 4.49916 4.49916 4.49916 11.699381
11.699381 11.699381 11.699381 7.2505245 7.2505245 4.49916 4.49916 4.49916
4.49916 4.49916 4.49916 4.49916 11.699381 11.699381 11.699381 11.699381
7.2505245 7.2505245 4.49916 4.49916 4.49916 4.49916 4.49916 4.49916
4.49916 11.699381 11.699381 11.699381 11.699381 7.2505245 7.2505245 4.49916
4.49916 4.49916 4.49916 4.49916 4.49916 4.49916 11.699381 11.699381
11.699381 11.699381 7.2505245 7.2505245 4.49916 4.49916 4.49916 4.49916
4.49916 4.49916 4.49916 11.699381 11.699381 11.699381 11.699381 7.2505245
7.2505245 4.49916 4.49916 4.49916 4.49916 4.49916 4.49916 4.49916
11.699381 11.699381 11.699381 11.699381 7.2505245 7.2505245 4.49916 4.49916
4.49916 4.49916 4.49916 4.49916 4.49916 11.699381 11.699381 11.699381
11.699381 7.2505245 7.2505245 4.49916 4.49916 4.49916 4.49916 4.49916
4.49916 4.49916 11.699381 11.699381 11.699381 11.699381 7.2505245 7.2505245
4.49916 4.49916 4.49916 4.49916 4.49916 4.49916 4.49916 11.699381
11.699381 11.699381 11.699381 7.2505245 7.2505245 4.49916 4.49916 4.49916
4.49916 4.49916 4.49916 4.49916 11.699381 11.699381 11.699381 11.699381
7.2505245 7.2505245 4.49916 4.49916 4.49916 4.49916 4.49916 4.49916
4.49916 11.699381 11.699381 11.699381 11.699381 7.2505245 7.2505245 4.49916
4.49916 4.49916 4.49916 4.49916 4.49916 4.49916 11.699381 11.699381
11.699381 11.699381 7.2505245 7.2505245 4.49916 4.49916 4.49916 4.49916
4.49916 4.49916 4.49916 11.699381 11.699381 11.699381 11.699381 7.2505245
7.2505245 4.49916 4.49916 4.49916 4.49916 4.49916 4.49916 4.49916
11.699381 11.699381 11.699381 11.699381 7.2505245 7.2505245 4.49916 4.49916
4.49916 4.49916 4.49916 4.49916 4.49916 11.699381 11.699381 11.699381
11.699381 7.2505245 7.2505245 4.49916 4.49916 4.49916 4.49916 4.49916
4.49916 4.49916 11.699381 11.699381 11.699381 11.699381 7.2505245 7.2505245
4.49916 4.49916 4.49916 4.49916 4.49916 4.49916 4.49916 11.699381
11.699381 11.699381 11.699381 7.2505245 7.2505245 4.49916 4.49916 4.49916
00000000: aa30 3b41 aa30 3b41 aa30 3b41 aa30 3b41
00000010: 4c04 e840 4c04 e840 1ef9 8f40 1ef9 8f40
00000020: 1ef9 8f40 1ef9 8f40 1ef9 8f40 1ef9 8f40
00000030: 1ef9 8f40 aa30 3b41 aa30 3b41 aa30 3b41
00000040: aa30 3b41 4c04 e840 4c04 e840 1ef9 8f40
00000050: 1ef9 8f40 1ef9 8f40 1ef9 8f40 1ef9 8f40
00000060: 1ef9 8f40 1ef9 8f40 aa30 3b41 aa30 3b41
00000070: aa30 3b41 aa30 3b41 4c04 e840 4c04 e840
00000080: 1ef9 8f40 1ef9 8f40 1ef9 8f40 1ef9 8f40
00000090: 1ef9 8f40 1ef9 8f40 1ef9 8f40 aa30 3b41
000000a0: aa30 3b41 aa30 3b41 aa30 3b41 4c04 e840
000000b0: 4c04 e840 1ef9 8f40 1ef9 8f40 1ef9 8f40
000000c0: 1ef9 8f40 1ef9 8f40 1ef9 8f40 1ef9 8f40
000000d0: aa30 3b41 aa30 3b41 aa30 3b41 aa30 3b41
000000e0: 4c04 e840 4c04 e840 1ef9 8f40 1ef9 8f40
000000f0: 1ef9 8f40 1ef9 8f40 1ef9 8f40 1ef9 8f40
00000100: 1ef9 8f40 aa30 3b41 aa30 3b41 aa30 3b41
00000110: aa30 3b41 4c04 e840 4c04 e840 1ef9 8f40
00000120: 1ef9 8f40 1ef9 8f40 1ef9 8f40 1ef9 8f40
00000130: 1ef9 8f40 1ef9 8f40 aa30 3b41 aa30 3b41
00000140: aa30 3b41 aa30 3b41 4c04 e840 4c04 e840
00000150: 1ef9 8f40 1ef9 8f40 1ef9 8f40 1ef9 8f40
00000160: 1ef9 8f40 1ef9 8f40 1ef9 8f40 aa30 3b41
00000170: aa30 3b41 aa30 3b41 aa30 3b41 4c04 e840
00000180: 4c04 e840 1ef9 8f40 1ef9 8f40 1ef9 8f40
00000190: 1ef9 8f40 1ef9 8f40 1ef9 8f40 1ef9 8f40
000001a0: aa30 3b41 aa30 3b41 aa30 3b41 aa30 3b41
000001b0: 4c04 e840 4c04 e840 1ef9 8f40 1ef9 8f40
000001c0: 1ef9 8f40 1ef9 8f40 1ef9 8f40 1ef9 8f40
000001d0: 1ef9 8f40 aa30 3b41 aa30 3b41 aa30 3b41
000001e0: aa30 3b41 4c04 e840 4c04 e840 1ef9 8f40
000001f0: 1ef9 8f40 1ef9 8f40 1ef9 8f40 1ef9 8f40
00000200: 1ef9 8f40 1ef9 8f40 aa30 3b41 aa30 3b41
00000210: aa30 3b41 aa30 3b41 4c04 e840 4c04 e840
00000220: 1ef9 8f40 1ef9 8f40 1ef9 8f40 1ef9 8f40
00000230: 1ef9 8f40 1ef9 8f40 1ef9 8f40 aa30 3b41
00000240: aa30 3b41 aa30 3b41 aa30 3b41 4c04 e840
00000250: 4c04 e840 1ef9 8f40 1ef9 8f40 1ef9 8f40
00000260: 1ef9 8f40 1ef9 8f40 1ef9 8f40 1ef9 8f40
00000270: aa30 3b41 aa30 3b41 aa30 3b41 aa30 3b41
00000280: 4c04 e840 4c04 e840 1ef9 8f40 1ef9 8f40
00000290: 1ef9 8f40 1ef9 8f40 1ef9 8f40 1ef9 8f40
000002a0: 1ef9 8f40 aa30 3b41 aa30 3b41 aa30 3b41
000002b0: aa30 3b41 4c04 e840 4c04 e840 1ef9 8f40
000002c0: 1ef9 8f40 1ef9 8f40 1ef9 8f40 1ef9 8f40
000002d0: 1ef9 8f40 1ef9 8f40 aa30 3b41 aa30 3b41
000002e0: aa30 3b41 aa30 3b41 4c04 e840 4c04 e840
000002f0: 1ef9 8f40 1ef9 8f40 1ef9 8f40 1ef9 8f40
00000300: 1ef9 8f40 1ef9 8f40 1ef9 8f40 aa30 3b41
00000310: aa30 3b41 aa30 3b41 aa30 3b41 4c04 e840
00000320: 4c04 e840 1ef9 8f40 1ef9 8f40 1ef9 8f40
00000330: 1ef9 8f40 1ef9 8f40 1ef9 8f40 1ef9 8f40
00000340: aa30 3b41 aa30 3b41 aa30 3b41 aa30 3b41
00000350: 4c04 e840 4c04 e840 1ef9 8f40 1ef9 8f40
00000360: 1ef9 8f40 1ef9 8f40 1ef9 8f40 1ef9 8f40
00000370: 1ef9 8f40 aa30 3b41 aa30 3b41 aa30 3b41
00000380: aa30 3b41 4c04 e840 4c04 e840 1ef9 8f40
00000390: 1ef9 8f40 1ef9 8f40 1ef9 8f40 1ef9 8f40
000003a0: 1ef9 8f40 1ef9 8f40 aa30 3b41 aa30 3b41
000003b0: aa30 3b41 aa30 3b41 4c04 e840 4c04 e840
000003c0: 1ef9 8f40 1ef9 8f40 1ef9 8f40 1ef9 8f40
000003d0: 1ef9 8f40 1ef9 8f40 1ef9 8f40 aa30 3b41
000003e0: aa30 3b41 aa30 3b41 aa30 3b41 4c04 e840
000003f0: 4c04 e840 1ef9 8f40 1ef9 8f40 1ef9 8f40
