tests/test_data_path/og_processed/dimer_ap3_train_spec_7_148.pt (torch, 323858 bytes, 17 tensors)

y f4 [16, 4]
000000 c3 39 6c c0 cd 7b e8 40 c6 88 55 bf 37 02 02 c1
       -3.6910255 7.2651124 -0.83411825 -8.125541
000010 0e 06 3b c0 cb 10 aa 40 d3 a9 50 bf e7 fa 98 c0
       -2.9222445 5.31455 -0.8150913 -4.7806277
000020 e4 f4 12 c1 d0 17 2c 41 a6 a0 4d c0 14 ad a3 c0
       -9.184788 10.755814 -3.2129302 -5.1148777
000030 43 0f 17 c1 8c 62 18 41 a3 a7 37 c0 2d 1e a6 c0
       -9.441226 9.524059 -2.8696067 -5.1911836
000040 41 46 61 c0 24 fe e1 40 e7 09 4f bf 50 5e 00 c1
       -3.519913 7.062273 -0.80874485 -8.0230255
000050 31 b9 87 c0 d0 c2 b8 40 9d 87 80 bf fc 56 95 c0
       -4.2413564 5.773781 -1.0041386 -4.666868
000060 d6 99 25 c0 ca 74 9d 40 46 79 27 bf 42 91 bc c0
       -2.5875144 4.9205065 -0.65419424 -5.8927317
000070 99 06 18 c1 0f 1e 17 41 40 0c 41 c0 e6 4c 9a c0
       -9.501611 9.444839 -3.0163727 -4.821887
000080 ed 07 1c c1 75 f5 25 41 bd e0 52 c0 4f 5c a2 c0
       -9.751935 10.372426 -3.294967 -5.073768
000090 c8 b6 2b c0 95 c3 99 40 2b 8f 34 bf 06 74 91 c0
       -2.683031 4.8051248 -0.70530957 -4.545413
0000a0 33 fc 83 c0 60 12 5e 3e 28 b9 d6 bf d6 9c bf bf
       -4.124536 0.21686697 -1.6775255 -1.4969738
0000b0 f2 20 71 c1 fc 34 42 42 2b 35 11 c1 95 2a 8b c1
       -15.070543 48.551743 -9.07548 -17.395792
0000c0 48 3c 9e c1 27 17 6b 42 02 86 2b c1 df 3b 79 c1
       -19.779434 58.77261 -10.720217 -15.577117
0000d0 d0 80 6b 40 d4 5e 3d 3f e4 3d 85 bf e8 71 08 c0
       3.679737 0.7397282 -1.0409513 -2.1319523
0000e0 bf e8 05 3f 00 da e6 3f 02 f2 5a bf 64 58 0e c0
       0.5230827 1.8035278 -0.85525525 -2.224145
0000f0 96 8d e3 3f bd d0 91 3d 5d a6 24 bf 19 2c 24 bf
       1.7777584 0.07119892 -0.6431635 -0.6412979

RA f4 [292, 3]
000000 68 ae 53 bf ce a5 27 c0 49 48 80 3f 7d 5b 50 bf
       -0.82688 -2.619495 1.002206 -0.813896
000010 11 ff b6 bf 90 88 89 3d 82 8d ef bf 94 85 67 bf
       -1.429659 0.067155 -1.871506 -0.904382
000020 4b c8 17 bf 4c a6 d2 3e a6 ee 46 bf cc d3 b9 be
       -0.5929 0.411425 -0.777079 -0.362944
000030 53 59 b4 bf ca 17 04 3e 36 b0 b9 bf ed f4 03 bd
       -1.408976 0.128997 -1.45069 -0.032216
000040 f5 0f 8a 3e f3 38 a6 bf 77 4a df 3f e5 97 65 bf
       0.269653 -1.298613 1.74446 -0.896849
000050 3b 8b 0e be 0a 6a 5c 3f 30 a1 8e 3f 58 91 f5 bf
       -0.139203 0.860993 1.114294 -1.918498
000060 82 1d 2a 40 23 db 39 bd 1f f2 2a bf db 50 0d 40
       2.658051 -0.045375 -0.667757 2.20806
000070 ed 0c 7b 3f 27 86 ce bf f7 e8 ed bf 0f 80 3c c0
       0.980666 -1.613469 -1.858672 -2.945316
000080 44 dc 9c 3f 70 ef da be 6d 6f 14 c0 40 84 fe 3f
       1.225472 -0.427608 -2.319301 1.988411
000090 dd 25 3b c0 47 c7 91 bf c1 fe 0b bf 26 55 02 c0
       -2.924186 -1.138894 -0.546856 -2.036447
0000a0 c2 df 37 3f 3a 03 01 c0 c9 77 08 40 54 a9 d5 bf
       0.718258 -2.015822 2.132311 -1.66923
0000b0 26 71 1a 3f 1f 2d fe 3e 0a 14 f3 3f af 94 27 c0
       0.603289 0.496438 1.899049 -2.61845
0000c0 1b 82 6d 40 bf 7e e8 bd f9 9d fe be 22 38 3e 40
       3.711066 -0.113523 -0.497299 2.972176
0000d0 18 23 cc 3f 0d 72 03 c0 37 fd 81 be 3c 15 5e c0
       1.594821 -2.053836 -0.253885 -3.470046
0000e0 a9 f5 26 3f 36 94 86 bf 08 e4 13 c0 69 8d 8d 3f
       0.652186 -1.051398 -2.310793 1.105878
0000f0 ba a2 a6 bf 93 ac 7f bf 50 c7 03 3f 73 f5 23 c0
       -1.301841 -0.998727 0.51476 -2.561856
000100 de 93 b7 be 44 6a 82 3e 6a 4e b6 be 62 83 85 3c
       -0.35855 0.254717 -0.356067 0.016298
000110 41 48 f6 3d 87 6c 14 c0 f1 a1 68 3f cf c0 88 be
       0.120255 -2.319124 0.908721 -0.267096
000120 f6 ed 74 bf c2 f8 8d 3f 78 29 b5 be 02 d5 8d 3f
       -0.956756 1.109154 -0.353832 1.108063
000130 9b ff 17 bd f2 ee 18 3e e0 4d 57 be a5 6a 0e 40
       -0.037109 0.149349 -0.210258 2.225259
000140 0d 36 59 bf 43 59 e2 3f a3 ac 85 3f c6 16 a2 be
       -0.848481 1.768349 1.044331 -0.31658
000150 6b f1 8d 3f a9 dd 0b 40 1e 8d 3f bf 53 ea f8 bf
       1.10893 2.185404 -0.748247 -1.944651
000160 48 f8 38 c0 85 78 8c 3f 03 96 24 bf 04 21 11 c0
       -2.890154 1.097428 -0.642914 -2.26764
000170 7a 53 06 40 b8 5b 61 c0 ea 23 3c bf c6 4e c0 3e
       2.098845 -3.521223 -0.734923 0.375601
000180 0e c0 42 c0 b1 4d c0 3f 83 da 1f bf 4c 19 d0 3f
       -3.042972 1.502371 -0.624428 1.625772
000190 0a 2f 6d bf 1e 37 08 3f cf 6a 45 bf 05 6a 49 40
       -0.926499 0.532091 -0.771161 3.147096
0001a0 d5 07 98 bf ce dd 3a 40 f9 9f 8e 3f 4f 07 8a be
       -1.187739 2.919788 1.114257 -0.269587
0001b0 e7 56 d6 3f 3a e9 46 40 62 bb 91 bf 73 0e b6 be
       1.674527 3.107985 -1.138531 -0.355579
0001c0 c4 79 3d c0 7c d5 f2 3e 79 90 ac bf 08 76 d2 bf
       -2.960557 0.474285 -1.348159 -1.644227
0001d0 b9 a6 1c 40 f5 a0 64 bf 40 4d 85 bf d3 16 97 3f
       2.447676 -0.893081 -1.04142 1.180384
0001e0 f5 4c dd bf 7b d8 27 bf 1d 21 23 3e 7e 74 ea 3e
       -1.728911 -0.655647 0.159306 0.45792
0001f0 fc a9 59 bf 6f 11 48 3f 18 b2 4e bf 5f 7b 06 be
       -0.85025 0.781516 -0.807405 -0.13133
000200 bd c6 72 bf 60 05 00 3f 95 b7 53 be d0 d4 f3 be
       -0.948345 0.500082 -0.206755 -0.476233
000210 f9 ba da 3f 37 51 87 bf 45 68 b6 3f 7f 34 d6 3f
       1.708831 -1.057166 1.425057 1.673477
000220 f5 2c c8 3d 93 a6 95 bf af ec 37 40 39 ef 37 bf
       0.097742 -1.169146 2.873821 -0.718494
000230 a9 6c 40 3f 24 9b 36 40 91 5f 4f be ab 3f 12 bf
       0.751658 2.853219 -0.202513 -0.571284
000240 6b 7f 1d c0 0f 27 d4 bf 9e 29 20 40 9b 02 83 bf
       -2.460902 -1.657442 2.50254 -1.023517
000250 46 ea 87 bf 9b ac 53 40 bc 90 2d c0 6f 0e 27 bf
       -1.061837 3.30741 -2.711959 -0.652564
000260 2d 41 86 3d 4c fe 91 bf 0a 2b ad 3e 07 5e e5 bf
       0.065554 -1.140573 0.338219 -1.791932
000270 14 5f e1 3f 54 54 c1 bf 0f 43 1f 40 e1 b6 cc 3f
       1.760714 -1.510386 2.488468 1.599331
000280 37 8b 07 3f 33 36 0b c0 5f ed 72 40 2f e1 64 bf
       0.529468 -2.175183 3.795738 -0.894061
000290 a2 26 9e 3f 2b 51 72 40 1e 88 cc 3d bb d2 84 bf
       1.235554 3.786204 0.099869 -1.037681
0002a0 18 b2 76 bf c9 74 29 c0 7a 6f 2a 40 38 bd 3b be
       -0.963655 -2.647753 2.663054 -0.183339
0002b0 e2 5b 0d c0 7d e7 25 40 a5 30 df be ca c3 ae bf
       -2.208733 2.592254 -0.435918 -1.36535
0002c0 51 a1 b0 3f c1 19 d2 bf 84 4b 91 bf 7a 38 41 3f
       1.379923 -1.641411 -1.135117 0.754768
0002d0 c5 04 0d 3f 57 eb 20 bf b9 16 21 3f e8 85 bb bf
       0.550854 -0.628591 0.629253 -1.465024
0002e0 af 08 9e be 13 f1 ae be 91 9a 06 be a4 8c b8 3c
       -0.30866 -0.341683 -0.131449 0.022528
0002f0 fd 12 e1 be 9d a1 f8 3f 9d 4b e9 be 71 e8 41 3f
       -0.439598 1.942432 -0.455655 0.757453
000300 5a 62 09 3f ee b1 54 3f 8e 58 af bf dc 0e 27 40
       0.536657 0.83084 -1.36989 2.610282
000310 0f b4 b2 3e cf 4e 26 be 65 e0 f4 3f 0c 5a 7c 3f
       0.34903 -0.16241 1.913098 0.985749
000320 43 90 9b bf ea cb 8e bf 84 9b 29 c0 da ff 3d 40
       -1.21534 -1.115598 -2.650117 2.968741
000330 0d a5 86 3e 1a 14 cf bf 80 0d 5a 40 04 3b 28 c0
       0.262978 -1.617801 3.407074 -2.628602
000340 11 e4 c0 bf 95 7d 81 3f 0d 33 0c c0 36 3a 87 3d
       -1.50696 1.011645 -2.190616 0.066029
000350 23 bc 71 bf 3e 3e 1f 40 b4 c9 71 bf b3 5e c8 3f
       -0.944277 2.488174 -0.944484 1.56539
000360 d7 34 ef ba 00 fe a7 3f 2b df 0b c0 03 05 6c 40
       -0.001825 1.312439 -2.185496 3.687806
000370 df fb fb 3e 6f 4a 99 bd a4 c3 1d 40 f1 9c cd 3f
       0.492156 -0.074849 2.465066 1.606352
000380 14 07 f6 bf 03 93 03 3f d5 09 42 c0 0c cb 17 40
       -1.922091 0.513962 -3.03185 2.371768
000390 b6 67 5a bf 9d 9c 27 c0 0d 6e 81 3f 4c 8a 4f bf
       -0.853145 -2.618934 1.011171 -0.810704
0003a0 04 ae bd bf 4c 55 1a 3d 86 c8 ef bf 58 c9 63 bf
       -1.481873 0.037679 -1.873307 -0.889791
0003b0 c5 58 1a bf fa d5 bc 3e fd f6 45 bf d6 58 ca be
       -0.602917 0.36882 -0.7733 -0.395209
0003c0 ae 46 b6 bf a4 fb 19 3e ec df b3 bf eb c5 50 bd
       -1.424032 0.150374 -1.405271 -0.05097
0003d0 1d 8f 79 3e e3 4f a6 bf de 92 de 3f 08 22 67 bf
       0.24371 -1.299313 1.738857 -0.902863
0003e0 21 cc cd bd 11 ac 5a 3f 10 b1 8f 3f a9 30 f4 bf
       -0.100487 0.854188 1.122591 -1.907735
0003f0 5e 2a 29 40 d1 b1 03 bd 3a 96 33 bf 80 0f 0d 40
       2.643211 -0.032152 -0.701511 2.204071

RB f4 [192, 3]
000000 90 16 17 be bc af 0f 40 e6 af 27 40 4c 88 91 3f
       -0.147547 2.245101 2.620111 1.136972
000010 c2 d9 fd 3f 6f 7f 00 40 d5 e8 f1 3f 0f b6 30 40
       1.983208 2.007778 1.889918 2.761112
000020 39 9a 13 40 10 eb b7 3f 01 a5 85 3f 07 b2 11 40
       2.306288 1.436861 1.044098 2.276491
000030 ef 00 8f 3f 78 47 fe 3f 99 7e 65 3f e7 c8 90 bf
       1.117216 1.986556 0.896463 -1.131131
000040 b6 f3 af 3f 1b 82 0a 40 e3 1c 05 c0 2b bd d2 3f
       1.374625 2.164191 -2.079888 1.646398
000050 0e 85 29 40 19 55 a6 bf 2b 35 b1 3f a5 4d 89 3f
       2.648746 -1.299472 1.384435 1.072682
000060 f6 cf 5b bf 49 b9 a3 3e 71 3c 1e 40 52 b8 3d 40
       -0.858642 0.319773 2.472439 2.964375
000070 93 55 27 c0 a1 9f b9 3f 61 c3 15 40 40 2f 1f c0
       -2.614598 1.450184 2.34005 -2.487259
000080 cd e7 30 40 6f f6 bf 3f af cc 4f c0 ff e9 2b 40
       2.764148 1.499708 -3.246868 2.686157
000090 5b 7d 43 40 9b 3d 36 c0 dc 12 61 40 c6 c1 f9 3f
       3.054526 -2.84751 3.516776 1.951226
0000a0 93 73 c6 bf 81 94 3f 40 3b 62 84 40 4e 28 dc bf
       -1.550402 2.993439 4.136991 -1.71998
0000b0 1a e1 b1 3f 4d 30 8f 40 cc b4 e1 bf 1b 12 a7 3e
       1.389682 4.474646 -1.76333 0.32631
0000c0 78 7a 72 40 fd a0 22 bf a2 61 c3 3f 30 9b 9c 40
       3.788725 -0.635269 1.526417 4.893944
0000d0 25 5d fb bf 9c e1 05 40 e1 28 a9 bf a7 b1 91 3f
       -1.96378 2.091895 -1.32156 1.138234
0000e0 8b c4 60 c0 4e 7a 27 bf b7 28 a3 3e 41 62 91 c0
       -3.511996 -0.65421 0.31867 -4.543244
0000f0 24 9b 93 bf 17 d5 36 bf 47 57 8e c0 3d f1 70 bf
       -1.153172 -0.714189 -4.448154 -0.941181
000100 1e 51 2d 3f e0 01 b1 c0 f5 f2 c3 3e 60 75 64 3e
       0.677019 -5.531479 0.382713 0.223104
000110 32 48 8c c0 b8 40 46 bf d4 f1 18 40 80 b7 5f c0
       -4.383813 -0.774425 2.38976 -3.495575
000120 49 4d a1 bf 39 f1 3b 40 01 88 28 c0 13 49 94 3e
       -1.260171 2.936598 -2.633301 0.28962
000130 74 d2 17 40 fc df 55 c0 aa 7f 80 bf 3d 60 3b 40
       2.37222 -3.341796 -1.003896 2.927749
000140 6d f5 8c c0 56 d6 3c c0 90 85 be 3f 2b 6c 02 c0
       -4.404959 -2.950582 1.488451 -2.037852
000150 cf 68 7e c0 fe 7c c9 3f 24 26 41 c0 4e c4 83 c0
       -3.975147 1.574127 -3.017953 -4.117713
000160 19 56 11 3f a1 65 5b c0 ce 88 9d c0 86 76 f6 3f
       0.56772 -3.428078 -4.92295 1.925492
000170 6b bb 24 c0 f9 f6 6b c0 97 ab 10 40 ba 4d 75 c0
       -2.573939 -3.686949 2.260473 -3.832869
000180 4d 66 29 c0 89 7a 2f 40 f9 87 b7 bf 8d d1 ec bf
       -2.646869 2.741854 -1.433837 -1.850145
000190 dc 0d 24 40 b2 11 34 bf 42 d2 12 c0 71 cb 5d 40
       2.563346 -0.703395 -2.294083 3.465542
0001a0 85 0b 0c c0 7b f4 61 c0 80 2b 4a 40 5a d8 6b bf
       -2.188203 -3.530547 3.158905 -0.92127
0001b0 bc 41 04 be c6 6d 12 40 d9 cd 24 40 a0 37 91 3f
       -0.129157 2.28795 2.575064 1.13451
0001c0 97 3a fe 3f 81 21 00 40 1b 65 eb 3f c7 f2 2f 40
       1.986163 2.002045 1.839023 2.749193
0001d0 6f 9d 16 40 25 cc be 3f ba 4c 7d 3f 0d 50 14 40
       2.353359 1.490605 0.989452 2.317386
0001e0 68 58 8c 3f 39 0c 00 40 c8 5f 66 3f cc 0a 91 bf
       1.096448 2.000746 0.899899 -1.133142
0001f0 1a fa af 3f 85 b2 0a 40 39 0e 04 c0 dc 9f d5 3f
       1.37482 2.167146 -2.063368 1.668941
000200 a5 c0 2a 40 77 13 a4 bf 30 f6 b2 3f aa 7c 89 3f
       2.668008 -1.281844 1.398138 1.074117
000210 49 f2 60 bf 17 2c ad 3e 90 f4 1c 40 fb 5a 6b c0
       -0.878697 0.338227 2.452427 -3.677428
000220 c2 87 b6 bf 8c bc b0 bf 7e ac a0 c0 ff 22 ee bf
       -1.426018 -1.380754 -5.021056 -1.860443
000230 c5 ad a0 bf 4c b8 b3 c0 50 50 7e bf fe f2 71 bf
       -1.255303 -5.616247 -0.993413 -0.945114
000240 ec 2f ad c0 a5 a2 0f c0 87 bf 0d c0 48 b7 a3 c0
       -5.4121 -2.244302 -2.214815 -5.116123
000250 80 f3 29 c0 c3 a0 fc be 61 37 33 c0 1a fd 1d c0
       -2.655487 -0.493414 -2.800255 -2.468573
000260 39 0c e4 bf 34 10 e5 bf fc fb 02 c0 dd 78 e7 bf
       -1.781623 -1.789557 -2.04663 -1.808376
000270 e6 91 34 c0 c9 93 53 c0 92 e6 87 bf c7 65 44 c0
       -2.821405 -3.305895 -1.061724 -3.068712
000280 8d 9a 36 c0 e2 01 32 c0 f8 a5 fe bd 8b fc 5c 40
       -2.853183 -2.781365 -0.12434 3.452914
000290 af 23 13 40 c8 7a ea bd db fc 27 40 8f a8 92 3f
       2.299053 -0.114492 2.624808 1.145769
0002a0 be 4d 4f bf ec 30 e6 3f 16 dc a9 3f ab 24 e2 be
       -0.80978 1.798368 1.327029 -0.441686
0002b0 83 a6 4b 40 94 34 7f 3e d6 a8 63 3f f3 8d 0d 40
       3.182038 0.249224 0.889295 2.211789
0002c0 00 c7 72 3f 9b ff 43 3f f3 81 91 40 b1 a3 0b 40
       0.948349 0.765619 4.547113 2.181866
0002d0 62 0f 35 3f 12 cf a3 40 c6 6a 47 40 d5 42 e7 3f
       0.707266 5.119027 3.115892 1.806727
0002e0 1b 9d 86 40 ab e7 01 40 aa 82 f9 3e c0 93 a6 40
       4.206678 2.029765 0.487325 5.205536
0002f0 b2 2d ab 3f 4c 6f 4f c0 78 7c d7 3f 7a e0 1f bf
       1.337332 -3.241168 1.683486 -0.624519
000300 49 d7 40 c0 7e 36 d4 3f 83 a1 01 c0 c4 43 14 c0
       -3.01314 1.657913 -2.025483 -2.316636
000310 22 fa 55 3f d1 58 0e c0 4b 02 7d c0 15 73 be 3f
       0.835848 -2.224171 -3.953265 1.487887
000320 f0 f7 24 c0 82 fe 23 c0 c7 b8 26 40 f3 c6 17 c0
       -2.577633 -2.562409 2.605028 -2.371518
000330 9e d0 83 c0 45 2c 2e 40 f6 9b 59 be 5d 25 87 c0
       -4.119216 2.721452 -0.212509 -4.223311
000340 e8 4b 29 40 83 2f 60 3f 5d 4f 6d c0 d8 9e 6d 40
       2.645258 0.875725 -3.707969 3.71282
000350 c8 61 f0 be 34 91 a3 c0 3e 26 27 40 da e6 2e bf
       -0.469496 -5.111475 2.611709 -0.68321
000360 5d c4 a3 bf c0 5d 8c 3f 04 03 60 c0 83 a3 30 bf
       -1.27943 1.096611 -3.500184 -0.689995
000370 e9 44 9a 3e 90 be 90 c0 fb e7 91 bf 62 12 32 bf
       0.301307 -4.523262 -1.139892 -0.695593
000380 a4 9a 8e c0 20 46 64 bf 80 7f 3a 3f 1d a2 b0 c0
       -4.456377 -0.891695 0.728508 -5.519789
000390 5b 98 cd 3e 69 e2 5d 3e f3 48 8c c0 17 bb 41 bf
       0.401553 0.216684 -4.383905 -0.756761
0003a0 8a e9 1a 40 b2 4a 5d c0 fc 89 a0 bf 02 f5 3b 40
       2.420504 -3.457684 -1.254211 2.936829
0003b0 ee 42 28 c0 1b 13 aa 3e 74 7d 1a 40 6f d6 51 c0
       -2.629085 0.332177 2.413907 -3.278713
0003c0 e9 5f 76 bf 20 24 3d 40 23 cc 8c c0 01 34 41 40
       -0.962401 2.95533 -4.399919 3.018799
0003d0 f8 71 25 c0 14 24 bc 3f c6 fd 18 40 f5 9f 22 c0
       -2.585081 1.469851 2.390489 -2.541013
0003e0 c6 6c 2f 40 55 a5 c9 3f 78 7f 51 c0 a1 4d 2e 40
       2.741014 1.575358 -3.273405 2.723488
0003f0 fc 39 46 40 a4 6d 33 c0 9c 17 63 40 52 99 fc 3f
       3.097289 -2.803567 3.548316 1.973429

qA f4 [292, 1]
000000 78 30 df be 00 66 88 3a 80 12 ce bd 70 94 25 bd
       -0.43591666 0.0010406375 -0.10062122 -0.040424764
000010 00 e6 e7 be 84 c0 85 3e 04 40 01 be 7a a1 93 be
       -0.45292664 0.2612344 -0.12622076 -0.28834134
000020 a4 da 46 be 08 04 f2 bd 8e aa 0c 3e 52 6e 0e 3e
       -0.19419342 -0.11817175 0.13736936 0.13909271
000030 2a c9 1b 3e 9e b1 b4 3e 9c 88 ea 3d d0 6c 1c 3e
       0.15213457 0.3529176 0.114518374 0.15275884
000040 d2 3e 18 3e ec 77 11 3e fc bb 1e 3e 4a 32 d5 be
       0.14867714 0.14205903 0.15501398 -0.4163993
000050 00 3b 46 bc 40 63 ef bd e0 94 5a bd 5e 16 de be
       -0.012099028 -0.11688852 -0.053364635 -0.4337644
000060 cb cb 85 3e dc cc 38 be ce 8f 8e be b8 77 27 be
       0.26132044 -0.18046898 -0.2784409 -0.16354263
000070 f8 39 c9 bd 32 86 19 3e 8e 23 1b 3e 72 a5 1f 3e
       -0.0982551 0.14992598 0.15150282 0.15590456
000080 52 3e ba 3e ce 74 18 3e 68 3a 15 3e 4c 92 fe 3d
       0.36375672 0.14888307 0.14573061 0.12430248
000090 80 fb ef 3d 78 f3 09 3e 36 54 dc be 50 a9 a0 3c
       0.11717892 0.13471782 -0.43032998 0.019611984
0000a0 f0 9c 01 be e0 a3 3d bd f8 4c 03 bf 82 42 97 3e
       -0.12657523 -0.04629886 -0.5128932 0.2954293
0000b0 a8 fa 2b be b0 d6 96 be 90 99 34 be 00 4c cc bd
       -0.16794837 -0.2946067 -0.17636704 -0.09975433
0000c0 4e 14 0d 3e 00 fd 11 3e 28 f2 2d 3e 05 7b bf 3e
       0.13777277 0.14256668 0.16986907 0.37398544
0000d0 2e d7 07 3e 9a 6e 1b 3e f6 9d 16 3e ae 41 0a 3e
       0.13265678 0.1517891 0.14708695 0.13501617
0000e0 34 91 18 3e b2 11 dc be 80 eb cf bb 88 e9 d8 bd
       0.1489914 -0.4298225 -0.0063452125 -0.105914176
0000f0 40 3e 2d bd 80 0d de be 13 78 85 3e 78 c9 21 be
       -0.042295694 -0.43369675 0.26068172 -0.1579951
000100 ac e3 97 be b4 74 3e be c8 65 ef bd b2 bb 12 3e
       -0.29665887 -0.18599206 -0.11689335 0.14329413
000110 8a ae 14 3e 0a fb 18 3e 5c 64 b7 3e 54 3d 0e 3e
       0.14519706 0.14939514 0.35818756 0.13890582
000120 c6 e7 1f 3e b6 9c 12 3e bc 04 0b 3e ce 55 14 3e
       0.15615758 0.14317593 0.13576025 0.14485857
000130 00 4f dc be 80 2a d9 bb 38 78 d6 bd 70 24 2c bd
       -0.43029022 -0.006627381 -0.10472149 -0.042026937
000140 d2 b4 df be 09 bc 85 3e 90 d4 21 be 5e f2 96 be
       -0.43692642 0.26120022 -0.15803742 -0.29481786
000150 6c 13 3e be 28 30 f1 bd b4 b1 12 3e 84 44 14 3e
       -0.18562096 -0.11776763 0.14325601 0.14479262
000160 78 a3 19 3e 74 97 b7 3e e4 f5 0d 3e 02 3d 20 3e
       0.15003765 0.35857737 0.13863331 0.15648273
000170 82 56 12 3e a6 e3 0a 3e 5c cd 14 3e d4 61 dc be
       0.14290813 0.13563403 0.14531463 -0.43043387
000180 80 ff cb bb b8 bb d7 bd b0 d6 2b bd 8a 46 df be
       -0.0062255263 -0.105338514 -0.04195279 -0.43608505
000190 07 ec 85 3e 7c 46 22 be 8e fe 96 be 14 4b 3e be
       0.26156637 -0.158472 -0.29491085 -0.18583328
0001a0 68 4e f1 bd 18 d8 12 3e 58 55 14 3e 96 e4 19 3e
       -0.11782533 0.14340246 0.14485681 0.15028605
0001b0 d8 a4 b7 3e 22 14 0e 3e 46 16 20 3e 46 4b 12 3e
       0.35867953 0.13874868 0.15633497 0.14286527
0001c0 2e e6 0a 3e 3a 2a 14 3e 90 47 dc be 80 83 de bb
       0.13564369 0.14469233 -0.43023348 -0.0067905784
0001d0 a0 da d6 bd 70 57 2c bd 8e 96 df be ce f1 85 3e
       -0.10490918 -0.042075574 -0.43669552 0.26161045
0001e0 2c 07 22 be 38 fa 96 be 54 26 3e be e8 58 f1 bd
       -0.15823048 -0.29487777 -0.18569309 -0.11784536
0001f0 2c c0 12 3e 9c d7 14 3e 18 a6 19 3e 78 92 b7 3e
       0.1433112 0.14535373 0.15004766 0.35853934
000200 b0 14 0e 3e ce 1c 20 3e 70 4f 12 3e 66 f0 0a 3e
       0.13875079 0.15635988 0.14288116 0.13568267
000210 38 4a 14 3e ca 33 dc be 80 77 ca bb 68 76 d5 bd
       0.14481437 -0.43008262 -0.0061787963 -0.10422975
000220 d0 7e 2d bd 6a 28 de be 84 3d 85 3e 18 bc 21 be
       -0.042357266 -0.43390208 0.26023495 -0.15794408
000230 00 ca 97 be 5c 7b 3e be 18 00 f0 bd 9e 81 12 3e
       -0.296463 -0.18601745 -0.11718768 0.14307258
000240 e4 43 13 3e 7a ab 18 3e 7a 54 b7 3e 48 4a 0e 3e
       0.14381367 0.14909163 0.35806638 0.13895524
000250 6e c8 1f 3e 7e 60 12 3e 80 35 0b 3e 9e b4 15 3e
       0.15603802 0.14294621 0.13594627 0.14619681
000260 56 1a dc be 00 a0 c5 bb f8 4c d9 bd c0 5e 2b bd
       -0.42988843 -0.0060310364 -0.10610384 -0.041838408
000270 64 da dd be ec 2c 85 3e d0 f6 21 be 5a 10 97 be
       -0.4333068 0.26010835 -0.15816808 -0.29504663
000280 28 07 3e be 20 42 f1 bd 42 be 12 3e a8 88 14 3e
       -0.18557417 -0.117801905 0.1433039 0.14505255
000290 bc d4 18 3e 80 df b6 3e 6e 1d 0e 3e d8 b2 1f 3e
       0.14924902 0.35717392 0.13878414 0.15595567
0002a0 5a 8b 12 3e 82 35 0b 3e a8 8e 14 3e 70 7d dc be
       0.14310971 0.1359463 0.14507544 -0.4306445
0002b0 00 9c c1 bb 30 a5 d6 bd 60 3f 2d bd 10 bd df be
       -0.005908489 -0.10480726 -0.042296767 -0.4369893
0002c0 7e ba 85 3e 60 fc 22 be 52 ce 96 be 8c 62 3d be
       0.26118845 -0.15916586 -0.29454285 -0.18494624
0002d0 a8 d7 f2 bd 4e 2a 13 3e cc 6b 12 3e 60 3c 19 3e
       -0.118575394 0.14371607 0.14298934 0.14964437
0002e0 90 83 b7 3e 18 92 0f 3e 12 17 20 3e 28 e2 11 3e
       0.35842562 0.14020574 0.156338 0.14246428
0002f0 30 e2 0a 3e e6 cf 16 3e 59 fb 33 3f 6f 2a 4b 3f
       0.13562846 0.14727744 0.703054 0.79361624
000300 dc 57 2f bf b2 ae 06 bf c0 dc 57 3c 0c cb 1e bf
       -0.6849344 -0.52610314 0.0131751895 -0.62028575
000310 e2 09 4b bf 5c 92 22 bf 3e 1b 29 bf 06 aa 30 3e
       -0.79311955 -0.63504577 -0.66057193 0.17252359
000320 f0 d5 35 3e 22 0e 21 3e 98 1d d3 3d 86 1b 28 3e
       0.17757392 0.15728047 0.10308379 0.1641675
000330 aa fb 05 3e 20 6f d2 3d e5 d1 cd 3e 0c c5 3b 3f
       0.13084283 0.10275102 0.401992 0.73347545
000340 cc d7 49 3f 39 6c 31 bf e2 5c 01 bf 40 d0 a4 bc
       0.78844905 -0.6930576 -0.5053235 -0.020118833
000350 03 00 0a bf 35 dc 45 bf a5 46 36 bf 47 e2 3a bf
       -0.5390627 -0.77289134 -0.71201545 -0.7300152
000360 d2 b2 3b 3e 2a 03 3f 3e 56 97 27 3e d8 c2 21 3e
       0.18329933 0.1865355 0.16366324 0.15796983
000370 98 d2 24 3e e8 76 e2 3d a4 d8 f2 3d 94 ea bc 3e
       0.1609596 0.11057836 0.11857727 0.3689772
000380 94 1b 53 3f ae 1a 47 3f c4 ec 35 bf 52 78 f3 be
       0.82463956 0.77775085 -0.710644 -0.47552735
000390 20 1a 09 bd 6e 9f 15 bf b8 9a 43 bf 3a d7 40 bf
       -0.03347218 -0.58446395 -0.7640796 -0.7532841
0003a0 c2 18 45 bf 5a 06 4c 3e 4c 4f 21 3e 90 38 2e 3e
       -0.769909 0.19924298 0.15752906 0.17013764
0003b0 ee be 12 3e 88 e8 2f 3e a0 7d 13 3e ac a9 fe 3d
       0.14330646 0.17178547 0.14403391 0.12434706
0003c0 f2 d8 c1 3e c6 25 41 3f d4 22 40 3f 2f 95 34 bf
       0.3786083 0.7544826 0.75053144 -0.70540136
0003d0 51 07 03 bf b8 99 38 3d f3 72 18 bf 6b 15 46 bf
       -0.5118304 0.045068473 -0.595504 -0.7737643
0003e0 ef bc 26 bf 4b 15 40 bf 30 1c 26 3e a6 6f 44 3e
       -0.6513204 -0.7503249 0.1622169 0.19183215
0003f0 68 8d 33 3e 04 86 1d 3e 18 81 0d 3e ba a9 21 3e
       0.17534411 0.15383154 0.13818777 0.15787402

muA f4 [292, 3]
000000 c0 22 4a 3c 20 55 88 3d d8 fa 89 bd 98 1a 38 3d
       0.012337387 0.06656861 -0.06737298 0.044947237
000010 60 ee 4a bd e0 9d 6d 3d 00 74 2f 3a 2a a0 ab 3d
       -0.04954374 0.05801189 0.00066930056 0.08380158
000020 b4 4e a1 bd 00 a5 d2 3b 10 5f 95 bc 80 8d 85 3c
       -0.078763396 0.006428361 -0.018233806 0.016302824
000030 30 41 2b 3d 80 fc 52 bd 60 33 57 3d 8a ed 9d bd
       0.041810215 -0.051510334 0.05253923 -0.077113226
000040 c0 4f b1 bb 40 9e ac bb 30 12 89 bc 00 82 a6 3b
       -0.0054111183 -0.0052678883 -0.016732305 0.005081415
000050 00 a1 a4 bc 80 83 79 3c 00 5e c8 3a 80 eb 5a bb
       -0.020096302 0.015229106 0.0015286803 -0.003340453
000060 10 79 db bc 10 ea 85 3c c0 82 05 bc 90 77 ba bc
       -0.026791126 0.016346961 -0.008148849 -0.02276209
000070 00 b4 bc bc 00 61 9b 3c 58 d4 42 bd 80 2a de bb
       -0.02303505 0.018967152 -0.047565788 -0.0067799687
000080 c0 33 b5 3b 00 47 93 3c 40 2b c6 3c 28 56 1b 3d
       0.0055298507 0.017978191 0.024190545 0.037923962
000090 68 3d 6e bd a0 49 6e bc c0 6b 95 3b f0 16 ba bc
       -0.05816403 -0.014543921 0.004559964 -0.022716016
0000a0 00 db ad 3c 20 83 a4 bc 60 28 a5 3c c8 31 15 bd
       0.021222591 -0.020082057 0.020160854 -0.03642443
0000b0 d0 63 17 3d c0 2e 44 bc 18 b7 17 3d 58 9f 00 bd
       0.036960423 -0.011974037 0.037039846 -0.031401962
0000c0 7c 24 61 3d 00 78 dd ba 80 00 ec 3b c0 6c 2d 3d
       0.054966435 -0.0016896725 0.007202208 0.04234004
0000d0 50 37 05 3d 60 3b b9 bc 50 6e ec 3c 40 d6 08 bd
       0.032523453 -0.02261132 0.028861195 -0.03340745
0000e0 80 8e bd bc a0 75 63 bc 06 49 cb 3d 40 d3 f9 bc
       -0.023139238 -0.013883024 0.099260375 -0.03049624
0000f0 a8 66 30 3d 54 dd 90 bd b0 de f5 3c e0 51 95 bc
       0.04306665 -0.07073465 0.030013412 -0.018227518
000100 7c f2 bd 3d c0 97 0d bd 30 54 1f 3d 90 7c ee bc
       0.09274766 -0.03456855 0.038898647 -0.02911213
000110 20 6e 6c 3c 4c be 34 3d 98 a1 56 bd 30 01 d4 3c
       0.014430553 0.044126794 -0.0524002 0.025879472
000120 9a e5 a1 bd c0 df b3 3c 00 e1 d4 bb 10 cc 27 bd
       -0.07905121 0.021957278 -0.0064965487 -0.040966094
000130 00 9d 4e bb 00 ef f8 3a 80 a7 90 bb 90 d9 85 bc
       -0.0031526685 0.0018992126 -0.004414499 -0.016339093
000140 c0 30 f5 bb 48 20 25 bd c0 a1 64 3c b0 a8 94 bc
       -0.007482618 -0.04031399 0.01395458 -0.018146843
000150 00 10 45 b9 70 a1 10 bd 30 52 c3 3c a8 6e 28 bd
       -0.00018793344 -0.03531021 0.023842901 -0.041121155
000160 a0 8e 61 bc 80 8c f1 bb 60 d7 91 3c a0 8f 7a 3c
       -0.013766915 -0.0073714852 0.017802894 0.015293032
000170 e0 f1 2f 3d 80 cd 60 bd 50 7e c5 bc 40 2f 09 3c
       0.04295528 -0.05488348 -0.024108082 0.008373082
000180 10 58 da bc a0 24 a3 3c 20 0b 3d bc b0 74 d9 3c
       -0.02665332 0.019914925 -0.011538297 0.026544899
000190 30 83 35 bd d0 05 9f 3c 00 f3 b5 bc 24 a0 3d 3d
       -0.044314563 0.019411951 -0.022210598 0.0462953
0001a0 30 8d 80 bc e8 a0 73 3d 00 e9 a2 3b 00 88 52 3b
       -0.015692323 0.059479624 0.0049716234 0.003212452
0001b0 b0 0a db 3c 40 c1 51 3d 80 86 b4 bc 60 94 eb 3c
       0.026738495 0.05120969 -0.02203679 0.028757274
0001c0 70 2b a1 bc 20 a6 0a bd 80 4f 07 3d 40 cb f8 3c
       -0.019674033 -0.033849835 0.0330348 0.030370355
0001d0 f4 64 aa bd 20 de 8f 3c 30 62 ed bc 0a 44 9e 3d
       -0.083200365 0.017561972 -0.028977484 0.07727821
0001e0 80 93 88 3b d8 0a 21 3d 7a a6 ce bd 60 e1 59 3c
       0.004167974 0.039316982 -0.10090347 0.0132983625
0001f0 c0 d8 d8 bc 30 50 08 3d 20 0b 05 3d e0 ed e2 bc
       -0.026470542 0.033279598 0.032481313 -0.027701318
000200 bc a2 8d 3d 00 d2 91 bd e0 e9 75 3c b0 46 e8 bc
       0.06915805 -0.071201324 0.015009373 -0.028354019
000210 10 7f b7 bc 40 52 01 3c 80 af 9d bc c0 1c eb 3b
       -0.022399455 0.007893145 -0.019248724 0.007175058
000220 80 ec 26 3b 00 78 25 ba 70 10 df bc 40 ca 68 3c
       0.0025470555 -0.0006312132 -0.027229518 0.014208376
000230 70 e3 da bc 60 a3 e7 bc 50 ff c8 bc 50 39 9b 3c
       -0.026719779 -0.028276145 -0.024535805 0.018948227
000240 70 56 45 bd 00 9b 91 3b 00 fd 94 bb 30 f8 9d 3c
       -0.048178136 0.0044435263 -0.0045467615 0.019283384
000250 70 35 00 3d a0 7a e3 3c e0 21 60 bd 00 32 76 ba
       0.031300962 0.027768433 -0.054719806 -0.0009391606
000260 00 07 f3 ba a0 e0 1a bc 30 2f 94 3c 08 29 04 bd
       -0.0018541515 -0.009452969 0.018088907 -0.032265693
000270 80 8e 24 3b 70 0a b4 bc 6c 59 58 3d 00 c0 77 b8
       0.002510935 -0.021977633 0.052819654 -5.9068203e-05
000280 70 2a 9f 3c 10 b1 38 bd c8 81 3a 3d c0 88 1c bc
       0.019429415 -0.045090735 0.045533925 -0.009554088
000290 b0 45 d6 3c 28 6d 42 3d 40 3c 8e 3c 60 03 c1 bc
       0.026156276 0.04746738 0.017362714 -0.02356118
0002a0 c0 f8 c0 3c a0 aa 2d bd 00 17 e1 3a a0 4a 21 bc
       0.023556113 -0.04239905 0.0017172992 -0.009844452
0002b0 ec 8c 59 3d fc d3 97 bd c0 fc 6b 3d 50 41 0d bd
       0.05311291 -0.0741348 0.057614088 -0.034486115
0002c0 5c c6 7f 3d e0 a7 94 bc 10 c4 78 3d a8 fa b6 bd
       0.06244503 -0.018146455 0.060733855 -0.08934528
0002d0 60 0b d0 3c c0 67 3f bc 70 51 be 3c 38 34 35 3d
       0.025396049 -0.011682451 0.023232192 0.044239253
0002e0 c0 ef ec bc 68 00 49 3d 1a 00 90 bd 00 13 4d bc
       -0.028922915 0.049072653 -0.07031269 -0.012516737
0002f0 80 38 20 bb 40 c7 df bc 00 a0 d6 3a a0 96 0d bc
       -0.002444774 -0.02731669 0.0016374588 -0.008641869
000300 00 8f 84 3c 00 4d 53 3b 00 15 95 3a 80 90 20 bd
       0.016181469 0.003224194 0.0011374056 -0.039200306
000310 00 b8 52 b9 60 05 12 bc 00 0f 94 bc 50 16 b5 bc
       -0.00020095706 -0.008912414 -0.018073559 -0.022105366
000320 c0 45 de 3c 38 c6 35 bd 00 d9 6d bc 80 4f 21 3c
       0.027132869 -0.04437849 -0.014517069 0.009845614
000330 70 39 a3 3c f0 4a 12 3d 20 b5 e8 3c a0 57 5c bd
       0.01992485 0.035715997 0.02840668 -0.053794503
000340 c0 f3 af bc 90 87 84 3c 80 7d dd bc 00 86 6c 3c
       -0.021478534 0.016177922 -0.027037382 0.014436245
000350 00 0a b8 bc 00 60 dd 3c b0 38 c3 bc 08 16 25 3d
       -0.022465706 0.027023315 -0.023830742 0.040304214
000360 60 8a a2 bc 40 e6 c4 3c 28 ac 1c bd a8 bc 60 3d
       -0.019841373 0.024035573 -0.03825012 0.054867417
000370 c0 f1 f5 3b 00 1d a1 3b d0 de e9 3c 60 b2 04 3d
       0.0075056255 0.004916787 0.028548628 0.032396674
000380 e8 6e 14 bd 70 9c 02 3d 20 e3 fd bc 80 be a8 bc
       -0.03623858 0.03188747 -0.03099209 -0.02059865
000390 60 69 04 3c 34 81 8f 3d 40 34 72 bd 18 d1 30 3d
       0.008081764 0.070070654 -0.05913186 0.043168157
0003a0 98 42 72 bd 60 5f 61 3d 80 2f 7b 3b 4e 39 ae 3d
       -0.05914554 0.055022597 0.0038327873 0.08507024
0003b0 68 dc 8f bd b0 42 9e 3c 40 e7 b3 bc a0 4b ad 3c
       -0.07024461 0.019318908 -0.021960855 0.021154225
0003c0 40 41 0a 3d 48 ca 3c bd 30 13 34 3d ca 64 94 bd
       0.033753633 -0.046091348 0.04396361 -0.072457865
0003d0 80 a8 6b 3b a0 42 44 bc 50 c3 cb bc 20 12 0b 3c
       0.0035958588 -0.011978775 -0.024873406 0.008488208
0003e0 e0 02 2b bc 58 91 81 3c 00 c8 3a b9 80 ad 31 3b
       -0.010437697 0.015816376 -0.00017812848 0.002711147
0003f0 b8 f9 15 bd 20 68 14 3c 80 e3 47 bc 90 0d c2 bc
       -0.036615103 0.009058028 -0.012200236 -0.023688108

quadA f4 [292, 3, 3]
000000 d6 28 f3 3c e0 4d 15 3c b0 4c 27 bc e0 4d 15 3c
       0.029682558 0.009112805 -0.010211155 0.009112805
000010 62 f4 c4 bc 58 d4 65 3d b0 4c 27 bc 58 d4 65 3d
       -0.024042312 0.05611071 -0.010211155 0.05611071
000020 c8 d1 b8 bb 64 c8 9f bd 90 1e 11 3c fc d1 1d bd
       -0.0056402422 -0.07801893 0.008857384 -0.038530335
000030 90 1e 11 3c f4 8e 0b 3d 2e 35 ab 3d fc d1 1d bd
       0.008857384 0.034071878 0.083597526 -0.038530335
000040 2e 35 ab 3d d8 01 34 3d 54 30 c3 bd 48 87 c0 3c
       0.083597526 0.04394707 -0.09530702 0.023502007
000050 c8 c3 4b bd 48 87 c0 3c 0c 88 53 3d b0 8e e0 3c
       -0.04974726 0.023502007 0.051643416 0.027411789
000060 c8 c3 4b bd b0 8e e0 3c 9c d8 32 3d 1d 7e 2f be
       -0.04974726 0.027411789 0.043663606 -0.17137952
000070 40 95 ed bb 10 9f fc bc 40 95 ed bb 66 f1 92 3d
       -0.007250458 -0.030837566 -0.007250458 0.07174949
000080 8a 25 d0 3d 10 9f fc bc 8a 25 d0 3d d2 0a cc 3d
       0.1016341 -0.030837566 0.1016341 0.09963001
000090 a6 dd a8 bc b0 2c b8 3c 68 28 10 bd b0 2c b8 3c
       -0.020613503 0.022482246 -0.035194784 0.022482246
0000a0 2a 1a 8c 3c a8 f2 df 3c 68 28 10 bd a8 f2 df 3c
       0.01710232 0.027337387 -0.035194784 0.027337387
0000b0 d0 1b 66 3b f0 c2 9a bb 3c 08 2f bd 80 9f a3 3c
       0.0035111792 -0.0047229454 -0.042732462 0.019973516
0000c0 3c 08 2f bd ac 92 b0 bc a2 99 f3 3d 80 9f a3 3c
       -0.042732462 -0.021554314 0.118945375 0.019973516
0000d0 a2 99 f3 3d 64 43 d7 3c a2 d8 b8 bd 00 81 ec bc
       0.118945375 0.026277252 -0.090256944 -0.028870106
0000e0 40 be b0 bb 00 81 ec bc 70 cc a6 3c 34 06 ba 3d
       -0.0053937733 -0.028870106 0.020361155 0.090832144
0000f0 40 be b0 bb 34 06 ba 3d 84 25 8f 3d 7e 3b bb bd
       -0.0053937733 0.090832144 0.069895774 -0.091422066
000100 c8 3e e3 bc 80 da b0 bb c8 3e e3 bc f0 6e 00 3d
       -0.027739897 -0.005397141 -0.027739897 0.0313558
000110 a8 12 ad 3d 80 da b0 bb a8 12 ad 3d 0c 08 76 3d
       0.08450824 -0.005397141 0.08450824 0.060066268
000120 10 ed f6 bc 24 b7 3a bd 70 1e 2e 3c 24 b7 3a bd
       -0.030142337 -0.045584813 0.010627374 -0.045584813
000130 40 1f 59 bc 04 d3 fe 3d 70 1e 2e 3c 04 d3 fe 3d
       -0.0132520795 0.12442592 0.010627374 0.12442592
000140 58 be 31 3d 62 42 b1 bd d0 d4 2a 3d f2 f3 85 bd
       0.043394417 -0.0865524 0.04170686 -0.065406695
000150 d0 d4 2a 3d ac 72 15 3d 7c d4 c6 3d f2 f3 85 bd
       0.04170686 0.036486313 0.09708497 -0.065406695
000160 7c d4 c6 3d 20 12 4d 3d 8b 1e 15 bc c0 79 93 bb
       0.09708497 0.050066113 -0.00910152 -0.0045005977
000170 00 40 7d 3b c0 79 93 bb 4a b9 ba 3b 00 bb d7 bb
       0.0038642883 -0.0045005977 0.0056983577 -0.0065835714
000180 00 40 7d 3b 00 bb d7 bb 95 07 5f 3b eb 72 58 bb
       0.0038642883 -0.0065835714 0.003403162 -0.003302748
000190 00 d4 4b 3b e0 0f 83 bb 00 d4 4b 3b 95 a3 0c 3c
       0.0031101704 -0.003999695 0.0031101704 0.008583923
0001a0 80 ea 9a bb e0 0f 83 bb 80 ea 9a bb b6 0d ad bb
       -0.0047276616 -0.003999695 -0.0047276616 -0.0052811755
0001b0 40 6b ad bb 40 be 18 3b 00 3f 01 3a 40 be 18 3b
       -0.005292326 0.0023306757 0.0004930347 0.0023306757
0001c0 00 fc a2 3b 78 c4 9a bc 00 3f 01 3a 78 c4 9a bc
       0.0049738884 -0.018892512 0.0004930347 -0.018892512
0001d0 00 f4 a6 39 b0 9e 18 3c e0 32 c8 3b 00 88 a9 ba
       0.00031843781 0.009315178 0.0061095804 -0.0012934208
0001e0 e0 32 c8 3b 40 f3 65 bb 40 1a 77 bb 00 88 a9 ba
       0.0061095804 -0.0035087615 -0.0037704855 -0.0012934208
0001f0 40 1a 77 bb c0 43 be bb 10 ef 85 3c a0 51 26 3c
       -0.0037704855 -0.0058064163 0.016349345 0.010151297
000200 40 07 9a bb a0 51 26 3c 00 86 f3 bb 80 13 e4 3a
       -0.0047005713 0.010151297 -0.0074317455 0.0017400831
000210 40 07 9a bb 80 13 e4 3a 20 1b 12 bc cb 3e 48 3c
       -0.0047005713 0.0017400831 -0.0089176 0.012222002
000220 e0 af f8 3b 40 62 41 bb e0 af f8 3b ea 75 9c bb
       0.0075893253 -0.0029508024 0.0075893253 -0.0047747986
000230 00 46 10 bb 40 62 41 bb 00 46 10 bb aa 07 f4 bb
       -0.002201438 -0.0029508024 -0.002201438 -0.0074472027
000240 80 e8 5b bb 80 56 b5 3b c0 c7 53 bb 80 56 b5 3b
       -0.003355533 0.0055339932 -0.0032315105 0.0055339932
000250 00 3e 82 3b 20 c9 1a bc c0 c7 53 bb 20 c9 1a bc
       0.003974676 -0.009447366 -0.0032315105 -0.009447366
000260 00 4e 22 ba 50 6f 00 3c 00 4d e3 bb 00 11 14 3c
       -0.00061914325 0.007839039 -0.0069366693 0.009037256
000270 00 4d e3 bb 00 89 84 bb 20 64 bc bb 00 11 14 3c
       -0.0069366693 -0.004044652 -0.0057492405 0.009037256
000280 20 64 bc bb 40 ab 78 bb 40 75 9c bb 60 32 ca 3b
       -0.0057492405 -0.003794387 -0.0047747195 0.006170556
000290 40 f8 04 bb 60 32 ca 3b 00 00 6a b9 20 e4 eb bb
       -0.002028957 0.006170556 -0.00022315979 -0.0071988255
0002a0 40 f8 04 bb 20 e4 eb bb 40 c5 a3 3b 81 cf 0f 3d
       -0.002028957 -0.0071988255 0.0049978793 0.03511
0002b0 d8 7c fa 3c 48 5c 9c bc d8 7c fa 3c ab dc 7d bd
       0.030577108 -0.019086972 0.030577108 -0.061978023
0002c0 b0 87 42 3d 48 5c 9c bc b0 87 42 3d 52 1a dc 3c
       0.047492683 -0.019086972 0.047492683 0.02686802
0002d0 10 5d 10 bd c0 48 49 3c 00 2f f0 bb c0 48 49 3c
       -0.035245 0.012285411 -0.0073298216 0.012285411
0002e0 74 87 10 bd fc cb 6c 3d 00 2f f0 bb fc cb 6c 3d
       -0.03528543 0.057811722 -0.0073298216 0.057811722
0002f0 40 72 90 3d 11 24 dc bd d8 bf c6 3c 40 6d 17 bc
       0.070530415 -0.107490666 0.0242614 -0.009242356
000300 d8 bf c6 3c 22 73 2e 3d 50 51 41 3c 40 6d 17 bc
       0.0242614 0.042590268 0.011799172 -0.009242356
000310 50 51 41 3c 7f ea 84 3d 00 80 37 bd b0 e5 95 3c
       0.011799172 0.06490039 -0.044799805 0.018298
000320 70 f2 20 bc b0 e5 95 3c 8c bc 7b bd 24 fd a7 3d
       -0.009823427 0.018298 -0.06145911 0.082025796
000330 70 f2 20 bc 24 fd a7 3d 44 9e d9 3d fb 67 30 bd
       -0.009823427 0.082025796 0.1062589 -0.043067914
000340 d4 5f 2c 3d e0 c8 40 bc d4 5f 2c 3d 50 d6 1a 3b
       0.042083576 -0.011766642 0.042083576 0.0023626275
000350 f0 45 3f 3c e0 c8 40 bc f0 45 3f 3c 95 ba 26 3d
       0.011674389 -0.011766642 0.011674389 0.040705282
000360 80 2a 2e bc 20 e1 49 3c 60 84 ca bb 20 e1 49 3c
       -0.01063025 0.01232174 -0.006180331 0.01232174
000370 16 df bc bd 52 0f d3 3d 60 84 ca bb 52 0f d3 3d
       -0.09222238 0.103056565 -0.006180331 0.103056565
000380 64 a4 d2 3d 92 92 b1 bd b8 1f 2c bd 88 ac 89 3c
       0.10285261 -0.08670534 -0.042022437 0.016805902
000390 b8 1f 2c bd 00 5d bb bc 36 5f 8a 3d 88 ac 89 3c
       -0.042022437 -0.022871494 0.06756441 0.016805902
0003a0 36 5f 8a 3d d0 69 e0 3d 2e ea f0 bd 18 4b 04 bd
       0.06756441 0.10957682 -0.11763416 -0.032298177
0003b0 80 ff 18 3b 18 4b 04 bd 70 93 09 bc 90 30 91 3d
       0.002334565 -0.032298177 -0.008396968 0.07089341
0003c0 80 ff 18 3b 90 30 91 3d 4c 0e 01 3e 90 f7 ed bc
       0.002334565 0.07089341 0.1260311 -0.029048711
0003d0 40 be 4f 3b 00 70 08 b9 40 be 4f 3b f4 c3 9f bd
       0.0031699091 -0.00013011694 0.0031699091 -0.07801047
0003e0 b8 28 be 3d 00 70 08 b9 b8 28 be 3d d8 41 db 3d
       0.0928511 -0.00013011694 0.0928511 0.10705918
0003f0 9e 23 de bd 08 4b 2e 3d c0 14 d9 bc 08 4b 2e 3d
       -0.10846637 0.042552024 -0.026499152 0.042552024

hfvrA f4 [292, 1]
000000 58 57 8b 3f 29 37 62 3f 62 60 79 3f 35 08 60 3f
       1.088603 0.8836542 0.97412694 0.8751252
000010 0a d4 92 3f e6 61 43 3f 6d 9c 74 3f fe df 83 3f
       1.1470959 0.76321256 0.95551187 1.0302732
000020 86 60 80 3f 18 8a 78 3f be f8 b0 3e c2 76 b2 3e
       1.0029457 0.97085714 0.34564775 0.3485623
000030 54 99 a4 3e dc 3d 49 3e d0 0e c6 3e 9e a5 ac 3e
       0.3214823 0.19652504 0.38683176 0.33720106
000040 2e f0 a0 3e ee 6f a5 3e c2 11 a7 3e ab 0e 8b 3f
       0.31433243 0.32311958 0.32630736 1.0863851
000050 9a 70 68 3f c6 74 80 3f 7e dc 5e 3f 37 cb 90 3f
       0.90796816 1.0035636 0.87055194 1.1312016
000060 5b d2 3e 3f dc 3f 7f 3f 76 d1 84 3f 2f 75 7e 3f
       0.74539727 0.99706817 1.0376422 0.9939756
000070 9a 9b 72 3f f0 73 a5 3e 30 12 a9 3e 32 73 97 3e
       0.9476868 0.32315016 0.33021688 0.29580075
000080 8c 47 3c 3e 98 a0 aa 3e 7e 57 b7 3e 22 7f c7 3e
       0.18386668 0.33325648 0.3580894 0.38964182
000090 b2 fa c7 3e 86 c9 c5 3e 76 c1 8b 3f 3d 02 5e 3f
       0.39058453 0.38630313 1.0918415 0.86722165
0000a0 0d 8a 7f 3f 54 13 61 3f 1c 79 9b 3f f6 53 3e 3f
       0.99820024 0.8792012 1.2146335 0.74346864
0000b0 cf 88 81 3f fa 40 84 3f 36 aa 7e 3f e2 cc 74 3f
       1.0119876 1.0332329 0.9947847 0.95625126
0000c0 a6 7e b2 3e 56 42 b1 3e 9a de 83 3e 6c 80 43 3e
       0.3486225 0.34620923 0.2575577 0.19091958
0000d0 08 9b c2 3e 4e b4 a9 3e fa c0 a2 3e 82 2e ae 3e
       0.38008904 0.33145374 0.31787854 0.34019858
0000e0 5c 3e b0 3e 71 80 8b 3f e8 3c 64 3f c3 c2 7c 3f
       0.34422576 1.0898572 0.89155436 0.9873468
0000f0 c6 a7 61 3f d9 76 90 3f fa aa 42 3f 7f 01 7d 3f
       0.88146627 1.128627 0.7604214 0.9883041
000100 30 b9 85 3f 42 ab 80 3f a0 e4 77 3f 04 1a ad 3e
       1.044714 1.0052264 0.9683323 0.3380891
000110 a0 a4 b0 3e 5a fa a6 3e d8 63 43 3e fe b6 a9 3e
       0.345006 0.32612878 0.19081056 0.33147424
000120 7a 26 a7 3e 72 2f ab 3e 80 f9 ac 3e 16 9d b0 3e
       0.32646543 0.33434635 0.33784103 0.34494847
000130 a5 86 8b 3f 27 03 64 3f 5f 57 7c 3f 35 61 61 3f
       1.0900465 0.8906731 0.9857082 0.8803895
000140 8a be 90 3f eb 97 42 3f c0 d7 7c 3f b2 8e 85 3f
       1.1308148 0.7601306 0.9876671 1.0434172
000150 98 8c 80 3f a9 f4 77 3f 62 ea ac 3e b8 b4 b0 3e
       1.0042906 0.96857697 0.3377257 0.34512877
000160 e6 a2 a6 3e 2c 25 40 3e 7e 95 a9 3e 36 01 a7 3e
       0.32546157 0.1876418 0.33121866 0.3261811
000170 00 1c ab 3e 88 eb ac 3e 80 7c b0 3e 38 82 8b 3f
       0.334198 0.33773446 0.34469986 1.0899115
000180 9e 40 64 3f b4 71 7c 3f 3e 87 61 3f c8 ae 90 3f
       0.891611 0.98611 0.8809699 1.1303339
000190 aa 90 42 3f 9d fb 7c 3f 6c 90 85 3f 5d 97 80 3f
       0.7600199 0.9882143 1.0434699 1.0046192
0001a0 da f2 77 3f be 27 ac 3e 80 55 b0 3e ae 7d a6 3e
       0.9685494 0.3362407 0.3444023 0.3251776
0001b0 e0 36 40 3e 0a b0 a9 3e d8 24 a7 3e c6 23 ab 3e
       0.18770933 0.3314212 0.32645297 0.3342573
0001c0 c6 eb ac 3e f4 9e b0 3e b1 85 8b 3f d8 1d 64 3f
       0.3377363 0.34496272 1.0900174 0.8910804
0001d0 cf 6b 7c 3f ee 6a 61 3f ce b3 90 3f 0f 85 42 3f
       0.98602 0.88053787 1.1304872 0.7598428
0001e0 be e5 7c 3f 7a 8a 85 3f ea 95 80 3f e7 f8 77 3f
       0.9878806 1.0432885 1.004575 0.9686417
0001f0 10 ed ac 3e b6 9c b0 3e 28 9e a6 3e 48 1c 40 3e
       0.33774614 0.3449456 0.3254254 0.18760788
000200 be 8c a9 3e ec 14 a7 3e e2 25 ab 3e 18 f1 ac 3e
       0.3311519 0.3263315 0.3342734 0.3377769
000210 ba 82 b0 3e cb 82 8b 3f c1 1a 64 3f 9d 7e 7c 3f
       0.34474736 1.089929 0.89103323 0.98630697
000220 79 86 61 3f 77 7e 90 3f ce b4 42 3f e4 f4 7c 3f
       0.88095814 1.1288594 0.76057136 0.98811173
000230 34 ac 85 3f 91 ac 80 3f 41 f1 77 3f 22 30 ad 3e
       1.0443177 1.0052663 0.968525 0.33825785
000240 a8 a9 b0 3e d4 26 a7 3e 7c 8b 43 3e 5e d9 a9 3e
       0.34504437 0.3264681 0.19096178 0.3317365
000250 90 2f a7 3e 5a 33 ab 3e d2 d8 ac 3e ce a0 b0 3e
       0.32653475 0.33437616 0.3375917 0.34497684
000260 00 82 8b 3f e1 24 64 3f e1 b8 7c 3f 60 9b 61 3f
       1.0899048 0.8911877 0.987196 0.8812771
000270 fe 87 90 3f 72 c0 42 3f b5 05 7d 3f 5e 99 85 3f
       1.1291502 0.760749 0.98836833 1.0437429
000280 6b 9f 80 3f 00 f7 77 3f 36 1d ad 3e c0 a4 b0 3e
       1.004865 0.9686127 0.3381135 0.34500694
000290 0c 11 a7 3e e8 df 44 3e 02 bc a9 3e ce 4b a7 3e
       0.32630193 0.19226038 0.3315125 0.32675022
0002a0 f8 31 ab 3e f8 e7 ac 3e 6e a3 b0 3e 4a 8c 8b 3f
       0.3343656 0.33770728 0.34499687 1.0902188
0002b0 42 fb 63 3f 14 60 7c 3f f8 62 61 3f a1 b8 90 3f
       0.89055264 0.98584104 0.8804164 1.1306344
0002c0 2a 93 42 3f 00 f2 7c 3f 6a 90 85 3f c8 8c 80 3f
       0.76005805 0.9880676 1.0434697 1.0042963
0002d0 ac 12 78 3f f0 fa ac 3e 36 b6 b0 3e 0c ba a6 3e
       0.9690349 0.337852 0.34514016 0.32563818
0002e0 34 05 40 3e 02 55 a9 3e 92 17 a7 3e f4 46 ab 3e
       0.18751985 0.33072668 0.3263517 0.3345257
0002f0 70 f3 ac 3e a6 fb af 3e dd 62 24 3f 58 0a 1d 3f
       0.33779478 0.3437168 0.64213353 0.6134391
000300 59 13 9c 3f 91 77 9a 3f 4e 1b 61 3f 68 04 96 3f
       1.2193404 1.2067739 0.8793229 1.1720095
000310 44 69 aa 3f bc e1 a0 3f 08 a8 97 3f 64 19 96 3e
       1.3313375 1.2568889 1.1848154 0.29316247
000320 d0 7f 90 3e f2 2d 8f 3e 0e 47 d6 3e c2 e8 a2 3e
       0.28222513 0.2796474 0.41851085 0.31818205
000330 f6 0c c5 3e 8e 0b aa 3e a8 3c 1d 3e 05 7c 1e 3f
       0.3848645 0.3321194 0.1535517 0.6190799
000340 22 b1 24 3f 56 5d a2 3f 50 97 96 3f 4b f4 6d 3f
       0.64332783 1.2684734 1.1764927 0.92950886
000350 4c 2a 91 3f 46 6a a9 3f 54 a9 a8 3f 33 3f a9 3f
       1.1341033 1.3235557 1.3176675 1.3222412
000360 0e d4 9e 3e 46 16 9b 3e f6 76 a1 3e d0 e6 9f 3e
       0.3102116 0.3029043 0.31536072 0.31230783
000370 26 ed a1 3e c6 6a d6 3e 66 73 be 3e 70 5f 43 3e
       0.31626242 0.41878337 0.37197417 0.19079375
000380 77 8f 14 3f 9b 57 35 3f 38 53 a1 3f d3 57 93 3f
       0.5803141 0.708368 1.2603521 1.1511177
000390 3c c1 70 3f 89 48 96 3f e7 54 ab 3f fc ee a8 3f
       0.9404485 1.1740886 1.3385285 1.3197932
0003a0 7f b9 ab 3f 5a 05 8b 3e 48 20 d3 3e 74 f4 ad 3e
       1.3415984 0.2715252 0.41235566 0.33975565
0003b0 da ae af 3e 6c 38 9f 3e 08 36 b2 3e 18 b3 b6 3e
       0.3431309 0.31097734 0.34806848 0.35683513
0003c0 98 35 51 3e 06 48 1d 3f f0 49 32 3f e6 3f a2 3f
       0.204306 0.61438024 0.6964407 1.267575
0003d0 c4 bf 93 3f 49 8f 60 3f 69 89 99 3f 44 d0 aa 3f
       1.1542897 0.87718636 1.1995059 1.3344808
0003e0 32 2b a0 3f 04 de ab 3f 0a f2 ae 3e 46 f0 91 3e
       1.2513182 1.3427129 0.34169036 0.28503627
0003f0 0c 7b 96 3e 9c 53 a2 3e 0c d0 bd 3e ea 10 a5 3e
       0.29390752 0.31704414 0.3707279 0.32239467

vwA f4 [292, 1]
000000 95 89 04 3f a6 88 ff 3e c9 16 03 3f 62 d7 fe 3e
       0.51772434 0.49908942 0.5120664 0.497737
000010 9c 32 e6 3e fb 77 f9 3e d5 68 01 3f ca f0 03 3f
       0.44960487 0.4872435 0.50550586 0.5153929
000020 c8 28 03 3f ee a6 02 3f 8f 80 c5 3e 2a 23 c6 3e
       0.512341 0.51035964 0.38574645 0.38698703
000030 6d a0 c1 3e 6e c6 b4 3e 96 b6 ca 3e 83 e0 c5 3e
       0.37817708 0.3530764 0.39592427 0.3864785
000040 8a be c0 3e 58 c1 c1 3e dd bf c2 3e 58 ef 03 3f
       0.3764537 0.37842822 0.38037005 0.51537085
000050 f7 a1 00 3f 25 b6 03 3f d8 2c fe 3e ad 6b e5 3e
       0.5024714 0.51449805 0.49643588 0.44808713
000060 46 bb f7 3e 58 15 03 3f 49 06 04 3f 11 db 02 3f
       0.48385066 0.5120444 0.5157209 0.5111552
000070 6c ca 01 3f 45 da c1 3e 51 8e c2 3e de b8 bc 3e
       0.50699496 0.3786184 0.37999204 0.36859792
000080 95 68 b1 3e 8c 20 c4 3e 26 2e c8 3e 7a b6 cc 3e
       0.34650102 0.3830608 0.39097708 0.3998297
000090 dd 99 cb 3e 3f 35 ca 3e 8a 60 04 3f 16 7c fe 3e
       0.39765826 0.3949375 0.51709807 0.49704045
0000a0 ff f8 02 3f 65 84 fe 3e 66 4e e9 3e a8 e5 f7 3e
       0.5116119 0.49710384 0.45567626 0.484174
0000b0 8b b0 03 3f 7d e3 03 3f 1e c7 02 3f 45 f3 01 3f
       0.5144126 0.51518995 0.5108508 0.50761825
0000c0 de 77 c6 3e a1 01 c5 3e 72 69 b6 3e e6 f5 b2 3e
       0.38763326 0.38477805 0.35627323 0.3495323
0000d0 87 12 cb 3e b4 dc c3 3e 43 49 c0 3e bd 06 c4 3e
       0.39662573 0.3825432 0.37555894 0.3828639
0000e0 76 0a c5 3e 59 82 04 3f 24 fb ff 3e 4a 6d 03 3f
       0.38484544 0.51761395 0.49996293 0.51338637
0000f0 24 f9 fe 3e 26 28 e5 3e 04 e6 f8 3e 10 85 02 3f
       0.49799454 0.44757193 0.48612988 0.5098429
000100 f0 4d 04 3f 0a 4d 03 3f 58 84 02 3f ef 82 c4 3e
       0.51681423 0.5128943 0.5098319 0.38381144
000110 b6 4b c5 3e a6 c0 c2 3e 7d f1 b2 3e 86 f5 c3 3e
       0.38534325 0.38037604 0.34949866 0.38273257
000120 31 ec c2 3e 15 84 c3 3e a3 e2 c3 3e 99 4d c5 3e
       0.38070825 0.38186708 0.38258848 0.38535765
000130 34 81 04 3f 9e ec ff 3e ee 6b 03 3f 4c e1 fe 3e
       0.5175965 0.49985212 0.5133656 0.49781263
000140 24 3f e5 3e a1 f0 f8 3e 6d 7c 02 3f 6a 43 04 3f
       0.44774735 0.48621085 0.5097111 0.51665366
000150 2d 46 03 3f 83 84 02 3f 74 75 c4 3e 07 4b c5 3e
       0.51278955 0.50983447 0.3837086 0.38533804
000160 55 a4 c2 3e 42 0d b2 3e e2 e4 c3 3e 4c d4 c2 3e
       0.38016 0.3477574 0.3826056 0.38052595
000170 ac 78 c3 3e d1 d2 c3 3e 11 3d c5 3e fa 80 04 3f
       0.38178003 0.38246778 0.38523152 0.517593
000180 4b 00 00 3f 80 72 03 3f 56 f0 fe 3e e8 39 e5 3e
       0.5000045 0.5134659 0.49792737 0.4477074
000190 63 ef f8 3e 3e 83 02 3f 92 44 04 3f c2 48 03 3f
       0.48620138 0.5098151 0.5166713 0.51282895
0001a0 e6 83 02 3f 4a 4f c4 3e e1 3a c5 3e aa 95 c2 3e
       0.5098251 0.38341743 0.38521484 0.3800481
0001b0 f8 05 b2 3e 74 f0 c3 3e 28 e0 c2 3e d5 7f c3 3e
       0.3477018 0.3826939 0.38061643 0.38183466
0001c0 e7 d7 c3 3e 5c 4e c5 3e 9c 81 04 3f ff f4 ff 3e
       0.38250658 0.38536346 0.5176027 0.49991605
0001d0 1c 6d 03 3f 2b e5 fe 3e 74 3a e5 3e 01 e9 f8 3e
       0.5133836 0.49784216 0.4477116 0.48615268
0001e0 7b 7e 02 3f ff 41 04 3f dc 48 03 3f cf 84 02 3f
       0.50974244 0.516632 0.5128305 0.509839
0001f0 a9 74 c4 3e ce 40 c5 3e ac a4 c2 3e 0e 0c b2 3e
       0.38370255 0.38526005 0.3801626 0.34774822
000200 85 e2 c3 3e 76 db c2 3e 91 7c c3 3e cc d6 c3 3e
       0.38258758 0.3805806 0.38180974 0.38249815
000210 b3 44 c5 3e d0 83 04 3f 8c f2 ff 3e fa 68 03 3f
       0.38528976 0.5176363 0.49989736 0.51332057
000220 80 ef fe 3e be 2a e5 3e 67 ed f8 3e d2 83 02 3f
       0.497921 0.44759172 0.48618624 0.5098239
000230 35 49 04 3f 64 4c 03 3f 48 85 02 3f bc 88 c4 3e
       0.51674205 0.5128844 0.5098462 0.3838557
000240 b4 55 c5 3e e5 cc c2 3e ac f9 b2 3e 8d ff c3 3e
       0.3854195 0.38046947 0.3495611 0.38280907
000250 ae ee c2 3e f4 84 c3 3e af da c3 3e 89 3f c5 3e
       0.38072723 0.38187373 0.3825278 0.38525036
000260 82 82 04 3f ac f6 ff 3e 02 6e 03 3f 3f f7 fe 3e
       0.5176164 0.49992883 0.51339734 0.4979801
000270 14 37 e5 3e f6 f0 f8 3e 79 84 02 3f d3 45 04 3f
       0.44768584 0.4862134 0.5098339 0.51669043
000280 82 4b 03 3f 0c 85 02 3f 05 82 c4 3e 8b 4c c5 3e
       0.5128709 0.50984263 0.38380447 0.3853496
000290 71 c6 c2 3e df 46 b3 3e 36 f5 c3 3e 3d eb c2 3e
       0.38042024 0.35015008 0.3827302 0.38070098
0002a0 ec 83 c3 3e e3 db c3 3e 55 4c c5 3e 07 84 04 3f
       0.38186586 0.38253698 0.385348 0.5176396
0002b0 1c f3 ff 3e 3a 6a 03 3f f8 e9 fe 3e 01 40 e5 3e
       0.49990165 0.51333964 0.4978788 0.44775394
0002c0 55 f2 f8 3e cb 7d 02 3f 54 44 04 3f f7 46 03 3f
       0.48622385 0.50973195 0.5166676 0.5128016
0002d0 1a 88 02 3f c5 70 c4 3e 31 51 c5 3e 3e ab c2 3e
       0.50988925 0.38367286 0.38538507 0.38021272
0002e0 38 08 b2 3e 80 cb c3 3e b4 d9 c2 3e ee 87 c3 3e
       0.34771895 0.38241196 0.3805672 0.38189644
0002f0 08 db c3 3e 7e 17 c5 3e 2b 52 f4 3e c8 a7 f1 3e
       0.38253045 0.38494486 0.4771894 0.4719832
000300 4e de 06 3f 82 52 08 3f d0 63 00 3f 4a ad e4 3e
       0.5268296 0.53250897 0.501523 0.4466346
000310 60 52 d1 3e 6c 73 cf 3e a6 35 cf 3e ad 2b bf 3e
       0.4088316 0.40517747 0.40470618 0.3733801
000320 72 4b bd 3e 3b f2 ba 3e 99 4e d0 3e c3 4e c2 3e
       0.36971623 0.36512932 0.40684965 0.37950715
000330 c4 9f cc 3e 38 5d c2 3e 48 51 a7 3e 5e 99 f1 3e
       0.39965641 0.37961745 0.326792 0.47187322
000340 f3 96 f3 3e 45 56 08 3f f8 cd 06 3f fb 79 01 3f
       0.47576103 0.53256637 0.52658033 0.5057675
000350 3c 3c e3 3e 23 62 d2 3e 9d 8a d1 3e e2 4f d2 3e
       0.44381893 0.41090497 0.40926066 0.4107657
000360 74 aa c1 3e d3 4f c0 3e 60 88 c2 3e b2 27 c1 3e
       0.37825358 0.375609 0.3799467 0.37725598
000370 58 7b c1 3e 93 d7 cf 3e 2b ab c9 3e 65 a5 b5 3e
       0.37789416 0.40594158 0.39388403 0.3547775
000380 a8 0e ec 3e 90 12 f6 3e b1 76 08 3f 13 b8 05 3f
       0.46104932 0.48061037 0.5330611 0.52234
000390 36 90 01 3f fd 18 e7 3e 3a 95 d3 3e 7f fb d1 3e
       0.50610673 0.45136252 0.41324788 0.4101219
0003a0 be f9 d3 3e a9 53 bb 3e d3 72 ce 3e fd 5a c7 3e
       0.41401476 0.36587265 0.4032198 0.38936606
0003b0 82 19 c5 3e a0 83 bf 3e d1 7a c6 3e 5b bf c7 3e
       0.38496023 0.3740511 0.38765576 0.3901318
0003c0 76 99 b5 3e 06 8f f1 3e 30 42 f7 3e fc 61 08 3f
       0.35468644 0.4717943 0.48292685 0.5327451
0003d0 f0 88 06 3f 9b 60 00 3f 40 4e e7 3e 44 4c d3 3e
       0.525527 0.5014741 0.45176888 0.41269124
0003e0 3c 93 cf 3e 3d 32 d3 3e 1b 5a c7 3e 07 11 be 3e
       0.40542018 0.41249266 0.38935933 0.37122366
0003f0 33 a7 bf 3e 1b 4e c1 3e 8d c3 ca 3e cc 20 c2 3e
       0.3743225 0.37754902 0.39602318 0.37915647
