tests/test_data_path/og_processed/dimer_ap3_train_spec_7_175.pt (torch, 157010 bytes, 17 tensors)

y f4 [16, 4]
000000 90 5c 28 3f f7 da 15 3b 03 f4 32 bf 37 58 3d be
       0.6576624 0.002286611 -0.6990358 -0.18490683
000010 23 5b a7 3e bd c2 7a 3c 78 25 8e bf 03 df 8c be
       0.3268672 0.015305218 -1.1105185 -0.27513894
000020 b9 bb 33 c0 e3 f4 c8 3f f6 f5 dd bf 48 3e be bf
       -2.8083327 1.5699733 -1.7340686 -1.4862757
000030 4a 0c aa c0 2a 8a bc 3e 86 73 fb bf bb 5f 37 bf
       -5.314 0.3682416 -1.964463 -0.7163045
000040 da 43 55 c0 ac aa e7 39 61 99 d5 be bf cf b3 bd
       -3.3322663 0.00044186914 -0.4171858 -0.08779859
000050 0d a2 ad bf ae 15 8f 38 96 0c b6 be e7 13 9d bd
       -1.3565079 6.8228095e-05 -0.35556477 -0.07669812
000060 1f df 03 3f bd 17 3a 3b a1 b8 48 bf a8 0d 2f be
       0.5151233 0.0028395497 -0.7840672 -0.17095053
000070 41 32 b0 be cf 91 ea 3a 34 22 db be 51 34 24 be
       -0.3441334 0.0017896238 -0.42799532 -0.16035582
000080 41 98 1b 40 1c 5c 94 b4 92 b0 57 be 23 bc b2 bc
       2.4311678 -2.7634167e-07 -0.2106345 -0.021818226
000090 46 87 a9 3f 37 c4 33 3c 98 3a 6e bf d1 72 89 be
       1.3244407 0.010972074 -0.93058157 -0.2684541
0000a0 c2 84 05 c0 6c 2c 66 3a 51 d6 06 bf 49 15 f0 bd
       -2.086228 0.0008780423 -0.5267077 -0.1172281
0000b0 21 6f 91 bf 11 b8 6a 35 8e 46 67 be c4 de f4 bc
       -1.1362039 8.7439645e-07 -0.22585508 -0.02989138
0000c0 b3 96 31 40 09 08 1a 3a ea ef ab be c5 ce c1 bd
       2.774823 0.0005875831 -0.33581477 -0.09463266
0000d0 df a8 8e 40 93 08 29 3e dc 0d ec bf cc 2f 1e bf
       4.458114 0.16507177 -1.844173 -0.6179168
0000e0 f8 18 23 3e 79 d7 04 39 23 4c ca be 83 c9 9d bd
       0.15927494 0.00012668771 -0.39511213 -0.07704451
0000f0 76 1a ce 40 df f9 85 40 46 23 8b c0 1c a8 19 c0
       6.44073 4.186752 -4.348056 -2.4008856

RA f4 [176, 3]
000000 15 52 9e 3d 11 c6 3b 3f d5 94 90 bf 97 ac 0e bf
       0.077305 0.733491 -1.129542 -0.557321
000010 28 9e 93 be e9 9e 35 bd 9e 26 eb 3e 6c 95 04 bf
       -0.288316 -0.044341 0.459279 -0.517905
000020 2c 44 89 3f b0 8d b0 3e 01 18 d7 3f 9a ec 3b bf
       1.072393 0.344831 1.68042 -0.734079
000030 94 6c 69 3f 1b 2a 96 3e 95 9e c9 bf f1 bd 3f bf
       0.911813 0.29329 -1.575152 -0.748992
000040 dc 2d 5d 3f 20 0b f9 bf a8 e2 4e bf 16 c1 97 bf
       0.863981 -1.945652 -0.808146 -1.18558
000050 1c 06 e3 be 96 cc b9 bf 01 de 62 3e e5 97 c9 3e
       -0.443406 -1.451556 0.22155 0.393737
000060 8d b3 29 3d ad 51 89 bf d1 40 e4 3f e9 49 25 3f
       0.041431 -1.072805 1.783228 0.645659
000070 92 3c ef 3e d3 dc b8 3f 81 23 ad 3f 14 93 5f bf
       0.467259 1.444239 1.352646 -0.873338
000080 a0 8c 2d 3f 4d 48 2b 3d f0 db 38 3f 3d 7c 8f bf
       0.677927 0.041817 0.722106 -1.120979
000090 1d e6 0b bf 91 63 6b be b3 0a 1b bc 89 7b d4 3e
       -0.54648 -0.229872 -0.009463 0.415005
0000a0 27 83 f3 be d5 af 7c 3f fb 3d 61 3e 9e b4 d4 3f
       -0.47561 0.987058 0.219963 1.661762
0000b0 22 71 3f bf 41 44 72 3f 34 be 7f 3e 7e 19 cc bf
       -0.74782 0.946354 0.249749 -1.594528
0000c0 05 fc 36 bf 0b 9a 62 3f 14 05 fe bf 8d 43 51 bf
       -0.714783 0.885163 -1.98453 -0.817437
0000d0 53 b1 a5 bf 1b d4 ee be dc 68 bc bf 02 61 57 3e
       -1.294474 -0.466462 -1.47195 0.210331
0000e0 a0 e2 d0 3e 35 d1 67 3c b6 be 90 bf d3 11 de 3f
       0.407979 0.014149 -1.13082 1.734919
0000f0 50 6d 48 3f ca c3 da 3e 9d 66 c1 3f ea ea a0 3f
       0.782918 0.427275 1.510944 1.257169
000100 d0 d5 6a bf 4d bf 30 3f c7 65 dc bb cb 2f 37 3f
       -0.917325 0.690419 -0.006726 0.715573
000110 f2 97 8c bf 6a 34 1d bf 95 44 66 be ab 40 8d bd
       -1.098387 -0.614081 -0.224871 -0.068971
000120 33 4f de 3e 56 7d e6 be ee 42 87 3f ff ec 97 3e
       0.434198 -0.450175 1.05673 0.29673
000130 49 a0 db 3f d0 28 41 bf eb 19 7e 3f 09 f9 b0 3e
       1.715829 -0.754529 0.992583 0.34565
000140 59 16 ce bf ea 95 26 bf 5c c7 68 3f e2 3b ef bf
       -1.610057 -0.650725 0.909292 -1.869015
000150 1f 49 51 bf 65 53 9a bf 07 ce f1 be 8a 73 b4 bf
       -0.817522 -1.20567 -0.472275 -1.409776
000160 8e cb 68 3e 77 a0 f6 3e 87 31 e9 3c e8 c0 8a bf
       0.227339 0.481693 0.028466 -1.084012
000170 58 3a e3 3f 74 24 27 3f f2 ef db 3e b3 b5 c2 3f
       1.775218 0.6529 0.429565 1.52117
000180 20 7d a7 3f fb e8 54 bf f7 cc 2a 3f 34 d7 29 3d
       1.308506 -0.83168 0.66719 0.041465
000190 e1 eb 33 3f 29 7a 8e bf 28 82 18 bf 5e 4b 48 be
       0.702818 -1.113103 -0.595736 -0.1956
0001a0 8c f8 0e be 4a 7b d3 3e 53 ce ef be 41 11 8b 3f
       -0.13962 0.41305 -0.468371 1.086464
0001b0 2f c4 7a 3e df c1 d5 3f 0c 40 3b bf 39 d6 79 3f
       0.244889 1.669979 -0.731446 0.975925
0001c0 0c ae 79 3e c5 73 c6 bf b4 04 45 bf 4d 6a 50 3f
       0.243828 -1.550408 -0.769603 0.814122
0001d0 7a c5 ef bf c8 b3 63 bf 0e 9f 98 bf 5a 11 fd be
       -1.873214 -0.889462 -1.192354 -0.494273
0001e0 e0 47 c1 bf 1f f4 3c 3e ab 7b cc 3e a5 83 95 3d
       -1.510006 0.184525 0.399381 0.073005
0001f0 05 33 8c bf 64 1f e0 3f d1 79 39 3f f9 49 cd 3e
       -1.095307 1.750958 0.724515 0.400955
000200 7d 3d c1 3f 97 c9 aa 3f c2 f7 6e bf 52 f2 3a 3f
       1.509689 1.334277 -0.933468 0.73026
000210 73 4a a0 3d 64 ae 34 3f d9 ea 94 bf 80 b9 0e bf
       0.078267 0.705786 -1.163417 -0.557518
000220 9d 2e 7b be 02 64 28 bd 3e 21 fb 3e f0 6e f5 be
       -0.245295 -0.041111 0.490488 -0.479362
000230 e2 02 7c 3f a1 f6 9b 3e 88 bd da 3f 3f 74 39 bf
       0.984419 0.304616 1.708909 -0.72443
000240 c3 ef 6e 3f 43 75 8b 3e 94 88 cc bf 23 f8 23 bf
       0.933346 0.272379 -1.597918 -0.640505
000250 cf a4 5d 3f 2c 2e fe bf 78 7e 55 bf 11 ff 92 bf
       0.865796 -1.985784 -0.833961 -1.148409
000260 3d 61 01 bf 0b 08 b9 bf f6 08 85 3e 34 9f bb 3e
       -0.50539 -1.445558 0.259834 0.366449
000270 5a f1 8d bc 84 ba 82 bf 21 c9 e0 3f d7 da 3b 3f
       -0.017327 -1.021317 1.756138 0.733808
000280 d9 e9 cf 3e 08 3c c0 3f 79 cc ae 3f cf 13 6b bf
       0.406081 1.501832 1.365615 -0.918271
000290 1b f5 30 3f d5 26 8e 3d dd b2 27 3f 83 86 8c bf
       0.69124 0.06941 0.655073 -1.097855
0002a0 c4 60 26 bf 9f 77 63 be 0e be d0 bd 97 1d d2 3e
       -0.649914 -0.222136 -0.101925 0.410382
0002b0 2b a3 d9 be ca dd 87 3f f5 81 9c 3e 7d 3c da 3f
       -0.425073 1.061456 0.305679 1.704971
0002c0 10 ae 38 bf 59 34 69 3f d3 bc 9b 3e d5 97 c9 bf
       -0.721406 0.910955 0.304175 -1.574946
0002d0 53 cf 36 bf a6 09 5b 3f 52 b7 f5 bf 15 91 51 bf
       -0.714101 0.855616 -1.919657 -0.81862
0002e0 15 ff 99 bf 6c cb f0 be a1 6a c2 bf 81 5e 80 3e
       -1.203097 -0.470302 -1.518879 0.250721
0002f0 44 6d c3 3e df 6c 33 3d 14 7a 85 bf 2f 36 e5 3f
       0.381693 0.043805 -1.042788 1.790716
000300 72 c3 33 3f 4b 75 01 3f 58 ff bb 3f 82 8f a5 3f
       0.702201 0.505696 1.46873 1.293442
000310 a7 23 64 bf a3 03 36 3f a3 3d de 3c de 3a 37 3f
       -0.891169 0.710993 0.027129 0.715742
000320 65 56 91 bf ee 94 16 bf 96 79 0b be b2 b9 ea bc
       -1.135449 -0.58821 -0.136206 -0.028653
000330 3c 12 c7 3e cb 9e 08 bf 77 be 85 3f 1e 89 8f 3e
       0.388811 -0.533673 1.044875 0.280343
000340 1a fb d8 3f 00 3c 3a bf 14 21 61 3f 2e 1e 86 3e
       1.695163 -0.727478 0.879411 0.261949
000350 9a 05 d2 bf 2b 35 2f bf ad bd 5f 3f e8 fa f8 bf
       -1.640796 -0.684405 0.873988 -1.945157
000360 41 2d 52 bf a7 b0 96 bf 6f bb f0 be 4b c9 bc bf
       -0.821003 -1.177266 -0.47018 -1.474893
000370 2e 04 49 3e c0 3d f7 3e 51 9f 24 3d 23 bc 89 bf
       0.196305 0.482893 0.040191 -1.076054
000380 b1 36 e2 3f 96 95 2a 3f 21 3d dd 3e 7a 36 c1 3f
       1.767294 0.666345 0.432107 1.509475
000390 25 06 a9 3f 67 7e 69 bf 1b 65 35 3f 70 94 bc bb
       1.3205 -0.912085 0.708574 -0.005755
0003a0 17 48 28 3f 79 c9 97 bf 05 de 0d bf dc 4a 7f be
       0.65735 -1.185836 -0.554169 -0.249309
0003b0 ac 58 0c be a4 a8 e3 3e 22 c3 c2 be d1 3e 8c 3f
       -0.137057 0.444646 -0.380395 1.095667
0003c0 db c1 b0 3e 1c ee d5 3f bc 5a 2a bf b2 b8 6f 3f
       0.345229 1.671329 -0.665447 0.936412
0003d0 a6 f0 88 3e 80 0b cc bf c9 02 2a bf ed d5 63 3f
       0.267461 -1.594101 -0.664105 0.889983
0003e0 7c 62 f1 bf 27 83 53 bf 61 fa 9a bf f8 c2 ec be
       -1.885818 -0.82622 -1.210766 -0.462425
0003f0 b5 33 b8 bf 4d 4b 6c 3e 16 8a d4 3e 87 16 19 bd
       -1.439078 0.230756 0.415116 -0.037375

RB f4 [112, 3]
000000 b9 34 9b 40 20 d3 35 40 3c c0 8f 3f f7 ac df 40
       4.850186 2.841011 1.123054 6.989864
000010 6a 2f 3d 40 13 7c 91 3f 78 45 73 40 1a c3 44 40
       2.956019 1.136599 3.801115 3.074408
000020 59 f8 86 3f 7c 0d b8 40 da fe 63 40 d9 5a 1f 3f
       1.054454 5.751646 3.56243 0.62248
000030 b1 77 d2 40 cd 5a ea 3f 7b 4a ec 3f bb 37 ea 40
       6.577111 1.830896 1.846023 7.319303
000040 73 bb 9b 3f ff ea 0f 40 c8 0a a9 40 46 7d dc 3f
       1.216658 2.248718 5.282566 1.722573
000050 05 6e f5 3f 28 c6 90 40 00 1a 0a c0 92 3c 1f 40
       1.91742 4.524189 -2.157837 2.488072
000060 eb d5 ae 40 64 4a 82 c0 23 f7 02 40 57 8a 8b 40
       5.463613 -4.071581 2.046334 4.360637
000070 57 24 8c bf dc 2c 25 40 e3 6b b1 40 37 fc 2a c0
       -1.094859 2.580863 5.54442 -2.671644
000080 9a 26 de 3f 23 d9 8f 40 f6 c0 88 c0 85 ea 33 40
       1.735553 4.495256 -4.273555 2.811189
000090 02 4a 86 40 8b a7 a6 c0 f9 4b 4d 40 39 7d 76 40
       4.196534 -5.207952 3.207762 3.851393
0000a0 f3 1f 44 c0 4f 5b 51 40 7e 35 32 c0 39 0c 26 c0
       -3.06445 3.271198 -2.784515 -2.594496
0000b0 30 da 1e c0 8c 9d 87 c0 b4 82 82 c0 25 23 08 c0
       -2.482067 -4.237982 -4.078455 -2.127145
0000c0 5b 61 09 c0 66 4d f8 bf 05 fa 44 c0 94 c0 75 c0
       -2.146567 -1.939862 -3.07776 -3.839879
0000d0 44 df 4b c0 88 4a 45 c0 47 71 63 c0 35 79 77 c0
       -3.185502 -3.082674 -3.553789 -3.866773
0000e0 8b 1a 88 bf 7e c7 71 c0 33 18 8f c0 d3 30 3c be
       -1.06331 -3.777801 -4.471704 -0.18378
0000f0 d4 b8 24 c0 3b fe 40 c0 71 04 99 bf 49 d5 67 40
       -2.573781 -3.015517 -1.195448 3.622393
000100 0e 32 57 c0 e3 4f 17 40 44 86 2b 40 18 b3 38 c0
       -3.36243 2.364251 2.68007 -2.885931
000110 bc af 84 40 36 3e 85 40 04 02 4b c0 77 11 b2 3f
       4.146452 4.163844 -3.171998 1.391158
000120 b6 f4 49 40 32 91 0e c0 c5 8c 41 40 b8 3e 3a 40
       3.155561 -2.227612 3.024217 2.910078
000130 e0 f7 84 c0 40 32 82 40 25 74 28 40 c1 7e 99 c0
       -4.155258 4.068634 2.632089 -4.796723
000140 a2 7b 9d 40 78 97 5f 40 7f eb 8e c0 84 66 40 40
       4.921342 3.49362 -4.466247 3.006257
000150 db 89 d0 c0 c9 38 e6 bf e7 c2 3d 40 4a d2 9c c0
       -6.516828 -1.798608 2.965021 -4.90067
000160 50 fd 2b c0 44 05 83 40 13 2a e0 c0 6e f7 a0 bf
       -2.687336 4.094393 -7.005136 -1.257551
000170 11 19 0e 40 8a 2c a6 c0 c1 8e f7 bf 4e 2b 3a 40
       2.22028 -5.192937 -1.934044 2.908893
000180 6d e3 c4 c0 03 5c 34 c0 ff c0 96 40 53 58 c3 c0
       -6.152762 -2.818116 4.711059 -6.104532
000190 82 8c 58 c0 4d 2d b5 40 3b 7f e5 c0 0c b0 1b c0
       -3.383576 5.66178 -7.171781 -2.43262
0001a0 24 8b 81 40 bf 80 50 40 6c c3 c2 40 a0 c3 6d 40
       4.048235 3.257858 6.086355 3.715065
0001b0 57 05 6a 40 e1 60 80 40 f7 b1 5b 40 61 19 40 40
       3.656576 4.011826 3.432737 3.001549
0001c0 a2 d3 e4 40 2c 65 5f 40 8c a1 53 40 1e 07 a6 40
       7.150834 3.49055 3.306735 5.188369
0001d0 6b 48 31 40 82 72 74 40 8a 86 8b 40 f4 f9 95 40
       2.770045 3.819489 4.360173 4.686762
0001e0 04 56 84 40 81 77 66 40 9a ec ac 40 c6 fd 62 40
       4.1355 3.601044 5.403882 3.546739
0001f0 8f 1a b5 40 75 1e a0 40 7b a1 2a 40 ab 7a ce c0
       5.659492 5.003718 2.666106 -6.452474
000200 ab 3e 62 40 b6 da f7 3f e0 d8 94 c0 c4 94 2d 40
       3.535075 1.936362 -4.651474 2.712205
000210 11 18 2e 40 ec b2 ec c0 a1 db 82 40 b2 2e ce 3f
       2.720219 -7.396841 4.08931 1.6108
000220 b7 c6 b6 c0 54 c3 63 40 80 7f 50 40 26 d4 9a c0
       -5.711757 3.558797 3.257782 -4.838397
000230 8c 83 15 40 73 13 6b 40 5a c8 83 c0 3b 89 dc 3f
       2.336154 3.673062 -4.118207 1.722938
000240 e2 5b 6b 40 cd ac c0 c0 89 42 34 40 cc b3 b1 c0
       3.677483 -6.021094 2.816561 -5.553198
000250 39 60 b7 bf a5 87 16 40 a9 f6 92 c0 c0 42 05 c0
       -1.432624 2.352029 -4.59261 -2.082199
000260 f1 1e 85 40 73 bc bb c0 f6 f0 b5 bf dc f3 a8 3f
       4.160027 -5.866754 -1.421416 1.319942
000270 e6 66 9b c0 90 16 21 c0 8e cd 33 40 47 03 a0 c0
       -4.856311 -2.517002 2.809421 -5.0004
000280 d3 50 73 bf 10 dd 87 40 d3 dc 9c c0 c7 12 fe be
       -0.950452 4.245735 -4.901956 -0.496237
000290 37 71 a7 40 93 90 b6 c0 7c 9d d4 be 0a d6 50 40
       5.23257 -5.705148 -0.415264 3.263064
0002a0 98 a6 11 40 36 59 b7 40 02 8a 00 41 c2 31 5d 40
       2.275793 5.72964 8.033693 3.456162
0002b0 2a 62 8a 40 55 79 e0 40 f9 bc f2 3f f1 63 d1 40
       4.324483 7.014811 1.896392 6.54345
0002c0 40 04 0c 41 2a e0 55 40 ba 79 a2 40 0a 85 03 41
       8.751038 3.341807 5.077359 8.21998
0002d0 35 5e 1e 40 11 9e 94 40 4c 50 c5 40 fa ef 18 40
       2.4745 4.644295 6.166052 2.389647
0002e0 49 30 88 40 d3 93 a7 40 85 5c d7 3f db 6c b5 40
       4.255894 5.236795 1.682511 5.669538
0002f0 f3 74 d9 40 37 97 89 40 cb 82 4f c0 2b a4 ac be
       6.795526 4.299709 -3.242358 -0.33719
000300 4f e9 b5 40 59 a5 69 c0 0b 27 f1 bf 7e a7 75 40
       5.68473 -3.650717 -1.884004 3.838348
000310 4d 0f 35 c0 23 31 1d 3f c6 4f b1 40 20 b7 3e c0
       -2.829059 0.614031 5.540988 -2.979927
000320 66 da 22 bf bd f0 91 40 87 53 84 c0 fe 26 08 c0
       -0.636145 4.560637 -4.135196 -2.12738
000330 04 bc 8d 40 72 32 9a c0 0b ef 43 c0 5a 66 69 40
       4.429201 -4.818658 -3.061465 3.646872
000340 0e a1 7e c0 68 5d 95 bf c6 34 03 be 4c dd 68 40
       -3.97858 -1.166913 -0.128131 3.638507
000350 37 8b b2 40 79 22 e2 bf 08 14 94 40 5e da 8f 40
       5.579494 -1.766677 4.627445 4.495406
000360 a5 4a 40 3f fe 0c 47 40 d0 b5 b7 40 5d 6a 08 bf
       0.751139 3.110168 5.740944 -0.532873
000370 c8 0c 7c 40 15 e4 8a 40 2e 8e f8 bf 71 21 95 40
       3.93828 4.340342 -1.941839 4.660332
000380 58 62 ba 40 52 81 38 c0 04 64 a3 40 94 da c5 40
       5.824505 -2.882893 5.105959 6.182932
000390 89 ce 8e bf 25 fa 81 40 22 4f d2 40 15 3c 4b c0
       -1.115678 4.061785 6.57216 -3.175542
0003a0 e3 7d 86 c0 1b 49 fc 40 e7 52 47 c0 f1 4b 72 c0
       -4.202867 7.883924 -3.114435 -3.785885
0003b0 40 33 b9 40 f7 c7 35 c0 06 f4 8f c0 cd 1d 0e 41
       5.787506 -2.84033 -4.498538 8.882276
0003c0 0e be 14 c0 ef 83 85 c0 0f 56 de 40 0f d1 8a c0
       -2.3241 -4.172355 6.948005 -4.33802
0003d0 b9 52 6a c0 4e 2a c9 40 1c 07 a5 c0 16 c0 5c c0
       -3.661299 6.286414 -5.157118 -3.449224
0003e0 0d 70 b1 40 db c3 8e c0 6d ab 7c c0 ae a9 f1 40
       5.544928 -4.461408 -3.947963 7.551963
0003f0 e6 b0 d8 c0 6e db 79 c0 d6 1e 3d c0 a9 f6 d0 c0
       -6.771594 -3.904018 -2.955007 -6.53011

qA f4 [176, 1]
000000 d4 0e 03 bf c0 10 93 bc 74 60 24 bf 54 96 43 3e
       -0.511945 -0.017952323 -0.64209676 0.19100314
000010 1c ca 3f 3e 5e 14 3d 3e 64 c7 26 3e b4 ab 10 3e
       0.18729442 0.184648 0.16286999 0.14128
000020 46 44 e3 3e 9c cc db 3e ce 0a dd 3e 97 25 02 bf
       0.44388026 0.42929542 0.43172306 -0.5083861
000030 80 97 21 3c e1 2f 1c bf 62 5f 46 3e 02 97 27 3e
       0.009862781 -0.6101056 0.19372323 0.16366199
000040 e8 27 45 3e c8 eb f8 3d 16 4c 16 3e 99 74 de 3e
       0.19253504 0.12154347 0.14677462 0.43448332
000050 40 c8 d6 3e 3b 71 df 3e 98 32 f3 be 00 68 65 bc
       0.41949654 0.43641075 -0.47499537 -0.014001846
000060 f2 4a 26 bf a0 a8 28 3e ec 10 16 3e e8 f3 5b 3e
       -0.6495811 0.16470575 0.14654893 0.21479762
000070 fa 88 1d 3e 96 39 1a 3e 48 92 e0 3e 8d 46 df 3e
       0.15384284 0.1506103 0.43861604 0.43608513
000080 e3 e2 dd 3e 92 52 f6 be c0 bb 0a bc 39 7f 2b bf
       0.43337163 -0.4810987 -0.008467615 -0.66991
000090 30 00 46 3e f2 59 2e 3e 36 dc 4a 3e bc 3c 1b 3e
       0.19336009 0.17026499 0.19810566 0.15159887
0000a0 80 b0 12 3e 78 9e e3 3e 50 ea df 3e 42 8c d7 3e
       0.14325142 0.4445684 0.43733454 0.42099196
0000b0 56 a3 ff be 00 64 81 ba 4b 1c 23 bf c4 45 27 3e
       -0.49929303 -0.0009871721 -0.63715047 0.16335207
0000c0 50 95 3e 3e 72 2d 52 3e 5c 68 19 3e 54 e3 11 3e
       0.18611646 0.20525149 0.14981216 0.14246875
0000d0 3c 04 dd 3e 4c 6e db 3e a2 40 dc 3e 12 62 f5 be
       0.43167293 0.42857587 0.4301806 -0.47926384
0000e0 80 7a f1 bb e7 ce 29 bf a8 ca 28 3e aa 1c 49 3e
       -0.0073693395 -0.6633133 0.16483557 0.1963984
0000f0 c4 70 3b 3e c2 c7 1a 3e 60 77 1d 3e f3 e4 e1 3e
       0.18304735 0.15115264 0.15377569 0.44119987
000100 41 55 da 3e 00 c0 dd 3e 40 db f8 be 80 a0 88 bb
       0.4264317 0.43310547 -0.48604774 -0.0041695237
000110 08 c6 20 bf 00 f6 30 3e b0 c7 35 3e 4e 94 52 3e
       -0.6280217 0.17281342 0.17751956 0.20564386
000120 1c 8e 00 3e e4 1b 1c 3e 42 42 e1 3e c9 bb d5 3e
       0.1255421 0.15245014 0.43995863 0.4174483
000130 bb 8d da 3e 94 4d ea be 80 b6 ea bc fe b2 2d bf
       0.42686257 -0.45762312 -0.028651476 -0.67851245
000140 a6 9a 0b 3e e4 2b 2b 3e 10 db 6d 3e 5e 3a 2d 3e
       0.13633212 0.16715962 0.23228097 0.16916797
000150 1e eb 0d 3e 37 7f df 3e 02 a6 e8 3e 33 56 dc 3e
       0.13859221 0.43651745 0.45439154 0.43034515
000160 80 d9 fc be 80 a3 01 3c cc f1 25 bf 7c d8 31 3e
       -0.4938469 0.007912517 -0.6482208 0.17367738
000170 52 21 30 3e 0e c3 57 3e 10 92 13 3e 66 f7 15 3e
       0.1720021 0.21070501 0.14411187 0.14645156
000180 81 a0 e0 3e 4c 4a d5 3e 1d 22 dd 3e e4 cf fa be
       0.43872455 0.41658247 0.4319009 -0.48986733
000190 80 2e 43 bc 9c 65 28 bf 4a b4 27 3e 7c 89 3b 3e
       -0.011912942 -0.65780044 0.16377369 0.18314165
0001a0 10 fe 4d 3e 42 78 0d 3e 68 5c 28 3e d9 8d df 3e
       0.20116448 0.13815406 0.164415 0.4366291
0001b0 c4 86 d9 3e b7 17 e5 3e 1e 01 f7 be c0 2d 38 bc
       0.4248563 0.44744655 -0.4824304 -0.011241376
0001c0 1d 4b 26 bf 9a 6a 25 3e 36 89 25 3e f8 b1 5d 3e
       -0.64958364 0.16153947 0.16165623 0.21649921
0001d0 7a 4f 11 3e ac ec 12 3e 4c 5f e1 3e 55 e4 e0 3e
       0.14190474 0.14348096 0.44018018 0.43924204
0001e0 2a a4 e0 3e ec b0 e9 be 00 d4 18 ba 4a 33 25 bf
       0.43875247 -0.45642793 -0.00058299303 -0.64531386
0001f0 98 31 28 3e 26 cf 2a 3e 3a 82 5a 3e e8 58 07 3e
       0.16425169 0.16680583 0.2133874 0.13217509
000200 f8 15 1b 3e 9d 13 e0 3e d4 04 db 3e 8b 52 d1 3e
       0.15145099 0.43764964 0.4277712 0.40883288
000210 1e 37 f7 be 40 10 72 bc 37 8f 28 bf 4a e0 44 3e
       -0.4828424 -0.014774382 -0.6584353 0.19226184
000220 ce a8 35 3e 60 e9 43 3e 68 ab 1d 3e 08 47 13 3e
       0.17740175 0.19131994 0.15397418 0.14382565
000230 90 58 dc 3e 3d c0 e1 3e c9 1a da 3e 88 75 06 bf
       0.43036318 0.4409198 0.4259856 -0.5252309
000240 40 49 53 bc f8 85 26 bf 46 54 55 3e 9e 45 33 3e
       -0.012895882 -0.6504817 0.20832929 0.17507026
000250 4a ad 4c 3e 78 b5 1f 3e 00 3b 1e 3e 10 0e da 3e
       0.1998798 0.15596569 0.15452194 0.42588854
000260 d4 8d e0 3e ac 59 dc 3e ba 7e f4 be e0 5a 8f bc
       0.43858206 0.43037164 -0.47752935 -0.017499387
000270 19 a7 21 bf 9a eb 37 3e 6a 9d 1a 3e be 02 5c 3e
       -0.63145596 0.17960969 0.15099111 0.21485421
000280 5c ce 13 3e 52 4c 12 3e 84 65 dc 3e b5 63 dc 3e
       0.14434189 0.14286926 0.430462 0.4304482
000290 30 a6 dd 3e 76 1f fd be 80 6d c2 bb 85 95 20 bf
       0.43290854 -0.49438065 -0.0059334636 -0.6272815
0002a0 3a 33 33 3e 10 02 2a 3e 76 08 57 3e da 6c 18 3e
       0.1750001 0.1660235 0.20999321 0.14885274
0002b0 9c 4e 11 3e f0 fe df 3e fd 4c d6 3e c1 0b dc 3e
       0.14190143 0.4374919 0.41855612 0.42977718

muA f4 [176, 3]
000000 20 8f 5b bc 60 66 65 bc 80 1c 6a 3c b8 b8 d2 3d
       -0.013400823 -0.014001459 0.0142890215 0.102891386
000010 80 1c 03 3b 00 72 c5 3c f6 53 bc bd 00 a4 dc ba
       0.0020006 0.024102211 -0.09195702 -0.0016833544
000020 a8 b5 ca bd 20 01 42 3c 18 68 4f 3d 00 c4 42 3c
       -0.098979294 0.0118410885 0.05063638 0.01188755
000030 08 b1 0e 3d 30 0f 9e bc 70 0b ce bc 18 ab 2b bd
       0.0348368 -0.019294351 -0.025151938 -0.041911215
000040 c0 7f 8f 3b a8 67 1f bd 60 b7 21 bc 00 21 68 bd
       0.0043792427 -0.038917214 -0.00987038 -0.056672096
000050 60 97 03 bd 20 74 63 bd c8 75 2f 3d 90 e0 a9 3c
       -0.032126784 -0.055530667 0.042836934 0.020736963
000060 40 b3 90 bc e0 b1 a2 bc 20 c8 b3 3c 00 42 65 3b
       -0.017663598 -0.019860208 0.021946013 0.0034981966
000070 f0 a6 0d 3d 80 6e 11 3c c0 f0 da 3c 60 90 4f bc
       0.034583032 0.008876443 0.026726127 -0.012668699
000080 60 eb 8d bc 20 4e 7c bc 80 4d 91 bc e0 4f 00 3d
       -0.01732415 -0.015399486 -0.01773715 0.031326175
000090 e4 7a e4 3d f8 c5 1b 3d 68 18 03 3d 98 1a e5 bd
       0.11156252 0.038030595 0.032005697 -0.11186713
0000a0 90 51 0c 3d 2d c3 28 be 00 b8 ff 3a 20 97 3c 3d
       0.03425747 -0.16480704 0.0019509792 0.04604256
0000b0 00 f3 5d 3c 98 26 20 3d a0 d4 b9 bc 80 81 db bc
       0.013546705 0.039099306 -0.022684395 -0.026795149
0000c0 08 4c 12 bd 20 40 24 3c f0 b6 28 bd e0 dc 06 bc
       -0.03571704 0.010025054 -0.041190088 -0.008231372
0000d0 fc 98 80 bd e0 e7 fd bc 40 5f 57 bd 08 67 1c 3d
       -0.062791795 -0.030994356 -0.05258107 0.038184196
0000e0 f0 d2 bd 3c 10 ee 95 bc d0 67 b0 bc b0 ae ba 3c
       0.023171872 -0.018301994 -0.021533877 0.022788376
0000f0 80 43 fb 3b c8 88 10 3d c0 f7 72 3c 20 ca d8 3c
       0.0076679587 0.035286695 0.014829576 0.026463568
000100 80 44 77 bc 50 21 92 bc 48 92 24 bd 00 23 f7 bc
       -0.015092015 -0.01783815 -0.040178567 -0.030168056
000110 a0 6e c8 3c f8 f2 b8 3d 20 9b d9 3c e8 6a a7 3c
       0.024466813 0.090307176 0.026563227 0.020436719
000120 68 6c ab bd 60 8b e8 3c 6c 08 ed bd 60 c9 17 3c
       -0.08370286 0.028386772 -0.11573872 0.00926432
000130 a8 e9 52 3d c0 ae f0 3b 08 a8 34 3d 00 ee 5f bc
       0.051492363 0.0073450506 0.04410556 -0.013667583
000140 e8 6c 0e bd 20 70 fc bc 20 d8 20 3c 60 3a 08 bd
       -0.03477183 -0.030815184 0.009817153 -0.033258796
000150 00 7a c1 bb 78 38 74 bd c8 f1 15 bd 68 88 37 bd
       -0.005904436 -0.059624165 -0.036607534 -0.04480782
000160 80 6f 25 3d 78 e8 06 3d b0 f7 83 bc 30 a8 b9 bc
       0.040389538 0.032936543 -0.016109318 -0.022663206
000170 00 32 b4 3c 80 79 d3 3b 80 f6 05 3d 60 32 75 3c
       0.021996498 0.006453693 0.032705784 0.014965624
000180 40 20 dd 3c a0 bf 5d bc 20 4f 96 bc c0 fe 5f bc
       0.026992917 -0.0135344565 -0.018348277 -0.013671577
000190 00 9c 88 bc c8 14 c0 3c 30 ce de 3d e0 03 e4 3c
       -0.01667595 0.02344741 0.10879171 0.027833879
0001a0 58 46 00 3d f2 ef e3 bd 50 65 e0 3c f4 4b b5 bd
       0.031317085 -0.1112975 0.02739206 -0.088523775
0001b0 00 2a c7 3a f0 24 32 3d 40 ef 69 3c 98 cb 13 3d
       0.0015195012 0.043492258 0.014278233 0.036082834
0001c0 00 63 b9 bc d0 16 ac bc f8 a6 28 bd 00 5c 35 3b
       -0.022630215 -0.021006972 -0.04117486 0.0027673244
0001d0 60 ff f9 bc c0 63 73 bc 80 61 6c bd 50 d4 fd bc
       -0.03051728 -0.014855325 -0.05771017 -0.030985028
0001e0 50 e2 5d bd 68 5a 01 3d 70 4a e4 3c a0 94 99 bc
       -0.054170907 0.03158036 0.027867526 -0.018747628
0001f0 d0 d5 a4 bc 20 74 96 3c 00 d9 76 3b b0 ef 00 3d
       -0.020121485 0.01836592 0.0037665963 0.031478584
000200 a0 cb 20 3c 10 3b e5 3c e0 b6 78 bc 80 e9 93 bc
       0.009814173 0.027982265 -0.01518032 -0.018055677
000210 20 b0 40 bc 70 cf cc bc b0 32 a0 3c 80 0b ec 3d
       -0.0117607415 -0.025001258 0.01955542 0.11525631
000220 40 d5 39 3c e0 93 02 3d 48 eb ae bd b0 0c cc 3c
       0.011342347 0.031879306 -0.0854097 0.024908394
000230 2c 8f 17 be 80 5f ec 3b a0 b0 4e 3d c0 10 8b 3c
       -0.1480071 0.007213533 0.05046141 0.01697576
000240 00 1c 14 3d 20 ec a8 bc e0 44 d6 bc 38 3f 0d bd
       0.036159515 -0.020620406 -0.026155889 -0.03448412
000250 c0 f7 fa 3b 60 41 27 bd 40 65 fd bb 80 d7 58 bd
       0.0076589286 -0.04083383 -0.007733017 -0.05293989
000260 a8 3f 26 bd a8 73 69 bd 28 96 31 3d e0 c4 91 3c
       -0.04058805 -0.056995064 0.04335609 0.017794073
000270 90 cb a2 bc a0 47 9c bc 00 bd ad 3c 40 8e 9c 3b
       -0.019872457 -0.019077122 0.021208286 0.0047776997
000280 18 65 09 3d 20 6d 52 3c 80 4f d4 3c 00 a1 7b bc
       0.033543676 0.0128434 0.025916815 -0.01535821
000290 90 19 84 bc c0 71 19 bc a8 6b 1e bd e4 65 01 3d
       -0.01612547 -0.009365499 -0.038676888 0.03159131
0002a0 f4 62 cd 3d 50 7f ce 3c 90 94 e9 3c a4 f9 c9 bd
       0.100286394 0.025207192 0.028513223 -0.09862068
0002b0 30 af fd 3c 40 b8 e3 bd c0 83 c1 3b 88 b3 46 3d
       0.030967325 -0.11119127 0.0059055984 0.048511058
0002c0 00 1a 54 3c 78 5a 08 3d e0 75 67 bc 30 42 dc bc
       0.012945652 0.033289403 -0.014127225 -0.02688703
0002d0 60 8b 1c bd 80 98 98 3b d0 dd 06 bd 80 70 04 bb
       -0.038218856 0.0046568513 -0.03292638 -0.0020208657
0002e0 00 9e 70 bd 78 d3 0b bd 38 15 51 bd 60 e9 2b 3d
       -0.05874443 -0.03413722 -0.051045626 0.04197061
0002f0 30 5a dd 3c 60 57 93 bc a0 92 9a bc 90 9f a5 3c
       0.027020544 -0.017986 -0.018868744 0.020217687
000300 80 9a 85 3b 58 3b 04 3d 00 3a e4 3b 40 11 d8 3c
       0.0040772557 0.032283157 0.006964922 0.026375413
000310 a0 de 79 bc d0 4e 86 bc e0 40 98 bc 50 37 8d bc
       -0.015250832 -0.016395003 -0.018585622 -0.01723829
000320 58 b9 ba 3c 90 b1 ce 3d c0 e4 00 3d 20 a1 df 3c
       0.022793457 0.10092461 0.031468153 0.02729851
000330 84 c6 f9 bd 00 f0 cc b9 74 69 e7 bd 80 36 87 3b
       -0.12196067 -0.00039088726 -0.112994105 0.00412637
000340 28 fb 3c 3d 10 4f 83 3c 50 f9 0a 3d 30 b2 a4 bc
       0.04613796 0.01602891 0.03392917 -0.020104498
000350 e0 bb f8 bc 08 e7 05 bd 80 aa c4 3b 10 e1 13 bd
       -0.030363023 -0.03269103 0.0060017705 -0.03610331
000360 00 13 34 bb 78 b7 6f bd e8 19 13 bd e8 13 5f bd
       -0.0027477145 -0.05852458 -0.035913378 -0.054462343
000370 70 64 de 3c c0 50 05 3d 20 e1 82 bc 90 ea a4 bc
       0.027147502 0.032547712 -0.015976489 -0.02013138
000380 80 14 b0 3c c0 72 d3 3b 10 bf 18 3d 00 3a 58 3c
       0.02149415 0.0064528883 0.037291586 0.013197422
000390 40 a7 ee 3c e0 42 6c bc b0 75 8c bc 78 4a 1e bd
       0.029132485 -0.014420241 -0.017145962 -0.038645238
0003a0 c0 ab 12 bd 80 f7 52 3b ec 7c cb 3d 60 25 a8 3c
       -0.035808325 0.0032190979 0.09935936 0.020525634
0003b0 70 8e 9d 3c d0 39 86 bd a6 98 ad 3d 10 94 a2 bd
       0.019232959 -0.065539956 0.08476381 -0.07938397
0003c0 c0 e6 1d 3c d8 10 3d 3d f0 15 a1 3c 98 52 17 3d
       0.009637535 0.04615864 0.01966378 0.036944002
0003d0 60 fb 96 bc 70 34 b4 bc c8 49 05 bd a0 d2 0a 3c
       -0.018430412 -0.02199766 -0.032541066 0.0084730685
0003e0 10 9a fa bc 20 88 5a bc 18 e2 6c bd 98 9a 0d bd
       -0.03059104 -0.013338119 -0.057832807 -0.03457126
0003f0 08 f4 53 bd b0 1e 2f 3d b0 67 e5 3c b0 48 90 bc
       -0.0517464 0.042753875 0.028003544 -0.017612785

quadA f4 [176, 3, 3]
000000 48 c3 fb bc 00 60 82 38 e8 aa a1 bc 00 60 82 38
       -0.030732766 6.2167645e-05 -0.019734815 6.2167645e-05
000010 80 6c 9a 3c 80 ee d7 bc e8 aa a1 bc 80 ee d7 bc
       0.018850565 -0.026358843 -0.019734815 -0.026358843
000020 90 ad 42 3c 58 39 fe 3c 88 8a 21 bd 4e b5 ac 3d
       0.011882201 0.031033203 -0.039438754 0.084330186
000030 88 8a 21 bd 48 b0 c4 bc 20 dc 85 3c 4e b5 ac 3d
       -0.039438754 -0.024009839 0.016340315 0.084330186
000040 20 dc 85 3c 40 24 e6 bb 5c a8 20 bd 00 65 12 3c
       0.016340315 -0.0070233643 -0.03922306 0.008935213
000050 18 f6 47 bd 00 65 12 3c c8 4a 07 3d 60 7d a0 bb
       -0.048818678 0.008935213 0.0330303 -0.0048977584
000060 18 f6 47 bd 60 7d a0 bb a0 ec ca 3b eb 98 38 bb
       -0.048818678 -0.0048977584 0.0061927587 -0.0028167318
000070 00 3c 75 39 c0 fa 3b bb 00 3c 75 39 a8 dc f0 39
       0.00023387372 -0.0028683394 0.00023387372 0.0004594077
000080 20 3b f9 bb c0 fa 3b bb 20 3b f9 bb 55 7d 1a 3b
       -0.007605925 -0.0028683394 -0.007605925 0.002357324
000090 eb fe 00 bc a0 ca aa 3b 00 73 97 ba a0 ca aa 3b
       -0.007873277 0.005212143 -0.0011554658 0.005212143
0000a0 54 34 32 3a 40 c8 fd bb 00 73 97 ba 40 c8 fd bb
       0.00067979586 -0.007744819 -0.0011554658 -0.007744819
0000b0 4a b7 eb 3b d5 6d 80 ba 80 0c b2 3b 00 63 fa bb
       0.0071934806 -0.0009798357 0.005433619 -0.0076411963
0000c0 80 0c b2 3b eb a5 91 3b 00 59 74 ba 00 63 fa bb
       0.005433619 0.004444828 -0.00093211234 -0.0076411963
0000d0 00 59 74 ba eb 14 63 bb 00 42 7e bb 00 c1 c0 3a
       -0.00093211234 -0.003464992 -0.0038796663 0.0014705956
0000e0 a0 b5 d0 3b 00 c1 c0 3a 80 8b f7 ba 40 82 61 bb
       0.0063693076 0.0014705956 -0.0018886179 -0.003440991
0000f0 a0 b5 d0 3b 40 82 61 bb e0 03 bd 3b 55 e7 fd ba
       0.0063693076 -0.003440991 0.005768284 -0.001937131
000100 80 4c d1 3a 10 66 05 3c 80 4c d1 3a aa 29 0b bb
       0.0015968233 0.008142009 0.0015968233 -0.002123455
000110 00 5e e3 bb 10 66 05 3c 00 5e e3 bb ab 0e 85 3b
       -0.006938696 0.008142009 -0.006938696 0.0040605864
000120 ab 3f ad 3b 00 05 6a 3b 40 89 1e 3b 00 05 6a 3b
       0.005287131 0.0035708547 0.0024190694 0.0035708547
000130 2a 00 18 bb 00 b6 59 3a 40 89 1e 3b 00 b6 59 3a
       -0.0023193457 0.0008305013 0.0024190694 0.0008305013
000140 2a 7f 42 bb d5 55 aa 3a 40 11 b8 bb 80 c1 16 3b
       -0.0029677846 0.0012995551 -0.0056172907 0.0023003519
000150 40 11 b8 bb 16 9b 3c bb e0 b9 ae bb 80 c1 16 3b
       -0.0056172907 -0.0028778962 -0.0053322166 0.0023003519
000160 e0 b9 ae bb 55 e0 ce 3a 95 e7 0e bb 00 5a 06 3a
       -0.0053322166 0.0015783409 -0.0021805514 0.00051251054
000170 40 47 14 3b 00 5a 06 3a aa 8d d5 ba 80 40 c3 3a
       0.0022625476 0.00051251054 -0.001629283 0.0014896542
000180 40 47 14 3b 80 40 c3 3a 6b ae 79 3b 10 83 c7 bc
       0.0022625476 0.0014896542 0.0038098346 -0.024354488
000190 d0 d9 e7 bc f0 2e 48 3c d0 d9 e7 bc 60 71 01 bc
       -0.028302103 0.012218222 -0.028302103 -0.007900566
0001a0 40 2e 37 3c f0 2e 48 3c 40 2e 37 3c e0 1d 04 3d
       0.01118046 0.012218222 0.01118046 0.032255054
0001b0 fc 6d 48 bc f0 95 25 bd 60 bf 93 3c f0 95 25 bd
       -0.012233254 -0.040426195 0.01803559 -0.040426195
0001c0 e8 da b2 3b 48 89 ea 3c 60 bf 93 3c 48 89 ea 3c
       0.0054582246 0.028629914 0.01803559 0.028629914
0001d0 08 01 de 3b d4 6b 4c bd 30 f6 19 3c 36 f7 88 bd
       0.0067750253 -0.04990752 0.009397075 -0.06687777
0001e0 30 f6 19 3c a8 f2 4c 3d 00 fe 0c 3c 36 f7 88 bd
       0.009397075 0.050036103 0.00860548 -0.06687777
0001f0 00 fe 0c 3c 00 d4 06 b9 20 40 88 bb 80 ec b3 3a
       0.00860548 -0.00012858212 -0.004158035 0.0013727099
000200 40 ed 9c bb 80 ec b3 3a 00 f1 2c 3a 20 a8 18 bc
       -0.0047890246 0.0013727099 0.0006597191 -0.009317428
000210 40 ed 9c bb 20 a8 18 bc 00 44 65 3b 1b cd 25 bc
       -0.0047890246 -0.009317428 0.0034983158 -0.010119702
000220 40 7d d6 3b 00 b1 7d ba 40 7d d6 3b 54 ca 16 3a
       0.0065456927 -0.0009677559 0.0065456927 0.0005752195
000230 80 89 09 bc 00 b1 7d ba 80 89 09 bc 75 60 1c 3c
       -0.008394599 -0.0009677559 -0.008394599 0.0095444815
000240 80 c9 f7 ba 00 a5 69 3b 20 c5 c8 bb 00 a5 69 3b
       -0.0018904656 0.0035651326 -0.0061270148 0.0035651326
000250 00 62 8f 3a c0 74 32 bb 20 c5 c8 bb c0 74 32 bb
       0.001093924 -0.0027230233 -0.0061270148 -0.0027230233
000260 00 cf 50 3a f6 60 a7 3b 00 ba 2f ba 20 27 96 3b
       0.0007965416 0.005107994 -0.00067034364 0.004582301
000270 00 ba 2f ba 55 99 51 bc 80 bc bf bb 20 27 96 3b
       -0.00067034364 -0.012792905 -0.0058513284 0.004582301
000280 80 bc bf bb b6 d1 fb 3b d6 0f cb ba 80 0b 0d bb
       -0.0058513284 0.0076849116 -0.001549239 -0.0021521747
000290 c0 65 b9 3b 80 0b 0d bb d6 4f be ba c0 44 4f bb
       0.0056578815 -0.0021521747 -0.0014519643 -0.0031626672
0002a0 c0 65 b9 3b c0 44 4f bb d5 af 44 3b 0b 8d 28 3c
       0.0056578815 -0.0031626672 0.003001203 0.0102875335
0002b0 00 00 4e b6 60 e2 f3 3b 00 00 4e b6 95 20 3e bb
       -3.0696392e-06 0.0074427575 -3.0696392e-06 -0.002901112
0002c0 a0 34 e8 3b 60 e2 f3 3b a0 34 e8 3b cb 09 f2 bb
       0.0070863515 0.0074427575 0.0070863515 -0.0073864213
0002d0 80 40 19 3b c0 b6 d5 bb 00 92 76 3a c0 b6 d5 bb
       0.0023384392 -0.0065220296 0.0009405911 -0.0065220296
0002e0 c0 49 6b bb 90 a0 0e bc 00 92 76 3a 90 a0 0e bc
       -0.0035902113 -0.008705273 0.0009405911 -0.008705273
0002f0 80 12 a4 3a 4b 44 d9 bb 80 9d 8b 3b d0 9a 08 3c
       0.001251772 -0.0066304556 0.004260719 0.008337691
000300 80 9d 8b 3b aa 92 d4 b8 80 a8 d6 ba d0 9a 08 3c
       0.004260719 -0.00010136266 -0.0016377121 0.008337691
000310 80 a8 d6 ba 95 96 dc 3b 58 a9 03 bd 00 60 63 ba
       -0.0016377121 0.006731818 -0.03214392 -0.0008673668
000320 68 18 c2 bc 00 60 63 ba a0 6a 1f 3c 80 59 c6 ba
       -0.023693278 -0.0008673668 0.009730011 -0.0015132874
000330 68 18 c2 bc 80 59 c6 ba 60 9d b7 3c 15 4f af 3c
       -0.023693278 -0.0015132874 0.02241391 0.021400014
000340 38 fe 15 bd 60 45 b4 3d 38 fe 15 bd a6 a6 37 bd
       -0.036619395 0.08802295 -0.036619395 -0.044836663
000350 50 95 38 3c 60 45 b4 3d 50 95 38 3c 35 fe bf 3c
       0.011266068 0.08802295 0.011266068 0.023436645
000360 bd 42 14 bd 20 2a d3 3b 2a 18 86 bd 20 2a d3 3b
       -0.03619646 0.0064442307 -0.06547578 0.0064442307
000370 0b 1d 39 3d a0 15 85 3b 2a 18 86 bd a0 15 85 3b
       0.045193713 0.004061416 -0.06547578 0.004061416
000380 34 69 13 bc 2a 51 a5 ba 00 2c 02 39 e0 32 b6 bb
       -0.00899725 -0.001261269 0.00012414157 -0.005560264
000390 00 2c 02 39 2a f5 8e ba 40 ce 27 bc e0 32 b6 bb
       0.00012414157 -0.0010906805 -0.010242045 -0.005560264
0003a0 40 ce 27 bc 2b 23 1a 3b b5 8d 0d bc 60 73 0c 3c
       -0.010242045 0.0023519497 -0.008639743 0.008572429
0003b0 40 e6 83 bb 60 73 0c 3c 58 5f 8d 39 00 d6 98 bb
       -0.0040252507 0.008572429 0.00026964652 -0.0046641827
0003c0 40 e6 83 bb 00 d6 98 bb bb 22 09 3c d6 d7 d9 3a
       -0.0040252507 -0.0046641827 0.008370097 0.001662011
0003d0 40 3d 65 3b 40 39 2f bb 40 3d 65 3b 40 55 47 b8
       0.0034979135 -0.0026737005 0.0034979135 -4.7524692e-05
0003e0 00 38 8f ba 40 39 2f bb 00 38 8f ba 2a 9d d3 ba
       -0.0010926723 -0.0026737005 -0.0010926723 -0.0016144861
0003f0 00 e0 83 ba 80 75 f2 ba c0 b7 c1 3b 80 75 f2 ba
       -0.0010061264 -0.0018498152 0.0059117973 -0.0018498152

hfvrA f4 [176, 1]
000000 b9 44 8b 3f a6 0b 62 3f cd 2e 91 3f 58 fe 8d 3e
       1.0880347 0.88299024 1.1342407 0.2773311
000010 c2 4e 8e 3e 50 4d aa 3e da 55 87 3e fe 9b aa 3e
       0.27794462 0.3326211 0.26432687 0.33322138
000020 30 7c 00 3e c4 2d 27 3e 7c 9e 1a 3e 45 38 8b 3f
       0.12547374 0.16326052 0.1509952 1.0876547
000030 67 a3 67 3f 69 83 90 3f be 19 83 3e 06 82 a5 3e
       0.9048371 1.1290103 0.25605577 0.32325763
000040 ba 32 aa 3e 6a f0 bd 3e 4e cd 9e 3e f4 c3 27 3e
       0.33241826 0.37097484 0.3101601 0.16383344
000050 24 e1 39 3e 5c a3 0a 3e 14 92 88 3f f8 59 5d 3f
       0.1815229 0.13538879 1.066958 0.86465406
000060 1e 34 91 3f 6c f0 a1 3e 2e 6c ba 3e 0c 95 73 3e
       1.134403 0.3162874 0.3641066 0.23787326
000070 de 52 99 3e 32 0a 9a 3e 1c 00 14 3e cc 9f 11 3e
       0.29946035 0.30085903 0.14453167 0.14221114
000080 38 41 16 3e a0 19 88 3f c2 b0 61 3f 6c 58 92 3f
       0.14673316 1.063282 0.88160336 1.1433234
000090 0e 3a 91 3e 0c 97 a6 3e fe 48 9a 3e 02 39 9d 3e
       0.28364605 0.32537115 0.30133814 0.30707556
0000a0 18 33 a8 3e 88 b0 f2 3d f4 a8 0f 3e 0c 47 2f 3e
       0.3285148 0.11850077 0.14029294 0.17116946
0000b0 61 8d 8a 3f a6 fc 5e 3f b4 e8 90 3f ec 67 a6 3e
       1.0824395 0.8710426 1.1321015 0.3250116
0000c0 a0 b5 8e 3e 7c 1c 93 3e 1c 8a 93 3e fe 8b a2 3e
       0.27872944 0.2873267 0.28816307 0.3174743
0000d0 ac 78 27 3e bc 99 25 3e 6c 6a 12 3e 20 f0 89 3f
       0.16354626 0.16171926 0.14298409 1.0776405
0000e0 46 46 5d 3f ef ba 92 3f c8 07 af 3e 6e ad 83 3e
       0.86435354 1.1463298 0.34185624 0.25718254
0000f0 ec 1b a9 3e 38 c8 96 3e 20 5e 9f 3e 9c 05 14 3e
       0.33029115 0.2944963 0.311265 0.14455265
000100 20 94 23 3e c8 d6 25 3e 5f d7 87 3f 21 3e 62 3f
       0.15974474 0.16195214 1.0612601 0.8837605
000110 e3 c7 8f 3f ae df 9e 3e aa e3 9b 3e c8 72 90 3e
       1.1232876 0.3103003 0.3044713 0.2821257
000120 0a 75 b5 3e 18 12 9a 3e f0 14 ef 3d d0 62 3c 3e
       0.35440856 0.3009193 0.116739154 0.18397069
000130 cc 11 24 3e eb 22 87 3f 43 8c 62 3f 1e 94 92 3f
       0.16022414 1.0557531 0.8849527 1.1451452
000140 84 81 bd 3e ba a8 a2 3e fc 14 59 3e ce 08 8f 3e
       0.37012875 0.31769353 0.21199411 0.27936405
000150 fe 27 b5 3e f4 e3 11 3e c0 99 a8 3d fc a7 24 3e
       0.35382074 0.14247113 0.082324505 0.16079706
000160 a9 f2 88 3f f6 ba 56 3f a9 9f 90 3f fa b9 a2 3e
       1.0699054 0.8387903 1.1298724 0.31782514
000170 5e 1b a2 3e 1e 7f 8e 3e 34 e7 9b 3e f4 32 94 3e
       0.31661505 0.27831358 0.3044983 0.28945124
000180 88 0f ea 3d a0 0c 37 3e e0 5b 15 3e 21 57 89 3f
       0.114287436 0.1787591 0.14585829 1.0729715
000190 88 40 5c 3f 2f cb 91 3f c2 b4 a9 3e 8a ef 99 3e
       0.86035967 1.1390132 0.3314572 0.30065566
0001a0 20 15 97 3e e2 be ab 3e a8 34 8d 3e cc a7 17 3e
       0.29508305 0.3354407 0.27579236 0.14810103
0001b0 1c e8 27 3e 28 0d ec 3d 59 79 89 3f 14 ca 68 3f
       0.16397136 0.11525947 1.0740157 0.90933347
0001c0 fe 14 92 3f ca d9 a9 3e 76 65 ac 3e 56 e1 8a 3e
       1.1412656 0.33173972 0.3367116 0.27125043
0001d0 28 9c ad 3e e4 3c ad 3e 78 7a 1a 3e 9c 58 08 3e
       0.339082 0.33835518 0.1508578 0.13315052
0001e0 6c b7 0b 3e e5 a5 88 3f 91 f5 5c 3f 44 51 95 3f
       0.13644189 1.0675627 0.86312205 1.1665425
0001f0 68 52 ae 3e 02 25 aa 3e 48 02 6f 3e 46 58 ab 3e
       0.34047246 0.3323136 0.23340714 0.33465785
000200 ae 5e 9a 3e 7c c3 25 3e 5c 42 4f 3e 34 ea 39 3e
       0.3015036 0.16187853 0.20240158 0.18155748
000210 38 d3 86 3f 8f de 65 3f 30 58 92 3f dc 04 80 3e
       1.0533209 0.8979272 1.1433163 0.25003707
000220 e2 df 98 3e 26 3b a3 3e d2 4e 9a 3e 2e 82 a7 3e
       0.2985831 0.31881064 0.3013826 0.32716507
000230 78 29 ea 3d b4 82 04 3e d8 c3 22 3e bd db 8a 3f
       0.11433691 0.12940484 0.15895021 1.0848309
000240 4d 97 62 3f 89 ba 91 3f e4 a6 83 3e 56 b3 9c 3e
       0.88512117 1.1385051 0.25713265 0.30605572
000250 ee d0 97 3e 62 80 9a 3e 1c a3 99 3e f0 e1 23 3e
       0.29651588 0.30176073 0.30007255 0.16004157
000260 d0 21 0c 3e 48 23 00 3e 97 63 87 3f 23 13 64 3f
       0.13684773 0.12513459 1.0577267 0.890917
000270 c4 c2 90 3f 7e 37 91 3e 74 24 b0 3e ec 69 75 3e
       1.1309438 0.2836265 0.34402812 0.23966187
000280 12 75 a5 3e c2 bb a6 3e b0 a6 28 3e 20 7a 16 3e
       0.3231588 0.32565123 0.16469836 0.14695024
000290 9c c6 10 3e 8c 11 8a 3f 42 81 61 3f e1 90 90 3f
       0.14138263 1.0786605 0.88087857 1.1294214
0002a0 24 d6 9c 3e b0 45 a2 3e ba 2d 86 3e 20 ea 99 3e
       0.30632126 0.31693792 0.26206762 0.30061436
0002b0 10 cf a5 3e e4 19 16 3e cc d6 33 3e b4 9b 18 3e
       0.3238454 0.14658314 0.17562407 0.14903146

vwA f4 [176, 1]
000000 f1 ee 04 3f f7 28 ff 3e d6 15 e7 3e 10 ab bc 3e
       0.51927096 0.4983594 0.45133847 0.3684926
000010 d0 cb ba 3e c5 f4 c5 3e 14 3a b6 3e 33 6a c3 3e
       0.36483622 0.38663307 0.35591185 0.3816696
000020 a0 58 a6 3e 3a cc b0 3e 5a 6f ac 3e 81 b1 04 3f
       0.3248949 0.34530813 0.33678705 0.5183335
000030 26 70 00 3f 22 88 e5 3e 7d 36 b7 3e 3f 52 c4 3e
       0.50171125 0.44830424 0.3578376 0.38344
000040 43 2b c6 3e 52 cc c8 3e 9b 37 c0 3e 3b d9 b1 3e
       0.3870488 0.39218384 0.37542424 0.34736046
000050 5d a1 b4 3e 72 ff a6 3e 1e 23 04 3f 53 9a fe 3e
       0.3527936 0.32616764 0.51616085 0.49727115
000060 c3 b2 e7 3e 2c 33 c3 3e 6f ad cb 3e 51 e3 b5 3e
       0.45253572 0.3812498 0.39780757 0.3552499
000070 9a 51 be 3e b8 4f be 3e f4 35 ac 3e fe ae a8 3e
       0.37171632 0.37170196 0.33634913 0.32946008
000080 2c 6b aa 3e ec 17 04 3f 17 10 fe 3e 0c 0d e8 3e
       0.3328489 0.51599 0.4962165 0.45322454
000090 f1 e4 bb 3e 52 5d c4 3e a3 bc c0 3e 5b 77 c0 3e
       0.36698106 0.38352448 0.37643918 0.3759106
0000a0 58 bf c3 3e 5e f9 a1 3e 7a 77 a7 3e a5 e5 b1 3e
       0.3823192 0.31635565 0.3270834 0.34745517
0000b0 89 b4 04 3f e7 b1 fe 3e 61 b4 e6 3e f9 14 c4 3e
       0.51837975 0.49745104 0.45059493 0.3829725
0000c0 f0 20 bb 3e 53 b1 bf 3e 12 b1 bb 3e 67 49 c1 3e
       0.36548567 0.37439975 0.3665853 0.37751314
0000d0 dc 8b b1 3e 94 67 ae 3e 09 b7 a9 3e 7a bc 04 3f
       0.34677017 0.340634 0.33147457 0.5185009
0000e0 70 2e fd 3e 43 15 e9 3e a1 99 c7 3e 08 ad b8 3e
       0.49449492 0.45524034 0.38984397 0.36069512
0000f0 db 43 c6 3e c7 01 bc 3e fe eb bf 3e e2 9b a9 3e
       0.38723645 0.36720106 0.37484735 0.33126742
000100 09 71 ae 3e a1 68 ae 3e 67 0a 04 3f e6 61 ff 3e
       0.34070614 0.340642 0.5157837 0.49879378
000110 94 55 e7 3e c1 b7 c0 3e c6 14 c0 3e 57 65 be 3e
       0.45182478 0.37640193 0.3751585 0.3718669
000120 76 4f c7 3e 77 60 be 3e 99 6c a2 3e bc 7e b5 3e
       0.3892781 0.37182972 0.31723478 0.35448253
000130 04 99 ae 3e 58 6b 03 3f b6 da fe 3e 25 54 e6 3e
       0.34101117 0.5133567 0.49776238 0.44986072
000140 23 8f cc 3e b1 b6 c1 3e 2c 0b b0 3e b5 3a ba 3e
       0.39952955 0.37834695 0.34383523 0.36372915
000150 47 c5 c6 3e 98 c0 ab 3e 20 6f 94 3e 6a d9 ae 3e
       0.38822386 0.33545375 0.28991032 0.3415025
000160 59 b9 04 3f a0 35 fc 3e 84 d8 e7 3e 2b cb c2 3e
       0.5184532 0.49259663 0.45282376 0.3804563
000170 1e ce c2 3e 1e 3f bd 3e 20 14 be 3e 46 a7 bb 3e
       0.3804788 0.36962217 0.3712473 0.36651057
000180 62 98 a1 3e f2 17 b3 3e e0 ec aa 3e 3d c7 04 3f
       0.3156157 0.34979206 0.33383846 0.51866513
000190 a6 f7 fc 3e 9a 2e e7 3e 1f 12 c5 3e da 3d c0 3e
       0.4940769 0.45152742 0.38490388 0.3754719
0001a0 27 29 c1 3e ad 6b c3 3e 6c 9e b9 3e d3 b4 ac 3e
       0.3772671 0.38168088 0.3625368 0.33731708
0001b0 39 22 b0 3e c0 d5 9e 3e 9a b0 04 3f e1 32 00 3f
       0.3440111 0.31022453 0.5183197 0.50077635
0001c0 41 6f e6 3e 70 72 c5 3e ba f3 c6 3e c9 9b bc 3e
       0.45006755 0.3856387 0.38857824 0.36837605
0001d0 b5 9a c5 3e 6a ab c5 3e 9d 8e ad 3e d5 1a a7 3e
       0.38594595 0.3860734 0.33897868 0.3263766
0001e0 a3 04 a8 3e f3 11 04 3f 28 4a fe 3e 46 65 e9 3e
       0.32816038 0.5158989 0.49665952 0.45585078
0001f0 dd 5a c6 3e a6 cc c4 3e e8 10 b5 3e 0c 70 c1 3e
       0.38741198 0.38437384 0.3536446 0.37780797
000200 3d 4b bc 3e 5b ce ac 3e 4a 3d b6 3e 54 6f b3 3e
       0.36776152 0.33751187 0.35593635 0.35045874
000210 2e 25 03 3f f5 56 00 3f 18 13 e5 3e 3a 99 b5 3e
       0.51228607 0.50132686 0.4474113 0.35468465
000220 0e 37 be 3e ed 77 c3 3e 0f 7e bf 3e 65 ce c2 3e
       0.37151378 0.38177434 0.37400863 0.38048092
000230 ed fb 9e 3e 24 e7 a2 3e 86 2a af 3e 08 ba 04 3f
       0.3105158 0.3181697 0.3421213 0.5184636
000240 c0 07 ff 3e 4d f4 e4 3e 76 20 b8 3e a3 4d c0 3e
       0.498106 0.44717637 0.35962266 0.37559232
000250 83 00 c1 3e 27 a4 be 3e 18 ea bd 3e 69 aa ad 3e
       0.37695703 0.37234613 0.37092662 0.33919075
000260 08 d0 a5 3e 69 67 9f 3e 9a c2 03 3f a2 4c ff 3e
       0.32385278 0.31133583 0.51468813 0.49863154
000270 91 cb e6 3e 05 69 bd 3e f9 dd c7 3e dc a3 b7 3e
       0.45077184 0.36994186 0.3903654 0.35867202
000280 ca 3f c1 3e 74 55 c1 3e 5d 65 b0 3e 62 e8 aa 3e
       0.3774398 0.37760508 0.34452334 0.3338042
000290 f2 b3 a8 3e 54 bd 04 3f 1d 02 ff 3e be 85 e7 3e
       0.32949787 0.5185139 0.498063 0.45219225
0002a0 0a 9e c0 3e e7 57 c2 3e a8 4b bb 3e 7d 38 be 3e
       0.37620574 0.3795769 0.3658116 0.37152472
0002b0 b2 af c2 3e 10 99 ab 3e cc 5b b3 3e 40 10 ab 3e
       0.3802467 0.33515215 0.35030973 0.33410835

alpha_0_A f4 [2816]
000000 aa 30 3b 41 aa 30 3b 41 4c 04 e8 40 1e f9 8f 40
       11.699381 11.699381 7.2505245 4.49916
000010 1e f9 8f 40 1e f9 8f 40 1e f9 8f 40 1e f9 8f 40
       4.49916 4.49916 4.49916 4.49916
000020 1e f9 8f 40 1e f9 8f 40 1e f9 8f 40 aa 30 3b 41
       4.49916 4.49916 4.49916 11.699381
000030 aa 30 3b 41 4c 04 e8 40 1e f9 8f 40 1e f9 8f 40
       11.699381 7.2505245 4.49916 4.49916
000040 1e f9 8f 40 1e f9 8f 40 1e f9 8f 40 1e f9 8f 40
       4.49916 4.49916 4.49916 4.49916
000050 1e f9 8f 40 1e f9 8f 40 aa 30 3b 41 aa 30 3b 41
       4.49916 4.49916 11.699381 11.699381
000060 4c 04 e8 40 1e f9 8f 40 1e f9 8f 40 1e f9 8f 40
       7.2505245 4.49916 4.49916 4.49916
000070 1e f9 8f 40 1e f9 8f 40 1e f9 8f 40 1e f9 8f 40
       4.49916 4.49916 4.49916 4.49916
000080 1e f9 8f 40 aa 30 3b 41 aa 30 3b 41 4c 04 e8 40
       4.49916 11.699381 11.699381 7.2505245
000090 1e f9 8f 40 1e f9 8f 40 1e f9 8f 40 1e f9 8f 40
       4.49916 4.49916 4.49916 4.49916
0000a0 1e f9 8f 40 1e f9 8f 40 1e f9 8f 40 1e f9 8f 40
       4.49916 4.49916 4.49916 4.49916
0000b0 aa 30 3b 41 aa 30 3b 41 4c 04 e8 40 1e f9 8f 40
       11.699381 11.699381 7.2505245 4.49916
0000c0 1e f9 8f 40 1e f9 8f 40 1e f9 8f 40 1e f9 8f 40
       4.49916 4.49916 4.49916 4.49916
0000d0 1e f9 8f 40 1e f9 8f 40 1e f9 8f 40 aa 30 3b 41
       4.49916 4.49916 4.49916 11.699381
0000e0 aa 30 3b 41 4c 04 e8 40 1e f9 8f 40 1e f9 8f 40
       11.699381 7.2505245 4.49916 4.49916
0000f0 1e f9 8f 40 1e f9 8f 40 1e f9 8f 40 1e f9 8f 40
       4.49916 4.49916 4.49916 4.49916
000100 1e f9 8f 40 1e f9 8f 40 aa 30 3b 41 aa 30 3b 41
       4.49916 4.49916 11.699381 11.699381
000110 4c 04 e8 40 1e f9 8f 40 1e f9 8f 40 1e f9 8f 40
       7.2505245 4.49916 4.49916 4.49916
000120 1e f9 8f 40 1e f9 8f 40 1e f9 8f 40 1e f9 8f 40
       4.49916 4.49916 4.49916 4.49916
000130 1e f9 8f 40 aa 30 3b 41 aa 30 3b 41 4c 04 e8 40
       4.49916 11.699381 11.699381 7.2505245
000140 1e f9 8f 40 1e f9 8f 40 1e f9 8f 40 1e f9 8f 40
       4.49916 4.49916 4.49916 4.49916
000150 1e f9 8f 40 1e f9 8f 40 1e f9 8f 40 1e f9 8f 40
       4.49916 4.49916 4.49916 4.49916
000160 aa 30 3b 41 aa 30 3b 41 4c 04 e8 40 1e f9 8f 40
       11.699381 11.699381 7.2505245 4.49916
000170 1e f9 8f 40 1e f9 8f 40 1e f9 8f 40 1e f9 8f 40
       4.49916 4.49916 4.49916 4.49916
000180 1e f9 8f 40 1e f9 8f 40 1e f9 8f 40 aa 30 3b 41
       4.49916 4.49916 4.49916 11.699381
000190 aa 30 3b 41 4c 04 e8 40 1e f9 8f 40 1e f9 8f 40
       11.699381 7.2505245 4.49916 4.49916
0001a0 1e f9 8f 40 1e f9 8f 40 1e f9 8f 40 1e f9 8f 40
       4.49916 4.49916 4.49916 4.49916
0001b0 1e f9 8f 40 1e f9 8f 40 aa 30 3b 41 aa 30 3b 41
       4.49916 4.49916 11.699381 11.699381
0001c0 4c 04 e8 40 1e f9 8f 40 1e f9 8f 40 1e f9 8f 40
       7.2505245 4.49916 4.49916 4.49916
0001d0 1e f9 8f 40 1e f9 8f 40 1e f9 8f 40 1e f9 8f 40
       4.49916 4.49916 4.49916 4.49916
0001e0 1e f9 8f 40 aa 30 3b 41 aa 30 3b 41 4c 04 e8 40
       4.49916 11.699381 11.699381 7.2505245
0001f0 1e f9 8f 40 1e f9 8f 40 1e f9 8f 40 1e f9 8f 40
       4.49916 4.49916 4.49916 4.49916
000200 1e f9 8f 40 1e f9 8f 40 1e f9 8f 40 1e f9 8f 40
       4.49916 4.49916 4.49916 4.49916
000210 aa 30 3b 41 aa 30 3b 41 4c 04 e8 40 1e f9 8f 40
       11.699381 11.699381 7.2505245 4.49916
000220 1e f9 8f 40 1e f9 8f 40 1e f9 8f 40 1e f9 8f 40
       4.49916 4.49916 4.49916 4.49916
000230 1e f9 8f 40 1e f9 8f 40 1e f9 8f 40 aa 30 3b 41
       4.49916 4.49916 4.49916 11.699381
000240 aa 30 3b 41 4c 04 e8 40 1e f9 8f 40 1e f9 8f 40
       11.699381 7.2505245 4.49916 4.49916
000250 1e f9 8f 40 1e f9 8f 40 1e f9 8f 40 1e f9 8f 40
       4.49916 4.49916 4.49916 4.49916
000260 1e f9 8f 40 1e f9 8f 40 aa 30 3b 41 aa 30 3b 41
       4.49916 4.49916 11.699381 11.699381
000270 4c 04 e8 40 1e f9 8f 40 1e f9 8f 40 1e f9 8f 40
       7.2505245 4.49916 4.49916 4.49916
000280 1e f9 8f 40 1e f9 8f 40 1e f9 8f 40 1e f9 8f 40
       4.49916 4.49916 4.49916 4.49916
000290 1e f9 8f 40 aa 30 3b 41 aa 30 3b 41 4c 04 e8 40
       4.49916 11.699381 11.699381 7.2505245
0002a0 1e f9 8f 40 1e f9 8f 40 1e f9 8f 40 1e f9 8f 40
       4.49916 4.49916 4.49916 4.49916
0002b0 1e f9 8f 40 1e f9 8f 40 1e f9 8f 40 1e f9 8f 40
       4.49916 4.49916 4.49916 4.49916
0002c0 aa 30 3b 41 aa 30 3b 41 4c 04 e8 40 1e f9 8f 40
       11.699381 11.699381 7.2505245 4.49916
0002d0 1e f9 8f 40 1e f9 8f 40 1e f9 8f 40 1e f9 8f 40
       4.49916 4.49916 4.49916 4.49916
0002e0 1e f9 8f 40 1e f9 8f 40 1e f9 8f 40 aa 30 3b 41
       4.49916 4.49916 4.49916 11.699381
0002f0 aa 30 3b 41 4c 04 e8 40 1e f9 8f 40 1e f9 8f 40
       11.699381 7.2505245 4.49916 4.49916
000300 1e f9 8f 40 1e f9 8f 40 1e f9 8f 40 1e f9 8f 40
       4.49916 4.49916 4.49916 4.49916
000310 1e f9 8f 40 1e f9 8f 40 aa 30 3b 41 aa 30 3b 41
       4.49916 4.49916 11.699381 11.699381
000320 4c 04 e8 40 1e f9 8f 40 1e f9 8f 40 1e f9 8f 40
       7.2505245 4.49916 4.49916 4.49916
000330 1e f9 8f 40 1e f9 8f 40 1e f9 8f 40 1e f9 8f 40
       4.49916 4.49916 4.49916 4.49916
000340 1e f9 8f 40 aa 30 3b 41 aa 30 3b 41 4c 04 e8 40
       4.49916 11.699381 11.699381 7.2505245
000350 1e f9 8f 40 1e f9 8f 40 1e f9 8f 40 1e f9 8f 40
       4.49916 4.49916 4.49916 4.49916
000360 1e f9 8f 40 1e f9 8f 40 1e f9 8f 40 1e f9 8f 40
       4.49916 4.49916 4.49916 4.49916
000370 aa 30 3b 41 aa 30 3b 41 4c 04 e8 40 1e f9 8f 40
       11.699381 11.699381 7.2505245 4.49916
000380 1e f9 8f 40 1e f9 8f 40 1e f9 8f 40 1e f9 8f 40
       4.49916 4.49916 4.49916 4.49916
000390 1e f9 8f 40 1e f9 8f 40 1e f9 8f 40 aa 30 3b 41
       4.49916 4.49916 4.49916 11.699381
0003a0 aa 30 3b 41 4c 04 e8 40 1e f9 8f 40 1e f9 8f 40
       11.699381 7.2505245 4.49916 4.49916
0003b0 1e f9 8f 40 1e f9 8f 40 1e f9 8f 40 1e f9 8f 40
       4.49916 4.49916 4.49916 4.49916
0003c0 1e f9 8f 40 1e f9 8f 40 aa 30 3b 41 aa 30 3b 41
       4.49916 4.49916 11.699381 11.699381
0003d0 4c 04 e8 40 1e f9 8f 40 1e f9 8f 40 1e f9 8f 40
       7.2505245 4.49916 4.49916 4.49916
0003e0 1e f9 8f 40 1e f9 8f 40 1e f9 8f 40 1e f9 8f 40
       4.49916 4.49916 4.49916 4.49916
0003f0 1e f9 8f 40 aa 30 3b 41 aa 30 3b 41 4c 04 e8 40
       4.49916 11.699381 11.699381 7.2505245
