tests/test_data_path/og_processed/dimer_ap3_train_spec_7_606.pt (torch, 205778 bytes, 17 tensors)

y f4 [16, 4]
-3.503517 0.0009199053 -0.47575882 -0.12741327 3.022603 0.002320374 -0.34000918 -0.16661316
3.8584578 12.825204 -3.5091429 -5.79471 -11.845131 34.30389 -8.999785 -7.371739
-4.8664064 0.021172598 -1.0032989 -0.6079561 -2.4297216 2.4419835e-06 -0.1714436 -0.0276877
-15.572342 29.334623 -5.144614 -8.495886 -1.6673744 22.143295 -4.7933254 -7.7693
-1.1719476 6.931121e-05 -0.20936559 -0.0755781 -3.1509268 0.0009668726 -0.3786693 -0.15969104
-17.519453 25.302662 -6.75077 -7.5145106 -20.426426 25.933348 -6.7996955 -11.511597
0.17588446 25.832123 -6.2628913 -10.045421 -1.2269824 31.119751 -5.732051 -9.6759815
-38.224365 61.93862 -20.459846 -13.107815 1.228136 7.304963e-06 -0.20007135 -0.03917122
00000000: 9f39 60c0 cd25 713a a996 f3be a078 02be
00000010: 5472 4140 6a11 183b af15 aebe a49c 2abe
00000020: f9f0 7640 0934 4d41 cc95 60c0 446e b9c0
00000030: a885 3dc1 2f37 0942 1fff 0fc1 49e5 ebc0
00000040: 9ab9 9bc0 2872 ad3c 196c 80bf 03a3 1bbf
00000050: 8f80 1bc0 f5e0 2336 e98e 2fbe 51d1 e2bc
00000060: 5028 79c1 4fad ea41 aea0 a4c0 26ef 07c1
00000070: 866c d5bf 7825 b141 ec62 99c0 1b9e f8c0
00000080: 6102 96bf 2c5b 9138 ef63 56be b1c8 9abd
00000090: c9a8 49c0 b975 7d3a f1e0 c1be 0c86 23be
000000a0: d727 8cc1 da6b ca41 4f06 d8c0 df76 f0c0
000000b0: 5269 a3c1 7f77 cf41 1b97 d9c0 802f 38c1
000000c0: 0e1b 343e 30a8 ce41 9b69 c8c0 0bba 20c1
000000d0: c20d 9dbf 40f5 f841 f66c b7c0 d2d0 1ac1
000000e0: c0e5 18c2 26c1 7742 c4ad a3c1 9cb9 51c1
000000f0: 8f33 9d3f 281d f536 81df 4cbe 0072 20bd

RA f4 [192, 3]
-0.387537 -1.69176 1.348853 -0.155577 -0.508349 0.453315 1.175937 -0.158915
0.018954 -1.105235 0.26875 -0.20477 0.953472 0.935336 -0.723212 -0.402046
1.167334 -0.991171 -1.44108 -1.874416 1.47348 0.063093 -1.552139 2.306477
-2.146832 0.326435 -0.211785 1.7146 1.466026 -1.132926 -0.735203 1.943829
-1.490577 0.101699 -2.658878 0.936652 -0.367399 -1.719451 1.328779 -0.177118
-0.523216 0.473492 1.165691 -0.167928 0.105478 -1.066301 0.324396 -0.206051
0.978446 0.898424 -0.726586 -0.309772 1.166442 -0.897098 -1.541426 -1.856827
1.461824 0.102643 -1.509017 2.316785 -2.165941 0.261893 -0.195006 1.73446
1.490633 -1.18241 -0.723947 1.91766 -1.463759 0.098449 -2.657634 0.913233
-0.457291 -1.709547 1.332028 -0.20268 -0.501673 0.38306 1.153027 -0.093763
0.122438 -1.028046 0.282277 -0.24412 1.021568 0.924549 -0.691664 -0.433411
1.146245 -0.926514 -1.463816 -1.904069 1.449407 0.080522 -1.556212 2.292483
-2.197832 0.278932 -0.207596 1.761425 1.502624 -1.16342 -0.788339 1.864324
-1.497914 0.032712 -2.706177 0.916946 -0.326069 -1.719205 1.276354 -0.169426
-0.55123 0.403929 1.06206 -0.171374 0.124474 -1.089915 0.258467 -0.213139
0.951571 0.928328 -0.704189 -0.338106 1.206803 -0.892197 -1.497692 -1.878955
1.493101 0.044963 -1.590685 2.302873 -2.141105 0.258118 -0.20647 1.73837
1.509355 -1.152801 -0.730017 1.929873 -1.397195 0.089089 -2.627023 0.905889
-0.377181 -1.714951 1.307875 -0.160231 -0.535771 0.41827 1.10169 -0.130216
0.084297 -1.049805 0.270246 -0.179846 1.002356 0.937754 -0.679661 -0.32758
1.203664 -0.882329 -1.448926 -1.863444 1.489579 0.120392 -1.512074 2.35123
-2.135469 0.263768 -0.215598 1.802198 1.508223 -1.187271 -0.719489 1.917896
-1.52146 0.057387 -2.574792 0.83229 -0.393168 -1.710984 1.306099 -0.153969
-0.541519 0.412904 1.100599 -0.147418 0.076372 -1.15261 0.253418 -0.150026
0.899826 0.892702 -0.672638 -0.41338 1.176781 -0.891566 -1.474381 -1.914812
1.461194 0.059576 -1.547767 2.395612 -2.148485 0.24826 -0.169011 1.736375
1.528618 -1.164959 -0.707897 1.939516 -1.473401 0.104678 -2.596144 0.90672
-0.392122 -1.714341 1.307905 -0.18412 -0.536598 0.441602 1.207341 -0.105246
0.120126 -1.131009 0.180849 -0.224048 0.971888 0.918765 -0.732204 -0.368288
1.250266 -0.84232 -1.486686 -1.95414 1.422911 0.089582 -1.573392 2.307153
-2.156641 0.292534 -0.156481 1.763795 1.516592 -1.189562 -0.729527 1.967756
-1.477659 0.066161 -2.634819 0.878472 -0.407752 -1.639959 1.285852 -0.14056
00000000: 406b c6be 978b d8bf 37a7 ac3f 944f 1fbe
00000010: 2923 02bf e718 e83e 1b85 963f 9dba 22be
00000020: 6b45 9b3c 5778 8dbf 9a99 893e 3aaf 51be
00000030: be16 743f 2e72 6f3f 6c24 39bf f9d8 cdbe
00000040: 336b 953f 62bd 7dbf 4f75 b8bf ddec efbf
00000050: fe9a bc3f e736 813d 7eac c6bf 529d 1340
00000060: b265 09c0 7d22 a73e 2bde 58be 0378 db3f
00000070: bda6 bb3f b803 91bf 4436 3cbf 64cf f83f
00000080: 3acb bebf 9147 d03d 0f2b 2ac0 6dc8 6f3f
00000090: b91b bcbe f816 dcbf 6e15 aa3f 6c5e 35be
000000a0: 7cf1 05bf 8b6d f23e 5d35 953f 51f5 2bbe
000000b0: da04 d83d 8d7c 88bf 3c17 a63e 09ff 52be
000000c0: 707b 7a3f 1eff 653f 8a01 3abf 709a 9ebe
000000d0: f94d 953f 37a8 65bf 724d c5bf 82ac edbf
000000e0: 0d1d bb3f 7e36 d23d 7827 c1bf 3546 1440
000000f0: c79e 0ac0 d716 863e a7af 47be c902 de3f
00000100: 10cd be3f 3659 97bf 9754 39bf e275 f53f
00000110: 745c bbbf a19f c93d ad16 2ac0 a3c9 693f
00000120: 0c22 eabe 70d2 dabf e57f aa3f 598b 4fbe
00000130: a46d 00bf 7120 c43e 6496 933f d106 c0bd
00000140: c6c0 fa3d 0397 83bf 9c86 903e 98fa 79be
00000150: bdc2 823f 3eaf 6c3f e410 31bf 0ce8 ddbe
00000160: 28b8 923f 0630 6dbf 535e bbbf 88b8 f3bf
00000170: 2b86 b93f b8e8 a43d f431 c7bf 0bb8 1240
00000180: 48a9 0cc0 2dd0 8e3e 0c94 54be 6076 e13f
00000190: fc55 c03f f2ea 94bf 96d0 49bf 2ba2 ee3f
000001a0: a5bb bfbf 05fd 053d 0132 2dc0 f9bc 6a3f
000001b0: 84f2 a6be e90e dcbf 915f a33f 027e 2dbe
000001c0: 691d 0dbf c8cf ce3e 95f1 873f aa7c 2fbe
000001d0: 39ec fe3d 5682 8bbf c955 843e 1c41 5abe
000001e0: 289a 733f e7a6 6d3f bb45 34bf 3b1c adbe
000001f0: 8578 9a3f 0667 64bf 5fb4 bfbf 9981 f0bf
00000200: ef1d bf3f 1f2b 383d 919b cbbf 4562 1340
00000210: dd07 09c0 0b28 843e df6c 53be e882 de3f
00000220: 8b32 c13f fc8e 93bf 65e2 3abf 1406 f73f
00000230: 49d7 b2bf 4b74 b63d 2521 28c0 57e8 673f
00000240: de1d c1be 8483 dbbf 7368 a73f 9813 24be
00000250: 4a28 09bf 7c27 d63e 2e04 8d3f 5857 05be
00000260: e8a3 ac3d 0360 86bf af5d 8a3e 8d29 38be
00000270: 344d 803f a510 703f 43fe 2dbf 91b8 a7be
00000280: a911 9a3f 50e0 61bf 6876 b9bf 5585 eebf
00000290: 86aa be3f 1590 f63d a48b c1bf 8d7a 1640
000002a0: 86ab 08c0 990c 873e b9c5 5cbe 6dae e63f
000002b0: 740d c13f 7ff8 97bf 6e30 38bf 9e7d f53f
000002c0: 34bf c2bf a20e 6b3d 64c9 24c0 f510 553f
000002d0: 514d c9be 8601 dbbf 412e a73f 0daa 1dbe
000002e0: fda0 0abf 2768 d33e 6ee0 8c3f bff4 16be
000002f0: ec68 9c3d b988 93bf 01c0 813e 6aa0 19be
00000300: ff5a 663f 1e88 643f 0132 2cbf 8ba6 d3be
00000310: c3a0 963f ab3d 64bf 84b8 bcbf 8f18 f5bf
00000320: 6808 bb3f f705 743d 3b1d c6bf b551 1940
00000330: c780 09c0 df37 7e3e 3811 2dbe 8941 de3f
00000340: c1a9 c33f 601d 95bf bd38 35bf 0f42 f83f
00000350: 6798 bcbf 6b61 d63d 3927 26c0 cd1e 683f
00000360: 37c4 c8be 876f dbbf 6e69 a73f f489 3cbe
00000370: 7d5e 09bf a819 e23e 268a 9a3f 378b d7bd
00000380: 9f04 f63d e7c4 90bf 7b30 393e d76c 65be
00000390: a7cd 783f 2f34 6b3f b971 3bbf 3f90 bcbe
000003a0: b708 a03f 49a2 57bf ba4b bebf 4221 fabf
000003b0: f321 b63f c576 b73d e964 c9bf 65a8 1340
000003c0: 6806 0ac0 04c7 953e 8e3c 20be 09c4 e13f
000003d0: b01f c23f 9143 98bf 48c2 3abf 6edf fb3f
000003e0: ee23 bdbf 6b7f 873d e0a0 28c0 8ae3 603f
000003f0: dfc4 d0be 2dea d1bf cc96 a43f f6ee 0fbe

RB f4 [160, 3]
1.156388 9.481833 -2.149771 -0.091096 7.804486 -1.185102 2.389722 10.128353
-2.682354 1.130736 8.212687 -1.680047 0.07378 10.283998 -2.072998 -0.497308
6.678304 -0.752385 -1.231912 9.278951 -1.370943 2.730083 9.510005 -3.526528
2.183381 11.060868 -2.92316 3.166058 10.023842 -1.871683 8.660361 -2.526226
-1.293401 8.383907 -0.382826 -0.817479 9.434612 -3.656106 -1.87185 9.227495
-1.251421 -1.460024 7.462082 -2.758912 -0.690317 8.587879 0.895588 -0.764055
6.91037 -1.260569 -0.12597 10.479881 -3.732634 -1.42051 8.875207 -4.605068
-1.703966 9.61109 -3.511691 -3.021047 5.519472 -1.896814 2.476348 4.387232
-2.212382 0.557173 6.608836 -2.274573 3.434289 5.307362 -2.662529 1.365116
4.708544 -0.871497 2.814987 3.892134 -2.676498 -0.44767 3.548674 -0.785075
1.548078 7.596119 -2.18309 2.933769 6.621557 -1.587344 4.312185 6.511258
-3.31197 3.811159 -1.346516 4.865966 -2.622127 -3.194952 6.000144 -3.221524
-0.650941 3.805617 -1.84061 -2.681359 4.984019 -2.46658 -0.608219 5.655111
-3.408157 -4.35377 6.435055 -3.36143 -1.859019 6.750248 -4.175108 -1.040055
2.791185 -2.149404 0.403558 3.858453 -2.064416 -0.858028 3.960474 -0.825782
-3.778322 4.775432 -3.025743 -4.16465 4.394251 -0.905924 -3.814196 4.446591
-4.491152 -4.317033 3.946962 -2.126324 -3.223112 5.942946 -2.711491 -4.561557
3.814025 0.214035 -3.343315 6.067205 -1.01957 -4.892973 4.242564 -4.763761
-3.390321 5.251941 -5.107832 -3.376687 3.45844 -4.657602 -8.686567 5.656398
-6.385466 -7.463128 4.630328 -4.759793 -9.124882 5.83104 -7.77844 -7.818939
4.658852 -6.068375 -9.032373 6.574619 -5.376324 -6.743094 3.858303 -4.180522
-8.339828 6.07993 -3.928055 -9.727052 4.999058 -8.041696 -9.76376 6.797498
-7.709669 -8.291474 6.108905 -8.448411 2.147489 5.808549 -1.881888 2.370992
4.766464 0.00649 2.461257 7.011199 -2.807508 2.797384 5.740961 -0.739932
1.264109 4.987051 -2.28883 2.75903 4.275639 1.125346 1.103778 3.792957
-1.018222 3.520125 7.02671 -2.972992 1.883786 6.911487 -3.746289 2.153811
7.911429 -2.300396 5.140213 1.363914 -1.347767 4.809758 1.56936 0.970506
5.730643 1.716297 -2.637272 5.367506 2.089051 -0.206693 4.410186 0.215275
-1.258255 4.840198 2.076358 2.0678 3.920317 0.03805 0.421114 6.819706
1.795121 -2.54628 5.466971 1.03334 -3.389305 5.377373 2.722339 -2.899876
-7.388552 2.276744 4.026376 -8.616587 0.664305 3.185947 -6.440397 3.512234
3.791964 -7.67841 1.684731 2.964238 -7.904692 2.176251 5.187866 -9.185368
00000000: 8604 943f 97b5 1741 d995 09c0 8a90 babd
00000010: 59be f940 6cb1 97bf 35f1 1840 bc0d 2241
00000020: b0ab 2bc0 f5bb 903f 2a67 0341 c80b d7bf
00000030: f819 973d 418b 2441 00ac 04c0 279f febe
00000040: abb4 d540 4e9c 40bf 4baf 9dbf 9576 1441
00000050: 0f7b afbf aeb9 2e40 fb28 1841 a2b2 61c0
00000060: 84bc 0b40 51f9 3041 0e15 3bc0 b2a0 4a40
00000070: a861 2041 4f93 efbf d790 0a41 b0ad 21c0
00000080: 2a8e a5bf 7c24 0641 c501 c4be 4e46 51bf
00000090: 2cf4 1641 a4fd 69c0 c898 efbf d2a3 1341
000000a0: 902e a0bf 11e2 babf 60c9 ee40 0492 30c0
000000b0: 9db8 30bf f467 0941 4145 653f 1c99 43bf
000000c0: c021 dd40 535a a1bf 48fe 00be 98ad 2741
000000d0: 7ae3 6ec0 46d3 b5bf d900 0e41 b85c 93c0
000000e0: 8f1b dabf 06c7 1941 8cbf 60c0 d658 41c0
000000f0: 849f b040 cdca f2bf 7c7c 1e40 3464 8c40
00000100: ab97 0dc0 e4a2 0e3f 967b d340 9b92 11c0
00000110: 64cb 5b40 e9d5 a940 e066 2ac0 1fbc ae3f
00000120: 64ac 9640 6d1a 5fbf bf28 3440 b918 7940
00000130: be4b 2bc0 0135 e5be 7a1d 6340 adfa 48bf
00000140: 6b27 c63f 6813 f340 bfb7 0bc0 dfc2 3b40
00000150: cce3 d340 172e cbbf 6bfd 8940 3a5c d040
00000160: 51f7 53c0 07ea 7340 a35a acbf feb5 9b40
00000170: eed0 27c0 187a 4cc0 2e01 c040 732d 4ec0
00000180: 12a4 26bf 3b8f 7340 1c99 ebbf 639b 2bc0
00000190: 157d 9f40 72dc 1dc0 3eb4 1bbf abf6 b440
000001a0: 3f1f 5ac0 1552 8bc0 f8eb cd40 ab21 57c0
000001b0: 56f4 edbf 0802 d840 7c9a 85c0 8620 85bf
000001c0: c6a2 3240 d68f 09c0 279f ce3e e5f0 7640
000001d0: 641f 04c0 b9a7 5bbf 6878 7d40 7366 53bf
000001e0: 07d0 71c0 57d0 9840 c6a5 41c0 d044 85c0
000001f0: b49d 8c40 a3ea 67bf ca1b 74c0 794a 8e40
00000200: 84b7 8fc0 2225 8ac0 079b 7c40 b115 08c0
00000210: 7847 4ec0 9d2c be40 1289 2dc0 46f8 91c0
00000220: fc18 7440 fe2b 5b3e dff8 55c0 8b26 c240
00000230: 4581 82bf 3c93 9cc0 16c3 8740 bb70 98c0
00000240: 05fb 58c0 e70f a840 5c73 a3c0 a41b 58c0
00000250: 1557 5d40 130b 95c0 2efc 0ac1 3601 b540
00000260: bd55 ccc0 f2d1 eec0 a62b 9440 3950 98c0
00000270: 84ff 11c1 e197 ba40 fbe8 f8c0 c034 fac0
00000280: 5115 9540 2130 c2c0 9a84 10c1 4763 d240
00000290: d90a acc0 6dc7 d7c0 70ee 7640 d6c6 85c0
000002a0: ef6f 05c1 c98e c240 4165 7bc0 01a2 1bc1
000002b0: 48f8 9f40 c9aa 00c1 5c38 1cc1 1b85 d940
000002c0: 9cb5 f6c0 e1a9 04c1 267c c340 b12c 07c1
000002d0: 7670 0940 a2df b940 b5e1 f0bf 55be 1740
000002e0: e086 9840 11aa d43b 3c85 1d40 be5b e040
000002f0: 36ae 33c0 5708 3340 f4b5 b740 2f6c 3dbf
00000300: 53ce a13f ec95 9f40 317c 12c0 f393 3040
00000310: 09d2 8840 560b 903f 9948 8d3f cfbf 7240
00000320: 1955 82bf ba49 6140 cfda e040 8045 3ec0
00000330: e61f f13f e72a dd40 33c3 6fc0 0ad8 0940
00000340: 6d2a fd40 b039 13c0 a07c a440 bc94 ae3f
00000350: a183 acbf 8ae9 9940 cae0 c83f 1573 783f
00000360: 6d61 b740 9faf db3f 10c9 28c0 9cc2 ab40
00000370: 03b3 0540 54a7 53be 3e20 8d40 0d71 5c3e
00000380: 800e a1bf e7e2 9a40 0de3 0440 d656 0440
00000390: 79e6 7a40 51da 1b3d 419c d73e 083b da40
000003a0: 86c6 e53f 40f6 22c0 6df1 ae40 7c44 843f
000003b0: 60ea 58c0 7113 ac40 cd3a 2e40 9297 39c0
000003c0: 056f ecc0 2cb6 1140 12d8 8040 8add 09c1
000003d0: e40f 2a3f 8ee6 4b40 bb17 cec0 71c8 6040
000003e0: 8aaf 7240 89b5 f5c0 44a5 d73f 13b6 3d40
000003f0: 3df3 fcc0 b247 0b40 0003 a640 44f7 12c1

qA f4 [192, 1]
-0.48417413 0.2663952 -0.50958127 -0.1896419 0.19087458 -0.4122517 0.16703385 0.1716305
0.16798991 0.113685876 0.37121052 0.14682871 -0.5270636 0.2850586 -0.52439284 -0.19554013
0.17583126 -0.35250086 0.14606717 0.17764333 0.16846356 0.111278564 0.35709852 0.1780572
-0.4862951 0.20368975 -0.46974987 -0.08454198 0.12909958 -0.40461427 0.18858796 0.16858909
0.116856754 0.13108855 0.3694328 0.13785622 -0.51133937 0.35660064 -0.50295943 -0.24243408
0.15435475 -0.36672968 0.11604029 0.16273916 0.17272288 0.11531082 0.3642045 0.1814897
-0.52058387 0.3219065 -0.49972796 -0.20429915 0.17131826 -0.3894899 0.15838599 0.14656022
0.16318041 0.1115278 0.36239594 0.17882502 -0.51410145 0.29152122 -0.4924292 -0.21052462
0.189221 -0.39844674 0.1641849 0.13302979 0.18360594 0.10405138 0.36963183 0.18025687
-0.49601412 0.262817 -0.51024354 -0.1790958 0.18755704 -0.42487073 0.15813392 0.16969243
0.17466128 0.116808355 0.37485406 0.16570029 -0.5156972 0.34215266 -0.51477784 -0.21541446
0.14885363 -0.3879698 0.1491822 0.1628137 0.16724873 0.124604344 0.36728108 0.17172325
-0.48924643 0.3080692 -0.50997204 -0.2127747 0.16973948 -0.35852903 0.13987568 0.17147073
0.16617924 0.11461976 0.3577189 0.14284891 -0.51671237 0.3261876 -0.53026193 -0.21452802
0.21904495 -0.39151537 0.15754512 0.15782547 0.15041527 0.104130715 0.36295155 0.17491648
-0.516795 0.3261973 -0.515341 -0.1874513 0.18973595 -0.4225365 0.14353439 0.19839746
0.16880208 0.11471826 0.37114453 0.12959337 -0.5327087 0.33178592 -0.52062744 -0.22328979
0.20219427 -0.36748666 0.17411146 0.16757119 0.16061193 0.09783307 0.35883844 0.15116578
-0.48769325 0.2838367 -0.49066955 -0.20991492 0.14392194 -0.42023492 0.15432549 0.13706735
0.18278551 0.12860838 0.38022894 0.19773915 -0.49605012 0.29212627 -0.5048671 -0.196343
0.16444054 -0.3643251 0.15447888 0.15253803 0.17270884 0.11104703 0.35544702 0.15879875
-0.48830557 0.3112651 -0.51651746 -0.23975962 0.15496346 -0.36315167 0.14870253 0.16319937
0.1680606 0.11118749 0.37330708 0.17704809 -0.5065256 0.33222044 -0.52005583 -0.23313284
0.16223657 -0.3670662 0.14358696 0.16205919 0.17677334 0.111949384 0.36200964 0.17594454
00000000: ace5 f7be f464 883e eb73 02bf 7c31 42be
00000010: a074 433e a812 d3be ec0a 2b3e e8bf 2f3e
00000020: 8c05 2c3e 24d4 e83d 4e0f be3e 445a 163e
00000030: a4ed 06bf 33f3 913e 9c3e 06bf ac3b 48be
00000040: 1c0d 343e fe7a b4be a292 153e 22e8 353e
00000050: b681 2c3e 04e6 e33d 9ed5 b63e a054 363e
00000060: acfb f8be 0c94 503e 0e83 f0be 5824 adbd
00000070: ae32 043e 9a29 cfbe 341d 413e 9ea2 2c3e
00000080: 9852 ef3d 143c 063e 4c26 bd3e 2e2a 0d3e
00000090: 23e7 02bf 5c94 b63e f3c1 00bf a440 78be
000000a0: 2c0f 1e3e fec3 bbbe 88a6 ed3d 18a5 263e
000000b0: 44de 303e 1428 ec3d 0379 ba3e 70d8 393e
000000c0: fc44 05bf eed0 a43e 58dc ffbe cc33 51be
000000d0: 0e6e 2f3e 386b c7be f02f 223e e213 163e
000000e0: c418 273e b068 e43d f68b b93e e81d 373e
000000f0: 279c 03bf 4542 953e ae1f fcbe c493 57be
00000100: 26c3 413e 3601 ccbe 1620 283e f638 083e
00000110: 3203 3c3e e418 d53d 6240 bd3e 4295 383e
00000120: 90f5 fdbe f38f 863e 529f 02bf e464 37be
00000130: f40e 403e a888 d9be dced 213e dac3 2d3e
00000140: 68da 323e 3839 ef3d dfec bf3e 56ad 293e
00000150: bb04 04bf a22e af3e 7bc8 03bf 9c95 5cbe
00000160: 166d 183e faa3 c6be 38c3 183e a2b8 263e
00000170: 4043 2b3e 9030 ff3d 440c bc3e 38d8 2f3e
00000180: 827e fabe 3fbb 9d3e 878d 02bf 9ce1 59be
00000190: 30d0 2d3e 1e91 b7be 923b 0f3e 0696 2f3e
000001a0: e42a 2a3e c4bd ea3d ef26 b73e fc46 123e
000001b0: 4347 04bf 1002 a73e 3fbf 07bf 3cad 5bbe
000001c0: 524d 603e b474 c8be 8253 213e 009d 213e
000001d0: 7606 1a3e 7c42 d53d c9d4 b93e 4e1d 333e
000001e0: ad4c 04bf 5503 a73e 63ed 03bf 3cf3 3fbe
000001f0: 244a 423e b456 d8be aefa 123e b428 4b3e
00000200: 74da 2c3e 68f1 ea3d a806 be3e 20b4 043e
00000210: 995f 08bf d8df a93e d747 05bf 14a6 64be
00000220: 040c 4f3e 3627 bcbe 464a 323e c897 2b3e
00000230: 7477 243e b45c c83d acb9 b73e 34cb 1a3e
00000240: eeb2 f9be 0b53 913e 0a39 fbbe f0f3 56be
00000250: 4660 133e 0829 d7be 8007 1e3e 625b 0c3e
00000260: 202c 3b3e eab1 033e 5ead c23e 227c 4a3e
00000270: 48fa fdbe 9391 953e f83e 01bf 240e 49be
00000280: 1a63 283e d288 babe b62f 1e3e ee32 1c3e
00000290: 96da 303e a06c e33d 27fd b53e 249c 223e
000002a0: 3003 fabe 245e 9f3e 7d3a 04bf 8c83 75be
000002b0: beae 1e3e 04ef b9be 7a45 183e bc1d 273e
000002c0: 1418 2c3e 44b6 e33d 1b22 bf3e 184c 353e
000002d0: a9ab 01bf cc18 aa3e 6122 05bf 60ba 6ebe
000002e0: 5821 263e 1af0 bbbe 7608 133e d8f2 253e
000002f0: 1204 353e b845 e53d 5459 b93e ce2a 343e

muA f4 [192, 3]
0.016017675 0.04975435 -0.030267239 0.10755797 -0.027962834 0.023247093 -0.08212647 -0.0053503215
0.010411799 0.030815959 0.090935454 -0.08440919 -0.055711865 -0.047744572 0.032287866 -0.016962886
-0.07076064 0.051272422 -0.044318795 -0.00068861246 0.0020073354 0.02344364 0.013859779 0.037510008
-0.055577546 0.0046727955 -0.0011256039 0.0628718 0.02980937 -0.023873419 -0.0122495 0.027521014
-0.017596364 0.02828011 -0.036035538 -0.024023235 0.031262457 0.04067567 -0.038232803 0.102304995
-0.028780907 0.022896916 -0.08388418 0.014482677 -0.0074768066 0.042954892 0.09471725 -0.07258895
-0.056028485 -0.05826074 0.045283973 -0.02886191 -0.06908494 0.055172145 -0.04753214 0.0017837882
0.0007404983 0.02490896 0.01827696 0.036319554 -0.061390102 -0.00612092 0.0030433536 0.059775144
0.038618222 -0.02883339 -0.016412348 0.026724935 -0.019409746 0.024495304 -0.032874852 -0.022795677
0.00849098 0.05714667 -0.031237662 0.11459121 -0.038060755 0.031799674 -0.078092575 0.0031517148
-0.0038658082 0.010150611 0.09462543 -0.078888535 -0.06955996 -0.042912036 0.035001665 -0.0125133395
-0.05320561 0.042250052 -0.042680323 -0.0043596923 0.0019141436 0.028873563 0.0150075555 0.038768083
-0.06501925 0.0010171235 0.0020377636 0.061035395 0.034238324 -0.027473986 -0.013549149 0.026651382
-0.020773023 0.025343955 -0.04003951 -0.022670597 0.04632616 0.035990953 -0.041066557 0.08379628
-0.03887394 0.028806508 -0.08158469 0.019559056 -0.01368469 0.021151453 0.10646969 -0.08141571
-0.056938946 -0.058136046 0.044730335 -0.029696882 -0.06942868 0.0501453 -0.049066246 0.0016796291
0.0055060983 0.019255728 0.011124909 0.0405688 -0.056164056 -0.0025905073 0.002827704 0.06156881
0.03720939 -0.028325915 -0.01487115 0.025827348 -0.017343044 0.0232701 -0.033907503 -0.02013436
0.02305898 0.026869893 -0.03166625 0.093575716 -0.03475398 0.02692163 -0.09386778 0.012211025
-0.005167544 0.019493103 0.10825369 -0.07482095 -0.066045195 -0.04348302 0.041173235 -0.025039315
-0.070672035 0.058713734 -0.045446903 -0.00082185864 0.004422784 0.026136726 0.01729247 0.04205805
-0.05833772 -0.0006484091 -0.0012640357 0.06436917 0.03676045 -0.033409685 -0.016385823 0.026725918
-0.022940814 0.022959262 -0.030157208 -0.027972192 0.021263927 0.037599355 -0.03964126 0.104201466
-0.02988401 0.021076292 -0.083500445 0.004314631 -0.0009895563 0.0055268705 0.09741187 -0.068256974
-0.07300079 -0.05604735 0.04367526 -0.0280025 -0.06742978 0.052824378 -0.045113176 -0.00163427
0.0019575655 0.02373597 0.014929682 0.04570067 -0.050144494 0.00061002374 -0.00161466 0.0700109
0.0415982 -0.032010257 -0.009536028 0.02993834 -0.022289753 0.025277644 -0.030103922 -0.023887634
0.020318538 0.048253506 -0.029495418 0.11197132 -0.022621006 0.027798265 -0.084628016 0.0024666786
-0.0016793609 0.021644443 0.089312255 -0.086984366 -0.07219541 -0.052731544 0.045766786 -0.018800855
-0.07650891 0.054103673 -0.04616317 -0.0045051277 -2.4050474e-05 0.026578188 0.015384704 0.039178774
-0.056385368 0.008580118 0.005190015 0.062410295 0.03673899 -0.026425362 -0.011978298 0.02917847
-0.023905069 0.023417473 -0.032266557 -0.02451408 0.025260806 0.05187905 -0.03801033 0.101564825
00000000: 8037 833c 38cb 4b3d 00f3 f7bc 5a47 dc3d
00000010: 5012 e5bc b070 be3c ec31 a8bd c051 afbb
00000020: 4096 2a3c c071 fc3c 5e3c ba3d bade acbd
00000030: 2032 64bd d08f 43bd 4840 043d c0f5 8abc
00000040: f4ea 90bd 0803 523d a087 35bd 0084 34ba
00000050: 808d 033b e00c c03c 2014 633c 18a4 193d
00000060: 48a5 63bd 401e 993b 0089 93ba eec2 803d
00000070: c832 f43c 3092 c3bc 20b2 48bc c073 e13c
00000080: 4026 90bc b0ab e73c 009a 13bd 60cc c4bc
00000090: 100d 003d 889b 263d 009a 1cbd 4885 d13d
000000a0: f0c5 ebbc 5092 bb3c 78cb abbd c048 6d3c
000000b0: 0000 f5bb 78f1 2f3d 1efb c13d 84a9 94bd
000000c0: 207e 65bd d0a2 6ebd b07b 393d d06f ecbc
000000d0: 687c 8dbd 30fc 613d 10b1 42bd 00ce e93a
000000e0: 001e 423a e00d cc3c 90b9 953c d0c3 143d
000000f0: 3074 7bbd 0092 c8bb 0073 473b c8d6 743d
00000100: 242e 1e3d 0034 ecbc 3073 86bc 40ee da3c
00000110: 3001 9fbc 60aa c83c c8a7 06bd 00be babc
00000120: c01d 0b3c a012 6a3d 20e6 ffbc ccae ea3d
00000130: 98e5 1bbd 6040 023d 00ef 9fbd 008d 4e3b
00000140: 8059 7dbb c04e 263c faca c13d 5090 a1bd
00000150: 7475 8ebd 88c4 2fbd e85d 0f3d c004 4dbc
00000160: 20ee 59bd 640e 2d3d 90d1 2ebd c0db 8ebb
00000170: 00e4 fa3a 4088 ec3c 40e2 753c 48cb 1e3d
00000180: d028 85bd 0051 853a 008c 053b 4000 7a3d
00000190: 7c3d 0c3d 2011 e1bc 40fd 5dbc 0054 da3c
000001a0: 302c aabc 209e cf3c 7800 24bd b0b7 b9bc
000001b0: 80c0 3d3d 406b 133d 6835 28bd 629d ab3d
000001c0: 483a 1fbd a0fb eb3c e015 a7bd 503a a03c
000001d0: c035 60bc d045 ad3c c80c da3d 48bd a6bd
000001e0: d038 69bd 1020 6ebd 2837 373d e046 f3bc
000001f0: a030 8ebd 2865 4d3d b0f9 48bd 0027 dc3a
00000200: 806c b43b 30be 9d3c 4045 363c 782b 263d
00000210: 480c 66bd 80c5 29bb 0051 393b 942f 7c3d
00000220: e068 183d c00b e8bc 20a6 73bc e093 d33c
00000230: 0013 8ebc f0a0 be3c 98e2 0abd d0f0 a4bc
00000240: 30e6 bc3c 401e dc3c 78b4 01bd a0a4 bf3d
00000250: 305a 0ebd c08a dc3c c03d c0bd c010 483c
00000260: 8054 a9bb 00b0 9f3c 1cb4 dd3d ba3b 99bd
00000270: b442 87bd 401b 32bd 44a5 283d 401f cdbc
00000280: 80bc 90bd d07d 703d 8826 3abd 0072 57ba
00000290: 00ed 903b b01c d63c f0a8 8d3c 1045 2c3d
000002a0: 88f3 6ebd 00fa 29ba 00ae a5ba fcd3 833d
000002b0: 2092 163d 98d8 08bd 903b 86bc 50f0 da3c
000002c0: 60ee bbbc 1015 bc3c 400c f7bc f025 e5bc
000002d0: b031 ae3c c801 1a3d e05e 22bd 9467 d53d
000002e0: 50cf f4bc 30a8 ac3c 4802 abbd c061 8d3b
000002f0: 00b4 81ba c01a b53b e07f c73d 50ca 8bbd
00000300: 7081 95bd e891 65bd d4e4 323d 8065 e5bc
00000310: a018 8abd 605e 583d 98c8 38bd 0035 d6ba
00000320: 804a 003b f071 c23c a09b 743c a030 3b3d
00000330: 5064 4dbd 00ea 1f3a 00a3 d3ba e061 8f3d
00000340: e062 2a3d 301d 03bd 003d 1cbc 4041 f53c
00000350: 0099 b6bc 1013 cf3c 809c f6bc 00b0 c3bc
00000360: 1073 a63c 78a5 453d 60a0 f1bc 3851 e53d
00000370: b04f b9bc 30b9 e33c 7451 adbd 00a8 213b
00000380: 001e dcba b04f b13c 58e9 b63d dc24 b2bd
00000390: 30db 93bd 08fd 57bd f475 3b3d 4004 9abc
000003a0: b4b0 9cbd d09b 5d3d 9815 3dbd c09f 93bb
000003b0: 00c0 c9b7 80ba d93c 2010 7c3c ec79 203d
000003c0: 58f4 66bd a093 0c3c 0011 aa3b f0a1 7f3d
000003d0: a07b 163d 007a d8bc a040 44bc b007 ef3c
000003e0: 90d4 c3bc 00d6 bf3c f029 04bd c0d1 c8bc
000003f0: c0ef ce3c 207f 543d b8b0 1bbd 3801 d03d

quadA f4 [192, 3, 3]
0.024006492 -0.0022752732 -0.002326876 -0.0022752732 -0.022686714 0.02887857 -0.002326876 0.02887857
-0.0013197754 0.0076596737 0.043265566 -0.03240086 0.043265566 -0.02149076 0.089526 -0.03240086
0.089526 0.013831094 -0.15314406 0.11784561 -0.04301171 0.11784561 0.032532007 0.08166014
-0.04301171 0.08166014 0.12061201 -0.06656634 0.06561136 -0.05290793 0.06561136 0.02622199
0.02473037 -0.05290793 0.02473037 0.040344357 0.005927015 -0.007026881 0.0033507645 -0.007026881
-0.024071913 0.056315437 0.0033507645 0.056315437 0.018144894 -0.029309459 -0.021042317 0.013962746
-0.021042317 0.01931595 0.047186643 0.013962746 0.047186643 0.009993501 -0.008352409 -0.0036293268
0.003229022 -0.0036293268 0.0056845746 -0.0041221976 0.003229022 -0.0041221976 0.0026678345 -0.0011460483
0.003306359 -0.0022746027 0.003306359 0.0070474893 -0.0012652874 -0.0022746027 -0.0012652874 -0.005901441
8.4454194e-05 0.0023940653 -0.0019045919 0.0023940653 0.0031354073 -0.018211126 -0.0019045919 -0.018211126
-0.0032198634 0.017256131 -0.0020458102 0.0037234128 -0.0020458102 -0.00489592 -0.009579346 0.0037234128
-0.009579346 -0.01236021 0.008219197 0.0051136613 -0.0033373088 0.0051136613 -0.0028424263 -0.005011305
-0.0033373088 -0.005011305 -0.005376771 0.0015223224 0.007069111 -0.00025434792 0.007069111 -0.008805315
-0.006198004 -0.00025434792 -0.006198004 0.007282992 0.038788684 -0.001355648 0.0007995665 -0.001355648
-0.03642986 0.047805563 0.0007995665 0.047805563 -0.0023588184 0.013477229 0.024377182 -0.017340958
0.024377182 -0.029377148 0.09368427 -0.017340958 0.09368427 0.015899934 -0.16744278 0.11696276
-0.07323384 0.11696276 0.058545634 0.076811254 -0.07323384 0.076811254 0.10889718 -0.063023776
0.051435813 -0.04068899 0.051435813 0.023193851 0.03805399 -0.04068899 0.03805399 0.039829925
0.0017688945 -0.0027182996 0.0050916374 -0.0027182996 -0.0198709 0.07649928 0.0050916374 0.07649928
0.018102013 -0.027367882 -0.015576631 0.015276775 -0.015576631 -0.0025213882 0.07216565 0.015276775
0.07216565 0.029889248 -0.013029377 -0.006700307 0.005409807 -0.006700307 0.00739633 -0.0031330734
0.005409807 -0.0031330734 0.005633046 0.00029717386 0.0014019758 -0.0034802705 0.0014019758 0.007889524
-0.0024134219 -0.0034802705 -0.0024134219 -0.008186698 0.004613897 0.0068951994 -0.004619479 0.0068951994
0.0018402096 -0.01834391 -0.004619479 -0.01834391 -0.0064541046 0.009666334 -0.008563787 0.006791368
-0.008563787 -0.0023234086 -0.008510575 0.006791368 -0.008510575 -0.0073429244 0.011939099 0.002631098
-0.001740843 0.002631098 -0.0058475086 -0.00026762486 -0.001740843 -0.00026762486 -0.0060915896 0.0006659031
0.003982067 0.0006314814 0.003982067 -0.005383596 -0.00529477 0.0006314814 -0.00529477 0.0047176927
0.031131467 0.010664865 -0.009612277 0.010664865 -0.02415056 0.03450285 -0.009612277 0.03450285
-0.0069809053 -0.018665917 0.023774251 -0.023458004 0.023774251 -0.012475409 0.09141396 -0.023458004
0.09141396 0.031141318 -0.14052308 0.074524194 -0.07136807 0.074524194 0.052409068 0.09814519
-0.07136807 0.09814519 0.08811404 -0.08573611 0.028922543 -0.021112218 0.028922543 0.019430682
0.10077897 -0.021112218 0.10077897 0.06630546 0.029777415 -0.008232012 0.0070419163 -0.008232012
00000000: 43a9 c43c c01c 15bb 807e 18bb c01c 15bb
00000010: 7dd9 b9bc c092 ec3c 807e 18bb c092 ec3c
00000020: 50fc acba 00fe fa3b 3c37 313d c4b6 04bd
00000030: 3c37 313d 640d b0bc 6859 b73d c4b6 04bd
00000040: 6859 b73d d09b 623c ccd1 1cbe 0a59 f13d
00000050: 0c2d 30bd 0a59 f13d 4840 053d 6e3d a73d
00000060: 0c2d 30bd 6e3d a73d 6e03 f73d ef53 88bd
00000070: 405f 863d fcb5 58bd 405f 863d 80cf d63c
00000080: 5897 ca3c fcb5 58bd 5897 ca3c 2040 253d
00000090: 6837 c23b c041 e6bb 8098 5b3b c041 e6bb
000000a0: 7632 c5bc 04ab 663d 8098 5b3b 04ab 663d
000000b0: 9aa4 943c 641a f0bc f060 acbc 00c4 643c
000000c0: f060 acbc 7c3c 9e3c c846 413d 00c4 643c
000000d0: c846 413d c8bb 233c 8bd8 08bc 00da 6dbb
000000e0: 009e 533b 00da 6dbb ab45 ba3b 8013 87bb
000000f0: 009e 533b 8013 87bb d6d6 2e3b 0037 96ba
00000100: 80af 583b 8011 15bb 80af 583b a0ee e63b
00000110: 00d8 a5ba 8011 15bb 00d8 a5ba e060 c1bb
00000120: 001d b138 c0e5 1c3b 80a3 f9ba c0e5 1c3b
00000130: 687b 4d3b 802f 95bc 80a3 f9ba 802f 95bc
00000140: 5804 53bb bb5c 8d3c 0013 06bb 8004 743b
00000150: 0013 06bb f46d a0bb b0f2 1cbc 8004 743b
00000160: b0f2 1cbc 7a82 4abc d0a9 063c 8090 a73b
00000170: c0b6 5abb 8090 a73b 0048 3abb e035 a4bb
00000180: c0b6 5abb e035 a4bb a02f b0bb aa88 c73a
00000190: 00a4 e73b 005a 85b9 00a4 e73b 2b44 10bc
000001a0: a018 cbbb 005a 85b9 a018 cbbb 2aa6 ee3b
000001b0: e2e0 1e3d 00b0 b1ba 009a 513a 00b0 b1ba
000001c0: 7a37 15bd c4cf 433d 009a 513a c4cf 433d
000001d0: 6896 1abb 98cf 5c3c a8b2 c73c a00e 8ebc
000001e0: a8b2 c73c 58a8 f0bc 8add bf3d a00e 8ebc
000001f0: 8add bf3d 9440 823c 1f76 2bbe 2c8a ef3d
00000200: a0fb 95bd 2c8a ef3d 8ccd 6f3d 384f 9d3d
00000210: a0fb 95bd 384f 9d3d 7c05 df3d 9c12 81bd
00000220: 5cae 523d 80a9 26bd 5cae 523d 0801 be3c
00000230: 80de 1b3d 80a9 26bd 80de 1b3d b424 233d
00000240: 40da e73a 8025 32bb c0d7 a63b 8025 32bb
00000250: 4cc8 a2bc a8ab 9c3d c0d7 a63b a8ab 9c3d
00000260: ac4a 943c 9c32 e0bc 2035 7fbc 704b 7a3c
00000270: 2035 7fbc e03d 25bb 96cb 933d 704b 7a3c
00000280: 96cb 933d 4cda f43c 2b79 55bc 408e dbbb
00000290: c044 b13b 408e dbbb ea5c f23b 4054 4dbb
000002a0: c044 b13b 4054 4dbb 6a95 b83b 00ce 9b39
000002b0: 80c2 b73a 4015 64bb 80c2 b73a 1043 013c
000002c0: 802a 1ebb 4015 64bb 802a 1ebb 8021 06bc
000002d0: 2c30 973b 20f1 e13b 005f 97bb 20f1 e13b
000002e0: 3033 f13a f845 96bc 005f 97bb f845 96bc
000002f0: f47c d3bb 8b5f 1e3c 204f 0cbc 208a de3b
00000300: 204f 0cbc 5444 18bb f06f 0bbc 208a de3b
00000310: f06f 0bbc ea9c f0bb 369c 433c 806e 2c3b
00000320: 002d e4ba 806e 2c3b 759c bfbb 0050 8cb9
00000330: 002d e4ba 0050 8cb9 f59b c7bb 0090 2e3a
00000340: 007c 823b 008a 253a 007c 823b e068 b0bb
00000350: c07f adbb 008a 253a c07f adbb e096 9a3b
00000360: 6b07 ff3c b0bb 2e3c d07c 1dbc b0bb 2e3c
00000370: 65d7 c5bc dc52 0d3d d07c 1dbc dc52 0d3d
00000380: 14c0 e4bb 44e9 98bc 38c2 c23c 002b c0bc
00000390: 38c2 c23c a865 4cbc 3e37 bb3d 002b c0bc
000003a0: 3e37 bb3d 141c ff3c 48e5 0fbe 24a0 983d
000003b0: 6c29 92bd 24a0 983d e4aa 563d 5800 c93d
000003c0: 6c29 92bd 5800 c93d 2275 b43d 6a96 afbd
000003d0: f8ee ec3c 88f3 acbc f8ee ec3c 182d 9f3c
000003e0: 3465 ce3d 88f3 acbc 3465 ce3d 28cb 873d
000003f0: c4ef f33c 90df 06bc e0bf e63b 90df 06bc

hfvrA f4 [192, 1]
1.1191733 0.7928501 1.2345394 1.0092106 0.8537321 1.1039959 0.31074739 0.30523396
0.28932178 0.31748033 0.17801285 0.37277943 1.1647568 0.77999693 1.2678113 1.0130552
0.8532352 1.0791323 0.39721942 0.32113785 0.32861102 0.34521633 0.1969775 0.32502156
1.127611 0.7982799 1.2171301 0.91502535 0.8970183 1.1070181 0.27391857 0.32500947
0.40613914 0.3193273 0.17624038 0.3961687 1.1337495 0.72721815 1.2201176 1.0369487
0.87454534 1.086697 0.417746 0.32847506 0.2974813 0.34057462 0.17567098 0.29034638
1.1386516 0.7394233 1.219173 0.985212 0.8651876 1.1058676 0.321832 0.38205647
0.31960762 0.3586763 0.19719577 0.29781663 1.1532315 0.7658949 1.1878173 0.98932326
0.86955714 1.1048946 0.32577497 0.40054965 0.25812203 0.41361964 0.18510139 0.30969518
1.1335877 0.78432596 1.2464486 0.98617864 0.8688854 1.1371247 0.3384471 0.3333671
0.27803165 0.34600967 0.190027 0.33542526 1.1521422 0.7336067 1.2492262 0.99919736
0.87976074 1.1019746 0.37106216 0.36047643 0.30914837 0.3141238 0.18791294 0.3326398
1.0998832 0.7572856 1.2268889 1.0240898 0.8556529 1.0945969 0.3439414 0.28304863
0.31212807 0.34810972 0.19755363 0.3515243 1.1253941 0.7367549 1.2451692 1.0354922
0.8412561 1.0948646 0.3231517 0.34986943 0.38850164 0.35902524 0.17038292 0.2975474
1.1493936 0.74753714 1.2351977 0.95984 0.8606832 1.133985 0.3698275 0.26881635
0.30782878 0.34240073 0.18761271 0.40446138 1.1530967 0.7381096 1.2438385 0.9921292
0.84992176 1.088802 0.29417813 0.3294794 0.3537926 0.36930317 0.19423127 0.3711689
1.1143757 0.7743376 1.2248166 1.0233407 0.9007388 1.1226431 0.32668298 0.39818454
0.2723012 0.33194697 0.17207599 0.2424156 1.1240377 0.7698049 1.2235292 0.9992072
0.8693095 1.1057899 0.323206 0.3459658 0.3056172 0.36261106 0.23151201 0.33135527
1.1165483 0.76068807 1.2478166 1.0870281 0.8773459 1.0652022 0.34371257 0.33891416
0.36552602 0.37675452 0.16080058 0.2977053 1.141535 0.74481905 1.2494355 1.0280781
0.8695745 1.0980053 0.37027305 0.35624772 0.29738408 0.36067706 0.19679415 0.32156253
00000000: 1241 8f3f 39f8 4a3f 6305 9e3f d02d 813f
00000010: 308e 5a3f bd4f 8d3f 481a 9f3e a047 9c3e
00000020: fc21 943e c88c a23e 0049 363e f2dc be3e
00000030: c016 953f e1ad 473f a447 a23f cbab 813f
00000040: 9f6d 5a3f 0221 8a3f 5860 cb3e 2e6c a43e
00000050: b43f a83e 32c0 b03e 78b4 493e 3a69 a63e
00000060: 8f55 903f 125c 4c3f ebca 9b3f 1a3f 6a3f
00000070: fea2 653f c5b2 8d3f 0e3f 8c3e a467 a63e
00000080: 78f1 cf3e de7e a33e 5c78 343e a0d6 ca3e
00000090: b41e 913f f82a 3a3f d02c 9c3f bcba 843f
000000a0: 34e2 5f3f e318 8b3f cee2 d53e e22d a83e
000000b0: 784f 983e cc5f ae3e 18e3 333e 48a8 943e
000000c0: 56bf 913f d84a 3d3f dc0d 9c3f db36 7c3f
000000d0: ef7c 5d3f 128d 8d3f 2ac7 a43e e89c c33e
000000e0: 9ca3 a33e 6ca4 b73e b0ed 493e 6c7b 983e
000000f0: 179d 933f b011 443f 660a 983f 4a44 7d3f
00000100: 4c9b 5e3f 306d 8d3f facb a63e d814 cd3e
00000110: 9228 843e f4c5 d33e 388b 3d3e 5e90 9e3e
00000120: 6719 913f 96c9 483f a18b 9f3f 3476 7c3f
00000130: 466f 5e3f 4d8d 913f f048 ad3e 18af aa3e
00000140: 2a5a 8e3e 2e28 b13e 7096 423e dcbc ab3e
00000150: 6579 933f a6cd 3b3f a5e6 9f3f 66cb 7f3f
00000160: 0038 613f 810d 8d3f dcfb bd3e 5e90 b83e
00000170: b248 9e3e d6d4 a03e 406c 403e c44f aa3e
00000180: f9c8 8c3f 78dd 413f b20a 9d3f 6015 833f
00000190: 120c 5b3f c01b 8c3f 1619 b03e c0eb 903e
000001a0: 40cf 9f3e 703b b23e 804b 4a3e fefa b33e
000001b0: ea0c 903f f89b 3c3f b461 9f3f 028b 843f
000001c0: 8f5c 573f 8624 8c3f 2474 a53e 1622 b33e
000001d0: b0e9 c63e 28d2 b73e dc78 2e3e 2258 983e
000001e0: 541f 933f 985e 3f3f f51a 9e3f 13b8 753f
000001f0: bc55 5c3f 6c26 913f 085a bd3e 4ca2 893e
00000200: bc9b 9d3e 264f af3e 8c1d 403e 9015 cf3e
00000210: ac98 933f c0f4 3c3f 1a36 9f3f 2efc 7d3f
00000220: 7994 593f dd5d 8b3f 849e 963e 86b1 a83e
00000230: 4e24 b53e 4e15 bd3e 90e4 463e da09 be3e
00000240: dda3 8e3f fd3a 463f cac6 9c3f d4fc 823f
00000250: d196 663f c5b2 8f3f fe42 a73e d8de cb3e
00000260: 106b 8b3e f4f4 a93e b034 303e cc3b 783e
00000270: 78e0 8f3f ef11 453f 9b9c 9c3f 0bcc 7f3f
00000280: 118b 5e3f 868a 8d3f 427b a53e 6e22 b13e
00000290: dc79 9c3e 28a8 b93e 7c11 6d3e 66a7 a93e
000002a0: 0eeb 8e3f 74bc 423f 74b8 9f3f bd23 8b3f
000002b0: be99 603f 8c58 883f 18fb af3e 2886 ad3e
000002c0: 3a26 bb3e f8e5 c03e e8a8 243e d46c 983e
000002d0: d21d 923f 76ac 3e3f 81ed 9f3f 1098 833f
000002e0: 6f9c 5e3f 708b 8c3f 6e94 bd3e 1a66 b63e
000002f0: ba42 983e aaaa b83e 6884 493e d8a3 a43e

vwA f4 [192, 1]
0.5210686 0.4904988 0.45979843 0.5142629 0.49746603 0.44787377 0.3760479 0.374799
0.36966413 0.3697223 0.3399945 0.39752924 0.53044254 0.4886409 0.46149364 0.5165063
0.49801674 0.44401503 0.40406024 0.38161594 0.3812202 0.3811778 0.35134816 0.38334444
0.52305216 0.4918393 0.45752928 0.50380117 0.50297374 0.44630405 0.3634777 0.38121647
0.39453337 0.3746541 0.3413351 0.40273255 0.52238226 0.4789775 0.45856345 0.51774234
0.500729 0.44436967 0.40946436 0.3823488 0.371018 0.38263732 0.33581594 0.37011424
0.525527 0.4822918 0.45746624 0.51416636 0.5000509 0.447589 0.37961864 0.4001706
0.37823698 0.38832307 0.353738 0.37275034 0.5277008 0.4857791 0.45482156 0.5123071
0.5002151 0.44781554 0.38264945 0.40525883 0.35682818 0.40103397 0.34598708 0.37700695
0.5233867 0.4897029 0.46159106 0.51170874 0.5006186 0.45013928 0.387139 0.3844945
0.3656901 0.38480386 0.35080492 0.38502443 0.52594703 0.48033547 0.4604725 0.5141909
0.50159574 0.44771197 0.39886814 0.39528558 0.3754351 0.3734227 0.3482092 0.385228
0.51789105 0.48423505 0.45882094 0.5169417 0.49965358 0.44567025 0.38417825 0.36825368
0.37640947 0.38411674 0.3527622 0.39061436 0.5221781 0.4815258 0.4612817 0.5179646
0.4962971 0.4449152 0.3800287 0.39132893 0.39716062 0.38623247 0.33519134 0.37161642
0.525721 0.48268571 0.45963398 0.51167166 0.4994068 0.44972578 0.39733675 0.36415854
0.3749296 0.38185066 0.34873992 0.40545708 0.52884847 0.48052162 0.46112052 0.5144538
0.49612722 0.4452035 0.37063575 0.38533074 0.38972765 0.38811362 0.35148895 0.3970928
0.51883006 0.48831916 0.45886052 0.5142949 0.5059005 0.44881392 0.38046482 0.40131974
0.36298236 0.38035947 0.33920377 0.3539115 0.52197015 0.48603535 0.4582189 0.5137149
0.50107807 0.4479115 0.37828326 0.38999522 0.3744104 0.3892814 0.37013593 0.38356304
0.52013266 0.48626024 0.46029234 0.5242563 0.5033053 0.44358152 0.38801765 0.38658458
0.39210212 0.3922792 0.32713702 0.37316352 0.52435094 0.48240036 0.46050292 0.5168914
0.50126654 0.44659126 0.39861667 0.3931694 0.37159842 0.38906202 0.35276866 0.3809826
00000000: c064 053f a922 fb3e b36a eb3e bca6 033f
00000010: deb3 fe3e b64f e53e 5a89 c03e a8e5 bf3e
00000020: 9e44 bd3e 3e4c bd3e c213 ae3e f488 cb3e
00000030: 15cb 073f 242f fa3e e548 ec3e c239 043f
00000040: 0dfc fe3e f055 e33e fce0 ce3e 2a63 c33e
00000050: 4b2f c33e bd29 c33e e8e3 b33e b945 c43e
00000060: bfe6 053f 5cd2 fb3e 4741 ea3e 1df9 003f
00000070: e3c2 003f f781 e43e c019 ba3e ce2e c33e
00000080: 4700 ca3e aad2 bf3e 79c3 ae3e f632 ce3e
00000090: d8ba 053f 8a3c f53e d4c8 ea3e c38a 043f
000000a0: c72f 003f 6c84 e33e 50a5 d13e 39c3 c33e
000000b0: 12f6 bd3e 0ae9 c33e 11f0 ab3e 9d7f bd3e
000000c0: f088 063f f3ee f63e 0439 ea3e 68a0 033f
000000d0: 5603 003f 632a e53e 605d c23e 29e3 cc3e
000000e0: 47a8 c13e 48d2 c63e 261d b53e 22d9 be3e
000000f0: 6617 073f 0ab8 f83e 5fde e83e 8f26 033f
00000100: 190e 003f 1448 e53e a1ea c33e 167e cf3e
00000110: 2fb2 b63e 5354 cd3e 3825 b13e 0e07 c13e
00000120: acfc 053f 57ba fa3e aa55 ec3e 58ff 023f
00000130: 8a28 003f a878 e63e 1537 c63e 77dc c43e
00000140: bc3b bb3e 0305 c53e b49c b33e ec21 c53e
00000150: 77a4 063f 88ee f53e 0dc3 eb3e 04a2 033f
00000160: 9468 003f 813a e53e 7238 cc3e df62 ca3e
00000170: 0839 c03e 4331 bf3e 7a48 b23e 9b3c c53e
00000180: 8294 043f a8ed f73e 94ea ea3e 4b56 043f
00000190: 98d2 ff3e e42e e43e 03b3 c43e bf8b bc3e
000001a0: beb8 c03e f3aa c43e 3f9d b43e 9bfe c73e
000001b0: 77ad 053f 8d8a f63e 1d2d ec3e 5499 043f
000001c0: a71a fe3e edcb e33e 1f93 c23e 445c c83e
000001d0: a358 cb3e 43c0 c53e 339e ab3e 8244 be3e
000001e0: a795 063f 9522 f73e 2555 eb3e eafc 023f
000001f0: 40b2 ff3e 7542 e63e b96f cb3e fd72 ba3e
00000200: c6f6 bf3e ee81 c33e 0a8e b23e 1298 cf3e
00000210: 9d62 073f ee06 f63e fd17 ec3e 3fb3 033f
00000220: 6304 fe3e b7f1 e33e f8c3 bd3e 124a c53e
00000230: 628a c73e d4b6 c63e 5cf6 b33e bf4f cb3e
00000240: 0cd2 043f f804 fa3e c4ef ea3e d5a8 033f
00000250: b282 013f f0ca e53e 49cc c23e c879 cd3e
00000260: d3d8 b93e 7abe c23e 1eac ad3e e333 b53e
00000270: d69f 053f a0d9 f83e ab9b ea3e d282 033f
00000280: a746 003f a854 e53e 58ae c13e 74ad c73e
00000290: b8b2 bf3e e44f c73e 7582 bd3e 6062 c43e
000002a0: 6a27 053f 1af7 f83e 70ab eb3e a935 063f
000002b0: 9ed8 003f 1e1d e33e 40aa c63e 6aee c53e
000002c0: 9cc1 c83e d2d8 c83e 817e a73e 4a0f bf3e
000002d0: dd3b 063f 2efd f63e 0ac7 eb3e ff52 043f
000002e0: 0153 003f 9ca7 e43e 7c17 cc3e 804d c93e
000002f0: 2642 be3e 2333 c73e 189e b43e 2710 c33e

alpha_0_A f4 [3072]
11.699381 11.699381 7.2505245 11.699381 11.699381 7.2505245 4.49916 4.49916
4.49916 4.49916 4.49916 4.49916 11.699381 11.699381 7.2505245 11.699381
11.699381 7.2505245 4.49916 4.49916 4.49916 4.49916 4.49916 4.49916
11.699381 11.699381 7.2505245 11.699381 11.699381 7.2505245 4.49916 4.49916
4.49916 4.49916 4.49916 4.49916 11.699381 11.699381 7.2505245 11.699381
11.699381 7.2505245 4.49916 4.49916 4.49916 4.49916 4.49916 4.49916
11.699381 11.699381 7.2505245 11.699381 11.699381 7.2505245 4.49916 4.49916
4.49916 4.49916 4.49916 4.49916 11.699381 11.699381 7.2505245 11.699381
11.699381 7.2505245 4.49916 4.49916 4.49916 4.49916 4.49916 4.49916
11.699381 11.699381 7.2505245 11.699381 11.699381 7.2505245 4.49916 4.49916
4.49916 4.49916 4.49916 4.49916 11.699381 11.699381 7.2505245 11.699381
11.699381 7.2505245 4.49916 4.49916 4.49916 4.49916 4.49916 4.49916
11.699381 11.699381 7.2505245 11.699381 11.699381 7.2505245 4.49916 4.49916
4.49916 4.49916 4.49916 4.49916 11.699381 11.699381 7.2505245 11.699381
11.699381 7.2505245 4.49916 4.49916 4.49916 4.49916 4.49916 4.49916
11.699381 11.699381 7.2505245 11.699381 11.699381 7.2505245 4.49916 4.49916
4.49916 4.49916 4.49916 4.49916 11.699381 11.699381 7.2505245 11.699381
11.699381 7.2505245 4.49916 4.49916 4.49916 4.49916 4.49916 4.49916
11.699381 11.699381 7.2505245 11.699381 11.699381 7.2505245 4.49916 4.49916
4.49916 4.49916 4.49916 4.49916 11.699381 11.699381 7.2505245 11.699381
11.699381 7.2505245 4.49916 4.49916 4.49916 4.49916 4.49916 4.49916
11.699381 11.699381 7.2505245 11.699381 11.699381 7.2505245 4.49916 4.49916
4.49916 4.49916 4.49916 4.49916 11.699381 11.699381 7.2505245 11.699381
11.699381 7.2505245 4.49916 4.49916 4.49916 4.49916 4.49916 4.49916
11.699381 11.699381 7.2505245 11.699381 11.699381 7.2505245 4.49916 4.49916
4.49916 4.49916 4.49916 4.49916 11.699381 11.699381 7.2505245 11.699381
11.699381 7.2505245 4.49916 4.49916 4.49916 4.49916 4.49916 4.49916
11.699381 11.699381 7.2505245 11.699381 11.699381 7.2505245 4.49916 4.49916
4.49916 4.49916 4.49916 4.49916 11.699381 11.699381 7.2505245 11.699381
11.699381 7.2505245 4.49916 4.49916 4.49916 4.49916 4.49916 4.49916
11.699381 11.699381 7.2505245 11.699381 11.699381 7.2505245 4.49916 4.49916
4.49916 4.49916 4.49916 4.49916 11.699381 11.699381 7.2505245 11.699381
00000000: aa30 3b41 aa30 3b41 4c04 e840 aa30 3b41
00000010: aa30 3b41 4c04 e840 1ef9 8f40 1ef9 8f40
00000020: 1ef9 8f40 1ef9 8f40 1ef9 8f40 1ef9 8f40
00000030: aa30 3b41 aa30 3b41 4c04 e840 aa30 3b41
00000040: aa30 3b41 4c04 e840 1ef9 8f40 1ef9 8f40
00000050: 1ef9 8f40 1ef9 8f40 1ef9 8f40 1ef9 8f40
00000060: aa30 3b41 aa30 3b41 4c04 e840 aa30 3b41
00000070: aa30 3b41 4c04 e840 1ef9 8f40 1ef9 8f40
00000080: 1ef9 8f40 1ef9 8f40 1ef9 8f40 1ef9 8f40
00000090: aa30 3b41 aa30 3b41 4c04 e840 aa30 3b41
000000a0: aa30 3b41 4c04 e840 1ef9 8f40 1ef9 8f40
000000b0: 1ef9 8f40 1ef9 8f40 1ef9 8f40 1ef9 8f40
000000c0: aa30 3b41 aa30 3b41 4c04 e840 aa30 3b41
000000d0: aa30 3b41 4c04 e840 1ef9 8f40 1ef9 8f40
000000e0: 1ef9 8f40 1ef9 8f40 1ef9 8f40 1ef9 8f40
000000f0: aa30 3b41 aa30 3b41 4c04 e840 aa30 3b41
00000100: aa30 3b41 4c04 e840 1ef9 8f40 1ef9 8f40
00000110: 1ef9 8f40 1ef9 8f40 1ef9 8f40 1ef9 8f40
00000120: aa30 3b41 aa30 3b41 4c04 e840 aa30 3b41
00000130: aa30 3b41 4c04 e840 1ef9 8f40 1ef9 8f40
00000140: 1ef9 8f40 1ef9 8f40 1ef9 8f40 1ef9 8f40
00000150: aa30 3b41 aa30 3b41 4c04 e840 aa30 3b41
00000160: aa30 3b41 4c04 e840 1ef9 8f40 1ef9 8f40
00000170: 1ef9 8f40 1ef9 8f40 1ef9 8f40 1ef9 8f40
00000180: aa30 3b41 aa30 3b41 4c04 e840 aa30 3b41
00000190: aa30 3b41 4c04 e840 1ef9 8f40 1ef9 8f40
000001a0: 1ef9 8f40 1ef9 8f40 1ef9 8f40 1ef9 8f40
000001b0: aa30 3b41 aa30 3b41 4c04 e840 aa30 3b41
000001c0: aa30 3b41 4c04 e840 1ef9 8f40 1ef9 8f40
000001d0: 1ef9 8f40 1ef9 8f40 1ef9 8f40 1ef9 8f40
000001e0: aa30 3b41 aa30 3b41 4c04 e840 aa30 3b41
000001f0: aa30 3b41 4c04 e840 1ef9 8f40 1ef9 8f40
00000200: 1ef9 8f40 1ef9 8f40 1ef9 8f40 1ef9 8f40
00000210: aa30 3b41 aa30 3b41 4c04 e840 aa30 3b41
00000220: aa30 3b41 4c04 e840 1ef9 8f40 1ef9 8f40
00000230: 1ef9 8f40 1ef9 8f40 1ef9 8f40 1ef9 8f40
00000240: aa30 3b41 aa30 3b41 4c04 e840 aa30 3b41
00000250: aa30 3b41 4c04 e840 1ef9 8f40 1ef9 8f40
00000260: 1ef9 8f40 1ef9 8f40 1ef9 8f40 1ef9 8f40
00000270: aa30 3b41 aa30 3b41 4c04 e840 aa30 3b41
00000280: aa30 3b41 4c04 e840 1ef9 8f40 1ef9 8f40
00000290: 1ef9 8f40 1ef9 8f40 1ef9 8f40 1ef9 8f40
000002a0: aa30 3b41 aa30 3b41 4c04 e840 aa30 3b41
000002b0: aa30 3b41 4c04 e840 1ef9 8f40 1ef9 8f40
000002c0: 1ef9 8f40 1ef9 8f40 1ef9 8f40 1ef9 8f40
000002d0: aa30 3b41 aa30 3b41 4c04 e840 aa30 3b41
000002e0: aa30 3b41 4c04 e840 1ef9 8f40 1ef9 8f40
000002f0: 1ef9 8f40 1ef9 8f40 1ef9 8f40 1ef9 8f40
00000300: aa30 3b41 aa30 3b41 4c04 e840 aa30 3b41
00000310: aa30 3b41 4c04 e840 1ef9 8f40 1ef9 8f40
00000320: 1ef9 8f40 1ef9 8f40 1ef9 8f40 1ef9 8f40
00000330: aa30 3b41 aa30 3b41 4c04 e840 aa30 3b41
00000340: aa30 3b41 4c04 e840 1ef9 8f40 1ef9 8f40
00000350: 1ef9 8f40 1ef9 8f40 1ef9 8f40 1ef9 8f40
00000360: aa30 3b41 aa30 3b41 4c04 e840 aa30 3b41
00000370: aa30 3b41 4c04 e840 1ef9 8f40 1ef9 8f40
00000380: 1ef9 8f40 1ef9 8f40 1ef9 8f40 1ef9 8f40
00000390: aa30 3b41 aa30 3b41 4c04 e840 aa30 3b41
000003a0: aa30 3b41 4c04 e840 1ef9 8f40 1ef9 8f40
000003b0: 1ef9 8f40 1ef9 8f40 1ef9 8f40 1ef9 8f40
000003c0: aa30 3b41 aa30 3b41 4c04 e840 aa30 3b41
000003d0: aa30 3b41 4c04 e840 1ef9 8f40 1ef9 8f40
000003e0: 1ef9 8f40 1ef9 8f40 1ef9 8f40 1ef9 8f40
000003f0: aa30 3b41 aa30 3b41 4c04 e840 aa30 3b41
