tests/test_data_path/og_processed/dimer_ap3_train_spec_7_229.pt (torch, 236050 bytes, 17 tensors)

y f4 [16, 4]
000000 14 ae 32 3c 78 59 9d 39 1a d0 08 bc fc 6c c1 bd
       0.010905761 0.00030012033 -0.0083503965 -0.09444615
000010 90 f6 89 bf d7 a4 51 40 46 d5 93 bf 61 24 33 c0
       -1.077837 3.275686 -1.1549461 -2.7990954
000020 99 e6 82 bf 97 d4 ed 3d 1d f6 0a be 94 6a 3d bf
       -1.0226623 0.11612814 -0.13570447 -0.7399075
000030 38 40 74 40 19 84 bd 3f f5 cf 1b bf c4 f2 19 c0
       3.8164196 1.4805938 -0.6086419 -2.4054422
000040 82 f5 88 c0 dd 06 9f 41 f0 9a 74 c0 02 b9 0f c1
       -4.279969 19.878351 -3.8219566 -8.982668
000050 88 58 49 3f 43 65 66 3d f4 e9 34 bd fa 15 0b bf
       0.7865071 0.056248914 -0.044168428 -0.5433041
000060 52 eb 89 be a4 49 3e 3a ea 2c cc bc 51 be d9 bd
       -0.26937348 0.0007258898 -0.02492376 -0.10632003
000070 52 53 6a 3f 8d 43 94 38 d1 ff d0 bc 7e ec 87 bd
       0.91533387 7.069772e-05 -0.025512608 -0.06636904
000080 ff 6b 85 3d 4b 9e 88 3d 4a cc f1 bd 08 1c 2a bf
       0.06514739 0.06670817 -0.11806543 -0.6644902
000090 94 df d4 bf 3f f5 02 3e a2 ce 39 be c4 02 4a bf
       -1.6630731 0.12788866 -0.1814523 -0.7891047
0000a0 dc 8e 6e 3e ef 7f 90 3f b0 b8 b0 be fe 84 9d bf
       0.23296684 1.1289042 -0.34515905 -1.2306211
0000b0 1b db 22 3f db 98 71 3c a2 d3 e3 bd bb a5 cf be
       0.6361558 0.014745916 -0.1112435 -0.4055613
0000c0 d0 60 3c 3e 9e b6 7c 3a c7 dc 52 bd 88 ec 39 be
       0.18396306 0.0009640249 -0.05148008 -0.18156636
0000d0 b1 aa 13 c0 5a df 9d 3d 53 39 76 be b3 c5 2c bf
       -2.3072932 0.077086166 -0.24045305 -0.67489165
0000e0 53 82 92 3f 02 96 0b 3e f6 37 74 be fb a0 90 bf
       1.1446022 0.13631442 -0.23849472 -1.1299127
0000f0 fd 7d 20 3e 95 68 60 3c 3b 0a d1 bd ca 13 fe be
       0.1567306 0.013696809 -0.102070294 -0.49624473

RA f4 [192, 3]
000000 d4 27 b9 3d b4 c9 5d bf 48 32 27 3f 53 59 94 3e
       0.090408 -0.866359 0.653111 0.289744
000010 a3 78 bd 3e fe 98 76 be a9 84 23 bf 79 23 73 3f
       0.370061 -0.240818 -0.638743 0.94976
000020 6c 92 63 bf 3f a9 c2 3f df 70 4f 3f e8 13 b9 be
       -0.888953 1.52079 0.810316 -0.36148
000030 ab 79 a8 bf a0 15 a6 bf 60 78 55 3f 86 54 f9 3e
       -1.316213 -1.297535 0.833868 0.486973
000040 4e d2 20 bf 6f 9c d6 3f 6d 02 ea 3f 47 ab c0 3f
       -0.628209 1.676649 1.828199 1.505227
000050 8a 39 7c bf 02 f3 12 40 52 99 a2 3e 65 fb 10 3d
       -0.985253 2.296082 0.317576 0.035396
000060 9a e9 32 3f 88 81 d0 bf 4c 37 89 3e 50 fe b0 bf
       0.698877 -1.628953 0.268 -1.382761
000070 ae f2 08 c0 2c d5 b3 3f 07 0c f8 bf 5c 04 06 bf
       -2.139812 1.404943 -1.937867 -0.523504
000080 6d ab 9d 3f a0 88 e7 bf 85 5b be bf 5d 8c 41 be
       1.231794 -1.808857 -1.487168 -0.189012
000090 dd 43 22 3e 77 82 6d bf f7 00 2d 3f 98 dc 98 3e
       0.158462 -0.927772 0.675796 0.298558
0000a0 33 de b6 3e eb a8 82 be 75 92 2d bf 37 e1 66 3f
       0.357164 -0.255195 -0.678016 0.901874
0000b0 17 d5 52 bf 57 d0 cc 3f ec 4c 41 3f e0 f5 b9 be
       -0.823564 1.600108 0.75508 -0.363204
0000c0 76 51 ae bf a4 53 a5 bf 77 86 41 3f b7 0a 02 3f
       -1.361861 -1.291615 0.755958 0.507976
0000d0 39 f1 21 bf 1f 2d d2 3f b7 96 e3 3f fc 89 ca 3f
       -0.632587 1.642002 1.778037 1.582336
0000e0 4f 96 82 bf b3 cf 15 40 db a5 85 3e e7 6d ec 3c
       -1.020212 2.340802 0.261031 0.028861
0000f0 ae f2 34 3f 59 fd d7 bf 77 4d 78 3e 34 66 b6 bf
       0.706828 -1.687419 0.242483 -1.424994
000100 c3 ba 07 c0 a2 ef ac 3f 20 09 f7 bf 5a b9 ef be
       -2.120774 1.351063 -1.929966 -0.468211
000110 4c 1b a0 3f 4e d2 e4 bf 78 5e c2 bf bb 46 6b be
       1.250833 -1.787668 -1.518508 -0.229762
000120 9d 2e 1b 3e 6d c5 4e bf f7 3a 19 3f 7e e5 81 3e
       0.151545 -0.8077 0.598556 0.253704
000130 20 d2 d7 3e a2 d4 8e be c0 77 23 bf 20 41 6d 3f
       0.421525 -0.278966 -0.638546 0.926775
000140 96 5f 4e bf b6 ba cc 3f 8b a5 4c 3f 3f e4 8d be
       -0.806146 1.599448 0.799401 -0.277132
000150 1f 69 b2 bf 97 38 a8 bf 95 9e 39 3f 9d f2 f8 3e
       -1.393833 -1.314227 0.725076 0.486226
000160 da 73 21 bf f3 02 da 3f 07 d0 d9 3f 08 ab cd 3f
       -0.630674 1.703215 1.701661 1.606782
000170 a3 77 72 bf 62 bd 18 40 34 bf 6a 3e 1b d9 55 3d
       -0.947138 2.386559 0.229245 0.052209
000180 40 be 2c 3f c1 74 d6 bf 37 39 6c 3e f5 bd b6 bf
       0.674778 -1.675438 0.230687 -1.427672
000190 70 06 0b c0 49 67 aa 3f 1d 05 fa bf ac aa cf be
       -2.172268 1.331277 -1.953281 -0.405599
0001a0 48 df 98 3f eb 1d e0 bf 8a af bc bf 08 c9 42 be
       1.194314 -1.750913 -1.474107 -0.19022
0001b0 19 8e a7 3d ea 77 55 bf 00 38 22 3f 00 37 7b 3e
       0.081814 -0.833861 0.633667 0.245327
0001c0 9f 75 cd 3e 42 e8 90 be 77 84 27 bf 74 46 64 3f
       0.401288 -0.283022 -0.654365 0.8917
0001d0 54 c9 54 bf 3c a4 c2 3f 6b 11 5d 3f f2 40 b4 be
       -0.831197 1.520637 0.863547 -0.352058
0001e0 97 02 b2 bf 79 3e 9f bf 3b c5 42 3f 2c 28 04 3f
       -1.390704 -1.244094 0.760822 0.516238
0001f0 b4 3e 21 bf 26 e1 d4 3f 9f cb de 3f 6e 88 c9 3f
       -0.629863 1.663121 1.740589 1.574476
000200 9a 05 80 bf 42 5f 17 40 24 09 8a 3e 14 d1 af 3c
       -1.000171 2.365189 0.269601 0.021462
000210 b6 d7 36 3f 97 1b d2 bf c3 47 34 3e 7a 19 bf bf
       0.714229 -1.641467 0.176055 -1.492965
000220 05 35 0f c0 2c 7e b9 3f 8a b0 fd bf 11 a8 fe be
       -2.237611 1.449163 -1.98195 -0.497376
000230 82 36 93 3f 4e 7d e6 bf 7e e1 c1 bf 3e 5a 6c be
       1.150101 -1.800699 -1.514694 -0.230813
000240 d0 26 c7 3d 18 41 5f bf 36 04 27 3f dc 9b 8f 3e
       0.097242 -0.872087 0.652408 0.280486
000250 82 91 b7 3e 61 6b 66 be 74 9a 25 bf b0 ae 6e 3f
       0.358532 -0.225019 -0.646888 0.932353
000260 86 e6 4a bf f0 6a c1 3f 62 65 48 3f 78 44 bd be
       -0.79258 1.511076 0.782797 -0.369663
000270 3b 54 ad bf 56 61 a5 bf 19 92 3f 3f 5e 49 02 3f
       -1.354133 -1.292033 0.748323 0.508932
000280 18 27 16 bf db 14 dd 3f 65 52 e7 3f 97 e4 c8 3f
       -0.586534 1.727199 1.807202 1.569476
000290 4a 5f 70 bf 65 8b 18 40 25 05 46 3e 6b 7e 7c bc
       -0.938954 2.383508 0.193379 -0.015411
0002a0 cb 82 35 3f 50 37 da bf 0f 9d 6e 3e 3a 94 b5 bf
       0.709027 -1.704813 0.233021 -1.418586
0002b0 7a 71 08 c0 69 8e b2 3f ac 8d fb bf 19 92 e3 be
       -2.131926 1.394971 -1.965261 -0.444474
0002c0 51 a1 96 3f 44 f8 e3 bf 7a e3 c4 bf b2 f6 77 be
       1.176798 -1.781014 -1.538192 -0.242152
0002d0 db 87 3c 3d 24 43 4e bf 6b d3 2c 3f d2 8e 6b 3e
       0.046028 -0.805712 0.675101 0.230037
0002e0 34 85 ae 3e 7f 32 8e be 12 f7 28 bf 22 fa 71 3f
       0.34086 -0.277729 -0.66002 0.945223
0002f0 33 70 48 bf a5 9e cf 3f 69 e0 63 3f 2d 40 ab be
       -0.782962 1.622029 0.890143 -0.334474
000300 49 82 b2 bf 26 6d a8 bf 3f 55 39 3f 4c ff 0e 3f
       -1.394601 -1.315831 0.723957 0.558583
000310 a7 c9 14 bf 0c cb d5 3f aa f0 e9 3f f5 4c cd 3f
       -0.581202 1.670259 1.827657 1.603911
000320 3d ee 83 bf c1 e3 14 40 98 fb 84 3e e6 59 89 3d
       -1.030708 2.326401 0.259732 0.067066
000330 e2 94 31 3f d6 37 ce bf 4e 5e 84 3e b0 58 bb bf
       0.693678 -1.611079 0.258532 -1.463644
000340 93 6f 0a c0 c9 ab b3 3f 19 8d f6 bf f3 cc db be
       -2.16306 1.40368 -1.926181 -0.429298
000350 69 70 97 3f ac 56 e8 bf 9c 8a c2 bf 23 f4 73 be
       1.183118 -1.815145 -1.519855 -0.238236
000360 e4 83 de 3d a7 59 70 bf 9b cb 35 3f 4a 46 3e 3e
       0.10865 -0.938868 0.710138 0.185815
000370 c3 ba c1 3e 5d a6 66 be bf 45 23 bf 8a c9 6b 3f
       0.378378 -0.225244 -0.637783 0.921044
000380 a8 a9 4d bf 27 4d cd 3f e9 b7 4f 3f e5 f1 ac be
       -0.80337 1.603917 0.8114 -0.337783
000390 fd db ad bf 47 e6 a9 bf b6 d8 35 3f 79 ea 09 3f
       -1.358276 -1.32734 0.710338 0.538734
0003a0 07 d3 1c bf 12 4e cd 3f 1e 37 dc 3f 02 d5 c1 3f
       -0.612595 1.603945 1.720432 1.514313
0003b0 f0 86 74 bf 6a 15 12 40 6e 16 97 3e aa d6 42 3b
       -0.955184 2.282557 0.295093 0.002973
0003c0 3e cd 35 3f 37 c5 d7 bf 06 0e 78 3e 09 a8 c0 bf
       0.710163 -1.685706 0.242241 -1.505128
0003d0 15 fe 0c c0 d1 24 b5 3f 20 96 00 c0 7e fd f0 be
       -2.203008 1.415186 -2.009163 -0.470684
0003e0 7f 12 9b 3f dc f5 e4 bf 73 be c0 bf 2f a5 6e be
       1.211502 -1.788753 -1.505812 -0.233052
0003f0 b3 0a bb 3d 71 90 60 bf 45 a1 29 3f 03 cf 8d 3e
       0.091329 -0.877204 0.662617 0.27697

RB f4 [192, 3]
000000 04 6e 01 c1 27 f7 67 c0 93 aa ff 3f 32 f3 e6 c0
       -8.089359 -3.62446 1.997393 -7.217187
000010 dd 43 6f c0 c9 3a 4f 40 55 87 f2 c0 ad da 4a c0
       -3.738517 3.237963 -7.57902 -3.169597
000020 49 83 8b 40 09 c4 c2 c0 80 00 91 c0 cf 2d 45 40
       4.359776 -6.08643 -4.531311 3.080921
000030 2a db 12 c1 aa 2d 7b c0 68 79 11 40 4d 3c a7 c0
       -9.178507 -3.924662 2.273035 -5.226111
000040 99 e2 96 c0 a4 9a 83 40 a3 06 be c0 3a 30 9f c0
       -4.715161 4.112627 -5.93831 -4.974637
000050 86 21 0a 40 84 ab f8 c0 65 c8 84 c0 27 16 90 3f
       2.158296 -7.770937 -4.149462 1.125676
000060 17 2a 03 c1 b7 08 22 c0 16 33 e2 3f 00 9a 87 c0
       -8.197776 -2.531782 1.767184 -4.237549
000070 4e 98 8d c0 1e 6e 7b 40 9d d5 b3 c0 b1 c4 86 c0
       -4.424842 3.928596 -5.619826 -4.21151
000080 e1 09 a0 40 ce 26 a4 c0 a1 d9 ba c0 ff 22 8d 40
       5.001206 -5.129737 -5.839066 4.410522
000090 e7 19 2b bf f2 d2 93 40 fe d4 04 3f 5a d4 1b 3f
       -0.668364 4.6195 0.518875 0.608709
0000a0 e6 ea 91 40 60 cc a6 be f0 f9 41 3f 3d 44 6e 40
       4.559924 -0.325778 0.75772 3.722915
0000b0 ff 24 90 bf 5d dd ab 3f 92 20 b7 40 aa 9b 2b be
       -1.126129 1.342693 5.722726 -0.167586
0000c0 a3 94 cc bf 4d c0 90 40 87 19 1a bd ba 2f 27 40
       -1.598286 4.523474 -0.037622 2.612288
0000d0 07 29 be 40 09 4e 79 bf 15 c8 8a 3f b8 ae cc 40
       5.942508 -0.973847 1.084231 6.396328
0000e0 bc cd 03 3f 19 ff 4a bf 19 e5 ad 40 b8 78 9c 3f
       0.514858 -0.792955 5.434216 1.222434
0000f0 3f ff 15 bf ce df 68 40 0c 03 8e 3f 5a f1 59 40
       -0.585926 3.63866 1.109468 3.405356
000100 66 db bc 40 46 07 a4 be 23 32 2b 40 21 31 a1 40
       5.901782 -0.320368 2.674935 5.037247
000110 d4 d2 cc bf 8d d3 24 40 84 1a dc 40 6c 95 c0 bf
       -1.600184 2.575412 6.878237 -1.50456
000120 cf 49 56 c0 26 01 62 bf 9e a9 9e c0 29 25 5a c0
       -3.348255 -0.88283 -4.958205 -3.408518
000130 62 bc 16 c0 46 23 95 c0 db 36 68 c0 73 2a 52 c0
       -2.355248 -4.660556 -3.628348 -3.283841
000140 d1 a0 ae c0 c9 5a 40 c0 53 7b 2c c0 ec fb 55 c0
       -5.457131 -3.005541 -2.695027 -3.343501
000150 9d a1 26 c0 fa 09 3f bf 8f fe ba c0 5e 10 3f c0
       -2.603614 -0.746246 -5.843574 -2.985374
000160 43 00 80 c0 f8 88 39 c0 9a 60 30 c0 5b 98 eb bf
       -4.000032 -2.898985 -2.755896 -1.840587
000170 87 fd 2b c0 34 a2 40 c0 aa b6 5b be e9 29 85 c0
       -2.687349 -3.0099 -0.214564 -4.161366
000180 34 e7 8a c0 92 ad 16 bf 5d a8 a9 c0 ff 92 69 c0
       -4.340723 -0.588586 -5.301802 -3.649597
000190 48 6e 86 c0 3c 4f 02 c0 72 a8 4b c0 2b 04 98 c0
       -4.200962 -2.036086 -3.182156 -4.750509
0001a0 eb 70 6a c0 f1 f1 f7 bf b9 8a 8b c0 ef 90 23 c0
       -3.663142 -1.937071 -4.360684 -2.555721
0001b0 a4 fc 95 c0 71 ae 2d bf c4 26 38 c0 a2 46 86 c0
       -4.68709 -0.678443 -2.877366 -4.196122
0001c0 c6 c1 cd 3e d7 17 00 c0 d8 45 51 c0 0c 21 89 3f
       0.401869 -2.001455 -3.269888 1.071321
0001d0 16 4f 10 c0 25 b1 9d c0 94 be 0c 3f 8a 74 5b bf
       -2.254827 -4.927874 0.549783 -0.857247
0001e0 65 de 9b c0 67 0b 80 be fd a4 7b c0 bb a6 94 c0
       -4.870898 -0.250087 -3.931945 -4.645353
0001f0 4d 14 cb 3f 39 7f 13 3e 4f f5 b5 c0 3d d2 e0 bb
       1.586557 0.14404 -5.686195 -0.006861
000200 53 b2 34 bf 36 9f b1 c0 65 70 a0 bf 86 ad 2c c0
       -0.705846 -5.550685 -1.25343 -2.698091
000210 d5 42 77 c0 19 ff b2 bf 31 ee 46 c0 2f 14 8c c0
       -3.863454 -1.39841 -3.108288 -4.377464
000220 5b d2 8d 3f 35 62 96 3f 58 71 6e c0 95 81 fd 3f
       1.107982 1.174872 -3.725668 1.980517
000230 28 b9 63 be d8 e4 ab c0 b6 9f 0b 40 0b 0d ac 3e
       -0.222386 -5.371685 2.181623 0.336037
000240 f3 cc 18 c0 ff 93 4f 40 58 c9 13 bf 7f 6c 96 bf
       -2.387509 3.243408 -0.577291 -1.175186
000250 3a 03 5a 40 cf f7 ab bf eb 56 8f bf 12 bd 4b 40
       3.406447 -1.3435 -1.11984 3.183415
000260 c6 a3 25 c0 0f 9c 93 bd 16 84 6f 40 e9 f3 29 bf
       -2.588121 -0.072075 3.742437 -0.663878
000270 36 ca 46 c0 b5 c1 7a 40 7a 8b 7b bf c5 fe aa 3f
       -3.106092 3.918073 -0.982597 1.3359
000280 8b a6 76 40 f1 7e a0 bf 11 8d 1e be 23 15 75 40
       3.853915 -1.253874 -0.154835 3.829415
000290 e7 00 b9 3e 48 52 12 c0 cd e9 5c 40 95 f4 f0 3e
       0.361335 -2.286272 3.45177 0.470616
0002a0 ff 07 31 c0 00 71 0d 40 26 01 26 bf 8c dc ff 3f
       -2.766113 2.210022 -0.648455 1.998918
0002b0 a7 76 4c 40 11 51 4c bf d2 71 95 3f 41 62 6c 40
       3.194742 -0.798112 1.167536 3.693497
0002c0 23 dc 14 c0 f2 97 d0 3f 87 09 9d 40 9a b5 8a bf
       -2.325936 1.629637 4.907413 -1.083667
0002d0 b3 42 31 3e 0d c6 10 40 41 67 90 40 1e f9 63 be
       0.173106 2.262088 4.512604 -0.22263
0002e0 c8 06 6d 40 10 6b 8d 40 8e 59 96 bd fe 81 8f 40
       3.703539 4.419319 -0.073413 4.484618
0002f0 0e 69 63 40 e1 b5 57 bf 5b 60 85 40 ca a6 b4 40
       3.553287 -0.842619 4.168012 5.64536
000300 d5 79 74 be 36 77 dc 3f 2f c3 68 40 29 5d b2 bf
       -0.238746 1.722388 3.636913 -1.393468
000310 23 02 b2 40 ef 80 ba 40 4c c1 7a bf 4c fd 60 40
       5.562761 5.828239 -0.979512 3.51546
000320 a1 04 ce 40 a1 a3 55 bd 8e 06 e2 3f 7a fe b0 40
       6.438065 -0.052158 1.765825 5.531064
000330 a5 a3 a2 3f 39 f0 0e 40 30 ae 89 40 3e 78 49 bf
       1.270619 2.233412 4.302513 -0.786991
000340 0d 51 c3 40 a9 41 d2 40 dc 47 8e bf e4 81 c0 40
       6.103644 6.570515 -1.111568 6.015856
000350 01 85 9c 40 35 9a 1c c0 73 7f b0 40 2f 6c bf 40
       4.891236 -2.446912 5.515558 5.981956
000360 15 1e fa c0 b9 1b 51 40 f4 95 85 c0 24 a5 d5 c0
       -7.816172 3.267317 -4.174555 -6.676409
000370 df 8c 13 40 7f 30 8b c0 4e a5 da c0 bb b8 8b 3f
       2.305473 -4.34967 -6.832679 1.091575
000380 6a be 85 c0 5a a1 af c0 ef e4 35 40 a1 e7 92 c0
       -4.179494 -5.488446 2.842098 -4.590775
000390 6e 5d 09 c1 41 11 3d 40 9d 54 9e c0 3e dd 86 c0
       -8.58531 2.954178 -4.947829 -4.214507
0003a0 33 c3 07 40 ce 28 98 c0 e8 a3 ad c0 88 0d 78 40
       2.121289 -4.754981 -5.426258 3.875826
0003b0 e4 48 96 c0 84 d8 f0 c0 60 ac 8b 40 14 20 8e c0
       -4.696398 -7.52643 4.364792 -4.441416
0003c0 4c 83 03 c1 67 60 4d 40 86 92 50 c0 1c ec 5e c0
       -8.219555 3.209009 -3.258943 -3.483161
0003d0 88 bb 1a 40 11 2b 80 c0 64 20 90 c0 68 b3 82 3f
       2.417696 -4.005257 -4.503954 1.0211
0003e0 d9 6b 95 c0 25 b2 75 c0 63 62 10 40 00 81 b7 c0
       -4.669415 -3.838998 2.256005 -5.734497
0003f0 99 4a 91 c0 2e 48 84 40 13 66 ad c0 c6 4d a9 c0
       -4.540356 4.133811 -5.41871 -5.290744

qA f4 [192, 1]
000000 4e 8c c2 be 26 2a 54 3f 90 9a 25 bf 40 fa 75 bf
       -0.3799767 0.82876813 -0.6468897 -0.96084976
000010 f2 5a be be 10 5a 03 3e 25 6c dd 3e 2f 0c ce 3e
       -0.3717876 0.12827325 0.4324657 0.4024367
000020 bc ed 20 3e ce 16 16 3e 16 0b 12 3e f8 3d f8 3d
       0.15715688 0.14657137 0.14262041 0.121211946
000030 82 35 d5 be 5c cc 4b 3f 90 73 16 bf 10 d9 78 bf
       -0.41642386 0.796087 -0.58770084 -0.9720621
000040 5c 7a cf be 02 ca 1a 3e c0 8c d6 3e ea 58 de 3e
       -0.4052304 0.15116122 0.4190426 0.4342721
000050 ec 62 24 3e ac c0 0f 3e d6 63 0a 3e 1c 44 14 3e
       0.1605336 0.14038342 0.13514647 0.14479107
000060 f4 03 e6 be fe 46 5b 3f c7 07 11 bf 80 00 80 bf
       -0.4492489 0.856552 -0.5665249 -1.0000153
000070 b2 e1 d2 be e8 2c 0c 3e c6 e0 d1 3e 94 1f db 3e
       -0.41187817 0.13689005 0.409918 0.4279753
000080 58 dc 1d 3e 9e ca 1b 3e cc d8 f4 3d 74 91 2e 3e
       0.15416086 0.15214011 0.11955413 0.17047673
000090 5a 7c db be e1 2e 5c 3f 03 a2 16 bf c7 b8 7d bf
       -0.4286831 0.8600903 -0.5884096 -0.9911007
0000a0 82 20 cc be e2 54 15 3e b2 c0 e0 3e 5a ae ca 3e
       -0.39868551 0.14583161 0.43897015 0.39586145
0000b0 84 13 18 3e f0 a2 d4 3d 1c 15 2b 3e 48 3c 16 3e
       0.14851195 0.1038264 0.16707271 0.14671433
0000c0 f2 8a d5 be 6c fd 5b 3f fe d4 1f bf 9e 8f 75 bf
       -0.4170757 0.85933566 -0.62434375 -0.9592227
0000d0 20 04 c9 be 82 79 05 3e 52 c1 df 3e b8 a3 c5 3e
       -0.3926096 0.13034633 0.4370218 0.3860147
0000e0 1c cc 18 3e cc fe 15 3e 3e f3 0e 3e 16 b9 14 3e
       0.14921612 0.14647979 0.13959977 0.1452373
0000f0 8c 9d d9 be fd 43 4d 3f a3 eb 0d bf a4 b5 82 bf
       -0.4250301 0.80181867 -0.5543768 -1.0211682
000100 b2 f0 ca be 86 de 1f 3e 97 d7 e3 3e 42 75 d9 3e
       -0.3963676 0.1561223 0.4450042 0.42472273
000110 ee 9e 0c 3e be 34 11 3e 2c 3a 08 3e 3c e2 20 3e
       0.13732502 0.14180276 0.13303441 0.15711302
000120 b0 41 cf be ab d9 48 3f 1a 72 08 bf 4c 3e 88 bf
       -0.40479803 0.78457135 -0.53299105 -1.0644011
000130 c2 c4 cc be e0 ae 2e 3e 04 6c e3 3e c2 9e df 3e
       -0.39993864 0.17058897 0.44418347 0.4367581
000140 ae db 21 3e 20 c8 f7 3d e4 19 f4 3d e0 cf 2b 3e
       0.15806457 0.12098718 0.11919001 0.16778517
000150 fe 16 de be 06 0b 54 3f 7b 20 11 bf 50 6b 84 bf
       -0.43376917 0.8282932 -0.56690186 -1.0345249
000160 f2 63 c2 be 40 28 25 3e f0 fd e1 3e 57 46 d7 3e
       -0.37966877 0.16128635 0.4413905 0.42045853
000170 de e1 19 3e a0 e7 10 3e ec f5 16 3e 70 6c fe 3d
       0.15027568 0.14150858 0.14742249 0.124230266
000180 d6 2e bc be 95 83 50 3f d5 2d 20 bf 67 f0 75 bf
       -0.36754483 0.8145078 -0.62569934 -0.9606995
000190 58 8e c3 be 26 ef 1b 3e fc b2 d1 3e e7 4d df 3e
       -0.38194537 0.15227947 0.40956867 0.43614122
0001a0 58 7c f2 3d 74 24 e4 3d ae fa 26 3e 1c a9 05 3e
       0.11840123 0.111397654 0.16306564 0.13052791
0001b0 64 d7 ca be 66 a1 57 3f c0 84 19 bf 90 30 80 bf
       -0.39617455 0.8423065 -0.59968185 -1.001482
0001c0 16 d0 c2 be 00 1f 29 3e 1b 5e de 3e 14 5e d5 3e
       -0.38049382 0.16515732 0.43431172 0.41673338
0001d0 c4 cf f2 3d 5a 9e 11 3e ae 29 15 3e 30 33 e7 3d
       0.118560344 0.14220563 0.14566681 0.1128906
0001e0 4a b4 c5 be 24 dc 4e 3f 98 b8 1b bf 82 8b 7f bf
       -0.38614112 0.8080466 -0.6082854 -0.9982225
0001f0 a8 6e c3 be f8 ac 06 3e 4d 55 dd 3e d9 e6 db 3e
       -0.38170362 0.1315192 0.43229142 0.4294956
000200 78 38 21 3e 32 4a 07 3e 0a c7 18 3e c2 76 09 3e
       0.15744197 0.13211897 0.14919677 0.13424209
000210 68 f4 c9 be 14 5f 56 3f 31 74 2d bf ad a7 75 bf
       -0.3944428 0.8373883 -0.6775542 -0.9595898
000220 d6 8e c2 be 52 c3 17 3e 9c d8 e5 3e 89 b8 cc 3e
       -0.379996 0.14820603 0.44891822 0.3998454
000230 0c 67 f9 3d 5a 7d 13 3e b8 1e 0c 3e 8e c4 32 3e
       0.12177858 0.14403287 0.13683593 0.17457792
000240 c2 fd d0 be cc 86 55 3f c1 31 1c bf 23 64 78 bf
       -0.40818602 0.8340881 -0.6101342 -0.97027797
000250 d6 ac bb be 8c 97 10 3e 47 c0 e2 3e b4 4a d0 3e
       -0.366553 0.1412031 0.4428732 0.40681994
000260 da 05 1c 3e 80 5e b7 3d 7c 3b 2b 3e d4 e6 f7 3d
       0.15236607 0.08953571 0.1672191 0.12104574
000270 4a 4b d5 be 07 e2 57 3f 69 31 11 bf 1a eb 82 bf
       -0.41659003 0.84329265 -0.5671602 -1.0227997
000280 3c e5 cb be 14 24 0e 3e 7d 93 ce 3e e9 c8 e3 3e
       -0.3982333 0.1388095 0.403469 0.4448922
000290 da 4b 2c 3e 28 51 b6 3d b0 00 1b 3e 6c a5 29 3e
       0.1682581 0.08902198 0.15136981 0.1656701
0002a0 ae cc d1 be 14 ff 5d 3f 95 89 1d bf f3 52 75 bf
       -0.4097647 0.86717343 -0.6153806 -0.95829695
0002b0 fa 62 ce be 40 2f 11 3e 42 96 cf 3e 81 58 d2 3e
       -0.40309888 0.1417818 0.40544325 0.41083148
0002c0 0c 80 07 3e fc 63 04 3e 2c 0a 04 3e 00 da 2e 3e
       0.1323244 0.12928766 0.12894505 0.17075348
0002d0 5e db c4 be be ef 4c 3f 0d 86 16 bf 7b 14 7d bf
       -0.38448614 0.8005332 -0.58798295 -0.98859376
0002e0 20 be d1 be b2 99 06 3e 8a 46 dc 3e ee e4 d5 3e
       -0.40965366 0.13144568 0.43022567 0.41776222
0002f0 a8 17 30 3e e8 47 e8 3d ea ec 1b 3e d8 c4 1c 3e
       0.17196524 0.1134184 0.15227094 0.15309465

muA f4 [192, 3]
000000 f6 47 cb bd d8 99 2e bd c0 e2 14 3c c0 5a fd 3b
       -0.09925835 -0.042627186 0.009087265 0.0077317655
000010 dc 3b 76 3d 90 66 1a bd 92 b3 87 bd 58 90 23 3d
       0.06011568 -0.037695467 -0.06626047 0.03993258
000020 88 50 2f bd f0 f3 0a bd c0 96 b0 3c 80 be d9 3b
       -0.04280141 -0.033924043 0.021556258 0.006645024
000030 be be cc 3d b0 06 ef 3c 80 02 87 bb 00 f5 e4 3a
       0.09997319 0.029177994 -0.004120171 0.0017468035
000040 60 52 37 3c ec f9 3b 3d 00 0c b7 3a 30 7f ae 3c
       0.011189073 0.04589264 0.0013965368 0.021300882
000050 60 d4 8f bc 50 66 98 3c 00 db 80 bc 60 b7 73 3c
       -0.017557323 0.018603474 -0.015729427 0.014875263
000060 e0 06 5a 3c a0 cb 14 bd 30 70 a2 bc e0 4e 11 3c
       0.013307303 -0.036327004 -0.019828886 0.008868903
000070 58 8f 0c bd 00 77 ce 3c e0 1b a3 bc 98 f0 24 3d
       -0.03431639 0.025203228 -0.019910753 0.04026851
000080 80 21 73 3c 80 f1 5c bc 00 42 a2 ba c8 6d 43 bd
       0.01483953 -0.013485312 -0.0012379289 -0.047712117
000090 7a 36 bb bd 78 f1 69 bd b0 70 c4 3c f0 e7 80 3c
       -0.0914125 -0.05711505 0.023979515 0.015735596
0000a0 40 5e 68 3d 40 a4 16 bd d4 d1 c5 bd a0 69 d9 3c
       0.05673051 -0.036777735 -0.09659162 0.026539624
0000b0 a8 19 0a bd c0 75 2f bc 00 b8 23 ba 20 ef 7b 3c
       -0.033715874 -0.010709226 -0.00062453747 0.015376836
0000c0 74 34 bd 3d b0 c8 a7 3c c0 1b 16 bc 00 05 94 3a
       0.0923852 0.020481437 -0.00916189 0.0011292994
0000d0 60 9b 74 3c 88 ee 3f 3d 00 80 a5 39 70 ac bc 3c
       0.014929622 0.04685834 0.0003156662 0.023031443
0000e0 10 c8 8d bc 50 12 9b 3c 20 34 63 bc a0 10 4b 3c
       -0.017307311 0.01892963 -0.013867408 0.0123941
0000f0 80 7d 36 3c 48 a7 1f bd 10 80 bf bc 20 b1 1f 3c
       0.01113832 -0.03897789 -0.023376495 0.00974682
000100 18 b5 0e bd 30 57 dd 3c 20 e6 94 bc 98 02 34 3d
       -0.034840673 0.027019113 -0.018176138 0.043947786
000110 b0 97 bb 3c a0 71 49 bc 00 bb de bb a8 98 49 bd
       0.022899479 -0.012295157 -0.0067971945 -0.04921785
000120 9e c1 a5 bd a8 f3 1f bd 40 c5 bb 3b c0 bc 90 3c
       -0.0809357 -0.039050728 0.005730301 0.017668128
000130 34 a7 3d 3d 70 e7 cf bc 02 6a b1 bd 60 cb bc 3c
       0.046302035 -0.025378913 -0.086627975 0.023046196
000140 b0 c0 e4 bc c0 4c 4b bc c0 56 c8 3b d0 6d 00 3d
       -0.027923912 -0.012408435 0.006113857 0.031354725
000150 8a 95 b5 3d 90 14 b1 3c 20 b8 88 bc 80 a0 37 3b
       0.08866413 0.02161625 -0.01668936 0.002801925
000160 c0 bc 1d 3c c0 5d 50 3d 80 34 05 bb d0 12 a4 3c
       0.009627521 0.050870657 -0.0020325482 0.020028502
000170 00 9c 72 bc 30 a8 9b 3c e0 98 4e bc 00 8c 1b 3c
       -0.014807701 0.019001096 -0.01260969 0.009493828
000180 e0 45 1c 3c 60 f1 37 bd 10 87 9f bc c0 57 eb 3b
       0.009538144 -0.044907928 -0.019473583 0.0071820915
000190 e8 0a 23 bd c0 38 eb 3c c0 1a 7f bc c8 78 4c 3d
       -0.039805323 0.028713584 -0.015570343 0.049919873
0001a0 e0 0a 85 3c c0 25 ed bb 00 bc a0 ba c8 7f 3b bd
       0.016240537 -0.007237166 -0.001226306 -0.04577616
0001b0 9a d2 ec bd f0 0c 2d bd 10 b5 bc 3c 60 1f 51 3c
       -0.115636066 -0.042248666 0.023035556 0.012763828
0001c0 f8 1d 70 3d a8 86 02 bd 34 0e a1 bd 70 43 9e 3c
       0.05862233 -0.0318667 -0.07864037 0.019319266
0001d0 10 66 cb bc 20 d9 1a bd e0 61 f5 3c e0 96 85 3c
       -0.02482894 -0.037804723 0.029953897 0.016307294
0001e0 ba 7a db 3d 0c a0 3e 3d c0 27 b9 bb 40 e8 bc 3b
       0.107167676 0.04653935 -0.0056504905 0.005764991
0001f0 e0 be 2b 3c 58 36 44 3d 00 20 3d 39 70 0e b0 3c
       0.01048252 0.04790339 0.00018036366 0.02149126
000200 70 44 89 bc 60 a2 c4 3c b0 95 92 bc 20 e3 6a 3c
       -0.016756266 0.024003208 -0.017893642 0.014336377
000210 40 27 6d 3c 08 f2 20 bd 00 6d c6 bc 00 9f 87 3b
       0.01447469 -0.03929332 -0.024221897 0.0041388273
000220 f0 55 3a bd 80 dd 06 3d 00 ef 96 bc c0 16 28 3d
       -0.045492113 0.032926083 -0.018424511 0.04103732
000230 80 89 6b 3c 20 80 11 bc 40 e8 8a bb 00 7a 3e bd
       0.014376044 -0.008880645 -0.004239112 -0.046503067
000240 fe 39 e2 bd 40 a6 46 bd 60 d1 08 3c a0 aa 63 3c
       -0.110462174 -0.048498392 0.0083507 0.013895661
000250 a0 a2 53 3d 18 ec 05 bd a4 18 92 bd 20 58 f8 3c
       0.051668763 -0.03269586 -0.07133606 0.030315459
000260 70 ff 03 bd 40 f9 1d bd 10 14 bd 3c 80 89 27 3b
       -0.032226026 -0.03856778 0.023080856 0.0025564134
000270 38 25 d9 3d 60 d7 e7 3c e0 f3 1e bc 80 fe 97 3b
       0.10602802 0.028300941 -0.009701699 0.004638493
000280 f0 89 83 3c 38 1e 45 3d 00 02 e6 3a 00 4b c1 3c
       0.016056985 0.048124522 0.0017548203 0.023595333
000290 20 df 7f bc 10 40 d5 3c 70 7c a1 bc 60 bb 59 3c
       -0.015617162 0.026031524 -0.019712657 0.013289303
0002a0 a0 fb 4c 3c 80 3e 25 bd 90 e4 bc bc 00 b8 24 3c
       0.012511164 -0.040342808 -0.023058206 0.010053635
0002b0 90 60 0c bd 30 ab ed 3c 40 a3 84 bc 40 9a 39 3d
       -0.034271777 0.029012293 -0.016191125 0.04531312
0002c0 60 6d 7b 3c 20 29 22 bc 80 62 95 bb e0 ac 45 bd
       0.015345901 -0.0098975 -0.0045588613 -0.04826057
0002d0 57 c5 00 be 80 49 24 bd e0 cc f3 3c 00 20 06 3c
       -0.12575279 -0.040109158 0.029760778 0.00818634
0002e0 70 ee 6d 3d 50 84 10 bd 9a 00 a5 bd 20 8d 0d 3d
       0.05808872 -0.035282433 -0.08056755 0.034558415
0002f0 00 ce c3 bc 60 6c 81 bc 98 1c 19 3d 70 ac 95 3c
       -0.02390194 -0.015798748 0.037380785 0.018270701
000300 ca 77 b9 3d 60 25 5b 3c 60 0e 18 bc 60 bf 46 3c
       0.09056051 0.01337561 -0.009280771 0.012130588
000310 00 7c 28 3c 08 36 3d 3d 00 00 42 b7 20 a4 9c 3c
       0.01028347 0.046194106 -1.1563301e-05 0.01912123
000320 c0 b4 7f bc 50 13 98 3c 40 3c 73 bc 00 4d 52 3c
       -0.015607059 0.018563896 -0.014845908 0.012835741
000330 e0 39 32 3c 20 91 24 bd 80 a1 ad bc 80 21 d8 3b
       0.010878056 -0.040177464 -0.021195173 0.0065957904
000340 f0 dd 19 bd 90 37 07 3d 00 76 f1 bb e0 e5 3d 3d
       -0.03756517 0.033011973 -0.007368803 0.046361804
000350 b0 d3 87 3c 00 16 33 bc c0 ab 8b bb 68 9f 43 bd
       0.016580433 -0.010930538 -0.0042624176 -0.047759444
000360 2a d6 be bd 80 b1 7e bd 30 b6 08 3d 00 e6 be 3b
       -0.09318192 -0.062180996 0.033376873 0.005825758
000370 40 a3 66 3d 28 d9 0a bd 38 1a 94 bd 20 7c d9 3c
       0.05630803 -0.033898503 -0.07231563 0.026548445
000380 20 e7 09 bd e0 76 03 bc c0 10 8e 3c a0 e6 3e 3c
       -0.033667684 -0.0080239475 0.017341971 0.011651665
000390 20 8e d5 3d 40 57 1d 3c 20 b9 7d bc a0 91 16 3c
       0.10427499 0.009603322 -0.015486032 0.009189993
0003a0 70 3e 8c 3c 9c 5c 36 3d 80 5f 0f bb 90 d1 af 3c
       0.017119616 0.044521913 -0.002187699 0.021462232
0003b0 60 2e 89 bc 70 f9 a2 3c c0 2e 82 bc a0 88 55 3c
       -0.016745746 0.019894332 -0.015891433 0.013033062
0003c0 a0 41 55 3c 40 b4 20 bd b0 cf c6 bc 00 7f 42 3b
       0.0130161345 -0.0392344 -0.024268955 0.0029677749
0003d0 a0 9a 27 bd 30 ae 15 3d 80 1d ae bc 80 0e 34 3d
       -0.040918946 0.03654307 -0.021254301 0.04395914
0003e0 90 68 a6 3c 20 2f 59 bc 80 82 83 bb 00 26 44 bd
       0.020313531 -0.013255864 -0.0040133595 -0.047887802
0003f0 64 be c7 bd c0 2e 47 bd 60 3b be 3c 20 1d 71 3c
       -0.09753111 -0.04862857 0.023221672 0.014716417

quadA f4 [192, 3, 3]
000000 49 e6 9f bd 78 93 ad bc 40 50 e3 bb 78 93 ad bc
       -0.07807595 -0.021188483 -0.006937057 -0.021188483
000010 84 70 af 3c 40 d5 80 3d 40 50 e3 bb 40 d5 80 3d
       0.021415956 0.06290674 -0.006937057 0.06290674
000020 52 14 68 3d 1c 33 43 bd 40 3a d1 3b 44 9b 16 bd
       0.056660004 -0.047656164 0.006385118 -0.036769167
000030 40 3a d1 3b 20 a8 b5 bb a0 c5 05 3e 44 9b 16 bd
       0.006385118 -0.0055437237 0.13063669 -0.036769167
000040 a0 c5 05 3e 24 e8 59 3d d0 4e fd bb 98 92 c0 bc
       0.13063669 0.053199902 -0.0077303424 -0.023507401
000050 c0 bd 81 3b 98 92 c0 bc c8 8c 5f bc 78 28 75 3d
       0.0039593875 -0.023507401 -0.013644405 0.059853047
000060 c0 bd 81 3b 78 28 75 3d 14 1a af 3c da e1 64 bc
       0.0039593875 0.059853047 0.02137474 -0.013969863
000070 c0 b3 b5 bc 38 25 9f 3c c0 b3 b5 bc 6c b3 b2 3b
       -0.022180438 0.019426927 -0.022180438 0.0054535177
000080 00 23 4f 3b 38 25 9f 3c 00 23 4f 3b 26 88 0b 3c
       0.0031606555 0.019426927 0.0031606555 0.008516347
000090 70 c6 90 bd cc cd 10 bd 50 8e 69 3c cc cd 10 bd
       -0.07069099 -0.035352513 0.014255121 -0.035352513
0000a0 0a fe e5 3c 00 39 b9 3a 50 8e 69 3c 00 39 b9 3a
       0.028075237 0.0014131367 0.014255121 0.0014131367
0000b0 d9 8d 2e 3d ac 1c b7 3a c0 cf 48 3b 60 52 41 bc
       0.042615745 0.0013970337 0.0030641407 -0.011799425
0000c0 c0 cf 48 3b 4b a9 d0 3b 10 bf 02 bc 60 52 41 bc
       0.0030641407 0.0063678375 -0.007980123 -0.011799425
0000d0 10 bf 02 bc 75 70 fe bb 10 5f 1e 3c 00 20 ba b9
       -0.007980123 -0.0077648708 0.009666219 -0.00035500526
0000e0 00 84 54 3b 00 20 ba b9 c0 67 a5 bb 00 04 1d 39
       0.003242731 -0.00035500526 -0.0050477684 0.00014974177
0000f0 00 84 54 3b 00 04 1d 39 60 56 97 bb b0 e6 91 39
       0.003242731 0.00014974177 -0.004618451 0.0002782843
000100 00 28 0b 3c a0 91 a0 bb 00 28 0b 3c 56 70 1e 3b
       0.008493423 -0.0049001724 0.008493423 0.0024175844
000110 20 2e b4 bb a0 91 a0 bb 20 2e b4 bb 2a ad 30 bb
       -0.0054986626 -0.0049001724 -0.0054986626 -0.0026958683
000120 d6 cd 3f bb 30 6b 20 3c 00 86 11 ba 30 6b 20 3c
       -0.0029266975 0.0097911805 -0.00055512786 0.0097911805
000130 d4 df f0 3a 20 22 9e bb 00 86 11 ba 20 22 9e bb
       0.0018377253 -0.0048258454 -0.00055512786 -0.0048258454
000140 d4 bb 8e 3a 55 d6 a0 3b 00 41 03 3a 00 42 bf 3a
       0.0010889717 0.004908363 0.0005006939 0.0014591813
000150 00 41 03 3a 95 d6 49 bb e0 c7 89 3b 00 42 bf 3a
       0.0005006939 -0.0030798067 0.004204735 0.0014591813
000160 e0 c7 89 3b 2a ac ef ba 2b bb 63 3b c0 e8 fa 3b
       0.004204735 -0.0018285562 0.0034749012 0.0076571405
000170 80 f8 7e 3b c0 e8 fa 3b 55 17 26 bb 80 5a ca ba
       0.0038905442 0.0076571405 -0.0025343497 -0.0015438348
000180 80 f8 7e 3b 80 5a ca ba 56 8f 76 ba 40 51 b5 3b
       0.0038905442 -0.0015438348 -0.0009405514 0.0055333674
000190 00 7f 7a 3a 10 af 14 bc 00 7f 7a 3a 00 c0 f2 3a
       0.00095556676 -0.009074941 0.00095556676 0.0018520355
0001a0 00 70 11 bb 10 af 14 bc 00 70 11 bb 40 01 f2 bb
       -0.0022192001 -0.009074941 -0.0022192001 -0.007385403
0001b0 49 b1 97 bd 70 14 ac bc c0 37 4b bb 70 14 ac bc
       -0.07406861 -0.02100584 -0.0031008571 -0.02100584
0001c0 ec 64 bf 3c 00 8f 58 3d c0 37 4b bb 00 8f 58 3d
       0.023363553 0.05287075 -0.0031008571 0.05287075
0001d0 1e b0 4f 3d 74 52 1e bd 00 f5 81 3a 78 87 e9 bc
       0.050705068 -0.038652852 0.0009914935 -0.02850698
0001e0 00 f5 81 3a c0 ac 96 bc 74 12 13 3e 78 87 e9 bc
       0.0009914935 -0.01839292 0.14362508 -0.02850698
0001f0 74 12 13 3e d4 a8 69 3d 78 b2 18 3c 28 39 8a bc
       0.14362508 0.057045773 0.009319894 -0.016872957
000200 c0 40 23 3b 28 39 8a bc 24 89 f5 bc 6e e4 ae 3d
       0.002491042 -0.016872957 -0.02997262 0.08539663
000210 c0 40 23 3b 6e e4 ae 3d e4 2f a9 3c 45 64 48 bc
       0.002491042 0.08539663 0.020652719 -0.012230937
000220 80 fd 55 bc 90 b9 0a 3c 80 fd 55 bc f5 48 db 3b
       -0.013060927 0.008467093 -0.013060927 0.0066920468
000230 b0 a2 41 bc 90 b9 0a 3c b0 a2 41 bc 95 7f b5 3b
       -0.011818573 0.008467093 -0.011818573 0.0055388906
000240 be 77 02 bd 50 5c 4b bc 40 c1 76 3b 50 5c 4b bc
       -0.031852476 -0.012412146 0.0037651807 -0.012412146
000250 46 c7 79 3c 40 a0 a1 3b 40 c1 76 3b 40 a0 a1 3b
       0.015245264 0.0049324334 0.0037651807 0.0049324334
000260 db 0b 88 3c ac a7 16 3a 00 ff 5e 3b 80 85 03 bc
       0.016607216 0.0005747031 0.0034026504 -0.008027434
000270 00 ff 5e 3b 6b b9 7d 3b 80 c4 72 bb 80 85 03 bc
       0.0034026504 0.0038715254 -0.0037043393 -0.008027434
000280 80 c4 72 bb aa b1 91 bb ba 7d 1c 3c 00 bb 50 ba
       -0.0037043393 -0.004446228 0.00955146 -0.00079624355
000290 80 c8 3f 3b 00 bb 50 ba 8b 65 a0 bb 00 04 ee 39
       0.0029263794 -0.00079624355 -0.0048949174 0.00045397878
0002a0 80 c8 3f 3b 00 04 ee 39 eb 95 98 bb 94 8b 34 3b
       0.0029263794 0.00045397878 -0.0046565435 0.0027549015
0002b0 80 e4 20 3c e0 2a ab bb 80 e4 20 3c 94 79 03 3b
       0.009820104 -0.005223617 0.009820104 0.002006148
0002c0 00 90 f6 bb e0 2a ab bb 00 90 f6 bb 96 02 9c bb
       -0.0075244904 -0.005223617 -0.0075244904 -0.0047610505
0002d0 2b 34 04 bb 40 5d ff 3b 00 e6 a5 ba 40 5d ff 3b
       -0.0020172696 0.0077930987 -0.0012657046 0.0077930987
0002e0 d5 fd 0e 3b 80 2c 27 bb 00 e6 a5 ba 80 2c 27 bb
       0.0021818776 -0.0025508702 -0.0012657046 -0.0025508702
0002f0 ac 9a 2c b9 ab 4c 83 3b 00 84 3b ba 00 0f c3 3a
       -0.00016460818 0.0040069423 -0.00071531534 0.001488179
000300 00 84 3b ba ab df 35 bb 40 27 20 3b 00 0f c3 3a
       -0.00071531534 -0.0027751725 0.0024437457 0.001488179
000310 40 27 20 3b 55 73 a1 ba e0 37 a6 3b a0 8c f9 3b
       0.0024437457 -0.0012317697 0.005072579 0.0076156408
000320 40 74 7e 3b a0 8c f9 3b 60 98 8d bb 80 55 11 bb
       0.0038826615 0.0076156408 -0.004321143 -0.0022176206
000330 40 74 7e 3b 80 55 11 bb 00 fc 44 ba ab 37 f0 3b
       0.0038826615 -0.0022176206 -0.00075143576 0.007330855
000340 00 63 66 3a 60 c1 9b bb 00 63 66 3a ac ce 28 b9
       0.0008788556 -0.0047532767 0.0008788556 -0.0001609872
000350 00 6e d6 b9 60 c1 9b bb 00 6e d6 b9 35 f1 ea bb
       -0.00040899217 -0.0047532767 -0.00040899217 -0.0071698674
000360 1b b6 81 bd 00 84 8f b9 d8 58 c4 bc 00 84 8f b9
       -0.06333562 -0.00027373433 -0.023968145 -0.00027373433
000370 28 1a 3b 3c 58 87 7f 3d d8 58 c4 bc 58 87 7f 3d
       0.01141981 0.062384933 -0.023968145 0.062384933
000380 ae a5 54 3d c0 f3 8a bc 10 6d d3 3c 98 0e 2a bd
       0.051915817 -0.016961932 0.025808841 -0.041517824
000390 10 6d d3 3c 40 8a e0 bc 42 d1 0a 3e 98 0e 2a bd
       0.025808841 -0.027409673 0.13556388 -0.041517824
0003a0 42 d1 0a 3e fc be 35 3d 70 98 19 bd 00 7f c8 3a
       0.13556388 0.04437159 -0.03749889 0.0015296638
0003b0 38 da e3 bc 00 7f c8 3a 60 96 b9 bb 34 fa af 3d
       -0.027814016 0.0015296638 -0.005663678 0.08592644
0003c0 38 da e3 bc 34 fa af 3d 38 cb 30 3d 9b c6 86 3c
       -0.027814016 0.08592644 0.043162555 0.016452124
0003d0 00 97 d7 3a c0 d1 2b bc 00 97 d7 3a eb 2a dd 3b
       0.00164482 -0.01048702 0.00164482 0.006749501
0003e0 c0 79 92 bc c0 d1 2b bc c0 79 92 bc 55 11 be bc
       -0.01788032 -0.01048702 -0.01788032 -0.023201624
0003f0 40 99 70 b9 00 4f 0c 3c 80 19 43 bb 00 4f 0c 3c
       -0.00022945274 0.008563757 -0.0029769838 0.008563757

hfvrA f4 [192, 1]
000000 8f 54 89 3f fc 66 16 3f 64 e1 9c 3f 47 b5 b2 3f
       1.072893 0.5875089 1.2256284 1.3961571
000010 fb 90 88 3f a0 4b ba 3e 00 41 0c 3e f8 43 2a 3e
       1.0669245 0.36385822 0.1369667 0.1662749
000020 ba f5 9a 3e 2a e4 96 3e c2 37 a9 3e 54 8d cf 3e
       0.302656 0.2947095 0.33050352 0.40537512
000030 3b 0f 8b 3f b5 13 19 3f e7 2e 97 3f 5f 93 b5 3f
       1.0864023 0.59795696 1.1811188 1.4185599
000040 17 c0 8a 3f b8 08 9e 3e 38 92 35 3e 64 32 09 3e
       1.0839871 0.30866027 0.1773156 0.13398129
000050 b0 98 91 3e 9c bd 98 3e ee f3 b2 3e e4 45 ab 3e
       0.28436804 0.2983216 0.3495173 0.3345176
000060 c4 1a 91 3f 9e 57 0f 3f 7e cc 8f 3f 8e 7a b9 3f
       1.1336293 0.5599307 1.1234281 1.4490526
000070 2c 42 8c 3f d4 70 cb 3e d0 72 34 3e 60 1d 27 3e
       1.0957694 0.3973452 0.17621922 0.163198
000080 3a 87 a5 3e aa 22 9d 3e 20 b9 ca 3e 30 bc 85 3e
       0.32329732 0.3069051 0.39594364 0.26120138
000090 73 09 8f 3f 20 12 10 3f 87 86 92 3f ca 4b b7 3f
       1.1174759 0.56277657 1.1447304 1.4320004
0000a0 51 82 8c 3f c4 ae b8 3e 7c ef 0a 3e 10 c4 5a 3e
       1.097727 0.36070836 0.13567919 0.21363854
0000b0 26 70 b5 3e e8 a4 e2 3e ee 67 8f 3e f8 d9 aa 3e
       0.35437125 0.44266438 0.2800898 0.33369422
0000c0 8a e3 8e 3f e3 16 11 3f e2 fa 98 3f 5e cf b3 3f
       1.116319 0.5667555 1.1951563 1.4047658
0000d0 e3 98 8a 3f 66 f6 ce 3e e0 9e 18 3e 48 65 68 3e
       1.0827907 0.40422362 0.14904356 0.22694886
0000e0 2e 83 af 3e ac 0e a3 3e 6c 5d b6 3e 84 4e ac 3e
       0.3427977 0.3184713 0.3561815 0.33653653
0000f0 3f b4 8c 3f 0d 56 16 3f 86 c1 92 3f 2c 9a bd 3f
       1.0992507 0.58725053 1.1465309 1.4812675
000100 98 da 8a 3f 94 94 b5 3e dc 9c 16 3e cc cf 24 3e
       1.084796 0.3546492 0.14708275 0.16094893
000110 2e fe b5 3e 32 b6 a9 3e fe 26 bc 3e b0 51 9c 3e
       0.35545486 0.33146816 0.367485 0.30531073
000120 b9 bc 88 3f fa f9 18 3f 5b 07 8f 3f 10 dd bb 3f
       1.0682594 0.59756434 1.117412 1.4676838
000130 39 0a 8e 3f 8a e2 91 3e c8 07 f9 3d c0 3f f3 3d
       1.109687 0.28493148 0.12159687 0.11877394
000140 f4 58 9d 3e d8 fa bf 3e 4e 05 d4 3e 46 2f 98 3e
       0.30731928 0.37496066 0.41410297 0.29723567
000150 9d 50 8d 3f 2d 04 14 3f 10 67 8f 3f 8c 17 bd 3f
       1.1040226 0.5781887 1.1203327 1.4772811
000160 99 60 87 3f 5e 91 98 3e 0c 9b 0a 3e c4 98 27 3e
       1.0576354 0.29798406 0.13535708 0.16366869
000170 30 35 aa 3e 68 93 94 3e 7c eb 9c 3e 3c 33 b6 3e
       0.33243704 0.29018712 0.3064841 0.35585964
000180 18 2a 87 3f 8e 74 18 3f 07 4b 9c 3f 92 22 af 3f
       1.0559721 0.5955285 1.2210397 1.3682425
000190 df 5c 8c 3f 4c d8 9d 3e d0 13 2c 3e 88 b0 ef 3d
       1.0965842 0.30829084 0.16804433 0.117035925
0001a0 c4 f6 d5 3e a6 ff d6 3e b2 3b 98 3e e6 29 cb 3e
       0.4178983 0.4199192 0.29733044 0.39680403
0001b0 72 31 88 3f 6d b5 12 3f ac dc 96 3f a3 da b7 3f
       1.064009 0.57308084 1.1786094 1.4363598
0001c0 4c 6a 8c 3f a8 1a 92 3e 68 8c 0c 3e 18 a6 22 3e
       1.0969939 0.28535962 0.13725436 0.15883672
0001d0 18 02 d0 3e c6 ad aa 3e 58 e8 ab 3e 8e c6 d0 3e
       0.40626597 0.33335704 0.33575702 0.40776485
0001e0 e9 f3 88 3f 8c e7 17 3f a5 6f 99 3f e9 6c b5 3f
       1.0699435 0.5933769 1.1987196 1.4173862
0001f0 86 21 89 3f c8 26 c4 3e 60 a2 10 3e d0 03 04 3e
       1.0713356 0.38310838 0.14124441 0.1289208
000200 80 1b 9c 3e 0e 35 ad 3e 7c e4 a4 3e 04 66 bf 3e
       0.3048973 0.3382954 0.3220557 0.3738252
000210 1b 9b 8e 3f ec 63 17 3f d0 e2 a0 3f 5a bb b4 3f
       1.1141084 0.59136844 1.2569218 1.4119675
000220 08 32 8a 3f 30 33 be 3e 2c 0c 01 3e 40 20 4c 3e
       1.0796518 0.37148428 0.126023 0.19934177
000230 d8 e7 d6 3e d2 d0 a9 3e 3c b2 c9 3e 60 99 92 3e
       0.41973758 0.3316713 0.39393795 0.2863264
000240 88 9e 8c 3f 98 f0 14 3f f6 86 98 3f af a4 b3 3f
       1.098588 0.58179617 1.1916187 1.4034632
000250 b5 ed 86 3f d8 e6 b3 3e d0 71 04 3e 20 99 3c 3e
       1.0541292 0.35137057 0.12934041 0.18417788
000260 56 0b ac 3e a0 05 d7 3e 68 0b 82 3e 7e 54 c1 3e
       0.336024 0.4199648 0.25399327 0.37759775
000270 d0 78 89 3f d5 22 12 3f 44 f9 8f 3f 0e 12 b9 3f
       1.0739994 0.570844 1.1247945 1.4458635
000280 de 7c 89 3f 22 73 b2 3e f8 71 3e 3e 60 e8 d3 3d
       1.0741231 0.34853464 0.18598163 0.103470564
000290 a8 1d 8b 3e 8c e3 da 3e 56 87 a0 3e a4 c7 85 3e
       0.27171063 0.4275173 0.31353253 0.26128876
0002a0 b3 c1 8d 3f 5c b0 0f 3f e5 c6 97 3f 83 e3 b3 3f
       1.1074737 0.5612848 1.1857573 1.4053806
0002b0 4b c8 8c 3f f0 6c bd 3e 90 a5 4d 3e 70 86 31 3e
       1.0998625 0.36997175 0.20082688 0.1733644
0002c0 b4 4e bd 3e 00 97 bb 3e 5c ce ca 3e f2 87 93 3e
       0.36974108 0.3663864 0.39610565 0.28814656
0002d0 58 ff 88 3f c1 ee 17 3f 09 32 97 3f f9 a2 b9 3f
       1.0702925 0.59348685 1.1812145 1.450286
0002e0 8c 6f 8d 3f de 5d c3 3e e4 87 20 3e 24 0e 28 3e
       1.1049666 0.38157552 0.15676838 0.16411644
0002f0 72 62 91 3e 0a b2 c3 3e f8 ea aa 3e f6 85 a8 3e
       0.2839542 0.3822177 0.33382392 0.32914704

vwA f4 [192, 1]
000000 74 25 04 3f 44 dd ee 3e 0c 49 cf 3e e2 23 ee 3e
       0.5161965 0.46653187 0.40485418 0.4651175
000010 e8 ff 03 3f 83 2b c9 3e ff ed a7 3e 7c c5 ae 3e
       0.51562357 0.3929101 0.32798764 0.34135044
000020 29 1e bf 3e bb b4 bc 3e 81 01 c3 3e ae b7 cd 3e
       0.37327698 0.36856636 0.38087085 0.401792
000030 4e 64 04 3f 5e e9 f0 3e 03 41 ce 3e 54 59 ef 3e
       0.5171555 0.47053045 0.40283975 0.4674784
000040 b2 98 04 3f 14 5b c0 3e 07 b3 b4 3e 34 16 a6 3e
       0.51795495 0.37569487 0.35292837 0.32438815
000050 08 ae bb 3e b3 0a bd 3e 2e 48 c7 3e 39 5c c4 3e
       0.36656213 0.36922225 0.38922256 0.3835161
000060 9e c3 05 3f e5 ef ea 3e a8 c2 ca 3e 00 f2 f0 3e
       0.52251613 0.4588615 0.39601636 0.4705963
000070 3e 84 04 3f 3f 82 ca 3e 7f 74 b3 3e 6c 43 ae 3e
       0.51764286 0.39552495 0.35049817 0.34035814
000080 88 fa c0 3e 36 3b bf 3e 1a bc cd 3e b8 22 b7 3e
       0.3769114 0.37349862 0.40182573 0.35768676
000090 66 75 05 3f 38 2a eb 3e de b8 cb 3e 01 40 f0 3e
       0.5213226 0.45930648 0.3978948 0.4692383
0000a0 0b 6b 05 3f df ed c6 3e 35 00 a7 3e 09 85 b9 3e
       0.5211646 0.38853356 0.32617345 0.3623431
0000b0 10 f4 c5 3e 27 cd d1 3e 03 23 bb 3e 9a e1 c4 3e
       0.38662767 0.4097683 0.3655015 0.3845337
0000c0 f0 88 06 3f 12 f4 eb 3e 41 ff cd 3e b4 9d ef 3e
       0.525527 0.46084648 0.40233806 0.46800005
0000d0 0a 0d 05 3f df 99 cd 3e 55 12 ac 3e 3d 19 bc 3e
       0.5197302 0.40156457 0.33607736 0.36738005
0000e0 b3 f5 c4 3e 3b e4 c0 3e bb b4 c8 3e a3 f7 c4 3e
       0.38468704 0.37674126 0.39200386 0.38470182
0000f0 36 52 05 3f c1 2c ef 3e 3f fe cb 3e 14 9f f2 3e
       0.5207857 0.46713832 0.39842412 0.47386992
000100 23 dd 04 3f c6 fc c6 3e b4 ed ab 3e 73 c6 ad 3e
       0.5189993 0.38864726 0.3357979 0.33940467
000110 31 6d c6 3e 91 7d c3 3e e5 d0 c8 3e d5 fd bf 3e
       0.3875518 0.38181737 0.39221874 0.37498346
000120 1f 0d 04 3f d8 a2 ef 3e a0 3d ca 3e 4c 22 f0 3e
       0.5158252 0.46803927 0.3950014 0.46901166
000130 cf c0 05 3f 6b 11 bd 3e b7 ae a1 3e 9c ff 9e 3e
       0.5224733 0.3692735 0.3157861 0.3105439
000140 44 a7 c0 3e 4b 4a ca 3e aa 80 cf 3e ab be bd 3e
       0.37627614 0.39509806 0.4052785 0.3705953
000150 0a df 04 3f 8a 86 ed 3e 11 5a ca 3e 35 b3 f1 3e
       0.5190283 0.46391708 0.3952184 0.47207037
000160 2b 2e 03 3f e7 6e be 3e 64 01 a7 3e 97 90 ae 3e
       0.5124232 0.37193987 0.32618248 0.34094688
000170 57 e7 c3 3e b1 bb bb 3e 0f 15 bf 3e 89 17 c7 3e
       0.38262436 0.36666635 0.37320754 0.38885143
000180 f5 b0 03 3f 5c a1 ee 3e fe cd ce 3e 1c 13 ed 3e
       0.5144189 0.46607482 0.40391535 0.46303642
000190 39 5d 05 3f 64 04 c0 3e f3 19 b0 3e 7a e0 9c 3e
       0.5209537 0.3750335 0.34394798 0.30640012
0001a0 d3 11 cf 3e 8a e3 cf 3e bf 8d bd 3e 58 1d cd 3e
       0.40443286 0.40603286 0.37022206 0.4006145
0001b0 95 b7 03 3f 02 a6 ec 3e 40 6d cd 3e d2 d4 ef 3e
       0.51452 0.46220404 0.40122414 0.46842057
0001c0 30 7d 05 3f 7f 17 bc 3e 1b 1d a6 3e 56 a3 ac 3e
       0.52144146 0.36736676 0.3244408 0.33718365
0001d0 8e bb cd 3e 5a 0c c4 3e 01 88 c4 3e 36 16 ce 3e
       0.40182155 0.38290673 0.38385013 0.4025132
0001e0 66 47 04 3f 12 d6 ef 3e 57 71 ce 3e 1e f5 ee 3e
       0.51671445 0.4684301 0.40320846 0.46671385
0001f0 b5 75 04 3f 61 28 cc 3e b6 8b a8 3e 4b dd a1 3e
       0.51742107 0.39874557 0.3291909 0.31614146
000200 bd a9 bf 3e b2 35 c4 3e ef ad c1 3e 04 96 ca 3e
       0.37434188 0.38322216 0.37828013 0.39567578
000210 2e b7 06 3f 8e c7 ee 3e 7b 84 d0 3e 78 5b ef 3e
       0.5262326 0.46636623 0.40726075 0.46749473
000220 1c 98 04 3f 01 0b ca 3e 33 35 a4 3e 5a 10 b6 3e
       0.517946 0.3946152 0.32071838 0.3555935
000230 9d 3e d0 3e dc 85 c3 3e 7e 87 cc 3e fe 9a bb 3e
       0.4067277 0.38188064 0.39947122 0.36641687
000240 5e 25 05 3f df 14 ee 3e 90 07 ce 3e 11 f6 ee 3e
       0.5201014 0.46500298 0.40240145 0.4667211
000250 74 65 03 3f a9 9a c6 3e 4a 9d a5 3e 22 12 b3 3e
       0.5132668 0.3878987 0.32346565 0.34974772
000260 ce a4 c4 3e d3 0e ce 3e c2 2f b6 3e 53 cb c9 3e
       0.38406986 0.40245685 0.3558331 0.39412937
000270 cc f1 03 3f 7b 87 eb 3e d5 5b ca 3e 62 48 ef 3e
       0.5154083 0.460018 0.39523187 0.4673491
000280 14 fc 03 3f 4b e0 c5 3e 75 10 b6 3e cc c7 99 3e
       0.51556516 0.38647684 0.3555943 0.30035245
000290 99 09 ba 3e be 59 d0 3e 33 ad c0 3e 0b 03 b7 3e
       0.36335447 0.40693468 0.3763214 0.3574451
0002a0 86 59 05 3f 40 69 eb 3e c7 75 cd 3e 7d b0 ef 3e
       0.52089727 0.45978737 0.4012892 0.46814337
0002b0 bd 94 05 3f bb e0 c8 3e 9e 49 ba 3e 43 8b b0 3e
       0.5218008 0.39233956 0.3638429 0.34481248
0002c0 f6 48 c8 3e 1a 2b c9 3e 5f b1 cc 3e fe 94 bc 3e
       0.39118165 0.39290696 0.39979073 0.36832422
0002d0 74 3c 04 3f 85 27 f0 3e 73 30 ce 3e 43 00 f1 3e
       0.51654744 0.4690515 0.4027134 0.47070512
0002e0 cc 2a 06 3f 57 0e cc 3e da 18 ae 3e 73 94 af 3e
       0.5240905 0.3985469 0.34003335 0.34292945
0002f0 bf 78 bc 3e 62 ce cb 3e 6e 9c c4 3e 2d 08 c4 3e
       0.36810872 0.39805895 0.38400596 0.38287488
