tests/test_data_path/og_processed/dimer_ap3_train_spec_7_443.pt (torch, 412434 bytes, 17 tensors)

y f4 [16, 4]
-0.8322699 0.06479391 -0.07279857 -0.56514686 0.02047653 0.0061891526 -0.02353507 -0.28102124
-19.944603 63.954372 -10.924421 -19.500126 -1.2176892 0.0058476664 -0.0636714 -0.32660392
-0.37264562 0.12517403 -0.0924914 -0.7488632 0.052749343 0.03321006 -0.087742805 -0.60087013
-2.1598284 2.679075 -0.6668245 -1.8141783 -0.065225154 0.00029318067 -0.011326907 -0.17947613
0.97195536 2.8980086 -0.6623393 -3.4480493 -0.27072254 0.041058328 -0.03319253 -0.5695587
-18.547039 51.826294 -6.508963 -14.51169 1.0300422 2.8569984 -0.4727729 -3.3408601
-19.61144 59.024773 -7.8507214 -18.152828 -19.022043 50.202713 -4.812441 -12.1337385
-0.12538534 3.9429426e-05 -0.008662214 -0.08923607 -0.3331252 0.123033315 -0.12610768 -0.70157725
00000000: a40f 55bf abb2 843d 6b17 95bd 77ad 10bf
00000010: 65be a73c 60ce ca3b 9ecc c0bc 04e2 8fbe
00000020: 8c8e 9fc1 47d1 7f42 6eca 2ec1 4200 9cc1
00000030: 3ddd 9bbf c89d bf3b 2766 82bd a138 a7be
00000040: 68cb bebe 9f2d 003e 226c bdbd 80b5 3fbf
00000050: b20f 583d 4607 083d 80b2 b3bd a0d2 19bf
00000060: a13a 0ac0 f775 2b40 03b5 2abf ff36 e8bf
00000070: c494 85bd 0bb6 9939 7e94 39bc 97c8 37be
00000080: 11d2 783f f978 3940 128f 29bf d7ac 5cc0
00000090: 259c 8abe c72c 283d e4f4 07bd 99ce 11bf
000000a0: 5660 94c1 204e 4f42 6d49 d0c0 e22f 68c1
000000b0: 6cd8 833f 10d9 3640 4a0f f2be a7d0 55c0
000000c0: 3be4 9cc1 5e19 6c42 1c39 fbc0 fe38 91c1
000000d0: 252d 98c1 94cf 4842 84ff 99c0 cb23 42c1
000000e0: 0465 00be 0661 2538 f5eb 0dbc 67c1 b6bd
000000f0: 638f aabe e4f8 fb3d 5f22 01be 919a 33bf

RA f4 [416, 3]
-1.338775 -1.00256 2.710094 -0.940814 0.011799 1.595932 -1.458052 1.03612
1.507321 1.028591 -1.572793 1.1195 0.173785 -0.373386 0.886345 0.790936
0.544339 -0.057262 0.098312 0.531807 -1.418462 -0.448244 -0.449533 -1.861389
2.24975 0.010178 -0.111658 2.108154 -1.461567 0.017808 0.17297 1.73823
-2.10198 -0.460662 1.995775 -3.318839 -0.568901 -1.175677 3.464683 -2.154121
-0.620939 3.251357 -1.567809 -1.952287 2.320531 1.483014 -1.567416 2.164606
0.429086 -2.498946 1.043492 0.691764 1.531536 0.456159 2.777398 0.282365
-1.084685 2.935372 0.453327 0.742474 3.019586 -1.948725 0.317436 1.750122
-1.945983 -0.840225 0.525933 2.521873 -1.514194 0.193488 2.368305 -4.058886
-0.910444 0.973034 -3.668992 -1.366409 2.688809 -3.23812 -1.339462 -1.025247
2.730376 -0.841291 -0.09548 1.696895 -1.450242 0.977034 1.447026 1.112526
-1.592754 1.216823 0.180559 -0.454925 0.949127 0.811907 0.555711 -0.017265
0.068913 0.582837 -1.323775 -0.381994 -0.501566 -1.832376 2.206079 -0.020043
-0.134989 2.122742 -1.489522 0.072143 0.191998 1.740708 -2.088018 -0.542065
2.010757 -3.278435 -0.523976 -1.23549 3.427256 -2.239504 -0.590424 3.239512
-1.568594 -1.969295 2.248645 1.498434 -1.6071 2.102715 0.446186 -2.472725
1.034728 0.726061 1.605523 0.448112 2.730711 0.276382 -1.070728 2.841115
0.46225 0.678161 2.979575 -1.955232 0.346904 1.798952 -1.96437 -0.871652
0.570888 2.528517 -1.535312 0.17817 2.399729 -4.029699 -0.929866 0.969975
-3.65815 -1.339619 2.633763 -3.176299 -1.366007 -0.997054 2.704481 -0.888139
-0.050622 1.658392 -1.441573 1.001883 1.394031 1.028126 -1.56511 1.122222
0.194789 -0.4 0.931135 0.83077 0.548776 -0.018457 0.111552 0.52898
-1.376711 -0.445765 -0.504956 -1.84651 2.301675 0.07155 -0.071378 2.134187
-1.523516 0.040886 0.199239 1.698869 -2.091056 -0.504368 1.96338 -3.30371
-0.597685 -1.235301 3.440305 -2.230872 -0.617339 3.259448 -1.565959 -1.938444
2.299836 1.464795 -1.574534 2.174466 0.391104 -2.538271 1.055815 0.807222
1.546426 0.352666 2.718011 0.292657 -1.08222 2.900753 0.470736 0.709844
3.082561 -1.900814 0.336619 1.705458 -1.916019 -0.895747 0.564681 2.511277
-1.526369 0.172793 2.385812 -4.05498 -0.900751 1.019042 -3.656609 -1.348714
2.638558 -3.232009 -1.386353 -1.041284 2.726929 -0.924769 0.006135 1.72204
-1.411226 1.000201 1.454182 1.099039 -1.632212 1.131616 0.217302 -0.312761
0.888477 0.847374 0.557433 -0.033992 0.121356 0.578086 -1.34199 -0.436614
00000000: fb5c abbf e353 80bf 2e72 2d40 30d9 70bf
00000010: 9850 413c 8047 cc3f 73a1 babf 959f 843f
00000020: e5ef c03f dfa8 833f 4851 c9bf c74b 8f3f
00000030: b2f4 313e 732c bfbe 82e7 623f c87a 4a3f
00000040: cd59 0b3f 8f8b 6abd cd57 c93d 8124 083f
00000050: 2a90 b5bf 3d80 e5be 3029 e6be ff41 eebf
00000060: e7fb 0f40 a0c1 263c f3ac e4bd ffeb 0640
00000070: a114 bbbf 15e2 913c 0c1f 313e 527e de3f
00000080: d786 06c0 e4db ebbe 8e75 ff3f dc67 54c0
00000090: 7fa3 11bf 957c 96bf 5ebd 5d40 1edd 09c0
000000a0: dcf5 1ebf 3c16 5040 f7ad c8bf 8ae4 f9bf
000000b0: 9483 1440 67d3 bd3f 16a1 c8bf e888 0a40
000000c0: 29b1 db3e bbee 1fc0 2591 853f 7217 313f
000000d0: 5f09 c43f ac8d e93e e4c0 3140 2592 903e
000000e0: f5d6 8abf 23dd 3b40 7a1a e83e c712 3e3f
000000f0: e640 4140 d26f f9bf f986 a23e ff03 e03f
00000100: f915 f9bf fc18 57bf 8ca3 063f 5e66 2140
00000110: 1cd1 c1bf b821 463e 4f92 1740 65e2 81c0
00000120: dc12 69bf c218 793f c4d0 6ac0 7de6 aebf
00000130: 7215 2c40 5c3d 4fc0 7e73 abbf 4b3b 83bf
00000140: 7bbe 2e40 d95e 57bf 058b c3bd db33 d93f
00000150: 88a1 b9bf e61e 7a3f 2638 b93f 4167 8e3f
00000160: 5ddf cbbf dbc0 9b3f 75e4 383e eeeb e8be
00000170: fdf9 723f 23d9 4f3f 1343 0e3f 546f 8dbc
00000180: 4222 8d3d ce34 153f 7671 a9bf b894 c3be
00000190: a166 00bf 4c8b eabf 6630 0d40 3831 a4bc
000001a0: 8e3a 0abe 01db 0740 a8a8 bebf b6bf 933d
000001b0: 209b 443e 85cf de3f 16a2 05c0 c6c4 0abf
000001c0: 3eb0 0040 e1d1 51c0 4b23 06bf 8924 9ebf
000001d0: 2a58 5b40 0954 0fc0 0726 17bf 2a54 4f40
000001e0: b0c7 c8bf dc11 fcbf cde9 0f40 afcc bf3f
000001f0: 74b5 cdbf e292 0640 7e72 e43e 2041 1ec0
00000200: f871 843f 22df 393f c781 cd3f f06e e53e
00000210: f8c3 2e40 f181 8d3e 9d0d 89bf d4d4 3540
00000220: 08ac ec3e f69b 2d3f 5bb1 3e40 0b45 fabf
00000230: 679d b13e 0f44 e63f 7a70 fbbf 9624 5fbf
00000240: b725 123f 39d3 2140 1b85 c4bf 3272 363e
00000250: 2995 1940 4bf3 80c0 b30b 6ebf 4850 783f
00000260: 211f 6ac0 a378 abbf 938f 2840 7c48 4bc0
00000270: 51d9 aebf ee3e 7fbf 3716 2d40 145d 63bf
00000280: 0459 4fbd 3046 d43f 7785 b8bf b43d 803f
00000290: 9c6f b23f a299 833f 8655 c8bf f8a4 8f3f
000002a0: c576 473e cdcc ccbe dd5e 6e3f 58ad 543f
000002b0: 957c 0c3f 2233 97bc 6075 e43d 3c6b 073f
000002c0: 1138 b0bf 4f3b e4be cc44 01bf 715a ecbf
000002d0: a54e 1340 ce88 923d a12e 92bd 8596 0840
000002e0: 9302 c3bf 1478 273d 4f05 4c3e 8a74 d93f
000002f0: ddd3 05c0 431e 01bf 0950 fb3f fc6f 53c0
00000300: e201 19bf 581e 9ebf f52d 5c40 9bc6 0ec0
00000310: ee09 1ebf cc9a 5040 5871 c8bf ef1e f8bf
00000320: 8330 1340 677e bb3f 558a c9bf 732a 0b40
00000330: c93e c83e 0873 22c0 f224 873f 1aa6 4e3f
00000340: 4af1 c53f a390 b43e e4f3 2d40 23d7 953e
00000350: 2f86 8abf f0a5 3940 4f04 f13e 56b8 353f
00000360: ae48 4540 e04d f3bf 5359 ac3e 734c da3f
00000370: 1c40 f5bf ad4f 65bf ef8e 103f c3b8 2040
00000380: 0f60 c3bf a6f0 303e 25b1 1840 65c2 81c0
00000390: 9e97 66bf f86f 823f e205 6ac0 a9a2 acbf
000003a0: 22de 2840 3cd9 4ec0 0474 b1bf cb48 85bf
000003b0: 0186 2e40 a9bd 6cbf 1c08 c93b cf6b dc3f
000003c0: 0ea3 b4bf 9606 803f a322 ba3f 4fad 8c3f
000003d0: 53ec d0bf cbd8 903f 6a84 5e3e 3622 a0be
000003e0: 3b73 633f 81ed 583f eeb3 0e3f 323b 0bbd
000003f0: 7f89 f83d 72fd 133f 54c6 abbf df8b dfbe

RB f4 [160, 3]
-2.104329 9.791932 -4.49643 -1.837208 8.765584 -3.864968 -0.615792 8.326638
-3.42091 -0.614331 7.068692 -2.868848 0.326718 6.578821 -2.288444 -2.046284
6.58153 -2.996149 -2.789813 7.533932 -3.581505 0.262609 8.924153 -3.524869
-2.405495 5.58175 -2.653373 -3.835105 7.517438 -3.911749 6.325776 0.68639
-3.037119 7.387971 0.733334 -2.527908 7.763147 1.238646 -1.281731 9.136027
1.174153 -0.984319 9.706514 1.563994 -0.011703 9.641448 0.631099 -2.254827
8.742223 0.306585 -3.11706 7.011669 1.564967 -0.642585 10.736968 0.493853
-2.406903 8.765306 -0.155704 -4.065731 2.639086 -0.998794 -2.928854 2.637236
-0.137299 -3.760883 1.656845 0.839784 -4.019095 2.042586 1.645336 -5.090049
1.46638 2.593868 -5.557193 3.470042 1.208972 -5.490702 3.807211 0.195711
-4.682549 0.76482 0.861334 -3.615339 4.078624 1.63743 -6.244522 4.704497
-0.35941 -4.727196 1.494198 3.038476 6.174819 0.754082 4.098407 6.126499
0.832354 5.19946 7.043643 -0.226855 6.075876 6.713062 -0.397137 7.16706
7.288965 -1.001704 5.478326 5.613864 -0.476039 4.328171 5.22061 1.484437
5.281319 7.691467 -1.881649 6.013084 5.170603 -0.793293 3.638801 4.464015
6.112728 -0.086314 0.872909 6.841734 0.387076 1.647774 6.48767 1.028547
2.90012 7.566983 1.403035 3.660914 7.674604 1.953747 4.704432 8.82566
0.825982 2.837723 8.363929 0.253934 1.746267 5.58546 1.270917 3.150613
9.843087 0.942559 3.268923 8.939506 -0.247964 0.929462 3.358117 1.556989
4.42019 4.528241 2.006099 4.586122 5.500688 2.063911 3.766782 6.713077
2.502422 4.275018 7.764479 2.676546 3.696388 6.353807 2.653184 5.66998
5.123796 2.330931 5.930173 5.446665 1.935704 2.662499 7.170766 2.948925
6.452473 4.564046 2.333898 6.885686 4.588117 -3.74667 0.209497 5.618665
-4.393724 0.030384 6.493504 -4.86008 1.021517 7.526444 -5.518197 0.51066
8.3959 -5.968532 1.179969 7.298114 -5.553207 -0.997723 6.159689 -4.884585
-1.317928 6.311546 -4.610017 1.947301 8.015 -6.02908 -1.632688 5.713258
-4.699238 -2.238377 2.266334 2.009823 6.251959 2.146662 2.000589 7.366362
1.949886 3.143274 8.260744 1.687962 2.789109 9.57754 1.59404 3.623217
10.444755 1.778291 1.343858 9.568931 2.003285 0.854293 8.394959 1.976395
4.088566 7.810761 1.581796 0.775831 10.578074 2.130137 -0.191944 8.040617
1.532735 1.992909 4.744456 2.616559 1.39377 4.667749 3.900833 1.831668
4.968542 4.940143 0.853416 4.770877 6.028065 0.891324 4.975904 4.070593
00000000: 54ad 06c0 c1ab 1c41 c1e2 8fc0 a229 ebbf
00000010: d53f 0c41 a35b 77c0 8ba4 1dbf e939 0541
00000020: 30f0 5ac0 cc44 1dbf ba32 e240 359b 37c0
00000030: 9547 a73e b485 d240 de75 12c0 51f6 02c0
00000040: e59b d240 e8c0 3fc0 4c8c 32c0 f915 f140
00000050: 6137 65c0 b074 863e 55c9 0e41 7497 61c0
00000060: a1f3 19c0 b29d b240 ddd0 29c0 5c72 75c0
00000070: da8e f040 185a 7ac0 c26c ca40 41b7 2f3f
00000080: 2860 42c0 426a ec40 c7bb 3b3f 3fc9 21c0
00000090: b36b f840 f48b 9e3f c30f a4bf 2b2d 1241
000000a0: a54a 963f 54fc 7bbf e24d 1b41 f530 c83f
000000b0: f1bd 3fbc 5f43 1a41 b48f 213f 164f 10c0
000000c0: 25e0 0b41 b6f8 9c3e e97d 47c0 985f e040
000000d0: d750 c83f 7380 24bf 9fca 2b41 4dda fc3e
000000e0: b30a 1ac0 b23e 0c41 df70 1fbe 781a 82c0
000000f0: c9e6 2840 f7b0 7fbf 5872 3bc0 7ac8 2840
00000100: 1c98 0cbe 4fb2 70c0 7f13 d43f 16fc 563f
00000110: 6d9c 80c0 bbb9 0240 5f9a d23f aee1 a2c0
00000120: 57b2 bb3f ef01 2640 86d4 b1c0 2b15 5e40
00000130: 98bf 9a3f d5b3 afc0 58a9 7340 7768 483e
00000140: 71d7 95c0 3ecb 433f 6380 5c3f b761 67c0
00000150: 1684 8240 4e97 d13f 20d3 c7c0 3d8b 9640
00000160: 9604 b8be 3145 97c0 e141 bf3f 6476 4240
00000170: 1e98 c540 850b 413f 2626 8340 480c c440
00000180: 2715 553f fa61 a640 8665 e140 ad4c 68be
00000190: 946d c240 67d1 d640 8a55 cbbe 8e58 e540
000001a0: 343f e940 d637 80bf 724e af40 c6a4 b340
000001b0: 62bb f3be 6080 8a40 3d0f a740 0802 be3f
000001c0: 9100 a940 7f20 f640 e0d9 f0bf 2f6b c040
000001d0: 9475 a540 4015 4bbf 1ee2 6840 36d9 8e40
000001e0: 789b c340 65c5 b0bd f776 5f3f 7cef da40
000001f0: d32e c63e 42ea d23f fe9a cf40 6ea7 833f
00000200: 919b 3940 ba24 f240 a796 b33f 6a4c 6a40
00000210: 5b96 f540 6214 fa3f b58a 9640 e735 0d41
00000220: 8e73 533f 419d 3540 a7d2 0541 a303 823e
00000230: ad85 df3f 17bc b240 69ad a23f a5a3 4940
00000240: 497d 1d41 8c4b 713f 0936 5140 3708 0f41
00000250: 46ea 7dbe 39f1 6d3f 64eb 5640 6a4b c73f
00000260: 3272 8d40 5ae7 9040 ed63 0040 83c1 9240
00000270: a305 b040 1e17 0440 f512 7140 87d1 d640
00000280: af27 2040 f3cc 8840 9d76 f840 884c 2b40
00000290: 9f91 6c40 6352 cb40 c4cd 2940 7a70 b540
000002a0: 23f6 a340 f92d 1540 fac3 bd40 144b ae40
000002b0: 26c5 f73f 6266 2a40 ea76 e540 30bb 3c40
000002c0: a97a ce40 aa0c 9240 965e 1540 8a57 dc40
000002d0: dbd1 9240 71c9 6fc0 6286 563e 1bcc b340
000002e0: 6399 8cc0 dee7 f83c c9ca cf40 c685 9bc0
000002f0: 12c1 823f a1d8 f040 1295 b0c0 9dba 023f
00000300: 9b55 0641 37fe bec0 3909 973f 268a e940
00000310: dfb3 b1c0 c66a 7fbf 2c1c c540 854e 9cc0
00000320: ddb1 a8bf 2ff8 c940 4285 93c0 2941 f93f
00000330: 713d 0041 39ee c0c0 ecfb d0bf 02d3 b640
00000340: 2860 96c0 9241 0fc0 9e0b 1140 f1a0 0040
00000350: 0c10 c840 e962 0940 a609 0040 3db9 eb40
00000360: dd95 f93f 672b 4940 022c 0441 240f d83f
00000370: c380 3240 9b3d 1941 8109 cc3f cae2 6740
00000380: b71d 2741 0a9f e33f 8a03 ac3f 571a 1941
00000390: d235 0040 f2b2 5a3f c151 0641 83fa fc3f
000003a0: 88d5 8240 c1f1 f940 4b78 ca3f dc9c 463f
000003b0: cb3f 2941 2a54 0840 f88c 44be 5ea6 0041
000003c0: a930 c43f a417 ff3f 95d2 9740 b475 2740
000003d0: 0e67 b23f 335e 9540 3fa7 7940 1974 ea3f
000003e0: 4cfe 9e40 a715 9e40 7979 5a3f 06ab 9840
000003f0: e9e5 c040 cf2d 643f 9b3a 9f40 4c42 8240

qA f4 [416, 1]
-0.65975636 0.7092486 -0.5612678 -0.067219436 -0.3055367 -0.10563576 0.6714964 -0.56703264
-0.25223196 -0.24580294 -0.55931824 -0.17685992 0.16565698 0.19662616 0.18460262 0.09562257
0.109045595 0.12870374 0.13021046 0.11810684 0.12519664 0.14840767 0.34781364 0.12375647
0.14652798 0.09964073 -0.6572842 0.72728586 -0.6296579 -0.028042495 -0.309251 -0.11253953
0.64086115 -0.58663005 -0.22403485 -0.26140302 -0.5587066 -0.16665787 0.18140423 0.21213678
0.1887384 0.12117469 0.07231951 0.12740597 0.13226533 0.12355247 0.14202753 0.13859788
0.34907785 0.11365834 0.13941479 0.12428635 -0.6520348 0.7123875 -0.60413975 -0.056281388
-0.28361207 -0.09252828 0.6495267 -0.58730394 -0.2565344 -0.28765154 -0.55458754 -0.16561449
0.16844645 0.20422933 0.1864498 0.089137256 0.096728116 0.13648263 0.13374975 0.15071175
0.14462566 0.1581831 0.34078792 0.10786596 0.1519351 0.10903975 -0.66333604 0.7326691
-0.55326855 -0.06708419 -0.392182 -0.029433966 0.59063905 -0.60110974 -0.23564011 -0.25058895
-0.5644847 -0.1852265 0.17536181 0.20069566 0.21316376 0.09285253 0.1127415 0.13113144
0.15612614 0.12982076 0.10682383 0.14002755 0.35854203 0.12144247 0.1626341 0.11768255
-0.6484393 0.7036977 -0.6326877 -0.0566355 -0.2676946 -0.120896935 0.68852717 -0.5981723
-0.23554182 -0.27856988 -0.58660793 -0.18293124 0.18816236 0.20189834 0.18609083 0.09261364
0.10228157 0.11298442 0.12899807 0.15868375 0.13851044 0.15691519 0.3611173 0.106647134
0.1477255 0.13332146 -0.6229037 0.6376803 -0.5645796 -0.024585903 -0.25695455 -0.093654394
0.6629877 -0.5916096 -0.24495149 -0.26839197 -0.54821813 -0.15431225 0.2099247 0.16876191
0.19585824 0.05843869 0.09027201 0.12110776 0.122222394 0.1321969 0.10877675 0.16351175
0.34748662 0.11122048 0.15585396 0.08386025 -0.6624606 0.7233127 -0.6167123 -0.052862346
-0.2992267 -0.111044824 0.70206136 -0.608548 -0.20932728 -0.2869016 -0.53093404 -0.19150311
0.17214784 0.20606041 0.18112552 0.07237771 0.12627447 0.13206246 0.13998279 0.10726726
0.14618379 0.13828397 0.34239557 0.121032655 0.15600914 0.10294253 -0.6664785 0.7134155
-0.5881088 -0.039227843 -0.28878736 -0.08466852 0.6388094 -0.5842303 -0.24826449 -0.27176976
-0.530475 -0.17657292 0.19277126 0.20346358 0.17594954 0.077747315 0.08245957 0.13063908
0.14597836 0.11461738 0.13929021 0.1405823 0.35928804 0.10160166 0.16176778 0.10020313
-0.66412294 0.71381366 -0.5704684 -0.0527519 -0.29956532 -0.11936748 0.6648141 -0.565307
-0.24192333 -0.2723781 -0.59394276 -0.17532516 0.1627742 0.21934527 0.17059588 0.082270056
0.111089796 0.13945574 0.13920835 0.14751574 0.14137739 0.13586727 0.35949045 0.105950475
0.15406433 0.107519776 -0.6662616 0.7275106 -0.6191425 -0.04481083 -0.29010516 -0.09426254
0.6674989 -0.61775094 -0.23646957 -0.27033585 -0.4860381 -0.1999771 0.17735106 0.20113236
0.16209584 0.10021821 0.07534531 0.14181808 0.16275617 0.1099858 0.13692963 0.13853678
00000000: cbe5 28bf 5191 353f 3faf 0fbf 58aa 89bd
00000010: 4e6f 9cbe 9057 d8bd 30e7 2b3f 0d29 11bf
00000020: 8c24 81be c4b3 7bbe 7b2f 0fbf c41a 35be
00000030: fca1 293e 5e58 493e 7808 3d3e c4d5 c33d
00000040: 4c53 df3d eaca 033e e455 053e 00e2 f13d
00000050: 8c33 003e 2ef8 173e a114 b23e 0874 fd3d
00000060: 6e0b 163e 7010 cc3d c743 28bf 682f 3a3f
00000070: 4331 21bf 60b9 e5bc 2656 9ebe 207b e6bd
00000080: 7a0f 243f 632d 16bf 6469 65be 9ed6 85be
00000090: 6507 0fbf 5ca8 2abe 08c2 393e 623a 593e
000000a0: a444 413e 702a f83d 401c 943d b676 023e
000000b0: 9070 073e 1409 fd3d aa6f 113e 9aec 0d3e
000000c0: 55ba b23e b4c5 e83d c0c2 0e3e d889 fe3d
000000d0: c1eb 26bf 075f 363f e7a8 1abf 5087 66bd
000000e0: 9a35 91be 787f bdbd 6247 263f 8d59 16bf
000000f0: 7a58 83be 1047 93be 73f9 0dbf d896 29be
00000100: 3a7d 2c3e 7e21 513e b2ec 3e3e 988d b63d
00000110: 6419 c63d 1ac2 0b3e b2f5 083e 2e54 1a3e
00000120: c018 143e c0fa 213e c17b ae3e d4e8 dc3d
00000130: e094 1b3e 3c50 df3d 64d0 29bf 3490 3b3f
00000140: 02a3 0dbf 7063 89bd 14cc c8be 801f f1bc
00000150: 1f34 173f 54e2 19bf a44b 71be 324d 80be
00000160: 1282 10bf 04ac 3dbe 0c92 333e 2a83 4d3e
00000170: 9a47 5a3e 7829 be3d 04e5 e63d 5247 063e
00000180: 88df 1f3e bcef 043e 74c6 da3d 6263 0f3e
00000190: d292 b73e d4b6 f83d 8e89 263e 8c03 f13d
000001a0: 1e00 26bf 8825 343f d2f7 21bf a0fa 67bd
000001b0: 440f 89be d098 f7bd 5143 303f d221 19bf
000001c0: e031 71be b6a0 8ebe f02b 16bf 5452 3bbe
000001d0: a2ad 403e 70be 4e3e 988e 3e3e 38ac bd3d
000001e0: 0079 d13d 6064 e73d 1218 043e fe7d 223e
000001f0: aed5 0d3e 60ae 203e 5ee4 b83e d069 da3d
00000200: 5a45 173e 6c85 083e 9e76 1fbf 043f 233f
00000210: 4a88 10bf 6068 c9bc 8c8f 83be e0cd bfbd
00000220: 90b9 293f ba73 17bf 90d4 7abe ac6a 89be
00000230: 0658 0cbf 0804 1ebe 80f6 563e eccf 2c3e
00000240: 108f 483e 685d 6f3d 88e0 b83d 5807 f83d
00000250: bc4f fa3d a05e 073e 58c6 de3d a06f 273e
00000260: c4e9 b13e 90c7 e33d 2e98 1f3e ecbe ab3d
00000270: 0597 29bf 052b 393f dbe0 1dbf 3086 58bd
00000280: 3e34 99be 786b e3bd 4bba 333f cdc9 1bbf
00000290: e459 56be c4e4 92be 4beb 07bf 6419 44be
000002a0: 8647 303e 8001 533e f878 393e c43a 943d
000002b0: 184e 013e 623b 073e a657 0f3e f0ae db3d
000002c0: 34b1 153e 509a 0d3e 794e af3e f8df f73d
000002d0: dcc0 1f3e 88d3 d23d 569e 2abf 66a2 363f
000002e0: 4c8e 16bf 60ad 20bd f0db 93be b066 adbd
000002f0: 0389 233f 1e90 15bf 0c39 7ebe 6825 8bbe
00000300: 36cd 07bf 88cf 34be d465 453e c258 503e
00000310: 1e2c 343e fc39 9f3d 90e0 a83d 40c6 053e
00000320: 5a7b 153e 84bc ea3d 18a2 0e3e cef4 0f3e
00000330: 9af4 b73e 8814 d03d 74a6 253e 4c37 cd3d
00000340: f603 2abf 7ebc 363f 380a 12bf 6012 58bd
00000350: a060 99be f076 f4bd 4231 2a3f f6b7 10bf
00000360: c0ba 77be 2475 8bbe a20c 18bf 7088 33be
00000370: 48ae 263e 0c9c 603e b0b0 2e3e 347d a83d
00000380: 0c83 e33d 7ccd 0e3e a28c 0e3e 5e0e 173e
00000390: 3cc5 103e ca20 0b3e 220f b83e 90fc d83d
000003a0: 0ac3 1d3e 5433 dc3d 1f90 2abf 223e 3a3f
000003b0: 1f80 1ebf 908b 37bd aa88 94be b80c c1bd
000003c0: 35e1 2a3f ed24 1ebf 1425 72be 7669 8abe
000003d0: fcd9 f8be ccc6 4cbe 849b 353e a4f5 4d3e
000003e0: 74fc 253e 343f cd3d a44e 9a3d c238 113e
000003f0: 8ea9 263e 3c40 e13d 4837 0c3e 96dc 0d3e

muA f4 [416, 3]
-0.01844138 0.007384926 -0.00073072314 -0.018775731 0.04073897 -0.024205536 -0.038848042 0.07117471
-0.01008153 -0.028000891 0.10239658 -0.05027446 0.091996014 -0.014498144 -0.0581131 0.0054085255
-0.112330735 0.08371821 -0.03771022 -0.021257073 -0.066254586 -0.034535438 -0.059444815 -0.0154027045
-0.05974993 -0.041603655 0.0104007125 -0.03006944 0.068275005 0.00795421 -0.067843825 -0.0070354342
-0.12772112 0.088324666 -0.015997589 0.14837079 0.027819932 -0.0030320287 0.030762315 -0.031192005
0.018614233 0.019363374 -0.010337889 -0.03380075 -0.015597373 0.030397773 0.012762427 0.055271447
-0.036353827 -0.047135055 -0.013801843 -0.0050621033 0.043686166 0.040042967 0.0234057 0.0047683716
-0.052182883 0.03231585 0.015550554 0.0467211 0.04340127 -0.013754845 0.018788368 -0.026919842
-0.011013061 -0.03775397 0.012129784 0.029878795 0.0155597925 0.04476413 0.018535882 -0.033710092
-0.019229561 -0.05729729 -0.0076607764 -0.04789117 0.03619027 0.012630105 -0.027961582 0.0050576925
0.019604415 -0.021103084 0.043927252 -0.0203408 -0.039257705 0.055593938 -0.021952987 -0.006636828
0.09212819 -0.017253995 0.089523315 -0.0033689737 -0.06336993 0.0043302476 -0.11327949 0.08488244
-0.04365447 -0.023333758 -0.06698111 -0.019624293 -0.056289464 -0.015455991 -0.06266904 -0.050538033
0.0105237365 -0.028044254 0.064747244 0.011162847 -0.08056542 -0.011577129 -0.118050516 0.07468334
-0.020991594 0.14383231 0.03200829 -0.003685534 0.026710153 -0.035387397 0.023092866 0.016419679
-0.00895381 -0.03278172 -0.022373676 0.030294895 0.009784073 0.04636675 -0.037601084 -0.03485468
-0.021674901 -0.0059490204 0.05478835 0.03136298 0.021813303 0.007706225 -0.04887113 0.021534264
0.016115248 0.043149203 0.043106854 -0.015001535 0.01970309 -0.020831436 -0.0081397 -0.04437682
0.013515621 0.029603928 0.015732318 0.047261298 0.01893413 -0.030195087 -0.015393198 -0.058767527
-0.008597374 -0.04277599 0.032434613 0.016936898 -0.027424753 0.016696036 0.002479583 -0.02087164
0.040060133 -0.021277577 -0.035621285 0.05791095 -0.025559902 -0.01704964 0.10091855 -0.055949062
0.0954099 -0.01635474 -0.06466442 -0.002680868 -0.10799509 0.10021266 -0.042767197 -0.025950313
-0.0684222 -0.037780046 -0.057005852 -0.018240362 -0.035423636 -0.05065763 0.02269587 -0.018979728
0.04699391 0.016752154 -0.08396658 -0.0108424425 -0.12852024 0.083718866 -0.030266255 0.14834414
0.026719347 -0.007096857 0.02752176 -0.03331244 0.019459993 0.019442528 -0.007299125 -0.032552958
-0.01583895 0.03104648 0.013576686 0.05248092 -0.03452459 -0.048395157 -0.01466158 0.0044431686
0.049547642 0.024630338 0.013580352 0.0014407933 -0.053768545 0.026953548 0.0157094 0.045323133
0.0498679 -0.007989556 0.018896341 -0.032871068 -0.008623719 -0.04410693 0.012104809 0.031658232
0.013932437 0.043504655 0.01953885 -0.03363669 -0.015446901 -0.053071946 -0.006793797 -0.04612091
0.03390956 0.011588216 -0.017617553 -0.021999568 -0.0026226044 -0.012243897 0.0407708 -0.023525387
-0.023774147 0.057706416 -0.041381955 -0.011139035 0.091073886 -0.060420454 0.0732332 0.007889241
-0.057679415 -0.0066121817 -0.10326703 0.0926055 -0.054273695 -0.028305441 -0.075015485 -0.02154833
00000000: 6012 97bc 40fd f13b 008e 3fba 90cf 99bc
00000010: e8dd 263d b04a c6bc 201f 1fbd 0cc4 913d
00000020: 002d 25bc 2062 e5bc 4cb5 d13d 98ec 4dbd
00000030: 6868 bc3d a089 6dbc 0008 6ebd 003a b13b
00000040: a80d e6bd 7474 ab3d 0876 1abd 5023 aebc
00000050: 7cb0 87bd 0875 0dbd 687c 73bd a05b 7cbc
00000060: 58bc 74bd 9868 2abd c067 2a3c 3054 f6bc
00000070: c4d3 8b3d 6052 023c b4f1 8abd 8089 e6bb
00000080: 53c9 02be 90e3 b43d 600d 83bc 83ee 173e
00000090: a0e6 e33c 00b5 46bb 4001 fc3c 6086 ffbc
000000a0: e07c 983c f09f 9e3c 4060 29bc a872 0abd
000000b0: 208c 7fbc c004 f93c 8019 513c 5064 623d
000000c0: c0e7 14bd b010 41bd 2021 62bc 00e0 a5bb
000000d0: 44f0 323d 1804 243d 50bd bf3c 0040 9c3b
000000e0: b8bd 55bd a05d 043d c0c7 7e3c a05e 3f3d
000000f0: 88c5 313d 005c 61bc 10ea 993c 0087 dcbc
00000100: 2070 34bc e8a3 1abd 00bc 463c 60c4 f43c
00000110: 80ee 7e3c 985a 373d 90d8 973c 9813 0abd
00000120: 5087 9dbc 90b0 6abd 4007 fbbb 8829 44bd
00000130: 403c 143d 80ee 4e3c b00f e5bc 00bb a53b
00000140: 7099 a03c 60e0 acbc 10ed 333d c0a1 a6bc
00000150: b0cc 20bd 78b6 633d c0d6 b3bc c079 d9bb
00000160: b4ad bc3d 4058 8dbc 0058 b73d 00ca 5cbb
00000170: 18c8 81bd c0e4 8d3b 14ff e7bd d8d6 ad3d
00000180: 08cf 32bd 7026 bfbc 642d 89bd 20c3 a0bc
00000190: c88f 66bd 203b 7dbc a058 80bd f800 4fbd
000001a0: c06b 2c3c 10bd e5bc 349a 843d 60e4 363c
000001b0: 7cff a4bd 00ae 3dbc 78c4 f1bd 94f3 983d
000001c0: 90f6 abbc c748 133e 201b 033d 0089 71bb
000001d0: 40cf da3c 60f2 10bd 402d bd3c 9082 863c
000001e0: 00b3 12bc 2046 06bd 0049 b7bc 002d f83c
000001f0: 604d 203c 10eb 3d3d 9803 1abd c8c3 0ebd
00000200: 908f b1bc 00f0 c2bb c069 603d 7876 003d
00000210: d0b1 b23c 8084 fc3b 182d 48bd a068 b03c
00000220: 2004 843c 38bd 303d d090 303d 00c9 75bc
00000230: 6068 a13c b0a6 aabc 605c 05bc 78c4 35bd
00000240: a070 5d3c f083 f23c 10e1 803c 1095 413d
00000250: c01b 9b3c b05b f7bc c033 7cbc 38b6 70bd
00000260: 00dc 0cbc e035 2fbd 28da 043d 40bf 8a3c
00000270: e0a9 e0bc 20c6 883c 8080 223b 00fb aabc
00000280: 1816 243d 504e aebc a0e7 11bd 0834 6d3d
00000290: 0063 d1bc b0ab 8bbc 62ae ce3d d82a 65bd
000002a0: 4466 c33d 60fa 85bc c86e 84bd 80b1 2fbb
000002b0: 882c ddbd 4c3c cd3d a82c 2fbd c095 d4bc
000002c0: f020 8cbd 40bf 1abd f87e 69bd d06c 95bc
000002d0: 6018 11bd 607e 4fbd b0ec b93c 607b 9bbc
000002e0: b07c 403d d03b 893c acf6 abbd 80a4 31bc
000002f0: cf9a 03be cc74 ab3d f0f0 f7bc 87e7 173e
00000300: 88e2 da3c c08c e8bb 5075 e13c a072 08bd
00000310: 906a 9f3c f045 9f3c 802d efbb 4056 05bd
00000320: b0c0 81bc 3055 fe3c c070 5e3c 3cf6 563d
00000330: a869 0dbd 003a 46bd 2037 70bc 0098 913b
00000340: 78f2 4a3d 90c5 c93c 2080 5e3c 00d9 bc3a
00000350: 683c 5cbd b0cd dc3c 00b1 803c c0a4 393d
00000360: 4842 4c3d a0e6 02bc 80cc 9a3c d0a3 06bd
00000370: 804a 0dbc 78a9 34bd 4053 463c 10ac 013d
00000380: e044 643c f031 323d f00f a03c a0c6 09bd
00000390: 0015 7dbc f861 59bd 809e debb 48e9 3cbd
000003a0: c0e4 0a3d 80dc 3d3c b052 90bc 7038 b4bc
000003b0: 00e0 2bbb a09a 48bc 48ff 263d 50b8 c0bc
000003c0: 00c2 c2bc 905d 6c3d 2080 29bd 8080 36bc
000003d0: f284 ba3d 707b 77bd 4afb 953d e041 013c
000003e0: 4041 6cbd 00ab d8bb aa7d d3bd f4a7 bd3d
000003f0: 184e 5ebd d0e0 e7bc b8a1 99bd 2086 b0bc

quadA f4 [416, 3, 3]
0.016302403 0.01686792 0.028126642 0.01686792 -0.016875658 0.02456288 0.028126642 0.02456288
0.00057325885 0.010690764 0.08454378 0.10242438 0.08454378 -0.051581144 0.067695916 0.10242438
0.067695916 0.04089038 0.012554884 0.05279948 0.06112796 0.05279948 -0.051460147 0.049196333
0.06112796 0.049196333 0.038905248 0.008386608 -0.010441035 0.049064666 -0.010441035 0.028948676
0.0206445 0.049064666 0.0206445 -0.03733528 -0.02804929 0.006778866 0.040446952 0.006778866
0.016999826 -0.00043666363 0.040446952 -0.00043666363 0.011049464 -0.007946407 0.0235831 -0.025782347
0.0235831 0.027488122 0.01603052 -0.025782347 0.01603052 -0.019541716 0.10550442 -0.07892746
-0.09763764 -0.07892746 -0.073961705 -0.014432579 -0.09763764 -0.014432579 -0.031542733 0.060549565
-0.04209648 -0.05861129 -0.04209648 -0.023210779 0.0007675886 -0.05861129 0.0007675886 -0.037338786
-0.0063340515 -0.014018044 -0.00038720667 -0.014018044 -0.03368433 0.017265812 -0.00038720667 0.017265812
0.04001838 0.028043428 0.012956023 0.030178905 0.012956023 -0.040233247 -0.019384623 0.030178905
-0.019384623 0.012189815 -0.005062893 0.00018496811 -0.019274056 0.00018496811 0.01631242 0.031191468
-0.019274056 0.031191468 -0.011249527 0.0055815526 -0.008949354 0.013113886 -0.008949354 -0.041313205
-0.021850318 0.013113886 -0.021850318 0.035731655 -0.0015669316 0.0034799576 -0.003434956 0.0034799576
0.001829341 0.00077806413 -0.003434956 0.00077806413 -0.00026240945 -0.0045348406 0.003344044 0.004726991
0.003344044 0.0032949746 -0.0031673312 0.004726991 -0.0031673312 0.001239866 0.0008681168 0.0011656284
-0.0008163303 0.0011656284 -0.004317323 -0.0035062432 -0.0008163303 -0.0035062432 0.0034492065 0.0026376944
-0.009076551 -0.008143917 -0.009076551 0.012954722 -0.00066946447 -0.008143917 -0.00066946447 -0.015592416
0.0046781204 -0.015879512 0.002317533 -0.015879512 0.00056413317 0.00022137165 0.002317533 0.00022137165
-0.005242253 0.002172475 0.0055361986 -0.0016766489 0.0055361986 -0.006813 -0.0053818375 -0.0016766489
-0.0053818375 0.0046405243 0.0036577135 -0.007185638 0.010542378 -0.007185638 0.0044935346 0.004218176
0.010542378 0.004218176 -0.008151248 0.0010855892 -0.005458176 -0.0068279803 -0.005458176 0.0058911988
-0.0054567605 -0.0068279803 -0.0054567605 -0.0069767884 -0.0047284365 0.008587912 -0.0073527396 0.008587912
0.0024573654 -0.0025791079 -0.0073527396 -0.0025791079 0.002271071 -0.0007143072 0.002814144 -0.004958257
0.002814144 0.0029173442 -0.0030140877 -0.004958257 -0.0030140877 -0.0022030375 -0.008400272 0.0014245063
0.005064249 0.0014245063 0.006461178 -0.007937714 0.005064249 -0.007937714 0.0019390928 0.0008891374
-0.002873212 0.0144428015 -0.002873212 -0.007861078 -0.0014278591 0.0144428015 -0.0014278591 0.0069719404
0.0005143583 -0.0020649433 0.008348435 -0.0020649433 -0.010825098 -0.0004491508 0.008348435 -0.0004491508
0.010310739 -0.008552978 0.0065288544 0.007831112 0.0065288544 -0.0098975245 0.00047810376 0.007831112
0.00047810376 0.018450504 -0.003630042 0.027049467 0.04795277 0.027049467 -0.0041611046 0.022793025
0.04795277 0.022793025 0.0077911466 0.0072419047 0.05124624 0.09694573 0.05124624 -0.030313715
0.073814675 0.09694573 0.073814675 0.023071796 -0.010769188 0.028150499 0.06780711 0.028150499
00000000: 9e8c 853c 982e 8a3c d869 e63c 982e 8a3c
00000010: d23e 8abc 1838 c93c d869 e63c 1838 c93c
00000020: c046 163a 5028 2f3c 4a25 ad3d e0c3 d13d
00000030: 4a25 ad3d c046 53bd 28a4 8a3d e0c3 d13d
00000040: 28a4 8a3d ac7c 273d 00b3 4d3c 4444 583d
00000050: 5061 7a3d 4444 583d e0c7 52bd 1882 493d
00000060: 5061 7a3d 1882 493d 1c5b 1f3d fc67 093c
00000070: e010 2bbc 08f8 483d e010 2bbc c625 ed3c
00000080: a81e a93c 08f8 483d a81e a93c e1ec 18bd
00000090: a0c7 e5bc 4021 de3b b4ab 253d 4021 de3b
000000a0: 3843 8b3c 00f0 e4b9 b4ab 253d 00f0 e4b9
000000b0: d008 353c a631 02bc 5831 c13c 8035 d3bc
000000c0: 5831 c13c c52e e13c 7052 833c 8035 d3bc
000000d0: 7052 833c f315 a0bc b412 d83d b8a4 a1bd
000000e0: 3ef6 c7bd b8a4 a1bd 3c79 97bd a076 6cbc
000000f0: 3ef6 c7bd a076 6cbc f432 01bd d202 783d
00000100: 5c6d 2cbd 6412 70bd 5c6d 2cbd 8824 bebc
00000110: 0038 493a 6412 70bd 0038 493a 8ef0 18bd
00000120: e08d cfbb f0ab 65bc 0002 cbb9 f0ab 65bc
00000130: 94f8 09bd 0871 8d3c 0002 cbb9 0871 8d3c
00000140: 50ea 233d 55bb e53c 8045 543c c039 f73c
00000150: 8045 543c 9ecb 24bd 80cc 9ebc c039 f73c
00000160: 80cc 9ebc cab7 473c a0e6 a5bb 00f4 4139
00000170: a0e4 9dbc 00f4 4139 a0a1 853c 4085 ff3c
00000180: a0e4 9dbc 4085 ff3c f04f 38bc 75e5 b63b
00000190: 50a0 12bc a0db 563c 50a0 12bc 0938 29bd
000001a0: 70ff b2bc a0db 563c 70ff b2bc 5b5b 123d
000001b0: 8061 cdba 0010 643b 001d 61bb 0010 643b
000001c0: 80c6 ef3a 00f7 4b3a 001d 61bb 00f7 4b3a
000001d0: 0094 89b9 0099 94bb c027 5b3b e0e4 9a3b
000001e0: c027 5b3b 80f0 573b 0093 4fbb e0e4 9a3b
000001f0: 0093 4fbb 0083 a23a 5592 633a 00c8 983a
00000200: 00ff 55ba 00c8 983a 5578 8dbb 00c9 65bb
00000210: 00ff 55ba 00c9 65bb 150c 623b 2bdd 2c3b
00000220: d0b5 14bc 106e 05bc d0b5 14bc 0b40 543c
00000230: 007f 2fba 106e 05bc 007f 2fba 5577 7fbc
00000240: eb4a 993b c015 82bc c0e1 173b c015 82bc
00000250: 56e2 133a 0020 6839 c0e1 173b 0020 6839
00000260: 35c7 abbb 1560 0e3b 0069 b53b 00c3 dbba
00000270: 0069 b53b 963f dfbb 205a b0bb 00c3 dbba
00000280: 205a b0bb 8a0f 983b 40b6 6f3b 8075 ebbb
00000290: f0b9 2c3c 8075 ebbb 803e 933b a038 8a3b
000002a0: f0b9 2c3c a038 8a3b d08c 05bc 544a 8e3a
000002b0: 80da b2bb 40bd dfbb 80da b2bb f50a c13b
000002c0: a0ce b2bb 40bd dfbb a0ce b2bb 8b9d e4bb
000002d0: 00f1 9abb 50b4 0c3c 40ef f0bb 50b4 0c3c
000002e0: c00b 213b 4006 29bb 40ef f0bb 4006 29bb
000002f0: 40d6 143b 5840 3bba 806d 383b e078 a2bb
00000300: 806d 383b ea30 3f3b 0088 45bb e078 a2bb
00000310: 0088 45bb d660 10bb 4ba1 09bc 80b6 ba3a
00000320: 00f2 a53b 80b6 ba3a 4ab8 d33b 300d 02bc
00000330: 00f2 a53b 300d 02bc 2829 fe3a 0015 693a
00000340: 804c 3cbb 80a1 6c3c 804c 3cbb c0cb 00bc
00000350: 0027 bbba 80a1 6c3c 0027 bbba e074 e43b
00000360: 00d6 063a 0054 07bb e0c7 083c 0054 07bb
00000370: c05b 31bc 007c ebb9 e0c7 083c 007c ebb9
00000380: 60ee 283c ca21 0cbc 00f0 d53b 104e 003c
00000390: 00f0 d53b 3a29 22bc 00aa fa39 104e 003c
000003a0: 00aa fa39 8325 973c 00e6 6dbb d896 dd3c
000003b0: 206a 443d d896 dd3c e059 88bb 70b8 ba3c
000003c0: 206a 443d 70b8 ba3c e04c ff3b 804d ed3b
000003d0: 94e7 513d 7c8b c63d 94e7 513d 7854 f8bc
000003e0: 262c 973d 7c8b c63d 262c 973d 1001 bd3c
000003f0: 4071 30bc e09b e63c 74de 8a3d e09b e63c

hfvrA f4 [416, 1]
1.1797134 0.6116876 1.1208825 0.9413183 1.0423561 0.962111 0.6296835 1.1298763
1.0270141 0.9722216 1.1818999 0.992308 0.3275208 0.26986188 0.29065162 0.3963006
0.3548994 0.35616213 0.3607586 0.40351778 0.33369184 0.30528295 0.20775825 0.32449383
0.38182348 0.4065562 1.1995085 0.61655426 1.1971772 0.8989518 1.0384568 0.9603135
0.6594566 1.1912715 0.9982201 0.98697305 1.182335 0.96965694 0.31589603 0.3026793
0.3093561 0.28102356 0.40153688 0.38334382 0.35153157 0.3725862 0.29412276 0.33800244
0.20637465 0.3631125 0.4019305 0.30685484 1.1753911 0.61798954 1.1734455 0.9398861
1.0245893 0.939089 0.6515307 1.1777339 1.0087724 1.02302 1.1764477 0.9580187
0.3221199 0.29032993 0.2845794 0.40199387 0.3987385 0.32535517 0.3501312 0.3068143
0.31126314 0.3228302 0.21978945 0.3593673 0.32772833 0.3555081 1.1846203 0.6119172
1.127331 0.9242107 1.1127759 0.9044561 0.669575 1.2119873 0.9827356 1.0215292
1.1813385 0.98263925 0.33043605 0.2927848 0.26511478 0.3818013 0.3590045 0.31033087
0.28829545 0.3502429 0.41816843 0.35786343 0.18878335 0.3387009 0.32686734 0.3535043
1.1973137 0.62831926 1.2010317 0.9272937 1.01545 0.9561467 0.62181365 1.1807699
0.977498 1.0102472 1.1823123 0.96718544 0.30597264 0.30759484 0.32340837 0.37803674
0.3582434 0.39523154 0.352632 0.26431268 0.32079363 0.31341314 0.18203312 0.3575523
0.381415 0.29454964 1.1630017 0.6785339 1.1668231 0.9292028 1.0183027 0.9548628
0.63829273 1.1584333 1.0052608 0.99100006 1.1652485 0.9585999 0.22499293 0.38124895
0.27250826 0.45027512 0.40150416 0.3934034 0.38667703 0.36104774 0.39773148 0.28997278
0.20707947 0.3432278 0.32123566 0.4225564 1.2130963 0.6080658 1.1808213 0.9231366
1.0297982 0.96375 0.60104173 1.1461565 0.98959243 1.0380353 1.1439478 0.97354
0.33622068 0.29145938 0.32352072 0.41061896 0.30260658 0.35641205 0.3215847 0.41019487
0.3174764 0.34941167 0.25053215 0.3336795 0.32019567 0.3960281 1.199498 0.62013435
1.1647692 0.92615354 1.0288035 0.95075333 0.65553725 1.1733984 1.0118755 0.99748456
1.1565883 1.0087698 0.29581094 0.2861219 0.3409934 0.41970694 0.40533036 0.3839416
0.32268786 0.41580504 0.3175099 0.34485716 0.19029534 0.40985292 0.32963967 0.4036461
1.2263707 0.60886323 1.142527 0.92569935 1.041433 0.95255363 0.6411073 1.1526321
0.9749973 1.0000939 1.2038935 0.98692065 0.36804235 0.2773729 0.34265858 0.39582032
0.3467254 0.34520948 0.3195709 0.28600782 0.29400796 0.35018826 0.18326008 0.37697566
0.34120905 0.36766618 1.2334037 0.5981338 1.1794672 0.9177598 1.0122255 0.9301753
0.63131875 1.1861051 0.99981314 1.0055661 1.1086248 1.0081797 0.32510018 0.3118794
0.36245698 0.3411249 0.42052788 0.3142836 0.28312874 0.4174478 0.32892787 0.33647758
00000000: d900 973f 8f97 1c3f 1479 8f3f 3cfa 703f
00000010: ed6b 853f e84c 763f f032 213f c99f 903f
00000020: 3375 833f 84e3 783f 7f48 973f e607 7e3f
00000030: ceb0 a73e 562b 8a3e 4ad0 943e eae7 ca3e
00000040: 60b5 b53e e25a b63e 5ab5 b83e e299 ce3e
00000050: a8d9 aa3e 0c4e 9c3e 94be 543e 0e24 a63e
00000060: 5e7e c33e 2228 d03e 7f89 993f 80d6 1d3f
00000070: 1a3d 993f b521 663f 27ec 843f 1bd7 753f
00000080: 26d2 283f 967b 983f 5a8b 7f3f 44aa 7c3f
00000090: c156 973f 703b 783f 20bd a13e c8f8 9a3e
000000a0: ec63 9e3e 52e2 8f3e 3e96 cd3e a445 c43e
000000b0: f2fb b33e 9ec3 be3e 4297 963e a80e ad3e
000000c0: e053 533e e2e9 b93e d6c9 cd3e 141c 9d3e
000000d0: 3773 963f 9034 1e3f 7633 963f 609c 703f
000000e0: be25 833f 2368 703f b7ca 263f fcbf 963f
000000f0: 741f 813f 52f2 823f d795 963f b740 753f
00000100: e6ec a43e 20a6 943e 64b4 913e 24d2 cd3e
00000110: 7427 cc3e f494 a63e 6644 b33e c416 9d3e
00000120: e25d 9f3e 004a a53e 7c10 613e fefe b73e
00000130: 02cc a73e 2805 b63e a3a1 973f 9ba6 1c3f
00000140: 624c 903f 1399 6c3f 716f 8e3f 6f8a 673f
00000150: 4469 2b3f 6622 9b3f 8f94 7b3f 78c1 823f
00000160: 1a36 973f 3f8e 7b3f ea2e a93e e4e7 953e
00000170: 20bd 873e 767b c33e 70cf b73e b0e3 9e3e
00000180: 769b 933e 0a53 b33e 2c1a d63e e039 b73e
00000190: 6c50 413e 346a ad3e 285b a73e 84fe b43e
000001a0: 9341 993f 88d9 203f 68bb 993f 1f63 6d3f
000001b0: 44fa 813f 08c6 743f 2e2f 1f3f 7823 973f
000001c0: 4f3d 7a3f c84f 813f 0256 973f 7799 773f
000001d0: 72a8 9c3e 127d 9d3e c895 a53e 088e c13e
000001e0: ae6b b73e ca5b ca3e 2e8c b43e fe53 873e
000001f0: 103f a43e b077 a03e e466 3a3e 1811 b73e
00000200: d448 c33e 36cf 963e 3ddd 943f 66b4 2d3f
00000210: 765a 953f 3ce0 6d3f be57 823f e371 743f
00000220: 2767 233f 8b47 943f 63ac 803f 2eb2 7d3f
00000230: dd26 953f ce66 753f 8c64 663e 1033 c33e
00000240: 3486 8b3e 768a e63e f491 cd3e 2c6c c93e
00000250: 88fa c53e 40db b83e 76a3 cb3e 5077 943e
00000260: a40c 543e 8ebb af3e 0079 a43e 5059 d83e
00000270: bd46 9b3f 33aa 1b3f 2725 973f ae52 6c3f
00000280: 6dd0 833f 52b8 763f dfdd 193f 42b5 923f
00000290: ee55 7d3f 57de 843f e26c 923f eb39 793f
000002a0: 1e25 ac3e 2a3a 953e 82a4 a53e a63c d23e
000002b0: 40ef 9a3e a47b b63e c0a6 a43e 1005 d23e
000002c0: 448c a23e 16e6 b23e c045 803e 0ad8 aa3e
000002d0: b0f0 a33e 32c4 ca3e 2789 993f 20c1 1e3f
000002e0: 2817 953f 6618 6d3f d5af 833f 9264 733f
000002f0: 4ad1 273f eb31 963f 2385 813f 265b 7f3f
00000300: 160b 943f 5e1f 813f 8874 973e 927e 923e
00000310: b096 ae3e d4e3 d63e 7687 cf3e fe93 c43e
00000320: 5837 a53e 66e4 d43e a890 a23e 1e91 b03e
00000330: c8dc 423e 3ed8 d13e 88c6 a83e b4aa ce3e
00000340: b7f9 9c3f 76de 1b3f 533e 923f a2fa 6c3f
00000350: ad4d 853f 8eda 733f 9c1f 243f 7389 933f
00000360: 6c99 793f 1403 803f 2f19 9a3f d5a6 7c3f
00000370: 0c70 bc3e d203 8e3e f270 af3e f6a8 ca3e
00000380: fe85 b13e 4cbf b03e cc9e a33e 9e6f 923e
00000390: 3688 963e e04b b33e 88a8 3b3e f402 c13e
000003a0: f4b2 ae3e be3e bc3e 2ce0 9d3f 4c1f 193f
000003b0: c8f8 963f 4ef2 6a3f 9b90 813f f81f 6e3f
000003c0: 1b9e 213f 4bd2 973f c1f3 7f3f 64b6 803f
000003d0: 6be7 8d3f 080c 813f 8873 a63e a8ae 9f3e
000003e0: f693 b93e eca7 ae3e 6e4f d73e c8e9 a03e
000003f0: 40f6 903e b8bb d53e 3c69 a83e ca46 ac3e

vwA f4 [416, 1]
0.5251703 0.46992522 0.3967848 0.5063859 0.44079947 0.50700665 0.47285795 0.39894533
0.5143782 0.5069716 0.45282876 0.51185936 0.3828713 0.3652367 0.37023526 0.3965448
0.38576454 0.38429442 0.3902667 0.40219247 0.3805148 0.37284768 0.35923505 0.37605155
0.39761966 0.39904636 0.5267727 0.46962976 0.40367588 0.4992694 0.4408573 0.50778055
0.47754443 0.40309992 0.51012087 0.50784844 0.4526621 0.5087604 0.3800202 0.37719214
0.3773873 0.35759148 0.39659545 0.391984 0.38533607 0.39236423 0.36657152 0.38456905
0.3566211 0.38954082 0.40196747 0.36847234 0.52343345 0.47064674 0.40111184 0.50704134
0.43831414 0.5058777 0.47675163 0.40200382 0.51290774 0.51286626 0.45233887 0.5071625
0.3825792 0.37320605 0.36841172 0.3963269 0.3994418 0.37396172 0.38555112 0.37332755
0.37453857 0.37994015 0.3633932 0.38767397 0.38003784 0.38602325 0.5255954 0.47126183
0.39632806 0.5049811 0.44713956 0.5003525 0.48122388 0.4071625 0.5073736 0.512185
0.4523291 0.5097939 0.38436556 0.37264943 0.3616216 0.3909117 0.38686466 0.37111855
0.36481598 0.38557 0.4039458 0.39512512 0.3501151 0.38232493 0.38044226 0.3856612
0.5270982 0.47155958 0.4041948 0.50476253 0.43782693 0.5077484 0.47131142 0.40156162
0.5077897 0.5113405 0.45267445 0.50886583 0.37730658 0.37836325 0.38347858 0.38871795
0.38634643 0.39502424 0.38602355 0.35706982 0.3773472 0.37649065 0.3481561 0.38711652
0.39704078 0.36592442 0.522466 0.48221415 0.4016345 0.5049324 0.4383118 0.50721085
0.47409064 0.40074527 0.51189095 0.50924855 0.45052236 0.5071583 0.34846056 0.40124637
0.36444756 0.40704212 0.3994592 0.39579526 0.39987722 0.38965887 0.40110835 0.3681762
0.35764557 0.3813839 0.37885037 0.402344 0.5288775 0.46870452 0.40217656 0.5041053
0.43949643 0.50847083 0.46734712 0.3987964 0.5085517 0.5144268 0.44801724 0.5099738
0.3878977 0.37376025 0.3851613 0.39978373 0.36679617 0.38354585 0.37900674 0.40351245
0.37856343 0.38983572 0.3732991 0.3790026 0.3791295 0.39547867 0.52703696 0.4719442
0.40081784 0.5054138 0.4389475 0.5076996 0.4778914 0.4023856 0.5122961 0.51024675
0.44906816 0.5129032 0.37487155 0.37153184 0.39113247 0.40304756 0.40038937 0.3946092
0.37874627 0.40623656 0.376132 0.3864286 0.3511299 0.40257338 0.3820174 0.3981067
0.5310587 0.4699565 0.3984829 0.50405866 0.4398486 0.50670415 0.4752065 0.4001547
0.5075792 0.51026535 0.45430672 0.5109705 0.3969698 0.3683139 0.3896943 0.39417276
0.3816824 0.38054544 0.3747053 0.36387107 0.3664956 0.3891073 0.34921518 0.39325207
0.38436684 0.3882485 0.53174716 0.46588755 0.4022448 0.5021519 0.43734694 0.50472987
0.47172314 0.4036406 0.51042575 0.5111135 0.44354218 0.5126891 0.3836019 0.37997106
0.39825764 0.37708297 0.40198237 0.37103426 0.36610228 0.40375057 0.38008484 0.38354605
00000000: 9071 063f 0a9a f03e 6127 cb3e 82a2 013f
00000010: 78b0 e13e 30cb 013f 701a f23e 9042 cc3e
00000020: 4aae 033f e4c8 013f 2cd9 e73e 3709 033f
00000030: b507 c43e 4e00 bb3e 7a8f bd3e ec07 cb3e
00000040: ee82 c53e 3dc2 c43e 09d1 c73e 2cec cd3e
00000050: d6d2 c23e e4e5 be3e a8ed b73e d489 c03e
00000060: ce94 cb3e ce4f cc3e 93da 063f 5073 f03e
00000070: 9bae ce3e 3da0 ff3e 0cb8 e13e e8fd 013f
00000080: b480 f43e 1d63 ce3e 4897 023f 5b02 023f
00000090: 54c3 e73e 1f3e 023f 0292 c23e 541f c13e
000000a0: e838 c13e 3b16 b73e 8f0e cb3e 20b2 c83e
000000b0: c54a c53e f7e3 c83e 43af bb3e 3ce6 c43e
000000c0: 0a97 b63e e571 c73e aece cd3e 68a8 bc3e
000000d0: bcff 053f 9cf8 f03e 885e cd3e 76cd 013f
000000e0: b66a e03e 3381 013f ca18 f43e 72d3 cd3e
000000f0: ec4d 033f 344b 033f f698 e73e 67d5 013f
00000100: 6ce1 c33e dd14 bf3e 76a0 bc3e 5ceb ca3e
00000110: a383 cc3e e977 bf3e f566 c53e ca24 bf3e
00000120: 85c3 bf3e 8487 c23e ac0e ba3e 347d c63e
00000130: 5294 c23e d7a4 c53e 6c8d 063f 3b49 f13e
00000140: 83eb ca3e 7146 013f 7aef e43e 1a17 003f
00000150: fa62 f63e 9a77 d03e 3ce3 013f 8e1e 033f
00000160: ae97 e73e da81 023f 90cb c43e e8cb be3e
00000170: 7726 b93e 9425 c83e 2013 c63e 4003 be3e
00000180: 29c9 ba3e 6e69 c53e fcd1 ce3e d74d ca3e
00000190: 4942 b33e 18c0 c33e 54c9 c23e 6375 c53e
000001a0: e8ef 063f 4270 f13e 9ff2 ce3e 1e38 013f
000001b0: da2a e03e cdfb 013f bb4f f13e 7c99 cd3e
000001c0: 81fe 013f 36e7 023f f2c4 e73e 0845 023f
000001d0: 542e c13e d4b8 c13e 4e57 c43e 0a06 c73e
000001e0: 33cf c53e 9e40 ca3e e1a4 c53e dbd1 b63e
000001f0: a733 c13e 62c3 c03e 8441 b23e 2334 c63e
00000200: ee48 cb3e 725a bb3e 55c0 053f c6e4 f63e
00000210: 0aa3 cd3e 4043 013f 676a e03e 92d8 013f
00000220: 02bc f23e 7c2e cd3e 490b 033f 1d5e 023f
00000230: deaa e63e 20d5 013f 6c69 b23e 2a70 cd3e
00000240: df98 ba3e d367 d03e eb85 cc3e ada5 ca3e
00000250: b5bc cc3e 5e81 c73e 135e cd3e 9781 bc3e
00000260: 521d b73e c044 c33e adf8 c13e 0800 ce3e
00000270: 8464 073f 0afa ef3e 16ea cd3e 0c0d 013f
00000280: ad05 e13e 252b 023f 1f48 ef3e 0b2f cc3e
00000290: 7230 023f 7ab1 033f 8462 e53e a58d 023f
000002a0: 879a c63e 815d bf3e dd33 c53e 74b0 cc3e
000002b0: b5cc bb3e 1f60 c43e 2c0d c23e 2f99 ce3e
000002c0: 11d3 c13e 8c98 c73e 0f21 bf3e a10c c23e
000002d0: 431d c23e 2e7c ca3e e5eb 063f aca2 f13e
000002e0: ff37 cd3e cc62 013f babd e03e 9af8 013f
000002f0: 2eae f43e 7c05 ce3e d625 033f 889f 023f
00000300: 43ec e53e a04d 033f 2aef bf3e 6c39 be3e
00000310: 8442 c83e 405c ce3e d6ff cc3e 380a ca3e
00000320: 08eb c13e 3dfe cf3e 6094 c03e f8d9 c53e
00000330: 4cc7 b33e 191e ce3e c997 c33e a4d4 cb3e
00000340: 77f3 073f 239e f03e f305 cc3e fd09 013f
00000350: d633 e13e 5db7 013f 444e f33e 14e1 cc3e
00000360: b6f0 013f c0a0 023f e49a e83e f6ce 023f
00000370: a03f cb3e a493 bc3e 0386 c73e 03d1 c93e
00000380: e06b c33e dad6 c23e 60d9 bf3e 4f4d ba3e
00000390: 50a5 bb3e 1239 c73e 55cc b23e 5658 c93e
000003a0: bbcb c43e 82c8 c63e 9520 083f d088 ee3e
000003b0: 08f3 cd3e 078d 003f f0eb df3e fa35 013f
000003c0: b285 f13e fba9 ce3e 43ab 023f 56d8 023f
000003d0: f617 e33e 983f 033f 7867 c43e 918b c23e
000003e0: 6de8 cb3e 0511 c13e a2d0 cd3e 34f8 bd3e
000003f0: c271 bb3e 65b8 ce3e 7b9a c23e 2660 c43e

alpha_0_A f4 [6656]
11.699381 11.699381 5.2003264 11.699381 7.2505245 11.699381 11.699381 5.2003264
11.699381 11.699381 7.2505245 11.699381 4.49916 4.49916 4.49916 4.49916
4.49916 4.49916 4.49916 4.49916 4.49916 4.49916 4.49916 4.49916
4.49916 4.49916 11.699381 11.699381 5.2003264 11.699381 7.2505245 11.699381
11.699381 5.2003264 11.699381 11.699381 7.2505245 11.699381 4.49916 4.49916
4.49916 4.49916 4.49916 4.49916 4.49916 4.49916 4.49916 4.49916
4.49916 4.49916 4.49916 4.49916 11.699381 11.699381 5.2003264 11.699381
7.2505245 11.699381 11.699381 5.2003264 11.699381 11.699381 7.2505245 11.699381
4.49916 4.49916 4.49916 4.49916 4.49916 4.49916 4.49916 4.49916
4.49916 4.49916 4.49916 4.49916 4.49916 4.49916 11.699381 11.699381
5.2003264 11.699381 7.2505245 11.699381 11.699381 5.2003264 11.699381 11.699381
7.2505245 11.699381 4.49916 4.49916 4.49916 4.49916 4.49916 4.49916
4.49916 4.49916 4.49916 4.49916 4.49916 4.49916 4.49916 4.49916
11.699381 11.699381 5.2003264 11.699381 7.2505245 11.699381 11.699381 5.2003264
11.699381 11.699381 7.2505245 11.699381 4.49916 4.49916 4.49916 4.49916
4.49916 4.49916 4.49916 4.49916 4.49916 4.49916 4.49916 4.49916
4.49916 4.49916 11.699381 11.699381 5.2003264 11.699381 7.2505245 11.699381
11.699381 5.2003264 11.699381 11.699381 7.2505245 11.699381 4.49916 4.49916
4.49916 4.49916 4.49916 4.49916 4.49916 4.49916 4.49916 4.49916
4.49916 4.49916 4.49916 4.49916 11.699381 11.699381 5.2003264 11.699381
7.2505245 11.699381 11.699381 5.2003264 11.699381 11.699381 7.2505245 11.699381
4.49916 4.49916 4.49916 4.49916 4.49916 4.49916 4.49916 4.49916
4.49916 4.49916 4.49916 4.49916 4.49916 4.49916 11.699381 11.699381
5.2003264 11.699381 7.2505245 11.699381 11.699381 5.2003264 11.699381 11.699381
7.2505245 11.699381 4.49916 4.49916 4.49916 4.49916 4.49916 4.49916
4.49916 4.49916 4.49916 4.49916 4.49916 4.49916 4.49916 4.49916
11.699381 11.699381 5.2003264 11.699381 7.2505245 11.699381 11.699381 5.2003264
11.699381 11.699381 7.2505245 11.699381 4.49916 4.49916 4.49916 4.49916
4.49916 4.49916 4.49916 4.49916 4.49916 4.49916 4.49916 4.49916
4.49916 4.49916 11.699381 11.699381 5.2003264 11.699381 7.2505245 11.699381
11.699381 5.2003264 11.699381 11.699381 7.2505245 11.699381 4.49916 4.49916
4.49916 4.49916 4.49916 4.49916 4.49916 4.49916 4.49916 4.49916
00000000: aa30 3b41 aa30 3b41 1369 a640 aa30 3b41
00000010: 4c04 e840 aa30 3b41 aa30 3b41 1369 a640
00000020: aa30 3b41 aa30 3b41 4c04 e840 aa30 3b41
00000030: 1ef9 8f40 1ef9 8f40 1ef9 8f40 1ef9 8f40
00000040: 1ef9 8f40 1ef9 8f40 1ef9 8f40 1ef9 8f40
00000050: 1ef9 8f40 1ef9 8f40 1ef9 8f40 1ef9 8f40
00000060: 1ef9 8f40 1ef9 8f40 aa30 3b41 aa30 3b41
00000070: 1369 a640 aa30 3b41 4c04 e840 aa30 3b41
00000080: aa30 3b41 1369 a640 aa30 3b41 aa30 3b41
00000090: 4c04 e840 aa30 3b41 1ef9 8f40 1ef9 8f40
000000a0: 1ef9 8f40 1ef9 8f40 1ef9 8f40 1ef9 8f40
000000b0: 1ef9 8f40 1ef9 8f40 1ef9 8f40 1ef9 8f40
000000c0: 1ef9 8f40 1ef9 8f40 1ef9 8f40 1ef9 8f40
000000d0: aa30 3b41 aa30 3b41 1369 a640 aa30 3b41
000000e0: 4c04 e840 aa30 3b41 aa30 3b41 1369 a640
000000f0: aa30 3b41 aa30 3b41 4c04 e840 aa30 3b41
00000100: 1ef9 8f40 1ef9 8f40 1ef9 8f40 1ef9 8f40
00000110: 1ef9 8f40 1ef9 8f40 1ef9 8f40 1ef9 8f40
00000120: 1ef9 8f40 1ef9 8f40 1ef9 8f40 1ef9 8f40
00000130: 1ef9 8f40 1ef9 8f40 aa30 3b41 aa30 3b41
00000140: 1369 a640 aa30 3b41 4c04 e840 aa30 3b41
00000150: aa30 3b41 1369 a640 aa30 3b41 aa30 3b41
00000160: 4c04 e840 aa30 3b41 1ef9 8f40 1ef9 8f40
00000170: 1ef9 8f40 1ef9 8f40 1ef9 8f40 1ef9 8f40
00000180: 1ef9 8f40 1ef9 8f40 1ef9 8f40 1ef9 8f40
00000190: 1ef9 8f40 1ef9 8f40 1ef9 8f40 1ef9 8f40
000001a0: aa30 3b41 aa30 3b41 1369 a640 aa30 3b41
000001b0: 4c04 e840 aa30 3b41 aa30 3b41 1369 a640
000001c0: aa30 3b41 aa30 3b41 4c04 e840 aa30 3b41
000001d0: 1ef9 8f40 1ef9 8f40 1ef9 8f40 1ef9 8f40
000001e0: 1ef9 8f40 1ef9 8f40 1ef9 8f40 1ef9 8f40
000001f0: 1ef9 8f40 1ef9 8f40 1ef9 8f40 1ef9 8f40
00000200: 1ef9 8f40 1ef9 8f40 aa30 3b41 aa30 3b41
00000210: 1369 a640 aa30 3b41 4c04 e840 aa30 3b41
00000220: aa30 3b41 1369 a640 aa30 3b41 aa30 3b41
00000230: 4c04 e840 aa30 3b41 1ef9 8f40 1ef9 8f40
00000240: 1ef9 8f40 1ef9 8f40 1ef9 8f40 1ef9 8f40
00000250: 1ef9 8f40 1ef9 8f40 1ef9 8f40 1ef9 8f40
00000260: 1ef9 8f40 1ef9 8f40 1ef9 8f40 1ef9 8f40
00000270: aa30 3b41 aa30 3b41 1369 a640 aa30 3b41
00000280: 4c04 e840 aa30 3b41 aa30 3b41 1369 a640
00000290: aa30 3b41 aa30 3b41 4c04 e840 aa30 3b41
000002a0: 1ef9 8f40 1ef9 8f40 1ef9 8f40 1ef9 8f40
000002b0: 1ef9 8f40 1ef9 8f40 1ef9 8f40 1ef9 8f40
000002c0: 1ef9 8f40 1ef9 8f40 1ef9 8f40 1ef9 8f40
000002d0: 1ef9 8f40 1ef9 8f40 aa30 3b41 aa30 3b41
000002e0: 1369 a640 aa30 3b41 4c04 e840 aa30 3b41
000002f0: aa30 3b41 1369 a640 aa30 3b41 aa30 3b41
00000300: 4c04 e840 aa30 3b41 1ef9 8f40 1ef9 8f40
00000310: 1ef9 8f40 1ef9 8f40 1ef9 8f40 1ef9 8f40
00000320: 1ef9 8f40 1ef9 8f40 1ef9 8f40 1ef9 8f40
00000330: 1ef9 8f40 1ef9 8f40 1ef9 8f40 1ef9 8f40
00000340: aa30 3b41 aa30 3b41 1369 a640 aa30 3b41
00000350: 4c04 e840 aa30 3b41 aa30 3b41 1369 a640
00000360: aa30 3b41 aa30 3b41 4c04 e840 aa30 3b41
00000370: 1ef9 8f40 1ef9 8f40 1ef9 8f40 1ef9 8f40
00000380: 1ef9 8f40 1ef9 8f40 1ef9 8f40 1ef9 8f40
00000390: 1ef9 8f40 1ef9 8f40 1ef9 8f40 1ef9 8f40
000003a0: 1ef9 8f40 1ef9 8f40 aa30 3b41 aa30 3b41
000003b0: 1369 a640 aa30 3b41 4c04 e840 aa30 3b41
000003c0: aa30 3b41 1369 a640 aa30 3b41 aa30 3b41
000003d0: 4c04 e840 aa30 3b41 1ef9 8f40 1ef9 8f40
000003e0: 1ef9 8f40 1ef9 8f40 1ef9 8f40 1ef9 8f40
000003f0: 1ef9 8f40 1ef9 8f40 1ef9 8f40 1ef9 8f40
