tests/test_data_path/og_processed/dimer_ap3_train_spec_7_322.pt (torch, 346834 bytes, 17 tensors)

y f4 [16, 4]
2.0545475 0.00017821294 -0.4943385 -0.10474193 -2.3179772 0.1358618 -1.575431 -1.0115709
-0.005681508 0.0015617129 -0.4218336 -0.1771403 -0.33286273 0.00028722687 -0.5008647 -0.1523731
-5.0603757 4.0194025 -3.632146 -3.3896153 -0.86218345 9.221601e-06 -0.2684457 -0.060729314
-3.5906355 0.0013100607 -0.6968956 -0.16242447 8.727843 1.4679093 -3.7266967 -2.2029884
0.7673389 6.7636815e-06 -0.19896889 -0.043174684 -0.934395 7.90243e-05 -0.40760496 -0.12827411
-0.73560965 0.042590566 -1.0964667 -0.6520116 -1.7373031 3.5221214 -2.278715 -2.520246
-5.2571344 0.9806874 -1.8127649 -1.9183933 -5.5851693 16.984365 -6.019681 -6.683529
-9.372569 1.2577684 -3.2312486 -1.8812567 -0.3007979 0.00010452127 -0.2794109 -0.07586394
00000000: b57d 0340 acde 3a39 f019 fdbe f082 d6bd
00000010: bd59 14c0 5b1f 0b3e b9a7 c9bf 287b 81bf
00000020: f22b babb 64b2 cc3a 93fa d7be 4464 35be
00000030: fc6c aabe f096 9639 ab38 00bf b207 1cbe
00000040: 99ee a1c0 f29e 8040 1475 68c0 75ef 58c0
00000050: 0eb8 5cbf 7ab6 1a37 b771 89be 4dbf 78bd
00000060: f9cc 65c0 58b6 ab3a c067 32bf 9a52 26be
00000070: 3fa5 0b41 74e4 bb3f 3382 6ec0 c3fd 0cc0
00000080: 5270 443f 95f3 e236 80be 4bbe f0d7 30bd
00000090: 8334 6fbf d9b9 a538 99b1 d0be 4a5a 03be
000000a0: ea50 3cbf 7273 2e3d 0559 8cbf 3bea 26bf
000000b0: f35f debf 706a 6140 77d6 11c0 b64b 21c0
000000c0: 723a a8c0 540e 7b3f ae08 e8bf e98d f5bf
000000d0: b5b9 b2c0 fbdf 8741 3aa1 c0c0 78df d5c0
000000e0: 0bf6 15c1 8efe a03f c7cc 4ec0 05cd f0bf
000000f0: 2f02 9abe 6e32 db38 f20e 8fbe 8e5e 9bbd

RA f4 [352, 3]
-1.685939 -1.881852 2.495172 -1.587278 -0.700364 1.477732 -2.533643 0.165197
1.386993 -0.41047 -0.628186 0.828719 -0.211384 0.371438 -0.201175 1.037991
0.037533 -0.994729 1.735793 -0.904277 -0.604547 -0.20346 1.827939 0.421152
1.38754 0.850247 -2.047157 2.58399 0.724935 -2.787457 -0.838665 -2.489937
2.492591 -1.813995 -1.413045 3.5504 -2.679257 -2.47944 2.25373 0.224175
-1.347966 0.812378 -1.128114 0.326557 -0.920928 -1.178476 1.949733 1.006881
0.705995 1.879689 1.132595 0.797184 1.647783 -2.270485 2.647276 1.595598
-3.554503 3.433622 0.780071 -2.16833 2.573998 -0.292562 -3.323239 -0.167487
2.603421 -0.34013 -1.701112 -1.868769 2.506381 -1.627474 -0.7206 1.501552
-2.478176 0.095701 1.384582 -0.434357 -0.712963 0.797795 -0.25703 0.389056
-0.227449 1.024812 0.057564 -0.956056 1.743316 -0.872749 -0.636126 -0.282853
1.790434 0.377073 1.344608 0.930268 -1.988007 2.568486 0.709851 -2.78223
-0.820758 -2.487771 2.493545 -1.814756 -1.448118 3.516831 -2.520608 -2.413517
2.252996 0.242185 -1.325602 0.818425 -1.050429 0.432396 -0.971469 -1.15035
2.030872 1.030475 0.598624 1.882948 1.097211 0.724349 1.609514 -2.229137
2.595887 1.479738 -3.487556 3.459091 0.722497 -2.12893 2.537346 -0.243557
-3.246338 -0.172299 2.608445 -0.348574 -1.686084 -1.816142 2.554091 -1.623944
-0.703575 1.49537 -2.517481 0.140671 1.404058 -0.418628 -0.702848 0.793317
-0.247789 0.39867 -0.244528 1.028334 0.015914 -1.02206 1.769935 -0.832944
-0.580338 -0.262074 1.842642 0.444541 1.381457 0.888069 -1.95687 2.57342
0.76352 -2.734889 -0.794779 -2.518439 2.439062 -1.867926 -1.477787 3.57551
-2.549108 -2.422811 2.211346 0.244262 -1.342014 0.833306 -1.128543 0.344775
-0.945628 -1.179668 1.984098 1.009234 0.687167 1.921913 1.147831 0.716265
1.701695 -2.21326 2.62983 1.543523 -3.53716 3.498502 0.755969 -2.140659
2.570682 -0.265438 -3.27457 -0.178385 2.611927 -0.265314 -1.718434 -1.925483
2.536055 -1.659375 -0.675376 1.521851 -2.533331 0.165332 1.348166 -0.464593
-0.652466 0.792872 -0.282459 0.387839 -0.194296 1.031498 0.079427 -0.960772
1.717011 -0.879145 -0.640957 -0.210922 1.854754 0.414472 1.381111 0.897411
-1.891725 2.567865 0.726328 -2.765654 -0.828692 -2.531765 2.513806 -1.789399
-1.447966 3.544541 -2.574853 -2.435938 2.278991 0.219835 -1.381581 0.79625
-1.104386 0.372522 -0.929292 -1.135753 1.995415 1.056468 0.59503 1.950875
1.06562 0.728288 1.628352 -2.180993 2.599874 1.517644 -3.543918 3.446197
00000000: d9cc d7bf 87e0 f0bf e6b0 1f40 ed2b cbbf
00000010: 0e4b 33bf 5226 bd3f 3527 22c0 6729 293e
00000020: fd88 b13f 2029 d2be ccd0 20bf ee26 543f
00000030: 0c75 58be 1f2d be3e d200 4ebe e4dc 843f
00000040: 34bc 193d 8fa6 7ebf 772e de3f b37e 67bf
00000050: 98c3 1abf d157 50be e8f9 e93f 3ca1 d73e
00000060: e99a b13f caa9 593f 9f04 03c0 1860 2540
00000070: 5795 393f b265 32c0 c0b2 56bf 215b 1fc0
00000080: 9c86 1f40 fd30 e8bf a9de b4bf c139 6340
00000090: f278 2bc0 25af 1ec0 1d3d 1040 228e 653e
000000a0: 268a acbf 01f8 4f3f 0a66 90bf 7b32 a73e
000000b0: f0c1 6bbf 4dd8 96bf da90 f93f 7ae1 803f
000000c0: 17bc 343f a699 f03f dff8 903f 4014 4c3f
000000d0: 8eea d23f a04f 11c0 f86c 2940 8e3c cc3f
000000e0: fa7c 63c0 76c0 5b40 bcb2 473f ebc5 0ac0
000000f0: 62bc 2440 b0ca 95be f3af 54c0 b681 2bbe
00000100: 739e 2640 8525 aebe 0abe d9bf d333 efbf
00000110: 8c68 2040 1151 d0bf 3e79 38bf db32 c03f
00000120: 709a 1ec0 e3fe c33d fc39 b13f 0a64 debe
00000130: be84 36bf 4b3c 4c3f 7099 83be 5932 c73e
00000140: 64e8 68be 0a2d 833f 3bc8 6b3d 16c0 74bf
00000150: fb24 df3f 7a6c 5fbf 27d9 22bf 1cd2 90be
00000160: f12c e53f b60f c13e 1d1c ac3f 0b26 6e3f
00000170: 0377 febf 1362 2440 ccb8 353f 0e10 32c0
00000180: 321d 52bf a437 1fc0 3e96 1f40 ed49 e8bf
00000190: ee5b b9bf c213 6140 a451 21c0 1077 1ac0
000001a0: 1631 1040 58ff 773e 54ad a9bf 4d84 513f
000001b0: 7574 86bf 0263 dd3e 31b2 78bf ab3e 93bf
000001c0: cff9 0140 9be6 833f 6c3f 193f 7104 f13f
000001d0: 6971 8c3f f06e 393f 8e04 ce3f 2eaa 0ec0
000001e0: 0323 2640 0e68 bd3f 1e34 5fc0 bf61 5d40
000001f0: 90f5 383f 6440 08c0 e063 2240 0267 79be
00000200: 00c4 4fc0 266f 30be c3f0 2640 4b78 b2be
00000210: 9ad1 d7bf 5777 e8bf 3a76 2340 66dd cfbf
00000220: 7e1d 34bf 4968 bf3f 691e 21c0 0f0c 103e
00000230: 2cb8 b33f 6956 d6be d9ed 33bf d316 4b3f
00000240: 66bc 7dbe 791e cc3e 8c65 7abe 73a0 833f
00000250: 145e 823c ddd2 82bf 3b8d e23f d13b 55bf
00000260: 0891 14bf 902e 86be b1db eb3f e19a e33e
00000270: 95d3 b03f 7d58 633f b77a fabf eab2 2440
00000280: 0c76 433f 6c08 2fc0 a376 4bbf 1b2e 21c0
00000290: 9819 1c40 3318 efbf 2028 bdbf 28d5 6440
000002a0: 9624 23c0 560f 1bc0 b186 0d40 d11f 7a3e
000002b0: 1dc7 abbf 8b53 553f 1974 90bf 5986 b03e
000002c0: ad14 72bf 5cff 96bf ecf6 fd3f 942e 813f
000002d0: 2dea 2f3f 3f01 f63f 20ec 923f 255d 373f
000002e0: 24d1 d93f 0da6 0dc0 224f 2840 2992 c53f
000002f0: d460 62c0 75e7 5f40 2f87 413f 8f00 09c0
00000300: 0e86 2440 7de7 87be 8e92 51c0 8faa 36be
00000310: d029 2740 3dd7 87be a5f5 dbbf 3a76 f6bf
00000320: ba4e 2240 6666 d4bf 71e5 2cbf 03cc c23f
00000330: 1822 22c0 cb4c 293e b490 ac3f 22df edbe
00000340: 0308 27bf a9f9 4a3f 779e 90be d592 c63e
00000350: 88f5 46be 2008 843f 9faa a23d 27f5 75bf
00000360: 04c7 db3f a60f 61bf c215 24bf f0fb 57be
00000370: 9468 ed3f ad35 d43e 3fc8 b03f babc 653f
00000380: 0b24 f2bf e657 2440 a2f0 393f 7a00 31c0
00000390: 2925 54bf 7008 22c0 33e2 2040 070b e5bf
000003a0: f356 b9bf c2d9 6240 64ca 24c0 68e6 1bc0
000003b0: fdda 1140 6d1c 613e a5d7 b0bf 0ad7 4b3f
000003c0: 855c 8dbf 34bb be3e 15e6 6dbf 5b60 91bf
000003d0: c269 ff3f 583a 873f e353 183f 46b6 f93f
000003e0: 3c66 883f 1571 3a3f d76d d03f 6495 0bc0
000003f0: 5664 2640 2942 c23f 8dcf 62c0 7e8e 5c40

RB f4 [160, 3]
-2.307344 8.43491 -3.179495 -1.186778 8.556309 -3.761605 -0.739148 7.731148
-1.711647 -2.039754 7.920055 -1.890126 -0.134753 8.136974 -2.869348 -3.335665
8.617678 -3.469103 -0.867042 8.889694 -4.755148 -0.190232 7.327689 -0.839333
-2.67805 7.660338 -1.176589 0.866858 8.089641 -3.051059 5.709583 2.832132
2.008769 4.714503 1.851575 1.868097 6.435926 1.221303 0.541583 6.69292
2.380691 1.031071 5.218744 0.882301 0.984787 5.746651 3.75353 2.501893
3.79047 1.735403 2.318031 7.055342 0.748074 -0.179012 7.59348 2.892796
0.923663 4.76597 0.030951 0.726771 -0.612796 6.555253 3.705808 0.723292
6.799178 3.251466 -0.650461 8.32369 2.291409 -1.362367 7.538057 3.019324
0.581338 7.799211 2.390973 -1.034277 5.832858 4.416882 1.60329 6.2981
3.558309 -0.913051 9.168256 1.671054 -2.386639 7.557297 3.166456 1.427632
8.279274 1.935312 3.793946 -3.868312 6.33754 4.260283 -2.594343 5.966106
2.31465 -2.407078 6.939921 2.563063 -3.788571 6.945875 3.240947 -1.754412
6.3631 4.308834 -4.862977 6.174631 5.060955 -2.282413 5.434559 1.435521
-2.006724 7.408687 2.027648 -4.460441 7.33844 3.243772 -0.743758 6.27098
-3.268012 3.683814 1.269417 -4.222028 4.506034 1.17421 -2.852832 5.253212
2.753355 -2.379758 4.048616 2.312512 -3.960285 5.423287 2.07923 -2.954062
2.676175 0.709093 -5.107178 4.539843 0.502562 -2.409386 5.809531 3.584539
-1.502806 3.636265 2.57189 -4.574463 6.27959 2.32992 7.052879 -3.490942
2.470294 7.729002 -4.683186 2.379244 9.232336 -3.021875 2.596653 8.031483
-2.458934 2.644432 9.037031 -4.381038 2.570666 6.00276 -3.269144 2.43353
7.382808 -5.692018 2.338655 10.135392 -2.493728 2.677821 7.798516 -1.434431
2.668332 9.847894 -5.019498 2.520879 -5.404358 3.949668 7.330682 -5.314481
3.371579 6.106285 -3.624633 2.508951 7.289488 -4.308392 3.443704 7.996745
-4.210557 2.600297 6.045561 -6.035199 4.735219 7.718469 -5.946907 3.53648
5.193834 -2.784384 1.917473 7.642241 -4.160511 3.697531 8.959347 -3.917602
1.93393 5.323717 0.922797 6.847168 -3.087771 0.87904 6.436662 -1.779685
1.09489 4.626688 -3.037882 1.041332 5.681713 -3.87213 1.020029 5.063985
-1.81912 0.877767 7.805164 -3.611016 0.839259 7.072417 -0.903673 1.184124
3.608142 -3.331299 1.065104 5.624733 -4.893436 1.029031 4.510399 -0.959728
5.177486 5.845805 3.770296 6.022799 6.788615 3.414755 5.819294 7.059456
5.612158 5.096285 5.989992 5.118955 6.507693 7.497898 4.536077 4.657378
00000000: 86ab 13c0 64f5 0641 d97c 4bc0 57e8 97bf
00000010: a4e6 0841 23be 70c0 ce38 3dbf 9065 f740
00000020: 4017 dbbf 548b 02c0 1771 fd40 a6ef f1bf
00000030: b1fc 09be 0c31 0241 66a3 37c0 897b 55c0
00000040: 02e2 0941 c905 5ec0 77f6 5dbf 303c 0e41
00000050: 2c2a 98c0 2dcc 42be 6e7c ea40 87de 56bf
00000060: 2c65 2bc0 7d21 f540 789a 96bf 68ea 5d3f
00000070: 2b6f 0141 8d44 43c0 e7b4 b640 a741 3540
00000080: ac8f 0040 35dd 9640 6900 ed3f cd1d ef3f
00000090: 1bf3 cd40 a853 9c3f 2fa5 0a3f 672c d640
000000a0: 3e5d 1840 22fa 833f f3ff a640 7ade 613f
000000b0: 001b 7c3f 91e4 b740 d639 7040 041f 2040
000000c0: 0f97 7240 af21 de3f 9f5a 1440 5dc5 e140
000000d0: c781 3f3f ec4e 37be cafd f240 9223 3940
000000e0: 2e75 6c3f d482 9840 f48c fd3c aa0d 3a3f
000000f0: 33e0 1cbf a2c4 d140 f52b 6d40 aa29 393f
00000100: de92 d940 0518 5040 9d84 26bf d62d 0541
00000110: 72a6 1240 0b62 aebf c337 f140 9b3c 4140
00000120: 91d2 143f 2393 f940 b405 1940 3063 84bf
00000130: c6a6 ba40 1957 8d40 9b38 cd3f 098a c940
00000140: 56bb 6340 b6bd 69bf 2db1 1241 19e5 d53f
00000150: b2be 18c0 61d5 f140 37a7 4a40 a5bc b63f
00000160: e877 0441 4eb8 f73f 03d0 7240 6c92 77c0
00000170: 21cd ca40 3d54 8840 b709 26c0 57ea be40
00000180: 3a23 1440 910d 1ac0 d513 de40 3909 2440
00000190: f277 72c0 9c44 de40 ad6b 4f40 9390 e0bf
000001a0: 849e cb40 f8e1 8940 829d 9bc0 9496 c540
000001b0: 58f3 a140 0e13 12c0 e8e7 ad40 27bf b73f
000001c0: 2b6e 00c0 f713 ed40 fcc4 0140 efbb 8ec0
000001d0: 80d4 ea40 f699 4f40 ed66 3ebf deab c840
000001e0: 1c27 51c0 9cc3 6b40 427c a23f da1a 87c0
000001f0: 6e31 9040 834c 963f cd94 36c0 501a a840
00000200: f836 3040 f44d 18c0 438e 8140 3200 1440
00000210: 4f75 7dc0 918b ad40 1b12 0540 5a0f 3dc0
00000220: 7446 2b40 1e87 353f 016e a3c0 6546 9140
00000230: e7a7 003f 6133 1ac0 aee7 b940 1669 6540
00000240: f25b c0bf 91b8 6840 d999 2440 0062 92c0
00000250: 67f2 c840 691d 1540 2fb1 e140 986b 5fc0
00000260: 4c19 1e40 fc53 f740 a9dc 95c0 8945 1840
00000270: a6b7 1341 6666 41c0 902f 2640 f480 0041
00000280: 2d5f 1dc0 603e 2940 ae97 1041 7731 8cc0
00000290: cb85 2440 9c16 c040 a839 51c0 f5be 1b40
000002a0: f73f ec40 0325 b6c0 86ac 1540 912a 2241
000002b0: 3d99 1fc0 6b61 2b40 718d f940 6f9b b7bf
000002c0: f4c5 2a40 f990 1d41 ba9f a0c0 1556 2140
000002d0: 80f0 acc0 5cc7 7c40 f294 ea40 3a10 aac0
000002e0: f3c7 5740 b066 c340 fdf9 67c0 a792 2040
000002f0: 7c43 e940 59de 89c0 a565 5c40 56e5 ff40
00000300: e2bc 86c0 446b 2640 3c75 c140 5a20 c1c0
00000310: ea86 9740 b3fd f640 104d bec0 b055 6240
00000320: e333 a640 5933 32c0 c16f f53f 3d8d f440
00000330: e822 85c0 59a4 6c40 7c59 0f41 feb9 7ac0
00000340: 058b f73f e45b aa40 6d3c 6c3f 001c db40
00000350: 0a9e 45c0 c408 613f 23f9 cd40 b8cc e3bf
00000360: 5b25 8c3f d40d 9440 a96c 42c0 5e4a 853f
00000370: 98d0 b540 fad0 77c0 4f90 823f 2a0c a240
00000380: edd8 e8bf 57b5 603f e7c3 f940 e31a 67c0
00000390: aed9 563f 3d51 e240 1d57 67bf 6091 973f
000003a0: cceb 6640 0134 55c0 5455 883f d0fd b340
000003b0: 0797 9cc0 4ab7 833f 3055 9040 bcb0 75bf
000003c0: f7ad a540 d610 bb40 884c 7140 c5ba c040
000003d0: 563c d940 598b 5a40 a837 ba40 10e7 e140
000003e0: cc96 b340 c414 a340 04ae bf40 7bce a340
000003f0: 053f d040 c8ee ef40 8b27 9140 3e09 9540

qA f4 [352, 1]
-0.68795145 0.75085133 -0.62931335 -0.5680356 0.005556941 0.6539348 -0.5949155 -0.5247141
-0.55562556 -0.20352024 0.21480706 0.18244138 0.1864799 0.41082036 0.12738258 0.20798555
0.15110326 0.3456426 0.107741356 0.1400092 0.11760461 0.16171184 -0.67404956 0.7971186
-0.5766209 -0.6743532 -0.0047163963 0.6588564 -0.57618576 -0.50182277 -0.617737 -0.1818704
0.17475995 0.1988323 0.20512909 0.41334525 0.13460267 0.20304412 0.14282772 0.37054175
0.12597519 0.11431548 0.12270692 0.14530069 -0.68679565 0.7782638 -0.58788806 -0.6597275
-0.026538193 0.6781331 -0.5962041 -0.51317567 -0.5495656 -0.20721048 0.17032817 0.2203522
0.19155279 0.41798517 0.1417861 0.21559694 0.13151318 0.34627178 0.1270237 0.1370889
0.11231646 0.1588923 -0.65771013 0.7461866 -0.5739675 -0.6216839 -0.0008478761 0.6689817
-0.6147714 -0.51665705 -0.55037826 -0.2238751 0.1818595 0.18948686 0.20419952 0.39919698
0.13838458 0.19287029 0.17046973 0.34208298 0.12884653 0.13628581 0.12906006 0.13197932
-0.6556277 0.76974016 -0.61612487 -0.5981616 0.009948313 0.6069005 -0.5868547 -0.48154378
-0.54789364 -0.16907954 0.18000478 0.18060455 0.20237073 0.38600227 0.1383265 0.20452634
0.18002132 0.35800594 0.10183594 0.12845069 0.115216106 0.09333068 -0.688393 0.7889092
-0.6112493 -0.6315607 0.0124562085 0.68292993 -0.57632256 -0.5040151 -0.6224004 -0.19748837
0.1942688 0.18275943 0.21559924 0.40186256 0.13728577 0.20615819 0.16697592 0.36344805
0.11209193 0.12486926 0.11581668 0.12599775 -0.6501263 0.7143135 -0.66030115 -0.5923818
0.0012159944 0.6563844 -0.6059299 -0.49468523 -0.588528 -0.17685694 0.19695687 0.2151551
0.21308339 0.39445055 0.14412722 0.22720972 0.16742814 0.35987437 0.12798756 0.118175805
0.13246873 0.099977404 -0.656773 0.7541769 -0.6037047 -0.6219164 0.007994115 0.66754866
-0.57228076 -0.49491656 -0.5815164 -0.21622461 0.1914348 0.19995654 0.18801647 0.3852899
0.13253191 0.21918875 0.14986742 0.34801614 0.12185866 0.123060614 0.13797545 0.120416105
-0.68282366 0.8012005 -0.6622019 -0.58512306 -0.036721706 0.7066379 -0.5237032 -0.49840164
-0.61208403 -0.16765296 0.14144915 0.20235682 0.21540314 0.39116237 0.14857495 0.19494796
0.17991847 0.35967863 0.10716021 0.11713049 0.09122875 0.11186156 -0.68813926 0.7947278
-0.60094756 -0.6401753 -0.023948431 0.69733214 -0.5708179 -0.49762255 -0.5956729 -0.19776261
0.16961113 0.190155 0.21977252 0.3989053 0.1284445 0.20588738 0.15288952 0.35830823
0.119751096 0.092931956 0.14075339 0.14561847 -0.6767295 0.78569543 -0.61830825 -0.60455066
0.004049957 0.62961936 -0.5785447 -0.48998487 -0.5782502 -0.21691275 0.19578648 0.20936024
0.16514468 0.39161867 0.12393862 0.20724449 0.15239134 0.3696041 0.13897109 0.12696931
0.122274876 0.14061359 -0.6709733 0.755972 -0.6006954 -0.58830726 0.0124106705 0.63333917
-0.6211487 -0.49932063 -0.54076934 -0.17621422 0.16541514 0.19305325 0.21480426 0.39107877
00000000: 961d 30bf cb37 403f ae1a 21bf c86a 11bf
00000010: 0017 b63b 4568 273f 624c 18bf aa53 06bf
00000020: 7a3d 0ebf 9c67 50be 62f6 5b3e ead1 3a3e
00000030: 96f4 3e3e 0c57 d23e 9470 023e 2afa 543e
00000040: d0ba 1a3e 11f8 b03e 80a7 dc3d 925e 0f3e
00000050: b0da f03d ca97 253e 838e 2cbf f70f 4c3f
00000060: 6d9d 13bf 69a2 2cbf 008c 9abb d0aa 283f
00000070: e980 13bf 7577 00bf 0324 1ebf 3c3c 3abe
00000080: 46f4 323e b29a 4b3e 5c0d 523e fda1 d33e
00000090: 48d5 093e ccea 4f3e 6e41 123e a6b7 bd3e
000000a0: a4ff 003e 3c1e ea3d c44d fb3d b4c9 143e
000000b0: d7d1 2fbf 4c3c 473f d57f 16bf e7e3 28bf
000000c0: a066 d9bc 219a 2d3f d5a0 18bf 7b5f 03bf
000000d0: 55b0 0cbf fc2e 54be 826a 2e3e 02a4 613e
000000e0: 6a26 443e 2702 d63e 6030 113e 72c5 5c3e
000000f0: 64ab 063e 894a b13e 8012 023e 0861 0c3e
00000100: 2c06 e63d aab4 223e b15f 28bf 1606 3f3f
00000110: 89ef 12bf ad26 1fbf 0044 5eba 6242 2b3f
00000120: a961 1dbf a343 04bf 97e5 0cbf 843f 65be
00000130: 6039 3a3e d808 423e ae19 513e 8c63 cc3e
00000140: b0b4 0d3e ca7f 453e 9e8f 2e3e 8025 af3e
00000150: 58f0 033e 828e 0b3e 5228 043e 9625 073e
00000160: 38d7 27bf b10d 453f 5cba 1dbf 1e21 19bf
00000170: 40fe 223c d55d 1b3f 1c3c 16bf e88c f6be
00000180: c242 0cbf 3023 2dbe 2c53 383e 66f0 383e
00000190: 463a 4f3e 17a2 c53e 76a5 0d3e 5a6f 513e
000001a0: 8257 383e 8e4c b73e 5c8f d03d 9488 033e
000001b0: 6cf6 eb3d 2824 bf3d 863a 30bf f4f5 493f
000001c0: d67a 1cbf f6ad 21bf 2015 4c3c 7fd4 2e3f
000001d0: e089 13bf 2207 01bf a255 1fbf 643a 4abe
000001e0: 66ee 463e 4a25 3b3e 0cc6 5c3e eec0 cd3e
000001f0: a494 0c3e 221b 533e bcfb 2a3e dd15 ba3e
00000200: 7490 e53d 74bb ff3d 4c31 ed3d 8e05 013e
00000210: ad6e 26bf 40dd 363f 7f09 29bf 55a6 17bf
00000220: 0062 9f3a cf08 283f 391e 1bbf 6247 fdbe
00000230: c5a9 16bf fc19 35be 10af 493e 9e51 5c3e
00000240: 8832 5a3e 6cf5 c93e 1696 133e aaa9 683e
00000250: 4872 2b3e 7441 b83e 2c0f 033e 2806 f23d
00000260: e2a5 073e f4c0 cc3d 4622 28bf bd11 413f
00000270: 648c 1abf ea35 1fbf c0f9 023c 78e4 2a3f
00000280: fe80 12bf b465 fdbe 42de 14bf fc69 5dbe
00000290: 7c07 443e 68c1 4c3e 6487 403e b844 c53e
000002a0: 72b6 073e 0473 603e d876 193e 2c2f b23e
000002b0: 0891 f93d 3407 fc3d 7049 0d3e b89c f63d
000002c0: 88cd 2ebf 7a1b 4d3f 1086 29bf a0ca 15bf
000002d0: 8069 16bd 39e6 343f 6a11 06bf 802e ffbe
000002e0: 8ab1 1cbf 38ad 2bbe 0cd8 103e a036 4f3e
000002f0: a492 5c3e 6f46 c83e 0824 183e 70a0 473e
00000300: 8c3c 383e cc27 b83e d076 db3d 1ce2 ef3d
00000310: 24d6 ba3d ac17 e53d e529 30bf 4873 4b3f
00000320: b3d7 19bf 87e2 23bf 802f c4bc 5c84 323f
00000330: 1f21 12bf 62c8 febe 057e 18bf 4882 4abe
00000340: 8aae 2d3e feb7 423e 0c0c 613e 513d cc3e
00000350: f486 033e 24d4 523e 128f 1c3e 2d74 b73e
00000360: 1040 f53d 1c53 be3d a821 103e 021d 153e
00000370: 253e 2dbf 5623 493f 7349 1ebf d5c3 1abf
00000380: 80b5 843b bc2e 213f 811b 14bf 4cdf fabe
00000390: 3508 14bf 601e 5ebe 407c 483e 8862 563e
000003a0: b01b 293e 3e82 c83e 88d3 fd3d e637 543e
000003b0: 7a0c 1c3e c03c bd3e 704e 0e3e 3e04 023e
000003c0: 406b fa3d 02fd 0f3e e8c4 2bbf 6287 413f
000003d0: 2cc7 19bf 4e9b 16bf 2056 4b3c 8422 223f
000003e0: 9a03 1fbf f4a6 ffbe dc6f 0abf 8071 34be
000003f0: 9662 293e c0af 453e a6f5 5b3e 7a3b c83e

muA f4 [352, 3]
0.020854324 -0.009546548 -0.010199815 -0.0092884 0.05466257 -0.025945753 -0.04441929 0.06738803
-0.015761197 0.021889716 0.10837418 -0.07271156 -0.027730793 -0.016975999 0.15438859 0.085412264
-0.028808981 -0.033185154 0.057362676 -0.036259294 0.0019791126 0.00188452 -0.055179477 -0.00868544
0.12766415 -0.032752663 -0.05754456 -0.13114458 -0.0029468834 0.097707585 0.031960055 -0.019129544
-0.00035247207 -0.004571587 0.025391132 0.038775474 -0.041384965 -0.018850565 -0.014229506 0.026598692
-0.01935628 -0.00711748 -0.05106935 -0.0013664663 -0.027839035 -0.045766234 -0.002945304 0.023876876
0.040471107 -0.005346626 0.034399867 -0.017751187 0.028507829 -0.011006355 -0.00066906214 0.047111705
-0.036473274 0.037086666 0.0026402771 0.04302199 -0.01121074 -0.056390703 -0.016787708 -0.0018302202
0.034852326 -0.031672955 0.006591469 -0.016653955 0.0076345205 -0.008049071 0.04721555 -0.028721333
-0.040519595 0.068799555 -0.01985395 0.006875038 0.1049062 -0.0673036 -0.055091828 -0.035374045
0.15661189 0.088624224 -0.027056634 -0.02708888 0.060418397 -0.03407705 -0.0059425533 -0.011658967
-0.06818843 -0.015507132 0.122496456 -0.031152904 -0.061986953 -0.12626447 0.016077071 0.088694274
0.033758834 -0.021340251 -0.0022120178 -0.005376607 0.022548884 0.038259327 -0.033288866 -0.01712802
-0.012226701 0.027329385 -0.013857067 -0.007476479 -0.046007246 0.00709638 -0.031330764 -0.039520502
0.0011788905 0.02943033 0.035574406 -0.0038188994 0.032229543 -0.019760191 0.024626583 -0.00978601
-0.0050117373 0.04215899 -0.033040076 0.041634917 -0.00080630183 0.04168129 -0.008274645 -0.051519096
-0.017882615 0.002202779 0.036919355 -0.02743879 0.01761195 0.017985702 0.028036624 -0.005993217
0.04928206 -0.02504009 -0.04783696 0.066090465 -0.009711057 0.01395604 0.103614 -0.07071452
-0.031582445 -0.023078918 0.15298197 0.08239399 -0.03476882 -0.027354032 0.06721988 -0.019868284
-0.0023017228 -0.006663114 -0.064840496 -0.012613058 0.14041144 -0.0362446 -0.05942306 -0.13665387
0.016502202 0.10642122 0.036027998 -0.025106281 -0.009904325 -0.007771194 0.017764062 0.03839226
-0.034036964 -0.018726349 -0.01811853 0.026947647 -0.016218513 -0.0050202906 -0.050587833 -0.0038348734
-0.028505385 -0.045244694 -0.0011237264 0.024422914 0.04485634 -0.0053815246 0.03321415 -0.019906431
0.02863136 -0.010122508 -0.0009874403 0.043917358 -0.040872663 0.045478135 -0.0029474199 0.042642623
-0.008212417 -0.058159262 -0.019267946 0.000908792 0.03311941 -0.028364152 0.0008613765 -0.03331092
0.00837177 -0.004822552 0.056380644 -0.031969517 -0.043092757 0.07381064 -0.026505768 0.014175475
0.10920143 -0.07443929 -0.047036022 -0.03240621 0.15762062 0.08576785 -0.03449124 -0.019342542
0.056328416 -0.022473752 -0.012692302 -4.4077635e-05 -0.057567507 -0.0022783577 0.1436249 -0.041628867
-0.07984221 -0.12336984 0.011615217 0.099225104 0.037300885 -0.022928923 2.9206276e-06 -0.0022742152
0.024556667 0.039005846 -0.0353671 -0.0184851 -0.012885213 0.025693446 -0.020934373 -0.0036809146
-0.047345906 -0.001853466 -0.028731138 -0.04320085 -0.004095584 0.03014788 0.03524238 -0.0016849637
0.030760169 -0.020406097 0.02611968 -0.010874122 -0.00069248676 0.04563062 -0.041259795 0.04093635
00000000: b0d6 aa3c 2069 1cbc 201d 27bc 602e 18bc
00000010: dce5 5f3d 308c d4bc 00f1 35bd bc02 8a3d
00000020: a01d 81bc 1052 b33c 48f3 dd3d cce9 94bd
00000030: b02b e3bc 4011 8bbc 0b18 1e3e a0ec ae3d
00000040: d000 ecbc 28ed 07bd 20f5 6a3d a084 14bd
00000050: 00b4 013b 0002 f73a e003 62bd 604d 0ebc
00000060: 64ba 023e a827 06bd d8b3 6bbd c44a 06be
00000070: 8020 41bb ea1a c83d 8ce8 023d 90b5 9cbc
00000080: 00cc b8b9 40cd 95bb 1001 d03c 08d3 1e3d
00000090: 4883 29bd 806c 9abc e022 69bc 80e5 d93c
000000a0: 1091 9ebc c039 e9bb 182e 51bd 001b b3ba
000000b0: b00e e4bc 6075 3bbd 0006 41bb 7099 c33c
000000c0: 08c5 253d c032 afbb e0e6 0c3d f06a 91bc
000000d0: 4089 e93c 0054 34bc 0064 2fba 34f8 403d
000000e0: 0065 15bd 30e8 173d 8008 2d3b d437 303d
000000f0: 40ad 37bc f0f9 66bd 6086 89bc 00e4 efba
00000100: 50c1 0e3d 80bb 01bd 40fd d73b e06d 88bc
00000110: 002b fa3b 40e0 03bc 1865 413d 0049 ebbc
00000120: e0f7 25bd c8e6 8c3d c0a4 a2bc 0048 e13b
00000130: 10d9 d63d 78d6 89bd f8a7 61bd 60e4 10bd
00000140: de5e 203e 9e80 b53d e0a5 ddbc 80e9 ddbc
00000150: 4879 773d 6094 0bbd c0b9 c2bb 4005 3fbc
00000160: 60a6 8bbd a011 7ebc 6cdf fa3d 6034 ffbc
00000170: 08e6 7dbd 794b 01be 10b4 833c 58a5 b53d
00000180: b446 0a3d c0d1 aebc 80f7 10bb 402e b0bb
00000190: 70b8 b83c d0b5 1c3d e859 08bd 1050 8cbc
000001a0: 8052 48bc e0e1 df3c c008 63bc 40fd f4bb
000001b0: 1872 3cbd c088 e83b b054 00bd 40e0 21bd
000001c0: 0085 9a3a e017 f13c 78b6 113d 8046 7abb
000001d0: 2003 043d 20e0 a1bc b0bd c93c 8055 20bc
000001e0: 8039 a4bb e8ae 2c3d 0855 07bd 6089 2a3d
000001f0: 005e 53ba 00ba 2a3d 6092 07bc b005 53bd
00000200: 907e 92bc 805c 103b c038 173d 50c7 e0bc
00000210: f046 903c c056 933c 10ad e53c c062 c4bb
00000220: fcdb 493d e020 cdbc b0f0 43bd 705a 873d
00000230: 201b 1fbc e0a7 643c 9433 d43d c6d2 90bd
00000240: 985c 01bd 0010 bdbc 4ea7 1c3e 2ebe a83d
00000250: c069 0ebd 9015 e0bc 94aa 893d d0c2 a2bc
00000260: 80d8 16bb 4056 dabb 18cb 84bd 00a7 4ebc
00000270: 04c8 0f3e 3875 14bd 9865 73bd feee 0bbe
00000280: a02f 873c 5ef3 d93d 1892 133d b0ab cdbc
00000290: c045 22bc 80a5 febb f085 913c 3441 1d3d
000002a0: 586a 0bbd 0068 99bc 506d 94bc 50c1 dc3c
000002b0: b0dc 84bc 4081 a4bb 3035 4fbd 8052 7bbb
000002c0: 2084 e9bc 8052 39bd 004a 93ba 9012 c83c
000002d0: 48bb 373d 8057 b0bb 900b 083d d012 a3bc
000002e0: 508c ea3c e0d8 25bc 006d 81ba b0e2 333d
000002f0: 186a 27bd 4847 3a3d 8029 41bb 08aa 2e3d
00000300: 608d 06bc 6838 6ebd d0d7 9dbc 003c 6e3a
00000310: 38a8 073d f05b e8bc 00ce 613a 0871 08bd
00000320: c029 093c 8006 9ebb 64ef 663d 78f2 02bd
00000330: 0882 30bd 082a 973d a022 d9bc 4040 683c
00000340: 00a5 df3d a073 98bd d8a8 40bd 60bc 04bd
00000350: 4d67 213e 0ea7 af3d b046 0dbd 4074 9ebc
00000360: a0b8 663d e01a b8bc 60f3 4fbc 00e0 38b8
00000370: e8cb 6bbd 8050 15bb 6812 133e 0883 2abd
00000380: 5084 a3bd 54a9 fcbd c04d 3e3c 8836 cb3d
00000390: d0c8 183d 70d5 bbbc 0000 4436 000b 15bb
000003a0: 102b c93c 98c4 1f3d 18dd 10bd 106e 97bc
000003b0: 801c 53bc 107b d23c 907e abbc 803b 71bb
000003c0: c8ed 41bd 00f0 f2ba 905d ebbc 60f3 30bd
000003d0: 4034 86bb b0f8 f63c 505a 103d 00da dcba
000003e0: c0fc fb3c b02a a7bc f0f8 d53c 6029 32bc
000003f0: 0088 35ba 2ce7 3a3d 0800 29bd e0ac 273d

quadA f4 [352, 3, 3]
-0.008562457 0.011047885 0.013355508 0.011047885 -0.0067014657 0.029846013 0.013355508 0.029846013
0.015263919 -0.046799466 0.06187138 0.060501486 0.06187138 0.0040914863 0.07984118 0.060501486
0.07984118 0.04270798 -0.021306477 -0.010872588 0.044152275 -0.010872588 0.007965319 0.042870596
0.044152275 0.042870596 0.013341166 -0.057198543 0.0024783611 0.046645314 0.0024783611 0.079726994
0.015499622 0.046645314 0.015499622 -0.022528443 -0.003926754 0.011367962 0.012926221 0.011367962
0.0018823743 -0.022460878 0.012926221 -0.022460878 0.0020443797 -0.026986375 0.09389952 0.07801263
0.09389952 0.0040169954 0.10881911 0.07801263 0.10881911 0.022969365 -0.014003113 0.028482795
0.05581805 0.028482795 0.015417844 0.05342947 0.05581805 0.05342947 -0.001414746 0.01134187
-0.0058504343 0.018872231 -0.0058504343 -0.00086021423 -0.019253239 0.018872231 -0.019253239 -0.010481656
-0.017690334 -0.02368313 0.023750901 -0.02368313 0.024596509 0.012734577 0.023750901 0.012734577
-0.0069061713 0.01675049 0.01835388 -0.030854627 0.01835388 -0.025166968 -0.005949527 -0.030854627
-0.005949527 0.008416479 -0.0017727513 0.004319966 -0.0009919405 0.004319966 0.0005938958 -0.0034835488
-0.0009919405 -0.0034835488 0.0011788558 0.002329712 0.0016544759 0.0024986714 0.0016544759 0.0057750093
-0.0046611726 0.0024986714 -0.0046611726 -0.008104722 -0.0049269744 -0.0052342713 0.00030690432 -0.0052342713
0.00024451816 -0.0024997443 0.00030690432 -0.0024997443 0.0046824566 0.007029985 0.00027126074 -0.0039467067
0.00027126074 -0.004977311 0.0020231903 -0.0039467067 0.0020231903 -0.0020526748 -0.008066148 0.0029467791
-0.0096016675 0.0029467791 0.011016965 -0.0052167177 -0.0096016675 -0.0052167177 -0.0029508173 -0.0057030767
9.8109245e-05 0.0046467334 9.8109245e-05 0.0063892454 0.001349479 0.0046467334 0.001349479 -0.00068616867
-0.004688839 -9.23872e-07 -0.0048385113 -9.23872e-07 0.008594637 0.0038224459 -0.0048385113 0.0038224459
-0.0039057978 -0.0005827695 -0.0017226189 -0.007908806 -0.0017226189 -0.002085939 -0.0073986948 -0.007908806
-0.0073986948 0.0026687086 0.013394718 -0.0011713058 -0.011047855 -0.0011713058 -0.009620558 0.0032989979
-0.011047855 0.0032989979 -0.0037741615 0.00076636206 -0.0007918328 -0.013575181 -0.0007918328 -0.008184363
0.0030666888 -0.013575181 0.0030666888 0.007418002 0.0162461 0.0039055198 -0.009124875 0.0039055198
-0.01186637 -0.004861161 -0.009124875 -0.004861161 -0.0043797293 -0.00057218474 -0.00010456145 0.0015728772
-0.00010456145 0.0041416488 0.006129369 0.0015728772 0.006129369 -0.003569464 0.011451393 0.016206607
0.013490826 0.016206607 -0.007198721 0.03468381 0.013490826 0.03468381 -0.004252672 -0.04049523
0.08787787 0.05619131 0.08787787 -0.008616075 0.0834963 0.05619131 0.0834963 0.04911132
-0.023896813 0.026752144 0.045109987 0.026752144 -0.013859004 0.075816736 0.045109987 0.075816736
0.037755817 -0.036627386 -0.0027830005 0.024090424 -0.0027830005 0.048327785 0.0014545918 0.024090424
0.0014545918 -0.011700397 -0.0048134327 0.014026105 0.016176239 0.014026105 0.010214508 -0.02860561
0.016176239 -0.02860561 -0.005401075 -0.027667716 0.10639188 0.06679666 0.10639188 -0.008772954
0.113114476 0.06679666 0.113114476 0.03644064 -0.017378375 0.03843844 0.051065013 0.03843844
00000000: 8c49 0cbc 3002 353c 10d1 5a3c 3002 353c
00000010: f897 dbbb a07f f43c 10d1 5a3c a07f f43c
00000020: 8415 7a3c ccb0 3fbd d86c 7d3d 68d0 773d
00000030: d86c 7d3d e011 863b c683 a33d 68d0 773d
00000040: c683 a33d 90ee 2e3d ec8a aebc f022 32bc
00000050: 04d9 343d f022 32bc f880 023c 1499 2f3d
00000060: 04d9 343d 1499 2f3d e894 5a3c 0549 6abd
00000070: 006c 223b 280f 3f3d 006c 223b e847 a33d
00000080: 20f2 7d3c 280f 3f3d 20f2 7d3c 928d b8bc
00000090: 00ac 80bb b040 3a3c 80c8 533c b040 3a3c
000000a0: 00ba f63a e0ff b7bc 80c8 533c e0ff b7bc
000000b0: 00fb 053b 8812 ddbc 644e c03d 16c5 9f3d
000000c0: 644e c03d 00a1 833b 8edc de3d 16c5 9f3d
000000d0: 8edc de3d 402a bc3c 506d 65bc c054 e93c
000000e0: 78a1 643d c054 e93c 209b 7c3c dcd8 5a3d
000000f0: 78a1 643d dcd8 5a3d 006f b9ba 40d3 393c
00000100: 00b5 bfbb f099 9a3c 00b5 bfbb 0080 61ba
00000110: f8b8 9dbc f099 9a3c f8b8 9dbc 40bb 2bbc
00000120: 52eb 90bc 2003 c2bc 4091 c23c 2003 c2bc
00000130: 9e7e c93c b0a4 503c 4091 c23c b0a4 503c
00000140: 2a4d e2bb 5338 893c e05a 963c d8c2 fcbc
00000150: e05a 963c f52a cebc 40f4 c2bb d8c2 fcbc
00000160: 40f4 c2bb 46e5 093c aa5b e8ba 808e 8d3b
00000170: 0004 82ba 808e 8d3b acaf 1b3a 404c 64bb
00000180: 0004 82ba 404c 64bb d683 9a3a 15ae 183b
00000190: 00db d83a c0c0 233b 00db d83a 4a3c bd3b
000001a0: c0bc 98bb c0c0 233b c0bc 98bb abc9 04bc
000001b0: 7572 a1bb 4084 abbb 00e8 a039 4084 abbb
000001c0: ac32 8039 c0d2 23bb 00e8 a039 c0d2 23bb
000001d0: 4b6f 993b ca5b e63b 0038 8e39 6053 81bb
000001e0: 0038 8e39 b618 a3bb 8097 043b 6053 81bb
000001f0: 8097 043b 2b86 06bb e027 04bc c01e 413b
00000200: 5050 1dbc c01e 413b 8080 343c 00f1 aabb
00000210: 5050 1dbc 00f1 aabb 8062 41bb e0e0 babb
00000220: 00c0 cd38 a043 983b 00c0 cd38 e05c d13b
00000230: 00e1 b03a a043 983b 00e1 b03a 00e0 33ba
00000240: d5a4 99bb 0000 78b5 608c 9ebb 0000 78b5
00000250: 85d0 0c3c 0082 7a3b 608c 9ebb 0082 7a3b
00000260: 6af8 7fbb 00c5 18ba 80c9 e1ba f093 01bc
00000270: 80c9 e1ba 40b4 08bb c070 f2bb f093 01bc
00000280: c070 f2bb 80e5 2e3b 8575 5b3c 8086 99ba
00000290: 1002 35bc 8086 99ba 8b9f 1dbc 0034 583b
000002a0: 1002 35bc 0034 583b ec57 77bb b0e5 483a
000002b0: 0093 4fba 706a 5ebc 0093 4fba b517 06bc
000002c0: 80fa 483b 706a 5ebc 80fa 483b b612 f33b
000002d0: 8b16 853c c0f3 7f3b 8080 15bc c0f3 7f3b
000002e0: 2a6b 42bc 604a 9fbb 8080 15bc 604a 9fbb
000002f0: d583 8fbb abfe 15ba 0048 dbb8 0029 ce3a
00000300: 0048 dbb8 abb6 873b e0d8 c83b 0029 ce3a
00000310: e0d8 c83b abed 69bb a09e 3b3c b8c3 843c
00000320: a008 5d3c b8c3 843c 40e3 ebbb 9c10 0e3d
00000330: a008 5d3c 9c10 0e3d 005a 8bbb 54de 25bd
00000340: 50f9 b33d dc28 663d 50f9 b33d 702a 0dbc
00000350: 1c00 ab3d dc28 663d 1c00 ab3d f428 493d
00000360: 40c3 c3bc 5027 db3c 40c5 383d 5027 db3c
00000370: e010 63bc ce45 9b3d 40c5 383d ce45 9b3d
00000380: d8a5 1a3d 9906 16bd 0063 36bb 4859 c53c
00000390: 0063 36bb 5bf3 453d 00a8 be3a 4859 c53c
000003a0: 00a8 be3a 06b3 3fbc 00ba 9dbb c0cd 653c
000003b0: 0884 843c c0cd 653c c05a 273c 5056 eabc
000003c0: 0884 843c 5056 eabc 80fb b0bb 68a7 e2bc
000003d0: fce3 d93d b0cc 883d fce3 d93d 70bc 0fbc
000003e0: 90a8 e73d b0cc 883d 90a8 e73d c842 153d
000003f0: 185d 8ebc a071 1d3d 8c29 513d a071 1d3d

hfvrA f4 [352, 1]
1.2626524 0.63276136 1.2445017 1.1564573 0.9308502 0.649649 1.1770749 1.1823157
1.1750833 1.0108294 0.2505551 0.33945328 0.3504601 0.15562564 0.38773793 0.31945622
0.3596117 0.19898254 0.39011735 0.3089819 0.3875726 0.3261181 1.1818411 0.5958241
1.1461842 1.2253802 0.9196714 0.641425 1.1599241 1.1683064 1.2036594 0.9675664
0.3044837 0.3057776 0.24969578 0.14668423 0.33970332 0.30811828 0.36106735 0.16207075
0.32262135 0.35550714 0.32865322 0.34430808 1.2377794 0.6045645 1.1681828 1.2125629
0.9429804 0.6233589 1.1636864 1.1592188 1.1712976 1.0166078 0.34252018 0.27736443
0.31199884 0.1453023 0.35731256 0.28328723 0.38517946 0.23776668 0.3518098 0.33585054
0.40427536 0.30999976 1.192399 0.6244823 1.1647695 1.2020993 0.92772526 0.62596947
1.1789632 1.1614769 1.1565107 1.0199767 0.30506986 0.31579238 0.2516327 0.17537874
0.34737647 0.32723516 0.28580755 0.20398265 0.34580523 0.33296734 0.36627638 0.38062686
1.1639088 0.604866 1.193749 1.1965386 0.90561587 0.6834517 1.197148 1.1513156
1.1729348 0.98228383 0.26413763 0.31340283 0.25711942 0.19585621 0.32977515 0.31645548
0.2591043 0.19708145 0.39081413 0.33616573 0.37359792 0.44811034 1.2472068 0.59770966
1.2086923 1.1962633 0.90869284 0.6196028 1.1535861 1.1493422 1.2064779 0.9823315
0.3098312 0.35220677 0.27945668 0.16680527 0.3265803 0.3010341 0.29179603 0.1852833
0.35307372 0.31559408 0.3513716 0.3789178 1.1626337 0.6420728 1.2405658 1.2096548
0.89263767 0.6449071 1.1941394 1.1737827 1.1871208 0.98775667 0.32882035 0.27268016
0.29330033 0.1966306 0.3239805 0.26744908 0.32076597 0.1864447 0.33636802 0.40526712
0.32602823 0.44834352 1.1866153 0.6263859 1.2037578 1.2059251 0.9123157 0.6331551
1.1541237 1.1690049 1.2106804 1.0248045 0.28254575 0.2826333 0.30182844 0.17949498
0.34066296 0.28470397 0.3390097 0.23985994 0.3602215 0.3901142 0.33421773 0.39415723
1.2382579 0.5713345 1.1953175 1.1475215 0.94273925 0.6164205 1.088274 1.1806844
1.2140076 0.9853574 0.39532745 0.30784094 0.27954012 0.16191709 0.33009666 0.34638166
0.2894768 0.20137537 0.3979448 0.3374027 0.41707486 0.42771894 1.2398448 0.5934842
1.177255 1.2154641 0.94083273 0.6081017 1.1337011 1.1487947 1.1719633 0.9961306
0.35622978 0.33189398 0.27754354 0.16884857 0.40186918 0.3017996 0.33820605 0.17164493
0.35949773 0.38463318 0.31234413 0.32746202 1.2321197 0.5977272 1.2035507 1.1966437
0.93045956 0.6661321 1.1694611 1.1604834 1.154722 1.0038536 0.28612804 0.27996266
0.3926397 0.18120468 0.38306916 0.3156153 0.34494388 0.13149112 0.29762465 0.36211723
0.3840502 0.33647478 1.2204958 0.61455786 1.1805605 1.1796123 0.9059381 0.653749
1.2007172 1.1502502 1.1525949 0.9794552 0.33633572 0.3222379 0.2569703 0.1766538
00000000: 989e a13f a6fc 213f d54b 9f3f cb06 943f
00000010: 334c 6e3f 664f 263f 64aa 963f 1f56 973f
00000020: 2169 963f dc62 813f c248 803e d2cc ad3e
00000030: 826f b33e 545c 1f3e 9685 c63e c48f a33e
00000040: 061f b83e 14c2 4b3e 76bd c73e e032 9e3e
00000050: ea6f c63e f4f8 a63e 9246 973f ee87 183f
00000060: 2ab6 923f 42d9 9c3f 966f 6b3f 6e34 243f
00000070: 6578 943f 108b 953f 8311 9a3f 6eb2 773f
00000080: 4ae5 9b3e e28e 9c3e 40b0 7f3e 6434 163e
00000090: 98ed ad3e aec1 9d3e d2dd b83e e0f5 253e
000000a0: a02e a53e 0805 b63e 3c45 a83e 2649 b03e
000000b0: 8e6f 9e3f bdc4 1a3f 0487 953f 4335 9b3f
000000c0: 2a67 713f 7394 1f3f adf3 943f 4861 943f
000000d0: 14ed 953f 3420 823f ce5e af3e b602 8e3e
000000e0: 50be 9f3e 20ca 143e acf1 b63e 060b 913e
000000f0: 3e36 c53e 1c79 733e 6a20 b43e 9af4 ab3e
00000100: 2efd ce3e 4ab8 9e3e 88a0 983f 12de 1f3f
00000110: 2b17 953f 64de 993f 677f 6d3f 893f 203f
00000120: 44e8 963f 46ab 943f 8b08 943f 998e 823f
00000130: 1e32 9c3e 8aaf a13e 00d6 803e 7c96 333e
00000140: 54db b13e 5e8b a73e 5e55 923e d4e0 503e
00000150: 620d b13e b27a aa3e 9488 bb3e 86e1 c23e
00000160: f7fa 943f 80d8 1a3f c4cc 983f 2d28 993f
00000170: 71d6 673f b1f6 2e3f 253c 993f 4f5e 933f
00000180: ba22 963f f476 7b3f 0c3d 873e 5676 a03e
00000190: 28a5 833e 888e 483e 4ad8 a83e 7406 a23e
000001a0: 52a9 843e b8cf 493e ca18 c83e ea1d ac3e
000001b0: 3a48 bf3e b86e e53e 79a4 9f3f 8003 193f
000001c0: 6eb6 9a3f 281f 993f 18a0 683f 4a9e 1e3f
000001d0: b6a8 933f a51d 933f de6d 9a3f 147a 7b3f
000001e0: 32a2 9e3e 7254 b43e f214 8f3e 00cf 2a3e
000001f0: 8835 a73e 2421 9a3e 4a66 953e e8ba 3d3e
00000200: 14c6 b43e 8c95 a13e fae6 b33e 8401 c23e
00000210: 2ed1 943f e25e 243f dcca 9e3f f8d5 9a3f
00000220: e783 643f a218 253f 8fd9 983f 833e 963f
00000230: 93f3 973f 9fdd 7c3f 245b a83e bc9c 8b3e
00000240: 762b 963e 8859 493e c6e0 a53e 16ef 883e
00000250: 703b a43e 5ceb 3e3e 6e38 ac3e 2c7f cf3e
00000260: 2ced a63e 488d e53e 03e3 973f d45a 203f
00000270: bc14 9a3f c15b 9a3f 868d 693f 7416 223f
00000280: 53ba 933f f4a1 953f 93f7 9a3f cb2c 833f
00000290: d6a9 903e 50b5 903e 4289 9a3e 88cd 373e
000002a0: 606b ae3e b8c4 913e ae92 ad3e d89d 753e
000002b0: f46e b83e 0cbd c73e 961e ab3e face c93e
000002c0: 3c7f 9e3f fa42 123f 2a00 993f fce1 923f
000002d0: 5c57 713f bccd 1d3f 904c 8b3f ab20 973f
000002e0: 9a64 9b3f 6240 7c3f 5c68 ca3e 549d 9d3e
000002f0: e21f 8f3e 98cd 253e 6e02 a93e f058 b13e
00000300: 4e36 943e 5835 4e3e 6cbf cb3e 0cc0 ac3e
00000310: d68a d53e fafd da3e 3cb3 9e3f 95ee 173f
00000320: 4bb0 963f 5494 9b3f 6ada 703f 8eac 1b3f
00000330: 1e1d 913f b40b 933f e502 963f 6a02 7f3f
00000340: c063 b63e 02ee a93e 301a 8e3e a4e6 2c3e
00000350: ccc1 cd3e 7a85 9a3e 5829 ad3e b0c3 2f3e
00000360: 1610 b83e a4ee c43e 92eb 9f3e 1aa9 a73e
00000370: 19b6 9d3f a604 193f f30d 9a3f 9f2b 993f
00000380: 9932 6e3f a287 2a3f e7b0 953f b88a 943f
00000390: eecd 933f 467e 803f 607f 923e 4457 8f3e
000003a0: 1208 c93e b88d 393e a421 c43e 5498 a13e
000003b0: 7c9c b03e 9ca5 063e 4262 983e 6e67 b93e
000003c0: 3aa2 c43e 6c46 ac3e 3539 9c3f aa53 1d3f
000003d0: 9b1c 973f 89fd 963f 8feb 673f 185c 273f
000003e0: 1ab1 993f 663b 933f 3b88 933f 93bd 7a3f
000003f0: 3234 ac3e 5efc a43e 9c91 833e bce4 343e

vwA f4 [352, 1]
0.5352216 0.4729511 0.40736556 0.4481843 0.50619745 0.475587 0.40153003 0.52889687
0.4514558 0.5136672 0.35865974 0.38990885 0.39318618 0.33313337 0.3938085 0.3849334
0.3923885 0.35437453 0.39738825 0.37336487 0.3966668 0.37964872 0.5237593 0.46615294
0.39798456 0.4534372 0.5045617 0.47424293 0.3999873 0.52499795 0.4535593 0.5080066
0.37450516 0.37811455 0.35757154 0.31804088 0.3823198 0.37875122 0.39334226 0.3338156
0.3758808 0.38884532 0.37871376 0.38562608 0.53225803 0.4702559 0.40118873 0.45329475
0.5082563 0.47147256 0.4003161 0.5247562 0.45233154 0.5150575 0.3883535 0.36920515
0.3796434 0.32013842 0.38602534 0.37169468 0.4013444 0.3686704 0.38849106 0.38282758
0.4012813 0.37415466 0.5275315 0.4733292 0.40027586 0.45322955 0.5061116 0.4712876
0.40172476 0.5243764 0.4498215 0.5153951 0.37326476 0.3811009 0.35882437 0.34627545
0.38200977 0.38391265 0.366972 0.35420838 0.38617596 0.38205978 0.39127448 0.39723122
0.52249193 0.46980876 0.40278956 0.45262384 0.5030539 0.4798413 0.4044515 0.5227722
0.45065823 0.5087591 0.36099654 0.37895977 0.3591607 0.3571698 0.37741458 0.38193724
0.35929304 0.35280314 0.39617273 0.3813798 0.3927771 0.41448206 0.5329756 0.46806735
0.40377554 0.45250085 0.50353223 0.47116825 0.39850637 0.5220864 0.45455807 0.5109781
0.37735888 0.39344218 0.36912477 0.33619103 0.37727484 0.3765754 0.36910817 0.3495298
0.38718775 0.3759914 0.38592485 0.39443377 0.5210545 0.4766858 0.40898678 0.45384383
0.50123256 0.47415042 0.40271947 0.5256109 0.45342767 0.51049846 0.38752317 0.36587986
0.37293857 0.35693786 0.37652192 0.366932 0.37879506 0.35006925 0.38201228 0.40273032
0.37937874 0.41191155 0.5256992 0.47340557 0.40419078 0.45365506 0.5039165 0.47290108
0.39939153 0.52412546 0.455619 0.51676804 0.36765048 0.36862004 0.3750511 0.348332
0.38218418 0.37097603 0.38729107 0.37109256 0.39111626 0.3980703 0.382505 0.39905187
0.53191364 0.45996445 0.40400845 0.44695076 0.5083222 0.46936783 0.39347765 0.525527
0.45547608 0.5113311 0.39957666 0.37706807 0.36819714 0.33873242 0.37840107 0.39139545
0.37051544 0.3545738 0.3992858 0.38057372 0.40414292 0.4163228 0.5335934 0.46775717
0.4015621 0.4553522 0.5070507 0.46727836 0.3958951 0.522997 0.45104513 0.5120437
0.3943893 0.38700086 0.36926642 0.34490058 0.3989435 0.3772236 0.38635537 0.3392911
0.3887115 0.39713 0.37522146 0.37811714 0.53157145 0.46841183 0.40396026 0.45291597
0.5066341 0.47803247 0.40161675 0.5234432 0.44765767 0.5128697 0.36872926 0.3691226
0.4016479 0.35139608 0.39127153 0.3806478 0.38934714 0.30636483 0.36762905 0.39173716
0.398788 0.3825496 0.5314612 0.47145304 0.4023555 0.45112562 0.50339687 0.4756385
0.40487725 0.5230238 0.4488107 0.5083113 0.38485235 0.38434997 0.3610913 0.3474089
00000000: 4804 093f a626 f23e 3892 d03e 6a78 e53e
00000010: 2896 013f 2480 f33e 5895 cd3e c965 073f
00000020: 3725 e73e b27f 033f 40a2 b73e 22a2 c73e
00000030: b34f c93e 7590 aa3e 45a1 c93e fe15 c53e
00000040: 25e7 c83e 9470 b53e 7976 cb3e ae29 bf3e
00000050: e917 cb3e 5161 c23e 1715 063f 99ab ee3e
00000060: a2c4 cb3e ec28 e83e f52a 013f f8cf f23e
00000070: 23cb cc3e 4466 063f ed38 e83e b80c 023f
00000080: 24bf bf3e 3b98 c13e 9e13 b73e 41d6 a23e
00000090: 6cbf c33e aeeb c13e 2864 c93e e1e9 aa3e
000000a0: 7373 c03e bc16 c73e c5e6 c13e c870 c53e
000000b0: 1042 083f 62c5 f03e 9c68 cd3e 4016 e83e
000000c0: 161d 023f da64 f13e 3bf6 cc3e 6c56 063f
000000d0: 0098 e73e cfda 033f 45d6 c63e 7508 bd3e
000000e0: 9f60 c23e 2fe9 a33e 1da5 c53e c44e be3e
000000f0: 037d cd3e 5ec2 bc3e 4de8 c63e fa01 c43e
00000100: be74 cd3e 3391 bf3e 4e0c 073f 3458 f23e
00000110: f5f0 cc3e b40d e83e 8890 013f 9c4c f13e
00000120: deae cd3e 883d 063f 014f e63e eff0 033f
00000130: 8f1c bf3e a81f c33e d4b7 b73e 044b b13e
00000140: c996 c33e 3390 c43e c1e3 bb3e cd5a b53e
00000150: dbb8 c53e 579d c33e 2155 c83e e461 cb3e
00000160: 08c2 053f c68a f03e 6f3a ce3e 50be e73e
00000170: 24c8 003f c2ad f53e 4414 cf3e 66d4 053f
00000180: adbc e63e 093e 023f 8ad4 b83e 0407 c23e
00000190: e9e3 b73e f6de b63e 7c3c c13e 478d c33e
000001a0: 42f5 b73e 9da2 b43e 27d7 ca3e 3744 c33e
000001b0: 141a c93e fe36 d43e 1771 083f 86a6 ef3e
000001c0: abbb ce3e 31ae e73e 7de7 003f f73c f13e
000001d0: 0709 cc3e 74a7 053f d6bb e83e 76cf 023f
000001e0: 2f35 c13e 4171 c93e ecfd bc3e 3b21 ac3e
000001f0: 2b2a c13e 7ece c03e bffb bc3e 92f5 b23e
00000200: 793d c63e f281 c03e f197 c53e 39f3 c93e
00000210: d463 053f 2910 f43e b766 d13e 385e e83e
00000220: c750 003f d8c3 f23e 3f31 ce3e 708e 063f
00000230: ac27 e83e 07b0 023f 7069 c63e 9b54 bb3e
00000240: cef1 be3e 8fc0 b63e 7bc7 c03e 83de bb3e
00000250: 6df1 c13e 473c b33e 1d97 c33e ab32 ce3e
00000260: ee3d c23e 12e6 d23e 3994 063f 3762 f23e
00000270: 18f2 ce3e 7a45 e83e ac00 013f 1720 f23e
00000280: 0c7d cc3e 162d 063f e546 e93e e94a 043f
00000290: af3c bc3e c4bb bc3e b306 c03e 9258 b23e
000002a0: a5ad c33e 92f0 bd3e 044b c63e d8ff bd3e
000002b0: 6440 c83e dfcf cb3e b2d7 c33e 8750 cc3e
000002c0: 7e2b 083f 7680 eb3e 32da ce3e bbd6 e43e
000002d0: 6721 023f fb50 f03e e775 c93e f088 063f
000002e0: 2934 e93e 98e6 023f 5095 cc3e 110f c13e
000002f0: 5684 bc3e 566e ad3e c9bd c13e fc64 c83e
00000300: 33b4 bd3e b28a b53e 306f cc3e 8fda c23e
00000310: d2eb ce3e 4328 d53e 9499 083f de7d ef3e
00000320: 8c99 cd3e ec23 e93e 13ce 013f 1c3f ef3e
00000330: c3b2 ca3e 22e3 053f 63ef e63e 4c15 033f
00000340: 65ed c93e fa24 c63e 7d10 bd3e cf96 b03e
00000350: 5342 cc3e 7423 c13e 5fd0 c53e 90b7 ad3e
00000360: 3205 c73e a054 cb3e 071d c03e 9298 c13e
00000370: 1115 083f add3 ef3e e1d3 ce3e 9ae4 e73e
00000380: c6b2 013f acc0 f43e b6a0 cd3e 6000 063f
00000390: 6333 e53e 6e4b 033f 15ca bc3e a3fd bc3e
000003a0: cba4 cd3e 30ea b33e be54 c83e 45e4 c23e
000003b0: 8258 c73e dadb 9c3e e039 bc3e c691 c83e
000003c0: f12d cc3e 8bdd c33e d70d 083f 4b62 f13e
000003d0: 8a01 ce3e f0f9 e63e 9ede 003f e486 f33e
000003e0: 124c cf3e e3e4 053f 84ca e53e b020 023f
000003f0: 5e0b c53e 85c9 c43e f5e0 b83e 94df b13e

alpha_0_A f4 [5632]
11.699381 11.699381 5.2003264 7.2505245 11.699381 11.699381 5.2003264 11.699381
7.2505245 11.699381 4.49916 4.49916 4.49916 4.49916 4.49916 4.49916
4.49916 4.49916 4.49916 4.49916 4.49916 4.49916 11.699381 11.699381
5.2003264 7.2505245 11.699381 11.699381 5.2003264 11.699381 7.2505245 11.699381
4.49916 4.49916 4.49916 4.49916 4.49916 4.49916 4.49916 4.49916
4.49916 4.49916 4.49916 4.49916 11.699381 11.699381 5.2003264 7.2505245
11.699381 11.699381 5.2003264 11.699381 7.2505245 11.699381 4.49916 4.49916
4.49916 4.49916 4.49916 4.49916 4.49916 4.49916 4.49916 4.49916
4.49916 4.49916 11.699381 11.699381 5.2003264 7.2505245 11.699381 11.699381
5.2003264 11.699381 7.2505245 11.699381 4.49916 4.49916 4.49916 4.49916
4.49916 4.49916 4.49916 4.49916 4.49916 4.49916 4.49916 4.49916
11.699381 11.699381 5.2003264 7.2505245 11.699381 11.699381 5.2003264 11.699381
7.2505245 11.699381 4.49916 4.49916 4.49916 4.49916 4.49916 4.49916
4.49916 4.49916 4.49916 4.49916 4.49916 4.49916 11.699381 11.699381
5.2003264 7.2505245 11.699381 11.699381 5.2003264 11.699381 7.2505245 11.699381
4.49916 4.49916 4.49916 4.49916 4.49916 4.49916 4.49916 4.49916
4.49916 4.49916 4.49916 4.49916 11.699381 11.699381 5.2003264 7.2505245
11.699381 11.699381 5.2003264 11.699381 7.2505245 11.699381 4.49916 4.49916
4.49916 4.49916 4.49916 4.49916 4.49916 4.49916 4.49916 4.49916
4.49916 4.49916 11.699381 11.699381 5.2003264 7.2505245 11.699381 11.699381
5.2003264 11.699381 7.2505245 11.699381 4.49916 4.49916 4.49916 4.49916
4.49916 4.49916 4.49916 4.49916 4.49916 4.49916 4.49916 4.49916
11.699381 11.699381 5.2003264 7.2505245 11.699381 11.699381 5.2003264 11.699381
7.2505245 11.699381 4.49916 4.49916 4.49916 4.49916 4.49916 4.49916
4.49916 4.49916 4.49916 4.49916 4.49916 4.49916 11.699381 11.699381
5.2003264 7.2505245 11.699381 11.699381 5.2003264 11.699381 7.2505245 11.699381
4.49916 4.49916 4.49916 4.49916 4.49916 4.49916 4.49916 4.49916
4.49916 4.49916 4.49916 4.49916 11.699381 11.699381 5.2003264 7.2505245
11.699381 11.699381 5.2003264 11.699381 7.2505245 11.699381 4.49916 4.49916
4.49916 4.49916 4.49916 4.49916 4.49916 4.49916 4.49916 4.49916
4.49916 4.49916 11.699381 11.699381 5.2003264 7.2505245 11.699381 11.699381
5.2003264 11.699381 7.2505245 11.699381 4.49916 4.49916 4.49916 4.49916
00000000: aa30 3b41 aa30 3b41 1369 a640 4c04 e840
00000010: aa30 3b41 aa30 3b41 1369 a640 aa30 3b41
00000020: 4c04 e840 aa30 3b41 1ef9 8f40 1ef9 8f40
00000030: 1ef9 8f40 1ef9 8f40 1ef9 8f40 1ef9 8f40
00000040: 1ef9 8f40 1ef9 8f40 1ef9 8f40 1ef9 8f40
00000050: 1ef9 8f40 1ef9 8f40 aa30 3b41 aa30 3b41
00000060: 1369 a640 4c04 e840 aa30 3b41 aa30 3b41
00000070: 1369 a640 aa30 3b41 4c04 e840 aa30 3b41
00000080: 1ef9 8f40 1ef9 8f40 1ef9 8f40 1ef9 8f40
00000090: 1ef9 8f40 1ef9 8f40 1ef9 8f40 1ef9 8f40
000000a0: 1ef9 8f40 1ef9 8f40 1ef9 8f40 1ef9 8f40
000000b0: aa30 3b41 aa30 3b41 1369 a640 4c04 e840
000000c0: aa30 3b41 aa30 3b41 1369 a640 aa30 3b41
000000d0: 4c04 e840 aa30 3b41 1ef9 8f40 1ef9 8f40
000000e0: 1ef9 8f40 1ef9 8f40 1ef9 8f40 1ef9 8f40
000000f0: 1ef9 8f40 1ef9 8f40 1ef9 8f40 1ef9 8f40
00000100: 1ef9 8f40 1ef9 8f40 aa30 3b41 aa30 3b41
00000110: 1369 a640 4c04 e840 aa30 3b41 aa30 3b41
00000120: 1369 a640 aa30 3b41 4c04 e840 aa30 3b41
00000130: 1ef9 8f40 1ef9 8f40 1ef9 8f40 1ef9 8f40
00000140: 1ef9 8f40 1ef9 8f40 1ef9 8f40 1ef9 8f40
00000150: 1ef9 8f40 1ef9 8f40 1ef9 8f40 1ef9 8f40
00000160: aa30 3b41 aa30 3b41 1369 a640 4c04 e840
00000170: aa30 3b41 aa30 3b41 1369 a640 aa30 3b41
00000180: 4c04 e840 aa30 3b41 1ef9 8f40 1ef9 8f40
00000190: 1ef9 8f40 1ef9 8f40 1ef9 8f40 1ef9 8f40
000001a0: 1ef9 8f40 1ef9 8f40 1ef9 8f40 1ef9 8f40
000001b0: 1ef9 8f40 1ef9 8f40 aa30 3b41 aa30 3b41
000001c0: 1369 a640 4c04 e840 aa30 3b41 aa30 3b41
000001d0: 1369 a640 aa30 3b41 4c04 e840 aa30 3b41
000001e0: 1ef9 8f40 1ef9 8f40 1ef9 8f40 1ef9 8f40
000001f0: 1ef9 8f40 1ef9 8f40 1ef9 8f40 1ef9 8f40
00000200: 1ef9 8f40 1ef9 8f40 1ef9 8f40 1ef9 8f40
00000210: aa30 3b41 aa30 3b41 1369 a640 4c04 e840
00000220: aa30 3b41 aa30 3b41 1369 a640 aa30 3b41
00000230: 4c04 e840 aa30 3b41 1ef9 8f40 1ef9 8f40
00000240: 1ef9 8f40 1ef9 8f40 1ef9 8f40 1ef9 8f40
00000250: 1ef9 8f40 1ef9 8f40 1ef9 8f40 1ef9 8f40
00000260: 1ef9 8f40 1ef9 8f40 aa30 3b41 aa30 3b41
00000270: 1369 a640 4c04 e840 aa30 3b41 aa30 3b41
00000280: 1369 a640 aa30 3b41 4c04 e840 aa30 3b41
00000290: 1ef9 8f40 1ef9 8f40 1ef9 8f40 1ef9 8f40
000002a0: 1ef9 8f40 1ef9 8f40 1ef9 8f40 1ef9 8f40
000002b0: 1ef9 8f40 1ef9 8f40 1ef9 8f40 1ef9 8f40
000002c0: aa30 3b41 aa30 3b41 1369 a640 4c04 e840
000002d0: aa30 3b41 aa30 3b41 1369 a640 aa30 3b41
000002e0: 4c04 e840 aa30 3b41 1ef9 8f40 1ef9 8f40
000002f0: 1ef9 8f40 1ef9 8f40 1ef9 8f40 1ef9 8f40
00000300: 1ef9 8f40 1ef9 8f40 1ef9 8f40 1ef9 8f40
00000310: 1ef9 8f40 1ef9 8f40 aa30 3b41 aa30 3b41
00000320: 1369 a640 4c04 e840 aa30 3b41 aa30 3b41
00000330: 1369 a640 aa30 3b41 4c04 e840 aa30 3b41
00000340: 1ef9 8f40 1ef9 8f40 1ef9 8f40 1ef9 8f40
00000350: 1ef9 8f40 1ef9 8f40 1ef9 8f40 1ef9 8f40
00000360: 1ef9 8f40 1ef9 8f40 1ef9 8f40 1ef9 8f40
00000370: aa30 3b41 aa30 3b41 1369 a640 4c04 e840
00000380: aa30 3b41 aa30 3b41 1369 a640 aa30 3b41
00000390: 4c04 e840 aa30 3b41 1ef9 8f40 1ef9 8f40
000003a0: 1ef9 8f40 1ef9 8f40 1ef9 8f40 1ef9 8f40
000003b0: 1ef9 8f40 1ef9 8f40 1ef9 8f40 1ef9 8f40
000003c0: 1ef9 8f40 1ef9 8f40 aa30 3b41 aa30 3b41
000003d0: 1369 a640 4c04 e840 aa30 3b41 aa30 3b41
000003e0: 1369 a640 aa30 3b41 4c04 e840 aa30 3b41
000003f0: 1ef9 8f40 1ef9 8f40 1ef9 8f40 1ef9 8f40
