tests/test_data_path/og_processed/dimer_ap3_train_spec_7_61.pt (torch, 333231 bytes, 17 tensors)

y f4 [16, 4]
000000 d8 c3 0d c2 06 15 a6 41 e2 99 53 c1 38 e1 01 c1
       -35.441254 20.760265 -13.225069 -8.117485
000010 ec 00 1c c2 49 2e f7 41 fb 2a 94 c1 dc 86 0e c1
       -39.0009 30.8976 -18.520987 -8.907925
000020 f8 2f 10 c2 62 c4 ef 41 e6 00 8d c1 a4 80 0a c1
       -36.046844 29.97089 -17.625439 -8.656406
000030 d2 ec 0b c2 40 0d a9 41 42 f0 58 c1 f7 2f 01 c1
       -34.98127 21.13147 -13.558657 -8.07421
000040 24 8f 0e c2 0a 19 d3 41 7d 72 7d c1 dc 10 04 c1
       -35.639786 26.387226 -15.840451 -8.254116
000050 b6 07 fa c1 97 5b e9 41 79 e5 88 c1 9a eb 11 c1
       -31.253765 29.169722 -17.112047 -9.12002
000060 5e f3 a8 c1 f4 a6 cd 41 8c 13 15 c1 2b a4 05 c1
       -21.118832 25.70652 -9.317272 -8.35258
000070 24 d1 b4 c1 c9 57 dc 41 61 6c 2f c1 67 9c 35 c1
       -22.60212 27.542864 -10.96396 -11.350684
000080 50 ba 96 c1 57 cc b0 41 65 01 d3 c0 5d 7a 0d c1
       -18.840973 22.099775 -6.59392 -8.842374
000090 22 7d af c1 37 62 cd 41 d4 69 17 c1 9b 6a 05 c1
       -21.9361 25.672956 -9.463337 -8.338527
0000a0 4a 39 ab c1 99 9e c8 41 58 96 10 c1 fc d0 15 c1
       -21.402973 25.07744 -9.036705 -9.363522
0000b0 18 b0 b0 c1 19 19 d5 41 dc 5d 13 c1 01 ec 2c c1
       -22.085983 26.637255 -9.210415 -10.807618
0000c0 35 79 82 c1 ea 4e a0 41 c9 9a c6 c0 e0 1d e4 c0
       -16.309183 20.038532 -6.2063947 -7.128647
0000d0 55 bf ce c1 f8 4e d9 41 08 fa 4e c1 8d de eb c0
       -25.843424 27.163559 -12.936043 -7.370917
0000e0 69 d1 9c c1 aa 85 a2 41 1b c8 ff c0 60 c1 e4 c0
       -19.602251 20.315266 -7.993177 -7.1486053
0000f0 d2 c0 d3 c1 22 14 e1 41 ea bc 4d c1 ad c7 ea c0
       -26.46915 28.13483 -12.858622 -7.3368745

RA f4 [210, 3]
000000 a7 cc 3e 40 ea cc 65 3f 48 6b 30 3f 1d 39 34 40
       2.981241 0.897658 0.689137 2.815986
000010 c5 1a b8 bf 46 7c bf 3f 88 0d 99 40 43 aa 05 40
       -1.438317 1.49598 4.782902 2.088517
000020 81 21 1f bf dd 61 28 40 0c b0 0f 3d 27 9f f6 3f
       -0.621605 2.630973 0.03508 1.926732
000030 cb 84 88 40 ff d0 a2 3f 4f cc 0a 3f cc 97 a3 3f
       4.26621 1.272003 0.54218 1.27807
000040 c9 1f 4c 3e 10 1f 12 40 7d 1f 01 40 cd ce a0 3f
       0.19934 2.283146 2.017547 1.256311
000050 41 67 d2 bd 24 ef 0b 40 c5 3b de bf cf db 28 3f
       -0.102736 2.186471 -1.736199 0.659604
000060 73 83 77 40 9f 20 d1 bf 77 bb 9a 3f 8d 9b 22 40
       3.867398 -1.633808 1.208846 2.540744
000070 f9 f3 0a c0 9f 20 1a 40 64 95 ac 40 5b 41 b3 3f
       -2.171141 2.408241 5.393236 1.400432
000080 db 8b a2 bf 2c ef 79 40 d4 f0 1c 40 e1 5d 90 bf
       -1.269893 3.905223 2.452199 -1.127865
000090 2e 54 ab 40 b0 c6 37 40 bb ed 52 be 9a ef 56 40
       5.354026 2.871502 -0.205985 3.358374
0000a0 18 60 6f 3e 6b 9a 2e 40 aa 64 9d 40 bf 9c 75 3f
       0.233765 2.728175 4.918538 0.959423
0000b0 da e5 a5 3f ce c4 7c 3f 53 b0 de be 52 60 44 40
       1.296077 0.987378 -0.434939 3.068379
0000c0 7d cc 8f 3f 21 91 96 3f 2f 52 27 40 f7 02 43 3f
       1.123428 1.176304 2.614391 0.761764
0000d0 2d 5c 23 c0 05 a2 ab bf 59 a5 28 bf 38 4e 92 c0
       -2.552501 -1.340882 -0.658773 -4.572048
0000e0 ec 6a 6e bf af 7a 40 40 25 78 25 c0 71 e7 0f c0
       -0.931319 3.007488 -2.585458 -2.248501
0000f0 0e 14 58 be bd 35 4b c0 2f 4d d9 be 77 12 ff 3f
       -0.211014 -3.175155 -0.424417 1.992751
000100 61 17 46 c0 29 b2 b4 bf be a2 ab bf 17 4a 0e c0
       -3.095177 -1.411687 -1.340904 -2.223272
000110 ce 16 f0 bd 69 19 c9 3e ba 81 c6 bf 52 d6 fd bf
       -0.117231 0.392772 -1.550834 -1.983103
000120 76 c1 96 bf 0b 96 8e c0 68 59 f3 bf 89 07 34 3e
       -1.177779 -4.455816 -1.901166 0.17581
000130 91 0a a7 c0 8f 19 86 bf 34 db b9 bf 12 f9 9f c0
       -5.22004 -1.047655 -1.452002 -4.999154
000140 2f 32 71 be 44 4c 63 40 ee 5f 59 c0 7e fc 27 c0
       -0.235543 3.55153 -3.39648 -2.624786
000150 97 90 21 40 26 52 04 c0 66 11 47 c0 69 c4 6b 40
       2.52445 -2.067514 -3.110437 3.683863
000160 bf 7f f1 bf f3 8f e2 bf cc 5d 4b 3e f6 7c 5a c0
       -1.886711 -1.770018 0.1986 -3.413877
000170 c1 e3 1f 3f bc cc 0c 40 db be 77 c0 c5 ae 41 bf
       0.624569 2.199996 -3.871024 -0.756573
000180 24 43 07 c0 45 65 2b c0 c7 11 d3 3e 8c 6a f5 bf
       -2.113473 -2.678056 0.412245 -1.917314
000190 3e ed 0c c0 33 6c 82 bf 9f 3c ec 3e 6c 78 36 c0
       -2.20198 -1.018927 0.4614 -2.8511
0001a0 3b 01 0d be 2b 18 85 3f 64 5d 7c c0 7b 14 06 40
       -0.1377 1.0398 -3.9432 2.095
0001b0 0a d7 b3 3f ce 19 69 c0 bb b8 11 c0 9a 99 39 3f
       1.405 -3.6422 -2.2769 0.725
0001c0 74 46 28 c0 82 73 ae 3f c3 f5 c0 3f 7e 1d 54 c0
       -2.6293 1.3629 1.5075 -3.3143
0001d0 76 71 5b bf 26 53 e5 be 9d 11 f5 bf b3 ea f3 3f
       -0.8572 -0.4479 -1.9146 1.9056
0001e0 21 1f 24 bf 45 47 26 c0 1c 7c 21 bf 2d b2 5d 3e
       -0.6411 -2.5981 -0.6308 0.2165
0001f0 b8 1e 95 c0 a6 9b fc 3f 48 e1 fa 3f e4 14 8d c0
       -4.66 1.9735 1.96 -4.4088
000200 5d fe db 3f b2 9d 97 3f 17 48 70 c0 21 b0 4a 40
       1.7187 1.1845 -3.7544 3.167
000210 2f dd 8c 3f 5d fe 95 c0 f2 41 1b c0 50 8d 27 3f
       1.1005 -4.6873 -2.4259 0.6545
000220 44 69 3f c0 f7 06 2f c0 62 10 18 40 20 63 5e c0
       -2.9908 -2.7348 2.376 -3.4748
000230 1d 5a 30 c0 3f 57 cb 3f 8a b0 f9 bf 37 89 b9 3f
       -2.7555 1.5886 -1.9507 1.4495
000240 f5 b9 16 40 0d 71 64 c0 b6 f3 bd be 23 4a db be
       2.3551 -3.5694 -0.371 -0.4283
000250 09 8a f7 bf 28 0f 3b 40 48 bf a5 bf 2d b2 19 c0
       -1.9339 2.9228 -1.2949 -2.4015
000260 0d e0 cd 3f d0 b3 3d 40 26 e4 63 3f d7 12 32 3f
       1.6084 2.9641 0.8902 0.6956
000270 b3 7b 36 40 b4 59 bd bf 4c 37 c1 3f d7 12 98 40
       2.8513 -1.4793 1.5095 4.7523
000280 52 b8 02 40 4f 40 13 bf e4 83 2a 40 4e d1 11 bc
       2.0425 -0.5752 2.6643 -0.0089
000290 36 cd f3 3f 91 0f 88 40 e5 d0 a2 3f bb 27 0f 3f
       1.9047 4.2519 1.272 0.5592
0002a0 7a c7 a1 3f 1b 0d 60 3e 16 fb 13 40 d1 91 04 40
       1.2639 0.2188 2.3122 2.0714
0002b0 ba 6b 99 3f 16 fb cb bd c0 5b 0c 40 34 11 de bf
       1.1986 -0.0996 2.1931 -1.7349
0002c0 b1 50 2b 3f 76 e0 78 40 76 4f d6 bf 5f 29 9b 3f
       0.6692 3.8887 -1.6743 1.2122
0002d0 3f 57 27 40 29 cb 08 c0 89 d2 16 40 32 77 ab 40
       2.6147 -2.1374 2.3566 5.3583
0002e0 86 c9 b4 3f 6d c5 9e bf 98 4c 79 40 b2 9d 1b 40
       1.4124 -1.2404 3.8953 2.4315
0002f0 fe d4 90 bf b2 9d ab 40 ba 49 38 40 9b e6 5d be
       -1.1315 5.363 2.8795 -0.2167
000300 f3 8e 57 40 21 b0 72 3e a1 f8 2d 40 52 49 9d 40
       3.3681 0.237 2.7183 4.9152
000310 10 58 79 3f 73 68 a1 3f ef 38 85 3f a7 e8 c8 be
       0.974 1.261 1.0408 -0.3924
000320 ac 1c 46 40 83 c0 92 3f c2 17 96 3f d6 c5 29 40
       3.0955 1.1465 1.1726 2.6527
000330 12 a5 3d 3f 24 28 22 c0 d3 de a8 bf f7 75 30 bf
       0.7408 -2.5337 -1.3193 -0.6893
000340 83 c0 92 c0 f7 75 70 bf c8 07 41 40 07 ce 25 c0
       -4.586 -0.9393 3.0161 -2.5907
000350 f9 31 12 c0 78 9c 82 be 30 4c 4e c0 a4 df be be
       -2.2843 -0.2551 -3.2234 -0.3728
000360 f1 63 fc 3f 32 77 45 c0 81 26 b2 bf ac ad b0 bf
       1.9718 -3.0854 -1.3918 -1.3803
000370 a3 92 12 c0 c1 a8 24 be 16 fb cb 3e a4 df c6 bf
       -2.2902 -0.1608 0.3984 -1.5537
000380 04 56 fe bf f7 e4 91 bf 68 b3 8e c0 a7 79 f7 bf
       -1.987 -1.1398 -4.4594 -1.9334
000390 8b fd 25 3e 96 b2 a8 c0 fd 87 84 bf d0 d5 b6 bf
       0.1621 -5.2718 -1.0354 -1.4284
0003a0 a8 c6 a1 c0 bb b8 8d be 00 91 66 40 82 e2 5b c0
       -5.0555 -0.2768 3.6026 -3.4357
0003b0 a8 57 2a c0 0b b5 22 40 39 b4 04 c0 9e ef 47 c0
       -2.6616 2.5423 -2.0735 -3.124
0003c0 6d e7 6b 40 85 eb f1 bf 1e 16 e2 bf 8d 28 6d 3e
       3.686 -1.89 -1.7663 0.2316
0003d0 20 d2 57 c0 51 6b 1a 3f fb 3a 0c 40 a0 1a 77 c0
       -3.3722 0.6032 2.1911 -3.861
0003e0 22 6c 48 bf 33 33 03 c0 db 8a 2d c0 fd f6 f5 3e
       -0.7829 -2.05 -2.7116 0.4804
0003f0 9b 55 ef bf 21 b0 0a c0 3f 35 86 bf bc 05 92 3e
       -1.8698 -2.167 -1.0485 0.2852

RB f4 [278, 3]
000000 38 30 82 c0 a8 fe 2d bf 1b 4c 03 c0 1b f6 33 c0
       -4.068386 -0.679667 -2.05152 -2.811896
000010 c5 3b c8 be 50 fb c5 bf da fe 32 c0 34 2f 63 bf
       -0.391081 -1.546732 -2.796805 -0.887439
000020 47 77 00 be c3 0e d1 bf e3 dd 19 bf 71 71 1c 3f
       -0.125455 -1.633263 -0.601042 0.611106
000030 4e 7d 1c bf 56 62 5e 3d 5b 79 e9 3d c1 ca 21 bf
       -0.611287 0.054293 0.114001 -0.632
000040 60 c7 07 3f 32 af 8f bf e9 26 d7 bf 9f 91 a8 3e
       0.530386 -1.122534 -1.680875 0.329236
000050 4f 21 01 c0 65 f2 80 c0 d0 7e d2 bf 57 22 f0 3d
       -2.017658 -4.029589 -1.644495 0.117253
000060 3c 11 9a c0 52 2a bd bf 7c 63 84 bf fb 84 89 c0
       -4.814604 -1.477854 -1.034286 -4.297483
000070 ee e8 ef be 80 47 3c c0 69 c9 cb bf 7e ac 84 bf
       -0.468574 -2.941864 -1.592084 -1.036514
000080 b0 70 d2 3f 71 72 5f 3e bf ba 8c 3f 71 55 bb bf
       1.644064 0.21821 1.099449 -1.463545
000090 8b a9 da bf 9d 0f 47 3f d0 d0 3e c0 c4 6d 8b c0
       -1.708299 0.777582 -2.981495 -4.357149
0000a0 97 e3 06 c0 e6 75 70 3f 5e 13 b8 c0 f4 fa e5 bf
       -2.107641 0.939299 -5.752364 -1.796721
0000b0 b5 e0 ab bf ee ce 3a 3e 8c ba f6 3d 6e 6d 39 3f
       -1.342795 0.18243 0.120473 0.724326
0000c0 5b cd ba 3c eb 60 89 40 44 f9 96 3f 37 1c 56 be
       0.022803 4.293081 1.179482 -0.209092
0000d0 94 6a 3f 40 7c 2a 4b 3f ba a1 59 bf ba 15 11 40
       2.99088 0.793617 -0.850124 2.266951
0000e0 c9 ca d7 3f 1d 58 84 bf ae 9e 67 3f 49 2f b8 3f
       1.685876 -1.033939 0.904765 1.438943
0000f0 60 03 26 bf 7d 41 db 3e 5b 08 82 3e 44 6e c6 bd
       -0.648489 0.428234 0.25397 -0.09689
000100 48 4e 96 3f 02 47 3a bf aa d2 56 3e 8e ad 21 40
       1.174264 -0.727646 0.209788 2.526218
000110 ec a2 f8 be 8a e3 8c bf 44 a5 48 40 eb ff 3a 40
       -0.485618 -1.100694 3.135087 2.92187
000120 55 2f 1f bf 87 a8 8c 40 0d 55 1d 40 a2 d2 d8 3e
       -0.621816 4.395572 2.458316 0.423482
000130 dd a3 a0 40 52 0d 43 3f 22 50 bf bf 0b 2a 4a 3e
       5.020003 0.761922 -1.494633 0.197426
000140 80 65 07 40 f9 2d 5a 3e 84 80 20 3f 68 3c cf bf
       2.11557 0.213066 0.626961 -1.619031
000150 68 93 3f 3f e7 56 42 40 2e ff ad bf 76 88 c7 bf
       0.748343 3.036554 -1.35935 -1.558852
000160 2f 50 32 40 de 76 71 40 83 fb 21 bf 60 06 a6 40
       2.786144 3.77288 -0.632744 5.188278
000170 f6 24 44 40 1e 15 67 bf 97 e1 17 bf 1e 33 50 3d
       3.064756 -0.902666 -0.593286 0.05083
000180 3d 9b 15 bf bb b8 83 40 36 ab a6 bf 09 1b 2e bf
       -0.5844 4.1163 -1.3021 -0.6801
000190 1c 7c 35 40 10 58 59 bf 5e 4b 48 be 71 1b 35 40
       2.8357 -0.849 -0.1956 2.8298
0001a0 89 41 00 3f 5c 8f 42 be bb 27 cf 3f a0 1a 97 3f
       0.501 -0.19 1.6184 1.1805
0001b0 85 7c 20 bf 65 19 02 3f 0e 4f 0f 3f 6d e7 8b bf
       -0.6269 0.5082 0.5598 -1.093
0001c0 89 41 00 3f 22 6c 38 bf d5 78 91 bf 4b ea d4 3f
       0.501 -0.7204 -1.1365 1.6634
0001d0 b8 af bb bf 5c 8f 42 3e 56 9f 85 40 7c 61 52 3f
       -1.4663 0.19 4.1757 0.8218
0001e0 6c 09 79 bd de 93 9d 40 e3 c7 98 be 6c 78 5a bf
       -0.0608 4.9243 -0.2984 -0.8534
0001f0 9e ef 8d 40 b8 40 0e c0 2d b2 1d 3e 42 3e c0 3f
       4.4355 -2.2227 0.154 1.5019
000200 1b 2f 0d 40 4c a6 b2 bf 33 c4 f1 be f1 63 8c bf
       2.206 -1.3957 -0.4722 -1.0968
000210 4c 37 c1 bf 35 5e d2 3f c1 39 1f c0 47 72 19 3f
       -1.5095 1.6435 -2.4879 0.5994
000220 ab 3e 91 40 35 ef e0 3f 7e 8c b9 3d bf 7d bf 40
       4.5389 1.7573 0.0906 5.9841
000230 73 d7 f2 be f0 85 19 bf fc 18 d3 be cd cc 8c 3f
       -0.4743 -0.5997 -0.4123 1.1
000240 1b 0d 80 c0 1d 5a 34 bf cd cc 00 c0 c8 98 33 c0
       -4.0016 -0.7045 -2.0125 -2.8062
000250 62 a1 b6 be c5 fe ba bf 3c bd 32 c0 73 d7 62 bf
       -0.3567 -1.4609 -2.7928 -0.8861
000260 ca c3 02 be 66 f7 d4 bf 8c db 28 bf e2 e9 25 3f
       -0.1277 -1.6638 -0.6596 0.6481
000270 dc 46 23 bf bc 96 10 3d 5c 20 01 3e 05 a3 22 bf
       -0.6378 0.0353 0.1261 -0.6353
000280 d1 22 0b 3f 7e 8c 91 bf 9f 3c dc bf ac 8b bb 3e
       0.5435 -1.1371 -1.7206 0.3663
000290 18 95 fc bf 13 61 81 c0 99 2a c8 bf 9a 77 9c 3d
       -1.9733 -4.0431 -1.5638 0.0764
0002a0 41 f1 97 c0 2d 21 b7 bf 56 9f 8b bf 61 c3 89 c0
       -4.7482 -1.4307 -1.0908 -4.3051
0002b0 85 eb f1 be f2 b0 3c c0 cb a1 c5 bf 57 5b 81 bf
       -0.4725 -2.9483 -1.544 -1.0106
0002c0 1d c9 d5 3f 5e 4b 88 3e f3 1f 8a 3f 61 32 b5 bf
       1.6702 0.2662 1.0791 -1.4156
0002d0 ae b6 da bf b0 03 47 3f 99 bb 3e c0 b9 fc 8b c0
       -1.7087 0.7774 -2.9802 -4.3746
0002e0 77 2d 05 c0 27 31 78 3f 37 89 b7 c0 e2 e9 e5 bf
       -2.0809 0.9695 -5.7355 -1.7962
0002f0 ff 21 ad bf a6 0a 46 3e 00 6f 41 3e fb cb 3e 3f
       -1.3526 0.1934 0.1889 0.7453
000300 10 e9 37 bd 09 8a 89 40 cd 3b 9e 3f 54 74 24 be
       -0.0449 4.2981 1.2362 -0.1606
000310 36 ab 42 40 f5 4a 39 3f 96 b2 4c bf 19 73 0f 40
       3.0417 0.7238 -0.7996 2.2414
000320 1b 2f dd 3f ca 32 84 bf 54 52 67 3f 52 27 b8 3f
       1.728 -1.0328 0.9036 1.4387
000330 b4 c8 26 bf 33 33 d3 3e c8 98 7b 3e 0f 0b 35 bd
       -0.6515 0.4125 0.2457 -0.0442
000340 fd 87 94 3f a2 b4 37 bf c1 ca 61 3e bf 0e 20 40
       1.1604 -0.7176 0.2205 2.5009
000350 c5 fe 02 bf d0 d5 86 bf 44 fa 45 40 2c d4 36 40
       -0.5117 -1.0534 3.0934 2.8567
000360 a6 9b 14 bf 96 b2 8a 40 93 3a 21 40 08 3d bb 3e
       -0.5805 4.3343 2.5192 0.3657
000370 8c db a2 40 98 6e 42 3f 33 c4 c1 bf 98 4c 55 3e
       5.0893 0.7595 -1.5138 0.2083
000380 26 e4 07 40 e3 36 5a 3e f2 41 1f 3f 1b 0d d0 bf
       2.1233 0.2131 0.6221 -1.6254
000390 38 67 34 3f e6 ae 45 40 bd e3 a4 bf d1 22 c3 bf
       0.7047 3.0888 -1.2882 -1.5245
0003a0 8a 8e 34 40 89 d2 72 40 26 e4 13 bf 71 3d a8 40
       2.8212 3.7941 -0.5777 5.2575
0003b0 d0 b3 45 40 fa ed 5b bf bf 0e 1c bf b0 03 67 3d
       3.0891 -0.8591 -0.6096 0.0564
0003c0 9e 5e 59 3f c8 98 ab 3f 36 ab 7a c0 2d 21 0f 3f
       0.8491 1.3406 -3.9167 0.5591
0003d0 48 50 94 3f 04 56 26 c0 0d 71 5c bf e8 6a 7b 3f
       1.1587 -2.599 -0.8611 0.9821
0003e0 9a 77 20 c0 c6 6d b4 bf f0 a7 46 3f b2 9d 9f bf
       -2.5073 -1.4096 0.776 -1.247
0003f0 9a 99 19 bf d7 a3 40 3f b3 ea 33 be e5 f2 3f 3f
       -0.6 0.7525 -0.1757 0.7498

qA f4 [210, 1]
000000 18 5f 22 3f ba a4 fe be 04 34 4d be c4 8b 90 3d
       0.6342635 -0.4973505 -0.20039374 0.07057908
000010 89 78 13 bf 2b 5e 4b bf ad bf 19 bf 4a 5a 39 3e
       -0.576058 -0.79440564 -0.600581 0.18100849
000020 76 02 12 3e e0 7e 07 3e b0 7c df 3d be ef 26 3e
       0.14258751 0.13231993 0.10912454 0.16302392
000030 20 1e 00 3e 20 d9 7d 3d 44 2c b2 3e 93 30 b2 3e
       0.12511492 0.061974645 0.34799397 0.34802684
000040 7e 9e b4 3e e7 e7 28 3f da 99 02 bf 48 43 26 be
       0.3527717 0.65978855 -0.5101601 -0.16236603
000050 20 f2 9f 3c 02 10 0f bf 3e 7f 4f bf ce df 1c bf
       0.019524634 -0.558838 -0.8105353 -0.61279
000060 70 3f 1f 3e 78 fa 2c 3e ac 24 14 3e 4c ea f6 3d
       0.15551543 0.16892421 0.14467114 0.12056407
000070 1a e3 11 3e e0 13 e9 3d 28 02 ce 3d 7a 6f b5 3e
       0.14246789 0.11380744 0.10059005 0.35436612
000080 c8 13 ab 3e 4e 40 ae 3e 42 ca 29 3f 14 54 03 bf
       0.3341353 0.34033436 0.66324246 -0.5130017
000090 80 d5 43 be 68 38 11 3d 7a 22 14 bf 5c c4 5d bf
       -0.19124413 0.035454184 -0.5786511 -0.86627746
0000a0 3a 71 18 bf f0 d4 27 3e ca 5e 14 3e ca 5a 21 3e
       -0.5954777 0.16389823 0.14489284 0.1575729
0000b0 9c 18 e4 3d 40 04 17 3e 1c 14 fd 3d bc f4 e9 3d
       0.11137506 0.14747715 0.12357351 0.114236325
0000c0 2e d3 b7 3e b6 25 b5 3e f1 7c bd 3e 15 e4 29 3f
       0.35903305 0.35380334 0.37009385 0.6636365
0000d0 6c 0e f8 be a8 72 3f be 28 3d 07 3d 8e 1a 14 bf
       -0.48448503 -0.18696082 0.033017308 -0.5785302
0000e0 20 b2 52 bf 78 8e 14 bf 36 2c 32 3e f0 3e 10 3e
       -0.8230305 -0.5802989 0.17399678 0.14086509
0000f0 6e b5 19 3e 9c 6f df 3d 36 87 1f 3e 70 4a ec 3d
       0.15010616 0.1090996 0.15578923 0.11537635
000100 50 3c 71 3d 2d 95 b4 3e 7e 84 b2 3e 91 ca b3 3e
       0.05889541 0.35270062 0.3486671 0.35115483
000110 b5 14 2a 3f 02 16 02 bf a8 a2 3e be 90 4a 10 3d
       0.66437846 -0.5081483 -0.18616736 0.03522736
000120 b8 eb 13 bf 7a 94 5b bf e4 21 1a bf 00 66 23 3e
       -0.57781553 -0.8577343 -0.60207963 0.15956879
000130 f4 3d 15 3e 52 b2 22 3e 44 7a f8 3d e2 ad 1b 3e
       0.14574414 0.15888336 0.12132695 0.1520305
000140 c4 75 e6 3d 2c 0e d4 3d f4 6e b7 3e 77 db b2 3e
       0.11252931 0.103542656 0.35826838 0.34933063
000150 ab 02 be 3e 7f 08 2b 3f cb dc 00 bf 34 47 3f be
       0.3711141 0.6680984 -0.50336903 -0.18679506
000160 e0 e9 07 3d 0b cb 15 bf fd 12 5c bf 6b 9b 17 bf
       0.033182025 -0.58512944 -0.85966474 -0.59221524
000170 78 8c 23 3e 58 b9 13 3e 00 02 21 3e a4 d5 e3 3d
       0.15971553 0.14426172 0.15723419 0.11124733
000180 44 6f 19 3e a4 13 fe 3d 84 ce cc 3d 39 14 b7 3e
       0.1498385 0.1240609 0.10000327 0.35757616
000190 5a e0 b3 3e c5 c3 bd 3e f8 97 02 bf b8 96 c0 3d
       0.35132104 0.37063423 -0.51013136 0.09403747
0001a0 2c 7a 5e bf 16 fc 15 3e a2 c4 04 3e aa 0f 37 3e
       -0.8690517 0.14646944 0.12965634 0.17877069
0001b0 a8 01 6c 3d bc 0a 8c 3d 40 78 b8 3e 38 1b b0 3e
       0.057618767 0.06837985 0.36029243 0.34395766
0001c0 7e 45 00 bf f8 6d c3 3d a0 8e 62 bf 22 76 15 3e
       -0.50106037 0.09542459 -0.8849888 0.14595845
0001d0 66 02 22 3e ec af 0f 3e d8 d6 9d 3d a0 8a 7d 3d
       0.15821227 0.14031953 0.07706994 0.06189978
0001e0 a9 8c b3 3e de 84 b6 3e cc df 0a bf 74 59 d0 3d
       0.35068253 0.35648245 -0.54247737 0.10173312
0001f0 8a 8b 5d bf ec bd 1d 3e 70 45 25 3e e4 00 0d 3e
       -0.86541045 0.1540448 0.1613977 0.13769871
000200 0c 25 8b 3d ec dd a7 3d bc 3d ae 3e ac bf b9 3e
       0.067941755 0.08196625 0.34031475 0.36279047
000210 45 9f 00 bf 38 fe d7 3d 73 35 61 bf e6 71 21 3e
       -0.50243026 0.10546535 -0.8797218 0.15766105
000220 1c ac 11 3e e6 94 12 3e 00 c2 41 3d 20 bb a4 3d
       0.14225811 0.14314613 0.047304153 0.08043504
000230 cb 08 b5 3e 9a 60 b4 3e f5 8b 06 bf a8 d1 c0 3d
       0.3535827 0.3522995 -0.5255731 0.09414989
000240 61 d0 5e bf d0 5a 18 3e 8e e0 19 3e 94 85 1c 3e
       -0.8703671 0.14878392 0.15027067 0.15285331
000250 f0 89 9b 3d ac 5d 9d 3d 86 49 b2 3e 4f a0 b2 3e
       0.07594669 0.07683882 0.3482172 0.3488793
000260 f3 2a 01 bf 1c cd dc 3d f9 98 61 bf 58 ea 22 3e
       -0.5045616 0.10781309 -0.8812404 0.15909708
000270 68 41 11 3e 40 7a 13 3e 98 87 3b 3d 28 17 a6 3d
       0.14185107 0.14402103 0.04578361 0.081098855
000280 0f 1b b5 3e c3 6f b4 3e 0c 73 1d be 6c d4 f4 3d
       0.35372207 0.35241517 -0.15375918 0.11954579
000290 8c 7c 7a 3e d3 4d 06 bf 12 ab cd be 54 cf d2 be
       0.24461573 -0.524625 -0.4016958 -0.41173804
0002a0 84 ba 1c 3e 48 ac 00 3e da 79 02 3e 58 88 25 3e
       0.15305525 0.1256572 0.12741795 0.16165292
0002b0 da 2e 4d 3e 28 10 b8 3e c0 5a aa bd 16 ef 7f 3e
       0.20037404 0.35949826 -0.083180904 0.24993548
0002c0 e6 fb 1a 3e 58 63 f4 be 6a 29 ee be 32 6f f2 be
       0.15135154 -0.47732043 -0.4651597 -0.4735046
0002d0 14 99 1a 3e a8 6c b9 3d 9e 45 17 3e de a1 1f 3e
       0.15097457 0.09053928 0.1477265 0.15589091
0002e0 f4 54 38 3e 35 d7 be 3e 38 1d 06 be 3c 09 4d 3e
       0.18001157 0.37273565 -0.13097084 0.20023054
0002f0 0c db 63 3e d0 88 02 bf 38 68 ea be 14 02 e2 be
       0.22251529 -0.5099001 -0.45782638 -0.4414221
000300 12 99 18 3e 2c 0d dc 3d 7a 3e 23 3e 9c 45 23 3e
       0.14902142 0.107447 0.15941802 0.15944523
000310 24 ca 33 3e 73 a1 bb 3e e0 96 05 be 28 62 4c 3e
       0.1755758 0.36646613 -0.13045835 0.19959319
000320 1e 3c 63 3e 3f a3 02 bf 6e 70 e9 be 7c cc e2 be
       0.22190902 -0.51030344 -0.4559359 -0.44296634
000330 0e 4e 19 3e 44 22 dd 3d 34 f8 22 3e 74 19 23 3e
       0.14971182 0.10797551 0.15914994 0.15927678
000340 3e e6 33 3e 35 94 bb 3e
       0.17568299 0.3663651

muA f4 [210, 3]
000000 40 72 21 bc 30 bc 1b 3d 7e ce af bd d0 ae fb bc
       -0.0098538995 0.038021266 -0.08584307 -0.030723006
000010 fa 90 86 3d c0 fe da 3b 48 2c 50 bd 00 e0 a5 bd
       0.06570621 0.0066832006 -0.05082348 -0.08099365
000020 c6 5d e1 3d df 80 1b be 98 fc 5d bd 60 d8 e1 3c
       0.11004214 -0.15185879 -0.05419597 0.027568996
000030 60 5d ea 3c 78 3f a1 3d d6 37 fb bd b0 a4 ec 3d
       0.028608978 0.07873434 -0.12266509 0.11554849
000040 40 20 05 bd c8 7b b3 bd 88 0a 68 bd a0 b8 39 3c
       -0.03250146 -0.08763844 -0.05665067 0.011335522
000050 b0 16 24 bd b8 a2 02 bd 00 2a 86 bb 18 95 1b bd
       -0.0400607 -0.031893462 -0.0040943623 -0.037983984
000060 78 76 3a 3d c0 1b c4 bb 40 e2 5b bc e0 d6 55 bc
       0.045523137 -0.0059847534 -0.013420641 -0.0130517185
000070 90 6b e4 bc 98 5e 25 3d 30 2c ea 3c 28 5a 3c bd
       -0.027883321 0.040373415 0.028585523 -0.045984417
000080 80 f5 f1 bc b8 56 59 bd 60 21 62 3c b0 a4 93 bc
       -0.029536009 -0.053061217 0.0138019025 -0.018022865
000090 30 aa d2 3c ec c2 23 3d 10 c0 01 3d 60 d3 eb 3c
       0.025715917 0.039980814 0.031677306 0.028787315
0000a0 00 27 90 3a c4 1a 49 3d 90 2c d8 3c 60 fb 07 bc
       0.0010997951 0.04909779 0.026388437 -0.008299679
0000b0 90 45 d1 3c 00 6d e9 bb 70 ea c2 bc 40 9c 5e 3c
       0.025545865 -0.0071235895 -0.02379343 0.013587058
0000c0 00 92 27 bb 30 77 f0 3c 00 a2 d3 ba 30 0e 21 3d
       -0.00255692 0.029353708 -0.0016146302 0.03932017
0000d0 58 13 4d 3d 00 8c 81 bd 50 e8 87 3c 18 7c 26 3d
       0.050067276 -0.06325531 0.016590267 0.04064569
0000e0 e0 fb 96 3c 4c 9f e7 bd 18 38 4c bd cc cc d3 3d
       0.01843065 -0.1130968 -0.049858183 0.10341796
0000f0 36 92 12 be b0 b4 63 3d c0 a4 60 3c 46 50 bd 3d
       -0.14313588 0.05559224 0.013711154 0.092438266
000100 62 ad 9b 3d 4e fd d1 bd d1 95 0d 3e 18 cd 57 bd
       0.076014295 -0.10253392 0.13826682 -0.052685827
000110 a0 16 b9 bc 00 7c d6 bb 0c 35 84 3d 40 ad eb bc
       -0.022593796 -0.0065455437 0.064554304 -0.028769135
000120 a0 f1 92 bc 00 bd 41 3c a0 37 25 bd c8 ea 14 3d
       -0.017937481 0.011824846 -0.04033625 0.036356717
000130 c0 a3 dc bc 80 9a ac bb 68 6e 09 bd 40 0a 7d bc
       -0.02693355 -0.0052674413 -0.033552557 -0.015444338
000140 20 61 06 3d 90 5f aa 3c 90 d1 41 bd 20 c5 80 bc
       0.03280747 0.02079752 -0.047318995 -0.015718997
000150 a0 35 0f bd 00 22 c7 3c c8 ed 15 bd e0 d9 e6 3c
       -0.03496325 0.024308205 -0.03660372 0.028180063
000160 88 59 1d 3d 08 eb 07 3d 80 51 32 3b 60 9e 20 bc
       0.03841546 0.033183128 0.0027209222 -0.009803385
000170 68 83 58 3d a0 09 31 3c b0 77 db bc 40 91 b2 3c
       0.052859694 0.010805517 -0.02679047 0.021797776
000180 e0 29 62 bc a0 9a 07 bc b0 20 c5 3c 80 74 5b bb
       -0.013803929 -0.008276612 0.024063438 -0.0033486187
000190 a0 64 0f 3c 70 47 e1 bc 78 5e 25 bd 20 1b 2b bc
       0.008752018 -0.027499884 -0.040373296 -0.010443479
0001a0 e6 8f b2 bd d0 cc a6 bc e8 8e 2f 3d a0 63 75 bc
       -0.08718853 -0.020361334 0.042860895 -0.014977366
0001b0 00 13 1f 3b d8 b3 09 3d 9d d5 1e 3e 3c 97 cf bd
       0.00242728 0.033618778 0.15511174 -0.101362675
0001c0 b0 9d 02 3d bc 44 e8 3d d0 ed f7 bc 10 36 f4 bc
       0.031888664 0.11341235 -0.030264765 -0.029810935
0001d0 a8 c9 15 be f4 b9 f9 3d 48 d8 1f bd fc c3 90 bd
       -0.14627707 0.12193671 -0.03902462 -0.07068631
0001e0 18 a8 3f bd 80 42 61 3c c4 ef 51 bd 38 64 1a bd
       -0.046791166 0.013748765 -0.05125405 -0.037693232
0001f0 d0 00 e2 bc 80 35 eb bb c0 29 20 3d c0 aa 97 bc
       -0.027588278 -0.0071780086 0.039102316 -0.018514037
000200 a0 d0 3e bc 40 e5 e0 3b c0 75 5d 3c 10 9a 35 3d
       -0.01164642 0.006863266 0.013516843 0.04433638
000210 80 89 a7 bc 50 e2 5b bd 00 d0 7e 3b 68 d4 2f bd
       -0.020451307 -0.053682625 0.0038881302 -0.042927176
000220 d0 e8 1a 3d 00 45 4a bc d4 57 5e 3d a0 e0 51 3c
       0.037819684 -0.012345552 0.05428298 0.012809902
000230 00 6c a2 bc 38 12 10 3d c0 06 1e 3d e0 d2 6e 3c
       -0.019826889 0.035173625 0.038580656 0.014576644
000240 e0 28 02 3d e0 00 0e bc 00 07 81 3c 80 7c 04 3c
       0.031777263 -0.008667201 0.015750408 0.008086324
000250 00 b0 d0 3b 50 c4 df 3c 30 df 9f bc c0 88 1c bc
       0.006368637 0.027315289 -0.019515604 -0.009554088
000260 10 db 8f bc 80 53 c1 bb f8 51 23 3d 4c 40 a5 bd
       -0.017560512 -0.0058998466 0.039873093 -0.08068904
000270 40 f9 ed bc c0 c2 5e 3d e0 78 57 3c 50 ea 63 bd
       -0.029049516 0.054384947 0.013151377 -0.05564338
000280 08 f3 af bd 00 cf f6 3d 8e c1 1b be e4 26 79 bd
       -0.085912764 0.12051201 -0.15210554 -0.060828105
000290 38 25 04 3d f0 d2 e1 3c 62 09 a6 3d fc 6e 07 be
       0.032262057 0.027566403 0.081072584 -0.13225931
0002a0 f4 20 ea 3d 38 c4 1f bd 40 94 b4 bd 68 36 62 bd
       0.114320666 -0.03900549 -0.08817339 -0.055227667
0002b0 e0 12 34 3c 18 44 31 bd 30 88 06 bd 00 d4 a5 b9
       0.010990828 -0.04327783 -0.032844722 -0.00031629205
0002c0 28 35 11 bd 20 63 34 3d 00 37 d0 bb 00 89 48 bc
       -0.035451084 0.044039845 -0.0063542128 -0.012239695
0002d0 a0 79 3f bc 60 cd ba bc e0 1b 1d 3d 00 b8 e3 3c
       -0.0116867125 -0.022803009 0.03835666 0.027797699
0002e0 58 53 28 bd 60 99 fe bc 28 ec 51 bd e0 9e 70 3c
       -0.041095108 -0.031078994 -0.051250607 0.014686316
0002f0 70 81 b8 bc a0 a2 f1 3c dc 86 35 3d e0 d7 d8 3c
       -0.022522658 0.029496491 0.044318065 0.026470125
000300 e0 50 c3 3c c0 d3 bd 3b 00 ff 4d 3d 50 a7 d9 3c
       0.023842275 0.005793065 0.050292015 0.026569039
000310 60 76 04 bc c0 41 b8 3c c0 18 cb bb 70 c8 c1 bc
       -0.008084863 0.02249229 -0.006198019 -0.023655146
000320 20 4b 5e 3c 00 ac 9b bb d0 ca f3 3c 00 ac 47 ba
       0.013567716 -0.0047507286 0.029759794 -0.00076168776
000330 28 1f 23 3d 90 e4 58 3d 94 29 88 bd 00 9e bf 3a
       0.039824635 0.05295235 -0.066485554 0.0014619231
000340 98 0d 45 3d 40 9c 9b 3c 20 0c ee bd 10 9d 32 bd
       0.048108667 0.018995404 -0.116234064 -0.043606818
000350 c0 4b ce 3d f2 b9 18 be 18 34 1b 3d a0 ff 8a 3c
       0.10073042 -0.14914683 0.037891477 0.016967595
000360 6e cf b6 3d 36 6e 85 3d 40 e6 cc bd ce 45 0a 3e
       0.08926283 0.06515162 -0.10004854 0.13503191
000370 04 5d 79 bd 20 45 73 bc 00 ec db 39 ac 14 80 3d
       -0.060879722 -0.014848024 0.0004194677 0.06253943
000380 f0 da 14 bd 20 25 8e bc a0 74 33 3c c8 ca 2c bd
       -0.036341608 -0.017351687 0.010953099 -0.042185575
000390 08 31 14 3d 80 fe ea bc 80 b6 4e bb d0 60 f8 bc
       0.036179572 -0.028685808 -0.0031541884 -0.030319601
0003a0 80 78 8d bc 30 f3 03 3d 30 81 d7 3c a0 48 48 bd
       -0.017269373 0.032214344 0.026306719 -0.048897386
0003b0 80 51 8d bc d8 cc 11 bd b0 07 de 3c 40 8b 19 bd
       -0.017250776 -0.035595745 0.027103275 -0.037486315
0003c0 40 ab df 3c 10 05 20 3d c0 b2 10 3d 80 68 24 3c
       0.027303338 0.039067328 0.03532672 0.01003468
0003d0 40 74 88 bb ac 51 60 3d 40 43 2b 3c 90 75 df bc
       -0.0041642487 0.05476539 0.010453045 -0.027277738
0003e0 80 62 ab 3c 00 a5 47 bc a0 7c 0c bc 90 18 d6 3c
       0.020920992 -0.012185335 -0.008574635 0.02613476
0003f0 80 04 7c bb 40 ec 24 3c 50 e8 da bc 40 2a db 3c
       -0.003845483 0.010066092 -0.026722103 0.026753545

quadA f4 [210, 3, 3]
000000 98 7c d4 bd a0 ba 96 bc e8 d2 84 bd a0 ba 96 bc
       -0.10375327 -0.018399537 -0.0648554 -0.018399537
000010 f2 98 ca 3d a6 15 ae 3d e8 d2 84 bd a6 15 ae 3d
       0.09892453 0.08500223 -0.0648554 0.08500223
000020 40 3a 9e 3b 5f 9b 0a 3d 74 a8 28 bd c8 34 89 bc
       0.0048287213 0.03383958 -0.041176274 -0.0167488
000030 74 a8 28 bd 09 06 74 bd 00 75 3a 3b c8 34 89 bc
       -0.041176274 -0.059576068 0.0028451085 -0.0167488
000040 00 75 3a 3b 56 d5 d2 3c 10 d1 14 bd 58 e1 eb 3c
       0.0028451085 0.025736492 -0.03633219 0.028793976
000050 70 4e f7 bc 58 e1 eb 3c c0 9a 93 3b 64 85 3d bd
       -0.03018877 0.028793976 0.0045045316 -0.04626979
000060 70 4e f7 bc 64 85 3d bd b8 5d 02 3d 5c 6f 02 3d
       -0.03018877 -0.04626979 0.03182766 0.03184448
000070 e0 e4 8c bb ec 32 29 3d e0 e4 8c bb a0 b7 40 bc
       -0.004299745 0.04130833 -0.004299745 -0.01176253
000080 80 2b ac 3b ec 32 29 3d 80 2b ac 3b e8 82 a4 bc
       0.005254209 0.04130833 0.005254209 -0.020081952
000090 aa e7 08 bc 60 7e 36 bc b8 7d 8b 3c 60 7e 36 bc
       -0.008356014 -0.011138529 0.01702772 -0.011138529
0000a0 e6 41 17 3c 80 41 51 3b b8 7d 8b 3c 80 41 51 3b
       0.00923202 0.003192991 0.01702772 0.003192991
0000b0 a8 a3 65 ba 9c 9d 14 bd a8 cb a4 bc 5c fd d5 bd
       -0.00087600434 -0.03628312 -0.020116642 -0.10448715
0000c0 a8 cb a4 bc 71 74 0a 3e 14 45 51 bd 5c fd d5 bd
       -0.020116642 0.13520981 -0.05109127 -0.10448715
0000d0 14 45 51 bd 16 9a ca bd 34 3c b9 bc a4 c4 18 bd
       -0.05109127 -0.09892671 -0.022611715 -0.037296906
0000e0 00 9b 09 3d a4 c4 18 bd 04 ad e1 3c 9c f8 7c 3d
       0.033595085 -0.037296906 0.02754832 0.06176053
0000f0 00 9b 09 3d 9c f8 7c 3d 30 c3 a1 bb 56 64 86 bb
       0.033595085 0.06176053 -0.0049365982 -0.0041013164
000100 80 e6 87 bb 40 21 68 bb 80 e6 87 bb c5 6a 0e 3c
       -0.004147351 -0.003542021 -0.004147351 0.008692448
000110 00 48 90 3a 40 21 68 bb 00 48 90 3a 36 71 96 bb
       0.0011007786 -0.003542021 0.0011007786 -0.0045911325
000120 a5 9e 06 bc 80 b9 e6 3a 80 87 20 3b 80 b9 e6 3a
       -0.008216535 0.0017602891 0.0024494827 0.0017602891
000130 4b 96 0e 3c 80 50 1b 3b 80 87 20 3b 80 50 1b 3b
       0.008702825 0.0023699105 0.0024494827 0.0023699105
000140 a8 f4 fe b9 d5 8e 29 3b 60 c9 ab bb c0 c3 9c 3b
       -0.00048628938 0.0025872488 -0.0052425116 0.0047840774
000150 60 c9 ab bb 55 28 5e 3b c0 d0 4f 3c c0 c3 9c 3b
       -0.0052425116 0.0033898551 0.012684047 0.0047840774
000160 c0 d0 4f 3c 96 db c3 bb f5 a9 fd bb 50 a3 0e 3c
       0.012684047 -0.0059771044 -0.0077412077 0.008705929
000170 00 98 ca b8 50 a3 0e 3c 0b b2 ce 3b 80 22 86 bc
       -9.660423e-05 0.008705929 0.0063078455 -0.016373873
000180 00 98 ca b8 80 22 86 bc ac df bb 3a 76 ad 06 bc
       -9.660423e-05 -0.016373873 0.0014333627 -0.008220067
000190 c0 9d 7c 3b c0 99 dd bb c0 9d 7c 3b a8 69 38 3a
       0.0038546175 -0.006762713 0.0038546175 0.0007034787
0001a0 20 b9 0e bc c0 99 dd bb 20 b9 0e bc b5 4d f6 3b
       -0.008711129 -0.006762713 -0.008711129 0.0075165876
0001b0 60 f8 ea bb c0 a5 0c 3b 20 85 e6 bb c0 a5 0c 3b
       -0.007170722 0.00214611 -0.0070349127 0.00214611
0001c0 c0 a6 b3 bb 40 25 13 bc 20 85 e6 bb 40 25 13 bc
       -0.0054825246 -0.008981049 -0.0070349127 -0.008981049
0001d0 90 4f 4f 3c 80 b2 de 3a 60 8c 88 bb 50 ac 6e bc
       0.0126532465 0.0016990453 -0.0041671246 -0.01456745
0001e0 60 8c 88 bb 40 e8 35 3b 20 e3 da bb 50 ac 6e bc
       -0.0041671246 0.002775684 -0.0066799074 -0.01456745
0001f0 20 e3 da bb c0 a0 92 bb e0 58 28 3c c0 ec 71 3b
       -0.0066799074 -0.0044747293 0.010275096 0.0036914796
000200 00 00 8f 39 c0 ec 71 3b c0 d4 d5 bb c0 ff 1a bb
       0.00027275085 0.0036914796 -0.006525606 -0.0023650974
000210 00 00 8f 39 c0 ff 1a bb 00 ba 75 bb 75 4f d2 3b
       0.00027275085 -0.0023650974 -0.0037494898 0.0064181634
000220 e0 a1 d9 bb 80 f0 d9 bb e0 a1 d9 bb ea ff 7f 3b
       -0.0066416115 -0.0066509843 -0.0066416115 0.0039062449
000230 40 c8 6a 3b 80 f0 d9 bb 40 c8 6a 3b b6 27 29 bc
       0.0035824925 -0.0066509843 0.0035824925 -0.010324409
000240 90 29 16 3c c0 0a 60 3b 80 72 fb bb c0 0a 60 3b
       0.009165183 0.0034186095 -0.0076735616 0.0034186095
000250 20 0d bd bb a0 77 08 bc 80 72 fb bb a0 77 08 bc
       -0.005769387 -0.008329302 -0.0076735616 -0.008329302
000260 00 8c 5e bb 10 d6 ad bc 84 aa 4d 3d 0c 6d 26 3d
       -0.0033957958 -0.021220237 0.050211444 0.04063134
000270 84 aa 4d 3d 80 79 75 bc 3a 45 0c 3e 0c 6d 26 3d
       0.050211444 -0.014982581 0.13698283 0.04063134
000280 3a 45 0c 3e 68 49 14 3d 08 df 02 bd c8 75 f5 bc
       0.13698283 0.03620282 -0.03195098 -0.029963389
000290 98 99 80 bc c8 75 f5 bc 00 7e 38 3c 00 39 e2 ba
       -0.01569824 -0.029963389 0.0112605095 -0.0017259419
0002a0 98 99 80 bc 00 39 e2 ba 10 7f a9 3c d8 ab ab 3c
       -0.01569824 -0.0017259419 0.020690471 0.020955965
0002b0 70 3a b7 3c c0 62 ec bc 70 3a b7 3c 48 02 be bc
       0.022366732 -0.028855681 0.022366732 -0.023194447
0002c0 20 5e a3 3b c0 62 ec bc 20 5e a3 3b 80 b3 12 3b
       0.004985586 -0.028855681 0.004985586 0.0022384822
0002d0 e1 38 03 bd 32 49 8c bd 80 e2 7c bb 32 49 8c bd
       -0.032036666 -0.068498984 -0.0038587153 -0.068498984
0002e0 05 cd 8a 3c f8 ad d2 3c 80 e2 7c bb f8 ad d2 3c
       0.016943464 0.02571772 -0.0038587153 0.02571772
0002f0 7a 49 77 3c 06 35 28 bd 80 d1 9e 3b f0 5a 2c 3d
       0.015093202 -0.041066192 0.0048467517 0.042078912
000300 80 d1 9e 3b 3d 86 f8 3c c0 84 29 bb f0 5a 2c 3d
       0.0048467517 0.030337447 -0.0025866479 0.042078912
000310 c0 84 29 bb 9a c7 2f 3c e8 24 e3 3c 54 f6 21 be
       -0.0025866479 0.010728741 0.02772756 -0.15816623
000320 b0 46 9b bd 54 f6 21 be 57 7e 04 be 2c 46 01 be
       -0.07581842 -0.15816623 -0.1293882 -0.12624425
000330 b0 46 9b bd 2c 46 01 be 76 33 d0 3d f2 fb 4f bd
       -0.07581842 -0.12624425 0.101660654 -0.050777383
000340 70 56 6a 3c b0 96 3e 3d 70 56 6a 3c 1c aa 98 3c
       0.014302835 0.046530426 0.014302835 0.018635802
000350 54 ac 58 3d b0 96 3e 3d 54 ac 58 3d e6 a6 03 3d
       0.05289872 0.046530426 0.05289872 0.03214159
000360 95 6c 14 bb 60 6d b1 3b 00 97 57 bb 60 6d b1 3b
       -0.0022647728 0.00541465 -0.00328964 0.00541465
000370 bb c7 25 3c 80 a3 32 3b 00 97 57 bb 80 a3 32 3b
       0.01011842 0.0027258098 -0.00328964 0.0027258098
000380 95 ac 00 bc 16 e3 9a bb 80 aa af 3b c0 05 23 3b
       -0.007853647 -0.004726778 0.0053609014 0.0024875253
000390 80 aa af 3b 0a 18 92 3b 80 47 52 3b c0 05 23 3b
       0.0053609014 0.004458432 0.0032086074 0.0024875253
0003a0 80 47 52 3b a8 b0 8c 39 80 a4 b2 bb 00 00 80 35
       0.0032086074 0.000268345 -0.005451739 9.536743e-07
0003b0 20 ec d2 3b 00 00 80 35 e0 9b e7 3b 80 6e f1 3b
       0.0064368397 9.536743e-07 0.0070681423 0.007367909
0003c0 20 ec d2 3b 80 6e f1 3b 80 dd d3 ba 2c c8 39 3b
       0.0064368397 0.007367909 -0.0016164035 0.0028348072
0003d0 30 b8 23 3c e0 ed 12 bc 30 b8 23 3c d4 f1 13 bb
       0.009992644 -0.008967847 0.009992644 -0.002257456
0003e0 e0 38 df bb e0 ed 12 bc e0 38 df bb 50 59 17 ba
       -0.0068122 -0.008967847 -0.0068122 -0.00057735015
0003f0 6a 3a 4d 3b c0 c9 25 3c 70 9a 27 bc c0 c9 25 3c
       0.0031315335 0.010118902 -0.010229692 0.010118902

hfvrA f4 [210, 1]
000000 24 76 2a 3f 63 2c 96 3f 2a 8c 78 3f 42 31 63 3f
       0.6658652 1.1732296 0.97088873 0.88747036
000010 58 ea 97 3f c6 41 b2 3f aa 61 99 3f f2 44 9a 3e
       1.1868391 1.3926322 1.198293 0.30130726
000020 8c 3c ae 3e bc 5d d5 3e c0 4c c0 3e 06 76 9d 3e
       0.3403057 0.41673076 0.37558556 0.30754107
000030 fc f4 a0 3e 52 23 ca 3e 60 82 5c 3e a0 e3 5b 3e
       0.31436908 0.39480072 0.21534109 0.21473551
000040 b0 50 59 3e 0a c5 23 3f f6 a9 96 3f 80 a7 74 3f
       0.21222186 0.6397253 1.1770618 0.95568085
000050 87 6b 68 3f fd 76 95 3f 31 64 b1 3f 81 86 97 3f
       0.90789074 1.1676937 1.3858701 1.1837922
000060 36 d4 a9 3e 28 6a 9c 3e c2 61 b8 3e 0a 57 a8 3e
       0.33169717 0.3054974 0.36012083 0.32878906
000070 86 ef b3 3e 18 f4 b3 3e 9a 48 d4 3e a8 8b 52 3e
       0.3514368 0.35147166 0.4146164 0.20561087
000080 70 09 6d 3e 98 46 68 3e 86 de 23 3f 58 5f 96 3f
       0.23148131 0.2268318 0.6401142 1.1747847
000090 38 f5 7b 3f 29 c6 66 3f 1b 9a 96 3f a7 0a b5 3f
       0.9842105 0.9014612 1.1765779 1.4143876
0000a0 43 19 95 3f ac fd a4 3e 46 0e af 3e 36 04 a7 3e
       1.1648334 0.32224786 0.34190577 0.326204
0000b0 64 ac b6 3e 5c bf a8 3e bc de ad 3e 60 31 b0 3e
       0.356784 0.32958496 0.33958995 0.3441267
0000c0 cc bb 40 3e 88 39 41 3e c4 18 3e 3e c6 2a 24 3f
       0.18821639 0.18869603 0.18564135 0.6412777
0000d0 76 0b 92 3f c1 cf 78 3f f4 85 67 3f fa ed 95 3f
       1.1409748 0.9719201 0.9043877 1.171325
0000e0 a0 62 b3 3f 75 62 95 3f 78 fd 9f 3e 16 a6 ad 3e
       1.4014473 1.1670672 0.3124807 0.33915776
0000f0 24 be aa 3e 14 9f b7 3e 94 40 a6 3e 22 9f b0 3e
       0.3334819 0.35863554 0.32471144 0.3449641
000100 4a 06 ce 3e 94 10 46 3e 84 56 4d 3e 30 d9 4b 3e
       0.40239173 0.19342262 0.20052534 0.19907069
000110 25 90 24 3f e2 20 96 3f 35 09 7c 3f 07 23 67 3f
       0.6428245 1.1728785 0.9845155 0.9028782
000120 78 c7 96 3f f7 7c b4 3f 29 69 96 3f a4 36 a5 3e
       1.1779623 1.4100636 1.1750842 0.3226825
000130 ac b5 af 3e ba 93 a8 3e a8 24 af 3e 48 c2 a7 3e
       0.34318292 0.32925206 0.34207654 0.32765412
000140 04 97 b4 3e d2 f5 b7 3e 40 cd 43 3e 18 01 49 3e
       0.35271466 0.35929734 0.19121265 0.19629323
000150 7c 79 45 3e a9 e8 23 3f d6 92 95 3f e8 ab 7b 3f
       0.19284624 0.64026886 1.1685436 0.98309183
000160 87 23 67 3f 66 37 97 3f 9e 9e b4 3f d8 4a 95 3f
       0.90288585 1.1813781 1.4110906 1.1663465
000170 f0 0b a5 3e 26 d0 ae 3e 24 19 a8 3e bc 80 b7 3e
       0.3223567 0.3414318 0.3283168 0.35840404
000180 fe 67 a8 3e 40 9e ad 3e e4 41 b8 3e 28 a4 44 3e
       0.3289184 0.33909798 0.3598777 0.19203246
000190 7c 58 46 3e d4 dd 43 3e 31 99 95 3f 50 37 64 3f
       0.19369692 0.1912759 1.1687375 0.891469
0001a0 61 4d b4 3f e4 d0 bd 3e 12 be c1 3e 14 6c 93 3e
       1.4086114 0.37073433 0.37840325 0.28793395
0001b0 0e ef cf 3e e8 5d d4 3e b4 e4 36 3e e8 80 6f 3e
       0.40612072 0.41477895 0.17860681 0.23389018
0001c0 78 1b 91 3f 4b 48 66 3f e6 35 ba 3f f8 db b1 3e
       1.1336508 0.8995406 1.4547698 0.34738135
0001d0 08 ed 96 3e d8 b7 af 3e 76 d5 bf 3e c8 e1 e9 3e
       0.29477715 0.3431995 0.37467545 0.4568007
0001e0 24 a9 64 3e 08 ce 47 3e 18 f0 97 3f c1 12 5d 3f
       0.22330147 0.19512188 1.1870146 0.8635674
0001f0 3a db b3 3f 1e 3d a9 3e a6 ed a5 3e 0a 50 b3 3e
       1.4051278 0.3305444 0.32407874 0.35022002
000200 88 82 c8 3e 6c 44 b4 3e 28 37 7b 3e 1c ec 30 3e
       0.39162087 0.35208452 0.24532759 0.17277569
000210 43 c0 92 3f 79 86 60 3f 00 3e b7 3f 0e 5b a9 3e
       1.1464924 0.8770519 1.4315796 0.33077282
000220 2a d9 b0 3e 48 46 af 3e 18 a9 d4 3e e8 93 bc 3e
       0.34540683 0.34233308 0.41535258 0.36831594
000230 04 df 4f 3e 98 f5 4e 3e 89 7b 96 3f 3f e8 5e 3f
       0.20299917 0.20210874 1.175645 0.8707313
000240 fe f9 b3 3f ce ae ae 3e 58 2c ae 3e c2 89 a9 3e
       1.4060667 0.3411774 0.34018207 0.33112913
000250 fa bf be 3e ea 30 bd 3e ac 8c 4e 3e 00 4c 4f 3e
       0.37255841 0.3695138 0.2017085 0.20243835
000260 20 e0 92 3f 39 b3 60 3f f8 56 b7 3f 0e c6 a8 3e
       1.1474648 0.8777347 1.4323416 0.32963604
000270 78 4a b1 3e e4 d5 ae 3e 04 70 d5 3e 0e 09 bb 3e
       0.34627128 0.3414756 0.41687024 0.36530346
000280 f8 46 50 3e 64 4b 4e 3e e8 a2 81 3f bb bf 62 3f
       0.20339572 0.20145947 1.012784 0.8857381
000290 08 c0 45 3f 26 d5 90 3f 5c fd 8b 3f 1e ec 9a 3f
       0.7724614 1.1315048 1.0936694 1.2103307
0002a0 18 85 9f 3e 60 c0 b0 3e a4 11 d8 3e 88 8c a9 3e
       0.3115623 0.3452177 0.4220096 0.3311503
0002b0 3c 50 88 3e cc ba 37 3e e2 04 73 3f 92 6d 4c 3f
       0.26623714 0.17942351 0.94929326 0.7985469
0002c0 d5 f0 59 3f c2 5d 8c 3f 9b 3f 8e 3f 92 ad 9d 3f
       0.85133106 1.0966113 1.1113161 1.2318594
0002d0 8a c4 a7 3e aa 05 c6 3e b2 cf b5 3e 1e 22 a3 3e
       0.32767135 0.38676196 0.3551002 0.31861967
0002e0 d8 89 8e 3e e0 19 29 3e 2a 36 7c 3f d4 10 5a 3f
       0.2783954 0.16513777 0.9852015 0.8518193
0002f0 78 8c 4c 3f 03 d9 8f 3f 0e c5 90 3f 62 b7 9a 3f
       0.7990184 1.1238102 1.1310136 1.2087214
000300 ee 22 a6 3e fe 02 b4 3e bc 37 aa 3e 78 3e aa 3e
       0.32448524 0.35158533 0.33245647 0.33250785
000310 72 60 9c 3e d8 af 3c 3e e8 0b 7c 3f b0 03 5a 3f
       0.30542332 0.18426454 0.9845567 0.85161877
000320 68 98 4c 3f 4f e0 8f 3f 8a 89 90 3f 39 10 9b 3f
       0.79920053 1.1240329 1.1291974 1.2114326
000330 3a b4 a5 3e 00 4f b4 3e 38 27 aa 3e c6 38 aa 3e
       0.32364064 0.35216522 0.33233047 0.3324644
000340 bc 61 9c 3e 10 76 3c 3e
       0.30543315 0.18404412

vwA f4 [210, 1]
000000 8c 25 f5 3e 4b 17 07 3f 04 87 02 3f 9e 4b 00 3f
       0.47880208 0.5276992 0.5098727 0.5011538
000010 73 24 e8 3e f4 74 ef 3e 94 cc cf 3e bb 04 bf 3e
       0.4534031 0.46768916 0.40585768 0.37308297
000020 c2 70 c5 3e 52 88 d0 3e d2 ad c8 3e 96 5d c0 3e
       0.3856259 0.40729004 0.39195114 0.375714
000030 48 c5 bf 3e 99 a9 c8 3e 43 93 b8 3e 02 dd b7 3e
       0.374552 0.39191893 0.36049852 0.35910803
000040 13 2d b7 3e 75 6c f2 3e c3 7b 06 3f 52 9e 01 3f
       0.35776576 0.4734837 0.52532595 0.506322
000050 54 60 01 3f 2a ed e6 3e 4d 61 f0 3e 9e 55 ce 3e
       0.5053761 0.45102817 0.46949235 0.40299696
000060 87 6f c4 3e f1 e0 be 3e 24 c4 c8 3e 94 53 c1 3e
       0.3836634 0.37280992 0.39212143 0.37759078
000070 c2 80 c6 3e f2 a9 c4 3e 8a 22 cc 3e b2 a7 b6 3e
       0.3877011 0.38410908 0.398701 0.35674816
000080 39 84 b9 3e 94 8a b9 3e ae d8 f2 3e 0e 3a 06 3f
       0.3623369 0.3623854 0.47430938 0.52432334
000090 21 b3 02 3f 55 f6 00 3f ea 5a e7 3e 90 58 f0 3e
       0.5105458 0.5037587 0.4518655 0.46942568
0000a0 26 90 cd 3e fb 41 c3 3e da a0 c5 3e 45 78 c3 3e
       0.4014904 0.38136277 0.38599283 0.38177696
0000b0 ac 0d c6 3e 2a b9 c3 3e 65 9a c4 3e 3e f0 c2 3e
       0.38682306 0.38227206 0.38399044 0.38073915
0000c0 73 76 b3 3e 74 22 b4 3e da cb b3 3e e9 9e f2 3e
       0.35051307 0.35182536 0.35116464 0.47386864
0000d0 44 e7 05 3f 07 78 02 3f 92 2e 01 3f c0 4c e7 3e
       0.5230601 0.509644 0.50461686 0.45175743
0000e0 48 e6 ef 3e ab 79 cd 3e 79 7a c1 3e 37 1b c5 3e
       0.46855378 0.40131888 0.37788752 0.38497326
0000f0 8a 36 c4 3e ee 5e c6 3e 4b 14 c3 3e 6a fb c4 3e
       0.3832286 0.387443 0.3810142 0.38473064
000100 ac 40 c9 3e ee a9 b4 3e d1 b9 b4 3e 6f 7d b4 3e
       0.39307153 0.35285896 0.35298017 0.35251948
000110 d1 ca f2 3e 50 36 06 3f 2c b2 02 3f 4e fb 00 3f
       0.47420362 0.52426624 0.5105312 0.5038346
000120 39 5a e7 3e f6 74 f0 3e 74 d2 cd 3e 30 13 c3 3e
       0.45186022 0.46964234 0.40199625 0.38100576
000130 0a 1d c5 3e c2 7d c3 3e cf e4 c4 3e 48 89 c3 3e
       0.38498718 0.38181883 0.38455817 0.38190675
000140 88 84 c5 3e a2 f4 c4 3e a5 a4 b3 3e 36 81 b4 3e
       0.38577676 0.3846789 0.3508655 0.3525483
000150 dc 2f b3 3e 34 88 f2 3e f8 34 06 3f f2 a9 02 3f
       0.3499745 0.4736954 0.52424574 0.51040566
000160 eb f7 00 3f b5 bb e7 3e 6b 89 f0 3e e8 7e cd 3e
       0.5037829 0.45260397 0.46979842 0.40135884
000170 9e 10 c3 3e 18 1f c5 3e b8 99 c3 3e 1e 76 c6 3e
       0.38098615 0.38500285 0.38203216 0.3876199
000180 df ab c3 3e f7 9e c4 3e c2 67 c5 3e 70 ad b3 3e
       0.38217065 0.3840253 0.38555723 0.3509326
000190 52 5b b4 3e 52 cc b3 3e e3 13 08 3f 60 82 00 3f
       0.35225922 0.35116822 0.53155345 0.50198936
0001a0 ec 88 f0 3e 36 c0 c9 3e 72 66 ca 3e 51 62 bb 3e
       0.46979463 0.39404458 0.39531285 0.36598447
0001b0 f5 25 ca 3e 0a d8 ca 3e c7 98 ad 3e 86 bc b9 3e
       0.39482084 0.3961795 0.33905622 0.36276644
0001c0 45 9b 05 3f a3 7a 00 3f 3a 83 f2 3e ca 7a c6 3e
       0.5219005 0.5018713 0.47365743 0.38765556
0001d0 22 b5 bc 3e a9 37 c5 3e af d4 c5 3e 1d 02 d0 3e
       0.36856943 0.38519028 0.38638827 0.40626612
0001e0 ca f2 b8 3e ed a6 b2 3e 75 8f 07 3f 8b b0 fe 3e
       0.36122733 0.3489298 0.52953273 0.49744067
0001f0 36 6c f1 3e 6d 1c c3 3e 20 8e c2 3e c4 89 c7 3e
       0.4715287 0.38107625 0.37999058 0.38972294
000200 f5 2b c8 3e 1c 09 c3 3e 1d ed bc 3e 56 00 ab 3e
       0.39096037 0.38092887 0.36899653 0.33398694
000210 62 9c 06 3f 02 a8 ff 3e b4 c2 f1 3e df 71 c3 3e
       0.5258237 0.49932867 0.4721886 0.38172814
000220 50 a1 c5 3e 0f 67 c5 3e cc c7 ca 3e 40 23 c6 3e
       0.38599634 0.3855519 0.39605558 0.3869877
000230 f5 dc b4 3e ab e7 b3 3e b8 40 07 3f 69 20 ff 3e
       0.35324827 0.35137686 0.5283313 0.49829414
000240 3e 93 f1 3e bf 11 c5 3e d2 eb c4 3e 92 f9 c3 3e
       0.4718265 0.38490102 0.38461167 0.38276345
000250 c3 66 c6 3e a4 40 c6 3e 39 3d b4 3e 71 f6 b3 3e
       0.38750276 0.38721192 0.3520296 0.35148957
000260 1c 9c 06 3f d2 ab ff 3e 2b d8 f1 3e 1a 49 c3 3e
       0.52581954 0.49935776 0.47235236 0.3814171
000270 d2 c5 c5 3e 82 44 c5 3e 5f cd ca 3e 48 fb c5 3e
       0.38627487 0.3852883 0.3960981 0.38668275
000280 f5 cd b4 3e f2 e1 b3 3e 55 17 03 3f 32 49 01 3f
       0.35313383 0.3513332 0.51207477 0.5050231
000290 65 88 fa 3e d6 65 05 3f 14 f7 e2 3e 94 00 e9 3e
       0.48932186 0.52108514 0.4432913 0.45508254
0002a0 1a ba bf 3e 02 39 c5 3e 23 a9 ce 3e d4 a4 c3 3e
       0.37446672 0.38520056 0.40363416 0.3821169
0002b0 39 35 b9 3e 7f 6b ae 3e d3 fb 01 3f 57 79 fc 3e
       0.36173418 0.34066388 0.5077488 0.49311325
0002c0 0e b2 ff 3e fb 9a 04 3f 4e 74 e4 3e b6 54 eb 3e
       0.49940532 0.5179898 0.44619983 0.45963067
0002d0 62 86 c2 3e 93 70 c8 3e 65 da c6 3e ca 6e c0 3e
       0.3799315 0.39148387 0.38838497 0.37584525
0002e0 7a 41 bb 3e f7 7a aa 3e 7e 34 02 3f 03 2e ff 3e
       0.36573392 0.3329694 0.50861347 0.49839792
0002f0 cc 26 fc 3e 43 59 05 3f b4 c0 e5 3e 15 03 ea 3e
       0.4924835 0.5208933 0.44873583 0.45705476
000300 a4 e2 c1 3e 2a a3 c4 3e ea a8 c3 3e f4 ac c3 3e
       0.37868226 0.38405734 0.3821481 0.3821789
000310 56 89 c0 3e ba 7b b0 3e 98 2b 02 3f 8d 2a ff 3e
       0.3760478 0.34469396 0.5084777 0.4983715
000320 66 22 fc 3e e5 59 05 3f aa b1 e5 3e 1a 25 ea 3e
       0.49244994 0.52090293 0.4486211 0.4573143
000330 65 d8 c1 3e 86 9b c4 3e 65 a3 c3 3e 3a b6 c3 3e
       0.37860408 0.38399905 0.38210598 0.38224965
000340 26 8a c0 3e ae 66 b0 3e
       0.376054 0.34453338
