tests/test_data_path/og_processed/dimer_ap3_train_spec_7_355.pt (torch, 448914 bytes, 17 tensors)

y f4 [16, 4]
000000 39 fd cd 3b 63 03 f5 39 0d 6f d3 be 1d d3 12 be
       0.00628629 0.00046732565 -0.41295663 -0.14338346
000010 14 79 4b be bc cd 01 3f 6f 1b f4 bf 7b 23 97 bf
       -0.19870406 0.5070455 -1.9070872 -1.1807703
000020 36 20 47 c0 40 63 d5 40 f1 65 6f c0 a1 79 9d c0
       -3.111341 6.6683655 -3.740597 -4.9210973
000030 d7 53 d1 bd 42 26 87 3d ff c4 8b bf 9b 57 15 bf
       -0.10221069 0.06599094 -1.0919493 -0.583368
000040 ed 51 23 3d 2a 4a 4d 38 3d 22 cd bd 9b 5c 8c bd
       0.039873052 4.894488e-05 -0.10016296 -0.068536006
000050 eb 79 bf bd 5d e6 8b 3e 1f d9 2c bf f5 ba 9d bf
       -0.09349426 0.2732419 -0.675188 -1.232268
000060 f5 d1 9e bf a2 5a a2 40 95 f5 96 bf 43 6c 85 c0
       -1.2407824 5.0735636 -1.1793696 -4.1694655
000070 f0 47 22 bf 26 99 75 3f 1d 39 fa bf 48 ba d0 bf
       -0.6339102 0.9593681 -1.954868 -1.6306849
000080 94 bb ad bd 0a 10 82 3a fe 47 89 be 49 c7 43 be
       -0.08483043 0.0009922993 -0.26812738 -0.1911899
000090 60 9b 36 3e 0e b4 17 39 ac d3 9e be 56 23 16 be
       0.17832708 0.00014467558 -0.31020868 -0.14661917
0000a0 e7 28 60 3e da 05 ad 3d a2 76 92 bf aa 19 24 bf
       0.21890603 0.08448382 -1.1442454 -0.6410166
0000b0 8c b3 34 3d e1 1e be 3b 91 48 98 be f5 b7 a9 be
       0.04411654 0.005802021 -0.29742864 -0.3314816
0000c0 8b 9e 69 bf 9c ce 3f 40 6c b2 90 bf 6a 58 61 c0
       -0.9125754 2.9969854 -1.130445 -3.5210214
0000d0 55 ae 72 c0 3f 51 fa 40 fe db 9d c0 22 55 c1 c0
       -3.7918904 7.8224177 -4.9331045 -6.041642
0000e0 f8 3e 62 c0 17 2c b1 40 08 08 87 c0 83 a1 79 c0
       -3.5350933 5.536632 -4.2197304 -3.900483
0000f0 31 1a 90 c0 c0 91 1a 41 ff e0 57 c0 b0 50 1f c1
       -4.503197 9.6605835 -3.3731077 -9.957199

RA f4 [224, 3]
000000 73 f2 1e 3f a9 9f 37 bf 8e 3c 20 be 08 e9 55 bf
       0.620887 -0.71728 -0.156481 -0.835587
000010 89 99 01 bf 5b ef b7 3e 50 df 86 3f 11 e4 88 3e
       -0.506249 0.359248 1.05369 0.267365
000020 78 28 ae bf af 78 76 bf 48 e0 63 3f 16 51 89 3f
       -1.36061 -0.962779 0.890141 1.072787
000030 9c f8 b6 3f 43 ab 23 bf 3e eb 22 3f dc 68 be bf
       1.429462 -0.639332 0.636402 -1.487575
000040 0f 98 0f bf d4 9e ea be f1 4a 86 bf 27 30 a9 bf
       -0.560914 -0.458243 -1.049162 -1.321782
000050 6b 7e 94 3f 99 80 8b 3f 7e ff ac 3f bf 9d 82 bf
       1.160108 1.089862 1.351547 -1.020439
000060 27 dc 03 40 4c 36 5e bd 2d 06 d5 bf 45 9d a9 3e
       2.060312 -0.054251 -1.664251 0.331278
000070 61 18 60 3e 39 47 09 c0 ed 4a 02 c0 22 18 6b 3f
       0.218843 -2.144972 -2.035823 0.918337
000080 c6 a6 bb 3f 2e 01 80 be 31 0a 7e 3f 91 d3 f5 3f
       1.466027 -0.250009 0.992343 1.920519
000090 b4 ca 60 bf a0 6b df 3f a0 a9 df 3e b6 b9 39 3f
       -0.878093 1.745472 0.436841 0.72549
0000a0 be 86 e0 bf 55 15 06 bf 90 88 1d 3f b7 f1 23 bf
       -1.754112 -0.523763 0.615365 -0.640407
0000b0 19 e2 08 be ee 40 3d bf 55 86 d9 be 92 cd bd 3e
       -0.133675 -0.739272 -0.424853 0.370709
0000c0 67 7e 89 3f d7 dc 71 3e 0b b5 a4 bf 1c 5f 73 bf
       1.07417 0.236194 -1.286775 -0.95067
0000d0 60 ac 73 3f 36 cb 85 3f 52 f3 ab 3f 72 f8 1c bf
       0.951849 1.045264 1.343363 -0.613166
0000e0 27 4b 29 3f 5a a1 c0 bf b0 38 18 bf 7a e4 f7 be
       0.661303 -1.504924 -0.594615 -0.484165
0000f0 c5 1c 82 bf b7 9c a9 bf a0 6b 91 3f b3 b7 8e 3f
       -1.016503 -1.325095 1.136097 1.114981
000100 21 e4 a0 3f 0f 62 7b bf d4 44 05 40 05 8b 43 bd
       1.256962 -0.981965 2.082326 -0.04774
000110 3f e5 de bf 13 64 b4 3e a7 5b 46 3e 35 98 07 c0
       -1.741371 0.352326 0.193709 -2.118665
000120 46 3f 00 c0 b8 b0 80 3f 20 42 c2 3f 56 7e 99 be
       -2.003862 1.005393 1.517643 -0.299792
000130 cd ac 7d 3f 9e 7b f5 3f 20 27 4c bf 92 75 d8 3f
       0.990918 1.917835 -0.797472 1.691088
000140 a2 43 a0 3e ce e0 2f 3f 6f f0 dd bf 56 47 e6 be
       0.313016 0.687024 -1.7339 -0.449763
000150 8e 78 1e 3f f7 1d 2f bf 56 63 29 be bb 7b 3c bf
       0.619027 -0.684051 -0.165418 -0.736263
000160 6a a0 d9 be 90 bb c0 3e 42 78 80 3f 8e 57 90 3e
       -0.425052 0.376431 1.00367 0.281918
000170 9a 79 9e bf 86 8f 7c bf 6d 03 57 3f 7a e4 8d 3f
       -1.238086 -0.986565 0.839896 1.108535
000180 1b a1 ad 3f 38 48 28 bf 58 aa 27 3f cb d9 bd bf
       1.356479 -0.657352 0.654943 -1.483209
000190 5b ee 0c bf 59 a7 e2 be 17 64 7f bf fd 10 a1 bf
       -0.550512 -0.442683 -0.997621 -1.258331
0001a0 21 e6 8e 3f da aa 94 3f 97 a9 a7 3f e6 5c 76 bf
       1.116398 1.161464 1.309863 -0.962355
0001b0 69 8d 02 40 0e dc 81 3c ab 41 ce bf 27 2f 9a 3e
       2.039881 0.015852 -1.611379 0.301141
0001c0 f4 a6 12 3e aa 2c 0c c0 27 dc f7 bf 6d 1b 7e 3f
       0.143215 -2.190226 -1.936406 0.992606
0001d0 34 0f c4 3f 3e 24 7c be a5 f8 78 3f c3 b9 f6 3f
       1.531714 -0.246232 0.972544 1.927544
0001e0 3f e6 4f bf 82 1c e8 3f b7 7c bc 3e 7d 94 39 3f
       -0.812107 1.81337 0.368139 0.724922
0001f0 da c6 d7 bf fb 1f 04 bf ed 0c 27 3f 57 09 36 bf
       -1.685756 -0.516113 0.652541 -0.71108
000200 3c 6c 22 be ae f1 51 bf 33 6f dd be 4d 86 c3 3e
       -0.158616 -0.820094 -0.432489 0.381884
000210 ad a4 8f 3f b1 4d 82 3e 9d 81 9f bf b9 1a 75 bf
       1.122213 0.254499 -1.246143 -0.957439
000220 f8 8b 5d 3f de 1e 8a 3f de e6 a9 3f 88 0d 1e bf
       0.865417 1.079067 1.327358 -0.617394
000230 dc 0e 41 3f cc 79 be bf c9 1e 01 bf 7d 3d e7 be
       0.754133 -1.488092 -0.504376 -0.451641
000240 5a 9b 7a bf 56 0f a8 bf f9 12 80 3f dc d4 90 3f
       -0.978933 -1.312968 1.000579 1.131496
000250 68 24 a2 3f 86 a9 6d bf 87 6d 06 40 a2 d1 1d 3d
       1.266736 -0.928368 2.100435 0.03853
000260 ba 15 de bf fe 7c c3 3e 5e 13 32 3e ab b4 08 c0
       -1.735038 0.381813 0.173902 -2.136027
000270 c5 ab fe bf b2 63 77 3f 5d df bd 3f 2e 3d 92 be
       -1.989617 0.966365 1.483379 -0.285623
000280 1d 92 7e 3f 7e 52 f3 3f 5f 24 60 bf 1a 4f dc 3f
       0.994417 1.900955 -0.875555 1.721164
000290 c1 8c b1 3e 57 43 2e 3f 5f 5c e2 bf 63 42 18 bf
       0.346777 0.680715 -1.768444 -0.594763
0002a0 26 fe 30 3f 04 e7 2c bf c4 97 49 be 06 2a 3f bf
       0.691378 -0.6754 -0.196868 -0.746735
0002b0 f9 da 07 bf 7a a8 cd 3e cc 7e 85 3f 78 47 56 3e
       -0.530685 0.401676 1.042932 0.209257
0002c0 69 6e a1 bf 81 cb 6b bf c3 d4 52 3f 9e b7 8b 3f
       -1.261182 -0.921074 0.823559 1.091541
0002d0 76 e1 b5 3f a9 67 21 bf a7 af 17 3f 39 46 c2 bf
       1.420943 -0.630488 0.592524 -1.517768
0002e0 04 71 0e bf 51 2d c2 be ab 08 81 bf 57 76 9d bf
       -0.556412 -0.379252 -1.008077 -1.230174
0002f0 d4 f0 8d 3f fc c5 8a 3f 7c d6 9b 3f 0d 6e 77 bf
       1.108912 1.084167 1.217483 -0.966523
000300 07 62 08 40 d7 67 0e bd 27 a5 d4 bf a0 8c c1 3e
       2.130983 -0.034767 -1.66129 0.378026
000310 46 43 36 3e 44 6b 09 c0 06 a0 02 c0 30 ba 6c 3f
       0.177991 -2.147172 -2.041017 0.924716
000320 24 ee c1 3f 48 50 a4 be 72 1a 80 3f ce 50 f6 3f
       1.51508 -0.320925 1.000807 1.924341
000330 36 75 46 bf 73 b8 d4 3f ee af c6 3e 96 3d 2d 3f
       -0.775226 1.661879 0.388061 0.676721
000340 49 49 e1 bf df f8 12 bf 67 9d 29 3f e6 94 30 bf
       -1.760049 -0.57411 0.662558 -0.689772
000350 dc b8 35 be 42 b1 4d bf bb f0 03 bf 87 86 ad 3e
       -0.177463 -0.803486 -0.515392 0.338917
000360 ba 4d 8c 3f 24 d4 5c 3e 29 7a a0 bf b1 dd 71 bf
       1.096122 0.215653 -1.253728 -0.944789
000370 9f 72 68 3f 4f 04 8d 3f 0e d7 ac 3f b8 95 22 bf
       0.907999 1.101694 1.350313 -0.635097
000380 56 0f 28 3f 5d 18 c7 bf 5a d9 16 bf 3c dc d6 be
       0.656484 -1.555431 -0.589254 -0.419649
000390 fb 73 75 bf 85 60 a7 bf 91 ee 93 3f 75 77 81 3f
       -0.958801 -1.307633 1.155718 1.011458
0003a0 14 5d a7 3f 2f 52 78 bf 19 70 04 40 58 c6 06 3c
       1.307528 -0.970004 2.069342 0.008226
0003b0 ab 41 ce bf fa 61 c4 3e c4 95 43 3e 38 a2 0a c0
       -1.611379 0.38356 0.191001 -2.166151
0003c0 c2 4f 00 c0 09 c1 6a 3f 75 59 ba 3f a6 7d 9b be
       -2.004868 0.917008 1.455855 -0.303693
0003d0 b2 2e 80 3f ad da ff 3f 40 6c 41 bf 09 f9 d4 3f
       1.001425 1.998861 -0.755558 1.66385
0003e0 27 a5 e8 3e fb e6 32 3f e0 9f e4 bf 53 79 fb be
       0.454385 0.698837 -1.786129 -0.49116
0003f0 03 ea 29 3f a7 ca 33 bf d5 3d 12 be 1a a4 44 bf
       0.663727 -0.702311 -0.142814 -0.768129

RB f4 [384, 3]
000000 c6 c0 b0 bf 05 87 ff 40 c0 97 11 c1 33 a7 e3 be
       -1.380883 7.985232 -9.099548 -0.444635
000010 88 9e ea 40 a3 89 1f c1 cb 4d 94 bf f3 9a 00 41
       7.331852 -9.971103 -1.158624 8.037829
000020 8f 9a f6 c0 a3 cc 93 40 56 8c bc 40 32 b0 f9 c0
       -7.706367 4.61873 5.892131 -7.802758
000030 93 60 96 40 44 78 a3 40 f0 30 d2 c0 eb 56 37 3f
       4.699289 5.108431 -6.568474 0.71617
000040 c6 40 d8 40 82 b7 16 c1 10 b2 2c 3d 4c 24 ee 40
       6.757907 -9.419802 0.042162 7.441931
000050 d6 0c e6 c0 51 f9 5a 40 e5 ab cc 40 7a 8c 03 c1
       -7.189067 3.421467 6.395983 -8.221796
000060 aa 9b 5c 40 a9 f9 9c 40 51 66 bc c0 1d 3c 73 3f
       3.447001 4.905476 -5.88749 0.950136
000070 65 45 d9 40 f2 a5 01 c1 89 09 0d 40 81 f7 c5 40
       6.789721 -8.103014 2.203707 6.186463
000080 4e 9b f0 c0 55 14 12 40 f4 79 ac 40 f8 c5 c7 c0
       -7.518958 2.282491 5.389887 -6.242916
000090 77 4e 89 3f a3 05 a5 40 74 61 ac c0 26 e5 4e 3f
       1.072707 5.156938 -5.386896 0.808184
0000a0 62 ca bf 40 8e 83 8e c0 fb 23 cc 3e 72 45 84 40
       5.993455 -4.453559 0.398712 4.133477
0000b0 98 5d b8 c0 da 02 15 c0 cf 42 07 41 19 78 18 c1
       -5.761425 -2.328299 8.453811 -9.529321
0000c0 ad a3 26 bf 2a 8f e8 40 18 bf 30 c1 4e 2b e9 bf
       -0.650935 7.267476 -11.046654 -1.821634
0000d0 02 f2 07 41 64 10 e3 c0 08 d6 b2 40 3f 46 c3 40
       8.496584 -7.095751 5.588627 6.102325
0000e0 2b ad 05 c1 0b 24 b4 40 5f 0b 98 40 86 74 c7 c0
       -8.354777 5.6294 4.751388 -6.232974
0000f0 96 94 af 3f db fb c7 40 6f 51 21 c1 3f 74 01 3e
       1.371722 6.249494 -10.082381 0.12642
000100 a7 cb ed 40 7a 6f c3 c0 0d 1d 5a 40 c0 41 df 40
       7.43111 -6.107358 3.408023 6.976776
000110 56 80 12 c1 b4 00 64 40 05 b4 89 40 74 a5 9c c0
       -9.156332 3.562543 4.303225 -4.895197
000120 29 06 ac 40 a8 19 be bf 5b 52 c6 40 ae 39 d1 40
       5.375752 -1.485158 6.197553 6.538291
000130 ee 08 d1 bf f4 dd b5 40 b2 e2 85 40 f1 12 07 c0
       -1.633085 5.683344 4.183923 -2.110531
000140 e2 a0 b9 40 2a 47 e0 40 f3 f2 c4 c0 33 1b 07 40
       5.800889 7.008687 -6.154657 2.111035
000150 51 9f c1 40 39 a5 c7 c0 62 48 82 3f e5 33 d5 40
       6.050698 -6.238919 1.017834 6.662585
000160 eb 39 24 c0 dd fa 92 40 8d dd 89 40 b4 cc 43 c0
       -2.566035 4.593123 4.308295 -3.059369
000170 97 6f 97 40 7c 8c d9 40 15 ca a5 c0 e8 12 43 40
       4.732372 6.798399 -5.180918 3.048029
000180 9d f3 9e 40 a6 54 ae c0 aa 0e 85 3f 22 b7 b1 40
       4.967238 -5.447833 1.03951 5.553605
000190 79 af 53 c0 43 d3 84 40 a1 03 b6 40 23 bc 8a c0
       -3.307585 4.150789 5.687943 -4.335466
0001a0 f1 49 43 40 d7 ce 98 40 24 ff 8d c0 e6 07 02 40
       3.051388 4.775249 -4.437395 2.031732
0001b0 d0 0c 5f 40 96 cf 61 c0 0e 4b eb 3f e1 0c 1b 40
       3.485157 -3.528295 1.838228 2.422661
0001c0 7f 88 7e c0 72 6c 18 40 aa d5 6a 40 03 d1 20 c0
       -3.977081 2.381619 3.669291 -2.512757
0001d0 05 6c 9d 3f 6d 37 a7 40 8b a6 37 bf ad ce e2 40
       1.229859 5.225516 -0.717385 7.087729
0001e0 89 e2 ec 40 f5 12 91 bf fd f9 bf 40 37 8b 4a 40
       7.402653 -1.133391 5.999266 3.164747
0001f0 f6 7b fc bf 72 c0 c8 40 68 42 fd 40 13 60 d9 c0
       -1.972533 6.273492 7.914356 -6.792978
000200 54 3a 09 40 1f 90 c7 40 51 fa e1 c0 26 6e 95 3e
       2.144185 6.236343 -7.061806 0.291856
000210 85 26 f5 40 56 0b 32 c0 1b 73 85 40 e9 62 59 40
       7.660952 -2.781942 4.170301 3.396662
000220 bd 73 62 c0 6f 80 8c 40 7a 6f f0 40 94 6d a4 c0
       -3.538314 4.390678 7.513608 -5.138376
000230 38 4e 7b 40 e4 10 85 40 12 6c b0 c0 ab af 8e 3e
       3.926649 4.158312 -5.513192 0.278684
000240 cc 43 a6 3d 8e af 6a c0 40 59 cb 40 47 3a 7b bf
       0.081184 -3.666965 6.354645 -0.981358
000250 26 51 92 c0 d1 11 cd 40 31 ea d2 3e 9d 10 45 c0
       -4.572406 6.408425 0.411943 -3.079139
000260 ad ed a2 40 cb bd 96 c0 54 81 94 c0 5b 23 fc 3f
       5.091513 -4.710668 -4.640787 1.969829
000270 11 36 85 c0 4f 69 9b c0 97 52 2f 3f d5 3d de bf
       -4.16285 -4.856605 0.684854 -1.736262
000280 7f be 98 c0 94 b1 a6 40 b6 11 bf be 60 90 54 c0
       -4.773254 5.209177 -0.373182 -3.321312
000290 0f 62 7d 40 ea b0 6f c0 43 11 91 c0 05 6b 47 40
       3.95911 -3.745173 -4.533357 3.115907
0002a0 f1 68 2f c0 15 91 9a c0 cd 59 df 3e 92 cb c5 bf
       -2.74078 -4.83021 0.436232 -1.545275
0002b0 73 66 83 c0 cf 78 80 40 7d 3e 17 c0 38 cb 8d c0
       -4.106256 4.014747 -2.363189 -4.431057
0002c0 57 e8 36 40 60 57 eb bf 4e 44 93 c0 73 0e c6 3f
       2.857931 -1.838604 -4.602088 1.547316
0002d0 1e c6 ac be 9d ba 90 c0 46 78 91 3f fc 54 b5 3d
       -0.337449 -4.52278 1.136483 0.088541
0002e0 0f 0f 60 c0 bd e2 3d 3f c5 00 39 3e 6e 69 b4 c0
       -3.500919 0.741741 0.180667 -5.63787
0002f0 d4 b6 9d 3f d2 c4 3b 3f e1 40 5f c0 79 82 e4 40
       1.232142 0.733472 -3.488335 7.140927
000300 4e f0 9b bf e9 8f a3 c0 71 ca eb 40 99 4b a0 3f
       -1.218271 -5.111317 7.368462 1.252307
000310 09 15 1a c0 cc fa a0 40 94 6d b8 c0 3e 25 96 c0
       -2.407534 5.030615 -5.763376 -4.692046
000320 ab cb 09 40 91 7f 9a c0 a1 cb 9e c0 a6 48 de bd
       2.153056 -4.828072 -4.962357 -0.108537
000330 b1 6d 2b c0 15 e2 b0 c0 ca f9 a8 40 81 79 48 bd
       -2.67857 -5.527598 5.280492 -0.048944
000340 ed 66 34 c0 64 95 43 40 23 e5 83 c0 d0 6e 8b c0
       -2.818782 3.055993 -4.121721 -4.357277
000350 de d8 82 40 ab 07 17 c0 13 37 9d c0 5d 6f 07 bf
       4.088973 -2.359843 -4.912973 -0.529043
000360 87 4e 1a c0 68 6c 0a c1 45 66 08 40 24 62 e0 bf
       -2.411043 -8.651466 2.131242 -1.752995
000370 dd 86 16 c1 3c 2d 46 40 ee 5e f2 bf 4d d9 ed c0
       -9.407926 3.096511 -1.893522 -7.432776
000380 04 02 c9 3f c2 dc 5e 40 88 5a f5 c0 0f df 8d 40
       1.570374 3.482224 -7.667301 4.433479
000390 f4 6c 72 40 56 1c cb c0 85 0a 98 40 84 bc fe be
       3.7879 -6.347209 4.751284 -0.497532
0003a0 33 52 0e c1 a8 e0 64 40 4f cc 3e bf 79 f8 de c0
       -8.895068 3.576212 -0.745305 -6.967831
0003b0 a8 71 0b 40 df 6d 12 40 3d 0c 01 c1 9e 28 7e 40
       2.178812 2.287956 -8.065488 3.971229
0003c0 e6 96 2d 40 09 5f ac c0 03 4d 91 40 e5 0b da bc
       2.712335 -5.386601 4.540651 -0.026617
0003d0 61 5e f4 c0 93 36 4c 40 cd 22 9e 3f d8 56 e4 c0
       -7.636521 3.190831 1.235437 -7.135601
0003e0 fb 5c 6f 40 de 59 bb 3f e3 18 b9 c0 53 42 81 40
       3.74005 1.46368 -5.784288 4.039346
0003f0 37 fa b8 3e 10 14 95 c0 db a4 77 40 7f 15 08 3f
       0.361284 -4.658699 3.869437 0.531578

qA f4 [224, 1]
000000 fc ba 48 be 6c 9a 46 be 42 b5 ea be cc bc e2 be
       -0.19602579 -0.19394845 -0.45841414 -0.44284666
000010 c0 a2 d8 3d 92 54 07 3e 10 f0 d7 3d 28 d4 02 3e
       0.10577917 0.13215855 0.10543835 0.12776244
000020 26 5e 14 3e 9e 88 1e 3e d4 5e f7 3d 4c 21 0d 3e
       0.1448904 0.15481803 0.12078634 0.13782233
000030 0e 6c 1b 3e 74 47 e1 3d 14 98 2b be fc 65 3e be
       0.15177938 0.10999957 -0.16757232 -0.18593591
000040 12 db e1 be 92 a0 e5 be 1c c3 e4 3d a8 3d da 3d
       -0.4411245 -0.44849068 0.11170027 0.10656291
000050 30 26 c9 3d a0 d3 15 3e 4a a6 05 3e c4 ff 07 3e
       0.09821737 0.1463151 0.13051715 0.1328116
000060 a0 04 ed 3d 74 61 12 3e e6 ad 26 3e 20 ad c3 3d
       0.11573148 0.14294988 0.16277274 0.09554505
000070 84 6a 25 be 94 4b 36 be 86 09 e1 be 1a f8 d8 be
       -0.16153914 -0.17802268 -0.43952578 -0.42376786
000080 1c 8a d6 3d ec 07 e8 3d 98 cc cb 3d b8 ff 1b 3e
       0.10475561 0.11329636 0.099511325 0.15234268
000090 f0 95 ff 3d fc 79 ee 3d f4 51 1f 3e a6 3a 0a 3e
       0.1247977 0.116443604 0.15558606 0.13498935
0000a0 f8 2e af 3d e8 bc ec 3d e8 4c 4a be 4c 88 31 be
       0.085538805 0.115594685 -0.197559 -0.1733715
0000b0 7e d6 dd be c4 15 e0 be 90 b6 e2 3d b0 53 ed 3d
       -0.43327707 -0.43766606 0.11069977 0.11588228
0000c0 34 64 d8 3d b8 7c 1a 3e 3c 27 09 3e 14 76 df 3d
       0.10565987 0.15086639 0.13393873 0.109111935
0000d0 2e 51 04 3e 1a 5c 16 3e 3a 35 00 3e 8c 6a ea 3d
       0.12921593 0.14683571 0.12520304 0.114461035
0000e0 20 af 34 be 80 d6 36 be e0 c6 d9 be f0 dd dd be
       -0.1764493 -0.17855263 -0.42534542 -0.43333387
0000f0 4c c4 f0 3d e0 0c d9 3d 30 18 ff 3d 6a 14 17 3e
       0.11756191 0.10598159 0.12455785 0.14753881
000100 04 cf d1 3d 66 73 07 3e c8 96 be 3d 64 06 1d 3e
       0.10244563 0.13227615 0.09306103 0.15334469
000110 d4 b5 0e 3e 28 c7 c7 3d 4c e2 2c be ac c8 5a be
       0.1393655 0.09754783 -0.168832 -0.21365613
000120 32 d6 dc be cc cf e2 be bc 67 e9 3d fc b9 07 3e
       -0.43132168 -0.4429916 0.11396739 0.13254541
000130 bc 80 e5 3d 20 be f7 3d b4 a9 1c 3e b0 70 db 3d
       0.11206195 0.1209681 0.15299112 0.10714853
000140 40 6f 00 3e d8 d9 08 3e b6 50 27 3e 40 db c1 3d
       0.12542439 0.13364351 0.16339383 0.09465647
000150 bc 6a 2c be 34 29 2a be 4e ff e7 be 3c 89 e1 be
       -0.16837591 -0.1661728 -0.4531197 -0.44050014
000160 e0 cc e2 3d a4 c8 e2 3d fc ce e9 3d f6 6b 17 3e
       0.11074233 0.110734254 0.11416432 0.14787278
000170 8c 0f 19 3e 28 49 e4 3d 1e d4 00 3e 48 b9 ff 3d
       0.14947337 0.11146766 0.12580916 0.124865115
000180 94 30 ec 3d 44 13 f1 3d f0 75 34 be a4 e2 38 be
       0.11532703 0.11771253 -0.17623115 -0.18055207
000190 7a 49 e7 be b6 e4 d9 be 74 23 bb 3d c0 61 c9 3d
       -0.45173246 -0.42557305 0.091376215 0.098330975
0001a0 28 7b fb 3d be c8 1d 3e 38 d9 03 3e 54 fe fa 3d
       0.122793496 0.15408608 0.12875831 0.122555405
0001b0 c4 d0 19 3e 60 b4 e3 3d f4 b2 07 3e e4 6a fa 3d
       0.15021044 0.11118388 0.13251859 0.12227419
0001c0 98 d3 44 be 94 9f 49 be f4 3e e6 be 04 fa dc be
       -0.19221342 -0.1968978 -0.44969904 -0.43159497
0001d0 40 4a f0 3d 24 6e e1 3d 74 32 f0 3d 42 69 01 3e
       0.11732912 0.11007336 0.11728373 0.12637809
0001e0 98 5f 1f 3e 64 28 0c 3e 54 ca ef 3d 50 3b 07 3e
       0.1556381 0.13687283 0.11708513 0.1320622
0001f0 a8 00 17 3e b4 ba e1 3d 1c e2 1d be 08 e4 32 be
       0.14746344 0.11021939 -0.15418285 -0.174698
000200 64 de df be 4a da ea be 38 c9 ed 3d 18 59 c7 3d
       -0.43724358 -0.45869666 0.11610645 0.0973379
000210 a8 9c eb 3d e8 5d ec 3d a8 20 15 3e 90 76 a4 3d
       0.11504489 0.11541349 0.14563239 0.080304265
000220 a6 c3 15 3e 10 fc 0a 3e 30 ee 20 3e b0 3e ed 3d
       0.14625415 0.13572717 0.15715861 0.11584222
000230 d4 23 3a be 6c 17 2a be 1a b0 de be e4 1e e6 be
       -0.1817773 -0.16610497 -0.4349373 -0.44945443
000240 8c 4a cf 3d c4 1b 02 3e cc aa d9 3d 22 74 12 3e
       0.101216406 0.12705904 0.1062828 0.14302114
000250 2c 3a 16 3e 88 c4 af 3d 78 f2 08 3e 1a fa 0d 3e
       0.14670628 0.08582407 0.13373744 0.13864937
000260 1a 4f 06 3e 60 ed f2 3d 04 d2 4d be 2c b7 36 be
       0.13116112 0.11861682 -0.20099646 -0.17843312
000270 30 16 e3 be 92 a3 dc be 60 43 01 3e fc 57 e8 3d
       -0.44352865 -0.43093544 0.12623358 0.11344907
000280 b8 c6 c7 3d 94 90 1e 3e 4c 47 bb 3d 72 26 1e 3e
       0.097546995 0.1548484 0.09144458 0.15444353
000290 68 7e ff 3d 3c 23 1d 3e 2c 07 08 3e 94 cb d6 3d
       0.12475282 0.15345472 0.13283986 0.10488048
0002a0 ac ca 39 be 8c 35 33 be aa 81 db be 26 19 df be
       -0.1814372 -0.17500895 -0.42872363 -0.43573874
0002b0 a8 58 da 3d e8 8b e6 3d a4 af b9 3d e2 1c 00 3e
       0.10661441 0.11257154 0.09066704 0.12511018
0002c0 42 04 14 3e 8e 65 13 3e 3a 6e 1f 3e 14 17 f9 3d
       0.14454749 0.14394209 0.15569392 0.12162605
0002d0 20 36 e8 3d e8 9f da 3d 34 de 42 be 00 ae 36 be
       0.113384485 0.10675031 -0.19030076 -0.17839813
0002e0 c4 ba e8 be d0 a9 da be cc e8 b8 3d bc cb d6 3d
       -0.4545499 -0.42707682 0.090287775 0.10488078
0002f0 b0 37 e8 3d 74 2b 1d 3e c0 c1 f4 3d d8 52 15 3e
       0.113387465 0.15348607 0.119510174 0.14582384
000300 58 12 0c 3e 28 30 fc 3d cc 3d 0d 3e c4 17 00 3e
       0.13678873 0.123138726 0.13793105 0.12509066
000310 0c 93 54 be bc fc 19 be 3a 6b de be 42 49 e7 be
       -0.20759219 -0.15037817 -0.43441182 -0.4517308
000320 30 20 b7 3d 30 88 cb 3d 00 e0 e0 3d 22 7c 06 3e
       0.08941686 0.09938085 0.109802246 0.1313329
000330 e6 9a 01 3e 28 71 22 3e 58 74 0a 3e ca 7d 15 3e
       0.12656745 0.15863478 0.13520944 0.14598766
000340 40 5a fa 3d 60 8d 00 3e 60 67 36 be 98 9f 3f be
       0.12224245 0.1255393 -0.17812872 -0.18713224
000350 44 9f e3 be f4 79 e0 be 90 47 df 3d b0 df ee 3d
       -0.44457448 -0.43843043 0.10902321 0.11663759
000360 3c 2c d2 3d 5e 57 18 3e f2 e6 13 3e 40 c9 f5 3d
       0.10262343 0.14877078 0.14443567 0.12001276
000370 ba 48 18 3e d8 b3 d9 3d ac b1 0b 3e 84 30 ec 3d
       0.14871493 0.106300056 0.13641995 0.11532691

muA f4 [224, 3]
000000 60 43 3f bd ce f5 a9 3d 30 18 f9 bc cc dd 2a 3d
       -0.046695113 0.08298837 -0.030407041 0.04171543
000010 54 93 98 3d 00 8a 11 ba 60 b3 01 bd e0 85 50 bd
       0.074499756 -0.00055518746 -0.031665206 -0.050908923
000020 d8 2f 7e 3d 88 f2 03 3d 94 6a 9e bd 18 09 4e bd
       0.062057346 0.032213718 -0.07735172 -0.05030164
000030 88 fc 1c 3d c0 2a 3f 3c d0 f5 16 3d e0 e3 b7 bc
       0.03832677 0.011667907 0.03685552 -0.022447526
000040 c0 02 04 3c 20 96 37 bd 00 b0 28 b9 80 b1 03 bd
       0.008057296 -0.044820905 -0.00016087294 -0.0321517
000050 e8 d4 35 3d 00 b8 4e ba b0 db 3c 3d 30 cf b0 3c
       0.044392496 -0.00078856945 0.046107948 0.02158317
000060 50 c9 3d 3d d0 8f bf bc 00 ee 97 bb a8 86 13 bd
       0.046334565 -0.023384005 -0.004636526 -0.03601709
000070 80 a0 01 bc 50 b4 ef bc 08 1c 49 bd 60 2f 1a bc
       -0.007911801 -0.029260784 -0.049099 -0.009410709
000080 00 13 23 3c 28 5a 0c 3d 80 57 14 bb d0 10 16 3d
       0.00995326 0.034265667 -0.0022635162 0.036637127
000090 80 f2 64 3b 30 b0 09 3d a0 04 09 bd 80 51 05 bb
       0.003493458 0.03361529 -0.033451676 -0.0020342767
0000a0 e8 62 3f bd d0 b6 c0 bc 30 fb b0 bc f0 70 ad 3d
       -0.046725184 -0.023524672 -0.02160415 0.08468807
0000b0 d8 ce 29 bd b0 14 14 3d 36 41 c1 3d 80 06 33 3c
       -0.041457027 0.03615254 0.09436266 0.010926843
0000c0 b0 35 01 bd 80 33 3b bd 96 0b 9d 3d e8 53 e2 3c
       -0.03154534 -0.04570341 0.076682255 0.0276279
0000d0 a8 11 81 bd a8 cd 55 bd b0 0e e3 3c 40 ea 2c 3c
       -0.06302196 -0.052198082 0.027716964 0.010553896
0000e0 d0 31 10 3d 60 a8 db bc 00 b0 97 39 d8 4c 35 bd
       0.035203755 -0.026813686 0.00028932095 -0.044262737
0000f0 80 95 31 bb a0 9c 0b bd 90 e4 1b 3d 80 2f 26 bb
       -0.0027097166 -0.034084916 0.03805977 -0.0025357902
000100 38 e2 1b 3d 80 af c2 3c f0 2d 3e 3d a0 eb 90 bc
       0.038057536 0.023765326 0.04643053 -0.01769048
000110 30 16 80 bc 38 fa 0e bd 00 f1 d3 bb e0 14 e0 bc
       -0.01563558 -0.034906596 -0.0064679384 -0.027353704
000120 78 a9 3f bd 80 fa eb bb 20 6c a8 3c b0 96 f9 3c
       -0.046792477 -0.007201493 0.02055937 0.030467361
000130 60 c5 35 bc 68 38 15 3d a0 95 1b 3c d0 8c ac 3c
       -0.011094421 0.036430746 0.009496123 0.021063238
000140 80 b8 28 bd 80 44 ad bb b0 39 2b bd 60 84 98 bc
       -0.041191578 -0.005287707 -0.041803062 -0.018617809
000150 b0 fe ff bc ee a6 9e 3d e0 f0 22 bd f0 1c 30 3d
       -0.031249374 0.07746683 -0.039780498 0.042996347
000160 2c 97 a8 3d 00 69 9e 3b 60 3a 49 bd 50 ad 15 bd
       0.08231959 0.0048342943 -0.049127936 -0.036542237
000170 48 ee a3 3d b0 f8 8f 3c b4 df b7 bd 08 5d 51 bd
       0.08004433 0.017574638 -0.08978215 -0.051114112
000180 30 11 e0 3c 60 9a 3d 3c 58 c2 14 3d 00 9b da bc
       0.027351946 0.01157245 0.036318153 -0.026685238
000190 00 b3 6b 3b 38 f4 25 bd 80 4a 38 bb 80 db e4 bc
       0.0035964847 -0.04051611 -0.0028120577 -0.027936697
0001a0 c8 c9 2a 3d e0 37 1e 3c 10 0f 24 3d 70 f5 9f 3c
       0.04169634 0.009656876 0.040053427 0.019526213
0001b0 58 0a 30 3d f0 3d 8b bc 00 5c 9b bb 30 55 07 bd
       0.042978615 -0.016997308 -0.004741192 -0.033040226
0001c0 c0 d4 51 bc 60 44 0e bd c8 43 36 bd 00 70 77 b9
       -0.012807071 -0.034733176 -0.044498235 -0.00023597479
0001d0 a0 2a 93 3c 70 ad 09 3d 80 16 a6 bb e0 92 02 3d
       0.017964661 0.03361267 -0.0050686 0.031878352
0001e0 80 db 2a 3c 78 38 19 3d f8 05 28 bd 00 dc bf ba
       0.010428309 0.03740737 -0.041021317 -0.0014637709
0001f0 e8 05 26 bd 20 09 bb bc 70 52 c7 bc d0 e7 9f 3d
       -0.040532976 -0.0228315 -0.024331301 0.078078866
000200 38 51 07 bd 30 be 22 3d e4 bf 9f 3d 40 07 66 3c
       -0.03303644 0.03973216 0.07800272 0.0140398145
000210 e0 9d cc bc a8 73 4f bd f2 52 b0 3d d8 51 02 3d
       -0.024977624 -0.050647408 0.086095706 0.031816334
000220 d8 6f a7 bd 18 cf 28 bd f0 93 db 3c 00 1c 9b 3c
       -0.081756294 -0.041213125 0.02680394 0.01893425
000230 80 d3 31 3d c0 db be bc c0 06 d2 3b e0 2f 27 bd
       0.043414593 -0.023298144 0.006409496 -0.04081714
000240 40 fd f3 3b a8 7e 1b bd e0 2e 00 3d 00 f2 22 bb
       0.0074459612 -0.037962586 0.031294703 -0.0024863482
000250 f0 73 1e 3d 80 57 c8 3c f8 6b 36 3d c0 42 64 bc
       0.038684785 0.024455786 0.04453656 -0.01393193
000260 e0 40 8e bc 60 c3 13 bd e0 49 4b bc 40 da fa bc
       -0.01736492 -0.036074996 -0.01240775 -0.030621648
000270 78 17 30 bd 80 9e f9 bb 40 d7 44 3c 20 5b fe 3c
       -0.04299113 -0.0076177716 0.01201421 0.031049311
000280 80 50 a2 bb 90 e3 04 3d 80 0a 43 3b 10 45 d9 3c
       -0.004953444 0.032443583 0.0029760897 0.02652219
000290 10 6d 25 bd 80 d2 68 bb 30 ba 3c bd 50 df fa bc
       -0.040387213 -0.0035525858 -0.046076 -0.030624062
0002a0 00 5d ec bc dc 4b ab 3d 78 3e 01 bd d8 35 73 3d
       -0.02885294 0.083640784 -0.031553715 0.05937752
0002b0 fc 15 70 3d c0 55 85 3b 48 47 3c bd 70 6f 4d bd
       0.058614716 0.00406906 -0.045966417 -0.050155103
0002c0 64 d9 a6 3d 78 de 28 3d 94 6f a4 bd 38 17 2f bd
       0.08146933 0.041227788 -0.08029094 -0.042746753
0002d0 a0 c6 fa 3c c0 68 7f 3c 30 03 12 3d f8 1c 01 bd
       0.03061229 0.015588939 0.03564757 -0.031521767
0002e0 c0 ef 40 3c 48 23 16 bd 80 c6 02 bc 50 80 ca bc
       0.011775911 -0.03665474 -0.007981896 -0.024719387
0002f0 90 f1 31 3d 00 b3 e9 ba 58 6a 09 3d 40 9e bd 3c
       0.043443263 -0.0017829835 0.033548683 0.023146749
000300 a8 89 39 3d 30 d5 91 bc 80 ec db bb a0 8a fd bc
       0.045297295 -0.017801851 -0.0067115426 -0.03094989
000310 00 f3 e5 bb 20 ed eb bc 28 eb 4c bd 80 c7 67 bb
       -0.0070174932 -0.028799593 -0.05002895 -0.0035366714
000320 40 f6 88 3c a0 a7 e8 3c 00 f8 90 3a 30 ee 0e 3d
       0.016718984 0.028400242 0.0011060238 0.034895122
000330 60 6e 16 3c 60 98 e3 3c 98 b5 10 bd 80 cf 42 bc
       0.009181589 0.027782619 -0.03532943 -0.011890292
000340 f0 73 26 bd 10 e7 c6 bc 48 20 02 bd a2 26 a7 3d
       -0.04063791 -0.024280101 -0.031769067 0.081616655
000350 f8 2a 1d bd 4c be 3f 3d 9e d7 9b 3d 80 24 3b bc
       -0.038371056 0.04681234 0.07609485 -0.0114222765
000360 40 64 ca bc 70 f1 7c bd 3c 3b a3 3d d0 01 de 3c
       -0.024706006 -0.06175369 0.079702824 0.027100474
000370 4c 58 89 bd 40 7b 62 bd 70 a7 e5 3c 60 cc 64 3c
       -0.067062944 -0.05529332 0.028033942 0.013964742
000380 78 49 1a 3d f0 ab 0d bd c0 05 a4 3b e0 f1 2c bd
       0.03766772 -0.0345878 0.0050055683 -0.042222857
000390 00 85 49 3b 80 45 00 bd b8 26 3a 3d 40 53 e7 bb
       0.003074944 -0.03131628 0.04544708 -0.0070594847
0003a0 38 e6 2d 3d 80 8d a7 3c 18 15 2b 3d a0 23 90 bc
       0.04245588 0.020453215 0.041768163 -0.017595112
0003b0 80 4d dc bb 60 5d 0a bd c0 b3 d5 bb e8 f8 03 bd
       -0.006723106 -0.033780456 -0.006521672 -0.032219797
0003c0 88 2e 42 bd a0 3f 29 bc 20 4d 20 3c 00 e4 fe 3c
       -0.047407657 -0.010330111 0.009784013 0.031114578
0003d0 00 d6 54 3a 20 b1 24 3d 60 45 2f 3c 40 7d cc 3c
       0.00081190467 0.040207982 0.010697693 0.024962068
0003e0 30 89 11 bd e0 a4 00 bc b0 4f 35 bd 20 70 a7 bc
       -0.035531223 -0.007851809 -0.04426545 -0.020439208
0003f0 b8 69 07 bd 6e be 8c 3d a0 aa 08 bd 38 cc 34 3d
       -0.033059806 0.06872259 -0.033365846 0.04414007

quadA f4 [224, 3, 3]
000000 13 d5 15 bd 60 e4 22 3c 40 9b 11 3c 60 e4 22 3c
       -0.036580157 0.009942144 0.008887112 0.009942144
000010 f2 bd 91 3c d0 e4 3b 3d 40 9b 11 3c d0 e4 3b 3d
       0.017790768 0.04587251 0.008887112 0.04587251
000020 32 ec 99 3c 6c ea 15 bc 70 cf 81 bc 90 c1 20 3c
       0.018789385 -0.009150129 -0.015845984 0.009811774
000030 70 cf 81 bc 4e cf e2 bc 18 25 ea bc 90 c1 20 3c
       -0.015845984 -0.027686741 -0.02858214 0.009811774
000040 18 25 ea bc 41 e2 16 3d 1e 4d c2 3c 00 33 14 bc
       -0.02858214 0.036836866 0.023718413 -0.0090453625
000050 c0 65 25 bc 00 33 14 bc d2 32 a9 bc 30 12 26 3d
       -0.01009506 -0.0090453625 -0.020654116 0.04054469
000060 c0 65 25 bc 30 12 26 3d 54 d2 48 bb 58 56 d4 3c
       -0.01009506 0.04054469 -0.0030642943 0.025920078
000070 00 50 57 38 40 85 37 bb 00 50 57 38 14 b0 29 bd
       5.13345e-05 -0.0028003007 5.13345e-05 -0.041427687
000080 84 f8 09 bd 40 85 37 bb 84 f8 09 bd a0 13 7e 3c
       -0.03368427 -0.0028003007 -0.03368427 0.015507609
000090 28 1e bd 3a a0 42 8a bb f0 68 37 bc a0 42 8a bb
       0.0014428543 -0.004219368 -0.011194453 -0.004219368
0000a0 54 ee 1d 3b 00 67 c5 bb f0 68 37 bc 00 67 c5 bb
       0.0024098353 -0.0060242414 -0.011194453 -0.0060242414
0000b0 6c 7d 7c bb 56 29 4f bb 60 ab 87 bb e0 63 54 bc
       -0.0038526906 -0.0031610331 -0.0041403025 -0.012963265
0000c0 60 ab 87 bb 55 76 ab 3b 80 aa c0 ba e0 63 54 bc
       -0.0041403025 0.005232612 -0.001469925 -0.012963265
0000d0 80 aa c0 ba 56 c3 07 bb 16 1d de 3b a0 9b cf bb
       -0.001469925 -0.0020715795 0.0067783697 -0.0063356906
0000e0 a0 5e 9c 3b a0 9b cf bb 14 04 6f bb 30 4e 7f 3c
       0.0047720224 -0.0063356906 -0.0036470937 0.015582606
0000f0 a0 5e 9c 3b 30 4e 7f 3c 14 36 4d bb 00 fa 46 3b
       0.0047720224 0.015582606 -0.003131275 0.0030361414
000100 00 80 75 39 00 7d 5e bb 00 80 75 39 60 2a 48 bc
       0.00023412704 -0.0033949018 0.00023412704 -0.012217134
000110 c0 64 95 bb 00 7d 5e bb c0 64 95 bb e0 6b 16 3c
       -0.0045591295 -0.0033949018 -0.0045591295 0.009180993
000120 0b b8 e6 bb 80 fc d9 3a e0 4a ae 3b 80 fc d9 3a
       -0.0070409826 0.0016631037 0.0053189844 0.0016631037
000130 15 2f b5 3b c0 79 27 bb e0 4a ae 3b c0 79 27 bb
       0.0055292943 -0.0025554746 0.0053189844 -0.0025554746
000140 d5 23 c6 3a 40 14 5f bb 40 31 7f 3b a0 7b d6 bb
       0.001511688 -0.003403917 0.0038939267 -0.006545499
000150 40 31 7f 3b 00 cb 9a 3b 40 71 89 bb a0 7b d6 bb
       0.0038939267 0.0047239065 -0.0041944087 -0.006545499
000160 40 71 89 bb 80 03 ad ba 9b 19 11 bc c0 5f c5 3b
       -0.0041944087 -0.0013199896 -0.0088562025 0.006023377
000170 30 48 08 3c c0 5f c5 3b ca bd ff 3b 00 16 96 39
       0.008317992 0.006023377 0.007804607 0.0002862662
000180 30 48 08 3c 00 16 96 39 aa d5 89 3a ab 9a 94 bb
       0.008317992 0.0002862662 0.0010515947 -0.0045350394
000190 e0 53 83 bb a0 0c de bb e0 53 83 bb 7b 4c 18 3c
       -0.0040078014 -0.0067764074 -0.0040078014 0.009295578
0001a0 c0 e4 02 3b a0 0c de bb c0 e4 02 3b 4b fe 9b bb
       0.0019972771 -0.0067764074 0.0019972771 -0.0047605387
0001b0 aa e9 9b ba 40 e0 4a bb 00 2d 4b ba 40 e0 4a bb
       -0.0011895199 -0.0030956417 -0.0007750541 -0.0030956417
0001c0 54 a0 60 ba 70 ac 28 3c 00 2d 4b ba 70 ac 28 3c
       -0.00085688126 0.010295019 -0.0007750541 0.010295019
0001d0 eb 1c 06 3b 20 93 97 3b c0 71 70 3b 00 c7 1c bb
       0.0020464014 0.004625693 0.0036688894 -0.0023922324
0001e0 c0 71 70 3b 00 2e 25 bc 10 31 03 bc 00 c7 1c bb
       0.0036688894 -0.010081768 -0.008007303 -0.0023922324
0001f0 10 31 03 bc e0 c8 b2 3b b8 bb fb bc 50 89 7e 3c
       -0.008007303 0.005456075 -0.03072916 0.015535668
000200 dc e4 00 3d 50 89 7e 3c 30 22 82 3c d0 94 20 3d
       0.031468257 0.015535668 0.015885442 0.03920442
000210 dc e4 00 3d d0 94 20 3d 10 33 73 3c 6c 86 69 bd
       0.031468257 0.03920442 0.014843717 -0.05701296
000220 98 d9 8e bc f0 af 4d 3c 98 d9 8e bc a0 b5 bd bb
       -0.017437741 0.012554154 -0.017437741 -0.0057894737
000230 e0 3e c3 bc f0 af 4d 3c e0 3e c3 bc 90 9e 80 3d
       -0.023833692 0.012554154 -0.023833692 0.062802434
000240 f0 2a e3 3c 90 43 08 bc b0 1a 1e 3c 90 43 08 bc
       0.027730435 -0.008316889 0.0096499175 -0.008316889
000250 00 2c 1d bc a0 5f 46 3d b0 1a 1e 3c a0 5f 46 3d
       -0.00959301 0.04843104 0.0096499175 0.04843104
000260 f0 94 94 bc 18 b0 37 3d 80 e3 cc ba 40 0a 5f bb
       -0.018137425 0.04484567 -0.0015631765 -0.003403321
000270 80 e3 cc ba 6c f9 9e bd 9c 38 2c bd 40 0a 5f bb
       -0.0015631765 -0.07762417 -0.042046174 -0.003403321
000280 9c 38 2c bd c0 42 06 3d 6c 70 20 3b 00 db 40 ba
       -0.042046174 0.0327785 0.002448107 -0.00073568523
000290 00 21 39 bc 00 db 40 ba b0 21 79 3a 40 3f 09 bb
       -0.011299372 -0.00073568523 0.0009503616 -0.002094224
0002a0 00 21 39 bc 40 3f 09 bb d4 b8 5e bb 94 28 6f bb
       -0.011299372 -0.002094224 -0.0033984678 -0.0036492692
0002b0 c0 e6 04 bb 30 81 64 bc c0 e6 04 bb 2b ae 13 3c
       -0.002027914 -0.013946816 -0.002027914 0.009013693
0002c0 80 b2 ac 3a 30 81 64 bc 80 b2 ac 3a 0a c8 af bb
       0.0013175756 -0.013946816 0.0013175756 -0.0053644227
0002d0 16 5e a8 3b 20 b8 0b bc c0 69 c8 3b 20 b8 0b bc
       0.005138169 -0.008527786 0.006116122 -0.008527786
0002e0 a8 63 e0 ba b0 82 94 3c c0 69 c8 3b b0 82 94 3c
       -0.0017119544 0.018128723 0.006116122 0.018128723
0002f0 54 8a 60 bb ab 68 ec 3a 00 55 f8 3a 80 86 9b bb
       -0.0034262137 0.0018036565 0.001894623 -0.0047462583
000300 00 55 f8 3a fb 1b 29 bc 80 c5 6a bb 80 86 9b bb
       0.001894623 -0.0103216125 -0.0035823286 -0.0047462583
000310 80 c5 6a bb e5 8e 0b 3c 90 2e 31 bc c0 03 24 3b
       -0.0035823286 0.008517955 -0.010814324 0.002502665
000320 a0 5e f8 3b c0 03 24 3b 80 72 f5 3b 40 83 b9 bb
       0.0075796396 0.002502665 0.007490456 -0.005661398
000330 a0 5e f8 3b 40 83 b9 bb 40 d5 59 3b 00 ee 8a ba
       0.0075796396 -0.005661398 0.003323868 -0.0010599494
000340 a0 ec 9b 3b d0 89 2d bc a0 ec 9b 3b 40 d7 71 3b
       0.0047584325 -0.010591939 0.0047584325 0.003690198
000350 80 1c 7d bb d0 89 2d bc 80 1c 7d bb 40 60 2c bb
       -0.0038621724 -0.010591939 -0.0038621724 -0.0026302487
000360 db 22 3d bc 00 f2 94 3b 40 75 09 3c 00 f2 94 3b
       -0.011543955 0.00454545 0.008389771 0.00454545
000370 a5 36 33 3c 80 2c 03 3b 40 75 09 3c 80 2c 03 3b
       0.010938321 0.0020015538 0.008389771 0.0020015538
000380 54 c3 1e 3a 2b 5e 33 bb 00 9d a0 bb 00 05 d6 bb
       0.0006056328 -0.002736936 -0.0049015284 -0.0065313578
000390 00 9d a0 bb d5 99 01 3c 00 fb b3 3a 00 05 d6 bb
       -0.0049015284 0.007910212 0.001373142 -0.0065313578
0003a0 00 fb b3 3a 95 84 a9 bb b0 b2 33 39 e0 76 8e bb
       0.001373142 -0.0051732757 0.00017137337 -0.004347667
0003b0 00 35 e2 ba e0 76 8e bb 55 eb 47 bb 60 66 0c 3c
       -0.0017258227 -0.004347667 -0.003050526 0.00856933
0003c0 00 35 e2 ba 60 66 0c 3c 2b b0 3c 3b 95 d0 30 3c
       -0.0017258227 0.00856933 0.0028791528 0.010791917
0003d0 40 fb ac 3b a0 c9 b8 bb 40 fb ac 3b 86 91 9a bc
       0.005278975 -0.00563927 0.005278975 -0.01886822
0003e0 e0 bb 23 bc a0 c9 b8 bb e0 bb 23 bc 75 52 04 3c
       -0.009993523 -0.00563927 -0.009993523 0.0080763
0003f0 9f cf 24 bd 18 a0 81 3c f0 47 77 3c 18 a0 81 3c
       -0.040237065 0.015823409 0.015092835 0.015823409

hfvrA f4 [224, 1]
000000 43 85 80 3f e0 45 7e 3f 1f 6d 90 3f 76 ef 8f 3f
       1.0040668 0.9932537 1.1283301 1.1244953
000010 b4 27 c6 3e 60 47 a2 3e ea 16 d3 3e 76 7f be 3e
       0.38702166 0.3169508 0.4122842 0.3720662
000020 26 b1 ad 3e 42 26 a4 3e 14 3e c6 3e e0 62 b5 3e
       0.33924216 0.32060438 0.38719237 0.35426998
000030 20 ff a5 3e 4c 22 bc 3e 2b 4f 79 3f 7a 6a 81 3f
       0.32421207 0.36744916 0.97386426 1.0110619
000040 26 fd 8e 3f ae 23 8f 3f 54 01 b3 3e f4 5c d1 3e
       1.1171005 1.1182764 0.3496195 0.4089123
000050 4a 58 e6 3e 8a 0f a9 3e 64 4e c2 3e 5e 10 b7 3e
       0.44989234 0.33019668 0.37950432 0.35754675
000060 96 6f cd 3e c8 fb af 3e 8c b6 9b 3e 98 3e d1 3e
       0.40124196 0.3437178 0.3041271 0.40868068
000070 34 e1 76 3f 9e b6 7b 3f 88 6f 92 3f 8c 02 90 3f
       0.9643738 0.98325527 1.1440287 1.1250777
000080 2a 5d bf 3e b0 7e bc 3e ea ab d0 3e 3e 1e a8 3e
       0.37375766 0.36815405 0.4075616 0.32835573
000090 64 3e ca 3e 20 17 d8 3e 32 fd 9d 3e c2 32 ba 3e
       0.39500725 0.42205143 0.30857235 0.3636685
0000a0 9a 55 ee 3e 94 b4 ad 3e ab 27 82 3f e8 9d 79 3f
       0.46549684 0.33926833 1.0168356 0.9750657
0000b0 99 24 8f 3f b5 57 8e 3f b2 c2 ca 3e d0 2f b1 3e
       1.1183044 1.1120516 0.39601666 0.3460679
0000c0 40 86 b7 3e ba 2e a5 3e ec 86 b8 3e 54 9e d3 3e
       0.35844612 0.32262212 0.36040437 0.41331732
0000d0 4e b5 bc 3e d0 a7 a9 3e a8 c3 bd 3e 9c ce c3 3e
       0.36857074 0.33135843 0.37063336 0.38243568
0000e0 b9 be 7a 3f 78 5e 7a 3f 12 6d 8e 3f 41 77 90 3f
       0.9794727 0.978004 1.1127036 1.1286393
0000f0 1e 93 b1 3e 26 de b9 3e ea 2e a0 3e 44 bd a4 3e
       0.34682554 0.36302298 0.31285793 0.32175648
000100 4c cc db 3e 1e f9 b8 3e 42 e3 e2 3e 62 4e a0 3e
       0.42929304 0.3612756 0.4431401 0.313098
000110 e4 87 b1 3e d6 36 d2 3e 4b e0 7a 3f bf 5c 82 3f
       0.3467399 0.41057462 0.97998494 1.0184554
000120 74 b4 8e 3f 96 47 8e 3f 08 54 b3 3e d4 62 a8 3e
       1.114882 1.1115596 0.35025048 0.328879
000130 30 3a c7 3e f4 93 c0 3e ec 15 9f 3e 48 c2 d5 3e
       0.3891158 0.3761288 0.31071413 0.41749787
000140 84 29 bc 3e 06 d7 b6 3e 98 59 92 3e 6e d2 d1 3e
       0.36750424 0.35710925 0.2858398 0.40980858
000150 6b 8d 79 3f 9a ec 76 3f 67 08 92 3f c3 43 95 3f
       0.9748141 0.96454775 1.1408814 1.1661304
000160 84 9e b5 3e 48 3a b7 3e c4 76 ab 3e 9e 87 ac 3e
       0.354725 0.35786653 0.33489048 0.33697218
000170 b6 b9 a8 3e a4 0a d3 3e 36 ac c7 3e 48 39 c9 3e
       0.32954186 0.41219056 0.38998574 0.39301515
000180 48 23 cf 3e 40 97 a5 3e 2d 0e 7e 3f cd 79 7b 3f
       0.40456605 0.32341957 0.9924038 0.9823273
000190 6a 2f 93 3f eb bc 8c 3f 20 0f df 3e da a7 d8 3e
       1.1498845 1.0995153 0.43566227 0.4231556
0001a0 70 b4 a3 3e f0 53 a6 3e 44 a8 c7 3e 38 88 cb 3e
       0.319736 0.32485914 0.38995564 0.39752364
0001b0 84 32 9d 3e 32 aa ce 3e 3a 0b b4 3e ee fb ab 3e
       0.30702603 0.40364224 0.35164815 0.33590645
0001c0 c1 3a 7d 3f c0 13 7e 3f 38 f2 8d 3f e3 46 8d 3f
       0.98917776 0.99248886 1.1089544 1.1037258
0001d0 e0 de b0 3e 4a 97 bb 3e c2 0d ae 3e 66 f6 b5 3e
       0.3454504 0.36638862 0.3399487 0.3553955
0001e0 ee 50 96 3e 0a f0 ac 3e ee f1 c5 3e f8 38 af 3e
       0.2935862 0.33776885 0.3866114 0.3422315
0001f0 02 5d 9e 3e 04 4c b1 3e e6 bb 71 3f 3a 6e 7e 3f
       0.30930334 0.34628308 0.94427335 0.9938694
000200 19 c7 94 3f 4d 88 8e 3f 0c 60 af 3e 24 c5 d0 3e
       1.162326 1.1135346 0.34252965 0.40775406
000210 30 4e ac 3e e2 bf cd 3e 64 cf ad 3e ba 37 ea 3e
       0.33653402 0.40185457 0.3394729 0.4574564
000220 fc 78 ac 3e 1c c7 b6 3e 74 da 9e 3e 34 94 a5 3e
       0.33686054 0.35698783 0.31026042 0.32339633
000230 ba bd 7b 3f a7 f8 78 3f 11 ff 90 3f 8c 16 94 3f
       0.98336375 0.97254413 1.132784 1.1569381
000240 b4 0f ce 3e b6 46 a2 3e d0 ee c3 3e 12 df af 3e
       0.40246356 0.31694573 0.38268137 0.34349877
000250 0c 7a ae 3e f4 45 e6 3e 9c 9e bd 3e 8c ea b7 3e
       0.3407749 0.44975245 0.37035072 0.35921133
000260 5a f5 c5 3e 94 75 ab 3e 58 03 80 3f dc 82 7b 3f
       0.3866375 0.33488142 1.000102 0.9824655
000270 be d0 8f 3f e2 d2 8a 3f c0 86 ad 3e 9e c7 b7 3e
       1.1235578 1.0845606 0.3389187 0.35894483
000280 80 9e ca 3e f4 06 a1 3e c2 d9 e4 3e 68 c7 a5 3e
       0.3957405 0.31450617 0.44697386 0.32378697
000290 80 f1 b5 3e 1e 47 9e 3e 5c ee b0 3e b0 05 cc 3e
       0.35535812 0.30913633 0.34556854 0.3984809
0002a0 f4 d8 7c 3f c8 84 7c 3f 5e d8 8c 3f a8 1f 91 3f
       0.98768544 0.9864011 1.100353 1.1337786
0002b0 9a 2c cb 3e 3a 7c b9 3e 30 28 e1 3e f2 87 ba 3e
       0.39682466 0.3622759 0.43975973 0.36431843
0002c0 1c 16 a8 3e 8c f3 ae 3e f8 bc a7 3e 6c f8 c8 3e
       0.32829368 0.34170187 0.3276136 0.3925203
0002d0 8c aa d0 3e 00 de c5 3e 7e d9 7e 3f 00 6d 79 3f
       0.40755117 0.38645935 0.99550617 0.97431946
0002e0 a1 53 91 3f 04 6c 8c 3f 8c b8 dc 3e 66 a9 c3 3e
       1.1353647 1.0970464 0.43109548 0.38215178
0002f0 80 06 ae 3e a2 8b a0 3e c2 39 cc 3e 8c 18 af 3e
       0.33989334 0.3135653 0.39887816 0.34198415
000300 02 73 af 3e 98 87 b9 3e be df ae 3e 1e 30 a0 3e
       0.34267431 0.36236262 0.34155077 0.3128671
000310 1b eb 81 3f 4c 31 74 3f 42 a4 8b 3f c2 53 92 3f
       1.0149873 0.9538772 1.0909503 1.1431811
000320 d6 bf db 3e 8c 73 b5 3e 14 79 ac 3e 1a 2b b2 3e
       0.42919797 0.35439718 0.33686125 0.3479851
000330 74 97 b7 3e e8 ab 91 3e b0 21 c2 3e 36 c9 ae 3e
       0.35857737 0.28451467 0.37916327 0.34137887
000340 f2 13 cc 3e b2 e8 9d 3e 50 e5 7b 3f 48 12 7d 3f
       0.39858967 0.30841595 0.9839678 0.9885602
000350 46 59 8e 3f 40 63 8f 3f 82 a7 b7 3e 50 de b3 3e
       1.1120994 1.1202164 0.35869986 0.35130548
000360 12 a8 c3 3e 7a 59 a3 3e 04 51 a8 3e 9c ad c7 3e
       0.38214165 0.31904203 0.3287431 0.3899964
000370 c8 19 a5 3e 66 45 d2 3e 70 f5 b5 3e 26 b3 ad 3e
       0.32246232 0.41068572 0.35538816 0.33925742

vwA f4 [224, 1]
000000 0c 3d 03 3f 7e de 02 3f c3 64 06 3f d8 2f 06 3f
       0.51265025 0.51120746 0.524975 0.52416754
000010 3c ce c9 3e ad 80 bf 3e b7 17 cd 3e 0d 29 ca 3e
       0.39415157 0.3740286 0.40057155 0.39484444
000020 56 af c4 3e 50 2a c1 3e 8f 53 cb 3e eb d4 c6 3e
       0.3841502 0.37727594 0.39712188 0.3883432
000030 db c3 c1 3e e4 56 c6 3e 8c e2 01 3f 16 8e 03 3f
       0.37844738 0.38738167 0.5073631 0.5138868
000040 db bb 05 3f 0f a6 05 3f 5c fa c3 3e 95 11 cc 3e
       0.5223977 0.5220651 0.38276947 0.39857164
000050 6d e2 d1 3e 55 2f c2 3e 20 0c ca 3e 50 97 c6 3e
       0.40993062 0.37926736 0.39462376 0.38787317
000060 1c aa cc 3e 7f a6 c4 3e 2c 3c be 3e 55 9a ca 3e
       0.39973533 0.38408276 0.37155282 0.3957087
000070 5a 56 01 3f 08 3b 02 3f ea 90 06 3f 88 00 06 3f
       0.5052239 0.50871325 0.5256487 0.5234456
000080 c9 b4 c6 3e 46 ae c6 3e 26 5d cb 3e 30 de c2 3e
       0.38809803 0.38804835 0.39719504 0.3806014
000090 8f bb c9 3e d2 7c d0 3e 2d 22 bf 3e 69 8b c7 3e
       0.39400908 0.4072023 0.37330762 0.3897355
0000a0 e5 9d d3 3e 49 c8 c2 3e e3 a1 03 3f 57 e9 01 3f
       0.413314 0.3804343 0.51418895 0.50746673
0000b0 72 e2 05 3f a6 8d 05 3f 81 00 c9 3e 8c 40 c3 3e
       0.52298653 0.52169263 0.39258197 0.38135183
0000c0 39 20 c5 3e ca 17 c1 3e eb 44 c7 3e 57 2c ce 3e
       0.38501146 0.37713462 0.38919768 0.40268204
0000d0 e4 ca c7 3e 4e 65 c2 3e 82 33 ca 3e 87 dd c8 3e
       0.3902198 0.37967914 0.39492422 0.39231512
0000e0 84 1d 02 3f 08 d5 01 3f 49 5e 05 3f 23 22 06 3f
       0.5082629 0.50715685 0.5209699 0.5239584
0000f0 c8 90 c3 3e 6e 4b c6 3e 82 3c be 3e 4f ac c0 3e
       0.38196397 0.38729423 0.3715554 0.3763146
000100 f7 6f d0 3e 29 61 c7 3e 31 b6 d1 3e 76 dc be 3e
       0.40710422 0.38941315 0.40959314 0.37277573
000110 bc e9 c5 3e 40 77 cb 3e 73 27 02 3f 1b 96 03 3f
       0.38654888 0.39739418 0.50841445 0.5140092
000120 e4 98 05 3f 68 86 05 3f 63 45 c4 3e a5 f9 c1 3e
       0.5218642 0.5215821 0.38334188 0.37885776
000130 3a e6 c9 3e d8 13 ca 3e 2b 8b bf 3e 2f fe cd 3e
       0.3943346 0.39468265 0.37410864 0.4023299
000140 5e 07 c8 3e 74 44 c7 3e dc 7f ba 3e 53 ce cb 3e
       0.3906812 0.38919413 0.36425674 0.3980585
000150 fe 9d 01 3f 7c 5d 01 3f c8 a7 06 3f c1 a6 07 3f
       0.506317 0.5053327 0.52599764 0.5298882
000160 1c ba c4 3e 5d 31 c5 3e f0 01 c2 3e 78 aa c4 3e
       0.3842324 0.38514224 0.37892103 0.38411307
000170 97 3f c2 3e 31 d2 ce 3e f0 99 ca 3e 66 93 cb 3e
       0.3793914 0.40394738 0.3957057 0.39760894
000180 ec 30 cf 3e ce 8e c0 3e d7 d2 02 3f 7e 2b 02 3f
       0.40467012 0.3760895 0.51102966 0.50847614
000190 c6 0c 07 3f 5e f4 04 3f 85 b4 d0 3e 8c d6 cd 3e
       0.52753866 0.51935375 0.40762725 0.4020275
0001a0 d7 f6 c0 3e 6a b8 c2 3e f9 ff cb 3e 15 98 cd 3e
       0.37688324 0.38031322 0.3984373 0.40155092
0001b0 bc 73 be 3e 45 b7 cc 3e a8 24 c6 3e cf 6f c3 3e
       0.37197673 0.39983574 0.38699841 0.3817124
0001c0 e5 8b 02 3f cf a6 02 3f 35 32 05 3f 15 e7 04 3f
       0.5099471 0.5103578 0.52029735 0.51915103
0001d0 ff f8 c2 3e 10 75 c6 3e 01 b1 c3 3e 00 a8 c6 3e
       0.38080594 0.38761187 0.3822098 0.3880005
0001e0 7f 66 bc 3e 51 2c c3 3e 1a c7 ca 3e 1f 2b c4 3e
       0.36796948 0.38119748 0.39605027 0.3831415
0001f0 c9 dc bd 3e 74 80 c3 3e 8f 7d 00 3f aa 7d 02 3f
       0.37082508 0.3818394 0.5019159 0.50973
000200 fd 52 07 3f 0a 81 05 3f 3e b0 c2 3e 2e bb cb 3e
       0.52861005 0.52150023 0.38025087 0.39791244
000210 64 77 c3 3e 52 74 cd 3e 20 52 c4 3e 7a 7e d3 3e
       0.38177025 0.40127808 0.38343906 0.4130743
000220 47 94 c3 3e 56 a2 c6 3e 08 7f be 3e 1a 65 bf 3e
       0.38199064 0.38795727 0.37206292 0.37381822
000230 99 2d 02 3f eb a9 01 3f ef 74 06 3f 52 82 07 3f
       0.50850827 0.506499 0.52522177 0.5293323
000240 c5 ec ca 3e ff 9d be 3e 4d 46 c8 3e bd 2f c5 3e
       0.39633766 0.37229916 0.39116135 0.38512984
000250 d0 b7 c4 3e 6c a0 d2 3e 5b 55 c8 3e c6 57 c7 3e
       0.38421488 0.41138017 0.3912762 0.38934153
000260 dd c8 cc 3e 94 99 c2 3e f4 0b 03 3f ee 62 02 3f
       0.39996997 0.38007796 0.51190114 0.50932205
000270 be 12 06 3f da 39 04 3f 0c 18 c3 3e a5 a9 c5 3e
       0.5237235 0.51650774 0.38104284 0.3860599
000280 b9 a9 c9 3e 7c 91 bf 3e 5b cf d0 3e d1 c3 c1 3e
       0.393873 0.37415683 0.407832 0.3784471
000290 d6 45 c6 3e aa e8 bd 3e c5 f9 c4 3e b0 53 ca 3e
       0.38725156 0.3709157 0.3847181 0.39516973
0002a0 d3 9e 02 3f e5 9c 02 3f 59 d3 04 3f bb 76 06 3f
       0.51023597 0.5102065 0.5188499 0.5252492
0002b0 d3 02 ca 3e b4 ef c5 3e 32 0b d0 3e 46 cc c7 3e
       0.3945528 0.3865944 0.4063354 0.39023036
0002c0 e3 b0 c1 3e e2 3b c4 3e 52 07 c3 3e f9 9f cb 3e
       0.37830266 0.38326937 0.38091522 0.39770487
0002d0 e9 29 ce 3e b7 cf c8 3e da d6 02 3f b7 d3 01 3f
       0.4026635 0.39220974 0.5110909 0.50713676
0002e0 9c 64 06 3f 60 ba 04 3f 4c 65 cf 3e 1d ce c7 3e
       0.5249727 0.51846886 0.4050697 0.3902444
0002f0 83 31 c3 3e b8 6f c0 3e 6b f8 cc 3e 8b cb c4 3e
       0.38123712 0.37585235 0.40033278 0.3843654
000300 73 36 c4 3e 54 19 c7 3e 1c 26 c4 3e 26 50 bf 3e
       0.3832279 0.3888651 0.38310325 0.37365836
000310 4a b3 03 3f 41 2b 01 3f d8 58 04 3f 41 ba 06 3f
       0.5144545 0.50456625 0.51698065 0.5262795
000320 8f ba ce 3e 0d 6e c4 3e f0 1a c1 3e 34 f4 c5 3e
       0.40376708 0.38365212 0.37715864 0.38662875
000330 19 84 c6 3e a1 f0 b8 3e 6e 0f c9 3e 7f 2b c4 3e
       0.38772658 0.36121085 0.39269584 0.38314435
000340 e1 2d ce 3e c0 e1 be 3e 46 38 02 3f 2f 83 02 3f
       0.40269378 0.3728161 0.50867116 0.5098142
000350 36 64 05 3f 58 01 06 3f 4c 4a c5 3e 58 0d c4 3e
       0.52106035 0.523458 0.38533247 0.3829143
000360 53 16 c7 3e 20 23 c0 3e 66 2a c2 3e 82 8e cb 3e
       0.3888422 0.37526798 0.37922972 0.39757162
000370 e0 70 c1 3e c6 d2 cd 3e c0 15 c7 3e 1a 53 c3 3e
       0.3778143 0.4019987 0.3888378 0.3814934
