tests/test_data_path/og_processed/dimer_ap3_train_spec_7_533.pt (torch, 122962 bytes, 17 tensors)

y f4 [16, 4]
00000000: 2e25 4940 57e8 bb3b d6e2 c5bf b3b7 2abe
00000010: d80b 76c0 fdee b73d 5272 59c0 f364 10bf
00000020: 6a36 20c1 1ecb fb3b 5f76 e6bf ae18 59be
00000030: e6c8 a1c0 76ef 6538 b64d 0fbf 49fc eebc
00000040: dd9e 2841 6d6c a23d 0179 26c0 5539 c5be
00000050: e5d8 74c1 ad5b 0940 c55b ebc0 1228 e4bf
00000060: df0d 61c0 6279 e139 9863 51bf 809d 56bd
00000070: a490 a8c0 e302 0439 65f4 2ebf edd1 06bd
00000080: 11fb 94c1 eade 2540 0909 06c1 1fa3 32c0
00000090: 78a0 4641 2ac8 513e 9b9d 68c0 63d8 19bf
000000a0: 67ee a040 87b4 0a3c be15 cabf 17fd 0dbe
000000b0: 0795 cfc0 deb1 1c3b 89bb b2bf 7f43 0ebe
000000c0: caa3 b240 916a 1d41 4778 3ac1 b66d 9ac0
000000d0: b60c ce3e 1b73 be41 599a 5dc1 3eeb 01c1
000000e0: a2f9 1b41 89d4 5240 5338 b5c0 93c1 02c0
000000f0: 455a 92c1 aa5f 0f42 e9f6 62c1 4435 f0c0
3.1428943 0.005734484 -1.545985 -0.16671638 -3.844473 0.0898113 -3.3976026 -0.56404036
-10.013285 0.0076841256 -1.8004874 -0.21200821 -5.0557737 5.482087e-05 -0.5597795 -0.029173033
10.538785 0.07930837 -2.6011355 -0.38520303 -15.302953 2.1462204 -7.3549523 -1.7824728
-3.5164716 0.00043005781 -0.81792593 -0.052396297 -5.2676563 0.00012589576 -0.68341666 -0.032915045
-18.622591 2.5917306 -8.377206 -2.7912061 12.414177 0.20486513 -3.6346195 -0.60095805
5.029102 0.008465893 -1.5787885 -0.13866077 -6.486942 0.0023909728 -1.3963481 -0.13892935
5.582494 9.838517 -11.654365 -4.8258924 0.40244073 23.806204 -13.850183 -8.119932
9.7484455 3.294222 -5.6631255 -2.0430648 -18.294077 35.843422 -14.185281 -7.506502

RA f4 [80, 3]
00000000: 11a7 533d 6119 07bf 35d2 b8bf c66f c2be
00000010: afd2 87bf 8335 7a3f 1519 89bf cb14 8b3f
00000020: 2fa7 043d 37a6 af3f bdff 0f3f d3f5 d43e
00000030: e179 293c a1f7 463b fa9c 3bbc 9e0b c33d
00000040: f911 17bf 8944 b5bf b4e7 e2be aa80 93bf
00000050: 9b8f 7b3f 9220 8abf e960 8f3f 399a 233d
00000060: 3cbd b23f 04aa 0f3f dc65 df3e 91f2 93bc
00000070: 3483 78bb 622f 54bd 904d d23d 3293 10bf
00000080: 55df b7bf 8f34 d0be 586f 98bf 62be 6c3f
00000090: 2cf5 88bf cbdb 8f3f 4b3a 4a3d 1e34 b93f
000000a0: 7b4a 0e3f 1a31 db3e 15a8 c5bc c689 8f3d
000000b0: 98da d2bc a1db 1b3e 5d34 00bf 863b bdbf
000000c0: 9eef d7be 4584 8fbf 38dc 733f 8a90 86bf
000000d0: d2fb 903f 4e9d 073d e84c b03f c4ea 0b3f
000000e0: c686 e63e 1006 9e3c 8c31 303c 6d91 b43c
000000f0: 529c 633d c427 19bf 5515 b6bf 4e62 d0be
00000100: e543 92bf 6631 793f 73f6 7abf 4163 8a3f
00000110: 35eb 4c3d 9a25 b53f d525 073f 8656 b73e
00000120: c361 29bd f241 cfbb 0a82 47bd 5666 1a3e
00000130: 7a1a 00bf feb8 bbbf 5518 d3be 53ae 90bf
00000140: 81b0 633f 1d01 86bf 9f73 933f 800d 883b
00000150: 263a af3f 1d02 133f d0b8 d83e 3925 a03c
00000160: b212 73bd 32e4 d8bc 6e89 dc3d 31b5 0dbf
00000170: 1cd2 b8bf 8bc6 babe 5402 96bf 8d27 7e3f
00000180: 6e16 8dbf 336a 8a3f cb64 b83c 3143 b53f
00000190: fa09 133f 957e b23e b2f2 cb3a 08aa 06bd
000001a0: 151a 08bd 7bc1 c73d 124c 11bf c93e b8bf
000001b0: e8fa debe d8f0 98bf e10c 6a3f 1614 88bf
000001c0: 99bc 913f 3048 7a3c 6dac ae3f 772d 213f
000001d0: 7637 c73e f6d2 94bc c8ee 823c 0a6a f8bb
000001e0: d122 0b3e 221b 14bf 4451 bcbf d848 eabe
000001f0: d845 99bf dee4 813f 4754 90bf a304 893f
00000200: caa6 bc3d 2787 af3f b153 083f df34 d53e
00000210: af97 263b 7994 0abd fb23 0c3d f032 033d
00000220: 0a66 10bf 3909 b3bf fc6d d7be c91f 8cbf
00000230: 5a9f 763f 8a57 87bf 90db 893f 014f 5a3d
00000240: 4431 a93f 5666 1e3f 7bdc c73e e9ef 25bb
00000250: 2e53 93ba 452b f7bb edd3 913d 889d 15bf
00000260: 3013 bfbf e84e f0be 06f6 96bf 40a2 833f
00000270: 0037 7fbf 1b67 933f ed82 c13d a4a9 ac3f
00000280: 8b53 0d3f dc9b df3e c5e2 b7bc 3fa7 a0bc
00000290: feb4 b13d 73d6 c73d aed6 11bf 6dad b7bf
000002a0: cf82 f0be dd45 94bf e44d 843f 11fe 8dbf
000002b0: 0cb2 8f3f 8061 f9bc 132d b53f a2d2 0c3f
000002c0: be9f fa3e f94a a0bc 7fa3 5dbd 691c 6abd
000002d0: c576 d73d 1a15 10bf 1b2e b8bf a7e9 dbbe
000002e0: 93e2 97bf b03b 753f 39d3 86bf 289d 943f
000002f0: 0f9b 48bc 486d b63f 425b 223f 4eb9 e23e
00000300: 9e44 84bd 6b0b 4f3d 4b77 573d a6b7 0f3e
00000310: 3c14 19bf d5b2 b3bf 1782 c4be 0bb3 88bf
00000320: 8ba6 833f 4e7d 8cbf 59db 8e3f bc04 a73d
00000330: c478 b13f ec50 113f 008e d53e 4606 993d
00000340: a65e 37bd ba69 333d 93ac 833d 8f8d 00bf
00000350: 95d8 b9bf 842e c1be 0bcf 8fbf 5018 7c3f
00000360: b473 86bf 062f 8e3f 310c d83c 828d b53f
00000370: c66e 133f 1002 ea3e dba2 cc3b 3ca5 033c
00000380: 608f 09bb 5802 193e abce 06bf 5eb9 b4bf
00000390: 61c3 c3be 2bc0 93bf 97e2 763f b5c3 89bf
000003a0: 33dc 903f 7024 d03d be2e b13f 7f17 163f
000003b0: a872 da3e ff76 193d 0074 98bc 800d 08bc
0.051673 -0.527731 -1.443915 -0.379759 -1.061117 0.977379 -1.071078 1.086572
0.032386 1.37226 0.562496 0.415938 0.010344 0.003036 -0.011451 0.095237
-0.590118 -1.416154 -0.443174 -1.152364 0.98266 -1.079119 1.120145 0.039942
1.3964 0.561188 0.436324 -0.01806 -0.003792 -0.051803 0.102687 -0.564746
-1.436503 -0.406651 -1.190898 0.92478 -1.069982 1.123895 0.049372 1.446903
0.555824 0.428109 -0.024128 0.070087 -0.025739 0.152205 -0.500799 -1.478379
-0.42175 -1.121224 0.952579 -1.051286 1.132685 0.033109 1.377347 0.546551
0.450247 0.01929 0.010754 0.022042 0.055569 -0.598263 -1.422526 -0.407
-1.142697 0.97341 -0.980323 1.081154 0.050029 1.41521 0.527921 0.358082
-0.041353 -0.006325 -0.048708 0.150781 -0.500404 -1.466583 -0.412295 -1.13032
0.889412 -1.046909 1.151966 0.004152 1.368962 0.574251 0.423285 0.019549
-0.059344 -0.026476 0.107684 -0.553546 -1.443912 -0.364796 -1.171946 0.992791
-1.102247 1.081366 0.022509 1.416113 0.574371 0.348622 0.001556 -0.032877
-0.033228 0.097537 -0.567567 -1.439416 -0.435508 -1.19485 0.914259 -1.063113
1.138568 0.015276 1.364637 0.6296 0.389095 -0.018167 0.015983 -0.007581
0.135875 -0.578539 -1.47123 -0.457587 -1.197444 1.014797 -1.127572 1.070454
0.092115 1.371312 0.532527 0.416419 0.002542 -0.033833 0.034214 0.032031
-0.564057 -1.398719 -0.420761 -1.09472 0.963369 -1.057359 1.077013 0.053298
1.321816 0.618749 0.390354 -0.002532 -0.001124 -0.007543 0.071205 -0.584435
-1.492773 -0.469352 -1.179383 1.028389 -0.996933 1.151584 0.094488 1.348927
0.552056 0.436736 -0.022447 -0.019611 0.086771 0.097577 -0.569682 -1.43498
-0.469748 -1.158382 1.033627 -1.109316 1.122621 -0.030442 1.415438 0.550089
0.4895 -0.019567 -0.054111 -0.057156 0.105207 -0.562822 -1.438907 -0.429517
-1.186602 0.957942 -1.053321 1.161046 -0.012244 1.42521 0.634205 0.44282
-0.064584 0.050548 0.052604 0.140349 -0.597965 -1.403895 -0.383805 -1.067964
1.02852 -1.097574 1.116069 0.081552 1.386498 0.567641 0.417099 0.074719
-0.044768 0.043802 0.064294 -0.50216 -1.451922 -0.377308 -1.123506 0.984746
-1.050406 1.11081 0.026373 1.418381 0.575909 0.457047 0.006245 0.008035
-0.002099 0.149423 -0.526591 -1.411907 -0.38235 -1.154302 0.964395 -1.076285
1.13172 0.101632 1.384239 0.586296 0.426656 0.037467 -0.01861 -0.008304

RB f4 [160, 3]
00000000: 670b a8bd 17bc cfc0 15e0 f1bf 2ec6 943f
00000010: c631 d3c0 66f8 10c0 5a2a 0a40 64ae c9c0
00000020: 09fc b7bf c9e9 ed3f b885 b1c0 04ad 90be
00000030: 319a bf3f 932b e4c0 6b27 69c0 f9a0 4440
00000040: 6154 bdc0 c767 e8bf ec34 4a3f ccdd b2c0
00000050: 103b c3be b6bd 793f 5aa6 01c1 a7b0 69c0
00000060: 56d8 2640 b951 e7c0 e86c 71c0 0dc7 853f
00000070: 3055 d1c0 8246 8ac0 cf12 ecbe 1e6c f73f
00000080: 0f6f ce40 bb0d e2be 984f 7e3f 1c28 b940
00000090: d80e c6bf 93c3 3b3f 2425 a140 3c12 2fc0
000000a0: a8e1 b13f 951a ae40 2863 4c3f b7b7 4b3e
000000b0: 2110 af40 0bd1 e7bf ff41 94be 0aea 9b40
000000c0: 5a9b 18c0 52ed fb3f 68b2 c540 7bbc cc3f
000000d0: 3f58 563f 8bb8 a340 28f2 143f 9bc9 13bf
000000e0: 910b 9540 d97a 843f 1a86 a7be e4e8 cc40
000000f0: 50f1 ecc0 3197 88bf 6b82 12c0 3656 d2c0
00000100: 2c0c 91be 5e69 e5bf f2cd b8c0 a9c1 e43e
00000110: d2ff 23c0 4daf b7c0 25cd 9f3d 8dec 78c0
00000120: 43b9 cfc0 ea58 a53c e38d 84be 978b 9ac0
00000130: 8ee7 3b3f e658 11c0 c212 cfc0 04c7 1dbf
00000140: 815a 78c0 5182 ebc0 205f 9a3e f0c1 6b3d
00000150: cae2 b4c0 e8c1 3d3f 5af3 c3bd 3ae8 c4c0
00000160: 7175 68bf 4a79 7d3e 4bc9 da3e 48df a5c0
00000170: 8151 10c1 1b12 a73e 383a 84c0 6b4b 08c1
00000180: 8b1a be3f 63b7 60c0 7992 02c1 9dd4 2740
00000190: 7dcb 88c0 eda5 02c1 a394 74bf dcb8 56c0
000001a0: c049 04c1 1782 c03f 93aa 38c0 7f5c e9c0
000001b0: 390b 1140 7303 a1c0 6955 08c1 6d3a c2bf
000001c0: 0988 4cc0 7f7d 13c1 1ff2 4abf 2cb7 16c0
000001d0: d110 fbc0 12bd c8bf c904 7bc0 d716 f2c0
000001e0: 0249 70bf 9832 13c0 e62f 99c0 52d4 edbf
000001f0: 9d66 13c0 e631 b5c0 696e bfbf 9faa 23c0
00000200: 63a5 ddc0 ef37 3abe 1efb 19c0 9c69 e5c0
00000210: 2619 52c0 1ec1 0dc0 c4a6 a9c0 2026 02c0
00000220: c1fe 0ac0 5046 f7c0 50c2 6c3e a92e 16c0
00000230: c6f9 c9c0 535d 61c0 04e5 3ec0 ef65 92c0
00000240: 537b 79c0 9bc7 18c0 8063 c6c0 63ee 5ec0
00000250: b988 9dbf b0ae 9bc0 68d0 7040 4ddc 63c0
00000260: 076e 84c0 3700 4040 02d3 29c0 1e8b 7ec0
00000270: 5210 3d40 116d fbbf 7714 34c0 20ee 6d40
00000280: 0952 21c0 d0b7 e3bf 56d5 0040 b62d 10c0
00000290: c17e a3c0 6073 0340 ce36 c9bf ad84 1cc0
000002a0: c1d2 8640 d638 53c0 e832 0fc0 ccd4 2340
000002b0: 6020 fabf 964e bec0 6dac b43f cf48 aabf
000002c0: 20ff 97c0 309e ab3f 4aef 40c0 2918 a9c0
000002d0: 4346 1541 6553 d8bf 3e24 0e40 1543 0441
000002e0: e2e6 86bf 1096 1a40 3e25 f340 b79c 07bf
000002f0: c4b2 ab3f d45f 0541 221a f5be 5472 1e3e
00000300: 556c f340 3c50 6bbf 6a4e 7540 5ba6 e140
00000310: 5a49 9b3e 50c8 bc3f 64cb 1241 cf85 7dbf
00000320: c025 f03e d36a ed40 5c93 f6bf c895 8440
00000330: 64eb d640 0d1b cdbe 1074 6f40 3acb 0441
00000340: 3754 acbe 4e98 8e40 bd9d 88c0 a7ea afc0
00000350: 4721 fcc0 de8d 78c0 da71 8fc0 be40 e8c0
00000360: 74ea 46c0 0ba5 93c0 66b1 c9c0 1075 37c0
00000370: 0037 bfc0 58e3 b9c0 adf9 8ac0 6a50 4ac0
00000380: aa6f f5c0 27bc 47c0 70b1 7fc0 e5ef abc0
00000390: 44a2 59c0 01c2 cec0 55d0 d0c0 ac3a 85c0
000003a0: c903 3bc0 68eb 0bc1 6500 7cc0 ee5d 15c0
000003b0: 4e89 e1c0 2438 b2c0 3127 44c0 9555 f1c0
000003c0: 42dc 98c0 a8e1 1cc0 0037 0ac0 919d 61c0
000003d0: cd5c 22c0 cc42 06c0 87df 31c0 fbe9 28c0
000003e0: 795a 8abf f7ad 5dc0 6abc 21c0 27dd 563e
000003f0: 72c3 2dc0 6539 1cc0 c537 60c0 6728 f2bf
-0.082053 -6.49171 -1.889651 1.162298 -6.599826 -2.265161 2.158835 -6.302538
-1.437379 1.858697 -5.547573 -0.28257 1.496893 -7.130319 -3.643031 3.072325
-5.91655 -1.815667 0.78987 -5.589575 -0.38131 0.975551 -8.103113 -3.651407
2.606954 -7.228726 -3.772272 1.045137 -6.541649 -4.321107 -0.461081 1.932987
6.451057 -0.441511 0.993402 5.786146 -1.547328 0.733453 5.035784 -2.735488
1.389699 5.440745 0.798388 0.198943 5.470719 -1.811067 -0.289566 4.872319
-2.384482 1.96818 6.178028 1.599502 0.837284 5.116277 0.58182 -0.577295
4.657662 1.034999 -0.327195 6.403429 -7.404457 -1.067114 -2.28921 -6.573024
-0.283296 -1.792278 -5.77514 0.44679 -2.562489 -5.740149 0.078028 -3.889438
-6.491365 0.020184 -0.258895 -4.82954 0.734002 -2.271051 -6.47104 -0.616318
-3.880524 -7.359658 0.301507 0.057558 -5.652684 0.74124 -0.095679 -6.153348
-0.908042 0.247533 0.427317 -5.183506 -9.019898 0.32631 -4.132107 -8.518413
1.485185 -3.511193 -8.16076 2.622352 -4.27484 -8.165509 -0.955393 -3.355033
-8.268005 1.50397 -2.885411 -7.292541 2.26631 -5.031671 -8.520852 -1.517408
-3.195803 -9.218139 -0.792757 -2.35493 -7.845803 -1.56827 -3.922167 -7.565288
-0.938614 -2.299963 -4.787097 -1.858042 -2.303138 -5.662341 -1.495557 -2.557289
-6.926439 -0.181854 -2.405952 -7.169142 -3.282785 -2.214912 -5.301607 -2.033577
-2.171799 -7.727333 0.23121 -2.346598 -6.31174 -3.521321 -2.982728 -4.574943
-3.898152 -2.387183 -6.199646 -3.4833 -1.230735 -4.865074 3.76272 -3.560321
-4.138431 3.000013 -2.653504 -3.977241 2.954121 -1.964266 -2.813749 3.717659
-2.520632 -1.779047 2.013021 -2.25279 -5.109223 2.053917 -1.571985 -2.445598
4.213227 -3.300344 -2.237482 2.559863 -1.954113 -5.947093 1.411512 -1.330347
-4.749893 1.340765 -3.014605 -5.284199 9.329654 -1.690045 2.220962 8.266377
-1.053921 2.415409 7.598296 -0.529735 1.341393 8.335896 -0.478715 0.154733
7.606974 -0.919193 3.832911 7.051557 0.303294 1.474863 9.174656 -0.990323
0.469038 7.41929 -1.926372 4.143284 6.716234 -0.400597 3.741459 8.299616
-0.33658 4.456092 -4.269255 -5.497394 -7.879062 -3.883659 -4.482648 -7.257903
-3.10806 -4.613897 -6.302905 -2.86652 -5.975464 -5.809002 -4.342978 -3.161158
-7.669881 -3.120859 -3.995205 -5.373034 -3.400529 -6.461182 -6.525431 -4.163412
-2.922106 -8.744972 -3.937524 -2.333858 -7.048011 -5.569353 -3.064892 -7.541697
-4.776887 -2.451273 -2.159607 -3.525242 -2.536914 -2.097827 -2.779268 -2.639281
-1.080886 -3.463743 -2.527125 0.209828 -2.715054 -2.441003 -3.503404 -1.891858

qA f4 [80, 1]
00000000: 7c36 52bf 7285 56bf 2867 58bf 142b 52bf
00000010: 13a7 a93f d008 47bf b4ff 55bf ba28 4cbf
00000020: 14bc 53bf a876 9e3f 72be 52bf fce9 57bf
00000030: 9418 3cbf 02bf 50bf 04c0 9b3f d6f1 54bf
00000040: 884b 4dbf bab8 52bf 848f 4fbf cd42 a23f
00000050: 448a 50bf 701d 56bf bc39 4dbf 9456 5abf
00000060: 011c a73f 5960 50bf 933c 46bf bde5 5bbf
00000070: b988 56bf b185 a43f 16c0 4dbf a47a 4dbf
00000080: 0ae3 4fbf 364c 53bf fc34 9f3f 4d85 55bf
00000090: 5957 4fbf 9535 4cbf 4f82 4fbf 464a a03f
000000a0: 03f8 52bf 41c9 4cbf 8de4 4dbf 3fef 46bf
000000b0: 864a 9a3f 74ce 54bf d0c3 56bf 341d 5bbf
000000c0: 0e41 52bf 4378 ac3f ffd2 56bf c5ce 40bf
000000d0: 3123 4ebf 11c3 4dbf 02c4 993f 7685 3cbf
000000e0: 8aeb 4dbf 0e1c 50bf 3058 52bf a172 963f
000000f0: 4bf7 58bf db5d 44bf 4726 3dbf 3957 53bf
00000100: 52e9 963f 0e29 4fbf 1062 4fbf 229d 5abf
00000110: 083a 4abf 23b1 a13f 8e88 4fbf fe4b 50bf
00000120: 0050 51bf 2e49 52bf ddb6 a13f ca22 4bbf
00000130: d6d3 51bf a4ad 54bf b215 52bf fbdc a13f
-0.82114387 -0.8379737 -0.84532404 -0.8209698 1.3254112 -0.7774782 -0.83593297 -0.79749644
-0.8270886 1.2379961 -0.82321846 -0.84341407 -0.73475003 -0.81541455 1.2167974 -0.8318151
-0.80193377 -0.8231312 -0.8107836 1.2676636 -0.81460977 -0.8363867 -0.8016622 -0.8528836
1.3055421 -0.81397015 -0.7743618 -0.8589743 -0.8380237 1.2853299 -0.80371225 -0.8026526
-0.8120581 -0.82538164 1.2438045 -0.83406526 -0.80992657 -0.7976926 -0.8105821 1.2522666
-0.82409686 -0.7999459 -0.80426866 -0.7770881 1.2053993 -0.8312752 -0.83892536 -0.85591435
-0.82130516 1.3474201 -0.83915704 -0.75315505 -0.8052245 -0.8037577 1.2012942 -0.73641145
-0.8043753 -0.8129281 -0.82165813 1.1753732 -0.8475234 -0.7670571 -0.7388653 -0.82554966
1.1789954 -0.8092202 -0.81009007 -0.85396016 -0.789948 1.2632183 -0.8106774 -0.81365955
-0.81762695 -0.82142913 1.263393 -0.7934996 -0.8196386 -0.83077455 -0.82064354 1.2645563

muA f4 [80, 3]
00000000: 6011 7cbc 30d2 02bd 0c10 ecbd 0057 f1bc
00000010: f0cc 68bd a003 a83d 88c5 b0bd 3478 603d
00000020: 0078 2d39 ece0 da3d 6834 093d 182a 573d
00000030: a0d5 52bc 00fa a93a a04f 183c 40b8 563c
00000040: f87e 8abd 4507 19be c844 05bd 3002 b4bd
00000050: 1e8d a33d c2d0 d7bd 5096 e03d 60ee 423c
00000060: 641e ef3d 30f8 3b3d f076 293d c059 843b
00000070: c083 31bc f00d a13c 40ee 303c 60e2 8bbd
00000080: 624c f3bd 204d cebc 5816 bebd 70b8 623d
00000090: 82f1 fdbd 2258 f23d 805b eb3b f20a 003e
000000a0: f05b 0c3d c08d 113d 8066 243c 8832 19bd
000000b0: 80de c03b e047 4f3c f019 1bbd 8800 fcbd
000000c0: b063 20bd 5442 d3bd 0c6b c23d f2a6 d1bd
000000d0: 92fc d33d 0057 ce3a 7a33 093e fc1b 423d
000000e0: 6055 2f3d 00f6 863a 008d 1e3b e07a 51bc
000000f0: c00d 943b 08c4 2bbd 58b7 d7bd b001 06bd
00000100: 9095 9bbd 1cd8 8b3d 88f0 88bd 4c05 a73d
00000110: e0db 203c 3c4d b23d b093 2b3d 606e b03c
00000120: 4034 e63b 40ee 213c e095 313c c027 9a3c
00000130: 5004 febc 4051 fabd 98d7 1cbd 2c24 dcbd
00000140: 540e ba3d 9870 90bd 0493 b63d 001e 6aba
00000150: d64b d73d 0495 4e3d 5001 d93c 8094 40bb
00000160: d041 d23c 0040 b5ba 3094 983c 5839 30bd
00000170: 40f8 0ebe d80a 0abd 1c96 d5bd 8c76 c23d
00000180: 666b cfbd b22b cb3d 0079 b0ba 2ceb f33d
00000190: 887f 393d a012 a13c 0003 f23b 4089 af3b
000001a0: 8082 1ebb c035 1b3c 483d 6ebd bda0 00be
000001b0: 7008 1fbd 5ecb e8bd 6c04 8c3d e805 ccbd
000001c0: 702a ed3d 009c 85ba 8497 033e d220 843d
000001d0: a0fe ff3c 00a3 543b c083 99bb 008f 5dbc
000001e0: 9026 953c 481f 27bd 2611 ffbd e8a3 37bd
000001f0: baa4 cbbd f08f b73d 504f d2bd 3c13 c63d
00000200: a021 0c3c 5bc3 113e 7cfa 6a3d 80d9 053d
00000210: 00d7 0dbc 0049 1abb 40f1 0cbc a087 63bc
00000220: c0fa 0fbd 387f aebd 6054 2dbd 58a5 7ebd
00000230: 98d1 4f3d d0c5 4abd ccaf 3e3d 4013 9e3b
00000240: 0cae a83d 40cb 673d 1003 e03c 60a7 83bc
00000250: c082 c13b 0098 77b9 40fa 053c 0086 f4bc
00000260: 5af5 ccbd b069 3abd 4a33 e9bd 0cb0 c73d
00000270: b47c 97bd 3c77 fb3d 40e2 ed3b 0c33 f33d
00000280: 647f 983d 00c3 0d3d 80b2 d23b 4026 5e3c
00000290: 50ef b6bc 80c7 e83b f873 52bd 1024 21be
000002a0: 40fc 16bd 4cc9 b4bd 487f bd3d 540f b9bd
000002b0: 42f0 bf3d 801c 40bb 44cf cd3d 4838 283d
000002c0: 284c 213d 00cc 5fba c061 723c 806b 983c
000002d0: a00d 323c 3080 2bbd 7025 ccbd 002a 06bd
000002e0: fefb fabd e04d 9c3d 9072 e1bd e85b 003e
000002f0: 605c 8ebc 98f1 d43d e8a5 2c3d 70b2 b03c
00000300: d0e8 e03c 004d 50bc c06f 14bd 40f8 683c
00000310: 58ff 3abd 51e4 04be 8890 38bd 3c48 aabd
00000320: 24ee cd3d a89a 99bd 9036 733d 0000 563c
00000330: 627b fd3d 5017 453d 08fd 173d a0f3 acbc
00000340: 8093 873c 40fb ad3b 809f 2fbc e0ca f8bc
00000350: a45e 06be f04a 18bd f400 d9bd 8ea7 c63d
00000360: 684b c8bd ecfd bf3d a08c 7dbc 843d f93d
00000370: ac0c 463d 606f 2d3d 00cc 26ba c026 a33b
00000380: 0010 b03a 4019 d23c 20e1 42bd 5ea3 08be
00000390: a0c6 23bd 1cfb dabd 2a8d b63d 940e b1bd
000003a0: acad b93d 20f3 3b3c 1ae5 fd3d 380e 533d
000003b0: 3071 d63c 40eb c3bb 0033 303c 80a1 ae3b
-0.015385002 -0.03193873 -0.11526498 -0.02946043 -0.05683607 0.082038164 -0.08631426 0.054802135
0.00016543269 0.10687432 0.033497244 0.052530378 -0.012868315 0.0012968183 0.009296328 0.013105452
-0.067624986 -0.1494418 -0.032536298 -0.0878948 0.079859 -0.10537864 0.1096617 0.011897653
0.116757184 0.045890987 0.041373193 0.0040390193 -0.010834634 0.019659966 0.010798991 -0.06830287
-0.11879803 -0.02518326 -0.092816055 0.055351675 -0.123995796 0.11833216 0.0071825385 0.12504175
0.034267366 0.035535574 0.0100342035 -0.037401706 0.005885899 0.012651414 -0.037866533 -0.12304789
-0.03915757 -0.103153855 0.09493074 -0.102369204 0.10350908 0.0015742481 0.13398543 0.04738997
0.04280603 0.0010296702 0.002419293 -0.012785643 0.0045182407 -0.041934997 -0.10533017 -0.032716453
-0.07596886 0.06828329 -0.06686503 0.08155307 0.009818047 0.087061375 0.041888893 0.021537006
0.0070252717 0.009883463 0.010838956 0.018817782 -0.031007916 -0.122225285 -0.038291544 -0.10749087
0.09084764 -0.070527256 0.0891476 -0.0008930862 0.105125114 0.05043508 0.026489884 -0.0029385388
0.025666147 -0.0013828278 0.018625349 -0.043023437 -0.13961887 -0.033701748 -0.10429022 0.09495267
-0.101279065 0.099204436 -0.0013463795 0.1191009 0.04528764 0.019662201 0.0073856115 0.0053569376
-0.002418667 0.009473264 -0.05816391 -0.12561317 -0.038826406 -0.11366914 0.06836781 -0.09962064
0.1158036 -0.0010193586 0.12850767 0.064515725 0.031249344 0.0032445788 -0.0046848953 -0.013522863
0.018206865 -0.040801316 -0.12454443 -0.044834048 -0.099435285 0.08963001 -0.10269034 0.096716374
0.008552939 0.14234678 0.057367787 0.032678127 -0.008657217 -0.0023542047 -0.00860244 -0.013887316
-0.035151243 -0.08520359 -0.042316794 -0.062169403 0.050736994 -0.049505055 0.04655437 0.004824072
0.08236322 0.05659032 0.02734521 -0.016071022 0.005905479 -0.0002361238 0.00817734 -0.029849052
-0.100077346 -0.045510948 -0.11386736 0.09750375 -0.07396832 0.122786015 0.007259637 0.11874971
0.07446173 0.034609795 0.0064299703 0.013558924 -0.02233091 0.0071038604 -0.051380128 -0.15736413
-0.036861658 -0.08827457 0.092527926 -0.09036127 0.093719974 -0.0029313862 0.100492984 0.0410693
0.03937927 -0.0008537173 0.014793813 0.018605947 0.010867506 -0.041870296 -0.09968078 -0.032754898
-0.12255095 0.07632041 -0.11008179 0.1253506 -0.017378032 0.10397643 0.042150408 0.02156946
0.027454764 -0.012713671 -0.036239386 0.014219344 -0.04565367 -0.12977721 -0.04505971 -0.08314559
0.10055187 -0.075002015 0.059378207 0.013061523 0.12377049 0.048117936 0.037106544 -0.021112263
0.016549826 0.0053094923 -0.01071918 -0.030370176 -0.1312204 -0.03718084 -0.10595885 0.09699927
-0.097800076 0.09374604 -0.015475422 0.12169936 0.04835193 0.042342544 -0.0006362796 0.0049789846
0.0013432503 0.025646806 -0.047577977 -0.1334357 -0.039984345 -0.106924266 0.08913644 -0.08645359
0.090663284 0.01147154 0.12397213 0.051527232 0.026177019 -0.0059789717 0.010754347 0.005329311

quadA f4 [80, 3, 3]
00000000: 5df9 b63c 8032 723b a0f0 e13b 8032 723b
00000010: 4a7f 483c 7803 d0bc a0f0 e13b 7803 d0bc
00000020: 829c 0dbd afc8 0a3d a898 c6bc 2801 9e3c
00000030: a898 c6bc c1b3 09bd 0813 683d 2801 9e3c
00000040: 0813 683d 8076 8ab9 2ca4 c6bb 7c5a 3b3d
00000050: c0c5 823b 7c5a 3b3d 9370 cebc 4092 6dbb
00000060: c0c5 823b 4092 6dbb ce0c 003d 3d21 edbc
00000070: 48c6 c1bc 806a 36bc 48c6 c1bc 564d 2b3c
00000080: 60c5 96bb 806a 36bc 60c5 96bb 937a 973c
00000090: 004b 57bb 0024 6a39 c062 553b 0024 6a39
000000a0: 803c 7f3b 00ff 41ba c062 553b 00ff 41ba
000000b0: 00c6 1fba 18aa 8c3c 0001 ee3a 009c 673b
000000c0: 0001 ee3a 709d 0b3c 8032 9cbc 009c 673b
000000d0: 8032 9cbc d078 d2bc e03d a53b 40b7 5dbb
000000e0: 802c 793b 40b7 5dbb 805f 6cbb a032 193c
000000f0: 802c 793b a032 193c 8038 bcba 2008 95bb
00000100: 188b 933c 803a ec3a 188b 933c 20ca e9bb
00000110: 80e7 86ba 803a ec3a 80e7 86ba 2069 3f3c
00000120: 00f4 03bc 20d9 a5bb 80eb 83bb 20d9 a5bb
00000130: 00c9 6e3b 8013 aeba 80eb 83bb 8013 aeba
00000140: 8083 903b eed7 d2bc 00dc 1cbb 583a ef3c
00000150: 00dc 1cbb 9fa6 0ebd 4031 fabb 583a ef3c
00000160: 4031 fabb 9512 783d c583 413c 00c2 a63a
00000170: c0f8 293b 00c2 a63a cadb d03b 80a8 40bc
00000180: c0f8 293b 80a8 40bc d6f8 94bc f66c f63b
00000190: 2004 93bb 00c7 a73b 2004 93bb cad9 a0bb
000001a0: 20ad 593c 00c7 a73b 20ad 593c 5426 2bbb
000001b0: 9661 a0bb 2036 a03c c035 223b 2036 a03c
000001c0: 76c9 fcbb 009c d7ba c035 223b 009c d7ba
000001d0: 8595 4e3c 359b dabb c0cc 95bb 80e7 4ebb
000001e0: c0cc 95bb 16af 393b 005b 8bba 80e7 4ebb
000001f0: 005b 8bba 5687 7b3b f097 013c 8e5c 84bd
00000200: 34c8 383d 8e5c 84bd 5068 473c ec34 4dbd
00000210: 34c8 383d ec34 4dbd 2080 a4bc 8003 d83b
00000220: 80b8 813a 00bf fc3a 80b8 813a a0b6 8c3b
00000230: 00df c7bb 00bf fc3a 00df c7bb 105d 32bc
00000240: 5b49 3a3c 4011 1ebc 1019 023c 4011 1ebc
00000250: 5567 40bc 7863 a73c 1019 023c 7863 a73c
00000260: 60bf c339 ca5f a8bb d0d6 a93c 00dc f539
00000270: d0d6 a93c d53c 0abc 00b0 cf39 00dc f539
00000280: 00b0 cf39 bb6c 5e3c 83ce d5bc a0f9 8cbc
00000290: 7029 40bc a0f9 8cbc 3a6d 363c a070 92bb
000002a0: 7029 40bc a070 92bb ca2f 753c 7503 37bc
000002b0: 00fa ca3a 30a7 053c 00fa ca3a 855c 4bbc
000002c0: c023 b13b 30a7 053c c023 b13b fe2f c13c
000002d0: e0c8 ee3c 00c9 763b 005e f83b 00c9 763b
000002e0: 30d2 623c 8008 0abd 005e f83b 8008 0abd
000002f0: fc18 30bd 75c2 3f3c 408f aabb 00a3 b13b
00000300: 408f aabb 6be2 07bc a846 a03c 00a3 b13b
00000310: a846 a03c 2c80 5fbb 649d 56bc ae57 923d
00000320: d0de 083c ae57 923d 91cf 0bbd 0084 0ebc
00000330: d0de 083c 0084 0ebc eb76 413d b2d4 97bc
00000340: b0e3 10bc 1094 09bc b0e3 10bc ab36 133c
00000350: c0ca 0ebb 1094 09bc c0ca 0ebb bb72 1c3c
00000360: 142a 203d 0041 f5bc 84b3 6c3d 0041 f5bc
00000370: f017 05bd 10b0 95bc 84b3 6c3d 10b0 95bc
00000380: 2091 d8bb 58d6 bc3c 00f3 c73a 0000 8a3b
00000390: 00f3 c73a d07d 893c 1802 a4bc 0000 8a3b
000003a0: 1802 a4bc 142a 23bd bb37 953c e803 86bc
000003b0: 5006 713c e803 86bc bab4 6fbc c0dc 0c3d
000003c0: 5006 713c c0dc 0c3d e8ea 6abb 0a55 82bb
000003d0: 2025 773c 00bb 763a 2025 773c eaa0 bdbb
000003e0: 00a8 a4b8 00bb 763a 00a8 a4b8 fbfa 1f3c
000003f0: c27d 96bc e0d1 71bc 20f3 3fbc e0d1 71bc
0.022335703 0.003695637 0.00689514 0.003695637 0.012237379 -0.025392279 0.00689514 -0.025392279
-0.034573086 0.033882793 -0.024242714 0.01928766 -0.024242714 -0.033618692 0.056658775 0.01928766
0.056658775 -0.000264097 -0.0060620513 0.04574059 0.003990859 0.04574059 -0.025200164 -0.0036250502
0.003990859 -0.0036250502 0.03126221 -0.028946513 -0.023654118 -0.01113379 -0.023654118 0.01045545
-0.0046011657 -0.01113379 -0.0046011657 0.018491065 -0.00328511 0.0002232939 0.003256008 0.0002232939
0.0038945973 -0.00074003637 0.003256008 -0.00074003637 -0.0006094873 0.01717095 0.0018158257 0.0035340786
0.0018158257 0.008521423 -0.019067049 0.0035340786 -0.019067049 -0.025692374 0.0050427765 -0.003383115
0.0038020909 -0.003383115 -0.0036067665 0.009350449 0.0038020909 0.009350449 -0.00143601 -0.0045480877
0.018010661 0.0018022805 0.018010661 -0.007134691 -0.0010292381 0.0018022805 -0.0010292381 0.011682779
-0.00805378 -0.0050612837 -0.0040258765 -0.0050612837 0.0036435723 -0.0013280958 -0.0040258765 -0.0013280958
0.0044102073 -0.025737729 -0.002393484 0.029202625 -0.002393484 -0.03482687 -0.0076352656 0.029202625
-0.0076352656 0.060564596 0.011811201 0.0012722611 0.002593562 0.0012722611 0.006373857 -0.0117589235
0.002593562 -0.0117589235 -0.01818506 0.0075203134 -0.0044865757 0.005120158 -0.0044865757 -0.004908775
0.013285905 0.005120158 0.013285905 -0.0026115375 -0.0048944457 0.019557059 0.0024751276 0.019557059
-0.0077144457 -0.001644969 0.0024751276 -0.001644969 0.01260889 -0.006671334 -0.0045715272 -0.003157109
-0.0045715272 0.002833312 -0.0010631979 -0.003157109 -0.0010631979 0.0038380227 0.00790976 -0.06462966
0.045112804 -0.06462966 0.012170866 -0.0500993 0.045112804 -0.0500993 -0.020080626 0.006592214
0.0009896904 0.0019282997 0.0009896904 0.0042942315 -0.0060995817 0.0019282997 -0.0060995817 -0.010886446
0.011370028 -0.009647667 0.007940546 -0.009647667 -0.011743386 0.020433173 0.007940546 0.020433173
0.00037335884 -0.005138372 0.020732313 0.00046893954 0.020732313 -0.008437355 0.00039613247 0.00046893954
0.00039613247 0.013575728 -0.026099449 -0.017208874 -0.0117286295 -0.017208874 0.01113444 -0.0044689924
-0.0117286295 -0.0044689924 0.014965007 -0.011170258 0.0015485883 0.008157536 0.0015485883 -0.012412195
0.005405873 0.008157536 0.005405873 0.023582455 0.029148519 0.0037656426 0.007579565 0.0037656426
0.013844058 -0.033699512 0.007579565 -0.033699512 -0.042992577 0.011704077 -0.005205065 0.0054210424
-0.005205065 -0.008293728 0.019564942 0.0054210424 0.019564942 -0.0034103496 -0.013099048 0.0714563
0.008353904 0.0714563 -0.034133498 -0.008698463 0.008353904 -0.008698463 0.04723255 -0.018534038
-0.008843347 -0.008397117 -0.008843347 0.008985202 -0.002178833 -0.008397117 -0.002178833 0.009548838
0.03910263 -0.029938221 0.057788387 -0.029938221 -0.03249353 -0.01827243 0.057788387 -0.01827243
-0.006609097 0.023051426 0.0015254915 0.004211426 0.0015254915 0.016783625 -0.02002053 0.004211426
-0.02002053 -0.03983505 0.01821505 -0.016359285 0.014710978 -0.016359285 -0.014630491 0.03439021
0.014710978 0.03439021 -0.0035845581 -0.0039774226 0.015084535 0.00094120204 0.015084535 -0.0057870047
-7.851422e-05 0.00094120204 -7.851422e-05 0.009764428 -0.018370513 -0.014759511 -0.01171568 -0.014759511

hfvrA f4 [80, 1]
00000000: 60fb ab3f c791 ac3f 013a ae3f 4940 ac3f
00000010: 6c12 8b3f 21ce 9c3f a4fb ac3f 4bcb a53f
00000020: aff6 ab3f e202 8c3f b5f5 a63f f421 ae3f
00000030: 7cbf 973f 6e87 a93f 0413 8c3f a6e9 ac3f
00000040: 5b20 a63f ce5f a93f 0089 a63f 54e5 8b3f
00000050: 8714 ab3f 6f18 af3f c8f7 a63f c898 b23f
00000060: 6024 8b3f 776b a93f d495 a13f 64f3 b03f
00000070: 2cf7 ac3f 0c69 8b3f 8111 a23f 68bd a73f
00000080: 9282 a73f 50e3 a93f d3fb 8b3f 4af1 a83f
00000090: 0f24 a83f a21e a43f bc1d a73f 06f2 8b3f
000000a0: 766d a73f 6ceb a53f c1be a53f e8bf 9e3f
000000b0: 5c3a 8c3f bd8d ad3f 4b13 af3f b48e b03f
000000c0: 6466 ad3f 0bf3 8a3f 5eea ac3f 9dc6 a13f
000000d0: aa3b a33f 3d63 a33f 8031 8c3f bf15 963f
000000e0: db2b a63f 7d4b a73f 7c0b a93f 1433 8c3f
000000f0: 0d86 ad3f 7ca9 a13f f03d 973f e012 aa3f
00000100: 0b34 8c3f 148f a93f 6c42 a63f dc4d b13f
00000110: 7d8a a33f f188 8b3f 146a a63f f465 a73f
00000120: 07d3 a63f 5673 ab3f 57e1 8b3f af88 a23f
00000130: 8e32 a93f 195f ad3f bad4 a83f 52e1 8b3f
1.3436089 1.3481988 1.3611451 1.3457118 1.0864997 1.2250406 1.3514295 1.2952665
1.3434657 1.093838 1.3043734 1.3604112 1.1855311 1.3244455 1.0943303 1.3508804
1.2978624 1.3232362 1.3010559 1.092936 1.336564 1.3679332 1.3044367 1.3952875
1.0870476 1.3235921 1.2623849 1.3824277 1.3512931 1.0891433 1.2661592 1.3104677
1.3086722 1.3272495 1.0936226 1.3198636 1.3136004 1.2821848 1.3055949 1.0933235
1.308028 1.296247 1.2948838 1.2402315 1.095531 1.355888 1.3677763 1.379355
1.3546872 1.0855421 1.3509023 1.2638737 1.2752583 1.276466 1.0952606 1.1725386
1.2982134 1.3069912 1.320663 1.0953088 1.3556534 1.2629848 1.1815777 1.328701
1.0953382 1.3246789 1.298902 1.3851886 1.2776638 1.0901166 1.3001122 1.3077989
1.303315 1.3394573 1.0928143 1.2697963 1.3218553 1.3544647 1.3189919 1.0928137

vwA f4 [80, 1]
00000000: 6d30 d23e 1161 d23e f430 d33e e251 d23e
00000010: c668 193f 74a9 cf3e 2744 d13e 9f64 d03e
00000020: 0821 d13e 6d46 173f b0a7 d03e 4d3a d13e
00000030: 92b0 ce3e 1fe7 d03e acda 163f 5689 d13e
00000040: cbce d03e 9314 d13e cae1 d03e 47e0 173f
00000050: 5899 d13e 6d85 d33e 65d7 d03e 3d18 d43e
00000060: 71ee 183f 045b d13e ae7a d03e 047e d33e
00000070: 0551 d23e 576d 183f ca42 d03e 7f9f d03e
00000080: f2ad d03e 3cfb d03e f531 173f 3e0b d13e
00000090: 94cd d03e 9372 d03e b4bb d03e 7553 173f
000000a0: d45a d03e e8ff cf3e 97ea cf3e 6844 cf3e
000000b0: 3a30 163f cbe6 d23e 5ea0 d33e 9f1a d43e
000000c0: e8df d23e 3749 1b3f e968 d33e 80f8 cf3e
000000d0: 8863 d03e 6160 d03e 1ced 163f 4221 ce3e
000000e0: 5665 d03e 917d d03e ed47 d03e 5ff6 153f
000000f0: 73a0 d03e 119e cf3e c757 ce3e 9e24 d03e
00000100: 2817 163f 8b2c d13e dfdb d03e 6784 d43e
00000110: bfac d03e eefb 173f bfe1 d03e ddeb d03e
00000120: e9fa d03e 2c34 d13e 61b1 173f c778 d03e
00000130: bb06 d13e 7894 d13e b711 d13e 4bdc 173f
0.4105257 0.4108968 0.41248286 0.41078097 0.59925497 0.4055897 0.4087231 0.40701768
0.40845513 0.59091836 0.40752935 0.40864792 0.40369087 0.4080133 0.58927417 0.40925092
0.4078277 0.4083601 0.40797263 0.59326595 0.40937304 0.41312733 0.40789333 0.41424742
0.5973883 0.40889752 0.40718597 0.4130708 0.41077438 0.5954184 0.40675956 0.40746686
0.4075771 0.40816677 0.59060603 0.4082889 0.40781844 0.40712413 0.40768206 0.5911172
0.40694296 0.40624928 0.40608665 0.40481877 0.5866734 0.41191706 0.41333288 0.4142656
0.41186452 0.6065859 0.41290978 0.40619278 0.40700936 0.4069853 0.5895555 0.4025975
0.40702313 0.407208 0.40679875 0.5857906 0.40747413 0.40550283 0.40301344 0.40652937
0.58629084 0.40854296 0.40792748 0.41507265 0.40756795 0.5936879 0.4079723 0.4080495
0.4081643 0.40860116 0.59255034 0.40717146 0.40825447 0.40933585 0.40833828 0.59320515

alpha_0_A f4 [1280]
00000000: 1369 a640 1369 a640 1369 a640 1369 a640
00000010: 00f8 9b41 1369 a640 1369 a640 1369 a640
00000020: 1369 a640 00f8 9b41 1369 a640 1369 a640
00000030: 1369 a640 1369 a640 00f8 9b41 1369 a640
00000040: 1369 a640 1369 a640 1369 a640 00f8 9b41
00000050: 1369 a640 1369 a640 1369 a640 1369 a640
00000060: 00f8 9b41 1369 a640 1369 a640 1369 a640
00000070: 1369 a640 00f8 9b41 1369 a640 1369 a640
00000080: 1369 a640 1369 a640 00f8 9b41 1369 a640
00000090: 1369 a640 1369 a640 1369 a640 00f8 9b41
000000a0: 1369 a640 1369 a640 1369 a640 1369 a640
000000b0: 00f8 9b41 1369 a640 1369 a640 1369 a640
000000c0: 1369 a640 00f8 9b41 1369 a640 1369 a640
000000d0: 1369 a640 1369 a640 00f8 9b41 1369 a640
000000e0: 1369 a640 1369 a640 1369 a640 00f8 9b41
000000f0: 1369 a640 1369 a640 1369 a640 1369 a640
00000100: 00f8 9b41 1369 a640 1369 a640 1369 a640
00000110: 1369 a640 00f8 9b41 1369 a640 1369 a640
00000120: 1369 a640 1369 a640 00f8 9b41 1369 a640
00000130: 1369 a640 1369 a640 1369 a640 00f8 9b41
00000140: 1369 a640 1369 a640 1369 a640 1369 a640
00000150: 00f8 9b41 1369 a640 1369 a640 1369 a640
00000160: 1369 a640 00f8 9b41 1369 a640 1369 a640
00000170: 1369 a640 1369 a640 00f8 9b41 1369 a640
00000180: 1369 a640 1369 a640 1369 a640 00f8 9b41
00000190: 1369 a640 1369 a640 1369 a640 1369 a640
000001a0: 00f8 9b41 1369 a640 1369 a640 1369 a640
000001b0: 1369 a640 00f8 9b41 1369 a640 1369 a640
000001c0: 1369 a640 1369 a640 00f8 9b41 1369 a640
000001d0: 1369 a640 1369 a640 1369 a640 00f8 9b41
000001e0: 1369 a640 1369 a640 1369 a640 1369 a640
000001f0: 00f8 9b41 1369 a640 1369 a640 1369 a640
00000200: 1369 a640 00f8 9b41 1369 a640 1369 a640
00000210: 1369 a640 1369 a640 00f8 9b41 1369 a640
00000220: 1369 a640 1369 a640 1369 a640 00f8 9b41
00000230: 1369 a640 1369 a640 1369 a640 1369 a640
00000240: 00f8 9b41 1369 a640 1369 a640 1369 a640
00000250: 1369 a640 00f8 9b41 1369 a640 1369 a640
00000260: 1369 a640 1369 a640 00f8 9b41 1369 a640
00000270: 1369 a640 1369 a640 1369 a640 00f8 9b41
00000280: 1369 a640 1369 a640 1369 a640 1369 a640
00000290: 00f8 9b41 1369 a640 1369 a640 1369 a640
000002a0: 1369 a640 00f8 9b41 1369 a640 1369 a640
000002b0: 1369 a640 1369 a640 00f8 9b41 1369 a640
000002c0: 1369 a640 1369 a640 1369 a640 00f8 9b41
000002d0: 1369 a640 1369 a640 1369 a640 1369 a640
000002e0: 00f8 9b41 1369 a640 1369 a640 1369 a640
000002f0: 1369 a640 00f8 9b41 1369 a640 1369 a640
00000300: 1369 a640 1369 a640 00f8 9b41 1369 a640
00000310: 1369 a640 1369 a640 1369 a640 00f8 9b41
00000320: 1369 a640 1369 a640 1369 a640 1369 a640
00000330: 00f8 9b41 1369 a640 1369 a640 1369 a640
00000340: 1369 a640 00f8 9b41 1369 a640 1369 a640
00000350: 1369 a640 1369 a640 00f8 9b41 1369 a640
00000360: 1369 a640 1369 a640 1369 a640 00f8 9b41
00000370: 1369 a640 1369 a640 1369 a640 1369 a640
00000380: 00f8 9b41 1369 a640 1369 a640 1369 a640
00000390: 1369 a640 00f8 9b41 1369 a640 1369 a640
000003a0: 1369 a640 1369 a640 00f8 9b41 1369 a640
000003b0: 1369 a640 1369 a640 1369 a640 00f8 9b41
000003c0: 1369 a640 1369 a640 1369 a640 1369 a640
000003d0: 00f8 9b41 1369 a640 1369 a640 1369 a640
000003e0: 1369 a640 00f8 9b41 1369 a640 1369 a640
000003f0: 1369 a640 1369 a640 00f8 9b41 1369 a640
5.2003264 5.2003264 5.2003264 5.2003264 19.496094 5.2003264 5.2003264 5.2003264
5.2003264 19.496094 5.2003264 5.2003264 5.2003264 5.2003264 19.496094 5.2003264
5.2003264 5.2003264 5.2003264 19.496094 5.2003264 5.2003264 5.2003264 5.2003264
19.496094 5.2003264 5.2003264 5.2003264 5.2003264 19.496094 5.2003264 5.2003264
5.2003264 5.2003264 19.496094 5.2003264 5.2003264 5.2003264 5.2003264 19.496094
5.2003264 5.2003264 5.2003264 5.2003264 19.496094 5.2003264 5.2003264 5.2003264
5.2003264 19.496094 5.2003264 5.2003264 5.2003264 5.2003264 19.496094 5.2003264
5.2003264 5.2003264 5.2003264 19.496094 5.2003264 5.2003264 5.2003264 5.2003264
19.496094 5.2003264 5.2003264 5.2003264 5.2003264 19.496094 5.2003264 5.2003264
5.2003264 5.2003264 19.496094 5.2003264 5.2003264 5.2003264 5.2003264 19.496094
5.2003264 5.2003264 5.2003264 5.2003264 19.496094 5.2003264 5.2003264 5.2003264
5.2003264 19.496094 5.2003264 5.2003264 5.2003264 5.2003264 19.496094 5.2003264
5.2003264 5.2003264 5.2003264 19.496094 5.2003264 5.2003264 5.2003264 5.2003264
19.496094 5.2003264 5.2003264 5.2003264 5.2003264 19.496094 5.2003264 5.2003264
5.2003264 5.2003264 19.496094 5.2003264 5.2003264 5.2003264 5.2003264 19.496094
5.2003264 5.2003264 5.2003264 5.2003264 19.496094 5.2003264 5.2003264 5.2003264
5.2003264 19.496094 5.2003264 5.2003264 5.2003264 5.2003264 19.496094 5.2003264
5.2003264 5.2003264 5.2003264 19.496094 5.2003264 5.2003264 5.2003264 5.2003264
19.496094 5.2003264 5.2003264 5.2003264 5.2003264 19.496094 5.2003264 5.2003264
5.2003264 5.2003264 19.496094 5.2003264 5.2003264 5.2003264 5.2003264 19.496094
5.2003264 5.2003264 5.2003264 5.2003264 19.496094 5.2003264 5.2003264 5.2003264
5.2003264 19.496094 5.2003264 5.2003264 5.2003264 5.2003264 19.496094 5.2003264
5.2003264 5.2003264 5.2003264 19.496094 5.2003264 5.2003264 5.2003264 5.2003264
19.496094 5.2003264 5.2003264 5.2003264 5.2003264 19.496094 5.2003264 5.2003264
5.2003264 5.2003264 19.496094 5.2003264 5.2003264 5.2003264 5.2003264 19.496094
5.2003264 5.2003264 5.2003264 5.2003264 19.496094 5.2003264 5.2003264 5.2003264
5.2003264 19.496094 5.2003264 5.2003264 5.2003264 5.2003264 19.496094 5.2003264
5.2003264 5.2003264 5.2003264 19.496094 5.2003264 5.2003264 5.2003264 5.2003264
19.496094 5.2003264 5.2003264 5.2003264 5.2003264 19.496094 5.2003264 5.2003264
5.2003264 5.2003264 19.496094 5.2003264 5.2003264 5.2003264 5.2003264 19.496094
5.2003264 5.2003264 5.2003264 5.2003264 19.496094 5.2003264 5.2003264 5.2003264
5.2003264 19.496094 5.2003264 5.2003264 5.2003264 5.2003264 19.496094 5.2003264

hlistA f4 [80, 4, 8]
00000000: 938f e13b 0bc4 4bbd df80 0d3e 0a62 073e
00000010: 7215 5f3e a381 03bf aad4 6fbe 4982 273e
00000020: 402a c53c dcf7 23bd d635 10bd 5476 c93c
00000030: 2ba7 a5bd 1859 fbbb 49e4 1cbd 4498 ddbc
00000040: c819 1d3d 2966 9bbd 30e4 f4bc d20e b53d
00000050: 08c6 eb3c e96e 06bf 7405 91be 5ae1 0d3e
00000060: d895 4fbe 4ece bbbe f88e cdbd 8ddf af40
00000070: b228 2fbe d53c 983e 6d60 4abe 9ecd 7241
00000080: 938f e13b 0bc4 4bbd df80 0d3e 0a62 073e
00000090: 7215 5f3e a381 03bf aad4 6fbe 4982 273e
000000a0: 26e6 443d 5833 cdbb 0d88 32bd 51f6 b13d
000000b0: 1679 84bd 4497 27bc bc6d 2cbd 4750 953c
000000c0: fc00 223d e846 8bbd 284d 04bd 9a2f cf3d
000000d0: 802c dfbb 022d 18bf 0f71 96be ac5f f63d
000000e0: 4c53 5abe e5f5 c5be 7e28 e0bd 5704 ba40
000000f0: f67c 41be 5474 a23e 8770 59be 7f56 8141
00000100: 938f e13b 0bc4 4bbd df80 0d3e 0a62 073e
00000110: 7215 5f3e a381 03bf aad4 6fbe 4982 273e
00000120: acbc 3b3d af07 e1bb c8e5 33bd 26cb b43d
00000130: bbc7 83bd e19a 20bc 4fe9 2cbd 560f 7d3c
00000140: b8c4 303d 8ada 94bd 9021 0cbd 051f ca3d
00000150: 60ff 6d3c 9037 13bf 0c90 99be 36ac 093e
00000160: ead9 43be bde6 b1be c00b c1bd c91b a540
00000170: 3462 21be f924 8f3e 0749 3dbe 964f 6341
00000180: 938f e13b 0bc4 4bbd df80 0d3e 0a62 073e
00000190: 7215 5f3e a381 03bf aad4 6fbe 4982 273e
000001a0: ff30 b83c ef2a 2bbd 47d4 0ebd 481f b23c
000001b0: 4822 a7bd 187b f4bb 1048 1cbd f0e7 f3bc
000001c0: f408 203d 7673 9ebd 98b8 f7bc 2eef b13d
000001d0: 726a 0c3d c665 04bf 4e1b 91be 7646 113e
000001e0: da97 4bbe 5e4e b8be c072 c8bd 192d ac40
000001f0: 16ca 29be f8ea 943e 128e 45be 9154 6d41
00000200: 34e3 223e 3375 43be 57a4 89bc 7839 37bd
00000210: 6f1f 03bd f5e8 3bbe 8baa aa3d b21c a8bc
00000220: 71f2 0e3f ee08 05be 0390 b03e 5463 06c0
00000230: 84ea 0a3d 66ce ba3d 7803 7b3e 64be 9a3d
00000240: 2ce0 6cbe d3dd 16bf ac0a 903d 9440 fa3d
00000250: d0ec 64be 115e d33f 7ab6 0dbf a86f 043f
00000260: 35b6 2ec0 e1b7 bdc0 acb0 64c0 4271 aa42
00000270: 464b d1c0 21f2 ce40 152e 9bc0 0493 9243
00000280: 938f e13b 0bc4 4bbd df80 0d3e 0a62 073e
00000290: 7215 5f3e a381 03bf aad4 6fbe 4982 273e
000002a0: 4cb6 853c fa65 64bd d0bc eabc 4c90 aebc
000002b0: 0f33 b0bd d8b0 a3bb fee6 0cbd 08ee 46bd
000002c0: e016 f43b 6878 68bd b0b2 3dbc ca8e 913d
000002d0: 88ad d43c 929c dbbe 3409 70be fa7d 003e
000002e0: a712 a3be 4098 1abf 23e8 6bbe 542a 1141
000002f0: 1f22 d5be 7895 0c3f c875 c5be eb39 d841
00000300: 938f e13b 0bc4 4bbd df80 0d3e 0a62 073e
00000310: 7215 5f3e a381 03bf aad4 6fbe 4982 273e
00000320: f88b 643c 3757 4ebd 205e 08bd a064 233c
00000330: 9aeb adbd c068 d0bb 70c2 18bd e0de 33bd
00000340: 30fe 723d 840f d23b 2793 2cbe b6c9 a73d
00000350: 89a6 223e daa0 b8be f483 57be bc2e 363e
00000360: 4221 37be 5129 a5be c657 a6bd 46e7 9840
00000370: fcee 07be 0ace 813e 0a6e 29be 5967 4f41
00000380: 938f e13b 0bc4 4bbd df80 0d3e 0a62 073e
00000390: 7215 5f3e a381 03bf aad4 6fbe 4982 273e
000003a0: f863 7e3c 31ae 5fbd 2a4f f6bc c80e 5cbc
000003b0: e463 b0bd 7487 b2bb cb38 11bd 9cfb 41bd
000003c0: d0df 873c 5470 45bd bc16 03bd 00c8 573d
000003d0: 102d 243d 9283 c3be 1806 86be a604 163e
000003e0: 76e8 72be 9b1c dabe 8e71 f6bd ac68 d040
000003f0: fc33 5bbe aa76 b43e 312c 73be ca19 9141
0.0068835705 -0.049747508 0.13818692 0.13220993 0.21785524 -0.51369685 -0.23420969 0.16358294
0.024067998 -0.0400313 -0.035207592 0.024592556 -0.080885254 -0.007670533 -0.038303647 -0.027050145
0.038354665 -0.07587845 -0.029893965 0.088407174 0.028780952 -0.52512985 -0.28324473 0.13855496
-0.20272005 -0.36680835 -0.10037035 5.496039 -0.17105368 0.2973391 -0.19763346 15.1751995
0.0068835705 -0.049747508 0.13818692 0.13220993 0.21785524 -0.51369685 -0.23420969 0.16358294
0.04807105 -0.006262224 -0.04358678 0.08689559 -0.06468408 -0.010228936 -0.04209684 0.018226756
0.03955172 -0.06800634 -0.032300144 0.10116501 -0.0068107247 -0.59443676 -0.29383132 0.12029967
-0.21320838 -0.38664165 -0.10945223 5.81303 -0.18895325 0.31729376 -0.21234332 16.167234
0.0068835705 -0.049747508 0.13818692 0.13220993 0.21785524 -0.51369685 -0.23420969 0.16358294
0.04583423 -0.006867371 -0.04392031 0.0882781 -0.0643458 -0.009802551 -0.042214688 0.015445551
0.043156356 -0.072682455 -0.034211695 0.09869198 0.014526218 -0.57506657 -0.29992712 0.134446
-0.19126096 -0.34746352 -0.09426069 5.1596417 -0.15760118 0.27957895 -0.18484889 14.20693
0.0068835705 -0.049747508 0.13818692 0.13220993 0.21785524 -0.51369685 -0.23420969 0.16358294
0.0224843 -0.04178899 -0.034870412 0.021743432 -0.081608355 -0.007460963 -0.03815466 -0.029773682
0.03907104 -0.07736866 -0.030239388 0.08688198 0.0342812 -0.51717794 -0.28341144 0.14187035
-0.19882146 -0.3599729 -0.09787512 5.380505 -0.16580996 0.29085517 -0.19292477 14.833146
0.15906984 -0.19087677 -0.016801996 -0.04473254 -0.0320124 -0.18350585 0.0833331 -0.020521495
0.55838686 -0.12991688 0.34484872 -2.0998125 0.033915058 0.09121399 0.24513042 0.075558454
-0.2313239 -0.58932227 0.070332855 0.122193485 -0.22355962 1.6513082 -0.5535656 0.51732874
-2.729871 -5.928696 -3.5732832 85.22121 -6.5404387 6.4670568 -4.8493752 293.14856
0.0068835705 -0.049747508 0.13818692 0.13220993 0.21785524 -0.51369685 -0.23420969 0.16358294
0.016322277 -0.055761315 -0.028654486 -0.02130904 -0.08603489 -0.0049954467 -0.03439998 -0.048566848
0.007449016 -0.056755453 -0.011578247 0.07107313 0.025961652 -0.4289289 -0.2344101 0.12548056
-0.31850168 -0.60388565 -0.23037772 9.072834 -0.41627595 0.5491557 -0.38566422 27.02828
0.0068835705 -0.049747508 0.13818692 0.13220993 0.21785524 -0.51369685 -0.23420969 0.16358294
0.013949387 -0.050376143 -0.03329289 0.009972721 -0.08492203 -0.0063601434 -0.037294805 -0.043913722
0.059324443 0.006410541 -0.16853009 0.0819277 0.1588384 -0.3606022 -0.2104643 0.17791265
-0.1788378 -0.32258084 -0.0812221 4.7782316 -0.13274759 0.25352508 -0.16545883 12.962731
0.0068835705 -0.049747508 0.13818692 0.13220993 0.21785524 -0.51369685 -0.23420969 0.16358294
0.015526764 -0.05460948 -0.030067045 -0.0134312585 -0.086128026 -0.005448276 -0.035454553 -0.047359094
0.016586214 -0.048202828 -0.032004103 0.05268097 0.040082037 -0.38186318 -0.26176524 0.1465021
-0.2372149 -0.4259995 -0.120333776 6.5127773 -0.21406549 0.35246783 -0.23747326 18.137592

qB f4 [160, 1]
00000000: 9f92 29bf 31da 243f ae14 cfbe 8cea cdbe
00000010: 3760 1dbf b421 bb3e 7206 ee3e 5c69 473e
00000020: 10b2 3f3e 70f5 683e ca13 22bf c699 463f
00000030: bacb e3be 14d3 e9be 063e 29bf ce06 b83e
00000040: 08b6 ec3e 8437 623e c81d 2d3e e84e 553e
00000050: bc24 24bf 4ccf 2a3f 88cd cdbe b09d dbbe
00000060: e0b1 16bf 1dd4 b53e ca51 f43e 720b 5a3e
00000070: 3c54 293e 2248 3b3e 19ab 21bf 197c 413f
00000080: ce16 dbbe dc62 f3be 556d 26bf 67a9 b53e
00000090: a513 f93e 569c 4e3e 8802 383e b24b 533e
000000a0: c3ac 33bf 58e7 2c3f be25 c5be 0619 dfbe
000000b0: f3bf 22bf 9f81 bd3e 924a f23e 245e 623e
000000c0: b236 4b3e b065 613e ce34 1dbf 30f5 393f
000000d0: d0a5 ddbe 4a4a ddbe 5c10 22bf 6f4d ba3e
000000e0: 92f7 e53e e8d2 5a3e c681 143e 7c41 5b3e
000000f0: b6b4 23bf 7c5b 293f b0c0 d3be 6634 d9be
00000100: fa04 20bf 52e5 bb3e 6acc f23e 36d9 543e
00000110: 3425 423e f200 4f3e d39a 31bf 2ac7 443f
00000120: 0a1b d1be be79 f1be cf34 26bf 9aa0 b63e
00000130: b763 f53e b4fa 673e 46fa 573e a64d 393e
00000140: eecc 1cbf 3e83 2e3f 8459 d3be 0abc debe
00000150: fc14 24bf c75e c13e 0290 e43e 0082 4f3e
00000160: 1e8d 393e 24b9 583e 3723 1dbf 221c 313f
00000170: f630 d1be 5442 c6be 8f1e 28bf 5212 b93e
00000180: 0938 e63e 30ba 4c3e 6a41 2f3e feec 443e
00000190: eeae 1abf a008 3e3f c4ee e0be 16f4 e6be
000001a0: 4ea4 2abf d89a c03e 33cf e73e b0ab 3d3e
000001b0: 94de 3f3e d091 5e3e 4442 1ebf d340 3f3f
000001c0: b497 e7be e8b9 f4be 807f 24bf f6e2 bd3e
000001d0: 3659 f33e c0bc 563e 8817 403e 645a 4d3e
000001e0: 112f 2cbf b08e 2e3f aadf c8be 8e98 d1be
000001f0: 114a 28bf 36df be3e 6e68 ef3e c6e7 4d3e
00000200: 8c19 5d3e 9a09 453e aa03 21bf 89b7 3d3f
00000210: c05a ddbe e611 c4be 52fb 29bf cb3b b43e
00000220: 3e62 f93e 5825 413e 7408 2c3e 488d 2f3e
00000230: 5416 13bf 2cd3 3d3f bc75 f0be ca1f f3be
00000240: 5ad0 27bf f3a3 c33e 2e33 ec3e ec9d 363e
00000250: d070 2b3e 3ebc 793e 1297 1ebf 1bf6 3f3f
00000260: 242d f2be 821e f4be fe3f 24bf b4a9 c33e
00000270: c9fc f53e 3af5 433e aebb 503e 241d 503e
-0.6623935 0.64395434 -0.40445465 -0.40218008 -0.6147494 0.3654915 0.46489292 0.19473785
0.18720269 0.22749877 -0.63311446 0.7757839 -0.4449137 -0.45668852 -0.66110265 0.35942692
0.4623263 0.2209149 0.16905892 0.20830882 -0.6411855 0.6672256 -0.4019587 -0.42893744
-0.58865166 0.35513392 0.4771865 0.21293429 0.16536039 0.18289235 -0.631517 0.75579983
-0.42790836 -0.4753636 -0.6501058 0.35480806 0.486478 0.20176825 0.17969716 0.20634344
-0.7018549 0.675405 -0.38505358 -0.4357378 -0.6357414 0.37012956 0.47322518 0.22106224
0.19845083 0.22011447 -0.614087 0.7263975 -0.43290567 -0.4322074 -0.6330621 0.36387202
0.44915444 0.21369517 0.1450263 0.21411699 -0.6394762 0.6615522 -0.41357946 -0.4242279
-0.62507594 0.36698395 0.4742158 0.20785984 0.18959504 0.20215204 -0.6937687 0.768664
-0.40840942 -0.47163194 -0.6492433 0.35669404 0.4792764 0.2265423 0.21091565 0.18096027
-0.612502 0.6816901 -0.41279233 -0.43502837 -0.6409452 0.37767622 0.4464112 0.20264435
0.18120238 0.21164376 -0.6138186 0.6918355 -0.40857667 -0.3872248 -0.6567163 0.3614679
0.44964626 0.199929 0.17114797 0.1923103 -0.6042317 0.7423191 -0.43932164 -0.45108098
-0.6665696 0.37618136 0.45275268 0.18522525 0.1873725 0.2173531 -0.61819863 0.7470829
-0.45232928 -0.47798085 -0.6425705 0.3708722 0.47529 0.2097044 0.18758976 0.20054013
-0.6725932 0.68186474 -0.39233142 -0.40936702 -0.65738016 0.3727967 0.4675936 0.20107946
0.21591777 0.19241944 -0.62896216 0.7410818 -0.432333 -0.38294905 -0.6639911 0.35201868
0.48707765 0.18861902 0.168001 0.17143738 -0.57455945 0.7415035 -0.46964824 -0.4748519
-0.65552294 0.3821102 0.46132797 0.1783368 0.16742253 0.24388215 -0.61949265 0.749849
-0.47300065 -0.47679526 -0.64160144 0.3821541 0.48044422 0.19136515 0.20384094 0.20323616
