tests/test_data_path/og_processed/dimer_ap3_train_spec_7_359.pt (torch, 360594 bytes, 17 tensors)

y f4 [16, 4]
0	0xbfb8d553	-1.4440101
1	0x3faf7c7a	1.3709862
2	0xc030c4ce	-2.762012
3	0xbfc2183c	-1.5163646
4	0xc18eb7fd	-17.839838
5	0x41c35686	24.417248
6	0xc11944d1	-9.579301
7	0xc0e967a3	-7.293901
8	0xbf75a492	-0.9595424
9	0x3c3dd18f	0.011585607
10	0xbf624ed1	-0.88401514
11	0xbec88d35	-0.39170232
12	0x3f31b761	0.6942044
13	0x3e8e8bfe	0.2784118
14	0xbfb9edfb	-1.4525751
15	0xbf89bd92	-1.0760977
16	0xc09e4132	-4.9454584
17	0x41f5f38d	30.743921
18	0xc08a326e	-4.318656
19	0xc1052256	-8.320883
20	0xbf816f0c	-1.0112014
21	0x3a41751b	0.0007379816
22	0xbe88be8d	-0.2670788
23	0xbe5d6465	-0.21620329
24	0x3fb499d1	1.4109441
25	0x39a17e2c	0.00030802318
26	0xbece3e65	-0.40281978
27	0xbdb4eac8	-0.088338435
28	0x408c74e2	4.389268
29	0x40bcdc32	5.9018793
30	0xc009613d	-2.14656
31	0xc0ad2631	-5.410912
32	0xbf1fd233	-0.62430114
33	0x37d9346e	2.589283e-05
34	0xbe601221	-0.21881916
35	0xbd81546e	-0.06314932
36	0xc0148d22	-2.321114
37	0x411b80b0	9.718918
38	0xc02a1617	-2.6575983
39	0xc07ae101	-3.9199831
40	0x3f2c217a	0.6723858
41	0x368812f6	4.055323e-06
42	0xbe53d19b	-0.20685427
43	0xbd6bfa25	-0.057611603
44	0xc0f04bba	-7.509244
45	0x41c501d7	24.625898
46	0xc08d7337	-4.4203143
47	0xc0f97559	-7.7955747
48	0x3eb42a48	0.35188508
49	0x3a2f0422	0.0006676336
50	0xbef773ae	-0.48330444
51	0xbe1baeb7	-0.15203367
52	0xbf99ec1f	-1.2025183
53	0x40b26d19	5.5758176
54	0xc0a4eff3	-5.1542907
55	0xc08a0813	-4.3134856
56	0xc0a5a903	-5.1768813
57	0x3eff0af0	0.49813032
58	0xbfb19a13	-1.3875145
59	0xbfdca728	-1.7238512
60	0x402a1405	2.657472
61	0x3cad8f26	0.021186423
62	0xbf7f9041	-0.9982949
63	0xbec46a6d	-0.38362446

RA f4 [272, 3]
0	0x3e64ef46	0.223569
1	0x3ece8f6d	0.403438
2	0xbfea6a6e	-1.831373
3	0xbf0b95f6	-0.545257
4	0xbf2e6a66	-0.681311
5	0x3fce4103	1.611359
6	0xbf5615fd	-0.836273
7	0x3f062691	0.524026
8	0xc0397914	-2.898015
9	0x3f95b331	1.169531
10	0x3f959f4d	1.168924
11	0x3f92e64b	1.147653
12	0x3f051c08	0.519959
13	0xbdb6bb13	-0.089224
14	0x3f163b04	0.586838
15	0xbe8cb3c4	-0.274809
16	0x3e2a68b2	0.166415
17	0xbf1a9867	-0.603888
18	0xbfdb89a4	-1.715138
19	0xbf4df84d	-0.80457
20	0x3fa838a0	1.314228
21	0x3fb38890	1.402605
22	0x3f14c522	0.581133
23	0xc0072880	-2.111847
24	0x3c1567dc	0.009119
25	0xbf893b08	-1.072114
26	0x402c544c	2.692645
27	0xbf3f59ff	-0.747467
28	0x3fb7e037	1.43653
29	0xc05eedc8	-3.483263
30	0xbf21ad75	-0.631553
31	0xbe9f583a	-0.31122
32	0xc0702303	-3.752137
33	0xbfe5e732	-1.796118
34	0x3ec4eb79	0.384609
35	0xc0212ad4	-2.518239
36	0x3ecdbd30	0.401834
37	0x3ff6f47b	1.929336
38	0x3fb12e51	1.384226
39	0x3fd941ea	1.697324
40	0x3f66fbb1	0.902278
41	0x4004ea70	2.076809
42	0x3fea7f80	1.832016
43	0x3fd0eaa7	1.632161
44	0x3ee72e49	0.451525
45	0x3fa0ac64	1.255261
46	0xbf4ac54c	-0.792073
47	0x3eabf3e0	0.335845
48	0xbf99fdf0	-1.203062
49	0xbc5d50a9	-0.013508
50	0xbefe0158	-0.496104
51	0x3e2c8323	0.168469
52	0x3edbac71	0.42905
53	0xbfe4f92b	-1.788854
54	0xbf1118e3	-0.566786
55	0xbf40f9f4	-0.753814
56	0x3fd5b62c	1.669622
57	0xbf51691a	-0.81801
58	0x3ef86fef	0.485229
59	0xc03d1162	-2.954186
60	0x3f990d17	1.195712
61	0x3f93abb9	1.153678
62	0x3f9a37df	1.20483
63	0x3f00b274	0.502723
64	0xbdc161e5	-0.094425
65	0x3f1d46f6	0.614364
66	0xbe4d15ad	-0.200278
67	0x3e1f8876	0.155794
68	0xbf1ff37c	-0.624809
69	0xbfcfc393	-1.623156
70	0xbf4be34c	-0.796437
71	0x3fa476b0	1.284872
72	0x3fb5e7a7	1.421132
73	0x3f052c7c	0.52021
74	0xc008aa7a	-2.135405
75	0x3d48f649	0.049063
76	0xbf8d5810	-1.10425
77	0x402e7870	2.726101
78	0xbf33607c	-0.700691
79	0x3fbfe84f	1.499277
80	0xc05eeb2d	-3.483104
81	0xbf17a11b	-0.592302
82	0xbe8e683c	-0.278139
83	0xc06c5771	-3.692837
84	0xbfecf2e9	-1.851163
85	0x3ed6f007	0.4198
86	0xc023e65c	-2.560935
87	0x3ecfe32a	0.40603
88	0x3ffff4f5	1.999663
89	0x3fb048d8	1.377223
90	0x3fd9b0cd	1.700708
91	0x3f74f1b2	0.956813
92	0x4005d890	2.091343
93	0x3fe53fea	1.791013
94	0x3fce89e3	1.613583
95	0x3f04d456	0.518865
96	0x3fa2307f	1.267105
97	0xbf577100	-0.841568
98	0x3eb356da	0.350272
99	0xbfa099e9	-1.254697
100	0xbd13458d	-0.035955
101	0xbee367c3	-0.444151
102	0x3e58cda7	0.211722
103	0x3ebad730	0.364923
104	0xbfe84bd3	-1.814814
105	0xbeca25b7	-0.394819
106	0xbf330e91	-0.699441
107	0x3fd20675	1.640822
108	0xbf540bfe	-0.828308
109	0x3f00125a	0.50028
110	0xc03b72b4	-2.928876
111	0x3f8f8ce3	1.121487
112	0x3f983a6d	1.189283
113	0x3f919f3c	1.137672
114	0x3f02f028	0.511477
115	0xbd9a4617	-0.075329
116	0x3f1a4441	0.602604
117	0xbe8cda2b	-0.275102
118	0x3e3bacf7	0.183277
119	0xbf1a8c37	-0.603702
120	0xbfd89931	-1.692175
121	0xbf53dd76	-0.827598
122	0x3fa43904	1.28299
123	0x3fbb5ff6	1.463866
124	0x3eee7fb2	0.465818
125	0xc009b9aa	-2.151957
126	0x3d2846a6	0.041083
127	0xbf948f11	-1.160616
128	0x40327f63	2.789025
129	0xbf3d524c	-0.739537
130	0x3fb9c2ca	1.451257
131	0xc05b1feb	-3.423823
132	0xbf139c20	-0.576601
133	0xbe5dda06	-0.216652
134	0xc06f4741	-3.738724
135	0xbfeaed70	-1.835371
136	0x3eb8aeda	0.360709
137	0xc0266274	-2.599759
138	0x3ea7e2c5	0.327902
139	0x3ffaa644	1.958199
140	0x3fae7560	1.362957
141	0x3fd5fdbd	1.671806
142	0x3f6b1466	0.91828
143	0x4005a598	2.088232
144	0x3ff1c372	1.888777
145	0x3fd76577	1.682784
146	0x3ecefa61	0.404254
147	0x3fb04d0a	1.377351
148	0xbf538573	-0.826255
149	0x3eab9d80	0.335186
150	0xbfa0af04	-1.255341
151	0xbd896031	-0.067078
152	0xbedce2d2	-0.431418
153	0x3e34e69f	0.176661
154	0x3ec684f1	0.387733
155	0xbfe99e41	-1.825142
156	0xbf039357	-0.513967
157	0xbf47e015	-0.780763
158	0x3fce492c	1.611608
159	0xbf5bfb16	-0.8593
160	0x3f0cc176	0.549827
161	0xc04050a0	-3.004921
162	0x3f8d9536	1.106116
163	0x3f9bc30d	1.21689
164	0x3f948e7a	1.160598
165	0x3f0d3a1d	0.551668
166	0xbcc9f72f	-0.024654
167	0x3f23ed74	0.640342
168	0xbe5fbfc6	-0.218505
169	0x3e0db2f6	0.138378
170	0xbf14df8b	-0.581536
171	0xbfdcf640	-1.726265
172	0xbf5aed57	-0.855184
173	0x3fa185e0	1.261898
174	0x3fb75169	1.432172
175	0x3f0a2318	0.539598
176	0xc007a4df	-2.119438
177	0xbd266128	-0.04062
178	0xbf90ddbe	-1.131767
179	0x402e2129	2.720774
180	0xbf3957de	-0.723997
181	0x3fbe18ad	1.485128
182	0xc05c51d7	-3.442495
183	0xbf1d9179	-0.615501
184	0xbe922b39	-0.285486
185	0xc07039e2	-3.753533
186	0xbfeddf6e	-1.858381
187	0x3ec23183	0.379284
188	0xc024392e	-2.56599
189	0x3ec76838	0.389467
190	0x400068fd	2.006408
191	0x3fb60d5f	1.422283
192	0x3fd80ba2	1.687855
193	0x3f755358	0.958303
194	0x400474b8	2.069624
195	0x3fe7a0d7	1.809596
196	0x3fc84d7f	1.564865
197	0x3ee78b37	0.452234
198	0x3fad6cdf	1.354885
199	0xbf4d6207	-0.802277
200	0x3ed2c0e8	0.411628
201	0xbf9cc919	-1.224887
202	0xbd4a43bb	-0.049381
203	0xbef686e8	-0.481498
204	0x3e517d6b	0.20458
205	0x3ed2d0e5	0.41175
206	0xbfe8575c	-1.815166
207	0xbf07176a	-0.527701
208	0xbf328e1d	-0.697481
209	0x3fd9d8e0	1.701931
210	0xbf5a514c	-0.852803
211	0x3f02b65b	0.510595
212	0xc039d7b6	-2.903791
213	0x3f936580	1.151535
214	0x3f9160f2	1.135771
215	0x3f939afa	1.153167
216	0x3f015012	0.505128
217	0xbde16378	-0.110053
218	0x3f19e52a	0.601153
219	0xbe92ecd0	-0.286963
220	0x3e487bdd	0.195785
221	0xbf204c16	-0.626161
222	0xbfd80ff5	-1.687987
223	0xbf402adc	-0.750654
224	0x3fa66e54	1.300242
225	0x3fb543e1	1.416134
226	0x3f0a85a9	0.541102
227	0xc003da88	-2.060213
228	0x3d52274a	0.051307
229	0xbf86bffd	-1.052734
230	0x4029ee13	2.655156
231	0xbf414057	-0.754888
232	0x3fbd3637	1.478217
233	0xc05ec393	-3.480687
234	0xbf1c460f	-0.610444
235	0xbe845910	-0.258492
236	0xc06887df	-3.633293
237	0xbff12f23	-1.884251
238	0x3edb5ed9	0.428458
239	0xc0291c8a	-2.642367
240	0x3ecb34e7	0.396888
241	0x3ffe0a7c	1.984695
242	0x3fbc7b81	1.472519
243	0x3fd64285	1.673905
244	0x3f6f62d8	0.935102
245	0x4006a438	2.103773
246	0x3fea8cef	1.832426
247	0x3fcee011	1.616213
248	0x3eecd9a5	0.462598
249	0x3fa4c1ec	1.287168
250	0xbf51b2e6	-0.819136
251	0x3ebd7471	0.370029
252	0xbf9ef0a6	-1.241719
253	0xbc937f39	-0.018005
254	0xbef29542	-0.473795
255	0x3e5cfc83	0.215807

RB f4 [240, 3]
0	0xbe9f6fd2	-0.3114
1	0xc084df29	-4.152241
2	0x40c9d914	6.307749
3	0xbfbc4a8c	-1.471025
4	0xc07ac3c6	-3.918199
5	0x40d0ea31	6.528588
6	0xc003c5a0	-2.058937
7	0xc073c700	-3.809021
8	0x40f905e0	7.781967
9	0xc05ea088	-3.478548
10	0xc076d0e5	-3.8565
11	0x40f485cd	7.641333
12	0xc068bc94	-3.63651
13	0xc05787c2	-3.367661
14	0x40c7bc56	6.24174
15	0xc01b178f	-2.423313
16	0xc0743127	-3.8155
17	0x40b51c2e	5.65969
18	0xc0050f30	-2.079052
19	0xc05e5acd	-3.474292
20	0x40877898	4.233471
21	0xbfd1c001	-1.638672
22	0xc087b932	-4.241357
23	0x410a1c98	8.631981
24	0xc07ac7a8	-3.918436
25	0xc04981c3	-3.148545
26	0x41075302	8.457766
27	0xc0776845	-3.865739
28	0xc09bb8bb	-4.8663
29	0x40f99a69	7.800099
30	0xc06f8a5d	-3.74282
31	0xc00ef7ec	-2.233882
32	0x40c6564b	6.198034
33	0xc090fd3b	-4.530912
34	0xc06e3bb8	-3.722395
35	0x40b9b583	5.803407
36	0xbf8c4b12	-1.096041
37	0xc070c261	-3.761864
38	0x4080da9f	4.026687
39	0xc00c0da6	-2.188333
40	0xc0190e5a	-2.391501
41	0x408139a8	4.038288
42	0xc0362635	-2.846082
43	0xc0803181	-4.006043
44	0x405e5f74	3.474576
45	0xbfb95f0b	-1.448213
46	0xc08d12da	-4.408551
47	0x401ff81f	2.499519
48	0xbe82d16c	-0.255504
49	0xc089f8ea	-4.311635
50	0x4023158c	2.54819
51	0x3f103819	0.563356
52	0xc0626d9c	-3.53794
53	0x405991cd	3.399524
54	0x4000ddca	2.013537
55	0xc0633ed9	-3.550711
56	0x403d05ab	2.953471
57	0x3ffe2657	1.985545
58	0xc0a1c72c	-5.055563
59	0x401c449e	2.441688
60	0x3f2d77c9	0.677609
61	0xc0a4fa14	-5.155527
62	0x3ff2d128	1.897008
63	0x3e8f2d5e	0.279643
64	0xc0cdd513	-6.43226
65	0x3fa3b507	1.278962
66	0x3e5b367a	0.214075
67	0xc02805d9	-2.625357
68	0x4067605b	3.615256
69	0x40276b7b	2.615935
70	0xc060b8c3	-3.511277
71	0x40774e94	3.864171
72	0x400d8e15	2.211797
73	0xc0362607	-2.846071
74	0x400e64b2	2.224896
75	0x400e193b	2.22029
76	0xc0b78b39	-5.735745
77	0x404e1bb5	3.220441
78	0x40327558	2.788412
79	0xc0a35aba	-5.104825
80	0x3fcbf677	1.593459
81	0xbf56eb3e	-0.839527
82	0xc0cdd3e9	-6.432118
83	0x3f963c21	1.17371
84	0x3ee06057	0.438235
85	0xc0ea47f1	-7.321282
86	0x3ffd481b	1.978763
87	0x3f30f1a2	0.691187
88	0xc0d59531	-6.674462
89	0x3edab5e5	0.427169
90	0xbf99218a	-1.196336
91	0xbfbcb9c3	-1.474419
92	0x4107f016	8.496115
93	0xbe006291	-0.125376
94	0xbff13f64	-1.884747
95	0x4100ab73	8.041858
96	0x3d1d4307	0.038394
97	0xc04633b9	-3.096907
98	0x40eb0adf	7.345077
99	0x3fb4283d	1.407478
100	0xc056d031	-3.356457
101	0x40e3f59d	7.123732
102	0x3fff171e	1.992893
103	0xbfffd827	-1.998784
104	0x40e5723d	7.170195
105	0x3f922813	1.141848
106	0xbfa95222	-1.322819
107	0x41028b7c	8.159054
108	0x3f9b932d	1.215429
109	0x3e11a049	0.142213
110	0x41059428	8.348671
111	0xbf189093	-0.595956
112	0xc075a893	-3.838414
113	0x40f219e7	7.565662
114	0x3fd5beec	1.669889
115	0xc079bea9	-3.902262
116	0x40c80e0d	6.251715
117	0x3feb7f06	1.839814
118	0xc07ef434	-3.983655
119	0x4100848f	8.032363
120	0x4004fb8b	2.077853
121	0xbfc9076c	-1.570539
122	0x40c8d437	6.275905
123	0x404771f3	3.11633
124	0xbff4a394	-1.911242
125	0x40f469e4	7.637926
126	0x3e798138	0.243657
127	0x3ef67fb2	0.481443
128	0x410eec8d	8.932752
129	0x3fa8c16e	1.318403
130	0x3f2e3748	0.680531
131	0x40ebbda9	7.366902
132	0x40045ebb	2.068282
133	0x3ec6581d	0.387391
134	0x410f71c1	8.965272
135	0x3f92a9a4	1.145802
136	0xc0b42507	-5.62952
137	0xbdc91644	-0.098187
138	0x3edebd2b	0.435037
139	0xc0c7ad84	-6.239931
140	0x3f45bf16	0.772447
141	0x3f595e9e	0.8491
142	0xc0e744fa	-7.22717
143	0x3fcd929f	1.606037
144	0xbe0a7ded	-0.135246
145	0xc0fc2922	-7.880021
146	0x400d4a1f	2.207649
147	0xbfabaa47	-1.341134
148	0xc0db3272	-6.849908
149	0x400e7bd5	2.226308
150	0xbf63d7a1	-0.890009
151	0xc0c14ea5	-6.04085
152	0x3f8676e2	1.050503
153	0xbfcf2de4	-1.618588
154	0xc0999998	-4.799999
155	0x3f0d0636	0.550876
156	0x3fde76e2	1.738003
157	0xc0f74c0a	-7.728032
158	0x3fa33abd	1.27523
159	0xbc7c7e6b	-0.015411
160	0xc104b5cc	-8.294384
161	0x404ad1d9	3.169058
162	0xbf05b339	-0.522266
163	0xc10c804f	-8.781325
164	0x3fce5ffa	1.612304
165	0xbfa0a127	-1.254918
166	0xc0c598d0	-6.174904
167	0x40466f09	3.100527
168	0xc01416ad	-2.313884
169	0xc0e70c95	-7.220286
170	0x4005aeb4	2.088788
171	0xbf865bd1	-1.049677
172	0xc08bf60e	-4.373786
173	0xbe2089a0	-0.156775
174	0xbfd5cc32	-1.670294
175	0xc083cc3c	-4.118681
176	0x3fb4c919	1.412387
177	0xc02c0664	-2.68789
178	0xc0a0b04b	-5.02152
179	0x3e9c1440	0.304842
180	0xbf444e72	-0.766822
181	0xc0207ba2	-2.507546
182	0xc074c854	-3.824727
183	0xbfedc22b	-1.857488
184	0xc0405a32	-3.005505
185	0xc087944b	-4.236852
186	0xc0052b3d	-2.080764
187	0xc086c8e2	-4.212022
188	0xc09a9b50	-4.831459
189	0xc05c903a	-3.446303
190	0xc0898462	-4.29741
191	0xc0a96ac6	-5.294284
192	0xc083a83b	-4.114286
193	0xc0525f74	-3.287076
194	0xc08804d1	-4.250588
195	0xc040faa4	-3.015298
196	0xc01ac737	-2.418409
197	0xc07d955b	-3.962241
198	0xc04cffce	-3.203113
199	0xbfaa490a	-1.330354
200	0xc03f720d	-2.991336
201	0xbfafd7cb	-1.373773
202	0xc0921f54	-4.566324
203	0xc0aadd2b	-5.339498
204	0xc074f887	-3.827669
205	0xc0a93ed7	-5.288921
206	0xc0a84b12	-5.259164
207	0xc0632817	-3.549322
208	0xc07c124d	-3.938617
209	0xc0cb2c1d	-6.349135
210	0xc0907428	-4.514179
211	0xc078a8e7	-3.885309
212	0xc058d25f	-3.38784
213	0xc0a259c5	-5.073458
214	0xc0377058	-2.866232
215	0xc0985e35	-4.7615
216	0xc01174a7	-2.272745
217	0xbf6eff2a	-0.933581
218	0xc039d25b	-2.903464
219	0xc0685979	-3.630461
220	0xbfe0e87d	-1.757095
221	0xc002a038	-2.041029
222	0xc0800126	-4.00014
223	0xbf19c8fc	-0.600723
224	0xc059ba77	-3.402006
225	0x40d94ec2	6.790864
226	0x406bfbf4	3.687253
227	0x4074a023	3.822274
228	0x40bee7fd	5.965819
229	0x405c5365	3.44259
230	0x409a054f	4.813148
231	0x40c644af	6.195884
232	0x40299cb7	2.65019
233	0x40bb45a2	5.85225
234	0x409da6f6	4.926631
235	0x4016a63b	2.353896
236	0x40d3d641	6.619904
237	0x408452b9	4.135098
238	0x4063db59	3.560263
239	0x40c54ff4	6.16601
240	0x40962342	4.691804
241	0x407dafd1	3.963856
242	0x409c4a2e	4.884055
243	0x4089e5f7	4.309322
244	0x40a3dab8	5.120449
245	0x40854eff	4.165893
246	0x40dbe857	6.872112
247	0x3ff390da	1.902858
248	0x40b9f50c	5.811163
249	0x40a2eedd	5.091658
250	0x400fdd09	2.247866
251	0x40f5e193	7.683786
252	0x408df9ab	4.436727
253	0x3fbdb603	1.482117
254	0x40c6784b	6.202184
255	0x40884405	4.258303

qA f4 [272, 1]
0	0x3f433121	0.7624684
1	0x3f3d0bb8	0.73846006
2	0xbf36ca94	-0.7140286
3	0xbf03f5f8	-0.51547194
4	0x3d12de88	0.035856754
5	0xbf1e94ce	-0.6194581
6	0xbf320a64	-0.69547105
7	0xbf2779b6	-0.6542009
8	0xbf408cc8	-0.75214815
9	0x3e4133b0	0.18867373
10	0x3e12e8e6	0.14346656
11	0x3e3391f8	0.17536151
12	0x3dfe26d8	0.124097526
13	0x3e15d226	0.14630947
14	0x3e16a262	0.14710382
15	0x3de77e3c	0.11303374
16	0x3ec07c27	0.3759472
17	0x3f3cce1b	0.7375199
18	0x3f44fe3a	0.7695042
19	0xbf325f9e	-0.6967715
20	0xbef7ab93	-0.48373088
21	0x3afa2600	0.0019084811
22	0xbf0ea486	-0.5571979
23	0xbf20fbdc	-0.62884307
24	0xbf41b306	-0.75663793
25	0xbf3e2cb0	-0.7428694
26	0x3e298d52	0.16557816
27	0x3e479430	0.19490123
28	0x3e2b5254	0.16730624
29	0x3da8e5b0	0.082469344
30	0x3e275be8	0.16343653
31	0x3e188626	0.14894924
32	0x3ddb62e4	0.10712221
33	0x3ea79b1f	0.32735536
34	0x3f3b4510	0.73152256
35	0x3f3537a8	0.7078805
36	0xbf2b09b4	-0.6681168
37	0xbf012004	-0.50439477
38	0x3cb05cf0	0.021528691
39	0xbf104966	-0.56362
40	0xbf4b7eb6	-0.7949022
41	0xbf3005f8	-0.6875911
42	0xbf3e68da	-0.7437874
43	0x3e3fb748	0.1872226
44	0x3e33f412	0.17573574
45	0x3e38979a	0.18026581
46	0x3e213428	0.15742552
47	0x3e329f7a	0.17443648
48	0x3e0f987a	0.14023009
49	0x3dd069a8	0.10176402
50	0x3ec4d030	0.38440084
51	0x3f386510	0.7202921
52	0x3f3db71a	0.74107516
53	0xbf2bfdac	-0.6718395
54	0xbef53392	-0.47890908
55	0x3d0ab250	0.03386146
56	0xbf0f0cbe	-0.5587882
57	0xbf4339aa	-0.76259863
58	0xbf340234	-0.7031586
59	0xbf419586	-0.7561878
60	0x3e523ff6	0.20532212
61	0x3e31c7c4	0.17361361
62	0x3e2b8fa4	0.16754013
63	0x3e0ff00c	0.14056414
64	0x3e0bb5c2	0.13643554
65	0x3e15a6a6	0.14614353
66	0x3dc7e5ec	0.09760651
67	0x3ebcf12f	0.36902758
68	0x3f40cdfc	0.7531431
69	0x3f4ba1f8	0.7954402
70	0xbf32e5b4	-0.6988175
71	0xbf023b46	-0.50871694
72	0xbc2710a0	-0.010196835
73	0xbf19239c	-0.5981996
74	0xbf41f258	-0.7576041
75	0xbf2e4b6a	-0.6808382
76	0xbf316dac	-0.6930797
77	0x3e2329fe	0.15933987
78	0x3e2b1eb8	0.16710937
79	0x3e2dc126	0.16968212
80	0x3dcff558	0.101542175
81	0x3e171e40	0.14757633
82	0x3e17aff0	0.14813209
83	0x3df65f30	0.12029874
84	0x3ec53770	0.38518858
85	0x3f3e2238	0.74270964
86	0x3f42327c	0.75858283
87	0xbf2f1ce1	-0.6840344
88	0xbefcdc3a	-0.4938677
89	0x3cc13c90	0.023588449
90	0xbf1c2dd5	-0.61007434
91	0xbf4bbe15	-0.7958692
92	0xbf25b693	-0.6473171
93	0xbf3c968d	-0.7366722
94	0x3e3b44d2	0.18287972
95	0x3e409c0c	0.18809527
96	0x3e25f202	0.162056
97	0x3e0f5202	0.13996127
98	0x3e1f96a2	0.15584806
99	0x3e0e60d4	0.13904124
100	0x3db1c5a8	0.08680278
101	0x3ec6cb5c	0.38827026
102	0x3f42db78	0.7611613
103	0x3f4309af	0.7618665
104	0xbf3646d6	-0.7120184
105	0xbf0c06d2	-0.54697907
106	0x3bdbce80	0.0067079663
107	0xbf1f4736	-0.62218034
108	0xbf4419a4	-0.76601624
109	0xbf236270	-0.6382208
110	0xbf405852	-0.75134766
111	0x3e3901ac	0.18067044
112	0x3e35bd0e	0.177479
113	0x3e2ea532	0.17055205
114	0x3e017542	0.12642387
115	0x3e2174d4	0.15767223
116	0x3e3ec7f2	0.1863096
117	0x3de9cab0	0.11415613
118	0x3ec99b6a	0.39376384
119	0x3f3eb688	0.7449727
120	0x3f3eb09a	0.7448822
121	0xbf2e707e	-0.681404
122	0xbf01cf96	-0.50707376
123	0x3ca006d0	0.019534498
124	0xbf1f33c0	-0.6218834
125	0xbf4e36c6	-0.8055233
126	0xbf2511b4	-0.6448014
127	0xbf3132aa	-0.6921793
128	0x3e377dd6	0.17919096
129	0x3e30abf4	0.17253095
130	0x3e3424c6	0.17592153
131	0x3e0662a2	0.13123563
132	0x3e1d1a06	0.15341958
133	0x3e11124a	0.14167133
134	0x3dc6dd7c	0.097102135
135	0x3ec8e8f6	0.39240235
136	0x3f435c7a	0.76312983
137	0x3f3efd60	0.7460537
138	0xbf3153ae	-0.6926831
139	0xbeff0477	-0.49808094
140	0x3cbb6b00	0.02287817
141	0xbf19f11a	-0.60133517
142	0xbf4a73a2	-0.7908269
143	0xbf215116	-0.6301435
144	0xbf3d7c2a	-0.74017584
145	0x3e4cb2f4	0.1999014
146	0x3e31005e	0.17285296
147	0x3e2283ac	0.15870541
148	0x3dfc8608	0.12330252
149	0x3e21fa04	0.1581803
150	0x3e163e26	0.14672145
151	0x3dc5982c	0.09648165
152	0x3ebae647	0.36503813
153	0x3f435faa	0.76317847
154	0x3f42c42b	0.7608058
155	0xbf319842	-0.6937295
156	0xbf01a4de	-0.5064219
157	0x3cad1060	0.021125972
158	0xbf1ec0de	-0.6201304
159	0xbf43caf8	-0.7648158
160	0xbf24cd7e	-0.64376056
161	0xbf453d86	-0.77047
162	0x3e4635d2	0.19356468
163	0x3e48c71c	0.19607204
164	0x3e0e6342	0.13905051
165	0x3e19aabe	0.15006539
166	0x3e249fb6	0.1607655
167	0x3dfb1c4c	0.122612566
168	0x3de27d84	0.110590965
169	0x3ec35389	0.3814967
170	0x3f4370d0	0.76344013
171	0x3f463270	0.7742071
172	0xbf37033c	-0.7148931
173	0xbf05ee64	-0.5231688
174	0xbc67c420	-0.014145881
175	0xbf1cf670	-0.61313534
176	0xbf4d2c90	-0.8014612
177	0xbf23474c	-0.63780665
178	0xbf319d1a	-0.6938034
179	0x3e23a3c4	0.1598044
180	0x3e46ab38	0.19401252
181	0x3e29c1d2	0.16577843
182	0x3e065692	0.13118961
183	0x3e0fd748	0.14046967
184	0x3e342304	0.17591482
185	0x3de46454	0.111519486
186	0x3ec39fb0	0.3820777
187	0x3f37e368	0.7183137
188	0x3f48507f	0.7824783
189	0xbf2988fa	-0.66224635
190	0xbf00be26	-0.50290143
191	0xbc688a80	-0.014193177
192	0xbf0bb944	-0.5457957
193	0xbf4afd8e	-0.79293144
194	0xbf3f58e2	-0.74745
195	0xbf323f3c	-0.6962774
196	0x3e395b6a	0.18101278
197	0x3e35febe	0.17772958
198	0x3e304a68	0.17215884
199	0x3e119e72	0.14220598
200	0x3e264bdc	0.16239876
201	0x3e162cf6	0.14665589
202	0x3df194a4	0.11795929
203	0x3eb8c57b	0.36088166
204	0x3f403dce	0.75094306
205	0x3f4299af	0.7601575
206	0xbf30b002	-0.69018567
207	0xbf027e00	-0.5097351
208	0x3cce06d0	0.025149733
209	0xbf1ba4f2	-0.6079856
210	0xbf44a068	-0.7680726
211	0xbf20fc54	-0.6288502
212	0xbf30a18a	-0.6899649
213	0x3e351290	0.17682862
214	0x3e4f2106	0.20227441
215	0x3df86014	0.121277004
216	0x3e2687e6	0.16262779
217	0x3e08c944	0.13358027
218	0x3dbf92dc	0.09354183
219	0x3dcf37ac	0.101180404
220	0x3ebc05f9	0.36723307
221	0x3f4830c6	0.7819942
222	0x3f47aa60	0.77994347
223	0xbf36a40b	-0.7134406
224	0xbf048027	-0.51758045
225	0x3c99ac20	0.018758833
226	0xbf2b1979	-0.66835743
227	0xbf441533	-0.7659485
228	0xbf23f2d3	-0.64042395
229	0xbf3d477f	-0.7393722
230	0x3e309e10	0.17247796
231	0x3e49e828	0.19717467
232	0x3e211bd8	0.15733278
233	0x3df957c0	0.1217494
234	0x3e2ed314	0.17072707
235	0x3e12293a	0.14273539
236	0x3dd8a608	0.10578543
237	0x3ecafaaa	0.39644367
238	0x3f4496fa	0.7679287
239	0x3f3ea874	0.7447579
240	0xbf366344	-0.7124522
241	0xbf056400	-0.5210571
242	0x3a2cba00	0.00065889955
243	0xbf22dad4	-0.63615155
244	0xbf506d3c	-0.8141668
245	0xbf217ec0	-0.6308403
246	0xbf25bfcc	-0.64745784
247	0x3e097d72	0.1342676
248	0x3e340e22	0.17583516
249	0x3e4c9b62	0.19981149
250	0x3df23ac8	0.11827618
251	0x3e12a712	0.14321545
252	0x3e3c2cbe	0.18376443
253	0x3dcde90c	0.10054216
254	0x3ec9402d	0.39306775
255	0x3f419440	0.75616837

muA f4 [272, 3]
0	0x3d48994c	0.04897432
1	0x3c0d5e20	0.008628398
2	0x3c9d8f20	0.019233286
3	0xbd5973c0	-0.053088903
4	0xbd11c410	-0.03558737
5	0x3dae040a	0.08496864
6	0xbc558280	-0.013031602
7	0x3c9b3370	0.018945426
8	0x3bd06f80	0.006360948
9	0xbd14b138	-0.03630182
10	0xbd548038	-0.05188009
11	0xbd247340	-0.040148973
12	0xbbb70c80	-0.005586207
13	0x3dc7bdaa	0.097529724
14	0xbddd4932	-0.108049765
15	0x3dfa4920	0.12220979
16	0x3bc23f00	0.0059279203
17	0x3de539dc	0.111926764
18	0xbd991094	-0.07473865
19	0xbcbe8d30	-0.023260683
20	0x3c3602a0	0.011109024
21	0x3d91da7c	0.07121751
22	0x3c492c20	0.012278587
23	0xbae67100	-0.0017581284
24	0xb89d1000	-7.4893236e-05
25	0xbc9e87d0	-0.01935187
26	0x3d49e21c	0.0492879
27	0x3bffb1c0	0.007803172
28	0x3d109ab4	0.035303786
29	0xbca62850	-0.020282894
30	0x3c7d0860	0.015443891
31	0xbd1026e0	-0.035193324
32	0xbd037f70	-0.032103956
33	0xbd0bc2a8	-0.034121186
34	0xbbb08c80	-0.0053878427
35	0x3cb2e9a0	0.021839917
36	0xbd1f7698	-0.03893146
37	0x3c9e7a80	0.019345522
38	0x3bcf7300	0.0063308477
39	0x3c6eece0	0.014582843
40	0xbcbc3f00	-0.02297926
41	0x3d1fae50	0.038984597
42	0x3cafe520	0.02147156
43	0x3c4519a0	0.012030035
44	0xbd122610	-0.03568083
45	0x3d06a864	0.032875434
46	0xbce81660	-0.028330982
47	0xbc882800	-0.016620636
48	0xbccd45d0	-0.025057703
49	0xbc00cb00	-0.007860899
50	0x3c3b1fa0	0.011421114
51	0x3d76fef0	0.06030172
52	0x3c284800	0.010271072
53	0x3c08be40	0.00834614
54	0xbd441f78	-0.047881573
55	0xbd1ecee8	-0.03877154
56	0x3da34220	0.07971597
57	0x3a5b2800	0.00083601475
58	0xbc6930a0	-0.0142327845
59	0xbba84780	-0.0051354766
60	0xbcc13a60	-0.023587406
61	0xbd8863e6	-0.06659679
62	0xbcd2f060	-0.025749385
63	0xbbfc65c0	-0.007702559
64	0x3dcde0f0	0.10052669
65	0xbdd0bfa2	-0.10192801
66	0x3dd9c638	0.1063351
67	0xbc0c2680	-0.008554101
68	0x3ded681c	0.11592123
69	0xbda93102	-0.082613006
70	0xbc719ca0	-0.014746815
71	0x3bc620c0	0.0060463846
72	0x3d908b50	0.07057822
73	0x3b3e8d80	0.002907604
74	0xbb9d9600	-0.004809141
75	0x3d0d5bb8	0.034511298
76	0xbc6075a0	-0.013699919
77	0x3d8af9f4	0.06785956
78	0x3c3c4ba0	0.01149264
79	0x3d2674f8	0.040638894
80	0xbc85c6f0	-0.016330212
81	0x3c6b3d80	0.014357924
82	0xbcf5a6f0	-0.029986829
83	0xbcd69d30	-0.026198
84	0xbd1ed398	-0.03877601
85	0xbad44100	-0.0016193688
86	0x3cab4bd0	0.020910174
87	0xbd1f9d40	-0.038968325
88	0x3cea1480	0.028574228
89	0x3b795880	0.0038047135
90	0x3c934ef0	0.017981976
91	0xbc9430d0	-0.018089682
92	0x3d20f3d0	0.039295018
93	0x3ca51a20	0.020154059
94	0x3c4fcec0	0.01268357
95	0xbd096d98	-0.033551782
96	0x3d18c01c	0.037292585
97	0xbd01c170	-0.031678617
98	0xbc877070	-0.016533107
99	0xbd07a238	-0.03311369
100	0xbc17e8a0	-0.009271771
101	0x3c7d2300	0.015450239
102	0x3d62f878	0.05541274
103	0x3c0fa640	0.008767664
104	0x3c67a9e0	0.014139622
105	0xbd5d5a38	-0.054041117
106	0xbcfdef30	-0.030997843
107	0x3d976ee2	0.07394196
108	0xbc1d1000	-0.009586334
109	0x39e91c00	0.00044462085
110	0x3c462c20	0.012095481
111	0xbd3c4fd8	-0.045974582
112	0xbd7072b0	-0.058703125
113	0xbd178420	-0.03699124
114	0xbce31ea0	-0.027724564
115	0x3dd5e7ce	0.10444604
116	0xbdd44746	-0.10365157
117	0x3dae3cb2	0.085076705
118	0xbb867e40	-0.0041044056
119	0x3def5f84	0.1168814
120	0xbd0d4fa8	-0.034499794
121	0xbc89c700	-0.016818523
122	0x3cd65220	0.026162207
123	0x3d8c0be0	0.068382025
124	0x3b6dda00	0.0036293268
125	0xbb462000	-0.0030231476
126	0xbc84bf80	-0.016204596
127	0xbcad21c0	-0.021134257
128	0x3d424864	0.04743232
129	0x3c12b480	0.008954167
130	0x3d144b1c	0.036204442
131	0xbc833850	-0.016018063
132	0x3c8a7940	0.01690352
133	0xbcdd67f0	-0.0270271
134	0xbce483e0	-0.027894914
135	0xbd25d8e8	-0.04049006
136	0xbb95f700	-0.004576564
137	0x3c745180	0.014912009
138	0xbd280580	-0.04102087
139	0x3cd08e10	0.025458366
140	0x3be4e4c0	0.006985277
141	0x3c96c280	0.018403292
142	0xbcba7fd0	-0.022766024
143	0x3d28c520	0.041203618
144	0x3cd73df0	0.026274651
145	0x3c0ca720	0.008584768
146	0xbd1a6980	-0.03769827
147	0x3d239db4	0.03994532
148	0xbd016590	-0.031591
149	0xbc256220	-0.010094196
150	0xbcd5d340	-0.026101708
151	0xbc042360	-0.008065075
152	0x3c257920	0.010099679
153	0x3d82967a	0.063763574
154	0x3c07c080	0.008285642
155	0x3c9042d0	0.017609984
156	0xbd88bd3e	-0.0667672
157	0xbd229558	-0.039693207
158	0x3d8a3218	0.06747836
159	0xbc043280	-0.008068681
160	0x3c99c700	0.018771648
161	0xbbe8c700	-0.007103801
162	0xbd880114	-0.06640831
163	0xbd82e42c	-0.063911766
164	0xbd2a1eb8	-0.041533202
165	0xbc750980	-0.014955878
166	0x3dddeefc	0.10836598
167	0xbdce9932	-0.100878134
168	0x3dd9754a	0.10618074
169	0x3a6ede00	0.000911206
170	0x3e0525d6	0.13002715
171	0xbd348800	-0.044075012
172	0xbc373380	-0.011181712
173	0x3ccd3e20	0.025054038
174	0x3d8561bc	0.06512782
175	0x3ae55000	0.0017495155
176	0x3c9f9cb0	0.019483894
177	0xbbf91c00	-0.007602215
178	0xbc357ac0	-0.011076629
179	0x3d51467c	0.05109261
180	0x3c225c20	0.00990966
181	0x3d1e38d8	0.03862843
182	0xbc646420	-0.013939887
183	0x3c7ed100	0.015552759
184	0xbd0c1b68	-0.034205824
185	0xbcc4fb30	-0.024045557
186	0xbd1ce4e0	-0.03830421
187	0xbc0487e0	-0.008089036
188	0x3cc3efe0	0.023918092
189	0xbd18daa8	-0.0373179
190	0x3cbe0a50	0.023198277
191	0x3c2d7520	0.010587007
192	0x3c471c20	0.012152702
193	0xbcd83740	-0.026393533
194	0x3d081720	0.03322518
195	0x3ca139e0	0.019680917
196	0xbae9c700	-0.0017835796
197	0xbd1126b8	-0.035437316
198	0x3d052924	0.032509938
199	0xbd0936c0	-0.03349948
200	0xbc4ffbe0	-0.012694329
201	0xbce50f40	-0.027961373
202	0xbbe0e8c0	-0.0068636835
203	0x3c24d920	0.010061532
204	0x3d5b6ca0	0.05357039
205	0x3c3831c0	0.01124233
206	0x3c5a9200	0.013340473
207	0xbd935870	-0.071946025
208	0xbcdcfd20	-0.026976168
209	0x3d796350	0.060885727
210	0xbc5b2b40	-0.013377011
211	0xbb39e480	-0.0028364956
212	0x3cae66c0	0.02128923
213	0xbd44df58	-0.04806456
214	0xbd8f4bdc	-0.06996891
215	0xbd501678	-0.050802678
216	0xbc8fba10	-0.017544776
217	0x3dc6a436	0.096992895
218	0xbde2abe8	-0.11067945
219	0x3dbcdbbc	0.092215985
220	0xba067000	-0.00051283836
221	0x3dd23d28	0.10265571
222	0xbd6a4710	-0.057196677
223	0xbb93cc80	-0.0045104623
224	0xbc5f2ee0	-0.013622016
225	0x3d767810	0.060173094
226	0x3b6a3300	0.0035735965
227	0x3cab0f30	0.020881265
228	0x3ccb5350	0.02482
229	0xbcb5f270	-0.02221033
230	0x3d73acf0	0.059491098
231	0x3c134080	0.008987546
232	0x3d196f80	0.03745985
233	0xbc9899a0	-0.018627942
234	0x3c7c00e0	0.015381068
235	0xbcf496a0	-0.02985698
236	0xbccfc1c0	-0.025360942
237	0xbd21ccf8	-0.039502114
238	0xbb45b100	-0.0030165315
239	0x3c496940	0.01229316
240	0xbd19e9e8	-0.037576586
241	0x3cd29c50	0.025709301
242	0x3c415660	0.011800379
243	0x3c5eb800	0.013593674
244	0xbc9c8860	-0.019107997
245	0x3d23bbd8	0.039974064
246	0x3cc27070	0.023735255
247	0x3c59bdc0	0.013289869
248	0xbd1cc6d8	-0.03827557
249	0x3d180490	0.037113726
250	0xbcf5cc00	-0.030004501
251	0xbc5ab6c0	-0.013349235
252	0xbcc8b4c0	-0.02450025
253	0xbbd47040	-0.006483108
254	0x3be21100	0.006898999
255	0x3d564368	0.052310377

quadA f4 [272, 3, 3]
0	0xbddaf158	-0.10690564
1	0xbcd86b88	-0.026418462
2	0x3c21b070	0.009868726
3	0xbcd86b88	-0.026418462
4	0x3e13cf84	0.1443463
5	0x3d1508f0	0.036385477
6	0x3c21b070	0.009868726
7	0x3d1508f0	0.036385477
8	0xbd195b5c	-0.037440643
9	0xbd5fc9a4	-0.05463566
10	0xbd999276	-0.07498638
11	0x3de8fa44	0.113758594
12	0xbd999276	-0.07498638
13	0x3dc713c0	0.09720564
14	0x3dc1be4c	0.094601244
15	0x3de8fa44	0.113758594
16	0x3dc1be4c	0.094601244
17	0xbd2e5ddc	-0.04256998
18	0xbc3c6f74	-0.011501182
19	0x3ae01180	0.0017095059
20	0xbd0e56b8	-0.03475067
21	0x3ae01180	0.0017095059
22	0x3d33f8f7	0.043938603
23	0x3cb51d48	0.022108689
24	0xbd0e56b8	-0.03475067
25	0x3cb51d48	0.022108689
26	0xbd04dd19	-0.032437418
27	0x3cd04470	0.025423259
28	0xbd2c52d4	-0.04207118
29	0x3bbde800	0.005795479
30	0xbd2c52d4	-0.04207118
31	0xbd955256	-0.07291095
32	0xbc5b5c70	-0.013388738
33	0x3bbde800	0.005795479
34	0xbc5b5c70	-0.013388738
35	0x3d428274	0.04748769
36	0xbc445446	-0.011982983
37	0xbce1faf0	-0.027585477
38	0x3d151ed0	0.03640634
39	0xbce1faf0	-0.027585477
40	0xbc2fcf76	-0.010730615
41	0x3b25f280	0.0025321543
42	0x3d151ed0	0.03640634
43	0x3b25f280	0.0025321543
44	0x3cba11dd	0.022713596
45	0x3c462710	0.012094274
46	0x3cc51e58	0.02406232
47	0x3bdf5260	0.00681524
48	0x3cc51e58	0.02406232
49	0x3cc48050	0.023986965
50	0x3d2b3b40	0.041804552
51	0x3bdf5260	0.00681524
52	0x3d2b3b40	0.041804552
53	0xbd13c9ec	-0.03608124
54	0xbd058be6	-0.03260412
55	0xbc96a5a0	-0.018389523
56	0xbc90fe80	-0.01769948
57	0xbc96a5a0	-0.018389523
58	0x3d969e23	0.07354381
59	0x3d60d7b4	0.05489321
60	0xbc90fe80	-0.01769948
61	0x3d60d7b4	0.05489321
62	0xbd27b062	-0.040939696
63	0xbd513d4e	-0.051083855
64	0xbbddbd40	-0.006766945
65	0x3b589240	0.0033046156
66	0xbbddbd40	-0.006766945
67	0x3da8f9b5	0.08250753
68	0x3ce88620	0.028384268
69	0x3b589240	0.0033046156
70	0x3ce88620	0.028384268
71	0xbd00b61a	-0.031423666
72	0xbcc63b58	-0.02419822
73	0xbd07c200	-0.033143997
74	0x3d4ab358	0.04948744
75	0xbd07c200	-0.033143997
76	0x3d4112d0	0.04713708
77	0x3d5baba4	0.053630486
78	0x3d4ab358	0.04948744
79	0x3d5baba4	0.053630486
80	0xbcbbea48	-0.022938862
81	0x3b67d56b	0.003537501
82	0x3a8dae00	0.0010809302
83	0x3b3b8380	0.0028612316
84	0x3a8dae00	0.0010809302
85	0xbb7355d5	-0.0037130017
86	0x3bb37f20	0.005477801
87	0x3b3b8380	0.0028612316
88	0x3bb37f20	0.005477801
89	0x393806aa	0.0001755009
90	0x3ba53316	0.0050414903
91	0x39e96800	0.0004451871
92	0x3b70ac80	0.0036723912
93	0x39e96800	0.0004451871
94	0xbb07dc95	-0.0020730842
95	0xbbdb3cc0	-0.0066905916
96	0x3b70ac80	0.0036723912
97	0xbbdb3cc0	-0.0066905916
98	0xbb428995	-0.0029684056
99	0xbadc9d2b	-0.0016831508
100	0xbaa06980	-0.0012238473
101	0x3bce63e0	0.006298527
102	0xbaa06980	-0.0012238473
103	0xba8cdc2b	-0.0010746768
104	0x3a68a200	0.00088742375
105	0x3bce63e0	0.006298527
106	0x3a68a200	0.00088742375
107	0x3b34bcaa	0.0027578273
108	0xba96212a	-0.0011453975
109	0x3c2b69f0	0.010462269
110	0x3b6cfb00	0.003616035
111	0x3c2b69f0	0.010462269
112	0x3ab92156	0.0014124315
113	0x3b7c1940	0.0038467199
114	0x3b6cfb00	0.003616035
115	0x3b7c1940	0.0038467199
116	0xb98c00a8	-0.0002670337
117	0xba82b9aa	-0.0009973545
118	0x3b7c5800	0.00385046
119	0xbba080e0	-0.0048981756
120	0x3b7c5800	0.00385046
121	0x3c148a1b	0.00906613
122	0x3b6666c0	0.0035156459
123	0xbba080e0	-0.0048981756
124	0x3b6666c0	0.0035156459
125	0xbc0432e5	-0.008068775
126	0xbb1f3156	-0.002429088
127	0x3a4aad00	0.00077314675
128	0x3b9895e0	0.0046565384
129	0x3a4aad00	0.00077314675
130	0x3b2f632a	0.0026761987
131	0x3baa4780	0.0051965117
132	0x3b9895e0	0.0046565384
133	0x3baa4780	0.0051965117
134	0xb9818eac	-0.00024711096
135	0xbb962920	-0.004582539
136	0x3bcd2a00	0.0062611103
137	0x3c0a06a0	0.008424431
138	0x3bcd2a00	0.0062611103
139	0xbb151e80	-0.0022753775
140	0xb9adac00	-0.0003312528
141	0x3c0a06a0	0.008424431
142	0xb9adac00	-0.0003312528
143	0x3be0b860	0.0068579167
144	0x3a6a6bab	0.00089424354
145	0x3a94c400	0.0011349916
146	0xbb61ca80	-0.0034452975
147	0x3a94c400	0.0011349916
148	0x39a74955	0.0003190736
149	0x3a976480	0.0011550337
150	0xbb61ca80	-0.0034452975
151	0x3a976480	0.0011550337
152	0xba9f082b	-0.0012133172
153	0xbd175f58	-0.03695616
154	0xbc559e90	-0.0130382925
155	0xbbc8e6c0	-0.006131023
156	0xbc559e90	-0.0130382925
157	0x3e0202bb	0.12696354
158	0x3d304fc0	0.043044806
159	0xbbc8e6c0	-0.006131023
160	0x3d304fc0	0.043044806
161	0xbdb855ca	-0.09000738
162	0xbd17762c	-0.03697793
163	0xbd9e9f32	-0.07745208
164	0x3e0621fe	0.13098904
165	0xbd9e9f32	-0.07745208
166	0x3d85ffb8	0.06542915
167	0x3dad097c	0.084490746
168	0x3e0621fe	0.13098904
169	0x3dad097c	0.084490746
170	0xbce91290	-0.028451234
171	0xbc74c2f0	-0.014939055
172	0xbb4594c0	-0.0030148476
173	0xbc8aaea8	-0.016928986
174	0xbb4594c0	-0.0030148476
175	0x3d47cfc4	0.048782125
176	0x3bf814c0	0.007570833
177	0xbc8aaea8	-0.016928986
178	0x3bf814c0	0.007570833
179	0xbd0a9f08	-0.03384307
180	0x3c8e08be	0.017338153
181	0xbd37b888	-0.044853717
182	0x3b91e120	0.004451886
183	0xbd37b888	-0.044853717
184	0xbd7f1479	-0.062275384
185	0xbcc84ad0	-0.024449736
186	0x3b91e120	0.004451886
187	0xbcc84ad0	-0.024449736
188	0x3d38101b	0.044937234
189	0xbc8befad	-0.01708206
190	0xbcdbe210	-0.026841193
191	0x3d164b68	0.036693007
192	0xbcdbe210	-0.026841193
193	0xbb18c6a8	-0.0023311768
194	0xba1efe00	-0.00060650706
195	0x3d164b68	0.036693007
196	0xba1efe00	-0.00060650706
197	0x3c9f0883	0.019413238
198	0x3c9757ec	0.018474542
199	0x3c370980	0.011171699
200	0x3ced4ca8	0.028967217
201	0x3c370980	0.011171699
202	0x3d6f5076	0.058426343
203	0x3d71cdcc	0.059034154
204	0x3ced4ca8	0.028967217
205	0x3d71cdcc	0.059034154
206	0xbd9d7e35	-0.07690088
207	0xbda9eb4f	-0.08296835
208	0xbc91ab48	-0.017781869
209	0xbd420488	-0.047367603
210	0xbc91ab48	-0.017781869
211	0x3dcc99a3	0.099902414
212	0x3d4330ec	0.047654077
213	0xbd420488	-0.047367603
214	0x3d4330ec	0.047654077
215	0xbc8ab94c	-0.01693406
216	0xba8895e0	-0.0010420643
217	0x3b8c6d40	0.0042854846
218	0xbcc512b8	-0.024056777
219	0x3b8c6d40	0.0042854846
220	0x3d41793d	0.047234762
221	0x3c982948	0.018574372
222	0xbcc512b8	-0.024056777
223	0x3c982948	0.018574372
224	0xbd3d348f	-0.046192702
225	0x3ada1a80	0.0016639978
226	0xbccbc460	-0.024873912
227	0x3d340eb0	0.04395932
228	0xbccbc460	-0.024873912
229	0x3d1e8ea8	0.038710266
230	0x3d66954c	0.056294724
231	0x3d340eb0	0.04395932
232	0x3d66954c	0.056294724
233	0xbd255f7c	-0.040374264
234	0x3ba7f88b	0.005126064
235	0x3a84f100	0.0010142624
236	0x3b5a9b00	0.0033356547
237	0x3a84f100	0.0010142624
238	0xbbb66cd5	-0.005567173
239	0x3bea5660	0.00715141
240	0x3b5a9b00	0.0033356547
241	0x3bea5660	0.00715141
242	0x39e744ac	0.00044110918
243	0x3b4d4d80	0.0031326711
244	0x393d2400	0.00018037856
245	0x3b5cf540	0.0033715516
246	0x393d2400	0.00018037856
247	0xbac33a80	-0.0014894754
248	0xbb7cf700	-0.0038599372
249	0x3b5cf540	0.0033715516
250	0xbb7cf700	-0.0038599372
251	0xbad76080	-0.0016431957
252	0xbbf79dc0	-0.007556647
253	0xba032000	-0.0005002022
254	0x3bb5dbc0	0.005549878
255	0xba032000	-0.0005002022

hfvrA f4 [272, 1]
0	0x3f1a090e	0.60170066
1	0x3f2a2e9f	0.6647739
2	0x3f9f802e	1.2460992
3	0x3f94f4a4	1.1637158
4	0x3f617560	0.88069725
5	0x3f96d4c9	1.1783687
6	0x3f9eb79f	1.2399787
7	0x3f9e022c	1.2344413
8	0x3faf2e41	1.368599
9	0x3e94a66c	0.2903322
10	0x3ecca546	0.39969844
11	0x3e881566	0.26578826
12	0x3eb0388e	0.34418148
13	0x3eac143e	0.33609194
14	0x3ea15108	0.31507134
15	0x3ea1bb0e	0.31588024
16	0x3e357ed8	0.17724168
17	0x3f1caf88	0.6120534
18	0x3f1f46e8	0.6221757
19	0x3f9fd602	1.2487185
20	0x3f8d79c5	1.1052786
21	0x3f673d2a	0.90327704
22	0x3f933a34	1.1502137
23	0x3f94c104	1.1621404
24	0x3fa8087b	1.3127588
25	0x3faf9bbf	1.3719405
26	0x3eaec08c	0.34131277
27	0x3e92709a	0.28601533
28	0x3ea00b4a	0.31258613
29	0x3ed932fe	0.42421716
30	0x3e950f32	0.29113156
31	0x3e954af4	0.29158747
32	0x3eadd758	0.33953357
33	0x3e7b60c4	0.24548632
34	0x3f23b17c	0.63942695
35	0x3f40e7d5	0.7535375
36	0x3f9bdf15	1.2177454
37	0x3f9c1728	1.2194567
38	0x3f659034	0.8967316
39	0x3f95cadf	1.1702536
40	0x3fa99577	1.3248738
41	0x3fa77d30	1.3085079
42	0x3faf015e	1.3672292
43	0x3e982300	0.29714203
44	0x3ea31430	0.3185134
45	0x3e967d06	0.2939226
46	0x3eb42c44	0.35190022
47	0x3eb60386	0.35549563
48	0x3ec9d03e	0.3941669
49	0x3ecc0a98	0.39851832
50	0x3e4653c8	0.19367898
51	0x3f2704ae	0.65241516
52	0x3f343920	0.70399666
53	0x3fa0213c	1.2510142
54	0x3f93ce44	1.1547322
55	0x3f650b80	0.8947067
56	0x3f962230	1.1729183
57	0x3fab9259	1.3404037
58	0x3fa8f9e2	1.3201258
59	0x3fae1d25	1.3602644
60	0x3e8235ba	0.25431615
61	0x3ea95d0c	0.33078802
62	0x3ea5be74	0.32371867
63	0x3eb32632	0.34990078
64	0x3ebea98c	0.3723873
65	0x3ea3db38	0.32003188
66	0x3ec09a1e	0.37617582
67	0x3e543514	0.20723373
68	0x3f1aa70c	0.60411143
69	0x3f1f0b7e	0.6212691
70	0x3f9fc802	1.2482913
71	0x3f98b683	1.1930698
72	0x3f67b618	0.9051223
73	0x3f952cf3	1.1654342
74	0x3fa88724	1.3166242
75	0x3fa36b20	1.2767067
76	0x3f9f6102	1.245148
77	0x3ea98fd8	0.33117557
78	0x3e9d1228	0.30677915
79	0x3e935bca	0.28780967
80	0x3ed78400	0.42092896
81	0x3eab5c2a	0.33468753
82	0x3ea57afa	0.32320386
83	0x3eac09b2	0.33601147
84	0x3e354350	0.17701459
85	0x3f215c7c	0.63031745
86	0x3f2e0b5a	0.6798607
87	0x3fa0afd2	1.2553656
88	0x3f93f6a0	1.1559639
89	0x3f67bc94	0.9052212
90	0x3f9af64c	1.2106414
91	0x3facd5de	1.3502767
92	0x3fa2cabe	1.2718122
93	0x3faa7df3	1.3319687
94	0x3ea07992	0.3134275
95	0x3e9109b0	0.28327703
96	0x3eaf030c	0.34182012
97	0x3ea88586	0.3291437
98	0x3ea79076	0.32727402
99	0x3eb826b8	0.3596704
100	0x3ecb46fa	0.39702588
101	0x3e486160	0.19568396
102	0x3f1a0bbb	0.6017415
103	0x3f2a0327	0.6641106
104	0x3fa3ba78	1.2791281
105	0x3f9a8e4a	1.2074673
106	0x3f661b6e	0.89885604
107	0x3f98bcfb	1.1932672
108	0x3fa9eba8	1.3275042
109	0x3f9e39ed	1.2361428
110	0x3faa6c42	1.3314288
111	0x3e9f9226	0.3116619
112	0x3ea18cf2	0.31552845
113	0x3e9da6fa	0.30791456
114	0x3ec5854e	0.38578266
115	0x3eb81f24	0.35961258
116	0x3e8b4b48	0.27205873
117	0x3eafcd5a	0.34336358
118	0x3e3ddd68	0.18541491
119	0x3f1fa4c4	0.6236079
120	0x3f31031e	0.6914538
121	0x3f96df77	1.1786946
122	0x3f947ae8	1.1600008
123	0x3f66d9cf	0.901761
124	0x3f9b5b68	1.213727
125	0x3fac38de	1.3454854
126	0x3fa09c7f	1.2547759
127	0x3fa75f7d	1.3076016
128	0x3e908396	0.28225392
129	0x3e9a77a8	0.30169415
130	0x3e8c2cd4	0.2737795
131	0x3eaf573a	0.34246236
132	0x3ea3d622	0.31999308
133	0x3eacaaa2	0.33723933
134	0x3eb5bb5e	0.35494512
135	0x3e3b6fe0	0.18304396
136	0x3f18bb35	0.59660655
137	0x3f363b68	0.71184397
138	0x3f9fb8e6	1.2478302
139	0x3f93c7f9	1.1545402
140	0x3f666d96	0.90010965
141	0x3f993536	1.1969364
142	0x3faba57c	1.3409877
143	0x3f9b7ab5	1.2146822
144	0x3faaf8a7	1.3357133
145	0x3e8525fc	0.26005542
146	0x3ea72818	0.32647777
147	0x3ea342f2	0.31887013
148	0x3ebb2840	0.36554146
149	0x3e9b86b6	0.30376214
150	0x3eab61c0	0.33473015
151	0x3ec8a402	0.39187628
152	0x3e766d18	0.24065053
153	0x3f1c0a7c	0.609535
154	0x3f33b8aa	0.7020365
155	0x3fa0106a	1.2505009
156	0x3f98c691	1.1935598
157	0x3f6451f0	0.89187527
158	0x3f9df492	1.2340262
159	0x3fa9a76b	1.3254217
160	0x3f9fa7bc	1.2473063
161	0x3fad250b	1.352693
162	0x3e968dc6	0.2940504
163	0x3e87f618	0.26554942
164	0x3ebb1518	0.3653953
165	0x3ea9b60e	0.3314671
166	0x3ea44b7e	0.32088846
167	0x3eceae20	0.40367222
168	0x3ea66836	0.32501382
169	0x3e5bf65c	0.21480697
170	0x3f1708b7	0.5899767
171	0x3f27ea56	0.65591943
172	0x3fa4afd1	1.2866155
173	0x3f94c4b0	1.1622524
174	0x3f690068	0.91016245
175	0x3f969304	1.1763616
176	0x3fac1326	1.3443344
177	0x3f9adbab	1.2098287
178	0x3fa6a889	1.3020183
179	0x3ebf2f14	0.37340605
180	0x3e8c35ba	0.2738474
181	0x3e9c74ea	0.30557948
182	0x3eb16642	0.3464833
183	0x3ebaaed0	0.36461496
184	0x3e8282a4	0.25490296
185	0x3eb6b7ea	0.3568719
186	0x3e36e034	0.17858964
187	0x3f23a745	0.6392711
188	0x3f2539d6	0.64541376
189	0x3f9d4461	1.2286493
190	0x3f970a7d	1.1800076
191	0x3f6a7a70	0.91593075
192	0x3f948a5e	1.1604726
193	0x3fac4ccd	1.3460938
194	0x3fad30b8	1.3530493
195	0x3fa5c222	1.294987
196	0x3ea53280	0.3226509
197	0x3ea21242	0.31654555
198	0x3e92fdfe	0.28709406
199	0x3eb02f3e	0.34411043
200	0x3ea7af5a	0.3275097
201	0x3eb0d7ea	0.3453973
202	0x3eaf3306	0.34218615
203	0x3e689e98	0.22716749
204	0x3f1885f4	0.59579396
205	0x3f24b011	0.64331156
206	0x3f9da7eb	1.231687
207	0x3f94af68	1.161603
208	0x3f610f56	0.87914026
209	0x3f95fa0e	1.1716936
210	0x3fabe2e1	1.3428613
211	0x3f97a71e	1.1847875
212	0x3fa5593e	1.291786
213	0x3e9c0c08	0.3047793
214	0x3e69947c	0.22810549
215	0x3ed343ca	0.41262656
216	0x3e839a8c	0.25703847
217	0x3eb84534	0.35990298
218	0x3ecfe022	0.40600687
219	0x3eae6898	0.34064174
220	0x3e49797c	0.19675249
221	0x3f18f71c	0.5975206
222	0x3f24358e	0.6414422
223	0x3f9eb9fb	1.2400507
224	0x3f97ec20	1.1868935
225	0x3f660a96	0.898599
226	0x3fa48768	1.2853823
227	0x3fa90699	1.3205138
228	0x3f9d8622	1.2306559
229	0x3faa176e	1.32884
230	0x3ea263c6	0.31716746
231	0x3e88025a	0.26564294
232	0x3eace7ac	0.33770502
233	0x3ecb7e9a	0.39745027
234	0x3e990c32	0.29892117
235	0x3eb679d4	0.35639822
236	0x3eab36d2	0.33440262
237	0x3e5090e4	0.20367771
238	0x3f17fe34	0.5937226
239	0x3f2d308b	0.67652196
240	0x3fa4cd5e	1.2875173
241	0x3f973471	1.1812879
242	0x3f694bb9	0.9113117
243	0x3f9b1278	1.2115011
244	0x3fabc863	1.3420528
245	0x3f9c17ca	1.219476
246	0x3fa0a0b5	1.2549044
247	0x3ed2bc7e	0.41159433
248	0x3ea208d0	0.31647348
249	0x3e72ded0	0.23717809
250	0x3ec9d596	0.39420766
251	0x3ecd9426	0.4015209
252	0x3e85e944	0.2615453
253	0x3eb3871a	0.35064012
254	0x3e3c7280	0.18403053
255	0x3f1c553b	0.6106755

vwA f4 [272, 1]
0	0x3eeff50c	0.46866643
1	0x3ef55953	0.4791971
2	0x3f081b6c	0.5316684
3	0x3f061748	0.52379274
4	0x3f000cc6	0.5001949
5	0x3ee55a70	0.4479556
6	0x3ecf7a32	0.40522915
7	0x3ece1038	0.4024675
8	0x3ed45bf9	0.4147642
9	0x3ebeacd0	0.3724122
10	0x3ecdbff6	0.40185517
11	0x3eba9faf	0.36449954
12	0x3ec6a7a4	0.38799775
13	0x3ec55089	0.38538006
14	0x3ec0b36e	0.37636894
15	0x3ebfdc6d	0.3747286
16	0x3eac1a70	0.3361392
17	0x3ef040e8	0.4692452
18	0x3ef2925c	0.47377288
19	0x3f0817f2	0.5316154
20	0x3f04eeba	0.5192677
21	0x3f0158fc	0.50526404
22	0x3ee50187	0.44727728
23	0x3ecda147	0.40162107
24	0x3ed20200	0.4101715
25	0x3ed4447b	0.41458496
26	0x3ec6c8ce	0.38825077
27	0x3ebdc2f7	0.3706281
28	0x3ec2e56d	0.38065663
29	0x3ed09efd	0.40746298
30	0x3ebca06a	0.36841136
31	0x3ebc19d2	0.3673845
32	0x3ec4d650	0.38444757
33	0x3ec091a4	0.37611115
34	0x3ef2e1a3	0.47437772
35	0x3ef8b2aa	0.4857381
36	0x3f0708dc	0.52747893
37	0x3f086350	0.5327654
38	0x3f00e0f2	0.5034324
39	0x3ee56ebb	0.44811043
40	0x3ed47bbf	0.4150066
41	0x3ed18884	0.40924466
42	0x3ed4d161	0.41565993
43	0x3ebeefbf	0.37292287
44	0x3ec31e36	0.38108987
45	0x3ebe350c	0.37149847
46	0x3ec79140	0.38978004
47	0x3ec7796d	0.38959828
48	0x3ecdc903	0.40192422
49	0x3ecd48fd	0.40094748
50	0x3eb6b006	0.3568117
51	0x3ef45ef5	0.47728696
52	0x3ef87448	0.48526216
53	0x3f081c90	0.5316858
54	0x3f0567be	0.52111423
55	0x3f00b360	0.50273705
56	0x3ee59656	0.4484126
57	0x3ed385c3	0.4131299
58	0x3ed24521	0.41068366
59	0x3ed3f672	0.4139896
60	0x3eb8373c	0.3597964
61	0x3ec6366a	0.3871339
62	0x3ec3ea82	0.38264853
63	0x3ec5d944	0.38642323
64	0x3ec8416c	0.39112413
65	0x3ec13114	0.37732756
66	0x3eca8b49	0.3955939
67	0x3eb80961	0.35944656
68	0x3eeff265	0.4686462
69	0x3ef186b8	0.47173095
70	0x3f07ba02	0.530182
71	0x3f071218	0.52761984
72	0x3f0140c6	0.5048946
73	0x3ee587ec	0.44830263
74	0x3ed23203	0.4105378
75	0x3ecfe59a	0.4060486
76	0x3ecfa789	0.40557507
77	0x3ec5e472	0.38650852
78	0x3ec0f1c1	0.37684444
79	0x3ebdf225	0.37098804
80	0x3ecff53c	0.40616786
81	0x3ec525c2	0.3850537
82	0x3ec28f62	0.38000017
83	0x3ec459dc	0.38349807
84	0x3eb27ba8	0.34859967
85	0x3ef267ec	0.4734491
86	0x3ef61d9b	0.48069462
87	0x3f081a39	0.5316501
88	0x3f059344	0.52177835
89	0x3f00ec52	0.50360596
90	0x3ee8658a	0.45389968
91	0x3ed40fbe	0.4141826
92	0x3ed02271	0.40651277
93	0x3ed22c31	0.4104934
94	0x3ec292b1	0.38002542
95	0x3ebd3b61	0.36959365
96	0x3ec78592	0.38969094
97	0x3ec35f55	0.3815867
98	0x3ec41543	0.3829747
99	0x3ec8f2c7	0.39247724
100	0x3eccd759	0.40008047
101	0x3eb756df	0.35808465
102	0x3ef0991c	0.46991813
103	0x3ef5a618	0.47978282
104	0x3f08e1d5	0.5346959
105	0x3f085a8c	0.53263164
106	0x3f00f6cf	0.503766
107	0x3ee672ae	0.4500937
108	0x3ed33caf	0.41257235
109	0x3ece35ac	0.40275323
110	0x3ed2c3bc	0.41164958
111	0x3ec2519e	0.37952894
112	0x3ec34872	0.3814121
113	0x3ec12eb2	0.37730938
114	0x3ecce91c	0.40021598
115	0x3ec96f14	0.39342558
116	0x3eb9e1e5	0.36305156
117	0x3ec407f4	0.38287318
118	0x3eb3918b	0.35071978
119	0x3ef20595	0.47269884
120	0x3ef69b79	0.4816549
121	0x3f05d5a5	0.5227912
122	0x3f05c059	0.52246624
123	0x3f00ea03	0.50357074
124	0x3ee8725e	0.45399755
125	0x3ed43845	0.4144918
126	0x3ecf3e3b	0.40477166
127	0x3ed079dd	0.40717974
128	0x3ebd0a3d	0.36921874
129	0x3ec0668c	0.37578237
130	0x3ebabc7c	0.36471927
131	0x3ec63d0b	0.38718447
132	0x3ec2bac1	0.38033107
133	0x3ec4a18c	0.384045
134	0x3ec81978	0.3908193
135	0x3eb458d3	0.35224018
136	0x3eeffeab	0.46873984
137	0x3ef6ec5d	0.48227206
138	0x3f080392	0.5313045
139	0x3f056f49	0.5212293
140	0x3f00e81b	0.50354165
141	0x3ee6fa3f	0.45112798
142	0x3ed41838	0.41424727
143	0x3ecd417e	0.4008903
144	0x3ed2bac6	0.41158122
145	0x3eb913d7	0.3614795
146	0x3ec5019c	0.3847779
147	0x3ec22e24	0.37925828
148	0x3ec86d49	0.39145878
149	0x3ebe12e7	0.37123796
150	0x3ec49e8a	0.38402206
151	0x3ecb4ed1	0.3970857
152	0x3ec0bbac	0.37643182
153	0x3ef120ac	0.4709524
154	0x3ef6a170	0.48170042
155	0x3f07ee46	0.5309795
156	0x3f0799fc	0.52969337
157	0x3f006e6d	0.50168496
158	0x3ee8d266	0.4547302
159	0x3ed30889	0.4121745
160	0x3ecec0cb	0.40381464
161	0x3ed41004	0.4141847
162	0x3ebf4fe5	0.37365642
163	0x3eba9355	0.3644053
164	0x3ecc42d1	0.39894727
165	0x3ec41c4c	0.3830284
166	0x3ec21546	0.37906855
167	0x3ecdc165	0.4018661
168	0x3ec13a92	0.37739998
169	0x3ebaa5e8	0.364547
170	0x3eef0e22	0.4669047
171	0x3ef323b8	0.4748819
172	0x3f08e65e	0.5347651
173	0x3f05d68f	0.52280515
174	0x3f0138ef	0.504775
175	0x3ee5ab3a	0.44857198
176	0x3ed3d3b5	0.41372457
177	0x3ecd3747	0.40081236
178	0x3ed00a42	0.40632826
179	0x3ecb7a22	0.39741617
180	0x3ebbea55	0.3670222
181	0x3ebfb4e9	0.3744271
182	0x3ec649dd	0.38728228
183	0x3ec95a84	0.3932687
184	0x3eb62838	0.3557756
185	0x3ec6c40f	0.38821456
186	0x3eb4ba19	0.3529823
187	0x3ef23f10	0.47313738
188	0x3ef377c3	0.47552308
189	0x3f06e646	0.5269512
190	0x3f0688f0	0.525527
191	0x3f01624c	0.50540614
192	0x3ee4fb05	0.44722763
193	0x3ed36c74	0.4129368
194	0x3ed40940	0.41413307
195	0x3ed083ed	0.4072565
196	0x3ec47d6d	0.38376942
197	0x3ec29ceb	0.38010344
198	0x3ebb90bc	0.3663386
199	0x3ec56d13	0.3855978
200	0x3ec417b7	0.38299343
201	0x3ec5e14d	0.38648453
202	0x3ec53c8e	0.38522762
203	0x3ebdf14e	0.37098163
204	0x3eef69b4	0.46760333
205	0x3ef4e07f	0.47827527
206	0x3f07e45c	0.53082824
207	0x3f05b4d2	0.52229035
208	0x3f003a15	0.50088626
209	0x3ee5a0b7	0.44849178
210	0x3ed34c33	0.41269073
211	0x3ecc4f00	0.39904022
212	0x3ed041ed	0.40675297
213	0x3ec17ce0	0.37790585
214	0x3eb327e3	0.3499137
215	0x3ed0dd4e	0.40793842
216	0x3eb79bf6	0.35861176
217	0x3ec8aae2	0.39192873
218	0x3ecea250	0.4035821
219	0x3ec46fbb	0.38366494
220	0x3eb7e159	0.35914114
221	0x3ef03552	0.4691568
222	0x3ef52ed0	0.47887278
223	0x3f07bd40	0.5302315
224	0x3f074447	0.5283856
225	0x3f00dce7	0.5033707
226	0x3eea0da3	0.4571353
227	0x3ed2c867	0.4116852
228	0x3ecde599	0.40214232
229	0x3ed30c8d	0.41220513
230	0x3ec2fe21	0.3808451
231	0x3ebb3971	0.36567262
232	0x3ec7667a	0.3894537
233	0x3ece48e1	0.40289977
234	0x3ebeca15	0.3726355
235	0x3ec8a6cc	0.39189756
236	0x3ec3ff56	0.38280743
237	0x3eb9f200	0.36317444
238	0x3eef62a8	0.46754956
239	0x3ef57a6a	0.47944957
240	0x3f090cc8	0.5353513
241	0x3f0732ef	0.52812093
242	0x3f010c70	0.50409603
243	0x3ee7cb4f	0.452723
244	0x3ed4a0ff	0.4152908
245	0x3ecdc09e	0.40186018
246	0x3ecf2068	0.40454412
247	0x3ecf0baf	0.404386
248	0x3ec38b39	0.38192156
249	0x3eb534ef	0.35391948
250	0x3ecd0832	0.40045315
251	0x3ecdf966	0.40229338
252	0x3eb7af9a	0.3587616
253	0x3ec70d47	0.38877317
254	0x3eb4cbd9	0.35311773
255	0x3ef0d100	0.47034454
