tests/test_data_path/og_processed/dimer_ap3_train_spec_7_487.pt (torch, 306130 bytes, 17 tensors)

y f4 [16, 4]
00000000: 5d39 27c0 143b fd39 a0a3 a1be 0830 c6bd
00000010: 9a7c cec0 76ce 4b3e 5a03 15c0 94bf 24bf
00000020: b39f 82c0 7d5d 8039 3fb2 60bf 463a 04be
00000030: eb96 77c1 9cbc 1c41 42e8 29c1 8c88 62c0
00000040: 1860 dbc0 99f9 ca3c 4af0 c4bf 5851 97be
00000050: e920 14c2 38be 2342 423e 95c1 a1fb edc0
00000060: 9c55 e1bd 2838 d035 f29a bebe 7ebd 06bd
00000070: ff73 03c1 e8bb 273e c538 9bbf e43e 09bf
00000080: fda4 bec1 c446 db41 bab0 77c1 0e31 dbc0
00000090: f2d5 55c2 dd20 c242 c48c 12c2 dee4 5dc1
000000a0: 2160 61c0 4086 9d39 b9a7 46bf 1db3 02be
000000b0: 7df8 23c2 923c b342 873b 28c2 03c2 91c1
000000c0: 8e22 f3bf 5e69 3a36 3a7e 75be 8b59 febc
000000d0: 5102 00c0 460f 573a 648c 66bf b99a 1fbe
000000e0: cc7c a1c0 dfa7 ea39 d20f 5abf fdf3 ffbd
000000f0: c032 c23f 356b 6838 7d3c 12bf 9ad8 b5bd
-2.6128762 0.00048299937 -0.31570148 -0.0967713 -6.45271 0.19902977 -2.3283296 -0.64354825
-4.0819945 0.00024483717 -0.8777198 -0.12912855 -15.474345 9.796047 -10.619204 -3.5395842
-6.85548 0.02477722 -1.538583 -0.29554248 -37.03214 40.93576 -18.6554 -7.4369664
-0.11002657 1.5513551e-06 -0.3722759 -0.032895558 -8.215819 0.16380274 -1.21267 -0.5361159
-23.83056 27.409554 -15.480646 -6.849738 -53.45893 97.064186 -36.637466 -13.868376
-3.5214922 0.00030045398 -0.77599674 -0.12763639 -40.992664 89.6183 -42.058132 -18.219732
-1.899492 2.7777492e-06 -0.23973933 -0.031048557 -2.0001414 0.0008203875 -0.9005797 -0.15586366
-5.046484 0.00044757032 -0.8518039 -0.12497709 1.5171738 5.5412955e-05 -0.5712355 -0.08879204

RA f4 [176, 3]
00000000: fc53 2abb f54c 333f 0c5a 90bf 7498 0fbf
00000010: d57b 6abe 787d 66bd bb7e c93e e4c0 e3be
00000020: d994 773f 0459 973e f25f e23f 174a 42bf
00000030: 5378 643f 9489 9b3e b62b cabf fef3 34bf
00000040: 4b57 5c3f 7572 f6bf 30d5 5cbf 47cb 93bf
00000050: 84f2 06bf b474 bbbf 158f 5b3e 5fec cd3e
00000060: 5303 ad3d 3c2d 87bf 098a dd3f c615 3f3f
00000070: 8a92 e03e dc10 c53f aa2b a73f 758e 61bf
00000080: c688 383f 01db 013d 4947 413f e6b2 93bf
00000090: 7764 0cbf 3272 06be aeef 03be 54c7 da3e
000000a0: a3ad fabe 6327 8c3f fc1c af3e a791 d23f
000000b0: 9baf 2abf f1d7 783f 685e 9e3e 62d6 c9bf
000000c0: 7313 45bf 4224 673f d960 fdbf d82b 4cbf
000000d0: 338a 97bf e482 e3be b4e8 b7bf 9fcb 243e
000000e0: 4b59 be3e 2d5e 8c3d 8cd6 87bf 10ca df3f
000000f0: 48dd 363f a08b d63e dcf5 c23f 2521 9d3f
00000100: fdbf 5abf be6a 3d3f 37fa 983c e144 2c3f
00000110: de93 8bbf 0876 10bf 28d6 91be e5d0 c2bd
00000120: 2713 df3e 50fe eebe a08a 873f 5e4b 803e
00000130: 6973 d43f 645a 43bf a3ce 703f e57a 833e
00000140: 89b7 cabf 3080 44bf 0116 653f 2978 f8bf
00000150: d6ab 54bf 4e61 9bbf 35d1 ffbe 8908 b5bf
00000160: 3c2f 653e 9f8f e23e 8908 3f3d ff24 88bf
00000170: 1f67 e63f 8104 293f 11df d13e dd22 b83f
00000180: 4b3e ac3f 1766 59bf 0e2d 2a3f e690 143d
00000190: fcaa 343f 1ec4 90bf 8105 10bf bdc2 52be
000001a0: 6405 9fbd f016 c83e 15c7 d9be 4296 833f
000001b0: ace5 8e3e 478d dd3f cefc 3ebf cbba 6b3f
000001c0: 5130 8b3e e086 ccbf 950e 2ebf c1ff 623f
000001d0: cbda f8bf 8692 51bf 5bef 99bf 1cd0 f2be
000001e0: 6479 b9bf 15e0 4b3e 272e cf3e a147 0c3c
000001f0: 9e25 8cbf 4e5f e33f aa0f 283f 378a cc3e
00000200: 24b9 c43f 6421 a43f 9b38 65bf 79af 363f
00000210: e8f7 9d3d 45d5 373f 2541 86bf b263 13bf
00000220: 643b 8fbe 0e13 8dbd 97ae 043f 7fde f4be
00000230: 376c 853f d1c9 8a3e e883 d13f 2ae6 2cbf
00000240: 992a 803f 6f0d 6c3e f547 ccbf c504 21bf
00000250: a5f9 5f3f 5917 f7bf 5f9b 51bf d0d1 98bf
00000260: 01f7 f4be 6f2d bfbf 494d 7b3e b14e c53e
00000270: b5e1 b03c 588f 85bf 8864 e63f ad50 343f
00000280: 425b f63e 569b cb3f f565 a93f 8010 65bf
00000290: 76a7 373f 1091 1a3d 50ab 343f 23d8 90bf
000002a0: 7502 12bf 9e0b 33be 65c2 8fbd 9c69 b23e
000002b0: 90be f9be 6614 813f e5f1 943e ec4e d93f
000002c0: f1bc 38bf 5855 733f dfa4 993e 3ee9 c8bf
000002d0: dbfa 2dbf 6af6 6c3f d1e7 edbf befa 54bf
000002e0: 4eef 94bf b18a e7be 0f0b b5bf 6dac 643e
000002f0: a60b b13e f7cc 92bb 49a1 88bf 8b1b df3f
00000300: 6076 273f 82e7 e63e 4e47 be3f 17d5 a43f
00000310: bdc6 4abf 0af5 383f 780a 393d d6ac 2f3f
00000320: 2b4c 8fbf ed0b f8be 9d63 50be 9aee b5bd
00000330: 9e9a eb3e 5bd1 f6be 915f 7b3f 2576 953e
00000340: e415 d43f 3fe6 37bf 1cb7 743f 2f8a 963e
00000350: dc63 cbbf 15ab 26bf 06f6 5c3f 5664 f8bf
00000360: b131 4bbf c921 96bf 787c f3be 3200 b6bf
00000370: cc45 3c3e dd5d af3e fad3 863d a035 87bf
00000380: 15c6 dc3f 24ed 363f 4833 de3e d943 c13f
00000390: 2aa9 a53f f832 65bf 59de 313f 234e 673d
000003a0: 48fb 373f 23f5 90bf 3f58 0ebf a433 40be
000003b0: cf14 dabd cea5 d83e 8847 eabe b439 863f
000003c0: bf0b 7b3e 50df dc3f f166 45bf a0a5 633f
000003d0: 999c 9a3e cc97 c5bf a374 35bf 4ed4 4a3f
000003e0: 30b9 f5bf 3c33 49bf fb06 9cbf d104 eabe
000003f0: 4129 b4bf 103c 3e3e c0d0 e33e 2bf9 d83c
-0.002599 0.700393 -1.127748 -0.56092 -0.228988 -0.056272 0.393545 -0.444831
0.967115 0.295601 1.768553 -0.758943 0.892461 0.303784 -1.579459 -0.706848
0.860707 -1.925368 -0.862628 -1.154641 -0.527138 -1.464499 0.214413 0.402194
0.084479 -1.056068 1.730775 0.746426 0.438618 1.539577 1.30602 -0.88108
0.720837 0.031703 0.754994 -1.153897 -0.548408 -0.131295 -0.128844 0.427302
-0.489606 1.094952 0.342018 1.64507 -0.666742 0.972045 0.309314 -1.576855
-0.769828 0.902897 -1.979518 -0.797544 -1.183905 -0.444358 -1.436789 0.160933
0.371775 0.068539 -1.061235 1.748354 0.714314 0.419034 1.523128 1.227574
-0.854492 0.73991 0.018674 0.672926 -1.09045 -0.564301 -0.284837 -0.095125
0.435693 -0.466784 1.058918 0.250575 1.659772 -0.763098 0.940653 0.256797
-1.583726 -0.767581 0.894867 -1.941167 -0.830747 -1.213907 -0.499643 -1.414323
0.223813 0.442502 0.046639 -1.063629 1.800022 0.660225 0.409905 1.438564
1.345651 -0.849214 0.66475 0.036271 0.705734 -1.130985 -0.562584 -0.205821
-0.077647 0.3908 -0.425347 1.028023 0.279096 1.730874 -0.746045 0.920819
0.271853 -1.597866 -0.67991 0.886715 -1.944177 -0.818642 -1.202617 -0.474244
-1.449017 0.199097 0.404649 0.008562 -1.094898 1.776346 0.656489 0.399492
1.5369 1.282269 -0.895395 0.713615 0.077133 0.718098 -1.048863 -0.57574
-0.27975 -0.068884 0.518289 -0.47826 1.042365 0.271071 1.636838 -0.675387
1.0013 0.23052 -1.595946 -0.628979 0.874903 -1.9304 -0.818777 -1.193903
-0.478447 -1.493574 0.245412 0.385366 0.021592 -1.043437 1.799943 0.704356
0.481165 1.590678 1.323424 -0.894783 0.717399 0.037736 0.705739 -1.131596
-0.57035 -0.174849 -0.070195 0.348462 -0.487782 1.008435 0.290908 1.697721
-0.721633 0.950521 0.300086 -1.569618 -0.679609 0.925635 -1.858637 -0.831951
-1.163553 -0.45223 -1.4144 0.223314 0.345792 -0.00448 -1.067422 1.743028
0.65415 0.450985 1.486551 1.287753 -0.792095 0.722489 0.045176 0.686231
-1.119512 -0.484466 -0.203505 -0.088834 0.460164 -0.482066 0.981927 0.291917
1.656918 -0.718357 0.955919 0.294023 -1.588985 -0.651048 0.863129 -1.940562
-0.793727 -1.172906 -0.475559 -1.421881 0.18386 0.342513 0.065834 -1.056324
1.724795 0.714556 0.433985 1.509883 1.294225 -0.895309 0.694799 0.056471
0.718678 -1.132481 -0.556034 -0.187697 -0.106485 0.42314 -0.457577 1.048636
0.245162 1.725565 -0.771102 0.889246 0.301976 -1.543695 -0.708811 0.792302
-1.919714 -0.785938 -1.218963 -0.457068 -1.407509 0.185776 0.444952 0.026486

RB f4 [288, 3]
00000000: 1095 16be 0001 f040 68cf 99c0 26e5 9cbf
00000010: 636f f740 ce39 77c0 47e7 ecbf e17e d440
00000020: e6e5 4fc0 75b1 c3bf 45c9 ae40 b611 60c0
00000030: f375 34c0 f3bd dd40 0a11 19c0 b840 57c0
00000040: a39d 0241 6973 00c0 0f7e 89c0 f7d3 0541
00000050: f46f 95bf c230 28c0 bb48 1641 473a 29c0
00000060: 352a 41c0 2ad7 2b41 6e17 1cc0 c958 d1bf
00000070: 8e5a 1041 9431 65c0 4a43 52c0 19e4 c440
00000080: c7d9 fabf d619 5fbd b308 cf40 41fd 9cc0
00000090: 9014 1ec0 7259 3741 17f5 3bc0 1d3c 82c0
000000a0: abb0 2e41 7afc 25c0 5112 3ac0 cfa8 2e41
000000b0: b70c aebf 17f1 81bf 486c 1c41 e6e5 80c0
000000c0: 8cdc 533f 9133 0041 4a41 90c0 4cff cabe
000000d0: 8bb2 fc40 c619 bac0 da56 3440 4699 893f
000000e0: ed2d b640 e5d1 7340 1adc de3f 52fd 9840
000000f0: a439 5840 2ae0 1040 807f 6240 a29a 0e40
00000100: 919a 1340 f184 4a40 6cb4 8e40 0951 3440
00000110: 3946 3440 e2ad b840 4913 3c40 8238 4d40
00000120: fa53 d240 0709 5b40 57ce 1a40 7cc5 c440
00000130: f697 1340 4755 8d40 1806 f340 6a2e 1540
00000140: f032 9b40 e955 a640 a321 e73f 93f0 a540
00000150: bde5 8440 df37 5140 8f19 f83f 44c4 eb3f
00000160: 6ac0 9c3f 42a6 a240 1cc5 f840 3fc5 e93f
00000170: 4f4d b940 67b6 0341 c959 da3f 6c7c 8340
00000180: 1553 fe40 14b4 5540 a33b 9d40 837c ac40
00000190: b971 a53f b77d c540 6adc 3040 fb1e d53f
000001a0: 234d d240 36b0 4440 f302 8c3d f981 ba40
000001b0: 28c7 b4c0 3b63 8940 c9fe 0a41 a49b 9ec0
000001c0: acab 5740 e90b f940 73ca a7c0 3e77 0040
000001d0: 9765 f940 e7e3 c1c0 5bb6 c63f e98c 0a41
000001e0: 4d22 92c0 b69d 983f b90c de40 c7bc 69c0
000001f0: 9b72 d13f 5e4b bf40 d5b0 46c0 f853 4b3f
00000200: 8578 a840 9eb3 57c0 12a4 4440 710d c040
00000210: e61e 17c0 9b58 6740 316b a040 1aed 80c0
00000220: 95f4 7540 df7d dc40 2218 9cc0 5918 623e
00000230: c74c dc40 82d6 c7c0 5c77 6940 9ca8 1541
00000240: 90bc 0dc0 3bff 9440 6b80 a340 bf7f b1bf
00000250: c230 4340 92a3 a540 b9aa 29c0 a67d 5740
00000260: ac71 7e40 f699 74c0 9962 9b40 74fa dc40
00000270: 89fa c3c0 a8c4 a240 1be2 0241 d1bb 9ac0
00000280: eea3 9740 7773 1541 eaaf 1040 05a4 d5c0
00000290: 2a1c 8940 55de ba3f 2ca8 afc0 622d 7e40
000002a0: 5f46 0140 8eb2 88c0 acc6 7f40 f832 5040
000002b0: 0d7a 82c0 28b8 8b40 6972 9f3f 5439 4ec0
000002c0: 9ca2 7240 36e6 35bd ad15 50c0 a1be 5240
000002d0: a438 33bf 28b8 0bc0 5b5c 4740 938e 1ebf
000002e0: 5446 94c0 9d2f 5540 e291 04c0 77c9 97c0
000002f0: 8061 3940 ed9e bc3d 541e b2c0 6e34 6840
00000300: 55a4 d63f 5dfa 10c0 dde9 7140 4c70 5340
00000310: eadc c9c0 0e04 9340 e59c 1ac0 c6c4 b7c0
00000320: c214 3540 d579 33c0 4a71 85c0 4356 6540
00000330: 7573 11c0 e37a 89c0 d1e6 f23f a56a 6bbe
00000340: b0c5 d4c0 bc5c 6640 6937 1440 170e ecc0
00000350: 2e8e 5b40 0fd3 ea3f f90f e8c0 a1d8 a540
00000360: 0de4 fdbf 9780 97c0 8d7d ab40 3ca4 02c0
00000370: 60ac 62c0 f8e2 c940 32c7 ccbf 04e6 14c0
00000380: 06f2 b940 54c7 8cbf cdcc 09c0 5541 9740
00000390: d387 dcbf d880 b0bf 3011 db40 ceff 0cc0
000003a0: fd88 adbf 1326 0241 ce17 0fc0 7808 dbbe
000003b0: 7f9c 0c41 1c96 29c0 f700 33c0 1cc1 0641
000003c0: 7097 4ec0 b8e8 38c0 82b0 1d41 5b23 21c0
000003d0: 8c81 6fc0 1007 f240 3f00 abbf a16a ecbe
000003e0: b869 cf40 ecf6 c5bf f902 8cc0 4a8c 8d40
000003f0: bf99 67c0 21ac 7bc0 3f35 2141 f853 21c0
-0.147053 7.500122 -4.806568 -1.225743 7.732347 -3.862903 -1.850808 6.640488
-3.248407 -1.528853 5.462069 -3.501081 -2.819699 6.929437 -2.391665 -3.363325
8.163486 -2.007044 -4.296638 8.364249 -1.167479 -2.627976 9.392756 -2.644182
-3.018201 10.74003 -2.43893 -1.635522 9.022108 -3.581151 -3.285357 6.152844
-1.959771 -0.054468 6.469812 -4.905915 -2.470005 11.459337 -2.936834 -4.069838
10.918132 -2.593535 -2.907368 10.916213 -1.359763 -1.01517 9.776436 -4.028064
0.827584 8.012589 -4.50797 -0.396479 7.896795 -5.815646 2.817801 1.07499
5.693106 3.809686 1.741092 4.780923 3.378518 2.263682 3.539032 2.228188
2.306309 3.164364 4.459524 2.817446 2.816786 5.771226 2.938677 3.206574
6.572751 3.422426 2.418844 6.149107 2.30615 4.41666 7.594494 2.330958
4.849968 5.197987 1.805714 5.185617 4.153044 3.269035 1.93828 1.841927
1.224622 5.082795 7.774061 1.826332 5.790687 8.232032 1.705865 4.108938
7.947642 3.339116 4.91353 5.390199 1.292533 6.171596 2.763453 1.665008
6.571916 3.073255 0.068365 5.828366 -5.649311 4.293363 8.687203 -4.956499
3.369853 7.782704 -5.243463 2.007278 7.793651 -6.05907 1.55244 8.659402
-4.566687 1.192313 6.939053 -3.652147 1.63631 5.97795 -3.104543 0.79425
5.264712 -3.370338 3.072514 6.001641 -2.361261 3.614783 5.013085 -4.028943
3.843053 6.890365 -4.877946 0.220796 6.884372 -6.244935 3.64791 9.353664
-2.214634 4.656156 5.109426 -1.386711 3.049851 5.176217 -2.651045 3.367044
3.975688 -3.821897 4.855786 6.905573 -6.124333 5.086506 8.180202 -4.835427
4.738761 9.34069 2.260737 -6.676272 4.284688 1.45991 -5.489279 3.97152
2.01992 -4.271796 3.996501 3.253111 -4.077399 4.36623 1.245679 -3.222249
3.791175 -0.044409 -3.251323 3.292885 -0.700083 -2.183115 3.115012 -0.619363
-4.633585 3.331031 -2.071404 -4.743343 2.896576 0.0921 -5.566202 3.6282
1.67689 -2.265281 3.779899 3.303729 -6.308217 4.594245 -2.415826 -5.74277
2.829392 -2.804311 -4.170079 3.58339 -2.272672 -4.296251 1.897669 -0.229899
-6.649132 3.59941 2.315882 -7.37672 3.430553 1.834566 -7.25195 5.182694
-1.983522 -4.734447 5.359076 -2.041274 -3.541771 6.308956 -1.599829 -2.326539
5.810794 -1.099833 -2.153125 4.726725 -1.722895 -1.378932 6.845848 -2.203113
-1.355743 8.134295 -2.235828 -0.427799 8.788207 -2.649787 -2.796934 8.422146
-3.227993 -2.889204 9.855593 -2.517783 -3.742282 7.563362 -1.335945 -0.461751
6.481655 -1.546598 -4.375363 4.423375 -3.618759 -3.932381 10.0755 -2.52075

qA f4 [176, 1]
00000000: 7688 fabe e039 f33c 4f56 1cbf 0ec5 163e
00000010: 5e39 313e c453 523e fc3a 133e 10ca 063e
00000020: 0579 dc3e f389 d33e c9d2 d93e 3208 fcbe
00000030: c051 56bc 4baa 31bf 2cde 423e 2a82 323e
00000040: eabc 5f3e 1841 0b3e 080b 213e 38ac e23e
00000050: ebe4 dd3e 88c9 e43e 1b98 01bf 002d eabb
00000060: 6343 25bf 581b 3e3e e2fa 2d3e 0662 3f3e
00000070: 4eb2 273e e875 0b3e 6138 e23e d48c e33e
00000080: 3e4a dc3e 9ad1 fdbe 00ad fe3b 853e 1fbf
00000090: c8d7 293e 00fe 333e 7832 513e ecbf 0f3e
000000a0: 1aa8 0e3e 703d da3e 6491 dd3e 10cd d93e
000000b0: dac4 f3be 8077 f6bb 97cc 2cbf d400 5f3e
000000c0: 167c 1c3e b4c9 3e3e 40b8 283e 3ed9 0c3e
000000d0: 5a7a df3e 4343 db3e 288e de3e b648 febe
000000e0: 0063 a43c 7f3d 1dbf 08ba 223e 8ee0 2e3e
000000f0: a45e 563e 5677 023e 88a7 153e c258 de3e
00000100: f2b2 d43e b465 db3e 9819 f7be 800d c53c
00000110: b0e0 1fbf 748b 2c3e f876 283e e639 503e
00000120: c2a3 063e 1a74 083e 9c01 db3e 3f35 d63e
00000130: 2829 df3e 16ac f2be 00cb 9abc 2b85 24bf
00000140: 1c2d 323e ac95 3d3e 68fa 453e 62be 113e
00000150: d242 143e 0cbe db3e 6c18 dd3e 64ad de3e
00000160: 669f f0be 00ea 0f3b 2d15 21bf 32e4 3e3e
00000170: 9614 383e 1015 313e 3c86 0b3e 78df 0a3e
00000180: 8443 df3e f3c3 d53e ae68 dd3e 34dd 03bf
00000190: 0050 9fba e651 1dbf 3e57 2c3e e8f5 3e3e
000001a0: b298 553e 3a3b 113e bad4 1b3e c0b7 dc3e
000001b0: 73c6 d83e 7884 d63e a453 f2be 0003 653c
000001c0: 0a85 21bf 3a84 3d3e e83a 2e3e b220 4b3e
000001d0: 80a8 093e 52ec 083e b7e9 df3e 3b50 d93e
000001e0: 4641 d03e 0404 fcbe 8068 943b c085 1fbf
000001f0: 78db 313e 08c2 383e 72fe 4c3e 9424 113e
00000200: c675 093e 7696 de3e 3b6b d63e 06a1 da3e
00000210: cceb 01bf 000a 433c 2090 1cbf 0c3a 253e
00000220: 7611 353e 94ec 573e cc3e fe3d c2d2 193e
00000230: ae5a dc3e 590c dc3e 63e3 d83e d2df eebe
00000240: c0fe e3bc 9c31 29bf 9801 1f3e f2f7 4b3e
00000250: de25 4b3e 4c07 0d3e 9610 203e 9c23 e03e
00000260: a082 df3e 1441 de3e 8ed3 efbe 80b9 a8bc
00000270: 1364 25bf 08f0 2b3e a4ca 3e3e e45b 493e
00000280: da3c 1b3e a00e 073e f26b dd3e bac2 dd3e
00000290: a8c7 de3e 5891 fdbe 8000 613c cc0c 1ebf
000002a0: b0b0 2c3e c8c5 2e3e 0e8d 5a3e b6f4 0a3e
000002b0: 1642 053e 01d5 dc3e 4e96 da3e 7d1a d83e
-0.48932236 0.029690683 -0.61069196 0.14723608 0.1730704 0.20539767 0.1437797 0.13163018
0.4306108 0.41316184 0.4254363 -0.49225003 -0.013081014 -0.6940047 0.19030064 0.17432466
0.21849409 0.1359905 0.15726864 0.44272017 0.43338713 0.44685006 -0.5062272 -0.0071464777
-0.6455595 0.18565118 0.16990235 0.18689737 0.16376612 0.13619196 0.4418364 0.4444338
0.43025392 -0.49573976 0.007772088 -0.6220477 0.1658622 0.17577362 0.20429409 0.14038056
0.13931313 0.42624998 0.43274987 0.42539263 -0.47611123 -0.0075215697 -0.6749968 0.2177766
0.1528171 0.18631631 0.16476536 0.13754746 0.43648034 0.42824754 0.43467832 -0.4966485
0.020066738 -0.6142196 0.15891278 0.17077848 0.2093454 0.12740836 0.1461469 0.43427092
0.41542774 0.4285103 -0.48261714 0.024054289 -0.6245222 0.16850072 0.16451633 0.20334587
0.13148406 0.13325539 0.42774665 0.418375 0.43586087 -0.47396916 -0.018895626 -0.642657
0.1740002 0.18514127 0.19333804 0.14232782 0.14478615 0.42918432 0.43182695 0.43491662
-0.4699661 0.0021959543 -0.62922937 0.18641737 0.17976603 0.17293191 0.13625425 0.13561809
0.43606198 0.4175106 0.43243927 -0.51509404 -0.0012154579 -0.6145309 0.16830155 0.18648493
0.2085903 0.1418275 0.15217867 0.4310894 0.42338905 0.4189794 -0.47329438 0.013977766
-0.63093626 0.18507472 0.17014658 0.19836691 0.13443184 0.13371399 0.43732998 0.42444023
0.406748 -0.49221814 0.004529059 -0.6231346 0.17368877 0.18042767 0.20018938 0.1417411
0.13423833 0.43474168 0.41878685 0.42700976 -0.5075042 0.01190424 -0.6115742 0.16135424
0.17682442 0.21086341 0.12414321 0.15021804 0.43037933 0.4297817 0.42360982 -0.46655136
-0.027831435 -0.6609132 0.15527952 0.19918802 0.19838664 0.13772315 0.15631327 0.43777168
0.43654346 0.43409026 -0.4684109 -0.020596266 -0.64605826 0.16790783 0.18631989 0.1966396
0.15159932 0.13189173 0.43246418 0.43312627 0.435117 -0.4952495 0.013733029 -0.61738276
0.16864276 0.17067635 0.2134287 0.13569912 0.13013491 0.4313126 0.42692798 0.4220771

muA f4 [176, 3]
00000000: 306c acbc d049 d4bc 103b b83c 8817 e23d
00000010: b0ff bd3c 389f 133d f08e 0bbe f89e f33c
00000020: 9da6 29be a03c 383c a8bb 643d e06f 3a3c
00000030: 4022 153d d0b5 96bc 00aa dbbc f0d5 0bbd
00000040: 00a0 c93b 90d0 16bd 406b 34bc 7891 59bd
00000050: 0861 24bd 50ec 4ebd a0fb 173d 6017 c53c
00000060: a030 98bc a072 b1bc d06e b03c 80dd ce3b
00000070: 88bd 103d 605f 7f3c e078 ea3c 6086 81bc
00000080: 1024 8fbc 1075 cdbc e045 31bc e02e 6f3c
00000090: dc52 b73d 0096 183d d808 cb3c 1cbe 88bd
000000a0: e009 18bc 40e6 a9bd c04c 143c f074 153d
000000b0: e015 b33c d014 173d 9081 9dbc 8064 aabc
000000c0: e82c 26bd 00de 643b 60d9 0cbd 206f 56bc
000000d0: d822 75bd 9056 d5bc 70c2 63bd 101f d83c
000000e0: c017 c73c 7082 96bc e01e a9bc 1043 b23c
000000f0: 0048 873b 8052 0c3d c01e 313c 60fe de3c
00000100: c0d8 61bc 90ab a6bc 0021 acbc 0013 c7bc
00000110: e0b0 b03c 28d4 ca3d 2075 633c e0aa a63c
00000120: c004 bbbd 6098 193d 1c99 d9bd 00fb 8c3b
00000130: 388f 3e3d 8069 e23b 1804 163d f0fd 9fbc
00000140: 00b7 d4bc 4826 1bbd 8042 1a3c b002 15bd
00000150: a0c2 37bc 98dc 69bd 6051 1cbd d8d3 40bd
00000160: 6833 3c3d a041 ea3c 20e1 8bbc 20e7 b0bc
00000170: b041 b23c 009a a63b 50cd 083d 60a2 163c
00000180: 0037 e63c e0ae 6ebc 40b1 9bbc a0a0 90bc
00000190: 40ea cabc a08d c43c 381c d73d d8cb 0f3d
000001a0: e047 ef3c 0022 d3bd a036 723d 30de 13be
000001b0: 4045 a63b 703d 4d3d 80db 4c3c 707a 113d
000001c0: a0e8 a8bc f0be dcbc a8e6 0cbd c0a9 ef3b
000001d0: b0e1 13bd c07a 18bc 80c9 6ebd 68b5 0abd
000001e0: 5813 51bd 38d6 113d f0db de3c f097 8fbc
000001f0: c051 bbbc d095 bb3c 8032 c53b 88ab 0c3d
00000200: 00df 733c 603e f03c 8005 83bc 6026 91bc
00000210: e083 65bc d05d 95bc d8cc 293d d430 e93d
00000220: 402b e03b b8f6 c73c 8055 4fbd 00fa a13b
00000230: 1c14 19be 002e 473b f0f2 273d 6039 5a3c
00000240: 1868 243d 9004 cfbc 3027 edbc c015 08bd
00000250: 0062 c03b 0828 1bbd 00e7 debb f0ce 60bd
00000260: a085 0cbd 88d7 5abd 483f 3a3d 50d0 9c3c
00000270: 40b8 9dbc 506e 99bc 90ef a43c 4043 8c3b
00000280: 989b 093d e010 6e3c 901a ad3c 2053 2bbc
00000290: b08c 84bc 7015 a0bc c01b b8bc 80a3 2abb
000002a0: 7431 b83d 2033 a43c 689d 1c3d 9893 f6bd
000002b0: 0063 723b 8eff 14be c0a2 813b 486a 423d
000002c0: 409c 3d3c a8f4 1e3d d07d 9abc 307b d9bc
000002d0: c872 0ebd c042 3a3c 7034 fbbc 6059 2abc
000002e0: 8869 6ebd 9055 02bd 18fb 60bd 7034 0f3d
000002f0: b05e a93c 7059 87bc e0c9 b3bc e020 bf3c
00000300: 0056 e73b 206e 1e3d 4013 7a3c d02d fb3c
00000310: 007c 62bc c0dd 8ebc f080 8bbc 90c1 85bc
00000320: 3077 653c ca26 df3d 50c1 c43c 20c0 f63c
00000330: d8f2 a5bd 2062 2e3c 3a28 1cbe 0080 a13b
00000340: c053 373d 600e 683c 685f 143d f02b 8fbc
00000350: 20b2 ddbc d8ef 06bd c0bc 003c 8802 18bd
00000360: 4081 5bbc 108f 5cbd c8ee 04bd 5875 64bd
00000370: b803 083d d0d8 853c 4065 98bc 50b2 aabc
00000380: a01a b83c 0005 a23b a808 173d 809f 5f3c
00000390: 00ef e33c c063 73bc 10d7 95bc 004b d8bb
000003a0: e020 80bc 50e2 893c 9c24 bf3d c030 143d
000003b0: 1840 cd3c 64d6 9cbd b4f6 1c3d d021 04be
000003c0: 001e 673b 680d 443d 409a 463c a08d f43c
000003d0: 207b 97bc e0e2 bebc 9040 1abd 00c8 7b39
000003e0: e09d 09bd e0d6 06bc d894 7fbd f083 febc
000003f0: 5011 4bbd d0a4 0a3d 4036 0a3d a0b0 87bc
-0.021047682 -0.025914103 0.0224891 0.110396445 0.02319321 0.036040515 -0.13628745 0.029738888
-0.16567464 0.011244923 0.055843025 0.011379212 0.036409616 -0.018397242 -0.02681446 -0.034139574
0.0061531067 -0.036819994 -0.0110118985 -0.053117245 -0.0401316 -0.050518334 0.037105203 0.024058998
-0.018577874 -0.021661103 0.021537215 0.006313026 0.035337 0.015586704 0.02862209 -0.015811145
-0.01747325 -0.025080234 -0.010819882 0.014598578 0.08951351 0.037252426 0.02478449 -0.066768855
-0.009279698 -0.0829587 0.009051502 0.036488473 0.021861017 0.036885083 -0.01922682 -0.020799875
-0.04057017 0.0034922361 -0.034386992 -0.013088018 -0.059847683 -0.026042253 -0.055605352 0.026382
0.024303317 -0.018372744 -0.020644605 0.021760494 0.004128456 0.034258366 0.010810554 0.027220905
-0.013784587 -0.02034548 -0.02101183 -0.024301052 0.021568716 0.09903747 0.013882905 0.020345151
-0.09131765 0.03749883 -0.106249064 0.0043023825 0.046523303 0.0069095492 0.036624998 -0.019530267
-0.025966167 -0.037878305 0.009415269 -0.036379516 -0.011215836 -0.05709514 -0.038163543 -0.04707703
0.045947462 0.028595746 -0.017075121 -0.021594584 0.021759838 0.005084276 0.033398926 0.009193987
0.028102398 -0.014568061 -0.019005418 -0.017654717 -0.024769902 0.023993313 0.10503429 0.03510651
0.029209077 -0.10309219 0.059134126 -0.14440227 0.005074173 0.05010742 0.012503505 0.035517156
-0.020618737 -0.026946515 -0.03439966 0.007313937 -0.036103904 -0.00930661 -0.058297634 -0.03386441
-0.05104384 0.035604686 0.027204484 -0.017528504 -0.02286613 0.022898585 0.006017983 0.034343272
0.01488471 0.029326618 -0.015993834 -0.017718494 -0.014008492 -0.01823321 0.04145512 0.11386266
0.0068410933 0.024409637 -0.05061865 0.0049431324 -0.14949077 0.0030392408 0.041003168 0.013319343
0.040138334 -0.02527073 -0.02894935 -0.033223867 0.0058710575 -0.037879974 -0.0068024397 -0.05488485
-0.034307122 -0.053428203 0.045470506 0.0191423 -0.019252896 -0.018729359 0.020133764 0.0042804778
0.03359565 0.0145303905 0.02113083 -0.01045683 -0.016180366 -0.019541472 -0.02247417 -0.0026037395
0.089938074 0.02004391 0.03823605 -0.1203987 0.0036985278 -0.14550611 0.003956169 0.04746464
0.011572897 0.03880754 -0.01885882 -0.026547998 -0.034777433 0.0113684535 -0.030664653 -0.010397285
-0.05820611 -0.03181988 -0.05492696 0.034962118 0.020675033 -0.01652214 -0.021946847 0.023331106
0.0070598125 0.038679242 0.015263379 0.030661494 -0.013823509 -0.017439723 -0.017029256 -0.01632765
0.014005467 0.1089607 0.02401796 0.03012091 -0.081029594 0.010643512 -0.1524972 0.004928589
0.044757605 0.0141635835 0.0362238 -0.017477006 -0.027062476 -0.032943577 0.0078575015 -0.03711179
-0.013397515 -0.053847373 -0.032454282 -0.05577597 0.03320667 0.016338736 -0.018602967 -0.02083698
0.022473633 0.0049444437 0.03687349 0.013648868 0.027823925 -0.014855325 -0.018291026 -0.0066007376
-0.015640676 0.016831547 0.093331546 0.036179304 0.025054976 -0.07658079 0.038321212 -0.12903523
0.0035265684 0.047864348 0.012121737 0.029852688 -0.018491328 -0.023301542 -0.037659228 0.00024011731
-0.033597827 -0.008229941 -0.062397808 -0.031068772 -0.049577057 0.033848584 0.033743143 -0.016563714

quadA f4 [176, 3, 3]
00000000: 67b5 16bd e8f2 f7bc 8079 a63b e8f2 f7bc
00000010: f51b 3d3c 6001 47bc 8079 a63b 6001 47bc
00000020: d2dc ce3c 8b04 cabc 40bf 20bd 2471 263d
00000030: 40bf 20bd 0cb8 d2bb c819 af3c 2471 263d
00000040: c819 af3c 8db2 fe3c c5ff 26bd 709f 823c
00000050: d65d a9bd 709f 823c cb21 6a3d a873 923c
00000060: d65d a9bd a873 923c 0a44 86bc 00d5 e9b6
00000070: 00d0 e0b9 6084 92bb 00d0 e0b9 2a5b 06bb
00000080: 0096 36bc 6084 92bb 0096 36bc 16d0 063b
00000090: 3049 08bc 40fc e63b 0078 39bb 40fc e63b
000000a0: 802c 0e3b c093 d2bb 0078 39bb c093 d2bb
000000b0: 207c c93b d604 b7ba c0ed 313b 0021 f3ba
000000c0: c0ed 313b 2a43 ba3a c097 63bb 0021 f3ba
000000d0: c097 63bb 8095 cfb7 b09e 3839 0067 aaba
000000e0: 2090 b93b 0067 aaba 8aaa 8dbb e0c8 81bb
000000f0: 2090 b93b e0c8 81bb 96e5 873b 8090 a33a
00000100: 0068 a9b9 f0b6 1d3c 0068 a9b9 40b5 60bb
00000110: 403d cebb f0b6 1d3c 403d cebb 00ed 0e3b
00000120: 2014 093c 000f 79ba 407c 073c 000f 79ba
00000130: 407d 4dbb c06b ee3b 407c 073c c06b ee3b
00000140: a069 abbb d695 3c3b 806d fabb 00e0 af39
00000150: 806d fabb 55b4 bdbb 40f8 1bbc 00e0 af39
00000160: 40f8 1bbc d6d2 3e3b 859b 14bc e024 8a3b
00000170: a03a 0a3c e024 8a3b d535 d03a 80c8 efba
00000180: a03a 0a3c 80c8 efba 9529 f53b cdda 81bc
00000190: 60b0 1ebc a079 2ebc 60b0 1ebc 5681 263c
000001a0: 80c2 f03b a079 2ebc 80c2 f03b 8c68 ba3b
000001b0: 8b61 3d3c 38fc 75bd 2c84 f03d 38fc 75bd
000001c0: b17d 5abd 00ee b93c 2c84 f03d 00ee b93c
000001d0: 4f25 2b3d 99f5 5fbd 80e0 253c d0f2 97bd
000001e0: 80e0 253c 0b56 663d 00f6 94b9 d0f2 97bd
000001f0: 00f6 94b9 200e ccba 1615 0dbb 0097 98ba
00000200: 80ce 2dbb 0097 98ba abbd eeba 401b 0ebc
00000210: 80ce 2dbb 401b 0ebc f539 823b 300b 0fbc
00000220: 20c1 d23b 00a8 4c39 20c1 d23b 00ec 6d3a
00000230: 8005 a9bb 00a8 4c39 8005 a9bb 702c 003c
00000240: d512 a2ba c00e 223b c0bd 47bb c00e 223b
00000250: ab73 a23a 0042 fdba c0bd 47bb 0042 fdba
00000260: 00aa 41b6 00ee 8bba 80b0 123b 609d fd3b
00000270: 80b0 123b 205e 12bc 404e 7abb 609d fd3b
00000280: 404e 7abb e0db 233c 2acb 91ba c05a 08bb
00000290: 20fe f03b c05a 08bb 55e8 52bb 2015 e0bb
000002a0: 20fe f03b 2015 e0bb f5e6 8d3b 800f 8f3b
000002b0: 4072 1b3b 403c 863b 4072 1b3b 403b 73bb
000002c0: 00bc 5f3a 403c 863b 00bc 5f3a 008f 2bba
000002d0: 556b 8c3a 20b1 85bb c052 173b 20b1 85bb
000002e0: 960e 21bb e073 afbb c052 173b e073 afbb
000002f0: d5b1 b53a cbd6 80bb 8079 d53a c0fa 1c3b
00000300: 8079 d53a abbc 9abb 00e0 0e38 c0fa 1c3b
00000310: 00e0 0e38 bac9 0d3c 9229 21bd 789f 86bc
00000320: d03e 9ebc 789f 86bc 0354 d33c e055 9ebb
00000330: d03e 9ebc e055 9ebb 46fe 5d3c 9513 da3c
00000340: ac95 46bd c246 d13d ac95 46bd 4666 33bd
00000350: 5007 823c c246 d13d 5007 823c f5b8 8c3c
00000360: c576 09bd 80e6 d7ba 647a 7bbd 80e6 d7ba
00000370: 770a 133d 0013 9eba 647a 7bbd 0013 9eba
00000380: 103b 19bb c03e 38bb 0093 223a c063 a6bb
00000390: 0093 223a 00ca b539 40e9 2bbc c063 a6bb
000003a0: 40e9 2bbc 8085 213b 5be8 30bc 80dd d73b
000003b0: 00c4 e4b9 80dd d73b 551f 123b e066 f8bb
000003c0: 00c4 e4b9 e066 f8bb 8560 0c3c 55ae 0bbb
000003d0: e0a2 943b e0a9 11bc e0a2 943b 6bac 6a3b
000003e0: 8048 e2ba e0a9 11bc 8048 e2ba 2bfc bdba
000003f0: ea48 1abb 80ac e4ba e052 cb3b 80ac e4ba
-0.036794093 -0.030267194 0.005080402 -0.030267194 0.01154231 -0.012146324 0.005080402 -0.012146324
0.02525178 -0.02466037 -0.03924489 0.040635243 -0.03924489 -0.0064306315 0.021374598 0.040635243
0.021374598 0.031090999 -0.040771265 0.015945166 -0.08269851 0.015945166 0.057161134 0.017877415
-0.08269851 0.017877415 -0.016389865 -6.9687376e-06 -0.0004287958 -0.0044713467 -0.0004287958 -0.0020501115
-0.011144161 -0.0044713467 -0.011144161 0.0020570806 -0.0083182305 0.0070491135 -0.0028300285 0.0070491135
0.0021694005 -0.0064263046 -0.0028300285 -0.0064263046 0.00614883 -0.0013963233 0.0027149767 -0.0018549263
0.0027149767 0.001421069 -0.0034727901 -0.0018549263 -0.0034727901 -2.474594e-05 0.00017606723 -0.0013000667
0.005662933 -0.0013000667 -0.0043233084 -0.0039607137 0.005662933 -0.0039607137 0.004147242 0.0012478977
-0.00032311678 0.009626135 -0.00032311678 -0.003428772 -0.0062939227 0.009626135 -0.0062939227 0.0021808743
0.008366615 -0.00095008314 0.00826937 -0.00095008314 -0.0031355172 0.0072760284 0.00826937 0.0072760284
-0.0052310973 0.0028775833 -0.007642448 0.00033545494 -0.007642448 -0.0057893195 -0.009519637 0.00033545494
-0.009519637 0.0029117367 -0.009070282 0.0042158216 0.008436829 0.0042158216 0.0015885184 -0.0018294007
0.008436829 -0.0018294007 0.0074817636 -0.015851403 -0.009685606 -0.010649115 -0.009685606 0.010162672
0.007347405 -0.010649115 0.007347405 0.0056887325 0.011558901 -0.060054988 0.1174396 -0.060054988
-0.053342525 0.022696495 0.1174396 0.022696495 0.041783627 -0.05467758 0.010124326 -0.0741936
0.010124326 0.0562344 -0.00028412044 -0.0741936 -0.00028412044 -0.0015568174 -0.002152746 -0.0011641681
-0.0026520789 -0.0011641681 -0.0018214484 -0.008673489 -0.0026520789 -0.008673489 0.003974194 -0.008730695
0.0064317137 0.00019517541 0.0064317137 0.0009075999 -0.0051581264 0.00019517541 -0.0051581264 0.007823095
-0.0012365232 0.002472803 -0.003047809 0.002472803 0.0012394091 -0.0019322038 -0.003047809 -0.0019322038
-2.8858194e-06 -0.0010675788 0.0022383034 0.007739708 0.0022383034 -0.008933574 -0.0038193613 0.007739708
-0.0038193613 0.010001153 -0.001112317 -0.0020806044 0.007354513 -0.0020806044 -0.0032181938 -0.006838456
0.007354513 -0.006838456 0.0043305107 0.0043658614 0.0023719221 0.004096538 0.0023719221 -0.0037114173
0.0008534789 0.004096538 0.0008534789 -0.0006544441 0.001071314 -0.004079953 0.0023090094 -0.004079953
-0.0024575344 -0.0053543895 0.0023090094 -0.0053543895 0.0013862202 -0.0039318553 0.001628682 0.002395317
0.001628682 -0.004722198 3.4064054e-05 0.002395317 3.4064054e-05 0.008654052 -0.039346285 -0.016433463
-0.01931706 -0.016433463 0.025796896 -0.0048320144 -0.01931706 -0.0048320144 0.013549393 0.026620666
-0.048482582 0.10218574 -0.048482582 -0.043798707 0.015872627 0.10218574 0.015872627 0.017178038
-0.033560533 -0.0016471893 -0.061396018 -0.0016471893 0.035898652 -0.0012060106 -0.061396018 -0.0012060106
-0.0023381151 -0.0028113574 0.0006201714 -0.005077809 0.0006201714 0.00034673512 -0.010492623 -0.005077809
-0.010492623 0.0024646223 -0.010797585 0.006587684 -0.0004363358 0.006587684 0.0022296507 -0.007580623
-0.0004363358 -0.007580623 0.008567934 -0.0021313627 0.004536018 -0.008890599 0.004536018 0.0035808336
-0.0017264038 -0.008890599 -0.0017264038 -0.0014494708 -0.0023541995 -0.0017446429 0.006204948 -0.0017446429

hfvrA f4 [176, 1]
00000000: 31e6 883f 54bb 583f 130e 903f 32d7 b33e
00000010: fc4c 993e fa94 883e 1a70 9c3e 6af4 a83e
00000020: ac9a 1e3e 708b 3e3e 7c62 223e 5cee 883f
00000030: 7cdb 603f 127b 923f cede 923e 5a94 a53e
00000040: ea26 a13e 42f1 b13e a256 973e 1847 d13d
00000050: 64d9 1a3e a066 f03d 655e 8a3f 23ec 5d3f
00000060: cb7f 913f 2aef 913e c811 a63e c251 ad3e
00000070: b2b4 8d3e ba41 af3e a43e 0d3e 28ec f63d
00000080: 5477 1f3e 85c6 883f 486f 5c3f e123 903f
00000090: 6e2b a63e 561d 9b3e d224 913e 2621 a53e
000000a0: c242 a23e 3cb5 2a3e dc94 0a3e 60df 1f3e
000000b0: 8cd8 8b3f b394 613f d0d6 953f 3425 6b3e
000000c0: b021 c13e a24e a73e b644 8f3e 1263 b33e
000000d0: 2c73 2c3e a812 473e c013 ef3d d801 873f
000000e0: c17f 563f cac2 8e3f 7a47 a33e 1230 9b3e
000000f0: e285 803e 4afe a93e f260 913e 6070 063e
00000100: 2cd9 383e 9c62 193e 52e3 853f 5059 5c3f
00000110: 8fa9 903f c241 9b3e 58b6 a03e 2e90 8f3e
00000120: b0f6 a63e f86d a93e 644a 143e 5ce3 2e3e
00000130: 0854 f83d 8ab6 843f de7c 613f 3edf 903f
00000140: 3e18 9c3e 4cd9 853e 504a 963e 268a a73e
00000150: b4b3 9e3e 14c0 1f3e 30c6 0f3e 8863 053e
00000160: 4090 873f dd53 603f 85ca 8e3f b217 893e
00000170: 7051 9c3e 3e4b c13e 0234 af3e c031 af3e
00000180: 4090 0b3e 9cfb 453e bc24 1a3e 3fc9 8a3f
00000190: 8a8c 5d3f 48e7 8f3f 9c85 a03e 3a5f 913e
000001a0: ce22 913e 6cd7 a23e 8838 953e b04a 083e
000001b0: 40f4 253e 4c50 2f3e c2ac 873f 870f 5f3f
000001c0: ff25 8d3f 5284 833e 2af6 9c3e 1e64 a03e
000001d0: a866 a93e 307f a63e c011 f63d 4418 323e
000001e0: 28b0 713e 07af 873f 36a7 5e3f 5cd0 8f3f
000001f0: 6a63 9b3e b6be 923e f65e 973e c87b a13e
00000200: e22c ab3e a82f 0f3e d88b 2f3e 905d 1a3e
00000210: 2410 8a3f f662 5c3f a029 8c3f b2fa a73e
00000220: 12ea 963e 90fa 8e3e 88f1 b53e d04d 923e
00000230: 8065 313e d04b 183e 5c3e 2f3e aa8b 843f
00000240: 2bf6 613f 72ae 913f 1c22 af3e 08b1 6c3e
00000250: 6016 9a3e d818 ab3e 9a01 9b3e b42d 043e
00000260: 0085 0c3e 6c8b 143e bdfa 843f 8dac 633f
00000270: cc65 913f baf5 a23e c2dc 863e 1e56 973e
00000280: 38d2 9c3e 3260 b23e 9854 1a3e a015 103e
00000290: 1428 083e 821e 893f 8186 663f 991b 903f
000002a0: 0462 a33e 8aa4 9e3e 12a3 943e 481a ae3e
000002b0: 06f7 b33e c0ca 0a3e a414 1d3e 184b 2b3e
1.0695249 0.8466084 1.1254295 0.35125118 0.29941547 0.2667616 0.30554277 0.32998973
0.1548869 0.18607879 0.15857881 1.0697742 0.87834907 1.1443808 0.2868561 0.32339746
0.31475002 0.34754378 0.29558283 0.10218638 0.1512199 0.11738324 1.0810057 0.8668844
1.1367124 0.2850278 0.3243544 0.3385144 0.27676922 0.34229833 0.13793427 0.12056762
0.15572864 1.0685583 0.861073 1.1260949 0.3245501 0.3029582 0.28348404 0.32251853
0.31691557 0.16670698 0.13533348 0.15612555 1.092546 0.8811752 1.170618 0.2296341
0.37721014 0.3267718 0.2798211 0.35036522 0.1684081 0.1944071 0.11673689 1.0547438
0.83788687 1.1153195 0.3189047 0.30310112 0.25102144 0.3320182 0.28394276 0.13128805
0.18051594 0.14979023 1.0459998 0.8607378 1.1301745 0.30323607 0.31389117 0.28039688
0.32610083 0.33091712 0.14481503 0.17078918 0.12125403 1.0368207 0.8808116 1.1318128
0.30487245 0.26142347 0.2935357 0.32722586 0.30996478 0.15600616 0.14040446 0.1302625
1.0590897 0.87627965 1.1155554 0.2677589 0.30530882 0.37752718 0.34219366 0.34217644
0.13629246 0.19334263 0.15053076 1.0842665 0.8654257 1.1242456 0.31351936 0.28392965
0.28346866 0.3180498 0.29144692 0.13309741 0.16206455 0.17120475 1.0599597 0.8713307
1.102722 0.2568689 0.30656558 0.31326383 0.33086133 0.3251891 0.12015104 0.17392069
0.23602355 1.0600289 0.86973894 1.1235461 0.30349284 0.28661126 0.29564637 0.3153975
0.3343268 0.13983023 0.1714319 0.15074754 1.0786176 0.860885 1.0950203 0.32808453
0.29475456 0.2792554 0.35535836 0.2857499 0.17323875 0.1487267 0.17113632 1.0355122
0.8826625 1.1381361 0.3420571 0.23114407 0.30095196 0.33417392 0.3027466 0.1290806
0.1372261 0.1450631 1.0389019 0.88935167 1.1359191 0.318281 0.263403 0.2955789
0.30629134 0.34839016 0.15071332 0.1407075 0.13296539 1.0712435 0.90048987 1.1258422
0.31910717 0.30984908 0.29030663 0.34004426 0.351494 0.13553905 0.15339905 0.16727865

vwA f4 [176, 1]
00000000: da89 043f 80a5 fd3e fc0c e63e 8a9e c93e
00000010: a2be be3e 5123 bb3e c983 bf3e 0809 c33e
00000020: 4b69 ab3e 5407 b53e 8bb9 ab3e 9851 043f
00000030: 174b fe3e b03b e63e ad7b bc3e a2dc c33e
00000040: ae21 c33e bad8 c53e a237 bd3e 5004 9d3e
00000050: 0c0d ab3e 5bc3 9d3e 83fe 043f c8f6 fd3e
00000060: f449 e63e 0719 bd3e a756 c43e b40a c63e
00000070: 25fd b93e 78e3 c43e 28ac a93e ae4e a33e
00000080: ba0f ae3e b85d 043f 683f fe3e 4a83 e63e
00000090: 72e7 c33e abf4 bf3e 2e74 be3e 727d c13e
000000a0: 467d c03e be9d b13e 33f8 a63e e48a ad3e
000000b0: e028 053f f499 fe3e 4ac4 e83e 2cb8 b43e
000000c0: c6df cb3e ec2d c63e ee0b b83e d17d c63e
000000d0: 62b4 b03e 9245 b73e 723f a13e aa7f 033f
000000e0: 1e15 fd3e 8e71 e63e c566 c33e 0bc4 c03e
000000f0: caa6 b73e 1012 c33e 8d9f b93e 7a39 a73e
00000100: ad37 b33e e20f aa3e 744a 033f 6a4d fe3e
00000110: 76ef e43e 79cc bf3e 7ed7 c13e 753d bd3e
00000120: 32f5 c13e ad9e c23e f2c6 a93e 336e b13e
00000130: 506b a23e bcd6 023f 220f ff3e 30b6 e63e
00000140: 44de bf3e 313a b73e e20c c03e 96a9 c13e
00000150: 4307 bf3e a313 ae3e 9a91 a93e 5089 a53e
00000160: c2e5 033f d034 fe3e e96a e83e 04fc ba3e
00000170: 19c2 bf3e a36f c93e 2c94 c53e 7660 c43e
00000180: eca6 a93e d513 b93e aa51 ab3e 4fe4 043f
00000190: f095 fe3e 0e3b e63e e676 c13e 39e6 bc3e
000001a0: 14f5 be3e ab3e c13e 35e7 bb3e 3fcc a53e
000001b0: ab33 ae3e 67d5 b23e 646f 033f 4154 ff3e
000001c0: 5edc e73e 55e8 b63e 771c c13e cabd c23e
000001d0: 2c34 c33e ff5a c13e d306 a43e 4021 b13e
000001e0: 736b bf3e fbfb 033f 2ceb fd3e 73fc e63e
000001f0: fa1c c03e 8f7d bc3e ae7a c03e 1c34 c03e
00000200: 135f c33e 6e8a a93e 76c9 b13e 0c4a ab3e
00000210: f8d3 043f d9ef fd3e e2de e63e 4d0b c53e
00000220: c185 be3e 2255 bd3e 6488 c63e 4c7c ba3e
00000230: 4272 b33e 053a ab3e 6722 b13e 5910 033f
00000240: 8cef fe3e 00b2 e73e 83d6 c73e 8d37 b23e
00000250: c755 c13e 12f1 c23e e0c5 be3e de2a a63e
00000260: e3cd a73e b60f ab3e 5efb 023f 992d ff3e
00000270: 019b e63e 8df1 c23e f617 b73e b8cb c03e
00000280: 4d88 be3e ea93 c53e 10e6 ac3e 6441 a93e
00000290: 2e1c a63e 9aab 043f 2b12 003f 48be e53e
000002a0: b3ca c23e 1cad c03e b648 be3e 0054 c43e
000002b0: 922a c63e 7e17 a73e 40d9 ac3e e95d b03e
0.51772845 0.4954033 0.4493178 0.39378768 0.37254816 0.36550382 0.37405232 0.38092828
0.3347877 0.35357153 0.33539996 0.51687 0.49666664 0.44967413 0.36813107 0.38254267
0.38111633 0.38641912 0.36956507 0.30667353 0.3340839 0.30813107 0.51950854 0.49602342
0.44978297 0.36933157 0.3834736 0.3868004 0.36325946 0.38454795 0.33139157 0.31895965
0.33996373 0.51705503 0.4965775 0.4502204 0.38262516 0.37491354 0.37198013 0.3779102
0.37595576 0.3469066 0.32611236 0.33895028 0.52015495 0.49726832 0.45462257 0.35296762
0.39819163 0.3870691 0.35946602 0.38767865 0.3451262 0.35795265 0.31493717 0.51366675
0.49430174 0.4500851 0.38164344 0.3764957 0.35869437 0.38099718 0.3625454 0.3266104
0.35003415 0.33215243 0.5128548 0.49668437 0.44713944 0.37460688 0.3785972 0.3696095
0.37882382 0.38011685 0.33159596 0.34654388 0.31722498 0.5110891 0.49816233 0.45060873
0.37474263 0.35786584 0.3750983 0.37824696 0.37310228 0.33999357 0.33118898 0.32331324
0.5152246 0.49649668 0.45394066 0.36520398 0.37452772 0.39342985 0.3858961 0.38354844
0.33135164 0.36147943 0.33460742 0.5191087 0.49723768 0.4496693 0.37786025 0.36894396
0.37296355 0.37743124 0.36699834 0.3238239 0.34023795 0.34928438 0.51341844 0.49868968
0.45285314 0.3572413 0.3771703 0.38035423 0.3812574 0.37764737 0.32036456 0.3459568
0.37386665 0.51556367 0.49593484 0.45114478 0.37522107 0.36814544 0.37593597 0.37539756
0.38158473 0.33113426 0.34724015 0.3345493 0.5188594 0.49597052 0.4509192 0.38485184
0.3721142 0.36979014 0.38775933 0.36422956 0.3504811 0.33442703 0.3459656 0.5119682
0.49792135 0.4525299 0.39030847 0.34808007 0.37760755 0.38074547 0.37260342 0.3245458
0.32774267 0.33410424 0.51164806 0.49839476 0.45040134 0.38074914 0.35760468 0.37655425
0.37213364 0.38589412 0.33769274 0.33057702 0.32443374 0.51824343 0.5002772 0.44871736
0.38045272 0.37632072 0.3716485 0.38345337 0.38704354 0.3263511 0.337595 0.34446648

alpha_0_A f4 [2816]
00000000: aa30 3b41 aa30 3b41 4c04 e840 1ef9 8f40
00000010: 1ef9 8f40 1ef9 8f40 1ef9 8f40 1ef9 8f40
00000020: 1ef9 8f40 1ef9 8f40 1ef9 8f40 aa30 3b41
00000030: aa30 3b41 4c04 e840 1ef9 8f40 1ef9 8f40
00000040: 1ef9 8f40 1ef9 8f40 1ef9 8f40 1ef9 8f40
00000050: 1ef9 8f40 1ef9 8f40 aa30 3b41 aa30 3b41
00000060: 4c04 e840 1ef9 8f40 1ef9 8f40 1ef9 8f40
00000070: 1ef9 8f40 1ef9 8f40 1ef9 8f40 1ef9 8f40
00000080: 1ef9 8f40 aa30 3b41 aa30 3b41 4c04 e840
00000090: 1ef9 8f40 1ef9 8f40 1ef9 8f40 1ef9 8f40
000000a0: 1ef9 8f40 1ef9 8f40 1ef9 8f40 1ef9 8f40
000000b0: aa30 3b41 aa30 3b41 4c04 e840 1ef9 8f40
000000c0: 1ef9 8f40 1ef9 8f40 1ef9 8f40 1ef9 8f40
000000d0: 1ef9 8f40 1ef9 8f40 1ef9 8f40 aa30 3b41
000000e0: aa30 3b41 4c04 e840 1ef9 8f40 1ef9 8f40
000000f0: 1ef9 8f40 1ef9 8f40 1ef9 8f40 1ef9 8f40
00000100: 1ef9 8f40 1ef9 8f40 aa30 3b41 aa30 3b41
00000110: 4c04 e840 1ef9 8f40 1ef9 8f40 1ef9 8f40
00000120: 1ef9 8f40 1ef9 8f40 1ef9 8f40 1ef9 8f40
00000130: 1ef9 8f40 aa30 3b41 aa30 3b41 4c04 e840
00000140: 1ef9 8f40 1ef9 8f40 1ef9 8f40 1ef9 8f40
00000150: 1ef9 8f40 1ef9 8f40 1ef9 8f40 1ef9 8f40
00000160: aa30 3b41 aa30 3b41 4c04 e840 1ef9 8f40
00000170: 1ef9 8f40 1ef9 8f40 1ef9 8f40 1ef9 8f40
00000180: 1ef9 8f40 1ef9 8f40 1ef9 8f40 aa30 3b41
00000190: aa30 3b41 4c04 e840 1ef9 8f40 1ef9 8f40
000001a0: 1ef9 8f40 1ef9 8f40 1ef9 8f40 1ef9 8f40
000001b0: 1ef9 8f40 1ef9 8f40 aa30 3b41 aa30 3b41
000001c0: 4c04 e840 1ef9 8f40 1ef9 8f40 1ef9 8f40
000001d0: 1ef9 8f40 1ef9 8f40 1ef9 8f40 1ef9 8f40
000001e0: 1ef9 8f40 aa30 3b41 aa30 3b41 4c04 e840
000001f0: 1ef9 8f40 1ef9 8f40 1ef9 8f40 1ef9 8f40
00000200: 1ef9 8f40 1ef9 8f40 1ef9 8f40 1ef9 8f40
00000210: aa30 3b41 aa30 3b41 4c04 e840 1ef9 8f40
00000220: 1ef9 8f40 1ef9 8f40 1ef9 8f40 1ef9 8f40
00000230: 1ef9 8f40 1ef9 8f40 1ef9 8f40 aa30 3b41
00000240: aa30 3b41 4c04 e840 1ef9 8f40 1ef9 8f40
00000250: 1ef9 8f40 1ef9 8f40 1ef9 8f40 1ef9 8f40
00000260: 1ef9 8f40 1ef9 8f40 aa30 3b41 aa30 3b41
00000270: 4c04 e840 1ef9 8f40 1ef9 8f40 1ef9 8f40
00000280: 1ef9 8f40 1ef9 8f40 1ef9 8f40 1ef9 8f40
00000290: 1ef9 8f40 aa30 3b41 aa30 3b41 4c04 e840
000002a0: 1ef9 8f40 1ef9 8f40 1ef9 8f40 1ef9 8f40
000002b0: 1ef9 8f40 1ef9 8f40 1ef9 8f40 1ef9 8f40
000002c0: aa30 3b41 aa30 3b41 4c04 e840 1ef9 8f40
000002d0: 1ef9 8f40 1ef9 8f40 1ef9 8f40 1ef9 8f40
000002e0: 1ef9 8f40 1ef9 8f40 1ef9 8f40 aa30 3b41
000002f0: aa30 3b41 4c04 e840 1ef9 8f40 1ef9 8f40
00000300: 1ef9 8f40 1ef9 8f40 1ef9 8f40 1ef9 8f40
00000310: 1ef9 8f40 1ef9 8f40 aa30 3b41 aa30 3b41
00000320: 4c04 e840 1ef9 8f40 1ef9 8f40 1ef9 8f40
00000330: 1ef9 8f40 1ef9 8f40 1ef9 8f40 1ef9 8f40
00000340: 1ef9 8f40 aa30 3b41 aa30 3b41 4c04 e840
00000350: 1ef9 8f40 1ef9 8f40 1ef9 8f40 1ef9 8f40
00000360: 1ef9 8f40 1ef9 8f40 1ef9 8f40 1ef9 8f40
00000370: aa30 3b41 aa30 3b41 4c04 e840 1ef9 8f40
00000380: 1ef9 8f40 1ef9 8f40 1ef9 8f40 1ef9 8f40
00000390: 1ef9 8f40 1ef9 8f40 1ef9 8f40 aa30 3b41
000003a0: aa30 3b41 4c04 e840 1ef9 8f40 1ef9 8f40
000003b0: 1ef9 8f40 1ef9 8f40 1ef9 8f40 1ef9 8f40
000003c0: 1ef9 8f40 1ef9 8f40 aa30 3b41 aa30 3b41
000003d0: 4c04 e840 1ef9 8f40 1ef9 8f40 1ef9 8f40
000003e0: 1ef9 8f40 1ef9 8f40 1ef9 8f40 1ef9 8f40
000003f0: 1ef9 8f40 aa30 3b41 aa30 3b41 4c04 e840
11.699381 11.699381 7.2505245 4.49916 4.49916 4.49916 4.49916 4.49916
4.49916 4.49916 4.49916 11.699381 11.699381 7.2505245 4.49916 4.49916
4.49916 4.49916 4.49916 4.49916 4.49916 4.49916 11.699381 11.699381
7.2505245 4.49916 4.49916 4.49916 4.49916 4.49916 4.49916 4.49916
4.49916 11.699381 11.699381 7.2505245 4.49916 4.49916 4.49916 4.49916
4.49916 4.49916 4.49916 4.49916 11.699381 11.699381 7.2505245 4.49916
4.49916 4.49916 4.49916 4.49916 4.49916 4.49916 4.49916 11.699381
11.699381 7.2505245 4.49916 4.49916 4.49916 4.49916 4.49916 4.49916
4.49916 4.49916 11.699381 11.699381 7.2505245 4.49916 4.49916 4.49916
4.49916 4.49916 4.49916 4.49916 4.49916 11.699381 11.699381 7.2505245
4.49916 4.49916 4.49916 4.49916 4.49916 4.49916 4.49916 4.49916
11.699381 11.699381 7.2505245 4.49916 4.49916 4.49916 4.49916 4.49916
4.49916 4.49916 4.49916 11.699381 11.699381 7.2505245 4.49916 4.49916
4.49916 4.49916 4.49916 4.49916 4.49916 4.49916 11.699381 11.699381
7.2505245 4.49916 4.49916 4.49916 4.49916 4.49916 4.49916 4.49916
4.49916 11.699381 11.699381 7.2505245 4.49916 4.49916 4.49916 4.49916
4.49916 4.49916 4.49916 4.49916 11.699381 11.699381 7.2505245 4.49916
4.49916 4.49916 4.49916 4.49916 4.49916 4.49916 4.49916 11.699381
11.699381 7.2505245 4.49916 4.49916 4.49916 4.49916 4.49916 4.49916
4.49916 4.49916 11.699381 11.699381 7.2505245 4.49916 4.49916 4.49916
4.49916 4.49916 4.49916 4.49916 4.49916 11.699381 11.699381 7.2505245
4.49916 4.49916 4.49916 4.49916 4.49916 4.49916 4.49916 4.49916
11.699381 11.699381 7.2505245 4.49916 4.49916 4.49916 4.49916 4.49916
4.49916 4.49916 4.49916 11.699381 11.699381 7.2505245 4.49916 4.49916
4.49916 4.49916 4.49916 4.49916 4.49916 4.49916 11.699381 11.699381
7.2505245 4.49916 4.49916 4.49916 4.49916 4.49916 4.49916 4.49916
4.49916 11.699381 11.699381 7.2505245 4.49916 4.49916 4.49916 4.49916
4.49916 4.49916 4.49916 4.49916 11.699381 11.699381 7.2505245 4.49916
4.49916 4.49916 4.49916 4.49916 4.49916 4.49916 4.49916 11.699381
11.699381 7.2505245 4.49916 4.49916 4.49916 4.49916 4.49916 4.49916
4.49916 4.49916 11.699381 11.699381 7.2505245 4.49916 4.49916 4.49916
4.49916 4.49916 4.49916 4.49916 4.49916 11.699381 11.699381 7.2505245

hlistA f4 [176, 4, 8]
00000000: 7998 b53b 33b9 933e 6ea2 48bd 95b5 903c
00000010: 995b 223e c1cf e33b b7d1 143d e6f1 ea3c
00000020: ac2b 57be f480 933d 3664 ee3d d75f 923d
00000030: ba30 a1bd 7c0f 883c 74b6 353e 6317 6a3e
00000040: bce0 6ebd 0207 52bd 5d54 6bbe bd56 083e
00000050: c017 83bc 0220 3dbf aa0f 69be 02fc 9c3d
00000060: 4c10 053e ce59 993d d8f0 71bd 0277 843e
00000070: a0f3 71be e977 783e 5770 9e3e 1322 eabf
00000080: 7998 b53b 33b9 933e 6ea2 48bd 95b5 903c
00000090: 995b 223e c1cf e33b b7d1 143d e6f1 ea3c
000000a0: 6112 93bd 7831 d4bd 0b4a e2bd 04ef 92be
000000b0: a77a 9d3d b64f 233d 3059 e6bc fc6a 83bd
000000c0: c001 ecbd b2d7 953c e803 1f3d 76f9 383d
000000d0: 21ab d53d 4a9b cbbd 3278 b43c 8a14 e63d
000000e0: 46e8 94bc 884a a1bd 5dea 25bd 9332 373e
000000f0: a0c8 83bc c6a5 553d 4075 ccbc 38ec 3f3f
00000100: c3bd 33be 9b00 75bd 693e 1bbc 349a 22be
00000110: 7a51 043f 5173 21be 9444 0d3c 586e aabd
00000120: a5d9 f8bd 3b56 84be 1042 d83e 2e8a 433e
00000130: 37c7 b43e 9c7a 1e3f d6f9 613e 29d6 d73c
00000140: 0049 853b 054a dfbd 4e74 95be ce91 c03d
00000150: 0cc0 fa3d ac1a 1fbf d916 93be 08df 393e
00000160: e683 983c afdc 23be a420 83be 0bb4 93be
00000170: efe9 b2be 8552 7a3e 0b28 3fbe dfad 9840
00000180: 8d50 7fbd b2a6 f6bc 04de 453d 4eb0 643d
00000190: e28c c5bd b2c2 f63d 2e0b 25be 41ae f0bd
000001a0: cc94 483c ca15 84bd 1661 a2bd 93e5 083d
000001b0: 20c5 7c3b 9955 6abc 5856 cebb 0f5c 8c3d
000001c0: fa40 013e 6ce2 66be 3a6a 8dbd 8a67 cfbc
000001d0: 80d9 eabd 9473 a6bd 0843 b2bd 6e33 13be
000001e0: dab4 703d 5f9a 65bd b670 aabd e8cc 31bd
000001f0: 38be 47be 40c1 933d 5a70 8bbc 38e7 5d3f
00000200: 8d50 7fbd b2a6 f6bc 04de 453d 4eb0 643d
00000210: e28c c5bd b2c2 f63d 2e0b 25be 41ae f0bd
00000220: f42f 8f3c 7779 68bd d60a 9abd b8b2 293d
00000230: 8025 d9bb e574 6bbc 7c6e 46bc a3f4 813d
00000240: b452 1a3d 3d89 b9bd ee9c adbd 979d 5d3d
00000250: 406f 11be 80a7 b6bc a06d e1bd 7470 19be
00000260: fec5 2b3d 778d 8ebd c28e bcbd 70ee e8bc
00000270: 704d 37be 33ae ad3d e602 0cbd 4cfa 9a3f
00000280: 8d50 7fbd b2a6 f6bc 04de 453d 4eb0 643d
00000290: e28c c5bd b2c2 f63d 2e0b 25be 41ae f0bd
000002a0: 8c24 b9bc f0da e2bc ec0b 96bd 005c a0ba
000002b0: 0853 2c3c ece0 6c3c b411 053d 6f06 303d
000002c0: 004e 75bc c88b 04be 204f c73c 0ba5 353d
000002d0: 721f 363d 4881 58bd ea16 86bc 60d3 38bb
000002e0: fcd9 d7bb 2bb7 d5bd 950a debd b0c5 013d
000002f0: b5fd f7bd 62df e63d 1f70 9bbd 310d 0140
00000300: 8d50 7fbd b2a6 f6bc 04de 453d 4eb0 643d
00000310: e28c c5bd b2c2 f63d 2e0b 25be 41ae f0bd
00000320: c01e 2bbe a477 c5bc 7c76 f7bd aaa4 c1bd
00000330: a655 99bd e0d7 a93a bad0 d0bd ff5b 373d
00000340: 4068 1c3c cb90 143e 9a1a d9bd fa4a 06be
00000350: 6220 5bbe e6d9 e0bd f7f6 a8be ebf9 9f3d
00000360: 82c6 87bc c28a a8bd a263 4cbd b358 223e
00000370: a8c1 fabc 59f6 773d 5616 03bd 5cc6 6c3f
00000380: 8d50 7fbd b2a6 f6bc 04de 453d 4eb0 643d
00000390: e28c c5bd b2c2 f63d 2e0b 25be 41ae f0bd
000003a0: e0b8 1abe a9a6 f3bb 39b2 e3bd e499 a5bd
000003b0: b473 a4bd 02c7 3d3c 82fc 9ebd 6246 ed3c
000003c0: 8854 dc3c b0ad f93d 5527 18be 78b0 f3bd
000003d0: a86c 79be 2a39 f6bd 2bd0 b6be 7342 573d
000003e0: a862 93bc aa21 a2bd dd5f 2abd eec7 343e
000003f0: 8092 91bc e19f 593d ac25 d3bc f61e 453f
0.005541858 0.28852233 -0.04898303 0.01766471 0.15855254 0.0069522564 0.036332812 0.0286798
-0.21012753 0.0720233 0.116402075 0.07147186 -0.07870622 0.016608946 0.17745382 0.22860484
-0.058319792 -0.051276214 -0.22981401 0.13314338 -0.016002536 -0.73876965 -0.22759882 0.07665254
0.12994498 0.07487832 -0.059067577 0.25872046 -0.23628092 0.24264492 0.30945083 -1.8291649
0.005541858 0.28852233 -0.04898303 0.01766471 0.15855254 0.0069522564 0.036332812 0.0286798
-0.0718124 -0.10360998 -0.11049279 -0.2869798 0.0768941 0.03987094 -0.0281187 -0.0641689
-0.11523771 0.018291328 0.038822085 0.04515978 0.10433031 -0.099417284 0.02202997 0.11234386
-0.018177163 -0.07875544 -0.04050671 0.17890386 -0.016086876 0.052160047 -0.024958253 0.74969816
-0.17552857 -0.05981503 -0.009475329 -0.15879136 0.51686823 -0.15766646 0.008622307 -0.08321828
-0.121508874 -0.2584704 0.42237902 0.1909568 0.3530824 0.6190584 0.22067961 0.026347237
0.00406754 -0.1090279 -0.29190296 0.0940281 0.12243661 -0.62150073 -0.2872837 0.18151486
0.018617582 -0.16002153 -0.2561084 -0.288483 -0.34944102 0.24445541 -0.18667619 4.7712245
-0.06233268 -0.030108783 0.048307434 0.0558322 -0.09646012 0.12048854 -0.16117546 -0.11751986
0.012242507 -0.064494684 -0.07928674 0.033422064 0.0038569644 -0.014302635 -0.006296914 0.06853496
0.12622443 -0.2254731 -0.06905027 -0.025317926 -0.11467266 -0.081275135 -0.087041914 -0.14375088
0.058766223 -0.056055423 -0.08322279 -0.043408304 -0.19506156 0.07214594 -0.017021347 0.86680937
-0.06233268 -0.030108783 0.048307434 0.0558322 -0.09646012 0.12048854 -0.16117546 -0.11751986
0.01747892 -0.056756463 -0.07521598 0.041430205 -0.006626785 -0.014371132 -0.012111302 0.06345489
0.037676528 -0.09059379 -0.084771976 0.054105368 -0.14202595 -0.022296667 -0.110072374 -0.14984304
0.041936867 -0.06960576 -0.092069164 -0.028434008 -0.17900634 0.084804915 -0.03418245 1.2107635
-0.06233268 -0.030108783 0.048307434 0.0558322 -0.09646012 0.12048854 -0.16117546 -0.11751986
-0.022600435 -0.027692288 -0.07326493 -0.0012234449 0.010517843 0.014457922 0.032487586 0.042974886
-0.01497221 -0.12943947 0.024329722 0.04434685 0.044463582 -0.052857667 -0.016368348 -0.0028202161
-0.006587265 -0.10435327 -0.10841862 0.03168267 -0.12108938 0.11273076 -0.07589745 2.0164301
-0.06233268 -0.030108783 0.048307434 0.0558322 -0.09646012 0.12048854 -0.16117546 -0.11751986
-0.16710949 -0.0241049 -0.12083146 -0.09455235 -0.07487039 0.0012958013 -0.101960614 0.04476547
0.0095463395 0.14508359 -0.10600777 -0.13114539 -0.21399072 -0.10979061 -0.3300092 0.0781134
-0.016574148 -0.08229591 -0.049899705 0.15854149 -0.03060992 0.06053767 -0.032003723 0.9249017
-0.06233268 -0.030108783 0.048307434 0.0558322 -0.09646012 0.12048854 -0.16117546 -0.11751986
-0.15109587 -0.007435639 -0.11117978 -0.08085993 -0.08029881 0.011583092 -0.07763006 0.028964225
0.026895776 0.121913314 -0.14858754 -0.11898893 -0.24357855 -0.12022622 -0.35705695 0.052553605
-0.017991379 -0.07916577 -0.04159533 0.17654392 -0.017770052 0.053130988 -0.0257748 0.7700037
