tests/test_data_path/og_processed/dimer_ap3_train_spec_7_586.pt (torch, 208018 bytes, 17 tensors)

y f4 [16, 4]
-3.006084 6.533059 -1.1825329 -3.3293073 -0.15230429 0.06870493 -0.025731433 -0.7318242
0.14359646 0.7013743 -0.18649049 -1.8515339 0.013031963 0.013729187 -0.017054306 -0.21857753
-0.17323871 0.07623828 -0.08285092 -0.69770956 0.73308504 0.503421 -0.17647599 -1.6644328
-0.52340406 0.29252222 -0.17233975 -1.0572515 -6.794616 16.858185 -1.8830433 -6.7266846
-6.637088 13.074492 -1.5594893 -6.4014907 -10.972626 18.296597 -5.550528 -6.6870213
-0.24248162 0.88354725 -0.13600203 -1.2869095 0.008222358 0.28655505 -0.19514415 -0.97782767
-17.087605 42.58262 -4.9917216 -12.033312 -13.94795 42.822655 -4.328714 -15.192134
-0.23247811 0.00049646973 -0.0074194446 -0.12756367 -12.70866 31.934158 -5.812104 -10.586972
00000000: ae63 40c0 d20e d140 3d5d 97bf 5f13 55c0
00000010: a8f5 1bbe 2cb5 8c3d baca d2bc d558 3bbf
00000020: f30a 133e 448d 333f 5df7 3ebe 10ff ecbf
00000030: 0484 553c 62f0 603c 79b5 8bbc cad2 5fbe
00000040: 7d65 31be d122 9c3d bead a9bd 189d 32bf
00000050: 76ab 3b3f 33e0 003f 1fb6 34be 220c d5bf
00000060: cffd 05bf 79c5 953e d579 30be 0454 87bf
00000070: 7f6d d9c0 90dd 8641 9007 f1bf 0041 d7c0
00000080: 0663 d4c0 1f31 5141 589d c7bf 03d9 ccc0
00000090: e08f 2fc1 6e5f 9241 ed9d b1c0 14fc d5c0
000000a0: 1a4d 78be 2730 623f 1e44 0bbe 73b9 a4bf
000000b0: 12b7 063c 58b7 923e ded3 47be ea52 7abf
000000c0: 6ab3 88c1 9a54 2a42 2fbc 9fc0 7288 40c1
000000d0: ce2a 5fc1 664a 2b42 d384 8ac0 fb12 73c1
000000e0: be0e 6ebe 8525 023a d01e f3bb 0da0 02be
000000f0: ac56 4bc1 2879 ff41 c2fc b9c0 3d64 29c1

RA f4 [192, 3]
-0.630569 -1.316287 1.228028 -0.34182 -0.137285 0.310423 -1.119187 0.822054
0.319797 0.783483 -0.196706 -0.391034 -0.647435 -0.946934 2.282529 1.225133
0.773427 -1.334989 1.269929 -1.047562 -0.370428 0.140501 -2.183823 1.192828
-1.647311 -1.724763 0.963624 1.262027 0.423603 -2.441559 0.522057 1.55426
-1.286741 2.215807 1.16932 -1.122603 -0.667938 -1.259281 1.239681 -0.33736
-0.109399 0.318795 -1.05728 0.864527 0.309892 0.806512 -0.197687 -0.501317
-0.67777 -0.967001 2.271194 1.148165 0.774446 -1.319982 1.300183 -1.009131
-0.365469 0.145644 -2.206022 1.119907 -1.619597 -1.671112 0.922496 1.218844
0.434676 -2.416625 0.443026 1.640144 -1.271241 2.163452 1.226997 -1.090104
-0.625521 -1.368439 1.23985 -0.334082 -0.075217 0.288391 -1.049305 0.852872
0.255381 0.790966 -0.269074 -0.416429 -0.68641 -0.969126 2.238179 1.222179
0.791544 -1.387989 1.327015 -1.097913 -0.384817 0.034192 -2.125102 1.157451
-1.612706 -1.684339 0.952556 1.214896 0.429342 -2.412029 0.524651 1.648794
-1.32175 2.218736 1.195277 -1.148793 -0.673261 -1.227299 1.243928 -0.255842
-0.134582 0.297901 -1.074882 0.848675 0.319319 0.859081 -0.195489 -0.465461
-0.676956 -0.961979 2.271946 1.277609 0.81661 -1.365907 1.332058 -1.098432
-0.38208 0.106681 -2.107483 1.242593 -1.629369 -1.712244 0.983002 1.213927
0.43211 -2.41884 0.511497 1.545993 -1.223612 2.172746 1.199149 -1.081864
-0.652123 -1.312 1.237689 -0.318681 -0.134751 0.310141 -1.067685 0.853831
0.315864 0.744371 -0.300094 -0.496739 -0.681316 -0.95741 2.266753 1.182437
0.823349 -1.348304 1.282653 -1.0668 -0.425655 0.137131 -2.147509 1.172741
-1.59695 -1.758091 0.917569 1.259867 0.405217 -2.361566 0.466607 1.639935
-1.267934 2.2094 1.162512 -1.116458 -0.630207 -1.314093 1.228409 -0.360022
-0.174706 0.377106 -1.026144 0.843609 0.279715 0.82589 -0.171659 -0.485942
-0.658819 -0.968391 2.24926 1.195891 0.780559 -1.365911 1.326142 -1.094001
-0.389421 0.124385 -2.125412 1.140096 -1.628977 -1.7022 0.979056 1.267129
0.44114 -2.456348 0.434306 1.674453 -1.283909 2.230691 1.152168 -1.12002
-0.581265 -1.272004 1.179726 -0.337413 -0.098753 0.3081 -1.058158 0.800909
0.257499 0.814102 -0.226287 -0.473319 -0.669805 -0.958909 2.272171 1.188532
0.707081 -1.383231 1.299298 -1.168733 -0.328826 0.140868 -2.13103 1.129127
-1.5929 -1.731913 0.980493 1.295739 0.384237 -2.429644 0.482365 1.632955
-1.308973 2.214569 1.170631 -1.120722 -0.595375 -1.343694 1.20191 -0.382059
00000000: f86c 21bf 187c a8bf 0630 9d3f 0803 afbe
00000010: 7094 0cbe c3ef 9e3e 8541 8fbf 2272 523f
00000020: 6fbc a33e 5892 483f 4c6d 49be 9c35 c8be
00000030: 4dbe 25bf 446a 72bf f514 1240 28d1 9c3f
00000040: 50ff 453f ebe0 aabf 098d a23f 8316 86bf
00000050: bda8 bdbe 7fdf 0f3e c2c3 0bc0 97ae 983f
00000060: 16db d2bf 09c5 dcbf 10b0 763f 1a8a a13f
00000070: 7ee2 d83e 8142 1cc0 87a5 053f fef1 c63f
00000080: eeb3 a4bf c8cf 0d40 47ac 953f 75b1 8fbf
00000090: fcfd 2abf 1f30 a1bf dead 9e3f 73ba acbe
000000a0: 950c e0bd 1939 a33e f354 87bf a451 5d3f
000000b0: 2aaa 9e3e 9277 4e3f 766e 4abe 5056 00bf
000000c0: 5682 2dbf 618d 77bf 3e5b 1140 12f7 923f
000000d0: 1842 463f 2cf5 a8bf 666c a63f 342b 81bf
000000e0: c11e bbbe b323 153e 772f 0dc0 1d59 8f3f
000000f0: f44e cfbf ffe6 d5bf b328 6c3f 1503 9c3f
00000100: da8d de3e fca9 1ac0 4ed4 e23e 3df0 d13f
00000110: 06b8 a2bf ff75 0a40 3d0e 9d3f 8788 8bbf
00000120: 2522 20bf 0229 afbf 68b3 9e3f cc0c abbe
00000130: 5f0b 9abd fca7 933e a04f 86bf d255 5a3f
00000140: 4cc1 823e bf7c 4a3f 11c4 89be 2f36 d5be
00000150: 91b8 2fbf a418 78bf 533e 0f40 5d70 9c3f
00000160: a1a2 4a3f a0a9 b1bf a1db a93f 6a88 8cbf
00000170: bc06 c5be e90c 0c3d ac01 08c0 5b27 943f
00000180: 266d cebf 6c98 d7bf b6da 733f b681 9b3f
00000190: b7d2 db3e af5e 1ac0 874f 063f af0b d33f
000001a0: 1b2f a9bf c5ff 0d40 d6fe 983f a60b 93bf
000001b0: d55a 2cbf 2218 9dbf 0839 9f3f b9fd 82be
000001c0: ddcf 09be 7b86 983e bc95 89bf c442 593f
000001d0: c87d a33e bbec 5b3f 452e 48be e750 eebe
000001e0: fd4c 2dbf 4144 76bf 9067 1140 b188 a33f
000001f0: 5a0d 513f 0ad6 aebf e080 aa3f 6b99 8cbf
00000200: fd9f c3be 917b da3d 00e1 06c0 4a0d 9f3f
00000210: 2a8f d0bf d02a dbbf 05a6 7b3f f661 9b3f
00000220: 863d dd3e 46ce 1ac0 78f1 023f 19e3 c53f
00000230: 519f 9cbf 450e 0b40 b77d 993f 857a 8abf
00000240: 88f1 26bf 9eef a7bf 986c 9e3f 282a a3be
00000250: 2bfc 09be cdca 9e3e e7a9 88bf ab94 5a3f
00000260: edb8 a13e 198f 3e3f eca5 99be 9354 febe
00000270: ba6a 2ebf d218 75bf 7b12 1140 185a 973f
00000280: 00c7 523f 3a95 acbf f92d a43f e78c 88bf
00000290: 74ef d9be 126c 0c3e ca70 09c0 611c 963f
000002a0: dc68 ccbf 2009 e1bf cde5 6a3f 5243 a13f
000002b0: 9a78 cf3e e623 17c0 1de7 ee3e 64e9 d13f
000002c0: a94b a2bf cf66 0d40 31cd 943f 19e8 8ebf
000002d0: 3f55 21bf 3334 a8bf 823c 9d3f ce54 b8be
000002e0: 21e6 32be 0a14 c13e b058 83bf c2f6 573f
000002f0: ce36 8f3e 876d 533f 60c7 2fbe 64cd f8be
00000300: 5da8 28bf 79e8 77bf e0f3 0f40 f512 993f
00000310: b7d2 473f 2cd6 aebf 05bf a93f 3a08 8cbf
00000320: 3062 c7be 90bd fe3d c006 08c0 aaee 913f
00000330: 5182 d0bf b1e1 d9bf 6aa3 7a3f 4831 a23f
00000340: 1add e13e ce34 1dc0 5b5d de3e 7a54 d63f
00000350: 2157 a4bf a4c3 0e40 3e7a 933f d15c 8fbf
00000360: c8cd 14bf 07d1 a2bf 4301 973f 66c1 acbe
00000370: 033f cabd 48bf 9d3e b971 87bf 5f08 4d3f
00000380: e9d6 833e fd68 503f c8b7 67be de56 f2be
00000390: 5778 2bbf 0f7b 75bf 406b 1140 d121 983f
000003a0: 4303 353f b70d b1bf 664f a63f 0b99 95bf
000003b0: e25b a8be b33f 103e cc62 08c0 3c87 903f
000003c0: 26e4 cbbf 53af ddbf 9701 7b3f c7da a53f
000003d0: b6ba c43e 4a7f 1bc0 8cf8 f63e ab04 d13f
000003e0: 6d8c a7bf 80bb 0d40 3dd7 953f d273 8fbf
000003f0: 7f6a 18bf 2afe abbf 30d8 993f 3d9d c3be

RB f4 [160, 3]
0.537498 -0.531129 5.362216 0.607449 -1.222536 4.211902 0.872663 -2.535265
4.25294 1.127216 -3.170323 5.5367 1.012063 -2.323086 6.589845 0.754271
-1.060862 6.553323 0.289292 0.497419 5.345847 0.885059 -3.050937 3.376598
1.247125 -2.795357 7.62176 1.313785 -4.254908 5.579043 -1.403286 -5.156747
3.433272 -0.280593 -5.65686 2.882706 -0.502103 -6.218 1.717188 -1.682585
-6.359426 1.04176 -2.760464 -5.819329 1.804296 -2.631934 -5.202108 2.937432
-1.21018 -4.649201 4.348392 0.488935 -6.624452 1.222814 -3.686409 -5.850513
1.313174 -1.785347 -6.793083 0.030238 2.565082 0.283445 3.328444 1.364103
0.995798 3.612655 1.417558 1.662761 4.711186 2.530195 1.749231 5.563301
3.541889 0.955707 5.196135 3.614314 0.276339 4.079524 2.520113 -0.278479
2.434807 0.484091 2.259427 4.996834 4.566535 0.919982 5.833033 2.509914
2.290752 6.515354 6.560298 0.651604 -1.895395 7.003493 0.713774 -3.099762
8.3106 0.886836 -3.23382 9.151155 0.93929 -2.149632 8.641574 0.861238
-0.908827 7.352364 0.76514 -0.756833 5.447093 0.526524 -1.624393 8.645937
0.852109 -4.346193 9.199829 0.838163 0.004183 10.231124 1.074018 -2.3648
1.156555 4.814063 1.051048 1.815027 4.131356 2.055739 2.675836 4.715573
2.708618 3.0785 6.082004 2.376188 2.340585 6.678456 1.469728 1.434431
6.007379 0.675928 0.316973 4.277778 0.517274 3.281445 4.142097 3.396093
2.545378 7.779542 1.079744 3.88576 6.627248 2.946482 2.157197 3.874385
1.321054 1.649224 2.923468 2.078302 1.43377 3.345007 3.398202 1.820521
4.590704 3.839574 2.354374 5.496584 2.926611 2.501171 5.211974 1.639848
2.221253 3.629091 0.225233 1.076022 2.53529 4.077552 2.603098 6.543298
3.140786 1.700765 4.873644 4.82144 4.123218 -4.071002 2.446017 3.005396
-3.735132 1.810607 2.633037 -4.564257 0.927384 3.219948 -5.747683 0.54898
4.458862 -6.015499 1.30225 4.840207 -5.174655 2.194193 4.508494 -3.409073
3.230114 1.57463 -4.276253 0.364539 5.071653 -6.940936 1.030979 2.895416
-6.424019 -0.201752 4.445317 0.362244 -0.547485 3.429325 0.3608 0.36565
3.698261 0.759314 1.555228 5.016576 1.267302 1.927812 6.008356 1.242103
0.931266 5.698034 0.847848 -0.310565 4.198406 -0.001896 -1.528438 2.867785
0.766996 2.384576 7.047895 1.522152 1.020027 5.309966 1.641518 2.957213
2.377957 -0.325691 2.840849 2.072607 -1.455607 2.27467 2.644495 -2.517728
2.841928 3.563903 -2.443677 3.871761 3.697622 -1.059953 4.373632 3.159016
00000000: 7899 093f 12f8 07bf 4697 ab40 c781 1b3f
00000010: 0f7c 9cbf e7c7 8640 d866 5f3f c841 22c0
00000020: 1618 8840 9d48 903f 92e6 4ac0 a52c b140
00000030: 488b 813f 71ad 14c0 03e0 d240 e717 413f
00000040: 53ca 87bf d2b4 d140 151e 943e b4ad fe3e
00000050: 2e11 ab40 3a93 623f 8d42 43c0 2e1a 5840
00000060: cba1 9f3f 21e7 32c0 75e5 f340 1b2a a83f
00000070: 3528 88c0 8587 b240 e09e b3bf 1204 a5c0
00000080: baba 5b40 e3a9 8fbe ff04 b5c0 417e 3840
00000090: d289 00bf dbf9 c6c0 d1cc db3f f25e d7bf
000000a0: 6b80 cbc0 6458 853f 71ab 30c0 f137 bac0
000000b0: 2cf3 e63f 9b71 28c0 ab77 a6c0 e3fe 3b40
000000c0: 2ee7 9abf 41c6 94c0 0726 8b40 b055 fa3e
000000d0: 83fb d3c0 2b85 9c3f 20ee 6bc0 6737 bbc0
000000e0: 1616 a83f 4086 e4bf f060 d9c0 afb5 f73c
000000f0: 4e2a 2440 b41f 913e 3a05 5540 ed9a ae3f
00000100: 9eec 7e3f bd35 6740 8a72 b53f 5ad5 d43f
00000110: 09c2 9640 b7ee 2140 cde6 df3f 9006 b240
00000120: 4fae 6240 37a9 743f bd46 a640 ec50 6740
00000130: 4e7c 8d3e 768b 8240 8849 2140 cd94 8ebe
00000140: e1d3 1b40 c7da f73e 749a 1040 10e6 9f40
00000150: 0e21 9240 f183 6b3f 35a8 ba40 6ea2 2040
00000160: ae9b 1240 c87d d040 f6ed d140 85cf 263f
00000170: 4e9c f2bf 9d1c e040 e5b9 363f 8062 46c0
00000180: 38f8 0441 af07 633f e8f6 4ec0 226b 1241
00000190: 4f75 703f 9293 09c0 e343 0a41 187a 5c3f
000001a0: e3a8 68bf 9146 eb40 37e0 433f cfbf 41bf
000001b0: 964e ae40 47ca 063f 1cec cfbf c255 0a41
000001c0: d123 5a3f 0314 8bc0 8032 1341 da91 563f
000001d0: 8c11 893b afb2 2341 6c79 893f e258 17c0
000001e0: ff09 943f ce0c 9a40 be88 863f ce52 e83f
000001f0: 1134 8440 3a91 0340 e640 2b40 f9e5 9640
00000200: ff59 2d40 2506 4540 c79f c240 7713 1840
00000210: 25cc 1540 e9b5 d540 0c20 bc3f 6f9b b73f
00000220: 733c c040 9e09 2d3f 494a a23e 8fe3 8840
00000230: 126c 043f 3203 5240 0f8c 8440 9659 5940
00000240: 79e7 2240 02f2 f840 0d35 8a3f 4bb0 7840
00000250: 6a12 d440 2993 3c40 840f 0a40 edf5 7740
00000260: 4c18 a93f c619 d33f 1a1a 3b40 e602 0540
00000270: c685 b73f 9814 5640 247c 5940 d506 e93f
00000280: 0ce7 9240 95bb 7540 10ae 1640 04e4 af40
00000290: 984d 3b40 3013 2040 7ec8 a640 8ae6 d13f
000002a0: 0229 0e40 0743 6840 7ba3 663e 17bb 893f
000002b0: 3142 2240 4e7b 8240 2899 2640 b262 d140
000002c0: a302 4940 abb2 d93f e4f4 9b40 3d49 9a40
000002d0: 67f1 8340 a645 82c0 8b8b 1c40 6858 4040
000002e0: 670c 6fc0 f8c1 e73f ae83 2840 650e 92c0
000002f0: 0a69 6d3f a113 4e40 05ed b7c0 f489 0c3f
00000300: ffae 8e40 f87e c0c0 21b0 a63f fae2 9a40
00000310: c696 a5c0 a86d 0c40 9545 9040 412e 5ac0
00000320: 30ba 4e40 7a8d c93f 11d7 88c0 dba4 ba3e
00000330: fb4a a240 261c dec0 1ff7 833f 7f4e 3940
00000340: 9091 cdc0 1498 4ebe 0940 8e40 0c78 b93e
00000350: fa27 0cbf 107a 5b40 c7ba b83e 7a36 bb3e
00000360: 4fb0 6c40 6762 423f b611 c73f ca87 a040
00000370: f436 a23f 8bc2 f63f 7444 c040 3bfd 9e3f
00000380: 7367 6e3f 4b56 b640 910c 593f 6002 9fbe
00000390: 5859 8640 3483 f8ba dba3 c3bf ca89 3740
000003a0: da59 443f e59c 1840 5b88 e140 e0d5 c23f
000003b0: 3f90 823f 3eeb a940 431d d23f fa42 3d40
000003c0: 7330 1840 f9c0 a6be 78d0 3540 98a5 0440
000003d0: 5551 babf 3194 1140 683f 2940 7522 21c0
000003e0: 26e2 3540 fd16 6440 3465 1cc0 efca 7740
000003f0: d7a5 6c40 8aac 87bf cbf4 8b40 512d 4a40

qA f4 [192, 1]
-0.6905193 0.7749623 -0.6316189 -0.561179 0.20690519 -0.17879868 0.3502882 0.16304219
0.20517042 0.098459065 0.15503517 0.10825348 -0.66929835 0.7664748 -0.5846012 -0.5771851
0.22857973 -0.17234111 0.35206237 0.11811185 0.2156195 0.09066045 0.14548188 0.08643556
-0.68274 0.7797849 -0.58017564 -0.61810756 0.1902413 -0.19631302 0.3643627 0.18688962
0.18509844 0.10896143 0.15648127 0.10551673 -0.65090454 0.7611738 -0.66407025 -0.5861356
0.22134063 -0.14838427 0.34871322 0.13782546 0.21177778 0.10230297 0.14524159 0.12111935
-0.6779433 0.76619375 -0.6217721 -0.59337264 0.21630037 -0.19711238 0.35941646 0.15059271
0.2148982 0.10799259 0.16862717 0.10617903 -0.69277877 0.7798345 -0.59154993 -0.6228668
0.21661925 -0.17808658 0.34713495 0.18503201 0.21409613 0.101331145 0.13944519 0.10178864
-0.70689875 0.82093 -0.57113534 -0.59833497 0.19759107 -0.17199701 0.33843005 0.16488594
0.19562653 0.103854656 0.14864326 0.078404605 -0.68762195 0.808447 -0.60511243 -0.6396917
0.18703443 -0.18300867 0.35497943 0.1838887 0.1973106 0.09343535 0.14845765 0.14188156
-0.66318613 0.7852404 -0.6247751 -0.5989123 0.22444314 -0.21200895 0.34728134 0.1241509
0.21797079 0.11796448 0.16274366 0.11908746 -0.66798604 0.7978417 -0.6367322 -0.57661295
0.2243281 -0.2135402 0.34070006 0.14119259 0.19636697 0.11898106 0.15719885 0.11826214
-0.6941941 0.8044035 -0.6200228 -0.59717524 0.19217494 -0.20492005 0.3524896 0.19428551
0.19160095 0.11022979 0.16214904 0.108977824 -0.67090887 0.7806591 -0.6287882 -0.5964435
0.1885683 -0.19954562 0.3598612 0.18078792 0.20323747 0.1041356 0.15323418 0.12520215
-0.679398 0.7785342 -0.6351587 -0.57057804 0.22194952 -0.22054839 0.33330536 0.18561095
0.17650709 0.12914261 0.1516014 0.12903237 -0.69264287 0.775969 -0.5621161 -0.65100914
0.19566214 -0.18016607 0.36880568 0.16520685 0.2105749 0.101617634 0.16105866 0.107039034
-0.7156121 0.8169055 -0.5509154 -0.68258363 0.20345041 -0.19028103 0.37049708 0.1737333
0.19903207 0.1286624 0.1413584 0.1057536 -0.69135743 0.7892662 -0.59657186 -0.6110833
0.22217491 -0.20878482 0.35788214 0.18224022 0.17638096 0.11684725 0.14584118 0.11716455
00000000: dfc5 30bf ee63 463f c7b1 21bf 6da9 0fbf
00000010: f4de 533e 0017 37be fa58 b33e 88f4 263e
00000020: 3218 523e e8a4 c93d 8ac1 1e3e 00b4 dd3d
00000030: 2357 2bbf b137 443f 6da8 15bf 67c2 13bf
00000040: ce10 6a3e 307a 30be 8541 b43e a0e4 f13d
00000050: 5ccb 5c3e 30ac b93d 34f9 143e 2005 b13d
00000060: 0cc8 2ebf fc9f 473f 6486 14bf 4c3c 1ebf
00000070: 9ece 423e 4806 49be bf8d ba3e fe5f 3f3e
00000080: 728a 3d3e 2c27 df3d a03c 203e 2819 d83d
00000090: aea1 26bf 49dc 423f 8200 2abf fc0c 16bf
000000a0: 1ea7 623e 0cf2 17be 8a8a b23e 1e22 0d3e
000000b0: 46dc 583e 3884 d13d 36ba 143e 6c0d f83d
000000c0: b18d 2dbf 4625 443f 752c 1fbf 45e7 17bf
000000d0: d87d 5d3e d4d7 49be 6f05 b83e fa34 1a3e
000000e0: 460e 5c3e 382b dd3d 9aac 2c3e 6474 d93d
000000f0: f359 31bf 3ca3 473f d16f 17bf 3374 1fbf
00000100: 70d1 5d3e 545c 36be acbb b13e 0879 3d3e
00000110: 043c 5b3e b486 cf3d b8ca 0e3e 9076 d03d
00000120: 51f7 34bf 7828 523f ed35 12bf 7b2c 19bf
00000130: 5055 4a3e fc1f 30be b446 ad3e dcd7 283e
00000140: 5252 483e c0b1 d43d f035 183e 9892 a03d
00000150: fe07 30bf 62f6 4e3f a6e8 1abf d6c2 23bf
00000160: f485 3f3e a066 3bbe ddbf b53e 524d 3c3e
00000170: ca0b 4a3e 085b bf3d 4805 183e 6649 113e
00000180: 91c6 29bf 8405 493f 43f1 1fbf 5152 19bf
00000190: 6cd4 653e e018 59be dcce b13e d442 fe3d
000001a0: bc33 5f3e 5c97 f13d 46a6 263e 20e4 f33d
000001b0: 2201 2bbf 5b3f 4c3f e200 23bf e89c 13bf
000001c0: 44b6 653e 48aa 5abe 3d70 ae3e ca94 103e
000001d0: 6c14 493e 58ac f33d bcf8 203e 6c33 f23d
000001e0: b4b6 31bf 63ed 4d3f d0b9 1ebf 7ae0 18bf
000001f0: 82c9 443e 90d6 51be 8479 b43e c8f2 463e
00000200: 0a33 443e 28c0 e13d 660a 263e c42f df3d
00000210: afc0 2bbf 46d9 473f 43f8 20bf 85b0 18bf
00000220: 0c18 413e b055 4cbe ba3f b83e 7820 393e
00000230: 7c1d 503e 0c45 d53d 6ce9 1c3e fe34 003e
00000240: 07ed 2dbf 044e 473f c399 22bf 6711 12bf
00000250: bc46 633e 70d7 61be 00a7 aa3e cc10 3e3e
00000260: 46be 343e f63d 043e 663d 1b3e 1021 043e
00000270: 0b51 31bf e8a5 463f d7e6 0fbf 89a8 26bf
00000280: a85b 483e 747d 38be 19d4 bc3e fc2b 293e
00000290: f2a0 573e e81c d03d 90ec 243e 4837 db3d
000002a0: 5b32 37bf b820 513f cb08 0dbf cdbd 2ebf
000002b0: 4e55 503e 08d9 42be cbb1 bd3e 24e7 313e
000002c0: 10cf 4b3e 14c0 033e 42c0 103e 5895 d83d
000002d0: cdfc 30bf 5a0d 4a3f efb8 18bf f56f 1cbf
000002e0: d281 633e b0cb 55be 543c b73e 2e9d 3a3e
000002f0: 369d 343e 9c4d ef3d 6457 153e f8f3 ef3d

muA f4 [192, 3]
-0.009713441 -0.0030301213 0.008270323 -0.005489737 0.048113406 -0.020507902 -0.048748612 0.062903255
0.0026492476 0.032319248 0.11265814 -0.08976197 -0.000826478 0.0205158 0.04033445 -0.04908058
-0.10859686 0.11150624 0.018310279 -0.026645988 -0.00070258975 0.03178042 -0.036738366 0.0005648434
-0.041662306 -0.010556072 -0.013012439 -0.0020745993 -0.021320462 -0.056854963 -0.042749077 0.031145781
0.014317751 0.052719414 0.020150602 0.020525217 -0.016153157 0.0067647994 0.026910007 -0.0011236668
0.04525608 -0.023424298 -0.04554552 0.060025126 0.0018694699 0.03443706 0.12704588 -0.09999892
-0.0017434359 0.01657787 0.041737497 -0.03895825 -0.1206031 0.095696464 0.01802969 -0.024499029
0.0030710697 0.039203286 -0.04736066 -0.005079776 -0.04042396 -0.011407673 -0.015466094 -0.0010040998
-0.0273785 -0.053299874 -0.04332134 0.03835064 0.0137651265 0.050724044 0.018609554 0.022709668
0.00051009655 -0.031165063 0.023253918 0.0069552064 0.054332778 -0.033970237 -0.05310434 0.077626884
-0.007298082 0.034200877 0.106194645 -0.0881394 -0.0030058622 0.020487458 0.03915426 -0.04520586
-0.12226552 0.10636601 0.020421296 -0.029232144 0.0011276305 0.022616148 -0.029820353 -0.0004015267
-0.040338725 -0.0077296495 -0.013021082 -0.005450666 -0.023882598 -0.054175794 -0.040990025 0.042481825
0.0092226565 0.053758875 0.021858245 0.019776464 -0.029254109 0.028827488 0.0064970553 -0.008943915
0.045189768 -0.016894639 -0.05504349 0.06232822 0.005973369 0.04135391 0.11959928 -0.10029359
0.00066548586 0.014615446 0.03868361 -0.025381833 -0.11062132 0.0959107 0.017884493 -0.029181302
0.0017816126 0.028890342 -0.03401065 0.0044999123 -0.03715399 -0.015116185 -0.012515128 -0.009478927
-0.02857706 -0.04875219 -0.044513345 0.023515284 0.021369189 0.04496722 0.014880508 0.028684169
-0.01812762 0.0031014383 0.017297626 -0.002915591 0.047309235 -0.025563747 -0.04971978 0.062227756
0.00060382485 0.037340194 0.112740695 -0.08726643 -0.0010713935 0.019426644 0.04109989 -0.049798697
-0.107957095 0.093790025 0.02112937 -0.026512772 0.0012316704 0.030601293 -0.03317514 -0.0011501908
-0.03855303 -0.01396966 -0.014901221 0.0015447438 -0.032679856 -0.050427318 -0.043555588 0.040069997
0.011348158 0.057239085 0.015646666 0.018421412 -0.006289214 -0.01530543 0.015146077 0.0051865876
0.05179888 -0.03194195 -0.026282012 0.061529934 -0.015671045 0.026980877 0.13210773 -0.098265395
-0.001149714 0.019272327 0.037270933 -0.05146432 -0.13023755 0.11401184 0.019975156 -0.028345942
0.00019618869 0.027697891 -0.03124997 -0.00088873506 -0.039024293 -0.008976191 -0.011956811 0.000106573105
-0.026091605 -0.054926604 -0.047330707 0.03930235 0.015498072 0.052381396 0.011043608 0.02488634
0.0029421449 -0.004859239 0.005863726 0.002433598 0.04576537 -0.026918083 -0.05476342 0.06255612
-0.001291275 0.028762162 0.12222634 -0.099730015 -0.004128009 0.01674822 0.041897684 -0.05076626
-0.1380547 0.10622974 0.01693204 -0.03000158 0.0044594407 0.027710825 -0.035628825 -0.0018719733
-0.039770633 -0.014156818 -0.008963227 0.0026545525 -0.025337338 -0.05503583 -0.043483615 0.042234957
0.015341103 0.050404802 0.019252837 0.023448914 0.00874728 -0.017531842 0.0064629912 0.002318561
00000000: 2025 1fbc 0095 46bb 4080 073c 40e3 b3bb
00000010: 9012 453d 3000 a8bc a0ac 47bd 6cd3 803d
00000020: 009f 2d3b 3061 043d 50b9 e63d 20d5 b7bd
00000030: 00a8 58ba c010 a83c bc35 253d b808 49bd
00000040: 0868 debd 625d e43d 70ff 953c b048 dabc
00000050: 002e 38ba 302c 023d f87a 16bd 0012 143a
00000060: 18a6 2abd 60f3 2cbc 2032 55bc 00f6 07bb
00000070: 40a8 aebc c0e0 68bd a819 2fbd 7025 ff3c
00000080: 0095 6a3c 50f0 573d e012 a53c 8024 a83c
00000090: a053 84bc 40ab dd3b 6072 dc3c 0048 93ba
000000a0: 705e 393d 50e4 bfbc f08d 3abd e8dc 753d
000000b0: 0009 f53a e00d 0d3d 5118 023e 3ccc ccbd
000000c0: 0084 e4ba 50ce 873c f0f4 2a3d b092 1fbd
000000d0: c2fe f6bd 82fc c33d 00b3 933c 30b2 c8bc
000000e0: 0044 493b a093 203d 40fd 41bd 4074 a6bb
000000f0: 9893 25bd 40e7 3abc 8065 7dbc 009c 83ba
00000100: e048 e0bc f850 5abd b871 31bd 9015 1d3d
00000110: 2087 613c 04c4 4f3d 1073 983c a009 ba3c
00000120: 00b8 053a e04d ffbc 007f be3c 80e8 e33b
00000130: 0c8c 5e3d 6024 0bbd f083 59bd d8fa 9e3d
00000140: c024 efbb 3816 0c3d 947c d93d 6e82 b4bd
00000150: 00fe 44bb 50d5 a73c 3860 203d c829 39bd
00000160: 5866 fabd 6cd6 d93d 904a a73c 4078 efbc
00000170: 00cd 933a 8045 b93c d049 f4bc 0084 d2b9
00000180: 383a 25bd 0049 fdbb 6056 55bc 809b b2bb
00000190: 70a5 c3bc 70e7 5dbd 28e5 27bd 6c01 2e3d
000001a0: a01a 173c 4432 5c3d 1010 b33c 4002 a23c
000001b0: 50a6 efbc a027 ec3c 40e5 d43b 8089 12bc
000001c0: e818 393d a066 8abc 4875 61bd e04b 7f3d
000001d0: 40bc c33b b862 293d 78f0 f43d ba66 cdbd
000001e0: 0074 2e3a a075 6f3c b472 1e3d 90ed cfbc
000001f0: 6e8d e2bd d46c c43d 8082 923c a00d efbc
00000200: 0085 e93a 70ab ec3c c04e 0bbd 0074 933b
00000210: c82e 18bd e0a9 77bc 400c 4dbc 804d 1bbc
00000220: 701a eabc 60b0 47bd a053 36bd 20a3 c03c
00000230: 700e af3c 8c2f 383d 60cd 733c 10fb ea3c
00000240: 6080 94bc 8041 4b3b c0b3 8d3c 8013 3fbb
00000250: 54c7 413d 106b d1bc f8a6 4bbd 88e2 7e3d
00000260: 004a 1e3a 08f2 183d 98e4 e63d beb8 b2bd
00000270: 006e 8cba a024 9f3c 5c58 283d b8f9 4bbd
00000280: 9c18 ddbd fc14 c03d 8017 ad3c 5031 d9bc
00000290: 0070 a13a 90af fa3c a8e2 07bd 00c2 96ba
000002a0: c8e9 1dbd 00e1 64bc 4024 74bc 0079 ca3a
000002b0: 50db 05bd e08c 4ebd 5867 32bd 7020 243d
000002c0: a0ed 393c 8873 6a3d 702d 803c 80e8 963c
000002d0: c015 cebb a0c3 7abc 4027 783c 40f4 a93b
000002e0: 102b 543d 90d5 02bd 604d d7bc d006 7c3d
000002f0: 9060 80bc 0007 dd3c 4047 073e 5e3f c9bd
00000300: 00b2 96ba 00e1 9d3c 68a9 183d 40cc 52bd
00000310: fe5c 05be 0a7f e93d f0a2 a33c c035 e8bc
00000320: 00b8 4d39 b0e6 e23c f0ff ffbc 00fa 68ba
00000330: f0d7 1fbd e010 13bc 80e6 43bc 0080 df38
00000340: 10be d5bc b8fa 60bd d8dd 41bd 80fb 203d
00000350: a0eb 7d3c e08d 563d 40f0 343c 70de cb3c
00000360: 00d1 403b 403a 9fbb 8024 c03b 007d 1f3b
00000370: 7874 3b3d 5083 dcbc 9c4f 60bd 6c1d 803d
00000380: 0040 a9ba a09e eb3c ce51 fa3d 403f ccbd
00000390: 4044 87bb 9033 893c e89c 2b3d 48f0 4fbd
000003a0: 365e 0dbe fa8e d93d 10b5 8a3c e0c5 f5bc
000003b0: 8020 923b d001 e33c 88ef 11bd 005d f5ba
000003c0: 88e6 22bd 00f2 67bc 80da 12bc 00f8 2d3b
000003d0: 4090 cfbc 406d 61bd e01b 32bd 90fe 2c3d
000003e0: 4059 7b3c 4475 4e3d 20b8 9d3c f017 c03c
000003f0: c050 0f3c f09e 8fbc 80c7 d33b 00f3 173b

quadA f4 [192, 3, 3]
0.0020632744 0.0006634295 0.031847686 0.0006634295 -0.008252203 0.033284694 0.031847686 0.033284694
0.006188929 -0.029310599 0.06816788 0.09379676 0.06816788 -0.029510632 0.06356457 0.09379676
0.06356457 0.05882126 -0.008878373 0.010556415 0.06445381 0.010556415 -0.01073689 0.051811323
0.06445381 0.051811323 0.019615255 -0.01122494 -0.023178712 0.03969255 -0.023178712 0.026273906
0.03632979 0.03969255 0.03632979 -0.015048966 0.001453335 0.0016502887 0.0009345412 0.0016502887
0.0046667554 -0.002853781 0.0009345412 -0.002853781 -0.006120091 -0.013931707 0.021472946 -0.001168862
0.021472946 -0.0020282716 -0.020372868 -0.001168862 -0.020372868 0.015959978 0.004391636 0.0011988431
-0.010228291 0.0011988431 -0.0040938454 -0.0032519847 -0.010228291 -0.0032519847 -0.00029778946 -0.0030537448
0.010553971 -0.0018001795 0.010553971 -0.003393372 -0.0040845275 -0.0018001795 -0.0040845275 0.0064471164
-0.007087042 -0.004072964 -0.0004695803 -0.004072964 0.0021504262 -0.0026476085 -0.0004695803 -0.0026476085
0.0049366155 -0.003045281 0.0075077564 -0.0016020238 0.0075077564 0.00943158 -0.010174736 -0.0016020238
-0.010174736 -0.0063863 -0.008134872 0.0059601665 -0.00021228194 0.0059601665 0.0035765618 -0.009725362
-0.00021228194 -0.009725362 0.00455831 -0.009297748 0.0033388883 -0.0035720766 0.0033388883 0.0011229469
-0.010914132 -0.0035720766 -0.010914132 0.008174802 0.020415645 0.008719891 0.01680012 0.008719891
-0.020767052 0.034335688 0.01680012 0.034335688 0.00035141036 -0.0017057061 0.06875056 0.071742564
0.06875056 -0.055640727 0.068143636 0.071742564 0.068143636 0.057346433 0.00714691 0.023508549
0.058784604 0.023508549 -0.027833357 0.056785718 0.058784604 0.056785718 0.020686448 0.013872992
-0.023378983 0.03330177 -0.023378983 -0.003992159 0.03726375 0.03330177 0.03726375 -0.00988083
0.0011921376 0.0008573234 0.00075642765 0.0008573234 0.0028021485 -0.00069873035 0.00075642765 -0.00069873035
-0.003994286 -0.0024934616 0.0064746886 0.016560897 0.0064746886 -0.0036176946 0.009826049 0.016560897
0.009826049 0.0061111543 0.0067578056 -0.0025431067 -0.008218393 -0.0025431067 -0.005209153 0.0015664846
-0.008218393 0.0015664846 -0.001548653 -0.00471815 0.011520669 0.00118424 0.011520669 -0.0013899307
-0.0055074245 0.00118424 -0.0055074245 0.00610808 -0.00408792 -0.003006637 -0.0003312379 -0.003006637
0.0015654017 -0.0016212463 -0.0003312379 -0.0016212463 0.0025225182 -0.0015538284 0.0076283664 -0.00075493753
0.0076283664 0.013221314 -0.012334943 -0.00075493753 -0.012334943 -0.011667484 -0.008112907 0.0068591386
-0.0010348111 0.0068591386 0.005758241 -0.010539845 -0.0010348111 -0.010539845 0.0023546666 -0.015333608
-0.002770692 -0.002053827 -0.002770692 0.0053508133 -0.011640862 -0.002053827 -0.011640862 0.0099827945
0.010539528 -0.009457618 0.024137795 -0.009457618 -0.007025663 0.031462222 0.024137795 0.031462222
-0.0035138614 -0.006454885 0.086289465 0.08336535 0.086289465 -0.06639819 0.078468785 0.08336535
0.078468785 0.07285307 -0.0022287145 0.044825748 0.047131255 0.044825748 -0.03536562 0.047644734
0.047131255 0.047644734 0.037594326 -0.010642573 -0.0029823184 0.020855948 -0.0029823184 0.014766231
0.012122959 0.020855948 0.012122959 -0.004123658 0.00093381107 0.0013860166 0.00043556094 0.0013860166
00000000: 0038 073b 00ea 2d3a b872 023d 00ea 2d3a
00000010: 4034 07bc 8855 083d b872 023d 8855 083d
00000020: 80cc ca3b c81c f0bc 9a9b 8b3d 8418 c03d
00000030: 9a9b 8b3d 48c0 f1bc 242e 823d 8418 c03d
00000040: 242e 823d 90ee 703d 9876 11bc d0f4 2c3c
00000050: 5c00 843d d0f4 2c3c c8e9 2fbc 1c38 543d
00000060: 5c00 843d 1c38 543d 2cb0 a03c d0e8 37bc
00000070: 48e1 bdbc a894 223d 48e1 bdbc 603c d73c
00000080: 8cce 143d a894 223d 8cce 143d f08f 76bc
00000090: d57d be3a 804e d83a 00fc 743a 804e d83a
000000a0: 95eb 983b 8006 3bbb 00fc 743a 8006 3bbb
000000b0: 0b8b c8bb d041 64bc 08e8 af3c 8034 99ba
000000c0: 08e8 af3c c0ec 04bb 00e5 a6bc 8034 99ba
000000d0: 00e5 a6bc 80be 823c b6e7 8f3b 8022 9d3a
000000e0: 9094 27bc 8022 9d3a aa25 86bb 401f 55bb
000000f0: 9094 27bc 401f 55bb a020 9cb9 5621 48bb
00000100: 90ea 2c3c 00f4 ebba 90ea 2c3c 5663 5ebb
00000110: 80d7 85bb 00f4 ebba 80d7 85bb 5542 d33b
00000120: 6b3a e8bb 8076 85bb 0032 f6b9 8076 85bb
00000130: 2aee 0c3b 8083 2dbb 0032 f6b9 8083 2dbb
00000140: 55c3 a13b 5693 47bb a003 f63b 00fb d1ba
00000150: a003 f63b ea86 1a3c f0b3 26bc 00fb d1ba
00000160: f0b3 26bc 2b44 d1bb 2048 05bc 804d c33b
00000170: 0098 5eb9 804d c33b c064 6a3b 2057 1fbc
00000180: 0098 5eb9 2057 1fbc e05d 953b 9555 18bc
00000190: 40d1 5a3b 8019 6abb 40d1 5a3b d82f 933a
000001a0: 30d1 32bc 8019 6abb 30d1 32bc 9bef 053c
000001b0: b63e a73c e0dd 0e3c 68a0 893c e0dd 0e3c
000001c0: aa1f aabc 94a3 0c3d 68a0 893c 94a3 0c3d
000001d0: 803d b839 0092 dfba 18cd 8c3d c4ed 923d
000001e0: 18cd 8c3d 88e7 63bd e48e 8b3d c4ed 923d
000001f0: e48e 8b3d 18e4 6a3d a030 ea3b 0095 c03c
00000200: 20c8 703d 0095 c03c c802 e4bc 2498 683d
00000210: 20c8 703d 2498 683d a076 a93c 8c4b 633c
00000220: 4885 bfbc 7067 083d 4885 bfbc a8d0 82bb
00000230: e0a1 183d 7067 083d e0a1 183d 34e3 21bc
00000240: 8041 9c3a 00be 603a 004b 463a 00be 603a
00000250: 40a4 373b 002b 37ba 004b 463a 002b 37ba
00000260: 80e2 82bb 5869 23bb a029 d43b b8aa 873c
00000270: a029 d43b d816 6dbb 70fd 203c b8aa 873c
00000280: 70fd 203c 1440 c83b 9570 dd3b 40aa 26bb
00000290: 70a6 06bc 40aa 26bb 8bb1 aabb 8052 cd3a
000002a0: 70a6 06bc 8052 cd3a 2cfc caba b69a 9abb
000002b0: 30c1 3c3c 8038 9b3a 30c1 3c3c 562e b6ba
000002c0: a077 b4bb 8038 9b3a a077 b4bb 4a26 c83b
000002d0: f5f3 85bb 000b 45bb 00aa adb9 000b 45bb
000002e0: 2a2e cd3a 0080 d4ba 00aa adb9 0080 d4ba
000002f0: d550 253b d4a9 cbba 60f7 f93b 00e7 45ba
00000300: 60f7 f93b 369e 583c 8018 4abc 00e7 45ba
00000310: 8018 4abc fa28 3fbc 00ec 04bc a0c2 e03b
00000320: 80a2 87ba a0c2 e03b a0af bc3b 50af 2cbc
00000330: 80a2 87ba 50af 2cbc c050 1a3b d039 7bbc
00000340: 8094 35bb 8099 06bb 8094 35bb e055 af3b
00000350: 50b9 3ebc 8099 06bb 50b9 3ebc e08e 233c
00000360: fcad 2c3c 20f4 1abc a0bc c53c 20f4 1abc
00000370: 8837 e6bb 88de 003d a0bc c53c 88de 003d
00000380: d048 66bb 8083 d3bb 88b8 b03d 74bb aa3d
00000390: 88b8 b03d c6fb 87bd 3eb4 a03d 74bb aa3d
000003a0: 3eb4 a03d fe33 953d a00f 12bb 349b 373d
000003b0: b40c 413d 349b 373d 8adb 10bd 2027 433d
000003c0: b40c 413d 2027 433d 82fc 193d 305e 2ebc
000003d0: 0073 43bb 18da aa3c 0073 43bb 10ee 713c
000003e0: 609f 463c 18da aa3c 609f 463c c01f 87bb
000003f0: 00cb 743a 00ab b53a 005c e439 00ab b53a

hfvrA f4 [192, 1]
1.2548162 0.5958636 1.196625 1.1416054 0.29782486 0.97354877 0.17697114 0.36182594
0.3015511 0.41309404 0.29844707 0.35391724 1.2250273 0.6043687 1.1647416 1.1464722
0.25909114 1.0017155 0.17060006 0.4398508 0.27515936 0.4170329 0.3553849 0.4126315
1.2005223 0.59888774 1.1383659 1.1861181 0.28796524 0.98146665 0.17263639 0.2527191
0.290536 0.3470863 0.3325566 0.35666978 1.2019085 0.61018884 1.2160643 1.1902115
0.2624516 0.94619465 0.19275606 0.3951525 0.29069388 0.38223928 0.3137316 0.30331218
1.2289683 0.6019563 1.1920749 1.1657621 0.27783138 0.98588014 0.15703905 0.36292666
0.28247392 0.35925746 0.30923772 0.36274242 1.1888344 0.597542 1.1713489 1.2225991
0.2713321 1.0101892 0.20648766 0.3166722 0.2841156 0.39783126 0.40300423 0.38720423
1.2463187 0.57618856 1.123619 1.1938795 0.31774914 1.0009115 0.22266126 0.3376493
0.31377375 0.36324465 0.3865056 0.4257847 1.2323471 0.58002263 1.1637403 1.2221416
0.32518888 0.951508 0.2006976 0.29347038 0.29145485 0.40693545 0.3281271 0.23735124
1.2080936 0.5907774 1.1956804 1.1929797 0.25665802 1.0143558 0.20526433 0.43305516
0.27236092 0.34398514 0.34343255 0.3467734 1.2050896 0.586714 1.190936 1.1835847
0.24355197 1.0142164 0.24433154 0.3775037 0.30847538 0.34419513 0.3510328 0.3486427
1.2508126 0.5866089 1.1861168 1.1884978 0.32786125 1.0102904 0.1920228 0.30223215
0.32798016 0.36481673 0.3225333 0.36851364 1.176578 0.5938827 1.19309 1.1750029
0.32544154 0.9898719 0.16995591 0.28538483 0.26008183 0.3908003 0.35117215 0.3097496
1.2424887 0.6008563 1.2032169 1.1759286 0.26955795 1.0242751 0.23555368 0.3068083
0.35936272 0.34315312 0.38287973 0.3315193 1.2266783 0.5979583 1.1359268 1.2303528
0.30147284 0.96709675 0.16129726 0.3345499 0.26354432 0.35813177 0.3358963 0.33490717
1.2506442 0.5813265 1.0969956 1.2650146 0.2861734 0.96200776 0.17371404 0.32843047
0.29596454 0.2776482 0.37894565 0.34420633 1.2384201 0.5939478 1.1666605 1.1909364
0.26129246 1.0186305 0.16591328 0.30706936 0.353777 0.36505693 0.36508065 0.35050118
00000000: d19d a03f 848a 183f 022b 993f 2020 923f
00000010: 807c 983e 7e3a 793f ec37 353e 4041 b93e
00000020: e864 9a3e 1081 d33e 0ece 983e a434 b53e
00000030: b2cd 9c3f e8b7 1a3f 4116 953f 9abf 923f
00000040: 98a7 843e 3738 803f c8b1 2e3e 2034 e13e
00000050: b0e1 8c3e 5685 d53e 02f5 b53e 7044 d33e
00000060: b7aa 993f b550 193f f9b5 913f b8d2 973f
00000070: 2e70 933e 6641 7b3f 98c7 303e 6664 813e
00000080: 22c1 943e 4cb5 b13e dc44 aa3e 6c9d b63e
00000090: 23d8 993f 5635 1c3f ffa7 9b3f da58 983f
000000a0: 0e60 863e d039 723f d861 453e 6e51 ca3e
000000b0: d4d5 943e deb4 c33e 6ea1 a03e bc4b 9b3e
000000c0: d54e 9d3f cf19 1a3f e995 983f b137 953f
000000d0: ea3f 8e3e a462 7c3f d8ce 203e 86d1 b93e
000000e0: 6ca0 903e 98f0 b73e 6854 9e3e 60b9 b93e
000000f0: ba2b 983f 83f8 183f c3ee 953f 217e 9c3f
00000100: 0aec 8a3e e14d 813f 8071 533e dc22 a23e
00000110: 9a77 913e 8ab0 cb3e 9256 ce3e a23f c63e
00000120: 5f87 9f3f 1881 133f bfd2 8f3f 0bd1 983f
00000130: 04b0 a23e de1d 803f 5001 643e 5ee0 ac3e
00000140: f4a6 a03e 34fb b93e 10e4 c53e 7400 da3e
00000150: 8dbd 9d3f 5d7c 143f 71f5 943f 236f 9c3f
00000160: 287f a63e 0796 733f ac83 4d3e c041 963e
00000170: 9239 953e d859 d03e 4600 a83e 340c 733e
00000180: d0a2 9a3f 303d 173f 0e0c 993f 8fb3 983f
00000190: ae68 833e 69d6 813f d030 523e 68b9 dd3e
000001a0: e472 8b3e d21e b03e 64d6 af3e 488c b13e
000001b0: 6040 9a3f e432 163f 9770 983f b47f 973f
000001c0: b065 793e d8d1 813f 0c32 7a3e 2a48 c13e
000001d0: 7cf0 9d3e 583a b03e 92ba b33e 4c81 b23e
000001e0: a11a a03f 002c 163f add2 973f b220 983f
000001f0: 6edd a73e 3251 813f a0a1 443e 2cbe 9a3e
00000200: 04ed a73e 42c9 ba3e 1623 a53e d2ad bc3e
00000210: 1c9a 963f b208 183f 2cb7 983f 7f66 963f
00000220: 46a0 a63e 3f68 7d3f ec08 2e3e f61d 923e
00000230: 7229 853e fa16 c83e d6cc b33e 8097 9e3e
00000240: df09 9f3f b8d1 193f 0303 9a3f d484 963f
00000250: 8003 8a3e 721b 833f fc34 713e fa15 9d3e
00000260: 64fe b73e c4b1 af3e d008 c43e e6bc a93e
00000270: cb03 9d3f cc13 193f 0d66 913f 337c 9d3f
00000280: a65a 9a3e a793 773f 1c2b 253e 204a ab3e
00000290: 48ef 863e 0c5d b73e 9afa ab3e f478 ab3e
000002a0: 1c15 a03f d0d1 143f 5a6a 8c3f 00ec a13f
000002b0: 5285 923e 2446 763f 18e2 313e 0a28 a83e
000002c0: aa88 973e e827 8e3e 2a05 c23e d03b b03e
000002d0: 8d84 9e3f f70c 183f 2255 953f 9b70 983f
000002e0: 20c8 853e 7c62 823f 2ce5 293e 3238 9d3e
000002f0: 4222 b53e bee8 ba3e daeb ba3e e474 b33e

vwA f4 [192, 1]
0.5348005 0.46744436 0.40355685 0.448162 0.375834 0.5084784 0.3431693 0.39363465
0.3779682 0.40165272 0.37224415 0.3860678 0.53245896 0.46988973 0.4001959 0.44899666
0.36401737 0.5121733 0.33649695 0.41327393 0.36933067 0.40218827 0.3873295 0.40003926
0.5262148 0.46659008 0.39814562 0.45314315 0.3726167 0.5112297 0.34377745 0.35544276
0.37318152 0.3847781 0.38267168 0.38806903 0.5300629 0.47167146 0.4056299 0.45069063
0.36411995 0.5035795 0.35514793 0.40277085 0.37342894 0.39397365 0.3774028 0.36826977
0.53158575 0.46941215 0.40322644 0.44978118 0.36970267 0.5105947 0.3304491 0.39519042
0.3711825 0.38749075 0.37702978 0.3894039 0.52525246 0.4701107 0.40125337 0.456304
0.36802772 0.51425594 0.3607709 0.38060448 0.37215725 0.39877608 0.39984667 0.3944279
0.5333806 0.46172917 0.3964295 0.45406258 0.38254014 0.5128797 0.3648298 0.38456947
0.3807511 0.38831896 0.3961285 0.40422475 0.5301013 0.4634742 0.400059 0.45660976
0.38621923 0.507055 0.35940534 0.36893883 0.37293127 0.40159678 0.3827821 0.34730515
0.5300766 0.46737555 0.4037516 0.45369875 0.3626094 0.51439106 0.36156583 0.40956137
0.36835086 0.38589653 0.3869699 0.38659102 0.5288572 0.46410024 0.40290946 0.45304322
0.35592356 0.5145875 0.3757501 0.39726958 0.37859988 0.38496652 0.38989633 0.3865383
0.5328953 0.4646037 0.40278572 0.4530809 0.38540798 0.51429987 0.3536897 0.37513003
0.38635236 0.39141157 0.3809442 0.39217395 0.52217454 0.4674932 0.403501 0.4511521
0.38569966 0.5119344 0.34147412 0.3666036 0.36231276 0.39699832 0.38891524 0.37280095
0.533997 0.46812192 0.40417632 0.45250195 0.36780944 0.5159604 0.36881122 0.37504327
0.39946607 0.3851622 0.4005284 0.37973982 0.5305897 0.4689891 0.3982708 0.4564582
0.37634283 0.50839347 0.3386651 0.38338596 0.36487594 0.3876251 0.38435817 0.37867156
0.5328826 0.4610204 0.39384076 0.4588561 0.37216845 0.5087313 0.34550717 0.38104215
0.37590462 0.35934502 0.39483458 0.3850506 0.5323814 0.46778396 0.40085575 0.4526555
0.36439034 0.514822 0.33561403 0.37679216 0.3975113 0.3908267 0.3927595 0.38680932
00000000: b0e8 083f de54 ef3e 019f ce3e 7d75 e53e
00000010: 506d c03e a42b 023f e3b3 af3e 7b8a c93e
00000020: 0c85 c13e 6da5 cd3e c996 be3e aeaa c53e
00000030: 3b4f 083f 6395 f03e 7ae6 cc3e e4e2 e53e
00000040: 7c60 ba3e ca1d 033f 5449 ac3e a498 d33e
00000050: e918 bd3e 9feb cd3e 0d50 c63e f2d1 cc3e
00000060: 03b6 063f e5e4 ee3e bed9 cb3e 6102 e83e
00000070: 9ec7 be3e f3df 023f 9903 b03e 98fc b53e
00000080: a611 bf3e a301 c53e 8bed c33e fcb0 c63e
00000090: 34b2 073f ec7e f13e b9ae cf3e ecc0 e63e
000000a0: ee6d ba3e 96ea 003f f3d5 b53e fb37 ce3e
000000b0: 1432 bf3e eab6 c93e f13a c13e db8d bc3e
000000c0: 0116 083f ca56 f03e b273 ce3e b849 e63e
000000d0: ab49 bd3e 56b6 023f a030 a93e 6656 ca3e
000000e0: a20b be3e 3065 c63e 0c0a c13e f35f c73e
000000f0: f276 063f 5ab2 f03e 1571 cd3e aea0 e93e
00000100: 216e bc3e 47a6 033f f7b6 b83e 97de c23e
00000110: 658b be3e 612c cc3e b4b8 cc3e 74f2 c93e
00000120: a28b 083f c467 ec3e cff8 ca3e e47a e83e
00000130: 4ddc c33e 164c 033f f9ca ba3e 4ae6 c43e
00000140: cff1 c23e bed1 c63e 5bd1 ca3e 8cf6 ce3e
00000150: b8b4 073f 7e4c ed3e 89d4 cc3e c1c8 e93e
00000160: 87be c53e 5bce 013f fa03 b83e 8de5 bc3e
00000170: d9f0 be3e 189e cd3e 04fc c33e fbd1 b13e
00000180: 1ab3 073f d94b ef3e 88b8 ce3e 344b e83e
00000190: f0a7 b93e 22af 033f 281f b93e 07b2 d13e
000001a0: 7c98 bc3e 3b94 c53e eb20 c63e 42ef c53e
000001b0: 2f63 073f 8c9e ed3e 264a ce3e 48f5 e73e
000001c0: 9d3b b63e 02bc 033f 5162 c03e eb66 cb3e
000001d0: d8d7 c13e 551a c53e 7ea0 c73e 59e8 c53e
000001e0: d46b 083f 89e0 ed3e ee39 ce3e 38fa e73e
000001f0: 3254 c53e 28a9 033f d116 b53e 0b11 c03e
00000200: facf c53e 1967 c83e 1e0b c33e 06cb c83e
00000210: 3bad 053f 455b ef3e af97 ce3e 68fd e63e
00000220: 6d7a c53e 220e 033f b2d5 ae3e 78b3 bb3e
00000230: 0f81 b93e 5d43 cb3e e61f c73e c4df be3e
00000240: 07b4 083f adad ef3e 33f0 ce3e 56ae e73e
00000250: 8551 bc3e fb15 043f d3d4 bc3e ac05 c03e
00000260: d186 cc3e fb33 c53e 0f12 cd3e 426d c23e
00000270: bad4 073f 571f f03e 26ea cb3e e4b4 e93e
00000280: 02b0 c03e 1326 023f 8365 ad3e 2a4b c43e
00000290: 05d1 ba3e cc76 c63e 98ca c43e 3de1 c13e
000002a0: fe6a 083f de0a ec3e 7fa5 c93e 30ef ea3e
000002b0: dd8c be3e 373c 023f 51e6 b03e f517 c33e
000002c0: 9276 c03e 12fc b73e c227 ca3e 5a25 c53e
000002d0: 264a 083f 6181 ef3e f73c cd3e 76c2 e73e
000002e0: 5f91 ba3e 60cb 033f 9ad5 ab3e e7ea c03e
000002f0: 9a86 cb3e 701a c83e c617 c93e df0b c63e

alpha_0_A f4 [3072]
11.699381 11.699381 5.2003264 7.2505245 4.49916 11.699381 4.49916 4.49916
4.49916 4.49916 4.49916 4.49916 11.699381 11.699381 5.2003264 7.2505245
4.49916 11.699381 4.49916 4.49916 4.49916 4.49916 4.49916 4.49916
11.699381 11.699381 5.2003264 7.2505245 4.49916 11.699381 4.49916 4.49916
4.49916 4.49916 4.49916 4.49916 11.699381 11.699381 5.2003264 7.2505245
4.49916 11.699381 4.49916 4.49916 4.49916 4.49916 4.49916 4.49916
11.699381 11.699381 5.2003264 7.2505245 4.49916 11.699381 4.49916 4.49916
4.49916 4.49916 4.49916 4.49916 11.699381 11.699381 5.2003264 7.2505245
4.49916 11.699381 4.49916 4.49916 4.49916 4.49916 4.49916 4.49916
11.699381 11.699381 5.2003264 7.2505245 4.49916 11.699381 4.49916 4.49916
4.49916 4.49916 4.49916 4.49916 11.699381 11.699381 5.2003264 7.2505245
4.49916 11.699381 4.49916 4.49916 4.49916 4.49916 4.49916 4.49916
11.699381 11.699381 5.2003264 7.2505245 4.49916 11.699381 4.49916 4.49916
4.49916 4.49916 4.49916 4.49916 11.699381 11.699381 5.2003264 7.2505245
4.49916 11.699381 4.49916 4.49916 4.49916 4.49916 4.49916 4.49916
11.699381 11.699381 5.2003264 7.2505245 4.49916 11.699381 4.49916 4.49916
4.49916 4.49916 4.49916 4.49916 11.699381 11.699381 5.2003264 7.2505245
4.49916 11.699381 4.49916 4.49916 4.49916 4.49916 4.49916 4.49916
11.699381 11.699381 5.2003264 7.2505245 4.49916 11.699381 4.49916 4.49916
4.49916 4.49916 4.49916 4.49916 11.699381 11.699381 5.2003264 7.2505245
4.49916 11.699381 4.49916 4.49916 4.49916 4.49916 4.49916 4.49916
11.699381 11.699381 5.2003264 7.2505245 4.49916 11.699381 4.49916 4.49916
4.49916 4.49916 4.49916 4.49916 11.699381 11.699381 5.2003264 7.2505245
4.49916 11.699381 4.49916 4.49916 4.49916 4.49916 4.49916 4.49916
11.699381 11.699381 5.2003264 7.2505245 4.49916 11.699381 4.49916 4.49916
4.49916 4.49916 4.49916 4.49916 11.699381 11.699381 5.2003264 7.2505245
4.49916 11.699381 4.49916 4.49916 4.49916 4.49916 4.49916 4.49916
11.699381 11.699381 5.2003264 7.2505245 4.49916 11.699381 4.49916 4.49916
4.49916 4.49916 4.49916 4.49916 11.699381 11.699381 5.2003264 7.2505245
4.49916 11.699381 4.49916 4.49916 4.49916 4.49916 4.49916 4.49916
11.699381 11.699381 5.2003264 7.2505245 4.49916 11.699381 4.49916 4.49916
4.49916 4.49916 4.49916 4.49916 11.699381 11.699381 5.2003264 7.2505245
00000000: aa30 3b41 aa30 3b41 1369 a640 4c04 e840
00000010: 1ef9 8f40 aa30 3b41 1ef9 8f40 1ef9 8f40
00000020: 1ef9 8f40 1ef9 8f40 1ef9 8f40 1ef9 8f40
00000030: aa30 3b41 aa30 3b41 1369 a640 4c04 e840
00000040: 1ef9 8f40 aa30 3b41 1ef9 8f40 1ef9 8f40
00000050: 1ef9 8f40 1ef9 8f40 1ef9 8f40 1ef9 8f40
00000060: aa30 3b41 aa30 3b41 1369 a640 4c04 e840
00000070: 1ef9 8f40 aa30 3b41 1ef9 8f40 1ef9 8f40
00000080: 1ef9 8f40 1ef9 8f40 1ef9 8f40 1ef9 8f40
00000090: aa30 3b41 aa30 3b41 1369 a640 4c04 e840
000000a0: 1ef9 8f40 aa30 3b41 1ef9 8f40 1ef9 8f40
000000b0: 1ef9 8f40 1ef9 8f40 1ef9 8f40 1ef9 8f40
000000c0: aa30 3b41 aa30 3b41 1369 a640 4c04 e840
000000d0: 1ef9 8f40 aa30 3b41 1ef9 8f40 1ef9 8f40
000000e0: 1ef9 8f40 1ef9 8f40 1ef9 8f40 1ef9 8f40
000000f0: aa30 3b41 aa30 3b41 1369 a640 4c04 e840
00000100: 1ef9 8f40 aa30 3b41 1ef9 8f40 1ef9 8f40
00000110: 1ef9 8f40 1ef9 8f40 1ef9 8f40 1ef9 8f40
00000120: aa30 3b41 aa30 3b41 1369 a640 4c04 e840
00000130: 1ef9 8f40 aa30 3b41 1ef9 8f40 1ef9 8f40
00000140: 1ef9 8f40 1ef9 8f40 1ef9 8f40 1ef9 8f40
00000150: aa30 3b41 aa30 3b41 1369 a640 4c04 e840
00000160: 1ef9 8f40 aa30 3b41 1ef9 8f40 1ef9 8f40
00000170: 1ef9 8f40 1ef9 8f40 1ef9 8f40 1ef9 8f40
00000180: aa30 3b41 aa30 3b41 1369 a640 4c04 e840
00000190: 1ef9 8f40 aa30 3b41 1ef9 8f40 1ef9 8f40
000001a0: 1ef9 8f40 1ef9 8f40 1ef9 8f40 1ef9 8f40
000001b0: aa30 3b41 aa30 3b41 1369 a640 4c04 e840
000001c0: 1ef9 8f40 aa30 3b41 1ef9 8f40 1ef9 8f40
000001d0: 1ef9 8f40 1ef9 8f40 1ef9 8f40 1ef9 8f40
000001e0: aa30 3b41 aa30 3b41 1369 a640 4c04 e840
000001f0: 1ef9 8f40 aa30 3b41 1ef9 8f40 1ef9 8f40
00000200: 1ef9 8f40 1ef9 8f40 1ef9 8f40 1ef9 8f40
00000210: aa30 3b41 aa30 3b41 1369 a640 4c04 e840
00000220: 1ef9 8f40 aa30 3b41 1ef9 8f40 1ef9 8f40
00000230: 1ef9 8f40 1ef9 8f40 1ef9 8f40 1ef9 8f40
00000240: aa30 3b41 aa30 3b41 1369 a640 4c04 e840
00000250: 1ef9 8f40 aa30 3b41 1ef9 8f40 1ef9 8f40
00000260: 1ef9 8f40 1ef9 8f40 1ef9 8f40 1ef9 8f40
00000270: aa30 3b41 aa30 3b41 1369 a640 4c04 e840
00000280: 1ef9 8f40 aa30 3b41 1ef9 8f40 1ef9 8f40
00000290: 1ef9 8f40 1ef9 8f40 1ef9 8f40 1ef9 8f40
000002a0: aa30 3b41 aa30 3b41 1369 a640 4c04 e840
000002b0: 1ef9 8f40 aa30 3b41 1ef9 8f40 1ef9 8f40
000002c0: 1ef9 8f40 1ef9 8f40 1ef9 8f40 1ef9 8f40
000002d0: aa30 3b41 aa30 3b41 1369 a640 4c04 e840
000002e0: 1ef9 8f40 aa30 3b41 1ef9 8f40 1ef9 8f40
000002f0: 1ef9 8f40 1ef9 8f40 1ef9 8f40 1ef9 8f40
00000300: aa30 3b41 aa30 3b41 1369 a640 4c04 e840
00000310: 1ef9 8f40 aa30 3b41 1ef9 8f40 1ef9 8f40
00000320: 1ef9 8f40 1ef9 8f40 1ef9 8f40 1ef9 8f40
00000330: aa30 3b41 aa30 3b41 1369 a640 4c04 e840
00000340: 1ef9 8f40 aa30 3b41 1ef9 8f40 1ef9 8f40
00000350: 1ef9 8f40 1ef9 8f40 1ef9 8f40 1ef9 8f40
00000360: aa30 3b41 aa30 3b41 1369 a640 4c04 e840
00000370: 1ef9 8f40 aa30 3b41 1ef9 8f40 1ef9 8f40
00000380: 1ef9 8f40 1ef9 8f40 1ef9 8f40 1ef9 8f40
00000390: aa30 3b41 aa30 3b41 1369 a640 4c04 e840
000003a0: 1ef9 8f40 aa30 3b41 1ef9 8f40 1ef9 8f40
000003b0: 1ef9 8f40 1ef9 8f40 1ef9 8f40 1ef9 8f40
000003c0: aa30 3b41 aa30 3b41 1369 a640 4c04 e840
000003d0: 1ef9 8f40 aa30 3b41 1ef9 8f40 1ef9 8f40
000003e0: 1ef9 8f40 1ef9 8f40 1ef9 8f40 1ef9 8f40
000003f0: aa30 3b41 aa30 3b41 1369 a640 4c04 e840
