tests/test_data_path/og_processed/dimer_ap3_train_spec_7_329.pt (torch, 413586 bytes, 17 tensors)

y f4 [16, 4]
000000 d5 9d 48 40 be 48 1e 3b bf 02 23 bf eb 5b a6 be
       3.1346333 0.0024152244 -0.63676065 -0.32492003
000010 94 04 76 40 a7 89 00 3e a1 6d a0 bf e6 fd 66 bf
       3.8440294 0.1255251 -1.2533456 -0.9023117
000020 0b 3d f9 3e c1 9e aa 3e 0c 1c e9 bf 15 58 d7 bf
       0.48679385 0.33324245 -1.8211684 -1.6823756
000030 7f 58 2d c1 71 ff e9 41 24 37 15 c1 ba 4c f8 c0
       -10.8341055 29.249727 -9.325962 -7.759366
000040 56 36 d2 bf fe b0 d1 3c 95 d5 82 bf d8 8f e6 be
       -1.6422832 0.025597092 -1.022143 -0.4503162
000050 5d 64 24 c0 95 b3 74 37 e5 e9 ae be e8 48 4b bd
       -2.5686257 1.45853455e-05 -0.34162822 -0.049630076
000060 58 ae c2 c0 ba f2 77 3f 34 1a 0e c0 28 21 be bf
       -6.083782 0.96854746 -2.2203493 -1.4853868
000070 29 be 4d 40 d5 f1 ec 3d 51 ec da be 0e a0 6a bf
       3.2147315 0.11569563 -0.4275842 -0.91650474
000080 b6 ea 0e 40 93 47 b2 3f e6 87 2a bf 33 69 0a c0
       2.2330756 1.3928093 -0.66613615 -2.1626709
000090 2e 4a b2 be 58 28 05 36 fc 2a 50 be 3b 03 21 bd
       -0.3482222 1.9842028e-06 -0.20328897 -0.03930972
0000a0 11 c3 86 c0 c0 00 09 40 63 1c 9d bf d7 5a c4 bf
       -4.211312 2.1406708 -1.2274288 -1.5340222
0000b0 4c fe d7 bf 77 3a da 38 7d d8 5b be 7a 1a a5 bd
       -1.687448 0.0001040594 -0.21469302 -0.08061691
0000c0 c8 d1 4d 41 80 92 69 40 66 01 99 c0 a4 ee 35 c0
       12.863716 3.6495667 -4.7814207 -2.8426905
0000d0 ee b3 aa 3e 34 a3 0b 3b 52 d2 fb be ff 74 69 be
       0.333404 0.0021306993 -0.491839 -0.22798537
0000e0 0d 1d d3 c0 bf ec 39 40 61 4c 78 c0 0b c9 56 c0
       -6.597296 2.9050748 -3.8796618 -3.3560207
0000f0 da f6 9d bf 9a ea 84 3d f0 38 90 be 55 50 30 bf
       -1.2340958 0.06490059 -0.2816844 -0.68872577

RA f4 [288, 3]
000000 f1 d4 23 3e f3 ad cf 3d 7f 6d ad be 0f 7c 4c bf
       0.159992 0.101406 -0.338726 -0.798768
000010 2f 19 9b bf cd e4 d3 3f 16 6b f6 3f a0 df 33 bf
       -1.211706 1.65542 1.925143 -0.702631
000020 70 b6 eb bf 02 9f a7 be 86 3b 57 3e f1 d6 95 3f
       -1.841505 -0.327385 0.210188 1.170622
000030 79 1e 9c 3f 62 2f 08 bf d3 a3 1d bf 4d 6a be bf
       1.21968 -0.531973 -0.615781 -1.487619
000040 c8 d1 8e 3f 06 67 8a 3f dc 62 d6 be a2 09 5c 3f
       1.115777 1.081269 -0.418723 0.859522
000050 6d fe 8b bf cb 49 cc bf 61 34 cf bf b3 ef 7e 3f
       -1.093702 -1.596002 -1.618786 0.995845
000060 35 b6 d7 3b de e5 fa bf 4e d0 da 3f 5f 99 97 bf
       0.006583 -1.96014 1.709482 -1.184368
000070 f9 49 89 bf 47 1f 29 40 f6 24 fa 3f 5d c2 d7 bf
       -1.07257 2.642534 1.954253 -1.685619
000080 ef 20 12 c0 6d 90 a5 3f 4c a8 00 be 4a 46 23 c0
       -2.28326 1.29347 -0.125642 -2.551165
000090 0c e7 39 40 78 5e 6a be ee 95 e5 bf a7 e9 c3 3e
       2.904727 -0.228876 -1.793638 0.382642
0000a0 c7 a1 22 3f d3 6b ed 3f 99 2e e0 3f 24 0e 81 bf
       0.635281 1.854853 1.751422 -1.008244
0000b0 2e 1b 5d 3e c7 9d a4 bf 79 3e 03 40 95 0b c5 3f
       0.215924 -1.286065 2.050688 1.539416
0000c0 14 40 1c c0 66 bb 36 3f 4a cf ae 3f 1d 1f bf bf
       -2.441411 0.713797 1.365701 -1.493137
0000d0 09 1b ac 3f 87 c3 52 bc 2d 42 31 3e 21 e7 1d 3e
       1.344575 -0.012864 0.173104 0.154202
0000e0 a8 18 97 be a4 8e 5a bf b3 25 9d bf eb 1b d0 3f
       -0.29511 -0.853739 -1.227713 1.625852
0000f0 1d 01 f0 3f ab 3f 26 bf 41 9e f3 bf 58 8c ba be
       1.875034 -0.649409 -1.903267 -0.364352
000100 8b c2 1e 3e 26 35 9a 3f db a2 a8 3f e5 9b 05 bf
       0.155039 1.204747 1.31747 -0.52191
000110 e4 bf 04 bf 89 99 bf bf 15 e1 90 3f 3b fb 88 3f
       -0.518553 -1.496873 1.131869 1.070167
000120 3d 47 04 bf 9c fd 55 3f 66 15 94 bf 13 9d cb bf
       -0.516712 0.835901 -1.156903 -1.590731
000130 39 09 d1 bf a7 3c 7e 3f 7a ab ae 3d c6 dc ef bf
       -1.633094 0.993113 0.085288 -1.873925
000140 53 78 d2 3f 45 da a0 bf 01 c0 93 bf 0c e5 2d 40
       1.644297 -1.256661 -1.154297 2.717105
000150 0c 5a f8 3f 84 f1 d9 bf ac 71 0b c0 3a b0 aa 3f
       1.940248 -1.702683 -2.178813 1.333503
000160 f8 c5 25 bd 83 13 29 c0 f8 6b 3a 40 44 6e 86 be
       -0.040472 -2.641816 2.91284 -0.26256
000170 ae f2 ec bf 8c 85 d1 3e 5b 40 14 3f 31 45 ef 3f
       -1.851156 0.409222 0.579107 1.869299
000180 85 06 de 3f 22 50 7d bf 2a e4 0a 3e bc 92 ac bf
       1.734574 -0.989504 0.135636 -1.348228
000190 a4 39 03 40 a7 04 ca 3f d1 af 19 c0 e1 b6 42 3f
       2.050393 1.578267 -2.401356 0.760603
0001a0 9f e4 a8 3f 46 08 b7 bf 70 42 a1 3f ac 1a 84 bd
       1.319477 -1.42994 1.25984 -0.064504
0001b0 30 13 35 3e 32 cb 1e 3e 5c 39 9b be 44 c1 3c bf
       0.176831 0.155072 -0.303172 -0.737324
0001c0 2c bb 94 bf 11 52 d1 3f 84 81 f1 3f 1d ae 25 bf
       -1.161962 1.635317 1.886765 -0.647188
0001d0 28 49 f1 bf 97 e5 c3 be a8 e0 20 3e 94 85 97 3f
       -1.885045 -0.382611 0.157107 1.183764
0001e0 4f e6 a3 3f 37 00 07 bf 96 93 0c bf ba 9f bb bf
       1.280466 -0.527347 -0.549127 -1.465812
0001f0 fc 01 93 3f ff 58 88 3f a8 72 02 bf fc 52 43 3f
       1.148498 1.065216 -0.509562 0.762985
000200 c9 90 95 bf fb eb c5 bf d9 94 cb bf 56 f4 77 3f
       -1.168481 -1.546264 -1.59048 0.968572
000210 8f fc 41 ba 71 75 fc bf 17 9f da 3f 4d 67 9d bf
       -0.00074 -1.972334 1.70798 -1.229715
000220 dc 63 8f bf 94 30 2b 40 c9 02 fe 3f cb f5 d6 bf
       -1.120235 2.67484 1.98446 -1.679376
000230 94 fb 0f c0 ce 52 9e 3f d4 99 9b bd 13 43 28 c0
       -2.24973 1.236902 -0.075977 -2.629094
000240 f1 49 39 40 3f 53 0f be d5 97 ed bf 7b f5 c9 3e
       2.895138 -0.139966 -1.856196 0.394451
000250 43 8e 11 3f be a1 f0 3f 7e 8e d9 3f f8 fc 78 bf
       0.568577 1.879936 1.699661 -0.97261
000260 1b 4c 33 3e 66 14 ad bf 03 44 01 40 08 e8 c4 3f
       0.175095 -1.352185 2.019776 1.538331
000270 33 35 19 c0 65 ff 38 3f 7f 68 b2 3f 7c b7 c7 bf
       -2.393872 0.722647 1.393814 -1.560287
000280 37 8b a7 3f 4f 94 04 3b 42 07 4d 3e 76 1c 2f 3e
       1.308936 0.002023 0.200223 0.171007
000290 24 5e 86 be ff 07 5c bf 84 0d 9d bf 1b 4a cf 3f
       -0.262437 -0.859497 -1.226975 1.619449
0002a0 c7 d6 ed 3f ab 5e 26 bf 20 f0 ee bf 74 40 ca be
       1.858117 -0.649882 -1.866703 -0.395023
0002b0 e3 88 25 3e cc d2 8e 3f 93 8d a5 3f 77 dc 08 bf
       0.161655 1.115808 1.293383 -0.534614
0002c0 06 81 11 bf 09 8d b8 bf 22 18 8b 3f c5 76 81 3f
       -0.568375 -1.441804 1.086674 1.011437
0002d0 bd c2 06 bf ee 23 5b 3f b5 32 8b bf 88 d9 cb bf
       -0.526409 0.856017 -1.087485 -1.592576
0002e0 5e 85 d0 bf e4 49 80 3f bd c5 03 3d 0b 7e ef bf
       -1.62907 1.002255 0.032171 -1.871034
0002f0 bd a9 dc 3f 40 13 9f bf ac 00 8d bf b4 3c 2b 40
       1.72393 -1.242775 -1.101583 2.67558
000300 6d ab fb 3f 7f 13 d6 bf 7f 50 08 c0 7c 7e a0 3f
       1.966169 -1.67247 -2.129913 1.25386
000310 b1 30 84 bd 0f 26 24 c0 75 06 3e 40 99 f0 3b be
       -0.064546 -2.564823 2.969144 -0.183535
000320 ba 6b eb bf a2 f0 c9 3e 76 6b 15 3f f4 53 e8 3f
       -1.839225 0.394414 0.583671 1.815062
000330 0f 7e e2 3f 07 45 7f bf 0a 86 73 3e f5 2a a8 bf
       1.769472 -0.997147 0.237816 -1.313811
000340 19 ad 00 40 81 d1 c9 3f 33 54 19 c0 e1 46 3a 3f
       2.010565 1.576706 -2.395764 0.727644
000350 fa 7e aa 3f 9b 1e bc bf 30 f6 aa 3f da 39 0d bd
       1.332 -1.469684 1.335638 -0.034479
000360 3b 1a 27 3e 57 42 37 3e 18 ce 9d be 87 17 50 bf
       0.163186 0.178964 -0.308213 -0.812859
000370 40 34 99 bf 5c 75 d3 3f ec db ef 3f e8 12 2e bf
       -1.196907 1.652019 1.873899 -0.679976
000380 4b 1d fa bf e9 b8 c2 be 3b ff 16 3e b8 04 92 3f
       -1.954019 -0.380317 0.147458 1.140769
000390 20 7f ab 3f 88 2d fd be 78 61 13 bf 5e d6 b8 bf
       1.339817 -0.494488 -0.575706 -1.444042
0003a0 b7 08 92 3f 42 95 7e 3f 07 96 fb be c2 51 4a 3f
       1.140891 0.994465 -0.491379 0.79031
0003b0 19 3d 95 bf d7 50 ca bf e3 fc d1 bf 91 63 81 3f
       -1.165927 -1.580592 -1.64053 1.010851
0003c0 66 d8 a8 3c e1 7e f2 bf 16 a6 d9 3f 3a 93 a0 bf
       0.020611 -1.894497 1.700381 -1.254493
0003d0 56 0d 8e bf 4f ae 2a 40 85 08 fa 3f 44 34 d8 bf
       -1.109782 2.666889 1.953385 -1.689095
0003e0 f1 f5 0f c0 a2 b4 a1 3f 0c c8 be bd 1e c0 1f c0
       -2.249386 1.263325 -0.093155 -2.496101
0003f0 82 fd 3c 40 19 70 96 be c1 c4 f5 bf fa d5 bc 3e
       2.952973 -0.293824 -1.920067 0.36882

RB f4 [272, 3]
000000 ac 1c b1 40 69 e5 51 c0 ff 58 3e 40 c0 32 c3 40
       5.53475 -3.279627 2.974182 6.099945
000010 0b 50 90 c0 59 fc 6b 40 71 e4 bb 40 c7 49 57 c0
       -4.509771 3.687277 5.871636 -3.363878
000020 05 a6 b5 3f 36 f3 c2 40 60 1f 02 c0 88 2c 65 40
       1.419129 6.092189 -2.033165 3.580843
000030 4e 44 ab 40 3d 45 84 bf 10 02 85 40 56 f1 c4 40
       5.352088 -1.033363 4.156502 6.15446
000040 8d 0b 87 bc 3e 3d 95 40 82 7d eb 40 bd 51 e3 be
       -0.016485 4.663726 7.359071 -0.443983
000050 bd 55 89 40 bc 83 eb 40 7e 90 d7 bf 6d 20 69 40
       4.291716 7.359831 -1.684097 3.642604
000060 09 5f 8e 40 01 30 51 c0 85 ed 45 40 a9 b3 b9 40
       4.449101 -3.268555 3.092622 5.803181
000070 6d 9b 91 c0 8c a1 98 40 bd b8 e7 40 fe 18 91 c0
       -4.550223 4.76972 7.241301 -4.534301
000080 b4 56 62 40 93 19 b6 40 c9 ca af c0 06 ba 4e 40
       3.536542 5.690622 -5.493504 3.230104
000090 98 b2 ab 40 21 e8 1d c0 d5 3c 73 3f be 96 ab 40
       5.365551 -2.467293 0.950147 5.362151
0000a0 b0 00 88 c0 11 8d 84 3f 01 98 db 40 6b 60 57 c0
       -4.250084 1.035555 6.862305 -3.36526
0000b0 4c 8b a6 3f d5 92 8b 40 84 f5 77 bf af eb 88 40
       1.301126 4.361674 -0.96859 4.27877
0000c0 7e d4 04 41 98 da b2 3d 3c ec 8e 40 bc 85 d5 c0
       8.301878 0.087331 4.466337 -6.672575
0000d0 78 9a 44 c0 9a 95 29 3f a1 f3 db c0 ee 6c 93 c0
       -3.071928 0.662439 -6.87349 -4.607047
0000e0 24 b9 34 3f b2 5b 00 c1 1a 1a 16 c0 cd 58 40 3f
       0.70595 -8.022387 -2.345343 0.751355
0000f0 5c 84 be c0 ae f2 2d c0 a6 b9 0d bf bb aa 98 c0
       -5.953657 -2.717937 -0.553614 -4.770841
000100 3d 60 03 c0 d9 42 20 bf bc 10 8b c0 e8 d9 ec bf
       -2.052749 -0.62602 -4.345793 -1.8504
000110 88 b9 ea bf aa f2 ab c0 76 18 19 c0 7d e8 27 c0
       -1.833787 -5.373372 -2.392118 -2.623565
000120 f4 53 ca c0 b5 c6 36 c0 b8 22 e9 bf 01 07 c3 c0
       -6.322748 -2.855878 -1.821372 -6.094605
000130 4e 0d 35 c0 de 21 c3 3f a5 cc bd c0 b2 0d a3 c0
       -2.828937 1.524471 -5.931231 -5.095422
000140 3d f0 3d 3f 64 91 f0 c0 c0 dc 9e c0 bd e5 5a be
       0.741947 -7.517748 -4.964447 -0.213767
000150 60 ea ec c0 9c a7 9d c0 b2 82 cb 3f a1 f5 fa c0
       -7.40361 -4.92671 1.589926 -7.842484
000160 3b 8e 9f bf 6c 09 5d 3f 9c 21 0a c1 4c a6 26 c0
       -1.246528 0.863425 -8.633205 -2.6039
000170 fd 14 cf 3f ee 53 0a c1 43 e7 24 c0 14 d1 ef bd
       1.617828 -8.645491 -2.576615 -0.117098
000180 e0 2d 85 c0 e6 af da bf 90 87 5e 3e a3 e5 a9 c0
       -4.16185 -1.708493 0.217314 -5.309282
000190 90 16 17 c0 f4 70 69 c0 40 d0 91 40 4f 78 6c 40
       -2.360752 -3.647519 4.556671 3.694843
0001a0 45 bb 4f 40 2c 8e 9a 40 51 5e a0 40 03 7d 7c 40
       3.245805 4.829855 5.011513 3.94513
0001b0 98 21 bd 40 e8 33 3b 40 29 77 3d 40 bf 63 6c 40
       5.910351 2.925043 2.960398 3.693588
0001c0 0b 61 71 40 9d 10 04 40 2b f6 1f 40 88 4c 54 40
       3.771548 2.063514 2.4994 3.317171
0001d0 e2 3f f3 3f 22 19 fc 3f f2 07 63 40 f5 68 36 3f
       1.900387 1.969517 3.54736 0.712539
0001e0 7e c6 39 40 d3 4e 8b 40 76 c6 27 3e d8 e5 81 40
       2.90274 4.353372 0.163843 4.059307
0001f0 f4 fc 91 40 63 b5 79 3f 66 a1 7f 40 51 85 3e 40
       4.562128 0.975424 3.994226 2.976887
000200 0d e1 80 40 95 9a 76 40 5b b0 b0 40 19 d7 89 40
       4.027472 3.853185 5.521528 4.307507
000210 18 33 a9 40 a3 82 b7 40 ae b7 4b 40 f7 03 b0 40
       5.287487 5.734697 3.183086 5.500484
000220 9a 93 9c 40 ee cd 9b 40 20 09 b7 40 71 8f f7 3f
       4.893018 4.868888 5.719864 1.934065
000230 3f 1d 1d 40 81 b2 ce 40 25 5c 33 40 61 70 75 40
       2.45491 6.45929 2.802499 3.834984
000240 e8 33 cd 40 46 0b 65 40 14 26 0a 40 02 0f 02 40
       6.412586 3.578813 2.158574 2.032166
000250 ee e8 26 40 a4 17 1f 40 08 5a 2f 40 ab f7 99 40
       2.607967 2.485818 2.73987 4.811483
000260 5c c7 48 bf e8 14 74 be dd 61 51 40 2b 88 7d c0
       -0.784292 -0.238361 3.271598 -3.961436
000270 2e e4 51 be 1e dc 97 40 ff e8 7a c0 94 4b 17 3f
       -0.204972 4.74562 -3.920471 0.590997
000280 11 6f 2f 40 de cb a8 c0 a4 aa cb bf 2d 43 26 40
       2.741154 -5.274886 -1.591145 2.59785
000290 7f dc 79 c0 8d ed ff bf df c0 ea 3f 62 14 40 c0
       -3.904083 -1.999437 1.834011 -3.001244
0002a0 fc 6d 50 c0 fc de be 3f ce 4f 49 c0 cf d8 62 c0
       -3.256713 1.49118 -3.145496 -3.544483
0002b0 27 dd 03 40 f7 02 84 c0 1a 4e 21 c0 d4 d2 3a 40
       2.060373 -4.125362 -2.520392 2.919118
0002c0 32 63 98 c0 5b 98 f5 3e e9 7f 34 40 bc 3d 4c c0
       -4.762109 0.479678 2.820307 -3.191268
0002d0 ee 7a 35 bf 35 9b a4 40 ee 3e 41 c0 2e 03 4a bf
       -0.708907 5.143946 -3.019466 -0.789111
0002e0 73 30 a4 40 92 c0 95 c0 dc 9d 35 3f 43 55 a6 40
       5.130914 -4.679757 0.70944 5.197908
0002f0 75 3a 80 c0 9e 06 1c 3f 44 6e d2 3f 31 6c aa c0
       -4.007136 0.609476 1.64399 -5.325707
000300 3d f2 bd 3f 24 b5 4d 40 61 19 ad c0 8e 07 9b bd
       1.483955 3.214181 -5.409348 -0.075698
000310 96 5b 47 40 59 ec c6 c0 b8 3c b4 bf e8 82 b4 3f
       3.114965 -6.216351 -1.408103 1.410245
000320 f5 bc 0b c0 d4 63 92 c0 a7 ec 01 40 b1 7d 94 c0
       -2.183408 -4.574686 2.030069 -4.640343
000330 1d 39 1e 40 75 1f 83 40 7e 53 ae 40 90 2f 13 40
       2.472236 4.09759 5.447692 2.299778
000340 61 55 3d 40 49 20 8a 40 cc b3 0b 40 cd 04 66 40
       2.958336 4.316441 2.182849 3.594043
000350 a8 f0 da 40 b0 01 c3 3f 36 3d a8 40 bb 0c a3 40
       6.841877 1.523489 5.257472 5.095304
000360 77 12 fd 3f 46 4f d1 40 0d b8 9a 40 40 31 6e 3f
       1.977126 6.540927 4.834967 0.930439
000370 f8 8d e8 40 00 28 90 40 c2 a1 77 bd f2 c0 d1 40
       7.26733 4.504883 -0.060457 6.554803
000380 62 14 95 40 93 c8 6e 3e 73 02 a6 40 36 3c 9f 40
       4.658738 0.233187 5.187799 4.9761
000390 c3 64 61 40 8f 33 8f 40 d1 9e ac 40 f3 3c 26 40
       3.521775 4.475044 5.394387 2.59747
0003a0 7d b1 58 40 32 59 57 40 ee eb a4 3f 06 4a 28 40
       3.385833 3.364819 1.28845 2.629518
0003b0 db 99 8a 40 5f b8 42 40 41 ba 09 40 eb 27 95 40
       4.331281 3.042503 2.151993 4.661123
0003c0 c6 a7 16 40 94 cc 8b 40 f4 f9 f2 40 95 b8 33 40
       2.35399 4.368723 7.593012 2.808141
0003d0 b7 5e 32 40 27 5e e4 40 eb 52 8f 3f 1a c2 4e 40
       2.787031 7.136493 1.119718 3.230597
0003e0 82 c9 dc 40 e1 28 38 40 2b dc db 40 74 25 99 40
       6.899598 2.877495 6.870626 4.785822
0003f0 ce 70 8f bf 5f 32 da 40 50 61 8f 40 e9 9e 3d 3f
       -1.12063 6.818649 4.480629 0.740706

qA f4 [288, 1]
000000 87 55 27 3f a8 2d fd be 30 a3 2e be 70 f0 15 bd
       0.6536488 -0.49448895 -0.17054439 -0.036606252
000010 0c 10 00 bf d6 93 23 bf 20 64 23 bf 48 6a 3f 3e
       -0.50024486 -0.63897455 -0.63824654 0.18692887
000020 40 33 3e 3e e2 45 40 3e 1e 36 09 3e dc 5d 21 3e
       0.18574238 0.18776658 0.1339955 0.15758461
000030 4a 7d 11 3e f0 25 2c 3e 56 b9 be 3e d8 41 de 3e
       0.1420795 0.16811347 0.37250775 0.4340961
000040 76 0d dd 3e 72 8c d9 3e 7d 34 1a 3f 3e ae 00 bf
       0.43174332 0.42489964 0.6023634 -0.5026587
000050 c4 2f 42 be c0 4d 6d bd 9a 55 09 bf d8 47 27 bf
       -0.18963534 -0.057935476 -0.5364624 -0.65344
000060 64 e8 16 bf ba eb 54 3e f4 96 43 3e f2 74 3a 3e
       -0.5894835 0.20793048 0.19100553 0.18208674
000070 c2 c5 1c 3e fa 72 37 3e 02 e6 11 3e d4 1d 25 3e
       0.15309814 0.17914954 0.14247897 0.1612466
000080 a7 5e c8 3e 97 df dc 3e 6d d7 e0 3e ff 90 e5 3e
       0.39134714 0.43139336 0.43914357 0.44837186
000090 c3 08 1e 3f f6 45 fb be 9c 6d 55 be 40 86 31 bd
       0.6173212 -0.49076813 -0.20842594 -0.04334092
0000a0 15 0e 04 bf 1b 5e 24 bf 71 f0 1b bf 8c 47 3d 3e
       -0.5158399 -0.64206094 -0.6091376 0.18484324
0000b0 08 f7 4d 3e 0e f4 30 3e b0 35 1c 3e 82 8f 34 3e
       0.20113766 0.172806 0.15254855 0.17632869
0000c0 10 04 13 3e 66 1e 19 3e bf c1 c9 3e 00 97 e5 3e
       0.14357018 0.14953002 0.3940563 0.44841766
0000d0 cb d9 df 3e d9 15 dd 3e 90 ac 1d 3f a2 2e f9 be
       0.4372085 0.4318073 0.61591434 -0.4866839
0000e0 ac ee 3a be f0 a1 71 bd fd 4f 00 bf a9 2a 21 bf
       -0.18255109 -0.058992326 -0.5012205 -0.6295572
0000f0 15 cc 24 bf 58 28 5c 3e 4e 90 41 3e b2 9f 36 3e
       -0.64373904 0.21499765 0.18902704 0.17834356
000100 2a 43 1c 3e 98 93 3c 3e 30 fe db 3d 58 19 1f 3e
       0.15259996 0.18415678 0.10741842 0.15537012
000110 c7 25 c2 3e ea 82 dd 3e d4 d5 df 3e 62 6c e9 3e
       0.37919447 0.43263942 0.43717825 0.45590502
000120 4a cb 1f 3f 10 66 f6 be 00 8f 0f be 30 03 84 bd
       0.6241957 -0.48124743 -0.14019394 -0.064459205
000130 b0 10 16 bf 98 32 23 bf f4 b2 12 bf fa 13 45 3e
       -0.58619213 -0.63749075 -0.5730431 0.19245902
000140 9c cb 4b 3e 7c 78 3d 3e 94 c9 0f 3e c0 b5 45 3e
       0.1990189 0.18502992 0.1404174 0.19307613
000150 98 a0 e1 3d 64 e7 1c 3e ce f9 c6 3e bd 75 df 3e
       0.11016959 0.15322644 0.3886246 0.43644515
000160 f0 58 da 3e 41 f4 dd 3e fa 1a 24 3f e5 0d 00 bf
       0.4264598 0.43350413 0.6410366 -0.500212
000170 78 dd 36 be 00 64 2c bd 27 a5 0b bf 93 ae 25 bf
       -0.17857921 -0.042087555 -0.5454888 -0.64719504
000180 b5 d2 16 bf b6 3b 3e 3e a8 50 4a 3e ce e3 3d 3e
       -0.58915263 0.18577465 0.1975733 0.18543932
000190 e0 bb 09 3e 1c be 45 3e 60 76 f7 3d 7e f5 17 3e
       0.13450575 0.19310802 0.12083125 0.14839742
0001a0 e5 ea c2 3e 38 d8 dc 3e f2 8d e2 3e 94 0f e2 3e
       0.38069835 0.43133712 0.4424892 0.4415251
0001b0 b8 73 22 3f 02 aa f8 be 6c 11 5b be f0 05 07 bd
       0.6345782 -0.48567206 -0.21393365 -0.032964647
0001c0 1e a9 f3 be 67 6a 27 bf 67 74 25 bf 9e 32 3b 3e
       -0.47589964 -0.6539673 -0.6463074 0.18281028
0001d0 56 b5 3f 3e ac 8c 34 3e c8 f4 0e 3e 58 43 35 3e
       0.18721518 0.17631787 0.13960564 0.17701471
0001e0 e2 ac 1e 3e 98 28 35 3e 34 f4 be 3e 4d 5d de 3e
       0.15495637 0.17691267 0.37295687 0.43430558
0001f0 78 93 df 3e a9 ec de 3e 4c 50 18 3f 28 6a ef be
       0.43667197 0.43539932 0.59497523 -0.46760678
000200 14 80 1f be 90 a9 99 bd 36 c5 04 bf fc 5b 2a bf
       -0.15576202 -0.075030446 -0.5186342 -0.66546607
000210 0a 77 22 bf 3c 05 4b 3e 28 e7 49 3e ce cc 46 3e
       -0.6346289 0.19826216 0.19717085 0.19414064
000220 30 0a 0e 3e 38 65 20 3e 06 c0 12 3e d4 23 22 3e
       0.13871074 0.15663612 0.14331064 0.1583398
000230 04 bd c4 3e 64 fa e1 3e a4 ce ed 3e 3a 18 e4 3e
       0.38425457 0.44136345 0.46446717 0.44549733
000240 f8 1b 23 3f 0f 16 00 bf 28 d9 3c be a8 cf 8d bd
       0.6371455 -0.5003366 -0.18442214 -0.06924373
000250 06 4a f6 be 29 cc 24 bf 65 c3 25 bf 3e 15 3c 3e
       -0.4810335 -0.64374024 -0.64751273 0.18367478
000260 7a e7 4a 3e 5e 67 4b 3e a8 6d 0a 3e 78 94 38 3e
       0.19814864 0.1986365 0.13518393 0.18025386
000270 b6 81 0c 3e ac 5d 20 3e e6 19 c0 3e 28 b3 e3 3e
       0.13721356 0.15660733 0.3751976 0.44472623
000280 96 dc e3 3e 87 71 de 3e 87 31 24 3f 4e ee fb be
       0.4450423 0.4344599 0.6413807 -0.4920525
000290 30 f4 24 be d0 68 3b bd fb 10 15 bf 39 40 2a bf
       -0.16108775 -0.045754254 -0.58229035 -0.66504246
0002a0 cf cf 16 bf 5a f2 3d 3e de e1 42 3e 36 a3 4f 3e
       -0.5891084 0.18549481 0.19031474 0.20277104
0002b0 40 ad 06 3e fa cb 42 3e d6 ec 0c 3e b4 0c 1f 3e
       0.13152027 0.19023123 0.1376222 0.1553219
0002c0 0a e2 bf 3e 3c 02 df 3e 0e b6 e2 3e 00 25 e5 3e
       0.37477142 0.43556392 0.44279522 0.4475479
0002d0 7a ae 1c 3f 70 b9 f7 be a8 56 16 be 70 d0 8f bd
       0.6120373 -0.48383665 -0.14681494 -0.07022178
0002e0 56 57 0a bf d8 46 27 bf 32 6a 23 bf bc cf 44 3e
       -0.54039514 -0.65342474 -0.63833916 0.1921987
0002f0 28 39 52 3e 88 dd 3f 3e 72 a8 0b 3e d6 af 40 3e
       0.20529616 0.18736851 0.13638476 0.18817076
000300 c8 d3 07 3e e6 c2 1f 3e 86 c5 c3 3e c0 96 e0 3e
       0.13264382 0.15601692 0.38236636 0.43865013
000310 a3 1c e8 3e 4f a9 e5 3e 0e 77 1f 3f d4 8a fc be
       0.45334348 0.44855735 0.6229104 -0.49324667
000320 e0 78 24 be 00 43 71 bd 2a 8c 11 bf 32 86 29 bf
       -0.16061735 -0.058901787 -0.568545 -0.6622039
000330 ac 12 0e bf 98 2e 42 3e 0e de 4f 3e ee a2 35 3e
       -0.5549724 0.18963087 0.20299551 0.17737934
000340 f4 a4 f7 3d 32 b7 28 3e 20 42 16 3e f2 75 33 3e
       0.12092009 0.16476133 0.14673662 0.17525461
000350 d6 c5 c2 3e 9f 4a e1 3e b7 61 e3 3e bb e0 dd 3e
       0.38041562 0.44002244 0.44410488 0.43335518
000360 ce d2 14 3f 30 ab eb be dc a5 68 be f0 96 15 bd
       0.5813416 -0.46029043 -0.2271952 -0.0365209
000370 ee 6c f1 be a1 81 1f bf 79 63 2d bf 52 59 2d 3e
       -0.4715342 -0.62307173 -0.6772991 0.16928604
000380 b4 32 42 3e 4c 7b 53 3e e0 d4 1f 3e 10 5e 4e 3e
       0.18964654 0.20652503 0.15608549 0.2015307
000390 92 64 15 3e 7c 3b 16 3e 26 6a c6 3e 09 87 df 3e
       0.14589146 0.14671129 0.3875286 0.4365771
0003a0 56 fa e0 3e cd e9 de 3e d3 94 2a 3f 61 4b 02 bf
       0.4394099 0.4353775 0.6663334 -0.5089627
0003b0 fc 7a 24 be 90 22 48 bd bf 49 0f bf fd b1 26 bf
       -0.1606254 -0.048861086 -0.559719 -0.6511534
0003c0 cb be 14 bf 5a 60 4b 3e 50 e5 44 3e 78 8b 33 3e
       -0.58103627 0.19860974 0.19228101 0.17533672
0003d0 7c f4 f0 3d d2 41 39 3e 2c e4 0d 3e 32 46 0e 3e
       0.11765382 0.18091515 0.13856572 0.13893965
0003e0 b2 d5 bf 3e db b1 dd 3e 0b b3 e4 3e ae 0d e5 3e
       0.37467724 0.43299755 0.4466785 0.44737
0003f0 44 fe 20 3f 26 f8 f9 be ac fb 4b be 70 57 84 bd
       0.6288798 -0.48822135 -0.19920224 -0.0646199

muA f4 [288, 3]
000000 e0 5f 21 3c 00 04 48 bb 78 1b cc bd 00 e0 80 3c
       0.009849519 -0.0030519962 -0.09966177 0.015731812
000010 90 06 dc 3c c0 69 c5 bb 3c ad 84 bd c0 44 90 3b
       0.026858598 -0.0060245693 -0.06478354 0.004402727
000020 40 56 11 3e 12 a8 f9 bd e0 cf bc 3c f8 32 64 3d
       0.14193058 -0.1219026 0.023048341 0.05571267
000030 84 64 89 3d c0 60 b5 bb ae 9b 20 be c4 81 cd 3d
       0.06708625 -0.005535215 -0.15684387 0.100345165
000040 ec 6b dc bd 88 f4 20 3d 70 e7 a1 3c 00 c0 91 3c
       -0.10762772 0.039295703 0.019763678 0.017791748
000050 88 7f a4 bd 30 5d 0b bd f0 39 bd bc d8 91 07 bd
       -0.08032137 -0.034024417 -0.023098916 -0.03309807
000060 90 1d 1c 3d 78 b7 19 bd c0 55 ac 3b 60 9c 2f bc
       0.03811413 -0.037528485 0.0052592456 -0.010718435
000070 00 cc 0a 3c 98 a0 3f 3d c0 fe b5 bb a8 45 66 bd
       0.008471489 0.046784014 -0.00555405 -0.056218773
000080 a0 e2 bb bc 00 c6 1e bd 80 c1 f3 3c d0 e4 ae bc
       -0.022935212 -0.038763046 0.029755354 -0.02134934
000090 98 5b 5b 3d 40 4c fb 3c 40 86 14 3c d0 82 1c 3d
       0.053554147 0.030676007 0.009065211 0.03821069
0000a0 a0 3c ae 3c cc cf 47 3d 30 15 bb 3c d0 03 93 bc
       0.021269143 0.048782155 0.022837251 -0.017946154
0000b0 f0 0e cb 3c 60 01 32 3c 00 f8 e9 3c 70 e7 82 3c
       0.024787396 0.010864586 0.028560638 0.015979499
0000c0 20 08 ce bc b0 9f a2 bc 40 63 4b 3c 00 d0 cb 39
       -0.025150359 -0.019851536 0.0124138 0.0003887415
0000d0 20 2d 01 3c f0 a1 09 bd 60 ae 8e 3c 00 4c 44 3a
       0.007884294 -0.0336017 0.017417133 0.00074881315
0000e0 f2 ca da bd 00 ce 9a ba 60 3d 8e 3c 20 0d 74 bc
       -0.1068324 -0.001181066 0.01736325 -0.014895707
0000f0 10 f0 8c bd e0 56 76 3c 84 2a fd 3d a6 3c fb bd
       -0.06881726 0.015035361 0.12361625 -0.12267427
000100 e0 62 8c 3c 88 29 44 3d e8 e1 69 3d 00 a2 a5 bc
       0.017136991 0.04789117 0.057100207 -0.02021885
000110 dc 6f 07 be cc 7d a7 3d 14 64 ce bd 18 3d 30 3d
       -0.13226265 0.08178291 -0.10077682 0.043027014
000120 00 d7 5d 3b c0 08 8b 3c 18 1c e8 bd c0 e7 f8 bc
       0.0033850074 0.016971946 -0.113334835 -0.030383945
000130 c0 8f b7 bc e0 f4 04 bd 48 88 2e 3d e0 45 e6 bc
       -0.022407413 -0.032460093 0.042610437 -0.02810949
000140 c0 b8 a4 3b 00 d2 3b bc c0 72 9b 3b 40 79 54 3d
       0.0050269067 -0.011463642 0.004743904 0.051873446
000150 00 62 e7 3a b0 cc 7f bd a0 d7 34 bc 78 0c 0d bd
       0.0017653108 -0.062451065 -0.011037737 -0.03443572
000160 e0 66 1b 3d a8 27 1e bd 78 35 69 3d a0 72 c3 3c
       0.037939906 -0.038612038 0.056935757 0.023858368
000170 60 97 1b 3c 88 b1 34 3d b0 06 b9 3c 08 3e 3e 3d
       0.00949654 0.04411462 0.022586197 0.046445876
000180 10 12 99 3c e0 e7 89 bc 80 67 a0 3c 80 57 fc 3b
       0.01868537 -0.0168342 0.019580603 0.0077008605
000190 d0 fa e2 3c 60 d3 7e 3c 70 88 99 bc 90 fd 94 bc
       0.027707487 0.015553325 -0.018741816 -0.018187314
0001a0 80 5b e6 3b 00 9c 8c 3b 80 3b 17 3b d0 f8 03 bd
       0.0070299506 0.0042910576 0.0023076236 -0.032219708
0001b0 c0 6c 14 3c 80 8b 91 3b a8 a5 cf bd 18 38 16 3d
       0.009059131 0.0044416785 -0.10139018 0.03667459
0001c0 f0 5e 12 3d 20 4a 19 bc 08 cc 88 bd 40 6c e4 3b
       0.03573507 -0.009356052 -0.06679541 0.006970912
0001d0 84 d9 0c 3e fc 7a f4 bd d0 32 8f 3c c8 2a 39 3d
       0.1375485 -0.1193752 0.017480284 0.045206815
0001e0 30 1a 5f 3d 40 22 3b bc 6c cb 0a be 18 1f dc 3d
       0.054468334 -0.01142174 -0.13554162 0.10748118
0001f0 a0 25 ae bd 58 c8 17 3d e0 b8 76 3c 00 e9 bb 3b
       -0.0850327 0.037056297 0.015058726 0.005734563
000200 34 18 dc bd 60 ba f1 bc 70 8c af bc 90 e9 00 bd
       -0.10746804 -0.029507816 -0.02142927 -0.031472743
000210 40 39 0c 3d a8 4c 2b bd c0 82 c2 3b 60 80 73 bc
       0.034234285 -0.041821152 0.005935997 -0.01486215
000220 00 64 33 3b 00 15 44 3d 00 42 64 3a 90 b9 74 bd
       0.0027372837 0.04787159 0.00087073445 -0.05974728
000230 40 24 8e bc b8 d9 23 bd 98 6b 07 3d f8 44 10 bd
       -0.01735127 -0.040002555 0.033061594 -0.035222024
000240 84 b1 5b 3d e8 fa 04 3d e0 8b 1f 3c 50 76 34 3d
       0.05363609 0.032465845 0.009737939 0.044058144
000250 b0 46 92 3c 04 b5 42 3d d0 d3 94 3c 60 1f 89 bc
       0.017855972 0.04753591 0.018167406 -0.016738594
000260 40 d4 b9 3c 40 69 11 3c e0 20 eb 3c 40 4f 8f 3c
       0.022684216 0.008875191 0.0287022 0.017493844
000270 50 0b ba bc 40 27 b4 bc 80 9f 66 3c 00 7f 42 bb
       -0.022710472 -0.021991372 0.014076114 -0.0029677749
000280 80 42 f5 3b 08 48 06 bd 80 fc 53 3c c0 30 d3 3b
       0.007484734 -0.032783538 0.012938619 0.0064450204
000290 9c 7b ea bd 80 ee 45 3b 00 3e 0e 3c 50 0b bc bc
       -0.11449358 0.0030201972 0.008681774 -0.022954613
0002a0 d8 28 97 bd 40 5c fe 3b 20 ee 04 3e 28 38 0a be
       -0.07380837 0.007762462 0.12981462 -0.13497984
0002b0 c0 71 4a 3c b0 d6 2e 3d f8 e7 4f 3d 00 42 13 bc
       0.012356222 0.04268521 0.050758332 -0.008987904
0002c0 db a1 18 be 00 bd c8 3d e0 b7 eb bd 70 cb e3 3c
       -0.14905493 0.09801674 -0.11509681 0.027806967
0002d0 80 8c 78 bc 50 9c 85 3c 88 a4 96 bd 50 0b f6 bc
       -0.015170217 0.016309887 -0.073556006 -0.030034691
0002e0 b0 21 bb bc f8 c4 05 bd 90 db 26 3d 30 98 f4 bc
       -0.022843212 -0.032658547 0.040736735 -0.029857725
0002f0 00 e3 f4 3b 00 9d 2a bc 00 06 9d 3b 60 5e 4a 3d
       0.0074733496 -0.010413408 0.004791975 0.04940641
000300 00 52 fb ba f8 a4 69 bd 80 e0 6f bb 50 4e 2a bd
       -0.0019174218 -0.057042092 -0.0036602318 -0.04157859
000310 a8 5c 12 3d 80 96 d4 bc 98 71 52 3d 00 ca e9 3c
       0.035732895 -0.02595067 0.051377863 0.028538704
000320 c0 14 32 3c 10 d3 30 3d 10 8f a6 3c d0 b5 2e 3d
       0.010869205 0.043170035 0.02033189 0.04265386
000330 b0 ab b1 3c d0 4a 95 bc 30 fc d1 3c a0 bc 16 3c
       0.021688312 -0.01822415 0.025632948 0.009200245
000340 60 7f e1 3c c0 a3 6a 3c a0 8e 9e bc 40 19 a4 bc
       0.027526557 0.014321268 -0.019355118 -0.020031571
000350 c0 5d cd 3b 00 20 3b ba c0 64 00 3c a0 53 ff bc
       0.0062672794 -0.0007138252 0.007836521 -0.031167805
000360 a0 80 a5 3c 00 b5 b7 ba d6 10 be bd 90 d9 a6 3c
       0.020202935 -0.0014015734 -0.09280555 0.020367414
000370 40 95 a7 3c 40 d6 28 bc 3c e9 87 bd 80 09 5e 3c
       0.02045691 -0.010304987 -0.06636283 0.01355207
000380 e8 63 03 3e 42 d5 f6 bd 00 e4 45 3c 58 0e 47 3d
       0.1283108 -0.120523944 0.012078285 0.048597664
000390 00 41 7c 3d c0 56 c9 bc eb 71 14 be f0 20 ac 3d
       0.061585426 -0.024577498 -0.14496581 0.0840472
0003a0 54 ce be bd 88 e9 23 3d e0 28 1f 3c 80 1a 4f 3c
       -0.09316698 0.040017635 0.009714335 0.012640595
0003b0 78 ca d6 bd 00 5b fa bc 60 16 d5 bc 10 5b f1 bc
       -0.104878366 -0.03056097 -0.026011646 -0.029462367
0003c0 68 f9 18 3d 70 9d 08 bd 00 60 a4 3b 00 02 65 bc
       0.037347227 -0.03335327 0.005016327 -0.013977528
0003d0 00 c3 0c 3b f0 0e 48 3d 00 0e a2 3a 28 d3 70 bd
       0.0021478534 0.04884237 0.0012363791 -0.058795124
0003e0 e0 2f 45 bc 68 1f 27 bd 70 ce 0d 3d 40 74 6c bc
       -0.01203534 -0.040801436 0.034620702 -0.014432013
0003f0 c0 33 59 3d b0 2f c5 3c a0 15 3f 3c 88 eb 25 3d
       0.05302787 0.02407059 0.011662871 0.040507823

quadA f4 [288, 3, 3]
000000 c0 a9 a1 3c 4a a5 e4 3d 10 99 e0 3c 4a a5 e4 3d
       0.019734263 0.11164339 0.027416736 0.11164339
000010 2e ff a5 3d 44 68 1d 3d 10 99 e0 3c 44 68 1d 3d
       0.08105312 0.038429514 0.027416736 0.038429514
000020 9e 69 ce bd 4c 89 38 bd c0 4e 83 3c 70 64 40 3c
       -0.10078739 -0.04505281 0.016028762 0.011742696
000030 c0 4e 83 3c f0 0b 66 3c 80 5b e5 3a 70 64 40 3c
       0.016028762 0.014040932 0.0017498583 0.011742696
000040 80 5b e5 3a a0 0c fe 3c 16 34 c7 3b 00 f0 45 ba
       0.0017498583 0.03101188 0.006079207 -0.00075507164
000050 e8 af fa bc 00 f0 45 ba c5 9c 5a bc 90 ea 5f 3c
       -0.030601457 -0.00075507164 -0.013343041 0.013666764
000060 e8 af fa bc 90 ea 5f 3c 76 05 ee 3b 58 0d 39 3d
       -0.030601457 0.013666764 0.0072638346 0.04517874
000070 10 8d 81 bd c0 0b 99 3b 10 8d 81 bd 00 75 cf 3a
       -0.06325734 0.00467059 -0.06325734 0.0015827715
000080 40 3d a1 3b c0 0b 99 3b 40 3d a1 3b 00 89 3f bd
       0.0049206316 0.00467059 0.0049206316 -0.046761513
000090 9a 7b 17 bd 0c 4c 76 3d 74 8a 68 3d 0c 4c 76 3d
       -0.03698311 0.060131118 0.056772664 0.060131118
0000a0 ea fd 14 3d a8 37 a7 bc 74 8a 68 3d a8 37 a7 bc
       0.036374964 -0.020412281 0.056772664 -0.020412281
0000b0 80 6b 1f 3a 1b 9a a0 bc 70 d2 ac 3c 00 4c 82 3c
       0.00060813874 -0.019604733 0.021096438 0.01590538
0000c0 70 d2 ac 3c 45 f5 ac 3c 00 80 47 37 00 4c 82 3c
       0.021096438 0.021113047 1.1891127e-05 0.01590538
0000d0 00 80 47 37 b0 b2 c5 ba b0 58 3b bc c8 dd ad 3d
       1.1891127e-05 -0.001508316 -0.011434719 0.08489567
0000e0 90 b1 95 3c c8 dd ad 3d f0 37 c5 3c 58 af bd 3c
       0.018273145 0.08489567 0.024074525 0.0231549
0000f0 90 b1 95 3c 58 af bd 3c 30 17 4f bc 10 3f 03 bc
       0.018273145 0.0231549 -0.012639806 -0.008010641
000100 00 ae d1 3a 60 30 92 bb 00 ae d1 3a 40 85 e6 3b
       0.0015997291 -0.004461333 0.0015997291 0.0070349276
000110 e0 2a a8 bb 60 30 92 bb e0 2a a8 bb 00 c7 7f 3a
       -0.005132064 -0.004461333 -0.005132064 0.00097571313
000120 80 4a e8 ba c0 23 8f 3b 00 a8 c3 b8 c0 23 8f 3b
       -0.0017722398 0.0043682754 -9.329617e-05 0.0043682754
000130 c0 8e 7d 3b 80 bc da ba 00 a8 c3 b8 80 bc da ba
       0.0038689822 -0.0016688257 -9.329617e-05 -0.0016688257
000140 80 69 09 bb d5 25 39 bb c0 84 4c 3b e0 23 87 3b
       -0.0020967424 -0.002825131 0.0031207055 0.0041241497
000150 c0 84 4c 3b 76 f6 f1 3b 00 40 24 bb e0 23 87 3b
       0.0031207055 0.0073841168 -0.002506256 0.0041241497
000160 00 40 24 bb 8a 63 95 bb b0 96 67 ba c0 00 3b 3b
       -0.002506256 -0.004558985 -0.0008834405 0.0028534383
000170 80 68 42 bc c0 00 3b 3b 1b 6a 11 bc 00 e9 a2 ba
       -0.011865735 0.0028534383 -0.008875395 -0.0012429059
000180 80 68 42 bc 00 e9 a2 ba 85 e3 1f 3c e0 c1 b9 bb
       -0.011865735 -0.0012429059 0.009758835 -0.0056688637
000190 00 90 9d 3b 50 f8 43 bc 00 90 9d 3b 80 2e 07 bc
       0.004808426 -0.011961058 0.004808426 -0.008250833
0001a0 00 13 f3 3a 50 f8 43 bc 00 13 f3 3a 70 0f 64 3c
       0.0018545091 -0.011961058 0.0018545091 0.013919696
0001b0 b0 4e 17 bc 00 2f e2 ba c0 3f e6 bb 00 2f e2 ba
       -0.009235069 -0.0017256439 -0.0070266426 -0.0017256439
0001c0 00 16 d1 bb a0 81 dd 3b c0 3f e6 bb a0 81 dd 3b
       -0.0063807964 0.0067598373 -0.0070266426 0.0067598373
0001d0 b0 d9 7f 3c 00 7a 22 ba a0 81 d8 bb 00 d8 3d 39
       0.015615866 -0.0006197989 -0.0066072494 0.00018104911
0001e0 a0 81 d8 bb 20 3d b8 3b c0 43 41 bb 00 d8 3d 39
       -0.0066072494 0.005622521 -0.0029489845 0.00018104911
0001f0 c0 43 41 bb e0 ed a3 bb b0 f6 1a 3c 80 3e 1c bc
       -0.0029489845 -0.005002722 0.009458229 -0.009536386
000200 40 a3 0a bc 80 3e 1c bc 00 56 03 bb c0 de be 3b
       -0.008461773 -0.009536386 -0.0020040274 0.0058248937
000210 40 a3 0a bc c0 de be 3b 60 42 f4 bb aa a2 59 3b
       -0.008461773 0.0058248937 -0.0074542016 0.0033208528
000220 00 8c 74 3a 80 75 75 3b 00 8c 74 3a d6 bf 1b bb
       0.0009328723 0.0037454069 0.0009328723 -0.0023765466
000230 80 cf c5 ba 80 75 75 3b 80 cf c5 ba 56 8b 77 ba
       -0.0015091747 0.0037454069 -0.0015091747 -0.0009443065
000240 c0 17 11 3b e0 65 99 bb 00 3b c9 ba e0 65 99 bb
       0.00221394 -0.004681334 -0.0015352666 -0.004681334
000250 80 83 c0 3a 00 eb 68 ba 00 3b c9 ba 00 eb 68 ba
       0.0014687628 -0.00088851154 -0.0015352666 -0.00088851154
000260 80 59 71 bb 6a f8 1a 3c 40 99 b9 bb f0 af 1a 3c
       -0.0036827028 0.009458641 -0.005664021 0.009441361
000270 40 99 b9 bb ea cf 2e 3c 80 22 f8 ba f0 af 1a 3c
       -0.005664021 0.010669688 -0.001893118 0.009441361
000280 80 22 f8 ba 2b e4 a4 bc e8 6d 82 bc bd c1 01 3e
       -0.001893118 -0.02012833 -0.015921548 0.12671562
000290 60 a2 a2 3b bd c1 01 3e 78 b7 ac 3d 5c db 3d 3d
       0.0049632043 0.12671562 0.084334314 0.046351776
0002a0 60 a2 a2 3b 5c db 3d 3d 02 1c 8c bd 8c 1d 53 bd
       0.0049632043 0.046351776 -0.068412796 -0.05154185
0002b0 30 65 ca 3c a8 58 90 3c 30 65 ca 3c 78 12 de 3c
       0.024706453 0.0176204 0.024706453 0.027108416
0002c0 00 51 ab ba a8 58 90 3c 00 51 ab ba a0 28 c8 3c
       -0.0013070405 0.0176204 -0.0013070405 0.024433434
0002d0 d4 51 6d bc 00 8c 47 ba d8 dd 66 bd 00 8c 47 ba
       -0.014484841 -0.0007612109 -0.05636391 -0.0007612109
0002e0 cd d1 14 bd b8 9c b0 3c d8 dd 66 bd b8 9c b0 3c
       -0.036332894 0.021559104 -0.05636391 0.021559104
0002f0 43 26 50 3d af 72 14 3d c2 db 97 bd 90 d8 4c 3c
       0.05081774 0.036242183 -0.07414962 0.012502804
000300 c2 db 97 bd 7c ec 12 3c 30 45 42 3c 90 d8 4c 3c
       -0.07414962 0.008967515 0.011857316 0.012502804
000310 30 45 42 3c cd 2d 39 bd 6b 00 c3 bb e0 72 9c 3b
       0.011857316 -0.045209695 -0.0059509776 0.0047744364
000320 68 f1 dd 3c e0 72 9c 3b 6b 4c 05 3c f0 d3 1a bd
       0.02709265 0.0047744364 0.008135895 -0.037799776
000330 68 f1 dd 3c f0 d3 1a bd d5 30 0f bb 56 db 47 bc
       0.02709265 -0.037799776 -0.0021849175 -0.01219829
000340 28 36 ce 3c 80 8e 2d 3c 28 36 ce 3c ad cd 9e 3c
       0.025172308 0.010593057 0.025172308 0.019385183
000350 b0 ee 5b bc 80 8e 2d 3c b0 ee 5b bc 0c 80 eb bb
       -0.013423607 0.010593057 -0.013423607 -0.0071868952
000360 a8 ee 9a 3c 90 57 60 3c c0 81 7b 3c 90 57 60 3c
       0.018912628 0.0136927515 0.015350759 0.0136927515
000370 08 fe e2 3c 80 00 12 3c c0 81 7b 3c 80 00 12 3c
       0.027709022 0.008911252 0.015350759 0.008911252
000380 58 f6 3e bd 2b c8 c9 bb 00 27 4b 3a c0 7c 0f bb
       -0.04662165 -0.006157895 0.0007749647 -0.0021894425
000390 00 27 4b 3a 75 34 c1 3b 20 8a bc bb c0 7c 0f bb
       0.0007749647 0.005896146 -0.0057537705 -0.0021894425
0003a0 20 8a bc bb 50 3b 89 39 60 e7 c2 bb 60 63 ba 3b
       -0.0057537705 0.00026174868 -0.005947992 0.005688116
0003b0 00 1d 74 3a 60 63 ba 3b 80 8a eb 3b a0 1d a0 bb
       0.00093121827 0.005688116 0.0071881413 -0.004886344
0003c0 00 1d 74 3a a0 1d a0 bb 80 8c a2 ba ab 36 2a bb
       0.00093121827 -0.004886344 -0.0012401491 -0.0025972526
0003d0 c0 15 6c 3b c0 89 df 3b c0 15 6c 3b c5 9a 23 3c
       0.0036023706 0.006821841 0.0036023706 0.00998563
0003e0 80 fa 67 bb c0 89 df 3b 80 fa 67 bb 35 1a f2 bb
       -0.0035397112 0.006821841 -0.0035397112 -0.007388378
0003f0 d6 18 93 bb 80 5c f5 3a d0 6d 1b bc 80 5c f5 3a
       -0.0044890447 0.0018719584 -0.009486631 0.0018719584

hfvrA f4 [288, 1]
000000 56 59 1c 3f e7 6f 8b 3f 73 c3 73 3f 98 f9 6c 3f
       0.61073816 1.0893525 0.95220107 0.9256835
000010 6e 45 90 3f 92 ee 93 3f bc d3 92 3f a4 e7 99 3e
       1.1271188 1.1557181 1.1470866 0.3005954
000020 3e a4 98 3e 2e 7e 91 3e 2a 2b ad 3e 96 38 ad 3e
       0.29812807 0.2841658 0.33821994 0.33832234
000030 66 1c a4 3e 6a 67 8f 3e 00 b7 5e 3e d4 a9 14 3e
       0.32052916 0.28008586 0.21749496 0.1451791
000040 54 a2 21 3e 30 2b 3b 3e 3b 77 2d 3f cf 61 8f 3f
       0.1578458 0.18278193 0.67760056 1.1201724
000050 be 46 77 3f 83 43 6e 3f c4 62 8f 3f 3a 82 95 3f
       0.9659232 0.93071765 1.1202016 1.1680367
000060 8f 55 93 3f 70 70 83 3e aa 86 a5 3e 08 0c af 3e
       1.1510485 0.2567172 0.32329303 0.34188867
000070 aa d4 9f 3e a4 1d a0 3e ce 80 aa 3e 16 ed 95 3e
       0.31216937 0.31272614 0.33301395 0.29282445
000080 38 ac fa 3d 4c 71 15 3e e4 46 06 3e e0 dc 2e 3e
       0.12239879 0.14594 0.1311298 0.17076445
000090 1e 0d 29 3f be 3e 8c 3f 1b d3 7c 3f 0e d0 69 3f
       0.6603564 1.0956647 0.9875962 0.9133309
0000a0 35 25 8e 3f a4 39 94 3f c5 62 92 3f aa 27 a0 3e
       1.1105105 1.158009 1.1436392 0.3128026
0000b0 ba 3e 92 3e aa 5e ab 3e 40 02 a8 3e d0 98 ae 3e
       0.28563482 0.3347066 0.32814217 0.34100962
0000c0 5a e2 b0 3e c8 08 a4 3e 30 2e 0f 3e f0 d1 e8 3d
       0.34547693 0.3203795 0.13982463 0.113681674
0000d0 74 1d 1a 3e 40 59 2e 3e 50 f6 28 3f 5e de 89 3f
       0.15050298 0.17026234 0.66000843 1.0770986
0000e0 6b e1 7b 3f da 2b 6b 3f 6c 90 90 3f 06 ff 92 3f
       0.98390836 0.9186379 1.1294074 1.1484077
0000f0 e8 92 96 3f f8 66 7e 3e 34 6c 99 3e c2 d7 a4 3e
       1.1763582 0.24843967 0.29965365 0.3219586
000100 0e ed 9d 3e 98 77 9d 3e 70 c4 dd 3e 38 35 a0 3e
       0.3084492 0.30755305 0.43313932 0.31290603
000110 f8 6f 3e 3e c8 74 25 3e 40 51 1d 3e f0 e1 10 3e
       0.185974 0.1615783 0.15363026 0.14148688
000120 d7 e8 27 3f 2e 32 8a 3f 92 fc 6d 3f 11 6d 6b 3f
       0.6558966 1.0796564 0.92963517 0.919633
000130 b6 e3 99 3f ff 2a 94 3f c3 41 91 3f 20 7a 99 3e
       1.2022617 1.1575621 1.1348194 0.29975986
000140 c8 fc 91 3e 06 45 9d 3e 70 21 a0 3e aa d0 82 3e
       0.2851317 0.30716723 0.3127551 0.25549823
000150 d8 76 d0 3e 68 23 9d 3e 04 1d 2f 3e 48 ef 23 3e
       0.4071567 0.30691075 0.17100912 0.16009247
000160 9c ad 28 3e c0 9c 1b 3e 2d d1 24 3f 57 94 8b 3f
       0.16472477 0.15196514 0.64381677 1.0904645
000170 b8 f0 77 3f 3b 4d 6f 3f 12 06 94 3f e1 28 94 3f
       0.9685168 0.9347722 1.1564353 1.1574975
000180 ef 15 91 3f ee b8 9a 3e 58 27 8f 3e 7a 58 96 3e
       1.1334819 0.30219215 0.27959704 0.29364377
000190 8e b1 ac 3e be 75 97 3e 50 fc cc 3e 84 d5 a4 3e
       0.33729213 0.29582018 0.4003625 0.3219415
0001a0 ec 41 3c 3e d8 26 0c 3e d4 0e 04 3e 80 2d 0a 3e
       0.18384522 0.13686693 0.12896281 0.1349392
0001b0 e8 d8 25 3f dc a6 88 3f f7 07 7c 3f 72 c5 6b 3f
       0.647841 1.0675921 0.98449653 0.9209815
0001c0 81 e2 8c 3f 6d d0 94 3f 15 51 95 3f fa 14 98 3e
       1.1006624 1.1626107 1.1665369 0.29703504
0001d0 3e 93 86 3e 9a c5 a1 3e 8c cf b1 3e 3a 78 a9 3e
       0.26284212 0.3159607 0.34728658 0.33099538
0001e0 4a a0 96 3e 3c ca 7c 3e 8c b4 41 3e 60 17 0c 3e
       0.29419166 0.24686521 0.1891653 0.13680792
0001f0 e4 c9 13 3e 68 58 23 3e a6 78 30 3f ea 30 89 3f
       0.14432484 0.15951693 0.68934095 1.0718052
000200 37 1b 78 3f 50 a8 71 3f 01 af 91 3f 02 11 95 3f
       0.96916527 0.9439745 1.1381532 1.1645815
000210 5c ac 93 3f 8a e1 96 3e 0a f3 8e 3e c2 cd 9c 3e
       1.1536975 0.29468948 0.279198 0.3062573
000220 62 a1 b7 3e 16 45 b2 3e e8 aa a7 3e d6 5a 9e 3e
       0.35865313 0.34818333 0.3274758 0.30928677
000230 94 8d 2e 3e a0 cd 12 3e a0 f8 eb 3d 14 bd 1c 3e
       0.17046195 0.14336252 0.11522031 0.15306503
000240 5c 3f 1f 3f aa 00 91 3f ac 81 7d 3f 96 45 6e 3f
       0.62206054 1.1328328 0.9902599 0.9307493
000250 50 b0 8f 3f 10 61 94 3f 6e 1c 95 3f 1e 1b 9c 3e
       1.1225681 1.1592121 1.1649301 0.3048944
000260 f6 58 95 3e 82 5a a5 3e 3a 64 c1 3e 12 12 9e 3e
       0.29169434 0.32295614 0.3777178 0.30873162
000270 36 e2 af 3e 38 df 98 3e e8 3d 54 3e 84 96 1d 3e
       0.34352273 0.29857802 0.2072674 0.15389448
000280 f8 ad 12 3e a4 75 2e 3e b4 7a 26 3f 91 e8 8b 3f
       0.14324176 0.17037064 0.6503098 1.0930349
000290 86 b0 70 3f d5 67 6d 3f 90 ca 98 3f 50 bd 94 3f
       0.94019353 0.9273656 1.1936817 1.1620274
0002a0 a3 6a 91 3f 80 e3 9c 3e 8e 7d a0 3e 70 93 89 3e
       1.1360668 0.3064232 0.3134579 0.26870298
0002b0 ce 9e c2 3e be 0b 84 3e ca 81 a2 3e e8 c1 98 3e
       0.38011783 0.2579021 0.31739646 0.2983544
0002c0 5c 83 56 3e 98 49 ff 3d 78 47 ed 3d 58 a2 4f 3e
       0.20948547 0.12465209 0.11585897 0.20276773
0002d0 3e f7 2a 3f 76 1f 8c 3f be 53 73 3f 51 20 6c 3f
       0.6678351 1.0947101 0.95049655 0.9223681
0002e0 6b b8 95 3f eb a4 94 3f a1 91 95 3f 18 15 98 3e
       1.1696905 1.1612829 1.1685067 0.29703593
0002f0 b4 50 90 3e ac c2 a3 3e fc 9d b4 3e 4e 6b 92 3e
       0.28186572 0.3198446 0.35276783 0.28597492
000300 c0 e7 ba 3e a4 5c 9c 3e 78 e9 39 3e a0 87 06 3e
       0.36504936 0.3053943 0.18155468 0.13137674
000310 e8 c7 e4 3d 3c 86 3b 3e f8 86 27 3f d6 4c 8a 3f
       0.111709416 0.18312925 0.6544032 1.0804698
000320 d9 0c 74 3f 2c 59 71 3f c2 2d 97 3f 19 69 94 3f
       0.95332104 0.9427669 1.1810839 1.1594573
000330 d6 d5 8f 3f 1e ab 92 3e 48 a3 73 3e 10 e0 a7 3e
       1.1237133 0.28646177 0.23792756 0.32788134
000340 94 ca bc 3e 6e b3 ae 3e a0 1f 95 3e 3a 74 8a 3e
       0.36873305 0.3412127 0.2912569 0.270418
000350 dc 19 24 3e ec b6 05 3e b4 99 06 3e 0c 76 24 3e
       0.1602549 0.1305806 0.1314457 0.16060656
000360 2e 60 35 3f 5d 0d 84 3f 44 66 7e 3f c3 65 6f 3f
       0.70849884 1.0316578 0.99374795 0.9351465
000370 a3 f6 8a 3f da ec 93 3f a5 b8 96 3f de 02 ab 3e
       1.0856518 1.1556656 1.1775099 0.33400625
000380 82 02 8b 3e 98 0b 73 3e 30 94 b6 3e 98 f5 8b 3e
       0.2715035 0.23734891 0.35659933 0.2733581
000390 b4 79 bb 3e 98 91 b1 3e 9c 63 22 3e 4c 36 2a 3e
       0.3661629 0.34681392 0.1585831 0.16622275
0003a0 94 bf 1b 3e 4c 8c 2f 3e d0 93 1a 3f 12 45 8d 3f
       0.152098 0.17143363 0.60381794 1.1036704
0003b0 fc 03 70 3f 14 aa 6f 3f c6 5a 95 3f 3c fa 93 3f
       0.9375608 0.93618894 1.1668327 1.156074
0003c0 c3 09 8f 3f 6c dd 8c 3e 02 fb 94 3e 2e 55 ae 3e
       1.1174854 0.2751268 0.29097754 0.34049362
0003d0 9a d6 c7 3e 1c d5 8f 3e 1e 2b 9e 3e 3e aa b2 3e
       0.39030915 0.28092277 0.3089227 0.3489551
0003e0 bc 1a 34 3e 7c 63 1d 3e 54 30 03 3e 1c b1 15 3e
       0.17588323 0.15369982 0.12811404 0.14618343
0003f0 60 90 21 3f e0 d3 8a 3f 26 2d 79 3f fc 76 71 3f
       0.63110924 1.0845909 0.97334516 0.9432218

vwA f4 [288, 1]
000000 0f 7c f2 3e a2 9c 04 3f 6e 99 01 3f be 6d 01 3f
       0.47360274 0.518015 0.5062474 0.5055808
000010 26 97 e4 3e 7e 6c e8 3e 55 da cd 3e dc ae c0 3e
       0.44646567 0.45395273 0.40205637 0.37633407
000020 de 96 c0 3e dd 01 bc 3e 58 6a c3 3e aa 39 c5 3e
       0.37615103 0.36720172 0.3816707 0.38520557
000030 f4 07 c3 3e 57 c1 bb 3e ee 82 bb 3e 5f a9 ad 3e
       0.38092005 0.36670944 0.3662333 0.33918282
000040 d2 3c b0 3e 34 ca ba 3e 40 77 f5 3e 04 f3 04 3f
       0.34421402 0.36482394 0.47942543 0.5193331
000050 73 3f 02 3f f7 16 02 3f ee 88 e4 3e 8c 48 e7 3e
       0.50878066 0.5081629 0.4463572 0.45172536
000060 b2 0d cf 3e c7 c0 b8 3e 23 78 c5 3e ac f2 c5 3e
       0.40440136 0.36084577 0.3856822 0.38661706
000070 aa e0 c2 3e 43 2a c2 3e f3 37 c5 3e bf 16 c0 3e
       0.3806203 0.37922868 0.38519248 0.37517354
000080 db e1 9d 3e 09 b5 ad 3e 9a 3a a8 3e bf 5e bd 3e
       0.30836377 0.3392718 0.3285721 0.36986348
000090 85 78 f4 3e 3a 70 04 3f fa 1a 03 3f 2c 25 01 3f
       0.477482 0.51733744 0.5121304 0.50447345
0000a0 90 40 e4 3e 47 fb e5 3e 80 6b ce 3e 2c c4 c2 3e
       0.44580507 0.44918272 0.4031639 0.38040292
0000b0 e6 50 bf 3e 5c 43 c5 3e 52 10 c4 3e d1 f7 c5 3e
       0.37366408 0.38527954 0.382937 0.3866563
0000c0 2c 1a c7 3e 99 df c1 3e 01 78 a5 3e db 06 a5 3e
       0.38887155 0.37865904 0.32318118 0.32231793
0000d0 ec 39 af 3e 21 23 b5 3e ca 78 f3 3e ac c9 03 3f
       0.34223878 0.35378364 0.47553092 0.514796
0000e0 91 91 02 3f 70 f2 01 3f f8 e0 e5 3e ab da e6 3e
       0.51003367 0.50760555 0.448982 0.45088705
0000f0 03 f1 ce 3e 09 28 b6 3e 0d a5 c0 3e 95 86 c3 3e
       0.40418252 0.3557742 0.37625924 0.38188615
000100 bd 55 c0 3e 95 68 c0 3e 33 ba d0 3e 32 4a c2 3e
       0.37565413 0.3757979 0.4076706 0.37947232
000110 b7 68 b3 3e 88 29 b3 3e ac 1b b0 3e 4f 09 b4 3e
       0.3504083 0.34992623 0.34396112 0.35163352
000120 d9 14 f5 3e 44 05 04 3f 8e cb 00 3f 82 cb 01 3f
       0.47867468 0.51570535 0.503106 0.50701153
000130 c8 db e8 3e 00 e7 e7 3e 1a ff cc 3e 4d d4 be 3e
       0.4548018 0.45293427 0.40038377 0.37271348
000140 a9 1f bf 3e fc d2 c0 3e 22 77 c0 3e 9d 1c b5 3e
       0.37328842 0.37660968 0.3759089 0.35373393
000150 e9 a5 cd 3e 43 f3 bf 3e 31 bf ae 3e 72 34 b2 3e
       0.40165642 0.3749028 0.34130242 0.34805638
000160 15 fc b3 3e 13 e5 b4 3e bc 8f f3 3e 68 55 04 3f
       0.3515326 0.3533102 0.47570598 0.5169282
000170 ba 5e 02 3f 76 0d 02 3f d9 7b e6 3e 4b ac e5 3e
       0.5092579 0.5080179 0.45016363 0.44858012
000180 8e b3 cb 3e 6d 03 c1 3e a7 62 bf 3e 8f e5 be 3e
       0.39785427 0.37697926 0.37379953 0.37284514
000190 04 53 c3 3e 3a 55 be 3e 25 bc cd 3e 5c 50 c1 3e
       0.38149273 0.37174398 0.40182605 0.37756622
0001a0 d5 c0 b2 3e 4a 83 ac 3e 27 6a a8 3e 47 a3 aa 3e
       0.34912744 0.33693916 0.32893488 0.33327696
0001b0 ee 20 f4 3e c3 ab 03 3f ad 9b 02 3f ec 99 00 3f
       0.47681373 0.5143396 0.5101879 0.50234866
0001c0 58 b6 e3 3e 66 c9 e7 3e 81 93 ce 3e 6c 78 be 3e
       0.44475055 0.45270842 0.40346912 0.3720125
0001d0 36 36 ba 3e 3e 5f c1 3e f4 87 c5 3e ab 3a c5 3e
       0.36369485 0.37767977 0.38580287 0.38521323
0001e0 36 05 c0 3e 5c ec b2 3e 3a 1a b3 3e 9c dd aa 3e
       0.37503976 0.34945953 0.34980947 0.333722
0001f0 6c 20 ab 3e f2 86 b6 3e 02 61 f6 3e 55 91 03 3f
       0.33423173 0.3564983 0.48120886 0.51393634
000200 62 27 02 3f 52 4f 02 3f 2c 1a e6 3e 91 c2 e7 3e
       0.50841343 0.50902283 0.44941843 0.4526563
000210 4f 63 d0 3e 63 50 be 3e 8a 38 be 3e 0f e7 bf 3e
       0.40700766 0.37170705 0.3715251 0.3748097
000220 18 f6 c6 3e fe 41 c7 3e 98 a7 c4 3e e2 4a c1 3e
       0.3885963 0.38917536 0.38409114 0.37752444
000230 83 99 af 3e a1 c1 ac 3e aa b6 a1 3e bc 20 b3 3e
       0.34296808 0.33741477 0.31584674 0.34985912
000240 7e 5d f2 3e 8d 44 05 3f b3 d1 02 3f 2c e8 01 3f
       0.47336954 0.52057725 0.51101226 0.5074489
000250 26 ae e4 3e b9 8c e8 3e a8 fa cd 3e a3 7a c2 3e
       0.44664115 0.45419863 0.40230298 0.3798419
000260 08 c1 c0 3e aa 30 c4 3e 97 e4 c9 3e 89 fe c0 3e
       0.3764727 0.38318378 0.39432213 0.37694195
000270 9f b8 c7 3e d0 b2 c1 3e 0b e2 b8 3e 5d eb af 3e
       0.39008042 0.37831736 0.36109957 0.34359255
000280 b6 d7 ab 3e 1f 88 b8 3e a6 46 f4 3e 8c 95 04 3f
       0.33563012 0.36041352 0.4771015 0.5179069
000290 be 64 01 3f c2 ce 01 3f 07 1c e9 3e f3 0f e6 3e
       0.50544345 0.5070611 0.45529196 0.44934043
0002a0 af 95 cb 3e b8 21 c0 3e e9 91 c4 3e 36 8a ba 3e
       0.39762637 0.37525725 0.3839257 0.36433572
0002b0 39 ee c9 3e 90 32 b6 3e 5b 05 c2 3e c6 e8 bf 3e
       0.39439562 0.3558545 0.3789471 0.3748228
0002c0 23 7c b7 3e ab 96 a7 3e d7 26 a1 3e c2 c6 c1 3e
       0.35836896 0.32732138 0.31474945 0.37846953
0002d0 f6 84 f4 3e 26 84 04 3f c7 81 01 3f 6a 87 01 3f
       0.4775769 0.5176414 0.5058865 0.5059725
0002e0 76 76 e7 3e 76 27 e6 3e b2 60 d0 3e 07 05 c0 3e
       0.45207566 0.4495198 0.40698773 0.37503836
0002f0 b7 e2 bd 3e 5a 72 c3 3e 00 cf c6 3e 69 59 bc 3e
       0.37087032 0.3817318 0.38829803 0.36786965
000300 ec 0a c8 3e 3b 8e c0 3e 84 c3 b2 3e 70 1c a9 3e
       0.39070833 0.37608513 0.34914792 0.3302951
000310 da b3 a0 3e 34 84 bd 3e 45 9b f5 3e 65 19 04 3f
       0.31387216 0.37014925 0.47970024 0.5160125
000320 c3 b7 01 3f 9a 1c 02 3f 84 4b e7 3e 00 c8 e7 3e
       0.50671023 0.5082489 0.451748 0.45269775
000330 90 2d c9 3e b3 55 bc 3e c3 ec b5 3e ec 04 c4 3e
       0.39292574 0.36784133 0.35532197 0.38285005
000340 af a8 c9 3e 3c 2b c5 3e 52 33 be 3e e0 24 b8 3e
       0.39386508 0.38509548 0.3714853 0.35965633
000350 cc a0 ab 3e f0 32 a9 3e f4 9d a8 3e 93 24 b7 3e
       0.33521116 0.33046675 0.3293301 0.3577009
000360 bc a4 f5 3e d0 69 02 3f 43 3b 03 3f 07 5f 02 3f
       0.47977245 0.5094271 0.512623 0.5092625
000370 d8 c2 e3 3e 28 3f e5 3e 50 e6 d0 3e 99 18 c7 3e
       0.4448459 0.44774747 0.40800714 0.38885954
000380 eb 8e ba 3e 45 85 b2 3e 13 34 c7 3e 86 1b bb 3e
       0.36437163 0.34867302 0.38906917 0.36544436
000390 c0 1b c9 3e 33 be c8 3e 04 f5 aa 3e e3 13 b4 3e
       0.39278984 0.3920761 0.33390057 0.35171422
0003a0 8b 7c ae 3e ee ce b5 3e d5 ed f0 3e bc 7a 04 3f
       0.34079394 0.35509437 0.4705645 0.5174978
0003b0 68 03 01 3f 77 63 02 3f a8 11 e6 3e ca 9c e6 3e
       0.5039582 0.5093302 0.44935346 0.45041496
0003c0 10 ee c7 3e c3 64 bb 3e df 34 c0 3e f7 ee c6 3e
       0.39048815 0.36600313 0.37540337 0.3885419
0003d0 f5 15 cb 3e 27 62 ba 3e a0 d6 be 3e 34 db c6 3e
       0.3966519 0.3640301 0.3727312 0.38839114
0003e0 58 1c b1 3e 49 22 b0 3e 52 98 a6 3e 10 a8 b1 3e
       0.34591937 0.34401157 0.32538086 0.34698534
0003f0 8b 0e f3 3e 58 f4 03 3f d8 a6 02 3f 68 26 02 3f
       0.47472033 0.51544714 0.51035833 0.50839853
