tests/test_data_path/og_processed/dimer_ap3_train_spec_7_307.pt (torch, 411922 bytes, 17 tensors)

y f4 [16, 4]
00000000: c1cf 4b3e b8b0 2b3e 0160 78bd 2b49 71bf
00000010: aa51 3c40 a732 aa3d 54f8 8bbe 6bc1 6abf
00000020: de20 dfbd ba82 4b3b 3ba6 9bbc 4fc6 64be
00000030: 04e1 84bf a149 0741 7c0b a8bf 2a78 8bc0
00000040: 2835 6dbf a163 b13f 2b15 1abf e735 1dc0
00000050: 9740 b7be 6c9d 9b3e 834f e2bd 28cc 86bf
00000060: 5db3 50bd 51ae b73a 01c4 0bbd e17b 99be
00000070: c672 6f3f fe3d a73d 6e86 7cbd 2af8 2abf
00000080: 007e 6abf 52a0 9a3e ad11 81be 7a3d e5bf
00000090: bbee 40bf 2b06 a940 748f 6bbf 0183 3ac0
000000a0: e313 853e fc4d d73e d631 58be 6027 c7bf
000000b0: aa30 263f d51c 883e 05cb f7bd 85e4 9ebf
000000c0: 701d eb3e 50ac ee3c 0710 11bd ca7a adbe
000000d0: f4c8 57be 1468 a43b 778a bebc 3257 bbbe
000000e0: 5e33 903f 25f1 083e 10de f9bd 771c 42bf
000000f0: df81 f5c0 c90a c441 b6db 5fc0 00b8 f7c0
0.1990347 0.16766632 -0.06063843 -0.9425227 2.9424844 0.083104424 -0.27337897 -0.9170138
-0.10894941 0.003105326 -0.019000163 -0.22341274 -1.0381169 8.455476 -1.3128505 -4.3584185
-0.92659235 1.3858529 -0.6018855 -2.456415 -0.35791466 0.3039354 -0.11050322 -1.0531054
-0.050952304 0.0014013742 -0.03412247 -0.29977325 0.93534505 0.08166121 -0.06165164 -0.6678492
-0.9159851 0.3020044 -0.25208798 -1.7909386 -0.75364274 5.282003 -0.9201577 -2.9142458
0.25991735 0.42051685 -0.21112761 -1.5558891 0.64918005 0.26584497 -0.1209927 -1.2413489
0.45920897 0.0291349 -0.035415675 -0.33882743 -0.21072751 0.00501729 -0.023259385 -0.36589962
1.1265676 0.1337324 -0.12200558 -0.75824684 -7.6721034 24.505266 -3.497785 -7.741211

RA f4 [416, 3]
00000000: 9885 b0bf a629 80bf f4fd 2d40 a0e1 69bf
00000010: 7eff 66bd 09a8 d43f 376e c1bf d509 863f
00000020: 3143 b93f ccb8 8b3f baba cdbf 76c6 9b3f
00000030: b515 5b3e c576 afbe f8a7 603f b422 623f
00000040: 0ce8 013f 4242 143d 16da b93d 5b40 043f
00000050: a8c4 b5bf d1c9 dabe ca4f 0abf f2ee f2bf
00000060: 47e4 0c40 d2aa 163b f9bf c3bd 8acc 0740
00000070: 546f bdbf 9293 a93d 8385 333e f9f4 e23f
00000080: d9b3 03c0 d504 09bf f54b 0040 111a 56c0
00000090: e82d 0abf 21ca 99bf 971a 5f40 54fc 0ac0
000000a0: 5d15 0cbf 6550 4d40 f069 cabf 1dae 00c0
000000b0: a7e8 1440 6092 be3f 7d3c cebf 25e9 0d40
000000c0: 0211 e23e 7c2b 21c0 f2b4 883f b2f4 413f
000000d0: 0800 c63f d2e4 ba3e 0c79 2d40 d05f 983e
000000e0: 37c7 8bbf 166a 3440 15a8 f53e 9142 2d3f
000000f0: 567d 4240 cb4a fbbf 47b0 e13e 9b21 e13f
00000100: 302a ffbf f432 52bf 3f53 1f3f 8fde 2040
00000110: a06d c5bf e3c7 283e fa60 1b40 c3f1 80c0
00000120: 7a89 69bf 3b8c 6d3f 2f16 6ac0 7dec a8bf
00000130: 7e53 2a40 6ee0 4bc0 47ff abbf 6bb7 83bf
00000140: 90bd 2840 7ac8 74bf 39d1 aebd d940 cc3f
00000150: 7287 bfbf 2880 823f 78b3 b83f a7ad 8b3f
00000160: 68b0 c7bf 46cf 8b3f 9030 6c3e ec18 afbe
00000170: 6077 7a3f cba1 593f eca0 063f fa26 0dbd
00000180: 9b02 393e 7827 1b3f 4758 aebf 35f0 b3be
00000190: cb86 edbe 986b e5bf 0b7e 0d40 6d37 41bc
000001a0: 1dca b0bd d482 0b40 7e56 bbbf d140 ac3c
000001b0: f8a6 e93d 6c25 d43f 2009 01c0 b796 f1be
000001c0: 77a3 f73f 658f 55c0 7993 0bbf 00ab 97bf
000001d0: 172a 6340 e220 0fc0 3f1c 18bf 793d 4a40
000001e0: fc39 d1bf 13d6 02c0 2507 1340 d960 bb3f
000001f0: 05a7 c8bf c2da 0a40 96b4 ea3e 5b0a 24c0
00000200: 09c1 8e3f c973 413f fca9 c73f a851 d03e
00000210: 0abe 2e40 f06e 8d3e fe0a 8bbf bddf 3640
00000220: 36cd fb3e 8cbe 323f 2db5 4440 46d0 febf
00000230: 01f6 c13e 187d eb3f f644 f9bf 9773 51bf
00000240: 54fc 1b3f bf65 1d40 cf87 bdbf 6685 523e
00000250: 823b 1a40 0bb5 82c0 bebe 52bf b29f 813f
00000260: d6c9 67c0 a661 acbf ab05 2a40 b37d 4dc0
00000270: c39d b1bf a032 82bf 581d 2d40 302f 6cbf
00000280: 9564 5dbd 0343 d23f bbf2 bfbf 8cbf 7d3f
00000290: 74ef b33f 3066 853f 71e3 cabf 2634 933f
000002a0: 5c71 413e 1aa6 d6be 5f7c 653f bc90 5e3f
000002b0: cd21 0d3f 5531 953d fc51 043e 03cd 073f
000002c0: aef3 b3bf 6f10 cdbe b6f2 f2be 45d5 edbf
000002d0: 1dcc 1040 38d9 463d 7f31 dbbd 3c84 0940
000002e0: 116e b8bf e927 9c3d e8fa 4e3e 7de7 dd3f
000002f0: 7ee3 04c0 f6d1 01bf 1f14 fc3f 2ae6 52c0
00000300: 99d6 12bf 5a82 96bf ccb6 5e40 bd8b 0ec0
00000310: 16a4 15bf a0dd 4e40 f2b2 cebf e047 03c0
00000320: be12 1740 0cae bf3f 2272 c8bf c6c0 0e40
00000330: 317b d13e 64af 21c0 f7cd 793f 28d5 423f
00000340: aaf2 c73f 2f14 d03e 3942 2f40 a986 a53e
00000350: ea05 8bbf 00ff 3640 6151 f13e 166c 373f
00000360: 69fe 4140 2e00 f9bf f911 cf3e 855c e33f
00000370: 749b f4bf 98a5 59bf bd8b 133f 4087 1f40
00000380: c24b c2bf 9772 2e3e 0dfd 1740 7e7d 81c0
00000390: d80c 68bf b66a 813f 4c6b 6cc0 651b a4bf
000003a0: d68d 2a40 8109 50c0 c809 b5bf bd72 83bf
000003b0: 459c 2f40 0f9a 65bf e738 37bd 99d3 d33f
000003c0: ace6 c3bf efa9 823f d784 b63f 17f4 8a3f
000003d0: d8f3 cbbf 25ad 903f 54ff 403e 2b4f c8be
000003e0: d3f7 6e3f 3b53 543f 295c 0b3f e63f 24bc
000003f0: bede 3d3e 5bed 093f 63ed adbf ee05 d6be
-1.379077 -1.001271 2.718625 -0.913599 -0.056396 1.661378 -1.511176 1.047175
1.447363 1.091577 -1.607261 1.216994 0.21395 -0.342703 0.877563 0.883342
0.507447 0.036196 0.090748 0.516607 -1.420064 -0.427321 -0.54028 -1.897917
2.201433 0.002299 -0.095581 2.121859 -1.47996 0.082801 0.175314 1.773101
-2.057852 -0.53523 2.004636 -3.345341 -0.539763 -1.201481 3.485998 -2.171651
-0.547201 3.208032 -1.581358 -2.010627 2.3267 1.488842 -1.611221 2.217355
0.441536 -2.518279 1.068022 0.75764 1.546876 0.365027 2.710513 0.297606
-1.092017 2.818975 0.479798 0.676797 3.0389 -1.96322 0.440798 1.758838
-1.993475 -0.82109 0.622364 2.513584 -1.542408 0.164825 2.427794 -4.029512
-0.912254 0.927921 -3.657604 -1.319717 2.661346 -3.185573 -1.343728 -1.029035
2.63657 -0.956184 -0.08536 1.595729 -1.496321 1.019536 1.442977 1.091237
-1.560071 1.092263 0.230654 -0.341987 0.978384 0.850125 0.525893 -0.034461
0.180674 0.606071 -1.362069 -0.351442 -0.463919 -1.792346 2.210818 -0.011793
-0.086323 2.17986 -1.463577 0.021027 0.114088 1.657392 -2.016182 -0.471853
1.934676 -3.336877 -0.545219 -1.184906 3.549444 -2.236382 -0.594181 3.160002
-1.634582 -2.044316 2.297311 1.463893 -1.567597 2.169602 0.458409 -2.563132
1.115266 0.755673 1.559875 0.406873 2.730349 0.276237 -1.086273 2.857406
0.4918 0.69822 3.073558 -1.990731 0.37883 1.839755 -1.947417 -0.81817
0.609319 2.459335 -1.480707 0.205587 2.409882 -4.0846 -0.823223 1.012686
-3.621694 -1.34673 2.656596 -3.210797 -1.387627 -1.01717 2.704916 -0.922595
-0.054051 1.64267 -1.499595 0.991204 1.405745 1.042181 -1.585066 1.150029
0.188909 -0.419236 0.896429 0.869396 0.551297 0.072848 0.129219 0.530472
-1.405874 -0.400516 -0.474508 -1.858071 2.262458 0.048547 -0.107028 2.148696
-1.440859 0.076248 0.202129 1.733627 -2.076385 -0.50711 1.969364 -3.295298
-0.573587 -1.175853 3.479907 -2.227279 -0.584535 3.232277 -1.614836 -2.051262
2.360519 1.497499 -1.565983 2.230516 0.409143 -2.52633 0.975799 0.761065
1.562093 0.406404 2.738417 0.323293 -1.086118 2.859314 0.471324 0.716493
3.031153 -1.945318 0.404434 1.776261 -1.910994 -0.850183 0.576351 2.49263
-1.517937 0.170359 2.37482 -4.046569 -0.906446 1.011069 -3.694049 -1.282086
2.664907 -3.25058 -1.414361 -1.026939 2.743913 -0.896882 -0.044732 1.654895
-1.530477 1.020811 1.425929 1.085574 -1.593379 1.130284 0.188474 -0.391229
0.933469 0.829395 0.544375 -0.010025 0.18542 0.538778 -1.358807 -0.418014

RB f4 [160, 3]
00000000: c25e c140 c9ae a43f d28b 67c0 3bb4 b240
00000010: 2062 1240 bfd7 7dc0 76e0 c940 ca15 5840
00000020: 7c26 8cc0 9a42 f540 34a1 4d40 13c5 88c0
00000030: 8cf8 8140 3d60 2140 d6aa 79c0 c6c3 bf40
00000040: 61ef 8840 ae64 89c0 ad14 f640 a242 1240
00000050: d8b9 78c0 30d8 6440 b0e5 dd3f e154 90c0
00000060: e5d1 7540 0953 6340 a28a 88c0 6346 6b40
00000070: 3c6a 1d40 7ac5 3bc0 8598 d3be 9d39 9a40
00000080: ec51 f43f 5707 003d 487b be40 6496 b73f
00000090: fda1 993c b77b df40 3f00 1340 35eb 60bf
000000a0: 3273 da40 2590 5b40 9b5a 523f e353 c240
000000b0: e1eb 4b3e 111e adbd c51a fd40 75b0 ec3f
000000c0: 3e94 94bf cfc8 bc40 b6f3 5140 e63d d23f
000000d0: 1cc4 a940 00e2 ce3d bdab 9e3f 54d7 e240
000000e0: 0dc1 b13d 0a81 2c3e c33a ba40 2977 1bbf
000000f0: 016c e540 618a f8bf e0db a4bf 20b8 fc40
00000100: c9c7 28c0 8a03 40bf f2e7 1441 6265 1ec0
00000110: a0c4 6fbf 203d 1b41 8c64 d1bf 3946 fabf
00000120: acbb f240 ca16 70c0 df53 813e 87d7 1e41
00000130: a1f3 4ec0 315c 6dbf d6d0 0b41 3e3f a6bf
00000140: d731 0dc0 7b79 df40 732f 56c0 5ddc 863f
00000150: 11ca 0741 6561 88c0 caa6 343f 55fb de40
00000160: 6821 90c0 45d7 85be f0c4 5840 471e 80be
00000170: e553 85c0 0262 9240 58e4 67be 29b4 88c0
00000180: 91f1 a940 cede d9be eb55 44c0 6492 9440
00000190: 3d9a a2be 5248 f4bf b622 ab40 8735 15bd
000001a0: 834d b3c0 188b c740 6d1a fb3d 93ab 3dc0
000001b0: a183 6b40 f870 49be 4a29 15c0 1bab 9f40
000001c0: 2b33 6dbf 75bb c7c0 d950 cd40 eb38 2ebe
000001d0: 59f8 abc0 8bdf a440 64cf 663f 632a bfc0
000001e0: 467b 4840 13ba 95bf 72de 56c0 b188 7f40
000001f0: 18cc b9bf 5341 87c0 aa47 6940 8ded b1bf
00000200: 0393 aec0 b476 1040 e57f 9ebf 9b74 b9c0
00000210: 580c ad40 fd85 e6bf c763 7bc0 024a 8540
00000220: 05c5 fdbf 6ba7 c5c0 9791 fe3f fbea 8cbf
00000230: 751e 9bc0 6a09 bb40 a54f 77bf 43ff 52c0
00000240: 7fbc c140 25ea f9bf c79d 99c0 0cc0 af40
00000250: 8c48 2ec0 8237 53c0 4afa c840 69e0 23bf
00000260: 2deb b23f 40b4 e840 5e2b 213d 525f d03f
00000270: 1a6d de40 7924 b63f eab0 fc3f 6a3f b440
00000280: 0f43 e73f 9df5 d53f 0fe4 0a41 5112 8abe
00000290: 4c53 da3f b1d0 f340 ebac 0540 ef91 d93f
000002a0: 102d a640 9ef0 663f dc49 b03f f130 0c41
000002b0: ee27 8fbf dde9 1a40 9425 1641 5b99 1c3f
000002c0: d272 0740 9aeb 0f41 05c1 1fbf 7cf2 503f
000002d0: 3be1 913f 7906 3840 5a65 aa40 dc64 b83f
000002e0: 944a 6340 082d c740 cc62 e23e 3466 8c40
000002f0: 2d7c d840 448a 49bf 2b7c 9040 ee05 c340
00000300: 465e 2e40 b1fc 6b40 b58a de40 38be 363f
00000310: fc8e aa40 af31 e840 315c 01bf 32e5 7040
00000320: af95 ab40 6f10 4740 ac57 2940 3b73 e640
00000330: fc1b 3640 d989 8c40 9b2f f940 9d9c 6340
00000340: 245f 8040 c38f c440 6a5a 8840 f834 10c0
00000350: bc49 9bc0 3f74 a740 f8c6 babf 3118 95c0
00000360: 16a4 ca40 2d94 cebf fe1a b1c0 ceec ca40
00000370: c72d 30c0 dbc3 cac0 159c ab40 9b72 bdbe
00000380: cf13 6bc0 85dd e940 dd0b b2bf 4167 a7c0
00000390: aec6 ad40 ccf0 49c0 b72a c5c0 c660 8f40
000003a0: f417 823e 054d 72c0 637a ca40 a8ab 833e
000003b0: b345 6fc0 9783 a940 61c3 4fbf ae7e 2dc0
000003c0: 76e2 c43f 2365 b13f 3ddf 8a40 6552 e33f
000003d0: 1973 2240 9763 9840 cff7 3f3f 21cc 5c40
000003e0: fdbb a140 7364 f5be 63d1 4240 8257 9140
000003f0: 8717 4d40 9fca 3f40 4bf2 a440 b5a6 513f
6.042817 1.286584 -3.617909 5.584501 2.287239 -3.966293 6.30865 3.37633
-4.379698 7.66438 3.212964 -4.274057 4.06159 2.521499 -3.901052 5.992648
4.279221 -4.29354 7.690024 2.285317 -3.886343 3.575695 1.733572 -4.510361
3.840936 3.551943 -4.266923 3.676171 2.459609 -2.933928 -0.413273 4.819533
1.90875 0.031257 5.952549 1.434277 0.018754 6.983852 2.29689 -0.878589
6.826562 3.430673 0.821695 6.07274 0.199142 -0.08453 7.909518 1.849135
-1.160774 5.899513 3.2805 1.642514 5.305189 0.101017 1.239616 7.088785
0.086794 0.168461 5.819673 -0.607287 7.169434 -1.941723 -1.28796 7.897476
-2.637194 -0.750054 9.306627 -2.474938 -0.936594 9.702423 -1.635881 -1.955268
7.585409 -3.751391 0.252593 9.927619 -3.23362 -0.927188 8.738485 -1.298805
-2.206167 6.983579 -3.346646 1.0536 8.486833 -4.261889 0.70567 6.96818
-4.504078 -0.261408 3.38702 -0.250231 -4.166491 4.574464 -0.226457 -4.271992
5.310738 -0.425528 -3.067744 4.64287 -0.317583 -1.908457 5.347987 -0.036428
-5.603212 6.235729 0.122609 -2.963597 3.679909 -0.19672 -2.330645 4.989637
-0.926562 -6.241633 6.416119 -0.170139 -5.374066 5.152288 0.901602 -5.973924
3.132524 -1.169741 -3.357327 3.992718 -1.451541 -4.226724 3.644999 -1.390062
-5.455446 2.257245 -1.238278 -5.795484 5.407757 -1.800964 -3.927965 4.165284
-1.982575 -6.176687 1.988818 -1.100921 -4.847468 5.844899 -0.966059 -3.29683
6.05426 -1.952458 -4.80051 5.492193 -2.723178 -3.300263 6.280553 -0.640143
1.397802 7.272003 0.039348 1.627909 6.950818 1.422988 1.974149 5.632741
1.806734 1.671558 8.680678 -0.269671 1.705667 7.619225 2.088679 1.699766
5.193001 0.902109 1.377254 8.761949 -1.118406 2.420524 9.384174 0.611715
2.116383 8.99502 -0.624039 0.8162 1.139686 2.875395 5.324872 1.440578
3.551427 6.224247 0.44216 4.387476 6.765158 -0.787266 4.515157 6.094474
2.724504 3.687298 6.954432 0.71384 5.329954 7.256065 -0.505313 3.763989
5.362022 3.110378 2.645976 7.201566 2.845458 4.391827 7.787061 3.556434
4.011614 6.142549 4.261037 -2.253233 -4.852751 5.23294 -1.459197 -4.659203
6.33253 -1.613897 -5.534545 6.341407 -2.752794 -6.336408 5.362803 -0.370015
-3.673084 7.308291 -1.390987 -5.231354 5.430503 -3.155322 -6.161464 4.480563
0.254089 -3.785951 6.32744 0.257169 -3.738629 5.297313 -0.811575 -2.710857
1.538161 1.385899 4.339751 1.775952 2.538275 4.762157 0.749875 3.449959
5.054198 -0.479282 3.04403 4.541932 3.204561 2.996742 5.154577 0.81895

qA f4 [416, 1]
00000000: 5647 22bf 6590 2e3f ca42 1cbf 602c cfbd
00000010: 8c84 91be 805d 52bd 3b70 1d3f fe31 0cbf
00000020: b060 77be 1888 86be 4acf 19bf 0818 3bbe
00000030: 3c8c 223e e270 693e 0c55 3f3e fcfe fb3d
00000040: cc2b df3d 40b0 ff3d 0c59 f83d 0ae8 013e
00000050: b6a7 033e 8ec8 1b3e 9aea b73e c492 f83d
00000060: 549b 203e 40d8 fb3d 024c 2abf d8c2 393f
00000070: ec10 1abf e09a 6bbd 9c28 95be 10e9 b9bd
00000080: cea9 293f 7a6a 24bf fc10 66be 044c 7dbe
00000090: f294 03bf c81a 46be 947c 193e 6e41 523e
000000a0: d695 493e 2887 aa3d 0488 c03d 60c4 ff3d
000000b0: 9c2d 023e f271 013e 2822 013e d691 213e
000000c0: d1e6 ad3e b449 003e e096 363e 4448 d73d
000000d0: c9e2 27bf 9456 333f 39b3 14bf 28ae 89bd
000000e0: deab 91be 2822 89bd c99f 263f f145 12bf
000000f0: 04a0 7fbe e210 89be 2173 13bf d052 1dbe
00000100: aac7 2b3e 06d4 583e 8874 3a3e 3843 b03d
00000110: dce0 cf3d f462 0b3e 70f7 073e b816 053e
00000120: d025 093e 80c9 0f3e df3e b33e 18c2 c43d
00000130: b444 123e 6020 e33d 36dc 15bf 26d4 2b3f
00000140: 9a50 1abf c0c7 5bbd eed0 94be e88d 86bd
00000150: 8885 193f 802f 1dbf d8e8 82be e263 8bbe
00000160: 02ff 0dbf d8ea 2ebe 94b9 253e b6c6 653e
00000170: 3e73 343e a81b b63d 804f c33d 4670 103e
00000180: 42a7 1b3e a4f1 ff3d c852 0d3e 1493 1a3e
00000190: 66f7 b03e b047 eb3d d042 313e 1ce1 db3d
000001a0: 00e4 29bf d786 313f ea14 0fbf 8079 7bbd
000001b0: 66cf 9fbe 6073 dabd 01c3 2c3f 62f0 07bf
000001c0: a05c 7cbe 1640 8cbe 0c86 14bf 9099 46be
000001d0: 5ec3 2c3e 46f9 513e 8a7a 413e 3874 a73d
000001e0: baa8 043e 0c3b 083e 4cf7 f83d b8f6 023e
000001f0: 72f2 0f3e e0cb 0d3e b5a0 b43e b8a3 b13d
00000200: cc1e 1f3e 368b 043e 7a93 29bf 4824 323f
00000210: 2cc5 10bf 00c6 c4bc 56ef 95be 208c a2bd
00000220: a900 293f dcbc 16bf 6461 77be e057 8fbe
00000230: bc29 0cbf f0c8 2ebe 4a0d 303e 7068 543e
00000240: 30aa 463e b88a a03d e89a ad3d c421 f13d
00000250: f636 083e 5a49 153e 34e9 063e 02d3 033e
00000260: 2e01 ae3e 28bf c53d ba96 273e 2010 d33d
00000270: c6ae 26bf 02dd 3a3f 4055 19bf 20c8 93bd
00000280: c497 b1be e0ed 66bd c0d9 213f a81b 1abf
00000290: 94b7 82be 603c 7ebe 1ed6 07bf 4088 40be
000002a0: 8c85 353e 347b 433e 7244 543e 385b a53d
000002b0: e07d ec3d ac37 113e f4e8 123e 8275 083e
000002c0: c8fb f23d 8c2f 083e e656 b33e e4a7 f13d
000002d0: 96dc 233e 4456 f03d 0199 24bf bf11 2c3f
000002e0: 27ff 24bf d005 79bd 6e4a 92be 087f 9ebd
000002f0: 0a14 283f e1dd 1abf fc5d 76be 64a3 8cbe
00000300: 21d8 05bf 4812 2abe 3ede 393e e257 5f3e
00000310: 3851 3a3e 0caa c53d 641d f13d 6891 053e
00000320: b6ed 063e 48b6 0e3e b4d2 143e 50ae 143e
00000330: bef8 ad3e b45b de3d 6e3c 1e3e a8e1 ce3d
00000340: 9e99 2fbf d2a8 3c3f f6fa 16bf 60d9 4ebd
00000350: 0293 abbe 90a9 b7bd 1e5e 303f 0cad 0abf
00000360: 0c8e 81be 1400 8ebe dc49 17bf 8055 17be
00000370: 40fe 433e 144f 403e 4c5d 2c3e a046 d23d
00000380: fe78 013e 84aa 103e ce28 093e e084 193e
00000390: 409c d73d 225e 1e3e a88b b23e 1c74 c33d
000003a0: 1cf3 f03d 183c e63d 43bc 28bf 74a5 3d3f
000003b0: bf18 1cbf 10a9 7ebd 3256 9dbe d0ca ddbd
000003c0: 3954 2d3f 5f71 08bf dcda 6cbe aa79 8bbe
000003d0: a704 25bf dc6b 35be ae92 263e 6c1b 6b3e
000003e0: 9227 1d3e e0db ad3d 0c8a f23d 5e0c 173e
000003f0: f6b3 083e eae2 013e 8efc 183e 8805 033e
-0.633901 0.6818908 -0.6103941 -0.10115886 -0.28421438 -0.0513587 0.61499375 -0.5476378
-0.24157977 -0.26275706 -0.60081923 -0.18270886 0.15873808 0.22796968 0.18684787 0.12304494
0.108970255 0.12484789 0.12126359 0.12686172 0.12856945 0.15213224 0.35921174 0.12137368
0.15684253 0.12297106 -0.6652223 0.7256293 -0.6018207 -0.057520747 -0.29132545 -0.09077656
0.66274726 -0.6422497 -0.22467417 -0.24736029 -0.5139915 -0.19346154 0.14988929 0.20532772
0.19686064 0.0832656 0.09400943 0.124886274 0.12712711 0.12641123 0.12610686 0.15778288
0.3396516 0.12528116 0.17830992 0.105118304 -0.6558042 0.7005398 -0.5808597 -0.06722671
-0.28451437 -0.06695968 0.6508756 -0.5713797 -0.24963385 -0.26770693 -0.5759755 -0.15363622
0.16775385 0.2117463 0.18208516 0.08606571 0.101503104 0.13611966 0.13277984 0.12996948
0.1339333 0.1404171 0.35008904 0.09607333 0.1428402 0.110901594 -0.5853914 0.6712059
-0.6027924 -0.053657293 -0.2906565 -0.06570035 0.5996938 -0.61400604 -0.2556827 -0.27224642
-0.55467236 -0.17081773 0.16184074 0.22439083 0.17622086 0.08891994 0.09536648 0.14105329
0.15200523 0.12497261 0.1380111 0.15095168 0.3456375 0.11488283 0.17310643 0.107362956
-0.66363525 0.69346374 -0.5589129 -0.06139517 -0.3121292 -0.10666537 0.6748505 -0.5310117
-0.24644709 -0.27392644 -0.5801704 -0.19394517 0.16871402 0.20505247 0.18894401 0.08176464
0.12954989 0.13303775 0.12156543 0.12789428 0.1405733 0.13847303 0.3527886 0.08673805
0.15539092 0.1294373 -0.66240656 0.6958661 -0.5655086 -0.024020195 -0.2928416 -0.07936883
0.6601663 -0.58881927 -0.24158245 -0.2799673 -0.5475118 -0.17068839 0.1719257 0.20742965
0.19400859 0.078389585 0.08476812 0.117740184 0.13302216 0.14578763 0.13174897 0.12873462
0.33985275 0.09655601 0.16366091 0.1030581 -0.65110433 0.7299348 -0.59895706 -0.07215905
-0.346861 -0.0563792 0.63222885 -0.6019845 -0.25530684 -0.24827719 -0.5306109 -0.18801975
0.17726725 0.19089967 0.20729235 0.08074039 0.11547446 0.14181393 0.14346677 0.13326076
0.1186443 0.13299388 0.35027236 0.11799601 0.16002116 0.11735204 -0.64295965 0.6721458
-0.6445183 -0.06079656 -0.2857241 -0.07739073 0.6565558 -0.6049481 -0.2405929 -0.27468407
-0.5228291 -0.16608536 0.18151185 0.21810868 0.18195045 0.096515745 0.11773184 0.1304375
0.13176617 0.13936722 0.14533502 0.1451962 0.33978838 0.10857335 0.1545274 0.10101634
-0.68593776 0.736951 -0.58976686 -0.050500274 -0.33510596 -0.08967888 0.6889361 -0.541703
-0.25303686 -0.27734435 -0.59097075 -0.1477871 0.19139957 0.18780166 0.16832465 0.10267377
0.12643811 0.14127547 0.13394472 0.14992094 0.10527849 0.15465596 0.34872174 0.095436305
0.117651194 0.11241931 -0.65912265 0.74080586 -0.6097526 -0.06217295 -0.30729824 -0.10829699
0.6770664 -0.5329799 -0.23130363 -0.2724126 -0.64460224 -0.17716926 0.16266891 0.2295968
0.15347126 0.084892035 0.118427366 0.14750811 0.133499 0.12684217 0.14940092 0.12795079

muA f4 [416, 3]
00000000: 403d fcbc 40f7 5d3c 006a 5cbb 20a3 7fbc
00000010: e8b9 283d a080 c9bc f88a 1fbd 983c 7f3d
00000020: 6080 b5bc c06d 55bc 2866 c63d e085 35bd
00000030: 2ca9 903d 6068 01bc b818 35bd 0004 ddbb
00000040: 7aa8 cebd 483b af3d 4827 46bd 207a a4bc
00000050: 98ea 8bbd 10ba edbc 0824 8bbd c003 dcbb
00000060: 2850 18bd d828 8ebd d0c4 8c3c 404f f4bc
00000070: 4676 8c3d 40e9 1e3c 44ee 8ebd 0084 493a
00000080: 5635 d9bd 96a9 8e3d 00be 88bc f783 083e
00000090: 001e 063d 8037 56bb 5033 ef3c 0015 fbbc
000000a0: f02e d13c 1060 843c e0e6 0fbc 20e5 19bd
000000b0: c0ae 9bbc 1035 f93c 8065 143c c861 5f3d
000000c0: e86b 0ebd 28c9 34bd e0aa a1bc 80c9 c7bb
000000d0: acb7 3d3d f0ad c33c f07d ac3c 00ef e63b
000000e0: 8065 4fbd 3048 9b3c f078 813c d02d 303d
000000f0: 3876 303d e009 8ebc 8067 d83c e054 e1bc
00000100: 0099 6bbc 58d2 2dbd a0ac 883c 10ef f83c
00000110: e023 6b3c d8b5 433d 2018 d23c 30a3 eebc
00000120: 60d9 79bc 40da 77bd c035 cabb f82f 24bd
00000130: 382f 173d d056 b23c 409a 9bbb 40e6 993b
00000140: e056 3abc 9093 84bc 0091 003d 00aa d0bc
00000150: e0bc 16bd 282a 853d 006c 40bc e05f 9cbc
00000160: 6483 d03d c064 72bd 3007 b63d 4095 11bc
00000170: ec17 a2bd c021 8dbb 1474 f7bd ecc1 c03d
00000180: d88d 52bd 789f 33bd 5864 89bd 108d d0bc
00000190: 48bd 13bd 40e7 dabb 549e 72bd 40eb 86bd
000001a0: 70b1 f53c d0d0 01bd 421f 8e3d 00a5 f33a
000001b0: b44a a9bd 00e9 973a 0561 1fbe d85c 903d
000001c0: b037 25bd 1601 143e 887e 143d 008a 87ba
000001d0: 50f2 253d 0090 0fbd d070 b83c 605a 893c
000001e0: 40d3 6cbc 18ba 19bd d03d 92bc 5077 983c
000001f0: a091 6b3c e8c2 573d c034 19bd 707a 53bd
00000200: 003f 7cbb c00b aabb 60c9 2f3d a079 eb3c
00000210: 40b8 923c 0030 3a3b a04a 4ebd 30da cb3c
00000220: 1015 993c c0b0 2b3d 68a9 203d 100e 9fbc
00000230: 0089 b53c 702d e4bc c04a 22bc 0839 14bd
00000240: 7093 8e3c e0c8 043d 0068 663c b8f2 2a3d
00000250: 70ae c43c 2017 1abd c0d5 50bc 18e3 56bd
00000260: 00a8 c439 c0cb 36bd f016 0a3d 6008 8e3c
00000270: 60e4 e4bc c055 593c 4091 35bc 8072 a0bc
00000280: b88f 183d 008f b7bc c0ea 22bd 9858 813d
00000290: 404b c3bc a0d7 aabc f80a c23d f831 3abd
000002a0: 266e b63d 009e 42bc 7801 53bd c0e5 9f3b
000002b0: dee9 cdbd 28bd d53d 50c8 4abd e05d bcbc
000002c0: 9808 9bbd 205b 15bd 48bc 73bd 00c7 b4bc
000002d0: b0cf 30bd 0813 62bd 8061 7a3c 7039 b9bc
000002e0: cc14 833d 60be 523c cc9a 97bd 0038 23bc
000002f0: faa1 f3bd 8c33 9f3d f0a2 d0bc dc66 1c3e
00000300: 281f 003d 00a2 c6ba 3051 f23c b010 08bd
00000310: f0ab bb3c 90e9 9c3c 801e 29bc 50c7 20bd
00000320: 00b4 86bc 90e0 f83c 207c 593c 1c2d 603d
00000330: b831 17bd 38f0 34bd 8010 a7bc 8019 82bb
00000340: 5c8d 623d 605d cf3c 60e2 a83c 4087 9a3b
00000350: 40f2 52bd 4028 993c 40a3 3f3c 080d 373d
00000360: 70c9 313d 103f 97bc f03c bb3c e0d4 e1bc
00000370: 40d4 1bbc 984b 27bd 60f7 4f3c 207d ef3c
00000380: a06f 703c d836 2e3d 80fb a23c 60d9 09bd
00000390: 9056 8ebc 101c 5ebd e038 56bc 605d 29bd
000003a0: 1849 163d a04e 243c a01f 22bd 0062 7a3c
000003b0: 00c2 c33a 5019 91bc 508e 293d d015 dabc
000003c0: 70f5 32bd 4e0b 8c3d e034 04bd 209a 58bc
000003d0: a6e1 ce3d 7832 80bd 6ce1 be3d 307e a6bc
000003e0: ec13 8abd 00ea 403a 6857 ddbd 2a14 cc3d
000003f0: 1868 51bd 08cf 06bd 2401 9dbd 60ba 00bd
-0.030790925 0.0135477185 -0.0033632517 -0.015602857 0.04119292 -0.024597466 -0.03895089 0.062313646
-0.02215594 -0.013026655 0.096874535 -0.044317126 0.07063517 -0.00789842 -0.044213027 -0.0067448616
-0.10090728 0.08556229 -0.048377305 -0.020077765 -0.068318546 -0.029019386 -0.06793982 -0.006714314
-0.037185818 -0.06941384 0.017183691 -0.029822946 0.06858496 0.009699166 -0.06979039 0.0007687211
-0.10605876 0.0696594 -0.016692162 0.1333159 0.032743454 -0.003268689 0.029199272 -0.030649662
0.025535077 0.016159087 -0.008783072 -0.037572026 -0.019004226 0.03042081 0.009057403 0.05453661
-0.034770876 -0.04413715 -0.0197348 -0.0060970187 0.04631774 0.02388665 0.021056145 0.007047534
-0.050633907 0.01895532 0.015804738 0.04301244 0.043081492 -0.017338693 0.02641654 -0.027506292
-0.01437974 -0.042436928 0.016683877 0.030387431 0.014351815 0.04778084 0.02564627 -0.029130548
-0.01524958 -0.060510874 -0.0061709583 -0.04008481 0.036910266 0.021769911 -0.0047486126 0.0046966374
-0.011373252 -0.016183645 0.031388283 -0.025471687 -0.03680122 0.06502181 -0.011744499 -0.019088686
0.10181311 -0.059178114 0.0888809 -0.008885682 -0.07914719 -0.004307002 -0.12082687 0.09411988
-0.051404804 -0.043853253 -0.06708592 -0.025457889 -0.036069185 -0.006680399 -0.059233025 -0.06587839
0.029991835 -0.03169328 0.06939556 0.0018588603 -0.082662016 0.0011589825 -0.15564354 0.070489585
-0.04033631 0.14453539 0.036253482 -0.001034081 0.04051429 -0.03504944 0.02251473 0.016766727
-0.014454663 -0.03753099 -0.01785174 0.01861158 0.014377981 0.05267611 -0.037403822 -0.051630437
-0.00384897 -0.005189389 0.042916656 0.028744519 0.017910123 0.0028409958 -0.050364137 0.024884313
0.018686801 0.04191661 0.03922406 -0.019415885 0.022160053 -0.027853698 -0.009905517 -0.0361872
0.017404288 0.03241813 0.0140628815 0.04173538 0.02400896 -0.03761971 -0.0127462745 -0.052462667
0.00037509203 -0.044627905 0.03371328 0.017337978 -0.027940929 0.013265073 -0.011081994 -0.019585848
0.037246436 -0.022407055 -0.039774656 0.06315726 -0.023839593 -0.020854771 0.094747484 -0.04545781
0.08907728 -0.01187849 -0.051515073 0.0048796833 -0.10054372 0.10436469 -0.04950744 -0.022993982
-0.075699985 -0.036463857 -0.05950573 -0.022067547 -0.043166816 -0.05519393 0.015282035 -0.022610396
0.06400451 0.012862772 -0.07402572 -0.009962082 -0.11896129 0.07773504 -0.02546832 0.15273613
0.031279713 -0.0015154481 0.029579729 -0.03321904 0.022909135 0.01915434 -0.010322213 -0.03925258
-0.016443253 0.030380517 0.013274223 0.05473052 -0.03691265 -0.044174403 -0.02039361 -0.003970325
0.055310592 0.02531308 0.020615757 0.00471583 -0.05150056 0.01869595 0.011696637 0.044690162
0.043404996 -0.018462688 0.022856206 -0.027567327 -0.009511054 -0.040843576 0.012693256 0.029234469
0.014675051 0.04253277 0.019895315 -0.03365457 -0.01737526 -0.05422598 -0.0130750835 -0.041348815
0.0366908 0.010028511 -0.03958094 0.015282154 0.0014935136 -0.017712265 0.041395485 -0.02662173
-0.0436911 0.06838094 -0.032276988 -0.01322034 0.10101633 -0.06259626 0.093203396 -0.020323843
-0.06742081 0.00073590875 -0.10807687 0.099647835 -0.051124662 -0.032912284 -0.07666233 -0.03142774

quadA f4 [416, 3, 3]
00000000: 8f46 103d a0ef f03b 58ef 023d a0ef f03b
00000010: 5a3d fbbc 4ca4 0e3d 58ef 023d 4ca4 0e3d
00000020: 083f 95bb 800c 08bb 345d 6b3d 0433 bf3d
00000030: 345d 6b3d 10bb d6bc aefb 8b3d 0433 bf3d
00000040: aefb 8b3d a8bc e73c 90b1 e6bb 00cb 213b
00000050: f697 9d3d 00cb 213b 10a3 f13b f8b8 303d
00000060: f697 9d3d f8b8 303d 0015 afb9 367e b8bb
00000070: a029 53bd c003 6d3d a029 53bd b5e3 663d
00000080: 5089 023c c003 6d3d 5089 023c efd3 4fbd
00000090: d074 26bc 309a a1bc 3459 3b3d 309a a1bc
000000a0: 80d9 bb3b 60c4 d83c 3459 3b3d 60c4 d83c
000000b0: 2010 913b 9498 e8bc 6c91 2f3d 7871 a5bc
000000c0: 6c91 2f3d aa51 343d e86a 9d3c 7871 a5bc
000000d0: e86a 9d3c c40a 80bc 5428 d03d f484 b3bd
000000e0: 3459 95bd f484 b3bd 74e5 e9bd d06b f5bc
000000f0: 3459 95bd d06b f5bc 00e9 4d3c 7f6a 563d
00000100: 4085 32bc 18c3 fdbc 4085 32bc 8262 a3bc
00000110: 30c6 993c 18c3 fdbc 30c6 993c 3db9 04bd
00000120: 002b 1b3a f005 073d 0055 073c f005 073d
00000130: 38ec 6bbd 40c0 743c 0055 073c 40c0 743c
00000140: 8c7f 693d f906 353d 8084 b63c 68d6 053d
00000150: 8084 b63c df52 60bd 08a6 c1bc 68d6 053d
00000160: 08a6 c1bc 942f 2d3c e0ef f7bb 20ac 9e3b
00000170: 801a cc3a 20ac 9e3b e8c7 ea3c 0058 403c
00000180: 801a cc3a 0058 403c f0cb acbc ecf8 c9bb
00000190: 7029 70bc 2007 183d 7029 70bc aa90 16bd
000001a0: a03b 73bc 2007 183d a03b 73bc c6cf 2f3d
000001b0: 2b6f 55bb 405c a83b 60c7 cbbb 405c a83b
000001c0: aa75 913b 0078 823a 60c7 cbbb 0078 823a
000001d0: 56f8 9aba abda 86bb 80e6 623b c09d 1f3b
000001e0: 80e6 623b ab3d 313b 0007 83bb c09d 1f3b
000001f0: 0007 83bb 55ef b83a abc0 693a 0074 17b9
00000200: 0064 b9b9 0074 17b9 ab0b d1bb 603d 88bb
00000210: 0064 b9b9 603d 88bb 95d3 b33b 56ff b239
00000220: 00f9 efbb a01c 80bb 00f9 efbb cbed 293c
00000230: 0032 06ba a01c 80bb 0032 06ba c585 2fbc
00000240: cbac 9f3b 007d 89bc 803f 753b 007d 89bc
00000250: a806 16b9 00ee b339 803f 753b 00ee b339
00000260: 95fc 9abb 75c9 a63b 00ef c53b 40a2 33bb
00000270: 00ef c53b 9521 69bc c0d3 ffbb 40a2 33bb
00000280: c0d3 ffbb dbbc 153c 5880 bc3a e0c6 96bb
00000290: 703f 1b3c e0c6 96bb 9b02 023c 00fd d63a
000002a0: 703f 1b3c 00fd d63a a592 19bc 00df ceba
000002b0: 40d9 ebbb 40be 10bc 40d9 ebbb 2022 d63b
000002c0: 0028 9fbb 40be 10bc 0028 9fbb 606a a2bb
000002d0: 1b96 08bc 8043 2d3c 6033 8dbb 8043 2d3c
000002e0: d456 463b 0041 bdba 6033 8dbb 0041 bdba
000002f0: ca00 ae3b 0b8a 903b 009e af39 e0fe 80bb
00000300: 009e af39 2c1b 863a 60a8 c3bb e0fe 80bb
00000310: 60a8 c3bb d510 b2bb 8afb cfbb 8069 cb3a
00000320: a0b7 e93b 8069 cb3a ec40 5d3b 80d3 f5bb
00000330: a0b7 e93b 80d3 f5bb 2cb6 423b aac9 03bb
00000340: 001d 2bbb d046 443c 001d 2bbb 35cf cbbb
00000350: 008a c8ba d046 443c 008a c8ba 06da 063c
00000360: a8c8 473a 0000 9e35 a0f4 f03b 0000 9e35
00000370: cb7f fabb 00e0 e43a a0f4 f03b 00e0 e43a
00000380: b586 e13b 4b96 83bb 00ce cc3a 6005 023c
00000390: 00ce cc3a 16e1 01bc 0087 343a 6005 023c
000003a0: 0087 343a 3aac 433c f0e7 9d3b 0030 d73c
000003b0: f4d3 4c3d 0030 d73c 3847 21bc 50ee 983c
000003c0: f4d3 4c3d 50ee 983c 90a6 a43b 10bc 78bc
000003d0: 341a 8b3d bad4 bb3d 341a 8b3d a8e5 ddbc
000003e0: ec82 983d bad4 bb3d ec82 983d d821 2d3d
000003f0: 807c 51bc 70c6 863c 7a8f 8f3d 70c6 863c
0.03522354 0.0073527843 0.031966537 0.0073527843 -0.030668903 0.034824654 0.031966537 0.034824654
-0.004554633 -0.0020759404 0.057461932 0.09335902 0.057461932 -0.026212245 0.068351135 0.09335902
0.068351135 0.0282882 -0.00704021 0.0024687648 0.07695 0.0024687648 0.007374175 0.04314515
0.07695 0.04314515 -0.00033394247 -0.00563028 -0.05155337 0.057864904 -0.05155337 0.056369502
0.007967308 0.057864904 0.007967308 -0.050739225 -0.010159686 -0.019726843 0.045739368 -0.019726843
0.005732715 0.026460826 0.045739368 0.026460826 0.004426971 -0.028393067 0.042863294 -0.020195708
0.042863294 0.044023193 0.019216016 -0.020195708 0.019216016 -0.015630133 0.10163942 -0.08765593
-0.07292405 -0.08765593 -0.11420718 -0.029958636 -0.07292405 -0.029958636 0.012567759 0.052347656
-0.010896027 -0.030976817 -0.010896027 -0.019944433 0.018771261 -0.030976817 0.018771261 -0.03240322
0.0005919188 0.032964647 0.008260012 0.032964647 -0.057598323 0.014938414 0.008260012 0.014938414
0.057006404 0.044196103 0.022279978 0.032675177 0.022279978 -0.054766532 -0.02363874 0.032675177
-0.02363874 0.010570426 -0.007566437 0.0048422962 0.0015571862 0.0048422962 0.028659776 0.011739731
0.0015571862 0.011739731 -0.021093339 -0.006163707 -0.014658317 0.03711617 -0.014658317 -0.036759056
-0.014845759 0.03711617 -0.014845759 0.042922758 -0.0032567482 0.00513795 -0.0062188357 0.00513795
0.0044390755 0.0009953976 -0.0062188357 0.0009953976 -0.0011823277 -0.0041154227 0.0034622252 0.00243555
0.0034622252 0.0027044814 -0.003998637 0.00243555 -0.003998637 0.0014109412 0.00089169544 -0.00014443696
-0.00035360456 -0.00014443696 -0.0063795648 -0.004157707 -0.00035360456 -0.004157707 0.005487869 0.00034141046
-0.0073233843 -0.0039096624 -0.0073233843 0.010371636 -0.0005119145 -0.0039096624 -0.0005119145 -0.0107130455
0.0048728934 -0.016783237 0.0037421882 -0.016783237 -0.00014307594 0.00034318864 0.0037421882 0.00034318864
-0.004729817 0.0050899335 0.006040454 -0.002740994 0.006040454 -0.014229198 -0.007807225 -0.002740994
-0.007807225 0.009139265 0.0014381511 -0.0046013445 0.009475574 -0.0046013445 0.0079351915 0.0016402304
0.009475574 0.0016402304 -0.009373342 -0.0015783012 -0.007197529 -0.008834422 -0.007197529 0.0065348297
-0.0048570633 -0.008834422 -0.0048570633 -0.0049565285 -0.008336569 0.010575175 -0.004309103 0.010575175
0.0030264156 -0.0014438927 -0.004309103 -0.0014438927 0.0053101527 0.0044109873 0.0003349632 -0.0039366335
0.0003349632 0.0010231487 -0.0059709996 -0.0039366335 -0.0059709996 -0.0054341354 -0.0063471245 0.0015519112
0.0071324855 0.0015519112 0.003376062 -0.0075020194 0.0071324855 -0.0075020194 0.0029710634 -0.0020109215
-0.0026109815 0.011979774 -0.0026109815 -0.0062197694 -0.0015299916 0.011979774 -0.0015299916 0.008230692
0.00076211477 1.1771917e-06 0.0073533803 1.1771917e-06 -0.0076446286 0.0017461777 0.0073533803 0.0017461777
0.0068825134 -0.004015719 0.0015625358 0.007935852 0.0015625358 -0.0079272 0.00068865716 0.007935852
0.00068865716 0.0119429175 0.004818909 0.026268005 0.05000682 0.026268005 -0.00984364 0.018668324
0.05000682 0.018668324 0.0050247386 -0.015181556 0.06792107 0.09171434 0.06792107 -0.027087048
0.07446846 0.09171434 0.07446846 0.042268604 -0.012786031 0.016452044 0.07009788 0.016452044

hfvrA f4 [416, 1]
00000000: a61c 963f d85f 273f bd5d 983f 98d1 733f
00000010: a0d2 843f 0cc8 673f ba36 2c3f eb11 953f
00000020: bca5 7d3f 7f08 803f 0a46 9b3f 2c34 783f
00000030: 9ee5 b53e 20eb 743e f68a 9f3e 7ec8 af3e
00000040: aa5e bc3e b216 ae3e 7cda c43e 98e4 b23e
00000050: dc76 af3e dc1e a53e e4a4 3f3e 2e76 a83e
00000060: 706e c33e 0681 a23e 078c 9c3f 6cba 1c3f
00000070: 3a9f 963f feb0 733f ff67 843f 3149 6d3f
00000080: ff8b 1f3f ce45 9a3f dec5 7f3f 84b0 773f
00000090: 4e13 933f 7112 7c3f a07c d13e 98ec 9b3e
000000a0: b26f 9c3e c427 d03e 6218 d83e 8e61 b63e
000000b0: 10f2 c23e 5483 bc3e 74bc b13e 6af3 943e
000000c0: 2855 7f3e fe22 bb3e be4b 8b3e c4ce cd3e
000000d0: a80f 993f 5d69 203f 028c 943f a8b7 723f
000000e0: 4c07 843f 41a7 6e3f e33d 253f d5d4 923f
000000f0: 94f4 7f3f c2fc 7e3f 99fa 963f a05b 733f
00000100: 6884 ae3e 1276 8c3e de7e a13e d419 d63e
00000110: b84f c13e 04bb a83e 5ac1 b33e 0288 b03e
00000120: 3af5 a43e ea4a aa3e 84a0 443e f6d7 ba3e
00000130: 3aa9 b13e debf a93e b744 903f cc0d 273f
00000140: 9dc9 973f 90c2 6d3f 8173 843f 2520 6a3f
00000150: 12d6 283f 5e70 9a3f 288b 833f 02d6 823f
00000160: c76f 963f ca95 753f b83a c13e d4ff 4d3e
00000170: c8e1 a73e 065d c33e 3a52 c73e 2e23 9d3e
00000180: 009c a73e 70bb cb3e b495 b03e 527e aa3e
00000190: e859 533e acfc b43e a406 943e 4ecd c53e
000001a0: 4d26 993f 2149 233f 779d 913f 13a3 6e3f
000001b0: 4818 893f dde4 713f 5065 1e3f 03b8 8b3f
000001c0: 7434 813f 26c3 803f 4fe6 973f 8467 823f
000001d0: 34f1 ab3e ecc1 903e 403f 983e a0af cb3e
000001e0: b412 a93e 9262 a83e 96cc cb3e ccae b43e
000001f0: 0a28 9c3e c699 aa3e 0869 4b3e a802 ed3e
00000200: 0edf b13e b406 a63e d3d2 983f b2f2 223f
00000210: aeaa 933f 3a18 673f 434b 843f 3d57 753f
00000220: 4953 243f a0dc 943f a123 7c3f 0bfe 823f
00000230: 2886 963f c969 7b3f 7eae aa3e 503d 933e
00000240: 206e 963e 34bd bd3e d697 b93e aec2 cc3e
00000250: e66c b23e 40fc 9a3e 661b ac3e 96f0 bf3e
00000260: b237 823e b8e8 d53e 6425 9d3e 2291 bb3e
00000270: 0f9f 953f 9ec0 1d3f aa43 963f 9135 6c3f
00000280: c042 8a3f 9cbf 683f 0889 273f ccec 993f
00000290: 0ad1 813f 9b09 7f3f 47bb 943f 46dd 7e3f
000002a0: 6c07 a63e a204 9c3e 9ccf 7c3e da5e cf3e
000002b0: 5ed1 b43e 1e11 923e 2ede ad3e c67e b23e
000002c0: 22b4 bc3e caab b13e 742e 593e 0019 bf3e
000002d0: d43f ab3e d42d b53e 48ae 963f 78c9 243f
000002e0: aa69 9a3f 29c8 6c3f 835e 853f e55b 723f
000002f0: 98ad 243f ccec 973f 32a3 813f 60f9 833f
00000300: 097e 933f 40a4 763f 8c6a a63e ee58 953e
00000310: f26a a83e 1e0f c03e cce0 af3e 3432 b53e
00000320: 48e2 be3e 9c99 b03e 96e1 a03e d49d b83e
00000330: d027 743e 182d b23e 34e8 a63e 98d8 d23e
00000340: 9ebe 9d3f 32b6 193f b098 943f 5280 653f
00000350: 0987 893f 2623 733f 06aa 1c3f a4fc 8b3f
00000360: b148 803f 72e2 843f 7012 993f 15b0 713f
00000370: c03e 963e 08d0 ae3e d603 b53e 8a5c ad3e
00000380: b0bb 9e3e d294 9f3e d8ee b13e e801 9b3e
00000390: 723b ce3e 8ed8 a43e 0ceb 563e 7637 bd3e
000003a0: 9819 b23e a81d a13e d964 9c3f 3856 193f
000003b0: 7bb1 953f 8965 6e3f 7e3f 853f a9ae 743f
000003c0: 83d0 203f 0ec4 8a3f 67ce 7c3f dfa4 813f
000003d0: 0432 9c3f 83ad 783f 3cc8 bd3e 3260 823e
000003e0: 04fb cf3e 88c7 c03e 58af b03e 7687 a33e
000003f0: 8860 b03e fea9 b23e 10f2 963e de71 c63e
1.1727493 0.6538062 1.1903607 0.9524169 1.0376778 0.9053962 0.67271006 1.1646093
0.99081016 1.0002593 1.2130749 0.9695461 0.35526747 0.23917818 0.31160706 0.3433265
0.36790973 0.3400169 0.3844794 0.34940028 0.3427037 0.32250106 0.18715245 0.32902664
0.38170195 0.31739062 1.2230233 0.6122196 1.1767342 0.95191944 1.0344237 0.92689806
0.6232299 1.2052553 0.99911296 0.96753716 1.1490266 0.9846564 0.40915394 0.30453944
0.30553967 0.4065534 0.42206103 0.35621303 0.38075304 0.36818945 0.3471409 0.2909196
0.24934828 0.36550134 0.27206224 0.40196812 1.1957903 0.6266077 1.1605227 0.9481149
1.0314727 0.9322396 0.64547557 1.1471201 0.9998257 0.9960443 1.1795226 0.95061684
0.34085393 0.2743383 0.31542104 0.4181658 0.37756133 0.32955182 0.35108453 0.34478766
0.32218343 0.3326028 0.19201857 0.3649289 0.34699422 0.33154196 1.127097 0.6525543
1.1858402 0.92875004 1.0347749 0.914553 0.65951645 1.2065542 1.0276842 1.022156
1.1752862 0.95931685 0.3774011 0.20117122 0.32789445 0.3815691 0.3892992 0.30690902
0.32736206 0.3979144 0.34489214 0.332995 0.20639765 0.35349023 0.28911316 0.38633198
1.1964813 0.6378346 1.137618 0.9321758 1.0710535 0.9448984 0.6187334 1.0915531
1.0094132 1.0059555 1.186716 1.018784 0.3358246 0.2827295 0.29735756 0.3978243
0.33022082 0.32887703 0.39804524 0.3528961 0.30499297 0.33320445 0.19864285 0.4629109
0.3474049 0.3242699 1.1939338 0.63651574 1.1536462 0.9027134 1.0335468 0.9583624
0.64189583 1.162983 0.98491865 1.0233778 1.1759691 0.9820829 0.33336252 0.28757715
0.29380894 0.37058413 0.36248654 0.3999228 0.34848708 0.30270576 0.33614653 0.3748824
0.25433117 0.41779113 0.3069259 0.36634165 1.1689166 0.61622036 1.17394 0.92269236
1.080162 0.9091737 0.6544347 1.202539 1.0141919 0.9962403 1.1619653 0.99556386
0.32427537 0.30472285 0.24688572 0.40502053 0.35315984 0.28528684 0.33958572 0.34862345
0.3685618 0.34701377 0.21209127 0.3732376 0.33447134 0.35386527 1.1771936 0.64369917
1.2063496 0.9249292 1.0419468 0.9467147 0.64327383 1.186914 1.0127928 1.0310478
1.1522838 0.96344376 0.32503164 0.2916941 0.32894093 0.37511533 0.34351194 0.35389864
0.37282014 0.34492195 0.31422108 0.36057913 0.23843312 0.3480003 0.32599032 0.41180873
1.2323797 0.60043633 1.1609097 0.89648926 1.0744334 0.9497551 0.61196935 1.0936475
1.0022184 1.0381606 1.1958752 0.94409305 0.2934475 0.3414309 0.3535449 0.33859664
0.3100257 0.31168228 0.34752536 0.30274892 0.40279728 0.32196468 0.20988101 0.36956376
0.3478515 0.31467938 1.2218276 0.59897184 1.1694788 0.9312368 1.0410001 0.9557901
0.62818164 1.0841081 0.98752445 1.012844 1.2202764 0.9713976 0.3706683 0.25464016
0.40621197 0.3765223 0.34508777 0.31939286 0.34448647 0.3489532 0.29481554 0.3875875

vwA f4 [416, 1]
00000000: cb3b 063f 4677 f43e 2db5 ce3e 582b 023f
00000010: f96e e13e b474 003f c864 f63e 4059 cd3e
00000020: 4a23 023f d7a8 023f 2a33 e93e da54 023f
00000030: 0eb2 ca3e 721f b63e acbc c23e cf8e c23e
00000040: bcd7 c73e a5ae c23e 930b cc3e 3ef0 c43e
00000050: 0858 c43e 86e3 c23e 8f91 b43e a92a c23e
00000060: d255 cb3e a8c2 be3e 2f0e 083f 249c f03e
00000070: 9fd5 cd3e 75c2 013f 8175 e13e 0add 003f
00000080: 26b2 f03e b7d9 ce3e cd54 023f fa81 013f
00000090: 8634 e53e 1fa8 023f 5994 cf3e ba38 c13e
000000a0: 4373 c23e 672e cb3e 4550 ce3e 056a c53e
000000b0: 7c30 cc3e b5f7 c73e a2d2 c43e 981d bc3e
000000c0: b4b1 be3e d598 c73e f9cb b93e 6da0 cb3e
000000d0: 85f5 063f a512 f23e 7706 cd3e 5302 023f
000000e0: 6011 e13e ea6e 013f a3a9 f43e 7ae1 cc3e
000000f0: c6b5 023f 1a9d 023f 03ae e73e b855 013f
00000100: 4a76 c73e 2faf bc3e bcd1 c33e be17 ce3e
00000110: c644 c93e 1e34 c03e 3445 c63e 871d c43e
00000120: 0719 c13e 7909 c43e d459 b53e 30b3 c63e
00000130: 5df1 c53e e2f1 c03e a853 053f c40f f43e
00000140: ef61 ce3e 2f4c 013f 652c e13e 1e93 003f
00000150: b5bf f53e d84c d03e 01e1 033f 3f3d 033f
00000160: 5b1a e73e 20dd 013f 51dd cb3e f310 ae3e
00000170: 860f c53e a0b1 c73e ff62 ca3e 9b9f bc3e
00000180: d7b7 c23e bb03 cd3e 62fe c43e 69d3 c43e
00000190: 4ca6 b63e 7da8 c53e 5e3a bc3e ed45 c93e
000001a0: 913b 073f 7e27 f33e 7017 cc3e 9d68 013f
000001b0: 2cf5 e23e 3ea4 013f c916 f13e 0856 ca3e
000001c0: 363e 033f c02a 033f cc5d e83e 2104 043f
000001d0: 8d08 c73e 7400 be3e 9ec9 c03e d6be ca3e
000001e0: 5204 c23e 7290 c03e 2ae1 cd3e d067 c53e
000001f0: 6a69 be3e f48b c43e a1ee b63e 016e d43e
00000200: e076 c73e f15e c13e 66b8 063f a2d7 f23e
00000210: 009b cc3e d301 003f 9e29 e13e 7158 023f
00000220: 9463 f33e 5f47 cd3e b046 023f aa2e 033f
00000230: c076 e73e 3681 023f 8c76 c53e 91d5 be3e
00000240: 78b7 bf3e 78cb c53e 131f c63e 0731 cc3e
00000250: c20e c63e 0362 bd3e c4a6 c33e 8594 cb3e
00000260: 600b c13e 2684 ce3e 4dde bf3e 33c7 c63e
00000270: 8987 053f b817 f13e e377 cd3e 712f 013f
00000280: dc69 e33e 7e37 003f 743f f43e 2e58 cf3e
00000290: e023 033f 5eaa 023f 9056 e63e 5504 033f
000002a0: 2aef c43e 990a c13e 56c0 b53e fe8d ca3e
000002b0: 0bcc c53e f35a b93e 5fdc c43e 8355 c53e
000002c0: a40c c83e 373e c63e 12be b73e e0b8 c83e
000002d0: 8e01 c43e 648e c53e f11a 063f 6ec2 f33e
000002e0: d664 cf3e 8c37 013f 5270 e13e fcad 013f
000002f0: 5fdc f23e 766f ce3e aa61 033f d57e 033f
00000300: b411 e63e 1a09 023f 2751 c43e 8e8d be3e
00000310: 7717 c63e c5ef c63e 218e c33e 9e8f c43e
00000320: 577b ca3e 52d2 c43e ee39 c03e fb52 c93e
00000330: ecc8 bc3e 3602 c43e 3bf1 c23e 1291 cc3e
00000340: 680e 083f 6c70 ef3e e8da cc3e 0915 003f
00000350: cc13 e33e abe7 013f bcbe f03e 39c0 ca3e
00000360: 4afa 023f 0def 033f dc36 e83e 160d 013f
00000370: 0b11 bf3e b44e c83e fb12 ca3e d2fb c03e
00000380: 8bc7 bd3e 1067 bc3e cb44 c53e 271b be3e
00000390: 75ad cd3e 8e10 c33e d3d2 b83e c81c c73e
000003a0: 39b0 c73e 1447 be3e c3ca 073f 4e0e ef3e
000003b0: 9f65 cd3e ba6a 013f 27e4 e13e ca0b 023f
000003c0: 9aa6 f13e 3998 ca3e 5b50 023f 6b2b 033f
000003d0: ead5 e83e 6085 023f 415b cd3e 7ed8 b83e
000003e0: 647c d03e 041a c83e 173b c43e e49d be3e
000003f0: 7f19 c53e cf9a c43e 86ff bc3e 4738 ce3e
0.52434987 0.47747248 0.403726 0.5084739 0.44029978 0.50178075 0.48123765 0.40107155
0.50835097 0.5103888 0.45546848 0.50910723 0.3958897 0.35570866 0.3803457 0.3799958
0.3903178 0.38023868 0.3985258 0.3846454 0.38348413 0.38064212 0.35267302 0.37923172
0.39713913 0.37257886 0.5314664 0.46994126 0.40202042 0.5068734 0.4403496 0.5033728
0.47010916 0.40400478 0.50910646 0.50588953 0.44766635 0.5103778 0.40542868 0.3773859
0.37978563 0.3968384 0.40295616 0.3855745 0.3988074 0.39056173 0.3844195 0.36741328
0.37244952 0.3898379 0.3628843 0.39770833 0.52718383 0.4727985 0.40043995 0.50784796
0.4395857 0.50559866 0.47785673 0.40015775 0.51058614 0.5102097 0.45249948 0.5052142
0.38957435 0.36852404 0.38245952 0.4025249 0.39310282 0.37539762 0.38724673 0.38303778
0.37714407 0.38288477 0.35420096 0.38808584 0.38660708 0.37684542 0.52080774 0.47668278
0.40309092 0.5050687 0.43979183 0.50224483 0.47997823 0.40683627 0.51515204 0.5126533
0.45137295 0.50728035 0.3981729 0.33997306 0.38488406 0.39002705 0.39528653 0.3684052
0.38030884 0.4004191 0.3847533 0.38442543 0.3567375 0.3860511 0.3676328 0.39311162
0.52825266 0.47491068 0.3986163 0.5055025 0.44327676 0.5064124 0.47087696 0.39518762
0.512668 0.51237106 0.4538406 0.515688 0.3887371 0.3710972 0.37653822 0.3959872
0.3789392 0.37610203 0.4021085 0.38555765 0.371898 0.38388026 0.35728934 0.41490176
0.38957882 0.37767747 0.5262512 0.4743014 0.39962006 0.50002784 0.43977064 0.509162
0.4753691 0.40093514 0.5088911 0.5124308 0.45207787 0.5097841 0.38567007 0.37272313
0.37444663 0.38631797 0.38695583 0.39881155 0.38683134 0.3698884 0.3821317 0.3976175
0.3770399 0.40335196 0.3747429 0.38823852 0.52159935 0.47088408 0.4013053 0.50463015
0.44416702 0.50084674 0.4770466 0.40496963 0.51226616 0.5104121 0.44987917 0.51178485
0.38463718 0.37703398 0.35498303 0.39561456 0.38632235 0.362022 0.3844938 0.38541803
0.39072144 0.3871934 0.358872 0.39203548 0.38282436 0.38585198 0.5238486 0.47609276
0.4050662 0.5047538 0.44031006 0.50656104 0.47433755 0.40319413 0.513209 0.51365405
0.4493538 0.5079514 0.38343164 0.37217373 0.38689777 0.38854805 0.38194373 0.3839082
0.39547226 0.38441712 0.37544197 0.39321122 0.3687204 0.38282937 0.3807467 0.3995443
0.5314698 0.4676546 0.40010762 0.500321 0.4435104 0.5074412 0.4702052 0.3959978
0.5116316 0.5153664 0.45354354 0.5041059 0.3731769 0.39122546 0.39467606 0.37692124
0.37066302 0.3679738 0.38529047 0.3713009 0.401714 0.38098568 0.36098346 0.38889146
0.39001635 0.37163603 0.53043765 0.466906 0.40116593 0.50553477 0.4411938 0.5079924
0.4719742 0.39569262 0.5090386 0.51238126 0.45475703 0.50984764 0.40108684 0.3610267
0.40719903 0.39082348 0.38326332 0.37229836 0.38496014 0.3839936 0.369137 0.4027731

alpha_0_A f4 [6656]
00000000: aa30 3b41 aa30 3b41 1369 a640 aa30 3b41
00000010: 4c04 e840 aa30 3b41 aa30 3b41 1369 a640
00000020: aa30 3b41 aa30 3b41 4c04 e840 aa30 3b41
00000030: 1ef9 8f40 1ef9 8f40 1ef9 8f40 1ef9 8f40
00000040: 1ef9 8f40 1ef9 8f40 1ef9 8f40 1ef9 8f40
00000050: 1ef9 8f40 1ef9 8f40 1ef9 8f40 1ef9 8f40
00000060: 1ef9 8f40 1ef9 8f40 aa30 3b41 aa30 3b41
00000070: 1369 a640 aa30 3b41 4c04 e840 aa30 3b41
00000080: aa30 3b41 1369 a640 aa30 3b41 aa30 3b41
00000090: 4c04 e840 aa30 3b41 1ef9 8f40 1ef9 8f40
000000a0: 1ef9 8f40 1ef9 8f40 1ef9 8f40 1ef9 8f40
000000b0: 1ef9 8f40 1ef9 8f40 1ef9 8f40 1ef9 8f40
000000c0: 1ef9 8f40 1ef9 8f40 1ef9 8f40 1ef9 8f40
000000d0: aa30 3b41 aa30 3b41 1369 a640 aa30 3b41
000000e0: 4c04 e840 aa30 3b41 aa30 3b41 1369 a640
000000f0: aa30 3b41 aa30 3b41 4c04 e840 aa30 3b41
00000100: 1ef9 8f40 1ef9 8f40 1ef9 8f40 1ef9 8f40
00000110: 1ef9 8f40 1ef9 8f40 1ef9 8f40 1ef9 8f40
00000120: 1ef9 8f40 1ef9 8f40 1ef9 8f40 1ef9 8f40
00000130: 1ef9 8f40 1ef9 8f40 aa30 3b41 aa30 3b41
00000140: 1369 a640 aa30 3b41 4c04 e840 aa30 3b41
00000150: aa30 3b41 1369 a640 aa30 3b41 aa30 3b41
00000160: 4c04 e840 aa30 3b41 1ef9 8f40 1ef9 8f40
00000170: 1ef9 8f40 1ef9 8f40 1ef9 8f40 1ef9 8f40
00000180: 1ef9 8f40 1ef9 8f40 1ef9 8f40 1ef9 8f40
00000190: 1ef9 8f40 1ef9 8f40 1ef9 8f40 1ef9 8f40
000001a0: aa30 3b41 aa30 3b41 1369 a640 aa30 3b41
000001b0: 4c04 e840 aa30 3b41 aa30 3b41 1369 a640
000001c0: aa30 3b41 aa30 3b41 4c04 e840 aa30 3b41
000001d0: 1ef9 8f40 1ef9 8f40 1ef9 8f40 1ef9 8f40
000001e0: 1ef9 8f40 1ef9 8f40 1ef9 8f40 1ef9 8f40
000001f0: 1ef9 8f40 1ef9 8f40 1ef9 8f40 1ef9 8f40
00000200: 1ef9 8f40 1ef9 8f40 aa30 3b41 aa30 3b41
00000210: 1369 a640 aa30 3b41 4c04 e840 aa30 3b41
00000220: aa30 3b41 1369 a640 aa30 3b41 aa30 3b41
00000230: 4c04 e840 aa30 3b41 1ef9 8f40 1ef9 8f40
00000240: 1ef9 8f40 1ef9 8f40 1ef9 8f40 1ef9 8f40
00000250: 1ef9 8f40 1ef9 8f40 1ef9 8f40 1ef9 8f40
00000260: 1ef9 8f40 1ef9 8f40 1ef9 8f40 1ef9 8f40
00000270: aa30 3b41 aa30 3b41 1369 a640 aa30 3b41
00000280: 4c04 e840 aa30 3b41 aa30 3b41 1369 a640
00000290: aa30 3b41 aa30 3b41 4c04 e840 aa30 3b41
000002a0: 1ef9 8f40 1ef9 8f40 1ef9 8f40 1ef9 8f40
000002b0: 1ef9 8f40 1ef9 8f40 1ef9 8f40 1ef9 8f40
000002c0: 1ef9 8f40 1ef9 8f40 1ef9 8f40 1ef9 8f40
000002d0: 1ef9 8f40 1ef9 8f40 aa30 3b41 aa30 3b41
000002e0: 1369 a640 aa30 3b41 4c04 e840 aa30 3b41
000002f0: aa30 3b41 1369 a640 aa30 3b41 aa30 3b41
00000300: 4c04 e840 aa30 3b41 1ef9 8f40 1ef9 8f40
00000310: 1ef9 8f40 1ef9 8f40 1ef9 8f40 1ef9 8f40
00000320: 1ef9 8f40 1ef9 8f40 1ef9 8f40 1ef9 8f40
00000330: 1ef9 8f40 1ef9 8f40 1ef9 8f40 1ef9 8f40
00000340: aa30 3b41 aa30 3b41 1369 a640 aa30 3b41
00000350: 4c04 e840 aa30 3b41 aa30 3b41 1369 a640
00000360: aa30 3b41 aa30 3b41 4c04 e840 aa30 3b41
00000370: 1ef9 8f40 1ef9 8f40 1ef9 8f40 1ef9 8f40
00000380: 1ef9 8f40 1ef9 8f40 1ef9 8f40 1ef9 8f40
00000390: 1ef9 8f40 1ef9 8f40 1ef9 8f40 1ef9 8f40
000003a0: 1ef9 8f40 1ef9 8f40 aa30 3b41 aa30 3b41
000003b0: 1369 a640 aa30 3b41 4c04 e840 aa30 3b41
000003c0: aa30 3b41 1369 a640 aa30 3b41 aa30 3b41
000003d0: 4c04 e840 aa30 3b41 1ef9 8f40 1ef9 8f40
000003e0: 1ef9 8f40 1ef9 8f40 1ef9 8f40 1ef9 8f40
000003f0: 1ef9 8f40 1ef9 8f40 1ef9 8f40 1ef9 8f40
11.699381 11.699381 5.2003264 11.699381 7.2505245 11.699381 11.699381 5.2003264
11.699381 11.699381 7.2505245 11.699381 4.49916 4.49916 4.49916 4.49916
4.49916 4.49916 4.49916 4.49916 4.49916 4.49916 4.49916 4.49916
4.49916 4.49916 11.699381 11.699381 5.2003264 11.699381 7.2505245 11.699381
11.699381 5.2003264 11.699381 11.699381 7.2505245 11.699381 4.49916 4.49916
4.49916 4.49916 4.49916 4.49916 4.49916 4.49916 4.49916 4.49916
4.49916 4.49916 4.49916 4.49916 11.699381 11.699381 5.2003264 11.699381
7.2505245 11.699381 11.699381 5.2003264 11.699381 11.699381 7.2505245 11.699381
4.49916 4.49916 4.49916 4.49916 4.49916 4.49916 4.49916 4.49916
4.49916 4.49916 4.49916 4.49916 4.49916 4.49916 11.699381 11.699381
5.2003264 11.699381 7.2505245 11.699381 11.699381 5.2003264 11.699381 11.699381
7.2505245 11.699381 4.49916 4.49916 4.49916 4.49916 4.49916 4.49916
4.49916 4.49916 4.49916 4.49916 4.49916 4.49916 4.49916 4.49916
11.699381 11.699381 5.2003264 11.699381 7.2505245 11.699381 11.699381 5.2003264
11.699381 11.699381 7.2505245 11.699381 4.49916 4.49916 4.49916 4.49916
4.49916 4.49916 4.49916 4.49916 4.49916 4.49916 4.49916 4.49916
4.49916 4.49916 11.699381 11.699381 5.2003264 11.699381 7.2505245 11.699381
11.699381 5.2003264 11.699381 11.699381 7.2505245 11.699381 4.49916 4.49916
4.49916 4.49916 4.49916 4.49916 4.49916 4.49916 4.49916 4.49916
4.49916 4.49916 4.49916 4.49916 11.699381 11.699381 5.2003264 11.699381
7.2505245 11.699381 11.699381 5.2003264 11.699381 11.699381 7.2505245 11.699381
4.49916 4.49916 4.49916 4.49916 4.49916 4.49916 4.49916 4.49916
4.49916 4.49916 4.49916 4.49916 4.49916 4.49916 11.699381 11.699381
5.2003264 11.699381 7.2505245 11.699381 11.699381 5.2003264 11.699381 11.699381
7.2505245 11.699381 4.49916 4.49916 4.49916 4.49916 4.49916 4.49916
4.49916 4.49916 4.49916 4.49916 4.49916 4.49916 4.49916 4.49916
11.699381 11.699381 5.2003264 11.699381 7.2505245 11.699381 11.699381 5.2003264
11.699381 11.699381 7.2505245 11.699381 4.49916 4.49916 4.49916 4.49916
4.49916 4.49916 4.49916 4.49916 4.49916 4.49916 4.49916 4.49916
4.49916 4.49916 11.699381 11.699381 5.2003264 11.699381 7.2505245 11.699381
11.699381 5.2003264 11.699381 11.699381 7.2505245 11.699381 4.49916 4.49916
4.49916 4.49916 4.49916 4.49916 4.49916 4.49916 4.49916 4.49916
