tests/test_data_path/og_processed/dimer_ap3_train_spec_7_172.pt (torch, 156946 bytes, 17 tensors)

y f4 [16, 4]
000000 55 2d ef c0 ce ed fe 40 77 2f 64 c0 b9 97 89 c0
       -7.4742837 7.966529 -3.565397 -4.299771
000010 24 5f 64 c1 45 1c 0c 42 f2 53 90 c1 7b ef f0 c0
       -14.273228 35.027607 -18.040989 -7.5292335
000020 00 9e 60 c1 af f5 49 41 5a 69 ff c0 3f f8 98 c0
       -14.038574 12.622481 -7.9816103 -4.7803035
000030 73 44 10 c0 3d 2a 29 3e 13 02 d8 bf 69 58 26 bf
       -2.2541778 0.16520019 -1.6875633 -0.64978653
000040 4a c6 bb c0 3c 73 37 3e fd 08 fa bf 15 33 2f bf
       -5.867955 0.17915052 -1.9533993 -0.6843732
000050 22 b5 a4 bf 80 2b 14 40 9e b4 6b c0 f1 3f dd bf
       -1.2867777 2.315155 -3.682899 -1.7285138
000060 6b 8e aa bf a0 4f 3b 3c 35 b4 4f bf e9 08 4e be
       -1.3324713 0.011432558 -0.8113435 -0.20120586
000070 b8 ff 1f c1 1b cf 2e 41 f7 07 9a c0 d7 18 a8 c0
       -9.999931 10.925563 -4.8134723 -5.253032
000080 1f f2 54 bf 00 da 37 3a 9a 63 bf be 66 bb f4 bd
       -0.8318195 0.00070133805 -0.37380677 -0.11949806
000090 87 e6 81 bf e4 39 43 3d 91 b1 99 bf df 61 cf be
       -1.0148476 0.04766263 -1.2007314 -0.40504357
0000a0 c1 36 de 3f 48 d5 d3 3a c4 1f 1b bf 6a fb ee bd
       1.736046 0.0016161585 -0.60595345 -0.11669047
0000b0 de c4 90 3e fb 75 47 b5 e6 48 00 be 5a 1f 47 bc
       0.28275198 -7.430496e-07 -0.12527809 -0.012153471
0000c0 87 dc ac bf 16 7f 53 37 a8 e9 94 be 0f 05 48 bd
       -1.35048 1.260617e-05 -0.29084516 -0.04883295
0000d0 e3 f7 1f c1 33 80 4c 40 5e ab 92 c0 cf 65 df bf
       -9.998019 3.1953247 -4.583419 -1.7452945
0000e0 06 eb 94 40 c8 64 a5 41 a0 d5 fb c0 0d ba ad c0
       4.6536894 20.67421 -7.8698273 -5.4289613
0000f0 06 cb ec c1 61 58 6e 42 0f 02 c4 c1 07 ae 16 c1
       -29.599133 59.586308 -24.501005 -9.417487

RA f4 [176, 3]
000000 d4 62 70 3d cc ed 32 3f 0d ab 8c bf 50 8c 08 bf
       0.058688 0.698941 -1.09897 -0.533391
000010 5c c9 3e be 52 7f 3d bd 23 30 ee 3e 3c 6b e7 be
       -0.186315 -0.046264 0.465211 -0.45199
000020 f3 92 8b 3f f9 bd 9d 3e ae 67 da 3f 2e 91 3b bf
       1.090422 0.30809 1.706289 -0.732684
000030 52 10 78 3f b6 a1 9a 3e da 1f ce bf 30 84 40 bf
       0.968999 0.302015 -1.610347 -0.752017
000040 d7 88 50 3f c7 9c f3 bf 83 fa 4e bf fa 08 a4 bf
       0.814588 -1.903222 -0.80851 -1.281524
000050 87 53 d6 be a3 3a bd bf ea 3c 5a 3e ed 4a eb 3e
       -0.418606 -1.478352 0.213123 0.459556
000060 d5 95 af 3d 74 0a 88 bf c0 cc e9 3f 9c f8 36 3f
       0.085735 -1.062819 1.826561 0.714731
000070 ce 00 d7 3e cf c0 c4 3f 44 6f a1 3f e5 b6 69 bf
       0.419928 1.537134 1.261208 -0.912947
000080 7d 08 3e 3f 49 d6 61 bb b2 da 28 3f 13 0b 8e bf
       0.742317 -0.003446 0.659587 -1.109713
000090 73 0f f9 be 75 e4 28 be fe 0f 90 bd 32 3a c0 3e
       -0.486446 -0.164934 -0.070343 0.375444
0000a0 5b 7b e7 be 4e 41 8c 3f 68 ce a2 3e 90 65 d7 3f
       -0.452113 1.095743 0.317981 1.682787
0000b0 8d 44 38 bf 97 ca 73 3f ef 03 50 3e 89 08 c9 bf
       -0.719796 0.95231 0.20314 -1.570573
0000c0 09 36 36 bf e3 fc 71 3f ad fc f4 bf 11 1d 4e bf
       -0.711762 0.945265 -1.913961 -0.805131
0000d0 52 7c 9a bf 8a 01 f2 be 8b 38 bb bf 18 99 70 3e
       -1.206919 -0.472668 -1.462663 0.234959
0000e0 9a 23 cb 3e 2a c5 0e 3c 46 0b 82 bf 7f 15 ec 3f
       0.396756 0.008714 -1.015969 1.844406
0000f0 30 f2 36 3f a8 34 da 3e c6 f7 c1 3f 74 ee a8 3f
       0.714633 0.426183 1.515374 1.319777
000100 33 4f 5e bf e7 71 30 3f e0 4a 36 3d b1 33 45 3f
       -0.868396 0.689238 0.044505 0.77032
000110 cb 9d 91 bf e2 72 10 bf c2 18 51 be 13 0c a7 bd
       -1.137628 -0.564253 -0.204196 -0.081566
000120 c6 8b 01 3f bc 06 f5 be d1 21 86 3f 79 ae 97 3e
       0.506039 -0.478567 1.047907 0.296253
000130 b3 0a e1 3f c7 d4 2d bf 6a de 69 3f e3 16 83 3e
       1.758139 -0.679028 0.91355 0.256034
000140 b1 a8 ce bf 6b d8 37 bf bc 5a 66 3f fe ee ed bf
       -1.614523 -0.718146 0.899822 -1.858856
000150 25 93 4f bf 43 8e 97 bf b4 e5 00 bf 43 72 b2 bf
       -0.810839 -1.184029 -0.503505 -1.394112
000160 34 12 81 3e a9 a0 ea 3e f8 c1 b9 3d c0 21 86 bf
       0.252092 0.458257 0.090702 -1.047905
000170 8e ca e9 3f 02 d4 2c 3f 10 3f cf 3e b7 b7 c3 3f
       1.826494 0.67511 0.404778 1.529044
000180 79 06 a5 3f 20 7a 6a bf c1 00 26 3f 69 8f 57 3d
       1.28926 -0.915926 0.648449 0.052627
000190 a3 cd 45 3f 54 6e 94 bf f4 15 04 bf 34 9c 52 be
       0.772669 -1.159617 -0.51596 -0.205674
0001a0 c8 78 54 bd 1e fc d4 3e 9c 87 db be bd 73 8a 3f
       -0.051873 0.415986 -0.428769 1.081657
0001b0 7d b0 84 3e 68 42 d9 3f d7 16 36 bf 03 0b 6c 3f
       0.259159 1.697339 -0.711286 0.922043
0001c0 b3 ea 8b 3e ea 59 ca bf f7 ca 28 bf b4 1c 6c 3f
       0.273275 -1.580869 -0.659347 0.922313
0001d0 79 5d f7 bf 01 32 48 bf 6d aa 98 bf a0 8b f6 be
       -1.93254 -0.782013 -1.192701 -0.481534
0001e0 ef 02 bb bf e3 e1 5d 3e 2b f6 cf 3e 8c d8 a7 3c
       -1.461027 0.216682 0.406175 0.020489
0001f0 e8 14 8a bf 8a 04 e3 3f 41 0c 2c 3f cf 68 eb 3e
       -1.078763 1.773576 0.672062 0.459784
000200 56 7f c4 3f ce 6e a1 3f 0c 21 5f bf f1 ba 2e 3f
       1.535136 1.261194 -0.871598 0.68254
000210 63 2b 88 3d d3 4a 2d 3f e9 ef 8f bf 9c 35 10 bf
       0.066489 0.676923 -1.124509 -0.563318
000220 7a 1d 51 be 8d d3 90 bd 30 f3 d5 3e 52 9d f6 be
       -0.204214 -0.070716 0.417871 -0.481669
000230 9c 17 83 3f da 91 8a 3e 7e e3 dd 3f a1 82 3f bf
       1.024158 0.270644 1.733505 -0.748087
000240 03 b1 6c 3f d0 b5 8f 3e 59 4f cb bf 96 b2 30 bf
       0.924576 0.280684 -1.588359 -0.690225
000250 b6 d9 60 3f 82 54 f8 bf c3 7d 40 bf 8e 40 9e bf
       0.878322 -1.940079 -0.751919 -1.236345
000260 bd 72 ed be bf d4 bf bf 81 3f 84 3e a0 4e d1 3e
       -0.463766 -1.49868 0.258297 0.408803
000270 28 62 b1 3d e2 05 7d bf 2b dd e3 3f 3e ea 3b 3f
       0.086613 -0.988371 1.780187 0.734043
000280 41 64 b9 3e d3 66 c0 3f 71 75 a6 3f a1 f8 61 bf
       0.362093 1.503138 1.300459 -0.8827
000290 64 24 37 3f 79 b2 1b 3c 11 ab 3b 3f 31 b2 94 bf
       0.715399 0.009503 0.733079 -1.161688
0002a0 ad 69 1a bf c7 a0 43 be 66 bd b8 bd 54 ff e0 3e
       -0.603175 -0.191043 -0.090205 0.439448
0002b0 d2 1b ee be c4 d1 89 3f bf d3 bc 3e b8 57 d4 3f
       -0.465056 1.076714 0.368803 1.658927
0002c0 bd fc 36 bf 33 51 70 3f 69 6e ad 3e a5 d8 c3 bf
       -0.714794 0.938739 0.338733 -1.530049
0002d0 b3 0a 33 bf 98 2f 5b 3f 9c dd fe bf 62 db 4a bf
       -0.699382 0.856195 -1.991138 -0.79241
0002e0 f2 3f 9d bf 67 44 d9 be 33 6f bb bf 86 3b 57 3e
       -1.228514 -0.42435 -1.464331 0.210188
0002f0 81 98 c4 3e a1 47 0c bc 97 03 85 bf c8 41 df 3f
       0.383976 -0.008562 -1.039172 1.744195
000300 b6 bc 32 3f 0d 17 e1 3e ee 5f c3 3f 02 66 aa 3f
       0.698192 0.439629 1.526365 1.331238
000310 32 01 6b bf b9 6d 37 3f 89 62 f2 bb de 93 47 3f
       -0.917987 0.716518 -0.007397 0.7796
000320 c4 ee 8d bf 38 dc 0f bf 4c a7 55 be 33 a9 a1 bd
       -1.108849 -0.561954 -0.208646 -0.078936
000330 ff 5e da 3e 4d c0 e7 be cb 12 87 3f d4 9a a6 3e
       0.426506 -0.452639 1.055261 0.3254
000340 f9 69 d4 3f d4 d1 2d bf 7f 68 62 3f 4a 97 ae 3e
       1.659484 -0.678983 0.884407 0.340998
000350 f2 ed cd bf 63 45 35 bf 1e fe 5e 3f 8a 3b f2 bf
       -1.608824 -0.70809 0.871065 -1.892442
000360 03 b0 51 bf e4 f7 98 bf 38 12 f0 be c4 3f be bf
       -0.819092 -1.195065 -0.468889 -1.486321
000370 cd 59 8f 3e 07 9a b7 3e c5 03 0a 3e 69 ac 8b bf
       0.279982 0.358597 0.13478 -1.091199
000380 9e 60 e3 3f 96 5c 39 3f 96 5b ea 3e e1 26 c3 3f
       1.776386 0.724069 0.45773 1.524624
000390 2d 41 9e 3f cf a4 5d bf ac 1e 48 3f 5e 68 2e 3d
       1.236364 -0.865796 0.781718 0.04258
0003a0 f3 cc 2f 3f 48 6e 93 bf d1 90 25 bf 72 6d 68 be
       0.686721 -1.151803 -0.646741 -0.22698
0003b0 e6 20 e8 bc 8d 99 dc 3e 63 d4 e5 be c7 63 86 3f
       -0.028336 0.430859 -0.448886 1.04992
0003c0 02 82 99 3e 9d 64 e3 3f 78 ee 45 bf ad 6c 6f 3f
       0.29982 1.776508 -0.77317 0.935252
0003d0 57 5b a1 3e 81 ce d4 bf 60 e4 3d bf 9b 00 63 3f
       0.31515 -1.662552 -0.741766 0.886728
0003e0 89 cf f7 bf f1 2c 59 bf 39 7f 95 bf 2e 55 05 bf
       -1.936021 -0.848342 -1.167945 -0.520831
0003f0 86 ae bc bf c5 8c 40 3e 17 10 da 3e 7d 3f b5 bc
       -1.474076 0.188037 0.425904 -0.022125

RB f4 [112, 3]
000000 d6 72 72 40 48 c2 29 40 f2 0c a6 3f 43 e1 1f 40
       3.788259 2.652483 1.29727 2.498124
000010 c2 db e5 3f bb b9 08 be 2e 76 85 40 38 bd 49 40
       1.795769 -0.133521 4.170676 3.152174
000020 10 3d 0d 40 0c 3f 1d 40 6d 1f 23 40 61 a7 86 3f
       2.206852 2.456973 2.548793 1.051983
000030 18 cc 70 40 45 0e cf 3f 6b b9 eb be 3a ae 7c 40
       3.762457 1.617623 -0.460399 3.948134
000040 3d 47 88 3f 64 5b b4 bf c6 30 94 40 ad 4d 06 40
       1.064674 -1.409039 4.630954 2.098491
000050 18 06 ac 3e b9 34 d4 bf 35 24 ac bf 1a db 65 40
       0.335984 -1.657859 -1.344855 3.591498
000060 31 5e f3 bd 23 4e b9 bf 8b 07 a2 40 2d 7c 25 c0
       -0.118832 -1.447697 5.063421 -2.585704
000070 86 ae 94 bf 90 66 49 40 19 e2 b8 bf d4 2b 81 bf
       -1.161576 3.146885 -1.4444 -1.00915
000080 1b 93 9a 40 8c a2 97 3e a9 db 00 c0 8c a3 76 40
       4.830457 0.296162 -2.013407 3.853732
000090 59 19 ad 3f f2 22 1d c0 43 03 70 40 d8 11 1b bf
       1.352336 -2.455258 3.750199 -0.605741
0000a0 0c ea ff bf 6b 65 3b 40 5e 2c c4 3e f0 85 55 c0
       -1.99933 2.928065 0.383151 -3.3363
0000b0 8b a9 72 40 69 00 5b bf 77 67 35 c0 82 fd 05 40
       3.791598 -0.855475 -2.83444 2.093598
0000c0 79 95 9d 3f 8c 6a 5e c0 15 11 8f 40 1e ff fd 3e
       1.231124 -3.475253 4.470835 0.496087
0000d0 5d 87 32 c0 75 02 2c 40 2a a8 cc bf bc 96 5e c0
       -2.789512 2.68765 -1.598882 -3.47795
0000e0 57 7c 41 40 44 51 29 c0 75 e5 66 c0 4c 6e 34 40
       3.023214 -2.645585 -3.607755 2.819232
0000f0 21 57 62 bf 81 26 76 c0 dd 43 81 40 ec dd c9 3f
       -0.884142 -3.8461 4.039534 1.577085
000100 4e 7a bf 3d 6c f9 c1 40 89 25 e5 3d 83 89 63 bf
       0.093495 6.061697 0.111888 -0.888817
000110 74 08 9a 40 ed 45 21 40 e6 3e 49 3e ab 87 cd 40
       4.813532 2.519893 0.196529 6.422811
000120 e5 0c b9 3f 9c a2 81 bf 04 c8 a7 40 68 24 92 be
       1.445706 -1.012775 5.243166 -0.285434
000130 cf 10 8e 3e 7f 13 ab 40 ba bc a9 bf 59 50 14 3f
       0.277472 5.34613 -1.326072 0.579351
000140 b6 8f a6 40 4b 57 08 3f da 73 61 3f 58 9e c2 40
       5.205043 0.532582 0.880674 6.081829
000150 47 54 02 c0 1b f5 6d c0 34 f3 8c 40 1f 69 88 bf
       -2.036394 -3.718085 4.404688 -1.065708
000160 3a eb e9 bf 14 6a 89 40 13 9a 29 c0 53 b4 94 c0
       -1.827491 4.294199 -2.650029 -4.647012
000170 3b 1c 83 40 ab 96 ec bf 95 2d 30 c0 72 c1 66 40
       4.097196 -1.848348 -2.752782 3.605557
000180 94 4e 54 bf 8c 9f 1b c0 51 3e ae 40 68 cd 87 be
       -0.829324 -2.431613 5.445107 -0.265239
000190 48 52 f0 bf f0 25 c8 40 e9 64 b5 bf 4d 83 62 c0
       -1.877511 6.254631 -1.417142 -3.539264
0001a0 63 0a b2 40 74 7e 8e bf 33 a4 43 c0 24 17 a8 40
       5.563768 -1.113234 -3.056897 5.252825
0001b0 74 61 58 bf 7a fd 16 c0 ed 2a 54 40 a9 2f 81 bf
       -0.845237 -2.359221 3.31512 -1.009267
0001c0 eb 3b 62 c0 eb 49 c4 40 92 93 91 be 8d 7c 4b c0
       -3.534907 6.134023 -0.284329 -3.179477
0001d0 e9 54 89 40 eb 1e f3 bf 12 4a e7 bf 89 28 73 40
       4.291615 -1.899381 -1.806948 3.799349
0001e0 f1 2b 21 c0 d9 5e 8b bf 49 ba 4d 40 9b cb 04 c0
       -2.518307 -1.088832 3.214495 -2.074927
0001f0 83 68 0c c0 d3 d9 a0 40 8d 7a 59 40 2b 50 6f 40
       -2.193879 5.02659 3.398105 3.739268
000200 c3 c9 80 40 67 98 30 40 5d eb b8 40 14 e7 66 40
       4.024629 2.759302 5.778731 3.607854
000210 51 30 7c 40 4a cf 3a 40 e6 66 8c 40 c0 93 6a 40
       3.940449 2.918902 4.387561 3.665268
000220 eb 6e a0 40 a1 8f 8a 40 1d 75 02 40 a3 06 9d 40
       5.01354 4.330033 2.038398 4.90706
000230 5e 4b 37 40 f4 19 98 3f 5f d2 a9 40 90 a4 15 40
       2.863975 1.188292 5.30693 2.338169
000240 7f a1 18 40 12 a2 6d 40 0a 69 4a 40 4a 07 6b bf
       2.384857 3.713017 3.162661 -0.91808
000250 7f da 52 40 12 67 3d 3f b6 66 57 3f 34 67 7f 40
       3.294586 0.739854 0.841411 3.990674
000260 3a 04 d4 3f ec 4e d3 bf 41 0c 25 40 ee 3e af 3e
       1.656379 -1.650846 2.578873 0.342277
000270 e7 8d 23 3e fd 4a 35 40 e8 15 a9 3f 34 9e a8 3d
       0.159721 2.832702 1.320981 0.082333
000280 41 2d a1 40 25 ae 9d 3f 1b 83 e6 3e dd fb bf 40
       5.036774 1.231877 0.450219 5.999495
000290 43 8f b6 3f 7e 72 80 bf 96 40 95 40 b7 d5 24 3f
       1.426247 -1.003494 4.664134 0.643886
0002a0 99 3c e5 c0 dc 67 d9 bf 9c 86 c2 3f 4d c0 b3 c0
       -7.163647 -1.698482 1.519733 -5.617224
0002b0 b9 54 dd be d6 3a fd 3f 11 e0 f7 c0 8f 6c 22 c0
       -0.432287 1.978358 -7.746102 -2.537876
0002c0 f3 56 c5 3f 9b 68 c0 c0 c8 5c db bf e8 f4 0e 40
       1.541716 -6.012769 -1.713769 2.233698
0002d0 5c 73 cf c0 b1 31 6f 3e 8b f9 9f 3f 2a 9d c9 c0
       -6.482832 0.233588 1.249803 -6.300435
0002e0 74 b4 a2 3f 2c f5 7c 3f d1 cd f0 c0 d9 3f ff be
       1.271132 0.988116 -7.525124 -0.498534
0002f0 41 b8 6e 3f f5 4c 04 40 3e 33 8d c0 47 71 8c 40
       0.932499 2.067197 -4.412505 4.388828
000300 31 b5 bd 3e ce 1b 43 c0 5c ff 8d 40 7b 32 23 40
       0.370523 -3.048572 4.437422 2.549956
000310 48 99 a9 c0 f5 57 83 40 ba f6 39 3f 8b 5e 8a c0
       -5.299961 4.104487 0.726421 -4.324041
000320 26 d1 82 40 e6 59 c7 3f 5b 08 23 c0 17 81 a2 40
       4.088031 1.557431 -2.547385 5.078258
000330 86 1d ba 3f 3e ea b5 bf cf 83 ac 40 29 78 23 40
       1.454026 -1.421211 5.39109 2.554209
000340 56 f1 50 c0 16 40 9f 40 08 aa f8 3f b1 35 93 3e
       -3.26473 4.976573 1.942689 0.287519
000350 b4 22 f0 40 fb 21 98 3f d4 49 06 40 1e b2 d7 40
       7.504236 1.188537 2.098256 6.740493
000360 db 51 09 40 7f f8 f9 be aa 56 03 41 1e 1b 93 3f
       2.145621 -0.488224 8.208658 1.149265
000370 2f e0 a9 3f a9 2f fa 40 a9 a1 fb 3f ba da c0 3f
       1.327154 7.818318 1.965871 1.506675
000380 1d f5 bc 40 ef 1e 09 40 41 2b 06 40 07 28 9c 40
       5.904921 2.142513 2.09639 4.879886
000390 00 e2 1f 40 d8 7d a7 3e 7f 24 c8 40 3a 21 99 c0
       2.498169 0.327132 6.254455 -4.785306
0003a0 0b 24 e8 c0 8e 10 a7 40 99 e2 a9 c0 12 3c ca c0
       -7.2544 5.220771 -5.308911 -6.319833
0003b0 d0 d4 de 40 7e c4 9b c0 3d ae 00 c1 28 0f 89 40
       6.963478 -4.867736 -8.042539 4.2831
0003c0 ac 99 b5 c0 f1 f3 ee c0 47 2f c4 40 b5 54 8d c0
       -5.675009 -7.467278 6.130771 -4.41659
0003d0 45 e2 b4 c0 bd 53 c9 40 c4 09 7f c0 47 c9 97 c0
       -5.652621 6.291472 -3.984971 -4.74332
0003e0 60 86 d9 40 bf 7d 7e c0 11 ba c5 c0 0e 06 a4 40
       6.797653 -3.976425 -6.178963 5.125739
0003f0 e1 60 2b c0 ca 7d a2 40 89 ee 92 40 27 d9 8e bf
       -2.677788 5.077855 4.591618 -1.116002

qA f4 [176, 1]
000000 1d 7d 00 bf 80 b0 5c bc 2f 14 28 bf 72 10 3a 3e
       -0.5019091 -0.013469815 -0.656558 0.18170336
000010 54 73 35 3e dc 03 53 3e b8 e9 0b 3e 84 6b 1a 3e
       0.17719775 0.20606941 0.13663375 0.15080076
000020 80 ee df 3e 4e a4 e0 3e d6 06 e3 3e aa c4 fa be
       0.4373665 0.43875355 0.44341153 -0.48978168
000030 60 e4 b2 3c ed c9 1e bf 82 60 1d 3e 12 a3 24 3e
       0.021837413 -0.62026864 0.15368846 0.16077831
000040 0c 76 5b 3e 88 48 04 3e ce 4e 05 3e 10 25 e5 3e
       0.2143175 0.12918293 0.13018343 0.4475484
000050 db 72 dd 3e e6 09 d7 3e 26 db fe be 20 01 eb bc
       0.4325169 0.4199974 -0.49776572 -0.02868706
000060 a3 0b 29 bf cc ee 31 3e f0 25 31 3e 64 f3 5d 3e
       -0.6603338 0.1737625 0.17299628 0.21674877
000070 6a 03 24 3e da b3 1c 3e 10 f3 de 3e 9f 34 de 3e
       0.16016927 0.15302983 0.43544817 0.43399522
000080 01 9b e1 3e 2e bb f7 be c0 31 28 bc 45 f9 20 bf
       0.4406357 -0.48384994 -0.010265768 -0.62880355
000090 92 1a 3a 3e 32 ba 2a 3e 26 df 50 3e ae 3f 14 3e
       0.18174198 0.1667259 0.20397624 0.14477417
0000a0 e4 f2 09 3e ed 93 de 3e 71 28 dc 3e a6 3f da 3e
       0.13471562 0.43472233 0.42999604 0.42626685
0000b0 84 b6 fb be 80 34 b9 bb 30 f2 22 bf f2 52 27 3e
       -0.49162686 -0.0056520104 -0.636508 0.16340235
0000c0 9e cc 49 3e 30 6f 50 3e 7e d2 17 3e 12 b4 1f 3e
       0.19706962 0.20354915 0.1482639 0.15596035
0000d0 28 cb d9 3e 84 ee ce 3e 6c 3b df 3e a2 5c f0 be
       0.42537808 0.40416348 0.43600023 -0.46945673
0000e0 c0 95 4c bc 4f 09 2b bf f0 69 35 3e 78 4b 35 3e
       -0.012486875 -0.6681108 0.17716193 0.1770457
0000f0 04 23 58 3e b2 3c 0c 3e 78 73 1b 3e 91 a9 e0 3e
       0.21107107 0.13695028 0.15180767 0.4387937
000100 3a be dd 3e ea 27 d9 3e 5a dc ed be 40 08 1b bc
       0.43309194 0.42413265 -0.46457177 -0.009462416
000110 85 b8 27 bf 5a 6d 43 3e d0 39 1c 3e 9c 92 59 3e
       -0.6551593 0.19084683 0.15256429 0.21247333
000120 ec c2 1e 3e 28 99 11 3e 95 5d d9 3e a5 74 db 3e
       0.15504044 0.1421858 0.4245421 0.4286243
000130 98 88 d8 3e f5 93 06 bf 80 b7 62 bc b9 65 28 bf
       0.42291713 -0.52569515 -0.013837695 -0.65780216
000140 72 2c 1d 3e 7e 37 43 3e 36 26 55 3e b4 ae 21 3e
       0.15348986 0.19064137 0.20815358 0.157893
000150 8e 0a 2e 3e 68 e3 df 3e 62 a1 de 3e 94 e2 e3 3e
       0.16996214 0.43728185 0.434825 0.44508803
000160 96 78 db be 00 1a b1 3c 80 6a 3f bf 66 11 1a 3e
       -0.42865437 0.021618843 -0.7477188 0.150457
000170 f0 73 38 3e e4 5d 65 3e 2c 0c f8 3d f8 b8 27 3e
       0.18012977 0.22399098 0.121116966 0.16379154
000180 ca 91 e2 3e a7 4e e0 3e 59 8a de 3e 82 3b f8 be
       0.44251853 0.43810007 0.43464926 -0.484829
000190 00 c0 4b 3c 43 82 25 bf 20 e3 26 3e f8 f7 2b 3e
       0.012435913 -0.6465189 0.16297579 0.16793811
0001a0 2e b0 59 3e 72 04 11 3e 88 43 0a 3e 64 58 e1 3e
       0.21258613 0.14161852 0.13502324 0.4401275
0001b0 46 b0 d9 3e da ef dd 3e c0 54 f5 be 00 c0 f0 3a
       0.42517298 0.43347055 -0.47916222 0.0018367767
0001c0 d2 20 28 bf 10 da 0f 3e 3a d1 47 3e 14 54 4c 3e
       -0.6567508 0.14048028 0.19513407 0.19953948
0001d0 c2 69 07 3e e2 8a 17 3e 40 60 e1 3e 1e 49 e3 3e
       0.13223937 0.14799073 0.44018745 0.4439172
0001e0 55 82 de 3e 7d 2a 05 bf 80 26 bb bb 61 ba 21 bf
       0.4345881 -0.52017957 -0.0057113767 -0.63175017
0001f0 10 ef 49 3e 5e ab 30 3e 42 ef 45 3e f4 fd 20 3e
       0.19720101 0.17252871 0.19329551 0.15721875
000200 f6 2b 11 3e 62 ee df 3e 60 d0 d9 3e be 9d dd 3e
       0.14176926 0.4373656 0.4254179 0.4328441
000210 d5 77 00 bf 40 0a 35 bc d1 5e 28 bf 0a bd 4a 3e
       -0.5018285 -0.011049807 -0.6576968 0.19798675
000220 5a 3a 3e 3e 04 71 4a 3e 72 b9 19 3e 9c 42 22 3e
       0.18576947 0.19769675 0.15012148 0.15845722
000230 cd cf dc 3e 06 b7 d2 3e a1 1c e0 3e 7f fa 00 bf
       0.4312729 0.4115526 0.43771842 -0.50382227
000240 e0 14 80 bc 35 75 27 bf 1e e0 1c 3e ec f4 2c 3e
       -0.015634954 -0.6541322 0.15319869 0.16890305
000250 d4 ea 68 3e 0e 04 15 3e 36 8e 20 3e 3d 8c e3 3e
       0.2274583 0.14552328 0.15679249 0.4444293
000260 9e 44 dd 3e cc e6 e3 3e 56 8d 00 bf 00 7f ee bb
       0.43216413 0.44512022 -0.5021566 -0.007278323
000270 12 5e 24 bf 4e 3d 31 3e 90 23 39 3e d8 ab 4d 3e
       -0.6420604 0.17308542 0.18079972 0.20085084
000280 e8 f5 19 3e 62 38 12 3e 0f 8f df 3e e5 e8 d9 3e
       0.15035212 0.14279321 0.43663833 0.42560497
000290 6d fb e1 3e e4 c0 f1 be 00 fa 0f 3b 6c 4f 25 bf
       0.44137135 -0.47217476 0.002196908 -0.64574313
0002a0 e8 ac 23 3e be c0 34 3e 00 c9 5e 3e 4e ec 04 3e
       0.15983927 0.1765165 0.21756363 0.12980768
0002b0 4c 66 07 3e fd 27 e6 3e cb a8 da 3e 5d aa d8 3e
       0.13222617 0.44952384 0.42706904 0.42317477

muA f4 [176, 3]
000000 30 43 96 bc 80 d2 d5 bc 78 f0 fe 3c 20 e5 e7 3d
       -0.018342584 -0.02610135 0.031120524 0.11322999
000010 68 99 2d 3d 10 42 ac 3c 14 8f 99 bd 04 ab 08 3d
       0.042382628 0.021027595 -0.07497993 0.03336622
000020 54 ce 00 be 80 ed b0 3b f8 10 42 3d 20 f2 55 3c
       -0.12578708 0.005399406 0.047379464 0.013058215
000030 50 9d 1a 3d a0 3a 8c bc 80 8d f3 bc 40 ab 23 bd
       0.03774768 -0.017117798 -0.029730558 -0.03995824
000040 00 59 00 3b f0 b7 03 bd 80 3f 4c bc 98 26 82 bd
       0.0019584298 -0.03215784 -0.012466311 -0.063550174
000050 f0 db 01 bd 10 e8 6a bd b0 2b 0e 3d 30 72 cf 3c
       -0.03170389 -0.05735022 0.034709632 0.025323004
000060 90 68 92 bc c0 ad a4 bc 40 96 ad 3c 00 d7 81 3b
       -0.017872125 -0.020102382 0.021189809 0.0039623976
000070 d8 d8 07 3d 60 31 2f 3c e0 44 cc 3c a0 bd 78 bc
       0.033165783 0.010692924 0.024935186 -0.015181929
000080 00 4e 95 bc c0 f9 fe bc f0 8c bf bc a0 c1 09 3c
       -0.01822567 -0.03112495 -0.023382634 0.00840798
000090 28 7c db 3d e0 42 04 3d 3c 0f 04 3d 66 41 00 be
       0.1071704 0.03229034 0.03224109 -0.12524948
0000a0 f0 c8 fa 3c a6 8b 00 be 00 59 d6 3b e0 c2 37 3d
       0.030613393 -0.12553272 0.0065413713 0.04486358
0000b0 40 22 5f 3c 38 b6 16 3d 80 21 b3 bc f0 90 b1 bc
       0.013619006 0.03679487 -0.02186656 -0.021675557
0000c0 80 de 06 bd 80 e4 56 3c 68 0c 06 bd 40 32 5a bc
       -0.032927036 0.013116002 -0.032726675 -0.013317645
0000d0 18 2a 71 bd 68 76 13 bd b0 67 67 bd f0 b4 12 3d
       -0.058878034 -0.036001593 -0.05649537 0.035817087
0000e0 c0 45 ae 3c 40 f4 9c bc 10 50 a8 bc e0 5e b2 3c
       0.021273494 -0.019159436 -0.02054599 0.021773756
0000f0 00 8c b6 3b 70 72 10 3d a0 f5 30 3c 50 d8 e5 3c
       0.0055708885 0.035265386 0.010800749 0.028057247
000100 80 46 7b bc c0 d5 a9 bc e0 7f 83 bc a0 82 74 bc
       -0.015336633 -0.020731807 -0.016052186 -0.014923722
000110 80 55 7f 3c f4 e6 cf 3d 40 22 c5 3c 60 a9 c4 3c
       0.01558435 0.10151473 0.024064183 0.024006546
000120 b8 40 6e bd b0 00 c2 3c 76 43 fa bd 80 06 de 3b
       -0.05816719 0.023681968 -0.122198984 0.006775677
000130 78 5f 46 3d 70 21 94 3c 28 db 0e 3d 80 81 d6 bc
       0.04843089 0.01808235 0.034876972 -0.026184797
000140 50 fc c9 bc 68 4d 1d bd 00 fa 1b 3b 70 ec f9 bc
       -0.024656445 -0.0384039 0.0023800135 -0.03050825
000150 60 bf 2b bc 18 f3 79 bd 58 55 19 bd a0 ff 50 bd
       -0.010482639 -0.061022848 -0.037434906 -0.051025033
000160 e8 77 29 3d d0 cd f5 3c 10 9b 87 bc 60 cc a9 bc
       0.041374117 0.030005366 -0.016553432 -0.020727336
000170 00 11 b7 3c 80 69 cc 3b 30 1e 07 3d c0 1b 49 3c
       0.022346973 0.0062381625 0.032987773 0.0122746825
000180 30 4e c7 3c 40 4a 60 bc e0 72 9a bc d0 11 8a bc
       0.024329275 -0.013689578 -0.018853605 -0.016854197
000190 a0 06 0e bc 80 4e 2f 3c b6 83 db 3d 68 22 02 3d
       -0.008668572 0.010699868 0.10718481 0.031771094
0001a0 24 35 11 3d fc da c7 bd 68 35 10 3d 00 c6 f0 bd
       0.03545107 -0.09758565 0.035207182 -0.117565155
0001b0 00 56 68 3b e8 bc 35 3d d0 60 8a 3c a0 05 0d 3d
       0.003545165 0.04436961 0.016891867 0.034429193
0001c0 60 70 c8 bc d0 87 c9 bc 80 ea 0b bd 80 ea ef 3b
       -0.024467647 -0.024600893 -0.034159184 0.0073216558
0001d0 90 ed 14 bd 80 32 46 bc 00 28 7d bd 18 fc 14 bd
       -0.03635937 -0.012097001 -0.061805725 -0.036373228
0001e0 c0 ee 60 bd 40 08 15 3d 80 92 d6 3c 20 99 8d bc
       -0.05491519 0.03638482 0.026192904 -0.01728493
0001f0 f0 44 ad bc 40 ca ae 3c c0 6b 9a 3b 70 3d 0a 3d
       -0.021151036 0.021336675 0.004712552 0.033749998
000200 c0 dc 43 3c c0 f5 e2 3c 60 3c 60 bc 50 fd 9a bc
       0.011954486 0.027705073 -0.0136862695 -0.018919617
000210 00 f9 3d bc d8 ab 08 bd a8 c7 bd 3c 08 b0 d4 3d
       -0.011595011 -0.033367008 0.023166493 0.10385138
000220 f0 b0 d4 3c 20 26 d9 3c 8c ea e0 bd d0 ed 88 3c
       0.025963277 0.026507437 -0.10982236 0.01671496
000230 64 e9 f7 bd 80 88 05 3b c8 fb 55 3d 80 5c 36 3c
       -0.121050626 0.002037555 0.05224207 0.011130452
000240 d8 42 10 3d f0 1f 94 bc a0 8b e1 bc a0 9a 15 bd
       0.035219997 -0.018081635 -0.027532399 -0.036524415
000250 00 05 fa 3b 08 42 11 bd 00 40 1b ba f0 43 7f bd
       0.0076299906 -0.035463363 -0.00059223175 -0.06232065
000260 28 e0 0c bd fc a5 6f bd 30 65 24 3d b0 c8 c7 3c
       -0.03439346 -0.058507904 0.040135562 0.024387687
000270 80 73 9b bc 00 86 a9 bc c0 3b b7 3c 00 14 ba 3b
       -0.018975973 -0.020693779 0.022367358 0.0056786537
000280 a0 c8 11 3d c0 c7 40 3c 00 e7 d9 3c e0 1d 6f bc
       0.03559172 0.011766374 0.026599407 -0.014594525
000290 70 b5 90 bc 68 a8 08 bd 20 35 bd bc 20 60 94 3c
       -0.017664641 -0.03336373 -0.023096621 0.018112242
0002a0 6e a4 c5 3d 10 c3 13 3d 00 73 bd 3c 56 6f b8 bd
       0.09650503 0.036074698 0.023126125 -0.09005611
0002b0 80 f0 a2 3c 50 a8 c2 bd a0 4a 7e 3c 58 b8 29 3d
       0.01989007 -0.09504759 0.015520722 0.04143557
0002c0 80 94 8e 3c c8 cf 1d 3d a0 d4 7a bc 80 1b 98 bc
       0.017404795 0.038528234 -0.015309483 -0.0185678
0002d0 30 3b 16 bd 80 98 38 3b 08 0b 18 bd 80 bf 67 bb
       -0.03667754 0.002816707 -0.037119895 -0.0035361946
0002e0 94 4a 83 bd b0 05 de bc 08 68 5a bd f8 12 14 3d
       -0.06410709 -0.027102321 -0.05332187 0.036150903
0002f0 b0 a1 cb 3c a0 69 8f bc a0 0e 99 bc 00 5b aa 3c
       0.024857372 -0.01750642 -0.018683732 0.020795345
000300 80 86 8d 3b b8 9a 07 3d 80 07 2f 3c 20 5c e0 3c
       0.004319012 0.033106536 0.0106829405 0.027387679
000310 c0 40 67 bc d0 81 8a bc d0 6a d0 bc 80 5d 4e bb
       -0.014114559 -0.016907603 -0.025441557 -0.0031488836
000320 b8 b6 8e 3c f6 fd d5 3d c0 64 a3 3c d8 ee 19 3d
       0.017421111 0.1044883 0.019945502 0.037581295
000330 d0 c9 a6 bd a0 59 29 3c a9 f5 06 be 40 08 57 3c
       -0.081439614 0.01033631 -0.1317965 0.013124526
000340 b8 90 21 3d 50 e9 83 3c b8 5c 0a 3d 10 ec 92 bc
       0.039444655 0.016102463 0.03377983 -0.017934829
000350 10 c9 ee bc f0 87 07 bd 00 90 37 39 18 25 11 bd
       -0.029148608 -0.033088624 0.00017505884 -0.035435766
000360 20 25 4b bc f8 75 7b bd c0 4a 0a bd b0 16 5f bd
       -0.012398988 -0.0613918 -0.033762693 -0.054464996
000370 78 49 35 3d 00 21 93 3c f0 d6 9d bc 00 91 ac bc
       0.04425952 0.017960072 -0.01926753 -0.021065235
000380 90 75 b8 3c 80 53 68 3b 78 06 0c 3d 60 ec 30 3c
       0.022516996 0.003545016 0.034185857 0.010798544
000390 c0 55 e6 3c a0 df 6b bc 50 f6 a5 bc 30 b8 95 bc
       0.02811706 -0.014396578 -0.020259053 -0.018276304
0003a0 68 68 1a bd 90 fb e2 3c 1c 87 c2 3d 98 1b 0e 3d
       -0.037697226 0.027707845 0.09498426 0.034694284
0003b0 90 4e f9 3c e8 90 98 bd 40 ce 9e 3c 40 de e6 bd
       0.03043297 -0.07449514 0.019385457 -0.112728596
0003c0 e0 6a 0d 3c b0 4b 76 3d 00 c4 35 3c 28 18 36 3d
       0.008631438 0.060130775 0.011094093 0.04445663
0003d0 80 69 6b bc d8 1a 18 bd d0 61 23 bd 80 1d 0e 3c
       -0.014368415 -0.037134975 -0.039888203 0.008674026
0003e0 50 c9 10 bd 80 46 e0 bb 88 33 63 bd 28 6a 3e bd
       -0.035348237 -0.0068443418 -0.055469066 -0.046487957
0003f0 d0 b2 54 bd 58 e2 15 3d 80 73 e0 3c 50 52 8f bc
       -0.05192834 0.03659281 0.027398825 -0.017495304

quadA f4 [176, 3, 3]
000000 ac bf 2c bc 00 ea cd bc 00 a3 07 3a 00 ea cd bc
       -0.010543745 -0.025135994 0.000517413 -0.025135994
000010 48 27 ec 3b 60 75 d1 3c 00 a3 07 3a 60 75 d1 3c
       0.007206831 0.025568664 0.000517413 0.025568664
000020 10 b0 5a 3b ba e0 15 3d c0 f4 21 bd e8 7a ee 3d
       0.0033369102 0.03659127 -0.039540052 0.11644536
000030 c0 f4 21 bd d6 0e 74 bd 20 3e c4 3c e8 7a ee 3d
       -0.039540052 -0.05958446 0.023955405 0.11644536
000040 20 3e c4 3c 35 5c bc 3c 34 b0 30 bd 80 63 2e 3b
       0.023955405 0.022993186 -0.04313679 0.00266096
000050 76 62 85 bd 80 63 2e 3b 2c 2e 3f 3d 00 e0 94 3a
       -0.065129206 0.00266096 0.046674892 0.0011358261
000060 76 62 85 bd 00 e0 94 3a 80 df 67 bb 56 44 d2 ba
       -0.065129206 0.0011358261 -0.003538102 -0.0016042094
000070 80 fb 8e ba e0 ac 97 bb 80 fb 8e ba d6 49 bc ba
       -0.0010908693 -0.0046287626 -0.0010908693 -0.0014365267
000080 e0 8a 0f bc e0 ac 97 bb e0 8a 0f bc 15 47 47 3b
       -0.008761138 -0.0046287626 -0.008761138 0.0030407358
000090 65 3b 01 bc c0 fc b6 3b 00 04 29 ba c0 fc b6 3b
       -0.007887696 0.0055843294 -0.00064474344 0.0055843294
0000a0 d5 03 f2 3a e0 8d 85 bb 00 04 29 ba e0 8d 85 bb
       0.0018464277 -0.0040757507 -0.00064474344 -0.0040757507
0000b0 d5 f5 c5 3b 58 01 12 39 00 e2 94 3b 90 98 00 bc
       0.0060412684 0.00013924146 0.004543543 -0.007848874
0000c0 00 e2 94 3b 56 93 7c 3b 00 40 37 b9 90 98 00 bc
       0.004543543 0.0038539967 -0.00017476082 -0.007848874
0000d0 00 40 37 b9 b5 d9 82 bb 00 57 39 3b 00 ce 45 3a
       -0.00017476082 -0.003993238 0.0028280616 0.000754565
0000e0 a0 3b ed 3b 00 ce 45 3a 00 61 3d bc 00 fd 11 ba
       0.007239774 0.000754565 -0.011558771 -0.0005569011
0000f0 a0 3b ed 3b 00 fd 11 ba 40 0b 0f 3c 80 c4 98 3a
       0.007239774 -0.0005569011 0.00873071 0.0011655241
000100 00 4a 45 bb 20 cf e9 3b 00 4a 45 bb 80 4e 3e bb
       -0.0030103922 0.007135287 -0.0030103922 -0.002903849
000110 40 29 96 bb 20 cf e9 3b 40 29 96 bb 80 d8 e3 3a
       -0.004582554 0.007135287 -0.004582554 0.0017383248
000120 8b 42 c4 3b 00 dc 92 3a e0 f7 a6 3b 00 dc 92 3a
       0.005989378 0.0011204481 0.005095467 0.0011204481
000130 6a 55 17 bb 40 ac 5c 3b e0 f7 a6 3b 40 ac 5c 3b
       -0.0023091682 0.0033672005 0.005095467 0.0033672005
000140 aa 2f 71 bb 60 25 e0 b8 e0 0e ae bb 80 73 58 3b
       -0.0036802092 -0.00010688114 -0.005311832 0.0033027828
000150 e0 0e ae bb 56 ff b6 ba e0 ab a9 bb 80 73 58 3b
       -0.005311832 -0.0013961594 -0.00517796 0.0033027828
000160 e0 ab a9 bb aa 01 c5 3a b6 a8 b8 bb 80 c0 c5 3a
       -0.00517796 0.0015030403 -0.0056353463 0.0015087277
000170 60 02 b3 3b 80 c0 c5 3a 6b 75 2d bb 00 38 44 b9
       0.0054629296 0.0015087277 -0.0026467692 -0.00018712878
000180 60 02 b3 3b 00 38 44 b9 b5 b1 07 3c 49 2d 3e bd
       0.0054629296 -0.00018712878 0.008282115 -0.046429906
000190 b0 e4 0e bd 40 19 bc bb b0 e4 0e bd 16 6e 96 3c
       -0.034886062 -0.0057403147 -0.034886062 0.01836304
0001a0 a0 32 ee 3b 40 19 bc bb a0 32 ee 3b 7e ec e5 3c
       0.0072692186 -0.0057403147 0.0072692186 0.02806687
0001b0 08 aa 89 bc 44 09 72 bd 0e 65 c6 3d 44 09 72 bd
       -0.01680471 -0.059090868 0.096872434 -0.059090868
0001c0 dc 16 0f bd 00 76 5d 3c 0e 65 c6 3d 00 76 5d 3c
       -0.03493391 0.013516903 0.096872434 0.013516903
0001d0 e0 eb 53 3d 96 3b f4 bc 00 96 d5 bb b2 6f 84 bd
       0.05173862 -0.029813569 -0.0065181255 -0.06466617
0001e0 00 96 d5 bb f1 5b 17 3d 40 e0 35 bb b2 6f 84 bd
       -0.0065181255 0.036952917 -0.0027752072 -0.06466617
0001f0 40 e0 35 bb 38 f1 e9 bb 00 1c 19 3a 00 3d 01 bb
       -0.0027752072 -0.007139351 0.0005840659 -0.0019720197
000200 80 cd a3 bb 00 3d 01 bb 00 73 84 bb 20 2e 3c bc
       -0.0049988627 -0.0019720197 -0.0040420294 -0.011485606
000210 80 cd a3 bb 20 2e 3c bc 00 9f 62 3b 15 33 2e bc
       -0.0049988627 -0.011485606 0.0034579635 -0.010632296
000220 10 46 07 3c 00 63 dc 3a 10 46 07 3c ab 01 1b 3b
       0.00825645 0.0016814172 0.00825645 0.0023652117
000230 40 16 e6 bb 00 63 dc 3a 40 16 e6 bb ab 72 07 3c
       -0.0070216954 0.0016814172 -0.0070216954 0.008267085
000240 ea be 05 bb 40 de 66 3b a0 b8 99 bb 40 de 66 3b
       -0.0020407983 0.0035227686 -0.0046911985 0.0035227686
000250 2b 64 d1 3a 00 d8 ba ba a0 b8 99 bb 00 d8 ba ba
       0.0015975287 -0.0014255047 -0.0046911985 -0.0014255047
000260 ac 66 e8 39 00 fb a4 3a 00 23 18 ba 10 12 01 3c
       0.00044326985 0.0012587011 -0.0005803555 0.007877842
000270 00 23 18 ba b0 9e 2d bc 80 43 c1 ba 10 12 01 3c
       -0.0005803555 -0.010596916 -0.0014744848 0.007877842
000280 80 43 c1 ba 50 ff 18 3c 54 78 61 ba 80 43 b6 ba
       -0.0014744848 0.009338215 -0.0008600999 -0.0013905615
000290 20 91 3a 3c 80 43 b6 ba 2a ec b9 ba 40 19 c3 bb
       0.01138714 -0.0013905615 -0.0014184762 -0.005953938
0002a0 20 91 3a 3c 40 19 c3 bb 2b 54 15 3b 4b 52 9a 3b
       0.01138714 -0.005953938 0.0022785764 0.004709517
0002b0 00 6c 2d 3b c0 23 28 3b 00 6c 2d 3b 15 5d 8f bb
       0.0026462078 0.0025656074 0.0026462078 -0.00437511
0002c0 80 b1 8a 3a c0 23 28 3b 80 b1 8a 3a 50 53 af b9
       0.0010581464 0.0025656074 0.0010581464 -0.00033440674
0002d0 00 c8 fb 3a c0 6d b1 bb 40 3d 54 3b c0 6d b1 bb
       0.0019209385 -0.0054146945 0.003238514 -0.0054146945
0002e0 20 33 b4 bb c0 8d c3 bb 40 3d 54 3b c0 8d c3 bb
       -0.0054992586 -0.0059678257 0.003238514 -0.0059678257
0002f0 40 82 6a 3b 45 af 1e bc 60 aa c2 3b 60 70 d1 3b
       0.0035783201 -0.009685342 0.0059407204 0.00639157
000300 60 aa c2 3b aa 3e 81 ba 00 b8 1f b9 60 70 d1 3b
       0.0059407204 -0.0009860594 -0.00015231967 0.00639157
000310 00 b8 1f b9 1b d7 2e 3c b9 57 06 bd a0 17 6d bc
       -0.00015231967 0.010671402 -0.032798503 -0.014470965
000320 20 80 9d bb a0 17 6d bc ca 34 4c 3c 80 5b 61 bc
       -0.0048065335 -0.014470965 0.012463758 -0.013754725
000330 20 80 9d bb 80 5b 61 bc 0d 95 a6 3c 28 a4 f9 3c
       -0.0048065335 -0.013754725 0.020334745 0.030473784
000340 60 ae 2c bd f8 b9 cc 3d 60 ae 2c bd a4 46 51 bd
       -0.042158484 0.09996408 -0.042158484 -0.05109276
000350 a0 cb 81 3c f8 b9 cc 3d a0 cb 81 3c 20 e9 a8 3c
       0.015844166 0.09996408 0.015844166 0.020618975
000360 2d 7c 56 bd 40 25 6e 3b 14 01 5d bd 40 25 6e 3b
       -0.052364517 0.003633812 -0.053956106 0.003633812
000370 93 f7 25 3d 80 70 94 bb 14 01 5d bd 80 70 94 bb
       0.04051931 -0.0045300126 -0.053956106 -0.0045300126
000380 6c 12 42 3c 00 ac b1 ba 00 8c 88 ba 40 b3 a1 bb
       0.011845212 -0.0013555288 -0.00104177 -0.0049346983
000390 00 8c 88 ba 00 d3 42 3a c0 f7 28 bc 40 b3 a1 bb
       -0.00104177 0.0007431954 -0.010312974 -0.0049346983
0003a0 c0 f7 28 bc 00 85 20 3a f5 eb 10 bc 00 f9 fd 3b
       -0.010312974 0.0006123334 -0.008845319 0.0077506304
0003b0 80 1f 89 ba 00 f9 fd 3b aa ce 0f 3a e0 c3 9f bb
       -0.0010461658 0.0077506304 0.00054858124 -0.004875645
0003c0 80 1f 89 ba e0 c3 9f bb 0b ef 07 3c 00 01 76 ba
       -0.0010461658 -0.004875645 0.008296738 -0.0009384304
0003d0 40 bb 36 3b 40 8b 57 bb 40 bb 36 3b 80 a4 03 3b
       0.0027882606 -0.0032889396 0.0027882606 0.0020087063
0003e0 00 46 89 ba 40 8b 57 bb 00 46 89 ba 80 48 8c ba
       -0.0010473132 -0.0032889396 -0.0010473132 -0.0010702759
0003f0 d5 e7 98 ba 80 c2 24 bb 20 f2 a4 3b 80 c2 24 bb
       -0.0011665771 -0.0025140345 0.0050337464 -0.0025140345

hfvrA f4 [176, 1]
000000 49 e5 89 3f 18 d3 68 3f c4 56 92 3f 46 50 9d 3e
       1.0773097 0.90947104 1.1432729 0.30725306
000010 d4 80 a2 3e 8c 13 9e 3e 22 b4 b7 3e c0 d4 a5 3e
       0.31738913 0.30874288 0.35879618 0.32388878
000020 8c 3d 15 3e 9c 0f 09 3e d8 e1 fc 3d 8e f9 88 3f
       0.1457426 0.13384861 0.12347764 1.0701158
000030 d0 83 63 3f 58 54 90 3f d0 36 ae 3e 44 e6 ad 3e
       0.88873005 1.127574 0.34026194 0.3396474
000040 18 cc 94 3e 48 50 b6 3e 2c 20 b5 3e 20 a2 02 3e
       0.2906196 0.35608125 0.35376108 0.12757158
000050 f8 43 18 3e d0 dc 39 3e a9 76 89 3f 68 3d 64 3f
       0.14869678 0.1815064 1.0739337 0.891562
000060 32 d6 91 3f 44 11 a2 3e 00 7e a2 3e 16 09 81 3e
       1.1393492 0.31653798 0.31736755 0.25202245
000070 6c bb 99 3e 16 27 9e 3e 88 21 20 3e 78 33 0f 3e
       0.30025804 0.30889195 0.15637791 0.13984478
000080 68 8e f5 3d ae 9e 87 3f 70 8d 68 3f 41 d6 90 3f
       0.119900525 1.05953 0.90840816 1.1315385
000090 0c e5 8e 3e 4e 11 9e 3e 66 5c 85 3e 08 42 a3 3e
       0.27909124 0.30872577 0.26047057 0.31886315
0000a0 30 c8 ac 3e 9c a7 12 3e 68 f9 14 3e b0 cb 18 3e
       0.3374648 0.1432175 0.14548266 0.1492145
0000b0 8d d8 88 3f a2 d3 63 3f 7d aa 91 3f 94 68 ad 3e
       1.0691086 0.889948 1.1380154 0.3386885
0000c0 f2 e2 8b 3e 68 01 9e 3e e2 01 a6 3e c0 46 a5 3e
       0.27321583 0.30860448 0.3242331 0.3228054
0000d0 84 3a 06 3e 20 49 21 3e ac cb 14 3e a4 f2 87 3f
       0.1310826 0.15750551 0.1453082 1.0620923
0000e0 b4 eb 60 3f bd 3b 93 3f 92 12 9f 3e 7c fe 9c 3e
       0.87859654 1.1502606 0.31068856 0.30662906
0000f0 d6 8a 90 3e 7a 35 ab 3e 2c ca 97 3e d8 fe 00 3e
       0.28230923 0.33439237 0.29646432 0.12597215
000100 98 3d 24 3e 90 cd 2b 3e c0 c6 84 3f a4 b6 62 3f
       0.16039121 0.16777635 1.0373154 0.8855994
000110 5e 50 92 3f be 12 89 3e cc a8 ab 3e a4 d6 80 3e
       1.1430776 0.26772112 0.3352722 0.25163758
000120 f8 a7 9a 3e 16 31 a6 3e 28 d0 19 3e b4 43 25 3e
       0.30206275 0.32459325 0.15020812 0.16139108
000130 50 35 03 3e f9 a1 90 3f 4e bf 5e 3f 44 4b 92 3f
       0.12813306 1.129943 0.8701066 1.1429219
000140 d6 fb b7 3e 9c e6 96 3e 86 32 97 3e f4 00 99 3e
       0.35934323 0.29472816 0.29530734 0.2988354
000150 b0 a3 8b 3e 90 0a 06 3e 6c 8f 12 3e 4c 14 00 3e
       0.2727332 0.13089967 0.14312524 0.12507743
000160 92 76 8b 3f 58 e1 61 3f 53 54 a5 3f e2 69 dc 3e
       1.089556 0.8823447 1.2916359 0.43049532
000170 ba 3c af 3e 3a 64 80 3e 6a 4a d4 3e 00 fc 99 3e
       0.34226018 0.25076467 0.41463023 0.30075073
000180 60 f3 33 3e 90 2c 3c 3e c8 ec 30 3e 10 05 8a 3f
       0.17573309 0.18376374 0.17277825 1.0782795
000190 c1 1b 5d 3f 3b f6 90 3f 6a a4 b0 3e 18 80 a6 3e
       0.86370474 1.1325144 0.34500438 0.32519603
0001a0 28 7e 8d 3e 1a 06 a3 3e 80 24 aa 3e cc c5 1e 3e
       0.27635312 0.31840593 0.33230972 0.15505141
0001b0 d4 c0 2d 3e 6c c3 26 3e 08 67 89 3f 22 7b 61 3f
       0.1696809 0.16285485 1.0734568 0.8807851
0001c0 4b 25 92 3f e2 0a c3 3e 04 75 92 3e 3e 6d a7 3e
       1.1417631 0.3809424 0.286049 0.32700533
0001d0 1c d8 b9 3e 5a cb a0 3e d8 b9 0b 3e 18 e5 fd 3d
       0.3629769 0.31405145 0.13645113 0.12397212
0001e0 78 60 18 3e 05 01 8b 3f bd 3d 5f 3f 43 cf 8f 3f
       0.1488055 1.0859686 0.8720358 1.1235126
0001f0 50 ed 83 3e ca 6b 99 3e 94 9c 9b 3e 30 3e 8d 3e
       0.25766993 0.2996505 0.30392897 0.27586508
000200 28 4a a7 3e 60 52 19 3e a0 7f 1d 3e d4 07 12 3e
       0.32673764 0.1497283 0.15380716 0.14260799
000210 48 0f 8c 3f 52 58 62 3f 56 7b 93 3f 08 04 83 3e
       1.0942163 0.88416016 1.1522014 0.25589013
000220 9a 6f 93 3e be 63 93 3e 36 01 9f 3e da eb 93 3e
       0.28796083 0.28787035 0.3105561 0.28890878
000230 80 80 36 3e b8 be 58 3e 28 71 fa 3d 36 03 8b 3f
       0.17822456 0.21166503 0.12228614 1.0860355
000240 68 20 66 3f b4 e3 91 3f 14 93 b5 3e ae b0 ac 3e
       0.898932 1.1397614 0.35463774 0.33728546
000250 68 11 83 3e 6a 0f aa 3e fc 45 a1 3e dc f1 0b 3e
       0.25599217 0.33214885 0.31498706 0.13666481
000260 d0 a7 21 3e b8 ce fc 3d f0 96 8a 3f ea 33 5e 3f
       0.15786672 0.12344116 1.0827312 0.86797965
000270 b5 6a 90 3f 88 bc a4 3e 84 e6 96 3e 44 ef 9c 3e
       1.1282564 0.32175088 0.29472744 0.30651295
000280 78 95 9a 3e e8 8b a2 3e 24 18 1d 3e c4 64 26 3e
       0.3019216 0.31747365 0.1534124 0.16249377
000290 90 8a 08 3e 8a 37 85 3f f6 8e 68 3f 92 b4 91 3f
       0.13334107 1.0407574 0.9084314 1.1383231
0002a0 72 39 a9 3e 14 39 9d 3e c8 a6 84 3e 46 f1 b8 3e
       0.3305164 0.3070761 0.25908494 0.36121577
0002b0 30 08 b7 3e c0 77 e7 3d 88 9a 1e 3e 88 b8 1d 3e
       0.35748434 0.113021374 0.15488636 0.15402424

vwA f4 [176, 1]
000000 5d db 04 3f f4 6f 00 3f 3f d4 e5 3e 35 75 c0 3e
       0.5189722 0.50170827 0.44888493 0.37589422
000010 e8 61 c2 3e 04 f4 c2 3e fb 40 c7 3e 74 6b c3 3e
       0.37965322 0.38076794 0.38916764 0.38167918
000020 d8 af aa 3e cb e9 a6 3e 68 3f a3 3e b0 96 04 3f
       0.33337283 0.32600245 0.31884313 0.5179243
000030 47 52 ff 3e 02 ac e6 3e f5 0c c7 3e 10 9e c7 3e
       0.4986746 0.45053107 0.38877073 0.3898778
000040 d5 3a be 3e 43 6b c7 3e cc 16 c7 3e 36 2b a7 3e
       0.3715426 0.38949022 0.3888458 0.32650155
000050 1a 58 aa 3e 25 ff b4 3e e9 c4 04 3f 6a 17 ff 3e
       0.3327034 0.3535091 0.5186296 0.4982255
000060 cf db e6 3e 77 bd c2 3e c4 ec c2 3e b1 4d b9 3e
       0.45089576 0.38035175 0.38071263 0.36192086
000070 78 af be 3e f8 f0 be 3e a2 ae ad 3e 45 cb a8 3e
       0.37243247 0.3729322 0.33922297 0.32967582
000080 87 78 a3 3e 63 73 03 3f 97 ad 00 3f b8 16 e6 3e
       0.31927893 0.5134794 0.5026488 0.44939208
000090 43 25 bb 3e 0c b7 c0 3e 4d f3 ba 3e 28 ca c0 3e
       0.36551866 0.37639654 0.3651375 0.37654233
0000a0 52 c4 c3 3e 28 95 aa 3e 47 a6 aa 3e b2 9b ab 3e
       0.38235718 0.33316922 0.33329985 0.33517224
0000b0 ee 50 04 3f d8 7f ff 3e fd e7 e4 3e c3 7b c6 3e
       0.5168599 0.49902225 0.44708243 0.38766298
0000c0 78 87 ba 3e 84 9f c2 3e 17 8a c1 3e 4c 71 c3 3e
       0.3643148 0.38012326 0.37800667 0.38172376
0000d0 1e 00 a3 3e 3f aa a8 3e c1 18 a8 3e a2 56 04 3f
       0.31836027 0.32942387 0.32831386 0.5169469
0000e0 24 7e fe 3e 5e 98 e8 3e ca 0d c2 3e ab 70 c0 3e
       0.49705613 0.45428747 0.37901145 0.3758596
0000f0 a8 ea bd 3e 87 98 c2 3e cd 2a bd 3e 30 49 a6 3e
       0.3709309 0.38006994 0.36946717 0.32477713
000100 cb de ac 3e 98 c3 af 3e 02 f3 02 3f 18 6c ff 3e
       0.33763728 0.34328914 0.5115205 0.49887156
000110 d2 ed e5 3e 32 2f b9 3e 29 56 c5 3e 0f 4a b9 3e
       0.44908005 0.3616882 0.38542297 0.36189315
000120 88 bc be 3e 09 b7 c4 3e c4 38 a8 3e f8 aa ae 3e
       0.37253213 0.38420895 0.3285581 0.34114814
000130 fe d8 9e 3e 06 ef 05 3f 18 7d fe 3e 0c dd e5 3e
       0.31024927 0.52317846 0.49704814 0.44895208
000140 27 f6 c9 3e 5b 79 bf 3e 03 13 c1 3e e1 93 be 3e
       0.39445612 0.37397274 0.37709817 0.37222198
000150 cb ae b8 3e 6b d3 a6 3e a7 d9 a9 3e 6f 94 a4 3e
       0.36070856 0.32583174 0.33173868 0.32144496
000160 ba fc 04 3f a8 c8 ff 3e 63 33 ed 3e 03 84 d0 3e
       0.5194813 0.49957776 0.46328267 0.40725717
000170 d3 74 c6 3e a4 a1 b6 3e 09 a5 c9 3e 69 54 ba 3e
       0.38761005 0.35670197 0.39383724 0.36392525
000180 86 1f b0 3e e8 bb b0 3e 8c fb b0 3e 78 0a 05 3f
       0.3439905 0.3451836 0.34566915 0.519691
000190 cb a5 fd 3e c1 da e8 3e 73 ee c7 3e 75 e4 c3 3e
       0.49540552 0.45479396 0.3904911 0.38260236
0001a0 3e a0 bb 3e 46 28 c0 3e a5 43 c2 3e 38 94 ad 3e
       0.36645693 0.37530726 0.37942234 0.33902144
0001b0 ee ef b0 3e 06 bb ad 3e aa 9e 04 3f f4 d4 fe 3e
       0.34558052 0.3393175 0.518046 0.49771845
0001c0 6a 99 e6 3e e4 f3 ca 3e 50 12 bd 3e d5 23 c5 3e
       0.4503892 0.396392 0.36928034 0.385039
0001d0 a0 df c8 3e b1 96 c0 3e 7a a3 a7 3e 54 14 a3 3e
       0.39233112 0.37614968 0.3274191 0.31851447
0001e0 11 62 ab 3e 10 ee 04 3f 88 70 fe 3e 88 0e e7 3e
       0.33473256 0.51925755 0.4969523 0.45128274
0001f0 0e 7d b9 3e 16 7d c1 3e 3b 59 c1 3e da 57 b8 3e
       0.36228222 0.37790745 0.3776339 0.36004525
000200 95 c0 c1 3e e4 fa ac 3e d4 82 ae 3e c9 3b aa 3e
       0.3784224 0.33785164 0.3408419 0.33248737
000210 98 d7 04 3f c8 03 ff 3e 84 0c e9 3e 09 9b b9 3e
       0.5189147 0.49807572 0.4551736 0.36251095
000220 34 68 bf 3e 80 fb bf 3e 7d 59 bf 3e 27 d2 ba 3e
       0.37384188 0.37496567 0.37372962 0.3648846
000230 b5 cc b2 3e a4 51 bb 3e 88 3d a2 3e 42 4b 05 3f
       0.34921804 0.36585724 0.3168757 0.5206796
000240 20 da ff 3e 26 e6 e6 3e 6e f7 c9 3e 01 06 c7 3e
       0.49971104 0.45097464 0.39446586 0.38871768
000250 81 73 b8 3e 09 1a c3 3e ba bc c0 3e b0 bf a9 3e
       0.36025622 0.381058 0.37643987 0.33154058
000260 0a af ae 3e 73 9b a4 3e 14 2e 05 3f 45 e2 fd 3e
       0.3411792 0.32149848 0.52023435 0.49586692
000270 f5 a4 e7 3e ff 6d c3 3e bb 91 bf 3e fb 7b c2 3e
       0.4524304 0.38169858 0.3741587 0.37985215
000280 f5 a2 bd 3e ad ba c0 3e 74 41 ad 3e 28 3c af 3e
       0.3703839 0.37642422 0.33839 0.34225583
000290 bd 33 a6 3e 0a 43 03 3f 03 b7 00 3f 54 31 e6 3e
       0.32461348 0.5127417 0.50279254 0.4495951
0002a0 e9 a9 c4 3e 08 22 c0 3e 95 35 ba 3e 98 06 c8 3e
       0.3841088 0.37525964 0.36369005 0.3906753
0002b0 e7 90 c7 3e 8e e0 a0 3e 56 7c ac 3e dd 54 ab 3e
       0.3897774 0.31421322 0.3368861 0.33463183

alpha_0_A f4 [2816]
000000 aa 30 3b 41 aa 30 3b 41 4c 04 e8 40 1e f9 8f 40
       11.699381 11.699381 7.2505245 4.49916
000010 1e f9 8f 40 1e f9 8f 40 1e f9 8f 40 1e f9 8f 40
       4.49916 4.49916 4.49916 4.49916
000020 1e f9 8f 40 1e f9 8f 40 1e f9 8f 40 aa 30 3b 41
       4.49916 4.49916 4.49916 11.699381
000030 aa 30 3b 41 4c 04 e8 40 1e f9 8f 40 1e f9 8f 40
       11.699381 7.2505245 4.49916 4.49916
000040 1e f9 8f 40 1e f9 8f 40 1e f9 8f 40 1e f9 8f 40
       4.49916 4.49916 4.49916 4.49916
000050 1e f9 8f 40 1e f9 8f 40 aa 30 3b 41 aa 30 3b 41
       4.49916 4.49916 11.699381 11.699381
000060 4c 04 e8 40 1e f9 8f 40 1e f9 8f 40 1e f9 8f 40
       7.2505245 4.49916 4.49916 4.49916
000070 1e f9 8f 40 1e f9 8f 40 1e f9 8f 40 1e f9 8f 40
       4.49916 4.49916 4.49916 4.49916
000080 1e f9 8f 40 aa 30 3b 41 aa 30 3b 41 4c 04 e8 40
       4.49916 11.699381 11.699381 7.2505245
000090 1e f9 8f 40 1e f9 8f 40 1e f9 8f 40 1e f9 8f 40
       4.49916 4.49916 4.49916 4.49916
0000a0 1e f9 8f 40 1e f9 8f 40 1e f9 8f 40 1e f9 8f 40
       4.49916 4.49916 4.49916 4.49916
0000b0 aa 30 3b 41 aa 30 3b 41 4c 04 e8 40 1e f9 8f 40
       11.699381 11.699381 7.2505245 4.49916
0000c0 1e f9 8f 40 1e f9 8f 40 1e f9 8f 40 1e f9 8f 40
       4.49916 4.49916 4.49916 4.49916
0000d0 1e f9 8f 40 1e f9 8f 40 1e f9 8f 40 aa 30 3b 41
       4.49916 4.49916 4.49916 11.699381
0000e0 aa 30 3b 41 4c 04 e8 40 1e f9 8f 40 1e f9 8f 40
       11.699381 7.2505245 4.49916 4.49916
0000f0 1e f9 8f 40 1e f9 8f 40 1e f9 8f 40 1e f9 8f 40
       4.49916 4.49916 4.49916 4.49916
000100 1e f9 8f 40 1e f9 8f 40 aa 30 3b 41 aa 30 3b 41
       4.49916 4.49916 11.699381 11.699381
000110 4c 04 e8 40 1e f9 8f 40 1e f9 8f 40 1e f9 8f 40
       7.2505245 4.49916 4.49916 4.49916
000120 1e f9 8f 40 1e f9 8f 40 1e f9 8f 40 1e f9 8f 40
       4.49916 4.49916 4.49916 4.49916
000130 1e f9 8f 40 aa 30 3b 41 aa 30 3b 41 4c 04 e8 40
       4.49916 11.699381 11.699381 7.2505245
000140 1e f9 8f 40 1e f9 8f 40 1e f9 8f 40 1e f9 8f 40
       4.49916 4.49916 4.49916 4.49916
000150 1e f9 8f 40 1e f9 8f 40 1e f9 8f 40 1e f9 8f 40
       4.49916 4.49916 4.49916 4.49916
000160 aa 30 3b 41 aa 30 3b 41 4c 04 e8 40 1e f9 8f 40
       11.699381 11.699381 7.2505245 4.49916
000170 1e f9 8f 40 1e f9 8f 40 1e f9 8f 40 1e f9 8f 40
       4.49916 4.49916 4.49916 4.49916
000180 1e f9 8f 40 1e f9 8f 40 1e f9 8f 40 aa 30 3b 41
       4.49916 4.49916 4.49916 11.699381
000190 aa 30 3b 41 4c 04 e8 40 1e f9 8f 40 1e f9 8f 40
       11.699381 7.2505245 4.49916 4.49916
0001a0 1e f9 8f 40 1e f9 8f 40 1e f9 8f 40 1e f9 8f 40
       4.49916 4.49916 4.49916 4.49916
0001b0 1e f9 8f 40 1e f9 8f 40 aa 30 3b 41 aa 30 3b 41
       4.49916 4.49916 11.699381 11.699381
0001c0 4c 04 e8 40 1e f9 8f 40 1e f9 8f 40 1e f9 8f 40
       7.2505245 4.49916 4.49916 4.49916
0001d0 1e f9 8f 40 1e f9 8f 40 1e f9 8f 40 1e f9 8f 40
       4.49916 4.49916 4.49916 4.49916
0001e0 1e f9 8f 40 aa 30 3b 41 aa 30 3b 41 4c 04 e8 40
       4.49916 11.699381 11.699381 7.2505245
0001f0 1e f9 8f 40 1e f9 8f 40 1e f9 8f 40 1e f9 8f 40
       4.49916 4.49916 4.49916 4.49916
000200 1e f9 8f 40 1e f9 8f 40 1e f9 8f 40 1e f9 8f 40
       4.49916 4.49916 4.49916 4.49916
000210 aa 30 3b 41 aa 30 3b 41 4c 04 e8 40 1e f9 8f 40
       11.699381 11.699381 7.2505245 4.49916
000220 1e f9 8f 40 1e f9 8f 40 1e f9 8f 40 1e f9 8f 40
       4.49916 4.49916 4.49916 4.49916
000230 1e f9 8f 40 1e f9 8f 40 1e f9 8f 40 aa 30 3b 41
       4.49916 4.49916 4.49916 11.699381
000240 aa 30 3b 41 4c 04 e8 40 1e f9 8f 40 1e f9 8f 40
       11.699381 7.2505245 4.49916 4.49916
000250 1e f9 8f 40 1e f9 8f 40 1e f9 8f 40 1e f9 8f 40
       4.49916 4.49916 4.49916 4.49916
000260 1e f9 8f 40 1e f9 8f 40 aa 30 3b 41 aa 30 3b 41
       4.49916 4.49916 11.699381 11.699381
000270 4c 04 e8 40 1e f9 8f 40 1e f9 8f 40 1e f9 8f 40
       7.2505245 4.49916 4.49916 4.49916
000280 1e f9 8f 40 1e f9 8f 40 1e f9 8f 40 1e f9 8f 40
       4.49916 4.49916 4.49916 4.49916
000290 1e f9 8f 40 aa 30 3b 41 aa 30 3b 41 4c 04 e8 40
       4.49916 11.699381 11.699381 7.2505245
0002a0 1e f9 8f 40 1e f9 8f 40 1e f9 8f 40 1e f9 8f 40
       4.49916 4.49916 4.49916 4.49916
0002b0 1e f9 8f 40 1e f9 8f 40 1e f9 8f 40 1e f9 8f 40
       4.49916 4.49916 4.49916 4.49916
0002c0 aa 30 3b 41 aa 30 3b 41 4c 04 e8 40 1e f9 8f 40
       11.699381 11.699381 7.2505245 4.49916
0002d0 1e f9 8f 40 1e f9 8f 40 1e f9 8f 40 1e f9 8f 40
       4.49916 4.49916 4.49916 4.49916
0002e0 1e f9 8f 40 1e f9 8f 40 1e f9 8f 40 aa 30 3b 41
       4.49916 4.49916 4.49916 11.699381
0002f0 aa 30 3b 41 4c 04 e8 40 1e f9 8f 40 1e f9 8f 40
       11.699381 7.2505245 4.49916 4.49916
000300 1e f9 8f 40 1e f9 8f 40 1e f9 8f 40 1e f9 8f 40
       4.49916 4.49916 4.49916 4.49916
000310 1e f9 8f 40 1e f9 8f 40 aa 30 3b 41 aa 30 3b 41
       4.49916 4.49916 11.699381 11.699381
000320 4c 04 e8 40 1e f9 8f 40 1e f9 8f 40 1e f9 8f 40
       7.2505245 4.49916 4.49916 4.49916
000330 1e f9 8f 40 1e f9 8f 40 1e f9 8f 40 1e f9 8f 40
       4.49916 4.49916 4.49916 4.49916
000340 1e f9 8f 40 aa 30 3b 41 aa 30 3b 41 4c 04 e8 40
       4.49916 11.699381 11.699381 7.2505245
000350 1e f9 8f 40 1e f9 8f 40 1e f9 8f 40 1e f9 8f 40
       4.49916 4.49916 4.49916 4.49916
000360 1e f9 8f 40 1e f9 8f 40 1e f9 8f 40 1e f9 8f 40
       4.49916 4.49916 4.49916 4.49916
000370 aa 30 3b 41 aa 30 3b 41 4c 04 e8 40 1e f9 8f 40
       11.699381 11.699381 7.2505245 4.49916
000380 1e f9 8f 40 1e f9 8f 40 1e f9 8f 40 1e f9 8f 40
       4.49916 4.49916 4.49916 4.49916
000390 1e f9 8f 40 1e f9 8f 40 1e f9 8f 40 aa 30 3b 41
       4.49916 4.49916 4.49916 11.699381
0003a0 aa 30 3b 41 4c 04 e8 40 1e f9 8f 40 1e f9 8f 40
       11.699381 7.2505245 4.49916 4.49916
0003b0 1e f9 8f 40 1e f9 8f 40 1e f9 8f 40 1e f9 8f 40
       4.49916 4.49916 4.49916 4.49916
0003c0 1e f9 8f 40 1e f9 8f 40 aa 30 3b 41 aa 30 3b 41
       4.49916 4.49916 11.699381 11.699381
0003d0 4c 04 e8 40 1e f9 8f 40 1e f9 8f 40 1e f9 8f 40
       7.2505245 4.49916 4.49916 4.49916
0003e0 1e f9 8f 40 1e f9 8f 40 1e f9 8f 40 1e f9 8f 40
       4.49916 4.49916 4.49916 4.49916
0003f0 1e f9 8f 40 aa 30 3b 41 aa 30 3b 41 4c 04 e8 40
       4.49916 11.699381 11.699381 7.2505245
