tests/test_data_path/og_processed/dimer_ap3_train_spec_7_531.pt (torch, 122770 bytes, 17 tensors)

y f4 [16, 4]
000000 b4 21 0d 41 d4 74 09 40 97 7c c0 c0 62 cc f4 bf
       8.820728 2.1477556 -6.0152087 -1.9124873
000010 31 65 7b 40 0e 95 80 37 9b a4 e5 be 7e ac a2 bc
       3.9280512 1.5328198e-05 -0.44852147 -0.019857641
000020 a6 3b 91 40 22 9e 4c 40 1c a0 be c0 90 79 28 c0
       4.5385313 3.1971517 -5.9570446 -2.6324196
000030 ae 17 b4 3f b5 ec e3 41 e2 89 3a c1 5b 5f c6 c0
       1.4069726 28.49058 -11.658663 -6.19914
000040 35 11 12 c1 cf 55 0b 3e 52 b4 56 c0 84 bb 22 bf
       -9.129201 0.13606952 -3.3547559 -0.63567376
000050 2e 8f ac c1 1d 59 39 41 19 8f 4a c1 9d 66 91 c0
       -21.569912 11.584256 -12.659936 -4.543776
000060 d7 2c a0 c1 bf 30 8a 42 dd fc 06 c2 c8 1a 45 c1
       -20.021894 69.09521 -33.746937 -12.319038
000070 99 a1 55 41 16 5d 80 41 d1 39 1f c1 c2 6d 8f c0
       13.351953 16.045452 -9.951615 -4.482148
000080 f4 de bc c0 0d f8 1a 41 de 1a 2d c1 f4 97 b3 c0
       -5.902216 9.685559 -10.819059 -5.612299
000090 30 7c f5 c1 32 5c 8c 41 67 e5 6c c1 ad b7 b7 c0
       -30.685638 17.545017 -14.806006 -5.7411714
0000a0 92 f7 58 41 b5 0b c6 3f 80 c8 af c0 32 a8 cf bf
       13.560442 1.5472323 -5.493225 -1.6223204
0000b0 f3 f5 0d 41 90 d1 8c 3c 8d 27 0a c0 ab 42 80 be
       8.872546 0.017189771 -2.158664 -0.25050864
0000c0 05 a0 31 40 6d 92 3d 3c 84 23 e9 bf ba 01 92 be
       2.7753918 0.011570555 -1.8213964 -0.28516942
0000d0 c0 f3 a9 c2 bd 2c 03 43 69 57 56 c2 d1 fd 9f c1
       -84.976074 131.17476 -53.58536 -19.998934
0000e0 3b c7 5c 40 d1 e9 a0 3c 20 4f cf bf 52 84 62 be
       3.44966 0.019642742 -1.6196022 -0.22120789
0000f0 06 23 6e c2 9c b3 f3 42 d3 de 48 c2 05 93 86 c1
       -59.534203 121.8508 -50.2176 -16.821787

RA f4 [80, 3]
000000 2c bc 8b 3d 93 aa 15 bf 5e 63 b5 bf 9a 42 d7 be
       0.06823 -0.584634 -1.417095 -0.42043
000010 47 cc 8e bf e1 ec 80 3f e8 f7 83 bf a6 0e 8a 3f
       -1.115609 1.007229 -1.031003 1.078572
000020 36 cb 85 3d 09 8c b1 3f c4 94 1c 3f d4 81 cc 3e
       0.065329 1.387086 0.611645 0.399428
000030 e9 62 53 bc 95 0b 15 3c c7 63 06 bd 42 3f 53 3d
       -0.012902 0.009097 -0.03281 0.051574
000040 44 86 1d bf 27 6b b6 bf c6 30 bf be 20 5d 98 bf
       -0.61533 -1.425145 -0.373419 -1.190342
000050 01 6a 7a 3f 26 df 86 bf bc 21 99 3f 19 8c d1 3d
       0.97818 -1.053685 1.196342 0.102318
000060 72 a4 a9 3f 3e 25 13 3f fc 35 f1 3e 79 23 33 3d
       1.325331 0.574787 0.471115 0.043735
000070 e0 9e 27 bd 45 f5 16 bd c2 13 ba 3d 14 3d 10 bf
       -0.040923 -0.036855 0.090858 -0.563432
000080 61 de b9 bf 61 52 dc be de 74 91 bf bb 64 74 3f
       -1.452099 -0.430316 -1.136379 0.954662
000090 24 7e 8f bf cf 15 97 3f 25 ce 0a bb b0 8d aa 3f
       -1.121037 1.180353 -0.002118 1.332449
0000a0 3b 38 14 3f cf ba de 3e 95 61 5c bc ca 19 8a bc
       0.578983 0.435019 -0.013451 -0.016858
0000b0 83 a7 90 bc bc 03 dc 3d b9 1a 21 bf 5b ce b1 bf
       -0.017658 0.107429 -0.629314 -1.38911
0000c0 2a 73 c3 be 7e 56 87 bf 2d 95 6f 3f ff 09 82 bf
       -0.381738 -1.057327 0.93587 -1.01593
0000d0 0b b5 88 3f 19 8c 11 3d 68 09 b4 3f e8 4f 17 3f
       1.068025 0.035534 1.406537 0.591063
0000e0 2f 4d e1 3e 78 ed d2 bb c7 7f 81 3a b2 0d dc bc
       0.440042 -0.006437 0.000988 -0.026862
0000f0 0d fc 28 3d 44 6b 11 bf e6 78 bb bf e4 82 d3 be
       0.041256 -0.568043 -1.464627 -0.413108
000100 2a 8f 96 bf 66 31 83 3f 29 7a 88 bf 74 44 90 3f
       -1.176244 1.024945 -1.066228 1.127089
000110 a4 e0 29 3d 5f 5f b3 3f 2c f2 0b 3f 67 98 d2 3e
       0.041474 1.401348 0.546664 0.411319
000120 68 58 0c bd 0e 15 63 3b 33 51 04 3c a4 a7 08 3e
       -0.034264 0.003465 0.008076 0.133452
000130 77 66 06 bf 52 0d bb bf b3 eb de be 88 46 8d bf
       -0.525001 -1.461344 -0.435392 -1.103715
000140 e2 57 82 3f b8 1f 8a bf 84 bb 8f 3f 97 c6 6f 3d
       1.018307 -1.079093 1.12291 0.058539
000150 df 16 ae 3f 64 94 23 3f c4 93 dd 3e 3a b0 5c bd
       1.360073 0.638983 0.432768 -0.053879
000160 ab b2 2f bd 57 b1 78 3c 8d 44 c8 3d b3 ea 0f bf
       -0.042895 0.015179 0.097787 -0.562175
000170 d0 b4 b8 bf 7d 79 d1 be 6f 4b 98 bf 7f fb 72 3f
       -1.443018 -0.40913 -1.189802 0.94915
000180 5d a4 8c bf 92 24 90 3f 2b 85 40 3d a2 42 b5 3f
       -1.098766 1.126116 0.047002 1.416096
000190 c3 80 0d 3f 1f 47 cb 3e 46 7b 3c 3a 60 00 a1 bd
       0.552746 0.397027 0.000719 -0.078614
0001a0 6c 96 cb 3c fc fe 4d 3d 4d 48 0b bf ef 03 b8 bf
       0.024852 0.050292 -0.544072 -1.43762
0001b0 9a cd d3 be f8 1b 93 bf 05 f8 76 3f e7 1d 91 bf
       -0.413678 -1.149291 0.964722 -1.133725
0001c0 33 32 88 3f 49 a2 b7 3d b7 0b a5 3f 74 5e 0b 3f
       1.064032 0.089665 1.28942 0.54441
0001d0 95 b6 e8 3e 14 5b c1 bc 71 ae 21 3d 38 c0 0c bd
       0.454518 -0.023603 0.039473 -0.034363
0001e0 6d 8d a8 3d 1d 22 1e bf 93 a7 b0 bf 35 f1 b6 be
       0.082301 -0.617708 -1.380114 -0.357309
0001f0 6b 9d 9a bf 2d cc 82 3f 54 c4 83 bf f8 f9 91 3f
       -1.207929 1.021856 -1.029429 1.140441
000200 33 31 5d 3d a2 7e b3 3f 9d 2d 24 3f 0e a3 c0 3e
       0.054002 1.402302 0.641321 0.376244
000210 9e ee 3c bd a1 da 20 bd f4 dd ad bc cd e7 1c 3d
       -0.046126 -0.039271 -0.021224 0.038307
000220 b7 79 1f bf 74 95 be bf 57 5c dc be 43 58 8d bf
       -0.622951 -1.488936 -0.430392 -1.104256
000230 d1 3f 75 3f ca dc 86 bf 74 ea 8e 3f 11 1a 01 3d
       0.958005 -1.053613 1.11653 0.031519
000240 f8 fb af 3f 79 20 16 3f 2d 06 df 3e aa 0c e3 3b
       1.374877 0.586433 0.435594 0.006929
000250 82 a8 7b 37 fd 69 23 bc e1 d2 71 3d e7 55 05 bf
       1.5e-05 -0.009974 0.059039 -0.520842
000260 9a cf b5 bf ee 25 ed be 44 6b 9b bf 99 10 77 3f
       -1.420398 -0.46318 -1.214211 0.965097
000270 a6 61 88 bf d3 a0 90 3f ee 5b 2d 3d ad fb b1 3f
       -1.06548 1.129908 0.042324 1.390493
000280 96 3e 18 3f a8 71 df 3e 5e f3 aa 3c 4e d3 e7 3c
       0.594705 0.436414 0.020868 0.028299
000290 2f 36 ad 3c 87 fa dd 3d c0 20 15 bf 3d 7f b8 bf
       0.021144 0.108388 -0.582531 -1.441383
0002a0 c8 ef cd be c5 e2 91 bf 5c cb 78 3f fc 17 88 bf
       -0.40222 -1.139733 0.971853 -1.063232
0002b0 f7 e5 8e 3f ca a3 5b 3d a7 05 b1 3f 46 0a 21 3f
       1.116393 0.053623 1.382985 0.629063
0002c0 8e c8 d7 3e c6 a2 e9 3b 9c a8 a5 3d 3d d1 f5 bc
       0.421452 0.00713 0.080888 -0.030007
0002d0 19 ad 03 3e 01 de 0a bf d5 08 b3 bf 47 c6 ea be
       0.12859 -0.54245 -1.398707 -0.458544
0002e0 56 b8 95 bf 04 1e 84 3f d9 e8 88 bf 1a 52 8b 3f
       -1.169688 1.032166 -1.069606 1.088443
0002f0 d1 5b bc 3c e8 67 b4 3f fc 89 0a 3f a4 37 b4 3e
       0.022993 1.409421 0.541168 0.351987
000300 2e 3b c4 bc 77 f5 2a bd 0a 31 97 3b fd c0 b5 3d
       -0.023954 -0.041738 0.004614 0.088747
000310 3c c0 0b bf b5 37 b0 bf a9 16 d9 be 7f 88 8b bf
       -0.545902 -1.3767 -0.424001 -1.090103
000320 07 b6 86 3f e2 56 81 bf 55 2e 96 3f bf 49 53 3b
       1.05243 -1.010464 1.173289 0.003224
000330 59 c0 ae 3f e4 a3 19 3f 8d cf c4 3e 5f 98 4c bd
       1.365245 0.600157 0.384396 -0.04995
000340 01 32 f4 3c eb 19 02 3d bd df 28 3e a7 ca 17 bf
       0.029809 0.031763 0.164916 -0.592936
000350 b5 33 b4 bf 68 ca b6 be b2 f2 91 bf 36 cc 6c 3f
       -1.407828 -0.357013 -1.140219 0.924991
000360 14 d1 87 bf 78 7a 89 3f 88 49 b8 3a 7d e7 b1 3f
       -1.061068 1.07405 0.001406 1.389877
000370 40 6b 02 3f 87 a8 f2 3e 13 d3 85 ba f7 3b 54 3d
       0.509449 0.473942 -0.001021 0.051815
000380 40 89 8f 3d ba 4c 0d 3d c4 5b 17 bf dd 3f bc bf
       0.070086 0.034497 -0.591244 -1.470699
000390 bc cb cd be fc 6d 91 bf 55 4f 7a 3f 0e 2f 8a bf
       -0.401945 -1.136169 0.977773 -1.079561
0003a0 62 15 8d 3f cb be 6b 3d 46 41 aa 3f a3 92 0a 3f
       1.102215 0.057555 1.330117 0.5413
0003b0 f3 72 d0 3e f8 55 b9 3a ab ea 65 3c 86 a9 ad bc
       0.407127 0.001414 0.014033 -0.021199

RB f4 [160, 3]
000000 77 69 07 3f 35 99 5b c0 59 4d 07 c0 68 ec bd 3f
       0.528953 -3.431226 -2.114096 1.483777
000010 ab cc 85 c0 26 18 f6 bf 85 b0 ae 3f cf c8 a9 c0
       -4.181234 -1.922612 1.364762 -5.305763
000020 a3 e9 88 bf 10 b2 9c 3e ba 85 a7 c0 94 12 52 be
       -1.06963 0.306046 -5.235074 -0.205149
000030 57 07 33 40 67 73 80 c0 55 51 2c c0 16 4f 0c 40
       2.797323 -4.014087 -2.692464 2.192327
000040 55 76 b4 c0 52 0f 0d bf 82 53 0f be d6 9c 8c c0
       -5.639445 -0.551015 -0.139967 -4.394145
000050 15 6f 10 bf 81 0a 1c 40 1f be 7f c0 e9 2a 73 c0
       -0.564195 2.438141 -3.995979 -3.799494
000060 48 16 5a 40 61 8b 9c c0 d8 d6 22 c0 b5 c6 4b 40
       3.40761 -4.892014 -2.544363 3.184003
000070 c5 c9 48 c0 c3 80 1c c0 f2 e9 42 40 da 74 67 c0
       -3.137315 -2.445359 3.045529 -3.616507
000080 f7 75 e4 c0 4d 66 79 40 8a ac 85 c0 47 47 fd c0
       -7.1394 3.896869 -4.177312 -7.914951
000090 0e 4f 63 40 d5 21 91 c0 36 74 13 c1 95 46 06 40
       3.5517 -4.53538 -9.215872 2.098058
0000a0 e4 01 90 c0 55 c5 17 c1 45 2d ad 40 1d 13 8e c0
       -4.500231 -9.485677 5.411776 -4.439833
0000b0 fe 29 f1 c0 6f 11 79 40 08 d7 ab c0 77 46 19 c1
       -7.536376 3.891689 -5.369999 -9.579703
0000c0 70 79 ea 3f 8e 3b 81 c0 37 46 09 c1 77 d7 b9 40
       1.831831 -4.03852 -8.579642 5.807552
0000d0 9e 09 61 c0 e4 11 e6 c0 6f 47 bc 40 be de 99 c0
       -3.516212 -7.189684 5.88372 -4.80844
0000e0 ab 55 06 c1 15 0c a9 40 53 e7 a4 c0 61 38 d7 c0
       -8.395915 5.282725 -5.153238 -6.725632
0000f0 db 34 3e 3f 58 53 26 c0 5f 5e 59 c0 ad c1 27 3f
       0.742994 -2.598837 -3.396385 0.655299
000100 ee 26 f0 bf a1 cd 87 c0 77 a2 18 bf c5 70 cb bf
       -1.876188 -4.243851 -0.596229 -1.589379
000110 47 5a 9b c0 a9 67 d9 bf 22 51 1d c0 6b 2a 8c c0
       -4.85477 -1.698476 -2.458077 -4.380178
000120 dd b2 df 3f 2a fe 81 bf 5e 3e 9b c0 b3 b5 42 bf
       1.747646 -1.015569 -4.851363 -0.760585
000130 15 c8 ae bf 4d 78 ba c0 41 49 8d bf b0 e6 3f c0
       -1.365481 -5.827185 -1.103798 -2.998455
000140 43 1f 69 c0 5e be 0e 40 7e 00 f2 be 1a 8a 81 c0
       -3.642533 2.230369 -0.47266 -4.048108
000150 32 21 b2 3f 91 f2 9b be b1 19 b3 c0 90 f4 20 40
       1.391638 -0.304585 -5.596886 2.514927
000160 79 02 d3 bf 32 64 a8 c0 59 a7 7e 3f 22 df 61 3f
       -1.648513 -5.262231 0.994741 0.882311
000170 92 cc 31 c0 89 07 ac 3f 42 b1 af 3f 54 fd 6c c0
       -2.778111 1.34398 1.372597 -3.702962
000180 6d c8 5b 3f 7c 7f 8f 3f 1e 25 a0 c0 71 a9 8a 3d
       0.858527 1.121078 -5.004531 0.067706
000190 cc 7a d1 bd 0c 3d 9f c0 b3 43 18 40 7c d4 23 40
       -0.102285 -4.976202 2.379132 2.559844
0001a0 d4 0e 71 c0 18 7a b8 3f 05 87 83 3f 87 f8 b9 c0
       -3.76653 1.441226 1.027558 -5.811588
0001b0 29 af 95 3a 9e ea 80 be 85 27 7e c0 c0 3e 02 40
       0.001142 -0.25179 -3.971162 2.03508
0001c0 4c 8e 55 40 52 0d 48 c0 ef 57 27 40 f0 fd 3a 40
       3.33681 -3.125813 2.614742 2.921749
0001d0 db 7c 9a c0 3c c0 52 40 cb f2 07 40 64 b1 56 c0
       -4.827741 3.292983 2.124194 -3.354577
0001e0 e3 9c b1 40 21 56 89 bf e2 3a 54 c0 51 dc 99 40
       5.550401 -1.072941 -3.316094 4.808144
0001f0 88 0d da bf 97 fd 33 c0 44 be 68 40 d5 04 f5 bf
       -1.703538 -2.812353 3.636613 -1.91421
000200 c6 6b 5d c0 ad 8a 57 40 4d 0f 8c bf 0e 9f 92 c0
       -3.459703 3.367839 -1.094217 -4.581916
000210 82 02 9a 40 a0 a4 1e c0 9b 90 be bf e9 0f 2c 40
       4.812806 -2.478798 -1.488788 2.688471
000220 2f 86 08 c0 4f 3d 42 c0 ef 49 87 40 66 f8 23 bf
       -2.13319 -3.034992 4.227775 -0.640509
000230 a9 3d 90 c0 40 c2 b8 40 40 a0 48 c0 34 f4 c9 bf
       -4.507527 5.773712 -3.134781 -1.577765
000240 d3 f5 7d 40 81 3e 4c c0 a4 a7 a8 bf 58 2e a0 40
       3.968129 -3.191315 -1.317616 5.005657
000250 04 1c e6 bf 62 13 31 bf bc 41 f4 3d 2e 55 3e c0
       -1.79773 -0.691702 0.119266 -2.973949
000260 86 62 a6 c0 e8 32 0d bf 01 2f 05 c0 7c 36 92 c0
       -5.199527 -0.551558 -2.080994 -4.569151
000270 73 d7 72 3e 82 e4 85 bf 09 6f 86 c0 e7 ab c4 3f
       0.23715 -1.046036 -4.201054 1.536496
000280 49 f7 91 bf 90 92 81 c0 00 3a 01 c0 b9 a6 01 c0
       -1.140359 -4.049141 -2.019165 -2.025801
000290 b6 02 90 c0 7f 4e 51 be 87 c4 ed be c3 4a 57 c0
       -4.500331 -0.204401 -0.46439 -3.363938
0002a0 64 78 cc 3f ef ca 06 c0 1e 23 8f c0 69 1a 21 c0
       1.597424 -2.106136 -4.473037 -2.517237
0002b0 ff 5e 06 c0 e9 f0 af c0 84 65 17 c0 68 5d 8d bf
       -2.099548 -5.498158 -2.365571 -1.104413
0002c0 40 b4 81 c0 3a 07 15 c0 f5 10 36 c0 cc ed 75 c0
       -4.053253 -2.328566 -2.844785 -3.842639
0002d0 ea 24 77 bf a9 17 7c 3e 50 37 64 c0 fa 25 4a bf
       -0.965407 0.246184 -3.565876 -0.789642
0002e0 b2 0e cf be aa 02 91 c0 e6 e5 88 be 9e 96 df bf
       -0.404409 -4.531575 -0.267379 -1.746784
0002f0 11 e3 8d c0 07 5f d0 3e e6 3c ef bf 38 6a 4b c0
       -4.433968 0.406975 -1.869046 -3.178358
000300 21 8f aa bf 88 11 a2 bd d4 e4 be c0 78 0b 84 3e
       -1.332493 -0.079135 -5.965433 0.2579
000310 76 70 07 c0 08 84 a4 c0 87 e0 08 3e a2 97 81 bf
       -2.116239 -5.141117 0.133669 -1.01244
000320 03 5e 2c c0 69 1a 1f c0 2e 39 8e 3d b8 4e b9 c0
       -2.693238 -2.485987 0.069445 -5.790859
000330 2c d3 93 bf 75 91 6e bf 25 ec d3 c0 d4 ba 5d bf
       -1.154882 -0.931907 -6.622576 -0.866132
000340 48 70 4b 3f c9 be c8 c0 21 74 d6 3f 53 b1 0c c0
       0.794682 -6.273289 1.675419 -2.198323
000350 65 a5 f5 bf 41 b9 0c 40 4b 94 52 c0 1b f2 ef bf
       -1.91911 2.198807 -3.290301 -1.874576
000360 f3 c9 63 40 d7 c2 58 c0 e0 86 f4 bf 71 55 87 40
       3.559201 -3.386892 -1.910366 4.22918
000370 1a 6b 0c c0 ee b0 09 c0 92 96 ba 3f 1e 35 93 c0
       -2.194037 -2.151424 1.45772 -4.600234
000380 7f 86 ef bf f6 ee 7f 40 a6 43 84 c0 62 48 1b c0
       -1.871292 3.99896 -4.133258 -2.426293
000390 80 d5 57 40 31 5c c9 bf 1c 24 0a c0 ac 8c 5a 3f
       3.372406 -1.573126 -2.158454 0.853709
0003a0 a0 33 93 c0 d2 a8 84 bf 04 ac 0a 40 13 81 af c0
       -4.600052 -1.036402 2.166749 -5.484506
0003b0 37 a7 e4 bf bf 28 55 3f 18 4e 97 c0 db 8a 2d c0
       -1.786353 0.832653 -4.728283 -2.7116
0003c0 94 33 06 40 30 68 27 c0 27 4b 11 c0 f9 ba 0f 40
       2.096898 -2.615734 -2.270212 2.245787
0003d0 78 99 cb bf ad 6b 3a c0 a4 50 be 3f 2a 1d ae bf
       -1.590621 -2.912822 1.486836 -1.360265
0003e0 1a 32 83 c0 1e fb 69 3f 32 1d 21 c0 9d c9 93 c0
       -4.099866 0.913988 -2.517407 -4.618361
0003f0 17 10 44 40 4c c6 e1 be f8 a8 19 c0 7a 89 f7 3f
       3.063482 -0.440966 -2.400938 1.933883

qA f4 [80, 1]
000000 3e 30 4b bf f6 d0 56 bf 94 77 52 bf 20 18 54 bf
       -0.79370487 -0.839126 -0.8221371 -0.8284931
000010 76 48 a4 3f 7c ee 3e bf d2 b3 54 bf f4 68 57 bf
       1.2834613 -0.7458265 -0.83086884 -0.8414452
000020 90 e8 4d bf e9 79 9c 3f 9a 4d 4c bf ca 87 4b bf
       -0.8043299 1.2224704 -0.7980591 -0.7950407
000030 68 25 54 bf 30 17 4f bf ff 88 9d 3f a2 cb 51 bf
       -0.8286958 -0.80894756 1.2307433 -0.81951344
000040 5c d0 59 bf 4c 74 52 bf a0 cc 56 bf 79 6e aa 3f
       -0.85083556 -0.82208705 -0.8390598 1.3314964
000050 cc f2 4f bf 12 46 4f bf d0 9e 46 bf 56 1c 50 bf
       -0.81229854 -0.80966294 -0.7758608 -0.8129324
000060 04 fa 9a 3f f2 e1 4a bf 2c 93 41 bf be ea 54 bf
       1.2107549 -0.79251015 -0.7561519 -0.8317069
000070 7e 5a 5a bf 2c dd 9d 3f 54 bb 51 bf aa 96 40 bf
       -0.8529433 1.2333121 -0.81926465 -0.75229895
000080 ae 05 54 bf ca 6f 51 bf bd e3 9b 3f 0c 52 4e bf
       -0.82821167 -0.818112 1.2178875 -0.80593944
000090 1a 74 5f bf 36 dd 50 bf 7e 57 4f bf 70 fd a6 3f
       -0.8728653 -0.8158754 -0.8099288 1.3046093
0000a0 ae ae 48 bf 80 34 4c bf b2 1d 49 bf 8c 27 5a bf
       -0.7839154 -0.7976761 -0.78560936 -0.85216594
0000b0 34 14 9c 3f 4c 80 51 bf 68 fd 51 bf 44 d1 52 bf
       1.2193666 -0.8183639 -0.8202729 -0.82350564
0000c0 b6 69 49 bf 5a dc 9f 3f f8 fb 53 bf a4 65 52 bf
       -0.7867693 1.2489121 -0.8280635 -0.8218634
0000d0 82 7d 50 bf 62 59 42 bf 41 9c 9c 3f ac 73 50 bf
       -0.8144151 -0.7591764 1.2235185 -0.814265
0000e0 f2 70 5a bf ec cc 47 bf a2 da 4a bf 14 c6 9e 3f
       -0.8532859 -0.7804706 -0.7923986 1.2404199
0000f0 3e e1 52 bf f0 6d 4a bf 74 d7 50 bf c6 b8 53 bf
       -0.8237494 -0.79074 -0.81578755 -0.82703817
000100 b2 ef a0 3f a1 04 57 bf e1 7e 4c bf e5 74 4e bf
       1.2573149 -0.8399144 -0.798811 -0.80647117
000110 ed 4c 5a bf a9 22 a6 3f 25 2d 64 bf ed 0f 58 bf
       -0.8527363 1.2979327 -0.89131385 -0.843993
000120 e9 ba 41 bf c1 6d 50 bf de 32 a7 3f 74 6e 51 bf
       -0.7567583 -0.8141747 1.3062398 -0.81809163
000130 8a 98 58 bf 26 9b 51 bf f6 bc 4b bf 92 af a3 3f
       -0.84607756 -0.8187736 -0.79585207 1.2787955

muA f4 [80, 3]
000000 00 24 8d bb a0 c2 3f bd af 9e 09 be f0 e0 34 bd
       -0.00430727 -0.04681647 -0.13439439 -0.04415983
000010 f8 b3 8c bd 36 47 a1 3d 4c 40 ab bd 1a d5 a5 3d
       -0.06870264 0.078749105 -0.08361873 0.080972865
000020 60 0c 78 3c 1a 5f cb 3d c8 a0 6e 3d 60 4e 14 3d
       0.015139669 0.099302486 0.0582588 0.036207557
000030 80 a7 df bb 80 23 e6 3b 30 9a 88 3c 00 ae ad ba
       -0.0068253875 0.007023275 0.016675085 -0.0013250709
000040 b4 ac 94 bd 54 54 18 be 10 a0 cb bc da 0a c4 bd
       -0.07259503 -0.14875919 -0.024856597 -0.09572382
000050 22 2d ac 3d 30 48 61 bd fa 38 ad 3d 10 ba 87 3c
       0.08407046 -0.055000484 0.08458133 0.016568214
000060 c8 07 f5 3d 5e f9 85 3d b8 a6 81 3d 00 8f 73 bc
       0.11964375 0.06541704 0.06330627 -0.014865637
000070 40 7f 3a 3c 40 8c f3 3c 00 ce 38 3c 48 23 5f bd
       0.011382878 0.029729962 0.011279583 -0.054477006
000080 60 83 12 be 08 b6 12 bd 4e cf e8 bd e2 a7 c9 3d
       -0.14307928 -0.03581813 -0.11367665 0.09846474
000090 30 df a2 bd 14 8d b9 3d 00 80 5e b7 4a e5 06 3e
       -0.07952726 0.09060112 -1.32620335e-05 0.13173404
0000a0 48 5d 6c 3d 78 0f 3d 3d 40 c1 95 bb 80 b4 49 3c
       0.057706147 0.04615733 -0.0045701563 0.012311101
0000b0 00 12 6e 3a e0 16 34 bc 48 42 7b bd 3c da bb bd
       0.00090816617 -0.010991782 -0.061342508 -0.09172484
0000c0 d0 82 ef bc 00 79 64 bd 64 a8 44 3d 14 01 a3 bd
       -0.029237181 -0.055779457 0.048012152 -0.0795919
0000d0 24 ca 80 3d c0 ff 83 3c 54 b8 99 3d 68 c9 00 3d
       0.06288555 0.016113162 0.07505861 0.031442076
0000e0 78 91 37 3d 00 e2 d0 bb 40 af b8 bb 50 d6 b5 3c
       0.044816464 -0.0063745975 -0.005636126 0.022196919
0000f0 00 11 d8 3b a0 bb 3e bd 7a 2c 07 be 60 84 f6 bc
       0.0065938234 -0.046565652 -0.1320056 -0.030092418
000100 e6 2f cf bd ac 96 b6 3d 62 e5 d7 bd fc 26 f0 3d
       -0.10116558 0.08915457 -0.10541798 0.11726186
000110 00 f4 a1 ba af ce 00 3e 30 6a 42 3d 60 b6 0e 3d
       -0.0012356043 0.12578844 0.04746455 0.034841895
000120 60 6d 3b 3c 80 2c dc bb 00 e5 66 bb 90 35 bc 3c
       0.011439651 -0.006719172 -0.003523171 0.02297476
000130 48 48 1a bd a3 c2 13 be b8 24 3a bd fe 5c db bd
       -0.03766659 -0.14429717 -0.045445174 -0.10711096
000140 1a 9b ec 3d 9c 64 b5 bd f8 d8 e1 3d 80 fa 03 3c
       0.11553021 -0.0885708 0.11027712 0.008055329
000150 84 b9 c7 3d 08 ef 5c 3d 10 46 db 3c 10 02 ad 3c
       0.09752181 0.053938895 0.026766807 0.021119148
000160 38 72 10 3d 00 fd 3d 3b 00 17 33 3c 50 17 2d bd
       0.035265177 0.002898991 0.010930777 -0.04225856
000170 fe 51 0d be 38 8e 3e bd 4e 47 01 be cc 0e cd 3d
       -0.13800809 -0.04652235 -0.12624857 0.10012588
000180 94 3a a4 bd de 41 b5 3d 00 91 20 bb d6 43 00 3e
       -0.080189854 0.08850454 -0.002450049 0.12525877
000190 a4 46 60 3d 80 99 d7 3c 00 b0 a9 b8 80 37 b0 3c
       0.05475487 0.026318312 -8.0913305e-05 0.02151084
0001a0 c0 57 84 bc 00 a1 e3 3b e8 ad 67 bd 5c 38 f9 bd
       -0.016155124 0.006946683 -0.056562334 -0.12168953
0001b0 40 82 72 bc c0 0b 5e bd b8 32 8a 3d 34 93 c1 bd
       -0.014801562 -0.054210424 0.06747955 -0.09451905
0001c0 70 6a 98 3d 60 37 d0 3c 24 6c da 3d 70 75 e8 3c
       0.07442176 0.02541703 0.106651574 0.028376311
0001d0 e8 f9 73 3d 80 c3 a8 bb b0 41 b2 bc 80 8f e1 3c
       0.0595645 -0.0051502585 -0.021759838 0.027534246
0001e0 00 30 91 3c 30 87 82 bd 4a 32 16 be a0 fa cb bc
       0.017723083 -0.06373441 -0.14667621 -0.02489978
0001f0 78 96 df bd 58 b1 b1 3d c8 28 b5 bd d0 d5 01 3e
       -0.109173715 0.08676404 -0.08845669 0.12679219
000200 c0 9c bd 3b 82 26 b8 3d 64 ae 52 3d 10 2e b1 3c
       0.0057865083 0.0899172 0.051435843 0.02162841
000210 58 6b 02 3d 40 00 2d 3c 80 52 4c 3b 00 0f a1 bb
       0.031840652 0.010559142 0.0031177104 -0.004915118
000220 b8 53 63 bd b8 30 fe bd 18 b0 4f bd 8c 5e b9 bd
       -0.055499762 -0.12411636 -0.050705045 -0.090512365
000230 76 f9 b7 3d 90 1c c9 bd 7c 6a b8 3d c0 c4 71 3c
       0.08983128 -0.09819901 0.09004685 0.0147563815
000240 25 fa 06 3e 08 b1 7d 3d 08 98 53 3d e0 26 73 bc
       0.1318136 0.06193641 0.05165866 -0.0148408115
000250 00 22 04 bb 80 06 4b 3b c0 04 28 bc e0 37 1c bd
       -0.0020161867 0.0030979216 -0.010255039 -0.038139224
000260 78 bb 01 be 50 3e 26 bd 18 48 c3 bd 4c fa 83 3d
       -0.1266917 -0.04058677 -0.09535235 0.06444225
000270 ac 41 c7 bd aa dd be 3d 10 f9 82 bc 00 c3 13 3e
       -0.09729323 0.09319623 -0.015987903 0.14429855
000280 a0 a8 83 3d 78 86 1c 3d 10 89 98 bc 60 9a 2d bc
       0.06428647 0.038214177 -0.018620044 -0.010595888
000290 80 3e 4f bc e0 8e 0a 3c 0c f1 89 bd 70 8c 04 be
       -0.0126491785 0.008456916 -0.06735429 -0.12944198
0002a0 c0 72 f3 bc f4 1b ae bd 98 4e 89 3d f4 90 f3 bd
       -0.029717803 -0.085014254 0.06704444 -0.11892882
0002b0 a0 d0 e5 3d 20 f7 5e 3c b3 77 0b 3e 88 2c 5e 3d
       0.11221433 0.013608724 0.1361988 0.054241687
0002c0 14 04 40 3d c0 33 fb bb 40 c1 db bc 00 06 7f 3c
       0.04687889 -0.007666081 -0.026825547 0.015565395
0002d0 e0 f2 c9 3c f0 bd 9d bc 60 b4 f9 bd 90 44 34 bd
       0.024651945 -0.019255608 -0.12192607 -0.0440107
0002e0 50 97 d3 bd c0 a0 c0 3d b0 6b bc bd 92 97 c6 3d
       -0.10331595 0.09405661 -0.09200227 0.096968785
0002f0 90 7e 8a bc 04 ff e4 3d 34 24 28 3d 00 e0 88 b8
       -0.016906053 0.11181453 0.04105015 -6.5267086e-05
000300 40 d3 7d 3c c0 85 2f 3c e0 2a 78 bc 20 19 c8 3c
       0.01549226 0.010713041 -0.015146941 0.024426043
000310 f0 cd 91 bc 30 d9 d9 bd 58 ee 03 bd b8 d0 e0 bd
       -0.017798394 -0.10637128 -0.032209724 -0.1097731
000320 c0 24 c8 3d 18 50 72 bd b0 15 d4 3d a0 10 ac bc
       0.097726345 -0.059158415 0.10355699 -0.021004021
000330 c4 9d bd 3d cc 50 36 3d 00 ce 94 3a 10 bb b8 3c
       0.09258607 0.044510648 0.0011352897 0.022550136
000340 a0 98 44 3c 40 3d 63 bc 80 53 10 3c b0 e4 42 bd
       0.011999279 -0.013869584 0.00880897 -0.047581375
000350 00 2d 73 bd c0 a2 9b bb c0 ce bd bd 18 db 36 3d
       -0.059369087 -0.004749626 -0.0926795 0.044642538
000360 50 51 e8 bd f4 05 af 3d e0 97 7a bc c4 42 f1 3d
       -0.11343634 0.08546057 -0.015294999 0.11780313
000370 c0 91 bd 3b 00 eb 04 3d 00 8f f5 3b 70 7b 1a bd
       0.005785197 0.032450676 0.0074938536 -0.037715375
000380 a0 7c d9 bc 00 10 b9 3a 60 6e 6a bd 2a b2 07 be
       -0.026548684 0.0014119148 -0.057234168 -0.13251558
000390 40 c8 b6 bc 7c 22 ab bd bc 96 aa 3d 0c 64 be bd
       -0.022312284 -0.08356187 0.083295316 -0.09296426
0003a0 c8 3c c7 3d 40 bb 84 3c c0 80 f1 3d 38 f3 3a 3d
       0.0972839 0.016202569 0.11792135 0.045642108
0003b0 b8 4f 65 3d 40 8d bd bb c0 b7 2e bc 00 75 45 3c
       0.05598423 -0.0057846606 -0.010663927 0.012051821

quadA f4 [80, 3, 3]
000000 08 4e 96 3c 80 21 2e 3b 80 9e 9e 3b 80 21 2e 3b
       0.018347755 0.002657026 0.004840672 0.002657026
000010 c0 c1 15 3c 10 3e aa bc 80 9e 9e 3b 10 3e aa bc
       0.009140432 -0.020781547 0.004840672 -0.020781547
000020 e8 2e e1 bc fb f5 18 3c 00 a5 6a bb e0 fa 8d 3b
       -0.027488187 0.00933599 -0.0035803914 0.004332885
000030 00 a5 6a bb d5 cf 05 bc 60 bb 7c 3c e0 fa 8d 3b
       -0.0035803914 -0.008167227 0.015425533 0.004332885
000040 60 bb 7c 3c 28 31 99 ba c0 ad 40 bc b0 19 69 3d
       0.015425533 -0.0011687623 -0.011760175 0.056909263
000050 80 29 3f 3b b0 19 69 3d 50 e7 d4 bc c0 3c 1d bb
       0.0029169023 0.056909263 -0.025989205 -0.0023992509
000060 80 29 3f 3b c0 3c 1d bb 18 9f 1a 3d 8b 65 40 bc
       0.0029169023 -0.0023992509 0.03774938 -0.01174296
000070 80 08 e6 bb c0 b6 9b bb 80 08 e6 bb aa 55 9c 3b
       -0.0070200562 -0.00475201 -0.0070200562 0.004770954
000080 00 2c e4 ba c0 b6 9b bb 00 2c e4 ba 6a 75 e4 3b
       -0.0017408133 -0.00475201 -0.0017408133 0.0069720047
000090 18 12 28 bb d0 be 49 bc d0 6c 0d 3d d0 be 49 bc
       -0.002564555 -0.01231356 0.0345276 -0.01231356
0000a0 c6 8e 7d bc 00 7c b1 bc d0 6c 0d 3d 00 7c b1 bc
       -0.015475934 -0.021665573 0.0345276 -0.021665573
0000b0 a5 c9 93 3c 60 31 54 3c 00 17 44 3a 80 22 c8 3a
       0.018040488 0.012951225 0.0007480234 0.0015269071
0000c0 00 17 44 3a f0 06 23 3c e0 d6 2e bc 80 22 c8 3a
       0.0007480234 0.0099503845 -0.010671347 0.0015269071
0000d0 e0 d6 2e bc 28 9c bb bc 40 83 91 3b 80 9a 52 bb
       -0.010671347 -0.02290161 0.004440695 -0.0032135546
0000e0 c0 49 65 3b 80 9a 52 bb 00 57 6d bb 60 a7 08 3c
       0.0034986585 -0.0032135546 -0.0036215186 0.008340687
0000f0 c0 49 65 3b 60 a7 08 3c 00 be 56 ba 40 fe b4 bb
       0.0034986585 0.008340687 -0.00081917644 -0.005523473
000100 c0 32 38 3c 00 7a ae 39 c0 32 38 3c 00 7d e0 ba
       0.0112425685 0.00033278763 0.0112425685 -0.0017127097
000110 00 85 3b 3a 00 7a ae 39 00 85 3b 3a 80 1d ed 3b
       0.00071533024 0.00033278763 0.00071533024 0.0072361827
000120 92 1c 93 bc b0 ba 88 bc 20 c6 0f bc b0 ba 88 bc
       -0.01795796 -0.016690582 -0.008775264 -0.016690582
000130 b6 f2 bb 3b 80 db a6 bb 20 c6 0f bc 80 db a6 bb
       0.0057357205 -0.0050920844 -0.008775264 -0.0050920844
000140 cb 3f 48 3c 3f 2a 55 3d 78 e1 2b bd d0 d2 90 bd
       0.012222241 0.052042242 -0.04196307 -0.07071459
000150 78 e1 2b bd 4d 12 1d bd 78 3e 00 3d d0 d2 90 bd
       -0.04196307 -0.03834753 0.031309575 -0.07071459
000160 78 3e 00 3d c4 5f 60 bc c0 65 56 3c 00 d7 4e 3a
       0.031309575 -0.013694707 0.0130857825 0.0007890314
000170 00 14 e9 3a 00 d7 4e 3a 90 a8 13 3c 90 dd 3e bc
       0.001778245 0.0007890314 0.009012356 -0.011649504
000180 00 14 e9 3a 90 dd 3e bc 28 07 b5 bc 75 a3 22 3c
       0.001778245 -0.011649504 -0.022098139 0.0099266665
000190 b0 34 0c bc e0 81 08 3c b0 34 0c bc 96 b0 ec bb
       -0.008557484 0.008331746 -0.008557484 -0.007223199
0001a0 88 8e 9b 3c e0 81 08 3c 88 8e 9b 3c ac 2c 31 bb
       0.018988863 0.008331746 0.018988863 -0.0027034683
0001b0 56 0e ce ba 20 41 ca 3b 00 2c 34 3a 20 41 ca 3b
       -0.0015720825 0.0061723143 0.00068730116 0.0061723143
0001c0 6b b4 13 bb 00 e0 27 39 00 2c 34 3a 00 e0 27 39
       -0.0022537957 0.00016009808 0.00068730116 0.00016009808
0001d0 95 bb 7a 3b 95 0b 7f bc 50 b4 6a bc 60 05 19 bc
       0.003825878 -0.015566726 -0.014325216 -0.00933966
0001e0 50 b4 6a bc 56 27 bf 3b 60 ef 94 bb 60 05 19 bc
       -0.014325216 0.0058335466 -0.0045451373 -0.00933966
0001f0 60 ef 94 bb eb 77 1f 3c ba d3 06 3c 6c ce 1e bd
       -0.0045451373 0.0097331805 0.0082291905 -0.038771078
000200 00 aa 73 ba 6c ce 1e bd fd 73 92 3c 00 ec fd 3a
       -0.00092950463 -0.038771078 0.017877573 0.0019372702
000210 00 aa 73 ba 00 ec fd 3a db dd d5 bc 46 08 f4 3c
       -0.00092950463 0.0019372702 -0.026106765 0.029789101
000220 a0 f6 8b 3b 60 a3 7d 3c a0 f6 8b 3b 4e b7 c0 3c
       0.0042713434 0.015480846 0.0042713434 0.023524906
000230 10 a4 d1 bc 60 a3 7d 3c 10 a4 d1 bc c9 5f 5a bd
       -0.025590926 0.015480846 -0.025590926 -0.053314004
000240 6f a2 a3 3d 90 48 d0 bc 28 c9 c5 3c 90 48 d0 bc
       0.07989966 -0.025425225 0.02414377 -0.025425225
000250 7a 7e 4a bd ea ac 02 3e 28 c9 c5 3c ea ac 02 3e
       -0.049437024 0.12761274 0.02414377 0.12761274
000260 c4 8c f9 bc e0 6c 82 3a 04 b5 a6 3d 40 5d bd bb
       -0.03046263 0.000995066 0.08139995 -0.0057789385
000270 04 b5 a6 3d 35 25 6c bd b0 0b 61 3c 40 5d bd bb
       0.08139995 -0.05765267 0.013735697 -0.0057789385
000280 b0 0b 61 3c cf 11 68 3d da 0d 8e bc 10 6b 54 bc
       0.013735697 0.05665761 -0.01734059 -0.012964979
000290 40 a3 c4 bb 10 6b 54 bc f6 b4 d6 3b 40 c3 23 bb
       -0.006000906 -0.012964979 0.006552334 -0.0024988204
0002a0 40 a3 c4 bb 40 c3 23 bb 3b c1 30 3c d0 46 4d 3d
       -0.006000906 -0.0024988204 0.010788257 0.05011636
0002b0 e8 20 a7 3c 40 26 ca 3c e8 20 a7 3c b0 1e b6 bc
       0.020401433 0.024676442 0.020401433 -0.02223143
0002c0 c0 3d 10 3c 40 26 ca 3c c0 3d 10 3c f0 6e e4 bc
       0.008803785 0.024676442 0.008803785 -0.02788493
0002d0 0b 22 ec 3b 80 76 88 3a 80 b0 e9 3a 80 76 88 3a
       0.0072062067 0.0010411292 0.001782909 0.0010411292
0002e0 eb 4a 80 3b c0 2e fc bb 80 b0 e9 3a c0 2e fc bb
       0.003915181 -0.0076960027 0.001782909 -0.0076960027
0002f0 7a 36 36 bc 6b b3 48 3b 00 cc cc ba c0 0e 07 3b
       -0.011121387 0.003062452 -0.0015624762 0.0020608157
000300 00 cc cc ba 55 13 2b bb 20 a0 b6 3b c0 0e 07 3b
       -0.0015624762 -0.0026104052 0.0055732876 0.0020608157
000310 20 a0 b6 3b a8 00 ed b9 aa 52 86 bb 20 c1 8f 3c
       0.0055732876 -0.00045204652 -0.00409921 0.017548144
000320 c0 9c 01 3b 20 c1 8f 3c ca 89 ee bb 00 07 a9 ba
       0.0019777268 0.017548144 -0.0072796093 -0.0012895763
000330 c0 9c 01 3b 00 07 a9 ba 3b 6e 3a 3c c6 89 1b bc
       0.0019777268 -0.0012895763 0.01137882 -0.009493297
000340 40 02 b4 bb c0 87 85 bb 40 02 b4 bb b5 ba 8c 3b
       -0.0054934323 -0.0040750206 -0.0054934323 0.004294718
000350 80 a0 a4 ba c0 87 85 bb 80 a0 a4 ba d5 58 aa 3b
       -0.001256004 -0.0040750206 -0.001256004 0.005198578
000360 00 2c c1 39 d8 31 b8 bc 40 68 cb 3b d8 31 b8 bc
       0.0003684461 -0.022484705 0.006207496 -0.022484705
000370 50 98 78 3c 80 ec c2 bb 40 68 cb 3b 80 ec c2 bb
       0.015173033 -0.005948603 0.006207496 -0.005948603
000380 b0 a1 7e bc f5 96 f9 3b 80 51 92 3a 00 db 03 3b
       -0.015541479 0.0076168724 0.0011163205 0.0020119548
000390 80 51 92 3a d5 6d 96 3b a0 92 fa bb 00 db 03 3b
       0.0011163205 0.0045907297 -0.0076468736 0.0020119548
0003a0 a0 92 fa bb 66 02 48 bc 20 13 32 3c 40 fb c0 bb
       -0.0076468736 -0.012207603 0.010868818 -0.0058893263
0003b0 80 07 b1 3b 40 fb c0 bb 50 6d 19 bc 30 16 96 3c
       0.0054025054 -0.0058893263 -0.009364441 0.018321127
0003c0 80 07 b1 3b 30 16 96 3c 80 2e c5 ba 00 eb 7a bb
       0.0054025054 0.018321127 -0.0015043765 -0.0038287044
0003d0 58 f2 99 3c 00 9d 39 3a 58 f2 99 3c 50 00 0b bc
       0.018792316 0.0007080585 0.018792316 -0.008483961
0003e0 00 40 17 38 00 9d 39 3a 00 40 17 38 10 bb 49 3c
       3.606081e-05 0.0007080585 3.606081e-05 0.012312666
0003f0 c0 b6 51 bc 70 03 12 bc 20 d4 c8 bb 70 03 12 bc
       -0.012799919 -0.008911952 -0.006128803 -0.008911952

hfvrA f4 [80, 1]
000000 df 22 a7 3f 45 13 ae 3f ee 2b a9 3f 8d 91 ad 3f
       1.3057517 1.359963 1.3216531 1.3560044
000010 fe 8a 8b 3f aa 82 9b 3f 2a e5 ab 3f 40 51 af 3f
       1.0901792 1.214925 1.342931 1.369667
000020 80 43 a3 3f f2 ff 8b 3f a6 bc a4 3f 4a b0 a4 3f
       1.2754974 1.0937483 1.2870071 1.2866299
000030 a1 91 ad 3f 22 95 a5 3f d3 0b 8c 3f 09 70 ac 3f
       1.3560067 1.2936137 1.0941108 1.347169
000040 1c 6e af 3f 98 a7 ab 3f 67 6e b3 3f 13 12 8b 3f
       1.3705478 1.341052 1.4018067 1.0864891
000050 2a 54 a6 3f 72 28 a7 3f 6c 52 9e 3f ec c7 a6 3f
       1.2994435 1.3059218 1.2368903 1.3029761
000060 33 37 8c 3f ab 4a a6 3f 06 d0 9b 3f 92 f2 a7 3f
       1.0954345 1.2991537 1.2172859 1.3120902
000070 a8 d3 ae 3f be 0a 8c 3f c9 04 a6 3f 40 62 9a 3f
       1.3658342 1.0940778 1.297021 1.2061234
000080 81 1c ad 3f 07 a7 a9 3f 00 23 8c 3f c2 d4 a9 3f
       1.3524324 1.3254098 1.0948181 1.3268054
000090 0b 1a b2 3f 7f 7d aa 3f fc 60 a9 3f ec 33 8b 3f
       1.3914198 1.3319548 1.3232722 1.087522
0000a0 94 9d 9d 3f 0d c5 a8 3f dc ab a3 3f 1a ce af 3f
       1.2313714 1.3185135 1.2786822 1.3734772
0000b0 85 00 8c 3f b7 52 aa 3f a0 80 a6 3f 68 50 a7 3f
       1.0937659 1.3306493 1.3008003 1.3071413
0000c0 d7 44 a5 3f 85 e4 8b 3f bd 67 a7 3f 4b e9 ab 3f
       1.2911633 1.0929114 1.3078533 1.343057
0000d0 f8 25 a6 3f ea c5 a0 3f d8 1d 8c 3f 4a 10 a8 3f
       1.2980337 1.2560399 1.0946608 1.3129971
0000e0 e9 9d af 3f 05 47 9e 3f bf c0 a5 3f 45 ee 8b 3f
       1.3720065 1.2365423 1.2949446 1.0932089
0000f0 e1 56 a7 3f 89 20 a9 3f 72 71 a7 3f 52 7b ac 3f
       1.3073388 1.3213054 1.3081496 1.3475134
000100 ea ec 8b 3f 52 3c ac 3f 46 a9 aa 3f 17 4d a8 3f
       1.0931675 1.3455908 1.3332908 1.3148526
000110 58 72 ae 3f 38 6d 8b 3f e8 e8 b4 3f 6c aa ad 3f
       1.3628645 1.0892706 1.4133577 1.3567634
000120 32 ed a1 3f f7 0d ab 3f 4c ef 8a 3f 31 0d ab 3f
       1.2650511 1.3363637 1.0854278 1.3363401
000130 99 6e ad 3f ec 6e a9 3f 10 bf a4 3f 33 ba 8b 3f
       1.3549377 1.3236976 1.2870808 1.0916198

vwA f4 [80, 1]
000000 0d fb d0 3e d8 7f d2 3e 1d 07 d1 3e 68 2f d2 3e
       0.40816537 0.41113162 0.4082574 0.41051793
000010 86 79 18 3f 0e 56 cf 3e 3a 42 d1 3e 74 c8 d2 3e
       0.5956043 0.40495342 0.4087084 0.4116856
000020 9e 77 d0 3e 39 3b 17 3f 4b 59 d0 3e 58 56 d0 3e
       0.4071626 0.5907474 0.40693125 0.40690875
000030 4f 10 d1 3e 58 7d d0 3e e0 2e 17 3f e2 a0 d2 3e
       0.40832755 0.4072063 0.590559 0.4113837
000040 69 7a d3 3e 20 15 d2 3e 7d 64 d4 3e 06 7a 1a 3f
       0.4130433 0.41031742 0.41482916 0.60342443
000050 6e 1c d0 3e 3f 40 d0 3e b8 49 cf 3e 16 24 d0 3e
       0.4064669 0.40674016 0.4048593 0.4065253
000060 1c 50 16 3f 2b 53 d0 3e 53 5e cf 3e ed cb d0 3e
       0.5871599 0.40688452 0.4050165 0.40780583
000070 25 7d d1 3e b0 09 17 3f 97 7b d0 3e ec 15 cf 3e
       0.4091579 0.58999157 0.40719292 0.40446413
000080 0b de d0 3e a2 c6 d0 3e 44 de 16 3f 32 87 d1 3e
       0.40794405 0.40776545 0.589329 0.40923458
000090 11 3f d4 3e d5 9f d1 3e ff 56 d1 3e 9a c4 18 3f
       0.41454366 0.40942255 0.40886685 0.5967499
0000a0 70 d6 cf 3e c9 f0 d0 3e a0 4e d0 3e f7 85 d2 3e
       0.4059329 0.40808704 0.40684986 0.41117832
0000b0 49 0b 17 3f 8e 35 d1 3e 3a e0 d0 3e ef ee d0 3e
       0.59001595 0.4086117 0.4079607 0.40807292
0000c0 69 83 d0 3e 28 58 17 3f a0 d9 d0 3e 10 e1 d0 3e
       0.40725258 0.5911889 0.40791035 0.4079671
0000d0 5b 90 d0 3e 99 cd cf 3e 57 15 17 3f 2c cb d0 3e
       0.40735134 0.40586546 0.59016937 0.40780008
0000e0 c6 f4 d1 3e b8 df cf 3e 38 86 d0 3e 2a 47 17 3f
       0.4100706 0.4060037 0.407274 0.5909296
0000f0 86 c7 d0 3e 29 ec d0 3e 75 e9 d0 3e e0 78 d1 3e
       0.40777224 0.40805176 0.40803114 0.40912533
000100 9e a8 17 3f dd ea d1 3e 66 5a d1 3e ac 08 d1 3e
       0.59241664 0.409995 0.4088928 0.4082693
000110 71 fb d2 3e f1 98 18 3f 2f 1c d5 3e d0 e0 d2 3e
       0.4120746 0.5960837 0.41623065 0.41187143
000120 4e a9 d0 3e 0c e1 d1 3e ab cf 18 3f a0 4b d1 3e
       0.4075417 0.4099201 0.59691876 0.4087801
000130 c2 22 d2 3e ab 3b d1 3e c2 a2 d0 3e fd 25 18 3f
       0.41042143 0.40865836 0.40749174 0.59432966

alpha_0_A f4 [1280]
000000 13 69 a6 40 13 69 a6 40 13 69 a6 40 13 69 a6 40
       5.2003264 5.2003264 5.2003264 5.2003264
000010 00 f8 9b 41 13 69 a6 40 13 69 a6 40 13 69 a6 40
       19.496094 5.2003264 5.2003264 5.2003264
000020 13 69 a6 40 00 f8 9b 41 13 69 a6 40 13 69 a6 40
       5.2003264 19.496094 5.2003264 5.2003264
000030 13 69 a6 40 13 69 a6 40 00 f8 9b 41 13 69 a6 40
       5.2003264 5.2003264 19.496094 5.2003264
000040 13 69 a6 40 13 69 a6 40 13 69 a6 40 00 f8 9b 41
       5.2003264 5.2003264 5.2003264 19.496094
000050 13 69 a6 40 13 69 a6 40 13 69 a6 40 13 69 a6 40
       5.2003264 5.2003264 5.2003264 5.2003264
000060 00 f8 9b 41 13 69 a6 40 13 69 a6 40 13 69 a6 40
       19.496094 5.2003264 5.2003264 5.2003264
000070 13 69 a6 40 00 f8 9b 41 13 69 a6 40 13 69 a6 40
       5.2003264 19.496094 5.2003264 5.2003264
000080 13 69 a6 40 13 69 a6 40 00 f8 9b 41 13 69 a6 40
       5.2003264 5.2003264 19.496094 5.2003264
000090 13 69 a6 40 13 69 a6 40 13 69 a6 40 00 f8 9b 41
       5.2003264 5.2003264 5.2003264 19.496094
0000a0 13 69 a6 40 13 69 a6 40 13 69 a6 40 13 69 a6 40
       5.2003264 5.2003264 5.2003264 5.2003264
0000b0 00 f8 9b 41 13 69 a6 40 13 69 a6 40 13 69 a6 40
       19.496094 5.2003264 5.2003264 5.2003264
0000c0 13 69 a6 40 00 f8 9b 41 13 69 a6 40 13 69 a6 40
       5.2003264 19.496094 5.2003264 5.2003264
0000d0 13 69 a6 40 13 69 a6 40 00 f8 9b 41 13 69 a6 40
       5.2003264 5.2003264 19.496094 5.2003264
0000e0 13 69 a6 40 13 69 a6 40 13 69 a6 40 00 f8 9b 41
       5.2003264 5.2003264 5.2003264 19.496094
0000f0 13 69 a6 40 13 69 a6 40 13 69 a6 40 13 69 a6 40
       5.2003264 5.2003264 5.2003264 5.2003264
000100 00 f8 9b 41 13 69 a6 40 13 69 a6 40 13 69 a6 40
       19.496094 5.2003264 5.2003264 5.2003264
000110 13 69 a6 40 00 f8 9b 41 13 69 a6 40 13 69 a6 40
       5.2003264 19.496094 5.2003264 5.2003264
000120 13 69 a6 40 13 69 a6 40 00 f8 9b 41 13 69 a6 40
       5.2003264 5.2003264 19.496094 5.2003264
000130 13 69 a6 40 13 69 a6 40 13 69 a6 40 00 f8 9b 41
       5.2003264 5.2003264 5.2003264 19.496094
000140 13 69 a6 40 13 69 a6 40 13 69 a6 40 13 69 a6 40
       5.2003264 5.2003264 5.2003264 5.2003264
000150 00 f8 9b 41 13 69 a6 40 13 69 a6 40 13 69 a6 40
       19.496094 5.2003264 5.2003264 5.2003264
000160 13 69 a6 40 00 f8 9b 41 13 69 a6 40 13 69 a6 40
       5.2003264 19.496094 5.2003264 5.2003264
000170 13 69 a6 40 13 69 a6 40 00 f8 9b 41 13 69 a6 40
       5.2003264 5.2003264 19.496094 5.2003264
000180 13 69 a6 40 13 69 a6 40 13 69 a6 40 00 f8 9b 41
       5.2003264 5.2003264 5.2003264 19.496094
000190 13 69 a6 40 13 69 a6 40 13 69 a6 40 13 69 a6 40
       5.2003264 5.2003264 5.2003264 5.2003264
0001a0 00 f8 9b 41 13 69 a6 40 13 69 a6 40 13 69 a6 40
       19.496094 5.2003264 5.2003264 5.2003264
0001b0 13 69 a6 40 00 f8 9b 41 13 69 a6 40 13 69 a6 40
       5.2003264 19.496094 5.2003264 5.2003264
0001c0 13 69 a6 40 13 69 a6 40 00 f8 9b 41 13 69 a6 40
       5.2003264 5.2003264 19.496094 5.2003264
0001d0 13 69 a6 40 13 69 a6 40 13 69 a6 40 00 f8 9b 41
       5.2003264 5.2003264 5.2003264 19.496094
0001e0 13 69 a6 40 13 69 a6 40 13 69 a6 40 13 69 a6 40
       5.2003264 5.2003264 5.2003264 5.2003264
0001f0 00 f8 9b 41 13 69 a6 40 13 69 a6 40 13 69 a6 40
       19.496094 5.2003264 5.2003264 5.2003264
000200 13 69 a6 40 00 f8 9b 41 13 69 a6 40 13 69 a6 40
       5.2003264 19.496094 5.2003264 5.2003264
000210 13 69 a6 40 13 69 a6 40 00 f8 9b 41 13 69 a6 40
       5.2003264 5.2003264 19.496094 5.2003264
000220 13 69 a6 40 13 69 a6 40 13 69 a6 40 00 f8 9b 41
       5.2003264 5.2003264 5.2003264 19.496094
000230 13 69 a6 40 13 69 a6 40 13 69 a6 40 13 69 a6 40
       5.2003264 5.2003264 5.2003264 5.2003264
000240 00 f8 9b 41 13 69 a6 40 13 69 a6 40 13 69 a6 40
       19.496094 5.2003264 5.2003264 5.2003264
000250 13 69 a6 40 00 f8 9b 41 13 69 a6 40 13 69 a6 40
       5.2003264 19.496094 5.2003264 5.2003264
000260 13 69 a6 40 13 69 a6 40 00 f8 9b 41 13 69 a6 40
       5.2003264 5.2003264 19.496094 5.2003264
000270 13 69 a6 40 13 69 a6 40 13 69 a6 40 00 f8 9b 41
       5.2003264 5.2003264 5.2003264 19.496094
000280 13 69 a6 40 13 69 a6 40 13 69 a6 40 13 69 a6 40
       5.2003264 5.2003264 5.2003264 5.2003264
000290 00 f8 9b 41 13 69 a6 40 13 69 a6 40 13 69 a6 40
       19.496094 5.2003264 5.2003264 5.2003264
0002a0 13 69 a6 40 00 f8 9b 41 13 69 a6 40 13 69 a6 40
       5.2003264 19.496094 5.2003264 5.2003264
0002b0 13 69 a6 40 13 69 a6 40 00 f8 9b 41 13 69 a6 40
       5.2003264 5.2003264 19.496094 5.2003264
0002c0 13 69 a6 40 13 69 a6 40 13 69 a6 40 00 f8 9b 41
       5.2003264 5.2003264 5.2003264 19.496094
0002d0 13 69 a6 40 13 69 a6 40 13 69 a6 40 13 69 a6 40
       5.2003264 5.2003264 5.2003264 5.2003264
0002e0 00 f8 9b 41 13 69 a6 40 13 69 a6 40 13 69 a6 40
       19.496094 5.2003264 5.2003264 5.2003264
0002f0 13 69 a6 40 00 f8 9b 41 13 69 a6 40 13 69 a6 40
       5.2003264 19.496094 5.2003264 5.2003264
000300 13 69 a6 40 13 69 a6 40 00 f8 9b 41 13 69 a6 40
       5.2003264 5.2003264 19.496094 5.2003264
000310 13 69 a6 40 13 69 a6 40 13 69 a6 40 00 f8 9b 41
       5.2003264 5.2003264 5.2003264 19.496094
000320 13 69 a6 40 13 69 a6 40 13 69 a6 40 13 69 a6 40
       5.2003264 5.2003264 5.2003264 5.2003264
000330 00 f8 9b 41 13 69 a6 40 13 69 a6 40 13 69 a6 40
       19.496094 5.2003264 5.2003264 5.2003264
000340 13 69 a6 40 00 f8 9b 41 13 69 a6 40 13 69 a6 40
       5.2003264 19.496094 5.2003264 5.2003264
000350 13 69 a6 40 13 69 a6 40 00 f8 9b 41 13 69 a6 40
       5.2003264 5.2003264 19.496094 5.2003264
000360 13 69 a6 40 13 69 a6 40 13 69 a6 40 00 f8 9b 41
       5.2003264 5.2003264 5.2003264 19.496094
000370 13 69 a6 40 13 69 a6 40 13 69 a6 40 13 69 a6 40
       5.2003264 5.2003264 5.2003264 5.2003264
000380 00 f8 9b 41 13 69 a6 40 13 69 a6 40 13 69 a6 40
       19.496094 5.2003264 5.2003264 5.2003264
000390 13 69 a6 40 00 f8 9b 41 13 69 a6 40 13 69 a6 40
       5.2003264 19.496094 5.2003264 5.2003264
0003a0 13 69 a6 40 13 69 a6 40 00 f8 9b 41 13 69 a6 40
       5.2003264 5.2003264 19.496094 5.2003264
0003b0 13 69 a6 40 13 69 a6 40 13 69 a6 40 00 f8 9b 41
       5.2003264 5.2003264 5.2003264 19.496094
0003c0 13 69 a6 40 13 69 a6 40 13 69 a6 40 13 69 a6 40
       5.2003264 5.2003264 5.2003264 5.2003264
0003d0 00 f8 9b 41 13 69 a6 40 13 69 a6 40 13 69 a6 40
       19.496094 5.2003264 5.2003264 5.2003264
0003e0 13 69 a6 40 00 f8 9b 41 13 69 a6 40 13 69 a6 40
       5.2003264 19.496094 5.2003264 5.2003264
0003f0 13 69 a6 40 13 69 a6 40 00 f8 9b 41 13 69 a6 40
       5.2003264 5.2003264 19.496094 5.2003264

hlistA f4 [80, 4, 8]
000000 93 8f e1 3b 0b c4 4b bd df 80 0d 3e 0a 62 07 3e
       0.0068835705 -0.049747508 0.13818692 0.13220993
000010 72 15 5f 3e a3 81 03 bf aa d4 6f be 49 82 27 3e
       0.21785524 -0.51369685 -0.23420969 0.16358294
000020 10 bc 7e 3c 15 ce 5f bd f1 00 f6 bc 48 77 5f bc
       0.015547767 -0.054639895 -0.030029746 -0.013639279
000030 9a 62 b0 bd 26 23 b2 bb 98 1b 11 bd 0e 1d 42 bd
       -0.08612557 -0.005436319 -0.035426706 -0.04739099
000040 98 11 d2 3c 7d 7e 95 bd 20 30 a1 bc de c1 a4 3d
       0.025643155 -0.07299516 -0.019676268 0.0804479
000050 ca 01 02 3d 12 2b f5 be ba 3c 83 be 50 2b 08 3e
       0.031739987 -0.47884423 -0.25632268 0.13297772
000060 f5 24 80 be f5 25 e8 be 5b 5a 0b be a5 6a dd 40
       -0.25028196 -0.4534146 -0.13608687 6.919268
000070 70 50 79 be d7 99 c3 3e ad ed 84 be 8e 10 9c 41
       -0.2434709 0.38203308 -0.25962582 19.508083
000080 93 8f e1 3b 0b c4 4b bd df 80 0d 3e 0a 62 07 3e
       0.0068835705 -0.049747508 0.13818692 0.13220993
000090 72 15 5f 3e a3 81 03 bf aa d4 6f be 49 82 27 3e
       0.21785524 -0.51369685 -0.23420969 0.16358294
0000a0 18 e3 63 3c 2b 0a 4a bd ca 8b 09 bd 68 cd 6a 3c
       0.013909124 -0.049326103 -0.03358058 0.014331199
0000b0 24 7b ac bd a4 64 d1 bb 9c 74 18 bd 58 6e 31 bd
       -0.08421925 -0.006390171 -0.037220582 -0.043318123
0000c0 70 02 ee 3c 80 36 86 bd a1 3e 33 be 07 85 8b 3d
       0.029053897 -0.06553364 -0.1750436 0.06812482
0000d0 3a 7e 03 3e 98 bd e5 be 32 79 61 be 8d 0e 44 3e
       0.1284112 -0.4487121 -0.22018889 0.19146176
0000e0 56 b5 32 be e3 3a a2 be 06 e2 a6 bd a0 0f 95 40
       -0.17451987 -0.31685552 -0.08148579 4.6581573
0000f0 f0 f2 06 be b4 8a 7f 3e 07 c3 26 be 80 cf 4a 41
       -0.13178611 0.24955255 -0.16285335 12.675659
000100 93 8f e1 3b 0b c4 4b bd df 80 0d 3e 0a 62 07 3e
       0.0068835705 -0.049747508 0.13818692 0.13220993
000110 72 15 5f 3e a3 81 03 bf aa d4 6f be 49 82 27 3e
       0.21785524 -0.51369685 -0.23420969 0.16358294
000120 99 ef 29 3d 09 9b 9a bc d8 bd 22 bd 9f c5 79 3d
       0.041488264 -0.018872755 -0.03973183 0.06097948
000130 40 a2 92 bd 54 12 21 bc 88 15 25 bd 88 fd 80 3b
       -0.07159853 -0.00983103 -0.040303737 0.0039364733
000140 50 06 eb 3c 98 d2 81 bd 70 d3 c5 bc cc 77 c6 3d
       0.028689533 -0.06338996 -0.024148673 0.09690818
000150 a0 cf 8c bc 1c bc 12 bf e5 fc 8a be 03 85 dd 3d
       -0.017188847 -0.5731828 -0.27146068 0.108163856
000160 c8 4d 91 be 9d 53 0a bf c1 a0 50 be 71 86 00 41
       -0.28379655 -0.54033834 -0.20373823 8.032823
000170 d8 9a b9 be 76 36 f9 3e 7d 0b ae be 06 cb be 41
       -0.3625095 0.48674363 -0.3399314 23.849133
000180 93 8f e1 3b 0b c4 4b bd df 80 0d 3e 0a 62 07 3e
       0.0068835705 -0.049747508 0.13818692 0.13220993
000190 72 15 5f 3e a3 81 03 bf aa d4 6f be 49 82 27 3e
       0.21785524 -0.51369685 -0.23420969 0.16358294
0001a0 f0 b0 64 3c 3e 48 4f bd 17 1c 08 bd b8 c2 13 3c
       0.013958201 -0.050606005 -0.033229914 0.009018593
0001b0 42 3c ae bd 98 31 d0 bb 79 d3 18 bd 96 67 34 bd
       -0.08507587 -0.0063535683 -0.03731105 -0.0440441
0001c0 a0 ea 19 3d 10 6f 3e bd 73 49 2d be 9e 5f 9b 3d
       0.03757727 -0.046492636 -0.1692255 0.07586597
0001d0 78 30 15 3e 36 5b d7 be 22 99 5b be 90 63 41 3e
       0.1456927 -0.42061776 -0.21445134 0.18885636
0001e0 b2 de 36 be 4f a0 a5 be 48 8e aa bd 02 d9 98 40
       -0.17858389 -0.32348868 -0.08327919 4.77649
0001f0 ea 38 0b be 10 cb 82 3e 3b 13 2b be b6 1f 50 41
       -0.1359593 0.2554555 -0.16706555 13.007742
000200 34 e3 22 3e 33 75 43 be 57 a4 89 bc 78 39 37 bd
       0.15906984 -0.19087677 -0.016801996 -0.04473254
000210 6f 1f 03 bd f5 e8 3b be 8b aa aa 3d b2 1c a8 bc
       -0.0320124 -0.18350585 0.0833331 -0.020521495
000220 66 7e 09 3f 9d c3 0e be d4 50 ae 3e 8d d6 04 c0
       0.53708494 -0.13941808 0.34046042 -2.0755951
000230 58 22 e7 3c 07 a9 ba 3d 76 9e 77 3e 89 bd 5d 3d
       0.028214619 0.09114271 0.24181542 0.054135833
000240 ac 38 4c be d5 51 16 bf ba 9f ac 3d b4 bf d7 3d
       -0.19943494 -0.58718616 0.08428903 0.10534611
000250 bc fb 55 be c0 33 d0 3f 55 0e 16 bf 35 03 f4 3e
       -0.2089681 1.6265793 -0.5861562 0.47658697
000260 83 b8 2b c0 eb 15 bb c0 b3 bd 62 c0 6f ab a7 42
       -2.6831367 -5.8464255 -3.5428283 83.83483
000270 36 41 cf c0 af 70 cc 40 d9 5b 99 c0 11 84 90 43
       -6.4767103 6.3887553 -4.792462 289.03177
000280 93 8f e1 3b 0b c4 4b bd df 80 0d 3e 0a 62 07 3e
       0.0068835705 -0.049747508 0.13818692 0.13220993
000290 72 15 5f 3e a3 81 03 bf aa d4 6f be 49 82 27 3e
       0.21785524 -0.51369685 -0.23420969 0.16358294
0002a0 f8 5c 8f 3c a4 62 6b bd bf 99 d9 bc 64 11 07 bd
       0.017500386 -0.057467118 -0.02656257 -0.03297557
0002b0 bd ea af bd 54 b7 8d bb 5c 81 06 bd 8a 41 4e bd
       -0.08589695 -0.004324833 -0.03283821 -0.05035547
0002c0 20 89 d7 bb dc 1a 35 bc 58 ed d2 bc da ba 2d 3d
       -0.006577626 -0.011053767 -0.02574794 0.042414524
0002d0 e8 bd 3e 3c 94 35 a9 be 6a 06 7a be 01 34 06 3e
       0.011641957 -0.3304869 -0.2441651 0.13105775
0002e0 49 49 9c be 40 43 11 bf e2 05 4d be 13 fa 09 41
       -0.30524662 -0.5674324 -0.20021775 8.623553
0002f0 11 3d ba be f9 0e 01 3f 37 b2 b3 be 67 aa c9 41
       -0.36374715 0.5041347 -0.35096905 25.208204
000300 93 8f e1 3b 0b c4 4b bd df 80 0d 3e 0a 62 07 3e
       0.0068835705 -0.049747508 0.13818692 0.13220993
000310 72 15 5f 3e a3 81 03 bf aa d4 6f be 49 82 27 3e
       0.21785524 -0.51369685 -0.23420969 0.16358294
000320 64 65 65 3c bd e0 53 bd c2 d9 06 bd 70 ea 8e 3b
       0.014001224 -0.051728 -0.032922514 0.004361443
000330 f7 c5 af bd 70 24 cf bb a1 26 19 bd ea 02 37 bd
       -0.08582681 -0.0063214824 -0.037390355 -0.044680513
000340 90 6b 09 bc 70 00 97 bd f2 23 dc bd 58 3e 85 3d
       -0.008387461 -0.0737313 -0.107490435 0.06506032
000350 c2 c4 f3 3d e2 c2 c6 be 0a e2 78 be d8 dd 33 3e
       0.11902763 -0.3882056 -0.24304977 0.17565095
000360 d4 34 4c be f9 4d b7 be 2a 22 bf bd 3b 55 ac 40
       -0.19942027 -0.35801676 -0.09332688 5.385404
000370 b8 87 22 be 5f c0 92 3e 41 f1 41 be 6e c7 6b 41
       -0.15872085 0.28662392 -0.18939687 14.736189
000380 93 8f e1 3b 0b c4 4b bd df 80 0d 3e 0a 62 07 3e
       0.0068835705 -0.049747508 0.13818692 0.13220993
000390 72 15 5f 3e a3 81 03 bf aa d4 6f be 49 82 27 3e
       0.21785524 -0.51369685 -0.23420969 0.16358294
0003a0 2c e7 60 3c 50 74 44 bd f7 38 0c bd a8 a6 96 3c
       0.013726991 -0.047962487 -0.034234013 0.018390015
0003b0 a8 50 aa bd a6 b0 cc bb 0e 9c 19 bd 58 17 2f bd
       -0.08316165 -0.006246644 -0.03750234 -0.04274687
0003c0 f4 81 be 3d ae 35 e5 3d 6e d7 e6 3d eb cc 74 3e
       0.0930213 0.11191879 0.11271559 0.23906295
0003d0 c0 66 6d 3c e0 55 a1 be c6 32 ee bd bc 4d 83 3d
       0.01448983 -0.3151083 -0.11630778 0.06411311
0003e0 6c 88 17 be 32 fd 86 be 2c 57 5b bd 78 f6 75 40
       -0.14798135 -0.26365048 -0.05354993 3.8431683
0003f0 b1 e4 a0 bd ad 75 46 3e ff 8b f8 bd 97 3e 20 41
       -0.078561194 0.19380827 -0.12136077 10.015281
