tests/test_data_path/og_processed/dimer_ap3_train_spec_7_114.pt (torch, 240850 bytes, 17 tensors)

y f4 [16, 4]
0	0xc1b9ab8d	-23.208765
1	0x41d7cecd	26.975977
2	0xc12a4dfd	-10.64404
3	0xc1181c7f	-9.506957
4	0xc1deef76	-27.866924
5	0x42027d20	32.622192
6	0xc166dfde	-14.429655
7	0xc10c3530	-8.762985
8	0xc1e1d568	-28.229202
9	0x4204036c	33.00334
10	0xc161479b	-14.079982
11	0xc0fb4578	-7.85223
12	0xc1e815e4	-29.010689
13	0x42082675	34.037556
14	0xc169c232	-14.609911
15	0xc0fbcbd1	-7.86863
16	0xc1b85e56	-23.046062
17	0x41c8e75b	25.112967
18	0xc128d740	-10.552551
19	0xc0f54998	-7.6652336
20	0xc1d7b631	-26.96396
21	0x4200cd10	32.200256
22	0xc15a8eba	-13.659845
23	0xc11243c3	-9.141543
24	0xc1bf198d	-23.887476
25	0x41db3afd	27.403803
26	0xc14135d7	-12.0756445
27	0xc0cd621d	-6.4182267
28	0xc1e07c01	-28.060549
29	0x42036f44	32.858658
30	0xc16a046e	-14.626081
31	0xc10c4aa4	-8.768223
32	0xc21f539d	-39.831654
33	0x4232b8bc	44.680405
34	0xc19423f1	-18.51755
35	0xc126ec14	-10.432636
36	0xc2202463	-40.035534
37	0x4235a9df	45.41589
38	0xc1ab41fd	-21.40722
39	0xc12c1369	-10.754739
40	0xc1cc03ed	-25.501917
41	0x41dc86a4	27.565742
42	0xc15894a7	-13.536292
43	0xc117d68b	-9.489879
44	0xc2295eaa	-42.342445
45	0x42304edb	44.077007
46	0xc1c96e4c	-25.178856
47	0xc1198204	-9.594242
48	0xc20f2090	-35.7818
49	0x421fe620	39.97473
50	0xc18b3b62	-17.403996
51	0xc10e008f	-8.875136
52	0xc1f61472	-30.759983
53	0x4208d877	34.21139
54	0xc19200a0	-18.250305
55	0xc1002086	-8.00794
56	0xc1d18942	-26.19202
57	0x41f02354	30.01725
58	0xc139b367	-11.606299
59	0xc0dc497f	-6.8839717
60	0xc1d182d8	-26.188889
61	0x41e75b4a	28.919575
62	0xc15212df	-13.129607
63	0xc0d6def8	-6.714718

RA f4 [184, 3]
0	0x4000538f	2.0051
1	0xbe9c28f6	-0.305
2	0x3d4c63f1	0.0499
3	0x3f7161e5	0.9429
4	0xc01acbfb	-2.4187
5	0x3f8295ea	1.0202
6	0x3fbff62b	1.4997
7	0xbf81d14e	-1.0142
8	0x3fa69446	1.3014
9	0x404acd9f	3.1688
10	0x3bcb295f	0.0062
11	0xbdbb645a	-0.0915
12	0x3f8c87fd	1.0979
13	0xbd1930be	-0.0374
14	0xbf6816f0	-0.9066
15	0x3d21cac1	0.0395
16	0xc018432d	-2.3791
17	0x3ecc2f83	0.3988
18	0x3fd7e910	1.6868
19	0xc0421965	-3.0328
20	0x3efd97f6	0.4953
21	0x3f2ff2e5	0.6873
22	0xc03b1759	-2.9233
23	0x3ffb0f28	1.9614
24	0x4016353f	2.347
25	0xbf89096c	-1.0706
26	0x3fff2e49	1.9936
27	0x3f3a3d71	0.7275
28	0xbec5e354	-0.3865
29	0x3fe2ca58	1.7718
30	0x3e1f8a09	0.1558
31	0xbe90624e	-0.282
32	0xbf295183	-0.6614
33	0xbf77dbf5	-0.9682
34	0xbeefc505	-0.4683
35	0x3faec8b4	1.3655
36	0xc04f4bc7	-3.239
37	0xbfb09d49	-1.3798
38	0x4004538f	2.0676
39	0xbff00d1b	-1.8754
40	0xbf5c2268	-0.8599
41	0x4020f909	2.5152
42	0x3e6d0e56	0.2315
43	0xbd727bb3	-0.0592
44	0x3fe41f21	1.7822
45	0xbfa5fd8b	-1.2968
46	0xbf048e8a	-0.5178
47	0x3e40ebee	0.1884
48	0xc0715326	-3.7707
49	0xbf1fcb92	-0.6242
50	0x3fbcdd2f	1.4755
51	0xc0485879	-3.1304
52	0xc01170a4	-2.2725
53	0x3fb81a37	1.4383
54	0xc076c083	-3.8555
55	0xbfd1e4f7	-1.6398
56	0x403c154d	2.9388
57	0xbfaafec5	-1.3359
58	0xbfcd73eb	-1.6051
59	0x404793de	3.1184
60	0xbffcd014	-1.9751
61	0x3cca57a8	0.0247
62	0x404a64c3	3.1624
63	0x3f4eb1c4	0.8074
64	0x3e50ff97	0.2041
65	0x3f7a8588	0.9786
66	0xbf4c1bda	-0.7973
67	0xbfd08312	-1.629
68	0xbdae48e9	-0.0851
69	0xc00f367a	-2.2377
70	0xc06a594b	-3.6617
71	0xbf1bc6a8	-0.6085
72	0xbfc05bc0	-1.5028
73	0xc036b9f5	-2.8551
74	0x3eeaf4f1	0.4589
75	0xbe15cfab	-0.1463
76	0xbf7367a1	-0.9508
77	0x3f5d7732	0.8651
78	0xbf51f8a1	-0.8202
79	0xbfa54952	-1.2913
80	0xbfa15e9e	-1.2607
81	0xc03fc361	-2.9963
82	0xc043089a	-3.0474
83	0xbf8e17c2	-1.1101
84	0xbfc5566d	-1.5417
85	0xc0808ce7	-4.0172
86	0xbfb08659	-1.3791
87	0xc02ef694	-2.7338
88	0xc09103b0	-4.5317
89	0xbe212d77	-0.1574
90	0xbf3eecc0	-0.7458
91	0xc05da9fc	-3.4635
92	0x3f79e1b1	0.9761
93	0xc00c1f21	-2.1894
94	0xc0209ba6	-2.5095
95	0x3f9f8d50	1.2465
96	0x3e969446	0.2941
97	0xbe0a0903	-0.1348
98	0x3edd2f1b	0.432
99	0x3edf62b7	0.4363
100	0xbeab020c	-0.334
101	0x3feef9db	1.867
102	0xbeae978d	-0.341
103	0xc01d8937	-2.4615
104	0x404463f1	3.0686
105	0x3e23d70a	0.16
106	0xbf8236e3	-1.0173
107	0x404c4b5e	3.1921
108	0x3fb4538f	1.4088
109	0x3ec41893	0.383
110	0x3fd5c28f	1.67
111	0xbeff559b	-0.4987
112	0xbf126e98	-0.572
113	0x3f715b57	0.9428
114	0xbfa3c6a8	-1.2795
115	0xc02037b5	-2.5034
116	0x402032ca	2.5031
117	0x3ecb020c	0.3965
118	0xc045b8bb	-3.0894
119	0x4023295f	2.5494
120	0xbf031f8a	-0.5122
121	0xc03914e4	-2.8919
122	0x40821062	4.0645
123	0x3f8a8c15	1.0824
124	0xbf75119d	-0.9573
125	0x4071ff2e	3.7812
126	0xbf18c7e3	-0.5968
127	0xbeced917	-0.404
128	0x406d460b	3.7074
129	0xbe7f4880	-0.2493
130	0xbd676c8b	-0.0565
131	0x3dbeab36	0.0931
132	0x3fb3295f	1.3997
133	0x3fca617c	1.5811
134	0x3f9cac08	1.224
135	0x3e57f62b	0.2109
136	0x3c96bb99	0.0184
137	0x4034240b	2.8147
138	0x3e4f5c29	0.2025
139	0x3fb3fb16	1.4061
140	0x4009a858	2.1509
141	0x4018cb29	2.3874
142	0x400d7732	2.2104
143	0x3fc4f41f	1.5387
144	0x3fa91340	1.3209
145	0x3f75c28f	0.96
146	0x3d0adaba	0.0339
147	0x3e12f1aa	0.1435
148	0xbf47d567	-0.7806
149	0x4004240b	2.0647
150	0x3f918c7e	1.1371
151	0xbe044d01	-0.1292
152	0x4058a8c1	3.3853
153	0xbf232ca5	-0.6374
154	0xbdad42c4	-0.0846
155	0x40604b5e	3.5046
156	0x3e87d567	0.2653
157	0x400c49ba	2.192
158	0x403a5aee	2.9118
159	0xbf3acd9f	-0.7297
160	0x3fc5e00d	1.5459
161	0x3fcaacda	1.5834
162	0x3ee44d01	0.4459
163	0x3ef837b5	0.4848
164	0xbdb95810	-0.0905
165	0xbf9a12d7	-1.2037
166	0x3f40902e	0.7522
167	0x3f256042	0.646
168	0xc0569931	-3.3531
169	0x400194af	2.0247
170	0x3f6096bc	0.8773
171	0xc01ba440	-2.4319
172	0x3f7758e2	0.9662
173	0x3fc0e560	1.507
174	0xbe923a2a	-0.2856
175	0x3fc727bb	1.5559
176	0x3f143fe6	0.5791
177	0xbf9eb50b	-1.2399
178	0xbec4c2f8	-0.3843
179	0xbd6075f7	-0.0548
180	0xc0340d1b	-2.8133
181	0x403e1b09	2.9704
182	0x3f3d70a4	0.74
183	0xc06e233a	-3.7209
184	0x3fd84189	1.6895
185	0xbdd21ff3	-0.1026
186	0xc0871c43	-4.2222
187	0x400d66cf	2.2094
188	0x3fc2e7d5	1.5227
189	0xc03dcc64	-2.9656
190	0x3c88ce70	0.0167
191	0x3fd1205c	1.6338
192	0xc0056d5d	-2.0848
193	0x3fa84817	1.3147
194	0x401f4880	2.4888
195	0xbecae7d5	-0.3963
196	0xbeee2196	-0.4651
197	0xbf208312	-0.627
198	0x3fa9d495	1.3268
199	0x3f58e8a7	0.8473
200	0x3fba7efa	1.457
201	0x3f1f4f0e	0.6223
202	0x3fd0b780	1.6306
203	0x406e88ce	3.7271
204	0x3fd64c30	1.6742
205	0x3f55e354	0.8355
206	0x403ba5e3	2.932
207	0x3fd8ebee	1.6947
208	0x3fd9eecc	1.7026
209	0x3f2b573f	0.6693
210	0x3f045a1d	0.517
211	0xbe2978d5	-0.1655
212	0x3f8f9724	1.1218
213	0x3f1ebee0	0.6201
214	0x402bcb92	2.6843
215	0x405abb99	3.4177
216	0xbec41893	-0.383
217	0x3f9bfe5d	1.2187
218	0x40641206	3.5636
219	0x3f56a7f0	0.8385
220	0x3fcb2ca5	1.5873
221	0x4099b22d	4.803
222	0x3fdac083	1.709
223	0xbe4e8a72	-0.2017
224	0x40528c15	3.2898
225	0x402a786c	2.6636
226	0x3fa57dbf	1.2929
227	0x40434396	3.051
228	0x3e4c63f1	0.1996
229	0xbd7f2e49	-0.0623
230	0x3e269ad4	0.1627
231	0xbe8902de	-0.2676
232	0xbf8bc9ef	-1.0921
233	0x3fabb646	1.3415
234	0xbff71de7	-1.9306
235	0xbfbe6320	-1.4874
236	0x404d930c	3.2121
237	0xbf26872b	-0.6505
238	0xbffc84b6	-1.9728
239	0x4020d6a1	2.5131
240	0x3f4425af	0.7662
241	0xbee0d1b7	-0.4391
242	0x3fa56d5d	1.2924
243	0xbf97837b	-1.1837
244	0xbf8c5d64	-1.0966
245	0x3ebe0ded	0.3712
246	0xbfe66320	-1.7999
247	0xbeef9097	-0.4679
248	0x40667efa	3.6015
249	0xc031b574	-2.7767
250	0xbfbde00d	-1.4834
251	0x4020e219	2.5138
252	0xc00b6113	-2.1778
253	0xc0093c36	-2.1443
254	0x4081d14e	4.0568
255	0xbf4d9e84	-0.8032

RB f4 [204, 3]
0	0xbfcb7b4a	-1.5897
1	0x3fcf0069	1.6172
2	0x3f3645a2	0.712
3	0xbfd8c49c	-1.6935
4	0x3ffb50b1	1.9634
5	0xbf4da512	-0.8033
6	0xc000b296	-2.0109
7	0x3e0f27bb	0.1398
8	0x3f4c1bda	0.7973
9	0xc0025461	-2.0364
10	0x3f1fc505	0.6241
11	0xbfbf2474	-1.4933
12	0xbfca4dd3	-1.5805
13	0xbec624dd	-0.387
14	0xbf03404f	-0.5127
15	0xbf0e2196	-0.5552
16	0x3fde0ded	1.7348
17	0x3f874539	1.0568
18	0xc00e5aee	-2.2243
19	0x401060aa	2.2559
20	0x3fab295f	1.3372
21	0xc01dbc02	-2.4646
22	0x402de1b1	2.7169
23	0xbf805532	-1.0026
24	0xbf3d42c4	-0.7393
25	0x4016809d	2.3516
26	0xbf967d56	-1.1757
27	0xbfc34396	-1.5255
28	0xbed35a86	-0.4128
29	0x3fce2eb2	1.6108
30	0xc046b50b	-3.1048
31	0x3d648e8a	0.0558
32	0x3f6dbf48	0.9287
33	0xc047edfa	-3.1239
34	0x3f0b9f56	0.5454
35	0xbfd59168	-1.6685
36	0xbfc2617c	-1.5186
37	0x3ef837b5	0.4848
38	0xc01cc7e3	-2.4497
39	0xbffc49ba	-1.971
40	0xbfa72b02	-1.306
41	0xbf34c2f8	-0.7061
42	0x3fab573f	1.3386
43	0x3fc3b98c	1.5291
44	0xc025fbe7	-2.5935
45	0x3fd24745	1.6428
46	0x3c858794	0.0163
47	0xc030dd2f	-2.7635
48	0x3f644d01	0.8918
49	0x3fd3c6a8	1.6545
50	0xbf901a37	-1.1258
51	0x3fd69100	1.6763
52	0xbf0cb924	-0.5497
53	0xbfa85879	-1.3152
54	0x3fd350b1	1.6509
55	0x3f1d6a16	0.6149
56	0xbec816f0	-0.3908
57	0x400fbe77	2.246
58	0x40081f21	2.1269
59	0xc030bac7	-2.7614
60	0x3f12a305	0.5728
61	0x3ff1a9fc	1.888
62	0xc052b9f5	-3.2926
63	0x3f5d35a8	0.8641
64	0xbef7f62b	-0.4843
65	0xc0568a72	-3.3522
66	0x40263886	2.5972
67	0xbe11b717	-0.1423
68	0xc0520aa6	-3.2819
69	0x3f898fc5	1.0747
70	0x40291687	2.642
71	0xbf2f4f0e	-0.6848
72	0xbe31a9fc	-0.1735
73	0x3fb4985f	1.4109
74	0xbf8243fe	-1.0177
75	0x3f46809d	0.7754
76	0xbf9205bc	-1.1408
77	0xbf8e6666	-1.1125
78	0x40239097	2.5557
79	0xbf95cc64	-1.1703
80	0xbf8da512	-1.1066
81	0x40269931	2.6031
82	0x3f722d0e	0.946
83	0xbe786c22	-0.2426
84	0x3f12de01	0.5737
85	0x4040b0f2	3.0108
86	0x3f6c01a3	0.9219
87	0x40047ae1	2.07
88	0x4024cb29	2.5749
89	0x3f6985f0	0.9122
90	0xbd456d5d	-0.0482
91	0x40138034	2.3047
92	0xbe997247	-0.2997
93	0x400cd35b	2.2004
94	0x3fd31c43	1.6493
95	0xbea147ae	-0.315
96	0x3f54b5dd	0.8309
97	0x3f915b57	1.1356
98	0xbef9999a	-0.4875
99	0x3da8f5c3	0.0825
100	0x402b62b7	2.6779
101	0x3fec154d	1.8444
102	0x3ee8db8c	0.4548
103	0x40832d77	4.0993
104	0x3f5bc01a	0.8584
105	0x403051ec	2.755
106	0x405b6e2f	3.4286
107	0x3f5816f0	0.8441
108	0x40143c9f	2.3162
109	0x4001b22d	2.0265
110	0x3fea339c	1.8297
111	0xbf8a9931	-1.0828
112	0x3ffd119d	1.9771
113	0xbe1013a9	-0.1407
114	0xbce2eb1c	-0.0277
115	0x403df06f	2.9678
116	0xbf976fd2	-1.1831
117	0x4021bf48	2.5273
118	0x400e64c3	2.2249
119	0xbf999653	-1.1999
120	0x4039e00d	2.9043
121	0x3f5240b8	0.8213
122	0xbe288ce7	-0.1646
123	0x3f2c56d6	0.6732
124	0x3f2cd35b	0.6751
125	0xbfb0f909	-1.3826
126	0xbf18b439	-0.5965
127	0x3cd1b717	0.0256
128	0xc0493a93	-3.1442
129	0xbfb57dbf	-1.4179
130	0x3fa05bc0	1.2528
131	0xc02959b4	-2.6461
132	0x3f3a43fe	0.7276
133	0x3dbd70a4	0.0925
134	0xc016b9f5	-2.3551
135	0xbeff62b7	-0.4988
136	0x3ff97247	1.9488
137	0xbfcfae14	-1.6225
138	0x3eb61e4f	0.3557
139	0x3f58f5c3	0.8475
140	0xbf929931	-1.1453
141	0xbf903e42	-1.1269
142	0xbf688659	-0.9083
143	0xc03af1aa	-2.921
144	0xbed63886	-0.4184
145	0x3d58adac	0.0529
146	0xc0873b64	-4.226
147	0xbfd90ff9	-1.6958
148	0x3ff7212d	1.9307
149	0xc05d930c	-3.4621
150	0xc0160aa6	-2.3444
151	0x3f6c28f6	0.9225
152	0xc00a4745	-2.1606
153	0x3f8fec57	1.1244
154	0xbf64a234	-0.8931
155	0xc00535a8	-2.0814
156	0x3fbff2e5	1.4996
157	0x3f200d1b	0.6252
158	0xc03c16f0	-2.9389
159	0x3dcbfb16	0.0996
160	0x402f381d	2.7378
161	0xc0073b64	-2.113
162	0xbf854952	-1.0413
163	0x4019aee6	2.4013
164	0xbf48793e	-0.7831
165	0x3f94b924	1.1619
166	0x3f9573eb	1.1676
167	0xbf1c0ebf	-0.6096
168	0xbfb205bc	-1.3908
169	0xc021999a	-2.525
170	0xbfe3851f	-1.7775
171	0xbfd50b0f	-1.6644
172	0xbfae8db9	-1.3637
173	0xc0317f63	-2.7734
174	0xbf032ca5	-0.5124
175	0xbff15b57	-1.8856
176	0xbf2f0d84	-0.6838
177	0xbf91b717	-1.1384
178	0xbdba29c7	-0.0909
179	0xc0037176	-2.0538
180	0xbf66e2eb	-0.9019
181	0xbeea9931	-0.4582
182	0xbf22a305	-0.6353
183	0xc015288d	-2.3306
184	0xc038b924	-2.8863
185	0xbfab2ca5	-1.3373
186	0xbf66594b	-0.8998
187	0xc05889a0	-3.3834
188	0xc0102a99	-2.2526
189	0xbf924dd3	-1.143
190	0xbfc1f8a1	-1.5154
191	0xc06e83e4	-3.7268
192	0xc02f0a3d	-2.735
193	0xbfa3e0df	-1.2803
194	0xc03fef9e	-2.999
195	0xbf204ea5	-0.6262
196	0xc0163bcd	-2.3474
197	0x3e9ba5e3	0.304
198	0x3f0d3c36	0.5517
199	0xbff70069	-1.9297
200	0xbf75182b	-0.9574
201	0xbe33eab3	-0.1757
202	0x3e675254	0.2259
203	0xc01e8a72	-2.4772
204	0xbfe95183	-1.8228
205	0x3f4374bc	0.7635
206	0xc007126f	-2.1105
207	0xbfe34d6a	-1.7758
208	0xbebfcb92	-0.3746
209	0xbdf212d7	-0.1182
210	0x40185532	2.3802
211	0xbf0161e5	-0.5054
212	0x3ecf5c29	0.405
213	0x3ff2c711	1.8967
214	0xbffe147b	-1.985
215	0x3ea8ce70	0.3297
216	0x400444d0	2.0667
217	0x3db645a2	0.089
218	0xbf7bfb16	-0.9843
219	0x3fb78d50	1.434
220	0xc00aa64c	-2.1664
221	0xbf9068dc	-1.1282
222	0x3f7ff2e5	0.9998
223	0xbf4d8adb	-0.8029
224	0xbfbf41f2	-1.4942
225	0x3fea3a2a	1.8299
226	0x3d40ebee	0.0471
227	0x3f9648e9	1.1741
228	0x405cc986	3.4498
229	0xbedc6a7f	-0.4305
230	0x3f229c78	0.6352
231	0x402b9f56	2.6816
232	0xc02cfdf4	-2.703
233	0x3f189375	0.596
234	0x3f86a162	1.0518
235	0xc0095183	-2.1456
236	0x3f815183	1.0103
237	0x3fd982aa	1.6993
238	0x3f8f2e49	1.1186
239	0xbf6da512	-0.9283
240	0x403d374c	2.9565
241	0x3d436113	0.0477
242	0xbfd17f63	-1.6367
243	0x40118937	2.274
244	0xc02032ca	-2.5031
245	0xbfe19ce0	-1.7626
246	0x3f1b3d08	0.6064
247	0xc03832ca	-2.8781
248	0xbf9ee2eb	-1.2413
249	0x3f5c84b6	0.8614
250	0xbf32a993	-0.6979
251	0xc01fcd36	-2.4969
252	0xc019db23	-2.404
253	0xbfaf1759	-1.3679
254	0xc01820c5	-2.377
255	0xbf8be426	-1.0929

qA f4 [184, 1]
0	0x3f59169c	0.84800124
1	0xbecb70b2	-0.39734417
2	0xbee8d420	-0.4547434
3	0xbf14491c	-0.57924056
4	0xbf1dc94e	-0.6163529
5	0x3dfd1674	0.12357798
6	0x3e1b1d44	0.15147883
7	0x3e153174	0.14569646
8	0x3e3f8acc	0.1870529
9	0x3e1840da	0.14868489
10	0x3ee2e995	0.44318834
11	0x3f54040d	0.8281868
12	0xbecb3478	-0.39688468
13	0xbecf7252	-0.40516907
14	0xbf1f8804	-0.6231692
15	0xbf17fd28	-0.5937066
16	0x3e1381da	0.14405003
17	0x3e12e46c	0.14344949
18	0x3e07dc2e	0.13267586
19	0x3e2398d8	0.15976274
20	0x3e23daac	0.16001385
21	0x3ee6ce07	0.4507906
22	0x3f539036	0.82641923
23	0xbecb18fc	-0.396675
24	0xbecf0c68	-0.40439153
25	0xbf1f795c	-0.62294555
26	0xbf1814d6	-0.59406793
27	0x3e138ffc	0.14410394
28	0x3e132b20	0.1437192
29	0x3e07f77e	0.13278005
30	0x3e23d40a	0.15998855
31	0x3e242ddc	0.16033119
32	0x3ee6c723	0.45073804
33	0x3f56a729	0.83848816
34	0xbec9635a	-0.39333612
35	0xbecd2610	-0.40068102
36	0xbf1e84ce	-0.61921394
37	0xbf2063ca	-0.62652266
38	0x3e152c72	0.14567736
39	0x3e0f9e04	0.14025122
40	0x3e0b64f0	0.13612723
41	0x3e302e7e	0.17205235
42	0x3e2388f6	0.15970215
43	0x3ee518cf	0.4474549
44	0x3f591a5e	0.8480586
45	0xbec6c6b0	-0.38823462
46	0xbeeae9c4	-0.45881474
47	0xbf15dc30	-0.58539104
48	0xbf1ea394	-0.6196835
49	0x3e087c36	0.13328633
50	0x3e1a5f14	0.15075332
51	0x3e1331b2	0.14374426
52	0x3e3fdd7a	0.1873683
53	0x3e123b00	0.14280319
54	0x3ee46896	0.44611043
55	0x3f56796e	0.83779037
56	0xbec9eff2	-0.39440876
57	0xbed1d202	-0.40980536
58	0xbf1be43b	-0.6089513
59	0xbf1faaa1	-0.62369734
60	0x3e162afa	0.14664832
61	0x3e1136d2	0.14181069
62	0x3e0b8d88	0.13628209
63	0x3e255986	0.16147432
64	0x3e28d7f0	0.16488624
65	0x3ee55c6f	0.44797084
66	0x3f5674e2	0.837721
67	0xbec9edac	-0.39439142
68	0xbed1cc08	-0.40975976
69	0xbf1a2c20	-0.6022358
70	0xbf20db18	-0.6283431
71	0x3e13f976	0.1445063
72	0x3e1144a4	0.1418634
73	0x3e0b8166	0.1362358
74	0x3e216364	0.15760571
75	0x3e2b2c98	0.1671623
76	0x3ee636c0	0.44963646
77	0x3f577c00	0.84173584
78	0xbec91b1c	-0.39278495
79	0xbed0aaee	-0.4075541
80	0xbf1ce27a	-0.61283076
81	0xbf20930a	-0.62724364
82	0x3e13555c	0.14388031
83	0x3e116fd6	0.14202818
84	0x3e09f766	0.13473281
85	0x3e218340	0.15772724
86	0x3e30de82	0.1727238
87	0x3ee529df	0.44758508
88	0x3f6c128c	0.922158
89	0xbe104f9c	-0.14092869
90	0xbf765dcc	-0.9623687
91	0xbf1dca7a	-0.6163708
92	0xbf81bbc5	-1.0135428
93	0x3ce3da60	0.02781409
94	0x3d2086f0	0.039191186
95	0x3e03843c	0.12843412
96	0x3ed69dd8	0.419173
97	0x3ec3f6c3	0.38274202
98	0x3ecdf798	0.40227962
99	0x3ed2a585	0.41141906
100	0x3f6c8bfa	0.9240109
101	0xbe187a14	-0.14890319
102	0xbf7eb97b	-0.9950177
103	0xbf239fc3	-0.6391565
104	0xbf7f515b	-0.99733514
105	0x3d600e68	0.05470124
106	0x3d90aca8	0.070641816
107	0x3deb7c7c	0.11498353
108	0x3ed66ecc	0.41881406
109	0x3ecdd9b3	0.40205154
110	0x3ec7c7e6	0.39019698
111	0x3ecf5dc3	0.40501222
112	0x3f7880f0	0.97071743
113	0xbe1cb110	-0.15301919
114	0xbf7dceb6	-0.9914354
115	0xbf2b15aa	-0.6682993
116	0xbf775a36	-0.96622026
117	0x3de09678	0.109662
118	0x3deef684	0.11668113
119	0x3dcb441c	0.099251
120	0x3ebd23fe	0.36941522
121	0x3ec5325e	0.3851499
122	0x3eb03c17	0.34420845
123	0x3ec48d03	0.38388833
124	0x3f6f3b2c	0.93449664
125	0xbe2b8910	-0.16751504
126	0xbf8083d6	-1.0040233
127	0xbf22b341	-0.6355477
128	0xbf81dc0a	-1.0145276
129	0x3dc09c48	0.09404808
130	0x3deb56d4	0.114911705
131	0x3de69970	0.11259735
132	0x3ec7b5b8	0.39005828
133	0x3edae9a6	0.42756385
134	0x3ebc3aa7	0.36763498
135	0x3ec2b702	0.3803025
136	0x3f689c0e	0.9086312
137	0xbe7a16fc	-0.2442283
138	0xbf79b691	-0.975442
139	0xbf27d69f	-0.6556186
140	0xbf7e5c61	-0.9935971
141	0x3df959a4	0.12175301
142	0x3e086f96	0.13323817
143	0x3e1c664e	0.15273401
144	0x3ec3daec	0.38252962
145	0x3ed677e9	0.4188836
146	0x3eb5455f	0.35404488
147	0x3ecb4cdb	0.39707074
148	0x3f699411	0.91241556
149	0xbe46dd20	-0.1942029
150	0xbf852352	-1.0401404
151	0xbf18f2f1	-0.597457
152	0xbf8053f8	-1.0025625
153	0x3dde8620	0.10865426
154	0x3e1439a6	0.14475116
155	0x3de900a8	0.11377078
156	0x3eccb773	0.3998371
157	0x3eda05ce	0.42582554
158	0x3eaf68fd	0.34259787
159	0x3ec5e4ba	0.38651067
160	0x3f564ec3	0.8371393
161	0xbe3a4c10	-0.18193078
162	0xbf6ed85e	-0.932989
163	0xbf20baca	-0.6278502
164	0xbf7eb240	-0.9949074
165	0x3dd67cd0	0.10473025
166	0x3df73428	0.12070495
167	0x3e07b41a	0.13252297
168	0x3ecd887e	0.40143198
169	0x3eaee80e	0.3416142
170	0x3ecd10ac	0.40051782
171	0x3ecc4baf	0.39901492
172	0x3f682c9e	0.9069308
173	0xbe600730	-0.21877742
174	0xbf7ab219	-0.97928005
175	0xbf204935	-0.62611705
176	0xbf7e49bd	-0.99331266
177	0x3df08bfc	0.1174545
178	0x3dd7b1c8	0.10531956
179	0x3e0b4d44	0.13603693
180	0x3ec3b659	0.38225058
181	0x3ebf6177	0.37379047
182	0x3ecc2e11	0.39878896
183	0x3ecb3880	0.39691544

muA f4 [184, 3]
0	0xb8d5c000	-0.00010192394
1	0x3ce970e0	0.028496206
2	0xbdaff644	-0.08591893
3	0x3d36ca98	0.044626802
4	0x3dbc9c10	0.09209454
5	0x3cf53d50	0.029936463
6	0xbcab34c0	-0.020899177
7	0xbdedc026	-0.11608915
8	0x3ce5b070	0.028038234
9	0x3def360c	0.116802305
10	0x3d076ff8	0.033065766
11	0xbcc6c270	-0.024262637
12	0x3db78d46	0.08962493
13	0x3d45c190	0.0482803
14	0xbda7167c	-0.081585854
15	0xbd172438	-0.036899775
16	0x3baeed80	0.005338371
17	0xbccc0c80	-0.024908304
18	0x3d246b60	0.040141463
19	0xbca2d570	-0.019877166
20	0xbcbbf080	-0.022941828
21	0xbc09e320	-0.008415967
22	0xbc7922a0	-0.015206009
23	0x3d3ee020	0.04660046
24	0x3d1145e0	0.03546703
25	0xbc38e280	-0.011284471
26	0x3cd26f80	0.025687933
27	0xbd0bec50	-0.034160912
28	0x3c9b70c0	0.018974662
29	0x3cb77a00	0.022397041
30	0xbcc60d00	-0.02417612
31	0xbbae0b40	-0.0053113997
32	0x3b345100	0.00275141
33	0x3d5f8838	0.054573268
34	0x3c9e5470	0.019327372
35	0xbc593480	-0.013257146
36	0x3db4c1a0	0.088259935
37	0x3d0a5828	0.03377548
38	0x3d102950	0.03519565
39	0xbdd8b2e2	-0.10580994
40	0xbd2cb028	-0.042160183
41	0xbc963cf0	-0.018339604
42	0xbb938b40	-0.004502684
43	0xbc069020	-0.008213073
44	0x3de03266	0.10947113
45	0xbd9dd948	-0.07707459
46	0xbcb765e0	-0.022387445
47	0xbdd93308	-0.106054366
48	0xbc69f3e0	-0.014279336
49	0x3d1eac20	0.03873837
50	0xbce3e560	-0.027819335
51	0x3c731100	0.014835596
52	0xbd1623e0	-0.036655307
53	0xbcefe450	-0.029283673
54	0xbcb3ba80	-0.021939516
55	0xbc197a20	-0.009367496
56	0x3d375b90	0.044765055
57	0x3c81dff0	0.015853852
58	0xbd2157a0	-0.039390206
59	0x3cae4ca0	0.021276772
60	0xbc6cfcc0	-0.014464557
61	0x3d1f5310	0.038897574
62	0x3cbbb450	0.022913128
63	0x3c9021d0	0.017594248
64	0x3bfb31c0	0.007665843
65	0xbc78a700	-0.015176535
66	0x3d0ce180	0.03439474
67	0x3d38e550	0.045140564
68	0x3c7c0d80	0.015384078
69	0x3d405410	0.04695517
70	0x3d4b69a8	0.04966131
71	0x3d9869dc	0.07442066
72	0xbd720ff8	-0.05909726
73	0xbd916fb4	-0.07101384
74	0xbd8e3a54	-0.06944719
75	0xbc87d3a0	-0.016580403
76	0xbd6791c8	-0.056535512
77	0x3dc19cee	0.0945376
78	0xbd00d2a0	-0.031450868
79	0xbbe2f740	-0.006926447
80	0xbe067d82	-0.13133815
81	0xbce9a040	-0.028518796
82	0x3d142d50	0.036176026
83	0xbc997440	-0.01873219
84	0x3d1b66c0	0.037939787
85	0xbc081540	-0.008305848
86	0xbcfdabd0	-0.030965716
87	0xbca01080	-0.019539118
88	0xbd184dd0	-0.037183583
89	0x3ce4a040	0.027908444
90	0x3d0296e0	0.031882167
91	0xbd069f88	-0.032866985
92	0x3c53df80	0.0129317045
93	0xbd182500	-0.03714466
94	0x3c595e20	0.01326707
95	0x3cd2a650	0.02571407
96	0x3c4e0c00	0.012576103
97	0x3caa0bb0	0.020757526
98	0xbba1d440	-0.0049386322
99	0xbcdd1d60	-0.026991546
100	0xbba24300	-0.0049518347
101	0xbd80a364	-0.06281164
102	0x3d093a38	0.033502787
103	0x3dccfacc	0.10008773
104	0x3bf70c00	0.0075392723
105	0xbd08efc8	-0.0334318
106	0xbde26dc6	-0.11056094
107	0x3bc0c740	0.0058831275
108	0x3df558de	0.11979841
109	0x3d94dac8	0.07268292
110	0x3c32c800	0.0109119415
111	0xbd865444	-0.06559041
112	0xbd874204	-0.06604388
113	0x3d6178d4	0.05504687
114	0xbd243960	-0.04009378
115	0x3c1846c0	0.009294212
116	0xbced3ac0	-0.028958678
117	0x3d1f4b68	0.038890272
118	0xbc8d49d0	-0.01724711
119	0xbccb31d0	-0.024804026
120	0xbb95c100	-0.0045701265
121	0xbc434860	-0.011919111
122	0x3d476838	0.048683375
123	0x3d2e39b0	0.042535484
124	0xbbac8cc0	-0.005265802
125	0x3cc27310	0.023736507
126	0xbd1c25c0	-0.03812194
127	0x3ca29810	0.0198479
128	0x3c91c110	0.017792255
129	0x3afbfc00	0.0019224882
130	0x3c345440	0.011006415
131	0xbcbb9b50	-0.022901207
132	0x3d64c4e8	0.055851847
133	0xbc94b840	-0.018154263
134	0xbd8bc350	-0.06824362
135	0xbac2d400	-0.0014864206
136	0x3dc8ec00	0.098106384
137	0xbd06d4f8	-0.032917947
138	0xbcbd1280	-0.02308011
139	0xbd97166c	-0.073773235
140	0x3dba11ac	0.09085402
141	0x3de42eb4	0.111417204
142	0x3d8307ec	0.06397995
143	0x3cbaa780	0.022784948
144	0x3df81d48	0.1211496
145	0x3d156030	0.036468685
146	0xbd25df30	-0.04049605
147	0xbae3fa00	-0.0017393231
148	0xbd02cab8	-0.03193161
149	0xbd0cd0c8	-0.034378797
150	0x3d3e60a8	0.046478897
151	0x3b568b80	0.0032736957
152	0x3cc00a20	0.023442328
153	0xbd292308	-0.041293174
154	0x3b784a00	0.0037885904
155	0x3d011fb8	0.03152439
156	0x3be39380	0.0069450736
157	0x3ccd8eb0	0.025092453
158	0x3d193150	0.037400544
159	0xbd300ed0	-0.042982876
160	0x3a2e2c00	0.000664413
161	0xbc6d52e0	-0.014485091
162	0xbc999870	-0.018749446
163	0xbc3d4e80	-0.01155436
164	0xbbed9140	-0.007249981
165	0x3c830af0	0.015996426
166	0xbd222b68	-0.039592177
167	0xbd420d20	-0.0473758
168	0x3d73d440	0.05952859
169	0xbd8a2d6c	-0.06746945
170	0x3d364f78	0.04450938
171	0xbd9ff5a4	-0.07810524
172	0x3d82c59e	0.06385349
173	0xbcd58eb0	-0.026069015
174	0x3da20010	0.07910168
175	0x3de90f2c	0.11379847
176	0x3c7aedc0	0.015315473
177	0xbdb69e24	-0.08916882
178	0xbd332480	-0.04373598
179	0x3ce33ce0	0.027738988
180	0x3d09e1c8	0.033662587
181	0x3d1dc3d8	0.03851685
182	0xbb255e80	-0.0025233328
183	0xbc3ba3a0	-0.011452585
184	0xbcac0cc0	-0.021002173
185	0xbd31c8c8	-0.04340437
186	0xbd15a300	-0.036532402
187	0x3b77d400	0.003781557
188	0x3d0fc2a8	0.035097748
189	0xbce97070	-0.028495997
190	0xbd1ecf58	-0.038771957
191	0xbb48c300	-0.0030633807
192	0x3c597a60	0.013273805
193	0x3cd98650	0.026553303
194	0x3d1ec2b0	0.038759887
195	0x3c957e80	0.018248796
196	0xbbd432c0	-0.0064757764
197	0xbc74ad40	-0.014933884
198	0xbd2ba0d8	-0.04190144
199	0xbd0735f8	-0.033010453
200	0xbd1177e8	-0.035514742
201	0x3d95adce	0.07308541
202	0xbd4e1298	-0.0503107
203	0xbd5a8f80	-0.05335951
204	0xbd6e3200	-0.058153152
205	0x3d334600	0.04376793
206	0x3d9744a6	0.073861405
207	0x3d670ba8	0.0564076
208	0x3de08274	0.10962382
209	0xbd719f38	-0.058989733
210	0xb8805000	-6.118417e-05
211	0xbd518a88	-0.051157504
212	0x3db9614c	0.09051761
213	0x3bfa2fc0	0.007635087
214	0x3d3bf498	0.04588756
215	0xbcb14410	-0.0216389
216	0xbd294e30	-0.04133433
217	0xbcc65b90	-0.024213582
218	0xbc65f540	-0.014035523
219	0x3c8c90e0	0.017158926
220	0xbbbfa2c0	-0.0058482587
221	0x3d476a20	0.048685193
222	0xbc0e8140	-0.008697808
223	0xbd336e10	-0.043806136
224	0x3c97ee50	0.018546253
225	0x3d193a98	0.037409395
226	0x3ced20c0	0.02894628
227	0x3c0d6ae0	0.008631438
228	0xbc232220	-0.0099568665
229	0xbae21100	-0.0017247498
230	0xbcb728c0	-0.022358298
231	0xbd0a1638	-0.033712596
232	0x3cb7c520	0.022432864
233	0xbd56b940	-0.052422762
234	0x3db2b628	0.0872615
235	0xbd098f40	-0.03358388
236	0xbd3986a0	-0.045294404
237	0xbdb3dcd8	-0.08782357
238	0x3ca03810	0.019557983
239	0x3d8084b2	0.062753096
240	0x3dfb4c3c	0.122704
241	0x3d813c2e	0.063103065
242	0x3cd95060	0.026527584
243	0xbd936670	-0.07197273
244	0xbd891c6c	-0.06694874
245	0x3d3bd778	0.045859784
246	0x3c7d2720	0.015451223
247	0x3d400ce8	0.04688731
248	0x3c6cf580	0.014462829
249	0xbd02d810	-0.031944335
250	0xba8ead00	-0.0010885298
251	0xbd222cc8	-0.039593488
252	0xbb8033c0	-0.003912419
253	0xbd0b8320	-0.034060597
254	0x3d1b7168	0.03794995
255	0xbc80cf90	-0.015723974

quadA f4 [184, 3, 3]
0	0xbda74ed6	-0.08169334
1	0xbd2cc0e8	-0.042176157
2	0xbb6ecac0	-0.0036436766
3	0xbd2cc0e8	-0.042176157
4	0x3dea5958	0.11442822
5	0x3da9a7ce	0.08283959
6	0xbb6ecac0	-0.0036436766
7	0x3da9a7ce	0.08283959
8	0xbd061504	-0.032734886
9	0x3c783466	0.0151492115
10	0xbc3fcdc0	-0.0117067695
11	0xbc2e3fa0	-0.010635287
12	0xbc3fcdc0	-0.0117067695
13	0xbc8d03bd	-0.017213697
14	0xbc09d400	-0.008412361
15	0xbc2e3fa0	-0.010635287
16	0xbc09d400	-0.008412361
17	0x3b074c58	0.002064487
18	0x3cfe7328	0.03106077
19	0xbcf22310	-0.029557735
20	0xbba2aac0	-0.0049642026
21	0xbcf22310	-0.029557735
22	0xbc8bfd70	-0.017088622
23	0xbb8763e0	-0.004131779
24	0xbba2aac0	-0.0049642026
25	0xbb8763e0	-0.004131779
26	0xbc64eb80	-0.013972163
27	0x3bfa8f80	0.007646501
28	0xbd1fa64c	-0.038976952
29	0x3ca98060	0.020691097
30	0xbd1fa64c	-0.038976952
31	0x3db54a02	0.088520065
32	0x3dee6190	0.11639702
33	0x3ca98060	0.020691097
34	0x3dee6190	0.11639702
35	0xbdc4f2fa	-0.096166566
36	0x3d8700d6	0.06591956
37	0x3cc8c358	0.02450721
38	0xbc291840	-0.010320723
39	0x3cc8c358	0.02450721
40	0xbceafcbe	-0.02868497
41	0xbb8f86a0	-0.004380062
42	0xbc291840	-0.010320723
43	0xbb8f86a0	-0.004380062
44	0xbd18834f	-0.0372346
45	0xbb719280	-0.0036861002
46	0x3bcc6200	0.0062372684
47	0xbbf8bb20	-0.0075906664
48	0x3bcc6200	0.0062372684
49	0x3c0b6660	0.008508295
50	0x3bc319c0	0.0059539974
51	0xbbf8bb20	-0.0075906664
52	0x3bc319c0	0.0059539974
53	0xbb9e0380	-0.0048221946
54	0xb98994ac	-0.00026241445
55	0x3c33a2b0	0.010964081
56	0x3b7d5280	0.003865391
57	0x3c33a2b0	0.010964081
58	0x3b5dcf6a	0.0033845552
59	0xbb2d3800	-0.0026431084
60	0x3b7d5280	0.003865391
61	0xbb2d3800	-0.0026431084
62	0xbb4c9cd6	-0.0031221411
63	0x3aabf22b	0.0013118436
64	0x3ab2ae00	0.0013632178
65	0x3b839820	0.0040159374
66	0x3ab2ae00	0.0013632178
67	0x3b75cb55	0.0037505229
68	0x3c122340	0.008919537
69	0x3b839820	0.0040159374
70	0x3c122340	0.008919537
71	0xbba5e235	-0.0050623664
72	0xbb806a36	-0.0039189113
73	0x3adfb600	0.001706779
74	0xbbec7b00	-0.007216811
75	0x3adfb600	0.001706779
76	0x3bee96ca	0.007281159
77	0xbb565c00	-0.0032708645
78	0xbbec7b00	-0.007216811
79	0xbb565c00	-0.0032708645
80	0xbb5c592b	-0.0033622484
81	0xbb723740	-0.00369592
82	0x3c209ee0	0.009803504
83	0x3b6c2f80	0.0036039054
84	0x3c209ee0	0.009803504
85	0x3ba0a3a0	0.004902318
86	0xbb98e9e0	-0.004666552
87	0x3b6c2f80	0.0036039054
88	0xbb98e9e0	-0.004666552
89	0xba9e2000	-0.001206398
90	0x3b0c9694	0.0021452056
91	0xbb0cf980	-0.0021511018
92	0x3bf9f680	0.007628262
93	0xbb0cf980	-0.0021511018
94	0xbbc7b576	-0.00609463
95	0xbba0ade0	-0.00490354
96	0x3bf9f680	0.007628262
97	0xbba0ade0	-0.00490354
98	0x3b816a2a	0.0039494233
99	0xbd228f5c	-0.0396875
100	0xbdab4bc4	-0.083640605
101	0x3d57474c	0.05255823
102	0xbdab4bc4	-0.083640605
103	0x3e1d26b3	0.15346794
104	0x3d120d98	0.035657495
105	0x3d57474c	0.05255823
106	0x3d120d98	0.035657495
107	0xbde905ba	-0.113780454
108	0xbcf0f1a8	-0.029412106
109	0xbcae9d18	-0.021315143
110	0xbca33bc0	-0.019925952
111	0xbcae9d18	-0.021315143
112	0x3c9b7d98	0.018980786
113	0xbbd8e300	-0.0066188574
114	0xbca33bc0	-0.019925952
115	0xbbd8e300	-0.0066188574
116	0x3c2ae820	0.0104313195
117	0xbc99e3fc	-0.01878547
118	0xbd2af6a4	-0.04173912
119	0xbc720fe0	-0.014774293
120	0xbd2af6a4	-0.04173912
121	0x3d93c063	0.07214429
122	0x3a620000	0.0008621216
123	0xbc720fe0	-0.014774293
124	0x3a620000	0.0008621216
125	0xbd5a8ece	-0.053358845
126	0x3c829dea	0.01594444
127	0x3c5dace0	0.013529986
128	0xbce76d38	-0.028250322
129	0x3c5dace0	0.013529986
130	0xbc1b05bb	-0.0094618155
131	0xbc2437f0	-0.010023102
132	0xbce76d38	-0.028250322
133	0xbc2437f0	-0.010023102
134	0xbbd46c36	-0.0064826263
135	0xbd825b70	-0.063650966
136	0xbd8bd68e	-0.068280324
137	0x3cd47ff0	0.025939912
138	0xbd8bd68e	-0.068280324
139	0x3dc88974	0.09791842
140	0x3c9e8fe0	0.019355714
141	0x3cd47ff0	0.025939912
142	0x3c9e8fe0	0.019355714
143	0xbd0c5c08	-0.034267455
144	0x3baf5c75	0.005351598
145	0x3c112e40	0.0088611245
146	0xba2b7100	-0.00065399706
147	0x3c112e40	0.0088611245
148	0xbadc0dab	-0.0016788741
149	0x3bb627c0	0.005558938
150	0xba2b7100	-0.00065399706
151	0x3bb627c0	0.005558938
152	0xbb70b216	-0.0036727241
153	0x3c3120a5	0.010811006
154	0x3b3046c0	0.002689764
155	0x3b490880	0.0030675232
156	0x3b3046c0	0.002689764
157	0xbbda3c75	-0.006660039
158	0xbb8b1e40	-0.0042455494
159	0x3b490880	0.0030675232
160	0xbb8b1e40	-0.0042455494
161	0xbb8804d5	-0.0041509666
162	0x3a85312b	0.0010161748
163	0x3767c000	1.3813376e-05
164	0x3c0cb200	0.00858736
165	0x3767c000	1.3813376e-05
166	0x3aaebd2b	0.0013331523
167	0x3b703c00	0.0036656857
168	0x3c0cb200	0.00858736
169	0x3b703c00	0.0036656857
170	0xbb19f72a	-0.0023493269
171	0x3c06432a	0.008194724
172	0x3c07f670	0.008298501
173	0xbbb6c7e0	-0.005578026
174	0x3c07f670	0.008298501
175	0xbb28aed6	-0.0025738976
176	0x3ba19e40	0.004932195
177	0xbbb6c7e0	-0.005578026
178	0x3ba19e40	0.004932195
179	0xbbb82eeb	-0.0056208274
180	0x3c411f7a	0.01178729
181	0x3b9e62e0	0.004833564
182	0xbac75b00	-0.0015209615
183	0x3b9e62e0	0.004833564
184	0xbbafa5eb	-0.005360355
185	0xbbdc9960	-0.006732151
186	0xbac75b00	-0.0015209615
187	0xbbdc9960	-0.006732151
188	0xbbd2990b	-0.0064269355
189	0x3bf9eb55	0.0076269307
190	0x3ba71800	0.0050992966
191	0x3b82ff00	0.0039976835
192	0x3ba71800	0.0050992966
193	0xbb884e0b	-0.004159694
194	0x3acf6980	0.0015824288
195	0x3b82ff00	0.0039976835
196	0x3acf6980	0.0015824288
197	0xbb633a96	-0.003467237
198	0x3dba46de	0.09095548
199	0xbe0ce574	-0.13759404
200	0xb98cde00	-0.00026868284
201	0xbe0ce574	-0.13759404
202	0xbd3a9adc	-0.04555784
203	0x3d90fb2e	0.07079159
204	0xb98cde00	-0.00026868284
205	0x3d90fb2e	0.07079159
206	0xbd39f2e4	-0.045397654
207	0x3c33daf6	0.010977497
208	0xbc91d940	-0.017803788
209	0xbcbb1d40	-0.022841096
210	0xbc91d940	-0.017803788
211	0x3bbe4b4c	0.005807316
212	0xbcb37fc8	-0.021911517
213	0xbcbb1d40	-0.022841096
214	0xbcb37fc8	-0.021911517
215	0xbc89804d	-0.016784811
216	0x3d4ff8ee	0.050774507
217	0xbd4f299c	-0.05057679
218	0xbca70650	-0.020388752
219	0xbd4f299c	-0.05057679
220	0x3bd3a9d0	0.006459452
221	0x3c490dd0	0.01227136
222	0xbca70650	-0.020388752
223	0x3c490dd0	0.01227136
224	0xbd6a6e26	-0.057233952
225	0xb953f180	-0.00020212494
226	0x3ccfe5a8	0.025378063
227	0xbb9b7340	-0.0047439635
228	0x3ccfe5a8	0.025378063
229	0x3cc7f695	0.024409572
230	0xbb90d020	-0.0044193417
231	0xbb9b7340	-0.0047439635
232	0xbb90d020	-0.0044193417
233	0xbcc64eb3	-0.024207449
234	0x3d4d244c	0.050083444
235	0xbdd1f466	-0.102516934
236	0xbcb764c8	-0.022386923
237	0xbdd1f466	-0.102516934
238	0xbd0cb8ac	-0.034355804
239	0x3c2eb720	0.010663778
240	0xbcb764c8	-0.022386923
241	0x3c2eb720	0.010663778
242	0xbc80d738	-0.015727624
243	0xbb63fb16	-0.003478711
244	0x3be64bc0	0.007028073
245	0xb9b9e600	-0.00035457313
246	0x3be64bc0	0.007028073
247	0x3af26255	0.001849244
248	0x3c0c5e00	0.008567333
249	0xb9b9e600	-0.00035457313
250	0x3c0c5e00	0.008567333
251	0x3ad593d5	0.0016294668
252	0x3a823f80	0.0009937137
253	0x3bc14d80	0.0058991313
254	0x3c1f6c10	0.009730354
255	0x3bc14d80	0.0058991313

hfvrA f4 [184, 1]
0	0x3f198bb8	0.5997882
1	0x3f8c49a9	1.0959979
2	0x3f8df4f0	1.1090374
3	0x3f94759f	1.1598395
4	0x3f93f332	1.1558592
5	0x3ebd438e	0.36965603
6	0x3ea9af00	0.33141327
7	0x3ea89280	0.3292427
8	0x3e93b510	0.28849077
9	0x3eaafd0c	0.33396184
10	0x3e33fc2c	0.17576665
11	0x3f1ab2a2	0.6042882
12	0x3f8b24cd	1.0870606
13	0x3f899046	1.0747154
14	0x3f94edfd	1.1635128
15	0x3f96e6fb	1.178924
16	0x3eab768c	0.33488882
17	0x3eab68a2	0.33478266
18	0x3eaf7540	0.34269142
19	0x3ea14ace	0.31502384
20	0x3ea2416e	0.31690544
21	0x3e424db0	0.18974948
22	0x3f1b19b9	0.60586125
23	0x3f8b286a	1.0871708
24	0x3f89881c	1.0744662
25	0x3f94fdec	1.1639991
26	0x3f96d806	1.1784675
27	0x3eab831c	0.33498466
28	0x3eab7fb0	0.33495855
29	0x3eaf8280	0.3427925
30	0x3ea19fb8	0.31567168
31	0x3ea20a14	0.31648314
32	0x3e43006c	0.1904313
33	0x3f1c24b6	0.60993516
34	0x3f89fef8	1.0780935
35	0x3f899ea8	1.0751543
36	0x3f986d6a	1.190839
37	0x3f9591b4	1.168509
38	0x3eac6d92	0.33677346
39	0x3ead6de6	0.33872908
40	0x3eafd2be	0.3434047
41	0x3e9c64ec	0.30545747
42	0x3ea68cc2	0.32529265
43	0x3e44c2c8	0.19214928
44	0x3f198ba2	0.5997869
45	0x3f8c7dd1	1.0975896
46	0x3f8e3922	1.1111186
47	0x3f94f47b	1.163711
48	0x3f944ec0	1.1586533
49	0x3eb7be48	0.3588736
50	0x3ea7d046	0.32776088
51	0x3eaa6da0	0.33286762
52	0x3e957b34	0.2919556
53	0x3eb0ef32	0.34557492
54	0x3e3482f4	0.1762808
55	0x3f1aeec2	0.60520566
56	0x3f8b75a7	1.089528
57	0x3f896dc6	1.0736625
58	0x3f9855de	1.1901205
59	0x3f94ac7e	1.161514
60	0x3eaa6ecc	0.33287656
61	0x3eacce20	0.3375101
62	0x3eaf1618	0.34196544
63	0x3e9dc138	0.30811477
64	0x3ea07dfc	0.31346118
65	0x3e41df14	0.18932754
66	0x3f1b50a2	0.6066991
67	0x3f8b6890	1.0891285
68	0x3f894776	1.0724933
69	0x3f979a26	1.1843917
70	0x3f953f37	1.1659917
71	0x3eaa5ca8	0.33273816
72	0x3ead1f4c	0.3381294
73	0x3eae8d94	0.3409239
74	0x3e9fc52a	0.31205112
75	0x3e9e14f4	0.3087536
76	0x3e3ed4c0	0.18635845
77	0x3f1b7329	0.60722595
78	0x3f8a73f1	1.0816633
79	0x3f89951b	1.0748628
80	0x3f9823d8	1.1885939
81	0x3f9510fd	1.164581
82	0x3eaafb1e	0.33394712
83	0x3eadd600	0.33952332
84	0x3eaf5b00	0.34249115
85	0x3ea3e3d2	0.3200975
86	0x3e9ad9b6	0.30244225
87	0x3e430960	0.19046545
88	0x3f06af02	0.5261079
89	0x3f81c024	1.0136762
90	0x3fb2fa43	1.3982624
91	0x3fa132c8	1.2593622
92	0x3fbaadd0	1.4584293
93	0x3f034366	0.51274717
94	0x3ee20950	0.4414773
95	0x3ea70828	0.3262341
96	0x3e1da174	0.1539362
97	0x3e474dac	0.19463223
98	0x3e155508	0.14583218
99	0x3e0f55f0	0.13997626
100	0x3f0935a3	0.5359747
101	0x3f7f59ab	0.997462
102	0x3fb847aa	1.439687
103	0x3fa56eec	1.2924476
104	0x3fb84428	1.43958
105	0x3ecf4e6e	0.40489525
106	0x3ec8c158	0.3921001
107	0x3eade7e2	0.33965975
108	0x3e1e1234	0.15436631
109	0x3e1c402c	0.15258855
110	0x3e2820bc	0.16418737
111	0x3e1ab87c	0.15109438
112	0x3f075010	0.5285654
113	0x3f71941d	0.9436663
114	0x3fb4af46	1.4115989
115	0x3fa2ee50	1.2728977
116	0x3fbd4dd2	1.4789374
117	0x3ea14c4e	0.31503528
118	0x3eba6c58	0.36410785
119	0x3ea8ff58	0.33007312
120	0x3e721d18	0.23643911
121	0x3e3eb5e8	0.18624079
122	0x3e4ddda0	0.20104074
123	0x3e6fa414	0.23402435
124	0x3f0cba85	0.54972106
125	0x3f75372a	0.957873
126	0x3fbac242	1.4590533
127	0x3f99c8a2	1.2014353
128	0x3fc34b26	1.5257308
129	0x3eb259d4	0.34834158
130	0x3ebe02ba	0.37111455
131	0x3e9d8446	0.3076498
132	0x3e2f008c	0.17090052
133	0x3e21a3d4	0.15785152
134	0x3e18834c	0.14893836
135	0x3e392014	0.18078643
136	0x3f1021e8	0.56301737
137	0x3f859b22	1.0437968
138	0x3fb26934	1.3938355
139	0x3f9fcccf	1.2484378
140	0x3fbb5987	1.4636697
141	0x3ebcf2a2	0.36903864
142	0x3ebf07f4	0.37310755
143	0x3e93773a	0.288019
144	0x3e2e0cf0	0.16997123
145	0x3dff33e0	0.12461066
146	0x3e4ddd40	0.20103931
147	0x3dbb1db0	0.09136522
148	0x3f0c4381	0.547905
149	0x3f818805	1.0119635
150	0x3fc0c724	1.5060773
151	0x3f964ec4	1.1742787
152	0x3fc20d6b	1.5160345
153	0x3eccfe0c	0.40037572
154	0x3ea37604	0.31925976
155	0x3eb45536	0.3522126
156	0x3e301494	0.1719535
157	0x3e1217b8	0.1426686
158	0x3e4b8a1c	0.19876903
159	0x3e33b7ec	0.1755063
160	0x3f16aeee	0.5886067
161	0x3f72f03f	0.94897836
162	0x3fb3ca30	1.4046078
163	0x3f9ce194	1.2256341
164	0x3fb9aa06	1.4505012
165	0x3ec2c470	0.38040495
166	0x3ea09fc4	0.31371891
167	0x3e9efdea	0.31053096
168	0x3e062b70	0.13102508
169	0x3e8098ba	0.2511652
170	0x3e23eb90	0.16007829
171	0x3e26a64c	0.16274375
172	0x3f0f05d8	0.5586829
173	0x3f7d73da	0.990049
174	0x3fbcb034	1.4741273
175	0x3f99a4ff	1.2003478
176	0x3fb73944	1.4314351
177	0x3ebc7284	0.36806118
178	0x3eaf94d2	0.34293228
179	0x3ea3cf9a	0.31994325
180	0x3e348bb0	0.17631412
181	0x3e2f0234	0.17090684
182	0x3e20e57c	0.15712541
183	0x3e251fd8	0.16125429

vwA f4 [184, 1]
0	0x3eef860f	0.46781966
1	0x3f04bd5c	0.5185144
2	0x3f0537fc	0.5203855
3	0x3ecc2bd2	0.39877182
4	0x3ecc9ea3	0.3996478
5	0x3ec754c4	0.3893186
6	0x3ec2daa5	0.38057438
7	0x3ec38c28	0.38192868
8	0x3ebe722b	0.37196478
9	0x3ec43111	0.38318685
10	0x3eb578b2	0.35443646
11	0x3ef0658c	0.46952474
12	0x3f04ecf0	0.5192404
13	0x3f0417f0	0.51599026
14	0x3ecc3c43	0.39889726
15	0x3ecd835b	0.4013928
16	0x3ec45edd	0.38353625
17	0x3ec45924	0.3834926
18	0x3ec51a51	0.3849664
19	0x3ec21194	0.37904036
20	0x3ec28dfc	0.3799895
21	0x3eb925bd	0.36161605
22	0x3ef0801c	0.4697274
23	0x3f04edbb	0.5192525
24	0x3f041951	0.5160113
25	0x3ecc5521	0.39908698
26	0x3ecd8fa0	0.4014864
27	0x3ec46267	0.38356325
28	0x3ec45e7e	0.38353342
29	0x3ec51e42	0.38499647
30	0x3ec240dd	0.37940112
31	0x3ec27cd1	0.37985852
32	0x3eb96417	0.36209175
33	0x3ef078fc	0.46967304
34	0x3f04c929	0.51869446
35	0x3f041432	0.51593316
36	0x3ecdfcc9	0.40231922
37	0x3ecc8c94	0.39951003
38	0x3ec439d7	0.38325378
39	0x3ec4afee	0.38415474
40	0x3ec50c86	0.38486117
41	0x3ebfe46f	0.37478969
42	0x3ec2ff32	0.38085324
43	0x3eba4c14	0.36386168
44	0x3eef727e	0.46767038
45	0x3f04d799	0.51891476
46	0x3f05192f	0.5199155
47	0x3ecc57e0	0.39910793
48	0x3ecca16b	0.39966902
49	0x3ec6434a	0.38723212
50	0x3ec336e8	0.38127828
51	0x3ec405f1	0.38285783
52	0x3ebe8e9d	0.3721818
53	0x3ec4da5b	0.38447842
54	0x3eb55922	0.35419565
55	0x3ef00abe	0.46883196
56	0x3f050c64	0.5197203
57	0x3f03e68c	0.5152366
58	0x3ecdc60b	0.40190157
59	0x3ecca835	0.39972082
60	0x3ec43f86	0.38329715
61	0x3ec41a32	0.38301235
62	0x3ec4da4b	0.38447794
63	0x3ec11f9b	0.37719426
64	0x3ec10f15	0.3770682
65	0x3eb8dc30	0.3610549
66	0x3ef00d31	0.46885064
67	0x3f05040f	0.5195932
68	0x3f03e2a8	0.51517725
69	0x3ecd8a20	0.40144444
70	0x3eccb852	0.39984375
71	0x3ec43a4a	0.3832572
72	0x3ec4597c	0.3834952
73	0x3ec47aca	0.3837493
74	0x3ec1a922	0.3782435
75	0x3ec07021	0.37585548
76	0x3eb83a96	0.35982198
77	0x3ef02826	0.4690563
78	0x3f04d10c	0.5188148
79	0x3f040152	0.51564515
80	0x3ecdc7df	0.40191552
81	0x3ecc97ad	0.3995947
82	0x3ec43108	0.38318658
83	0x3ec481e4	0.3838035
84	0x3ec4cdcb	0.38438258
85	0x3ec2d771	0.38054994
86	0x3ebfb7f5	0.37445036
87	0x3eb9b9ba	0.3627451
88	0x3ee9414c	0.4555763
89	0x3f041a4d	0.5160263
90	0x3eef7028	0.46765256
91	0x3eebb008	0.4603274
92	0x3ef185d7	0.47172424
93	0x3ed585fd	0.41703787
94	0x3ed26884	0.41095364
95	0x3ec21df5	0.3791348
96	0x3ead44d9	0.3384159
97	0x3eb87f08	0.36034417
98	0x3ea9f05a	0.33191186
99	0x3ea8b4af	0.3295035
100	0x3ee9dce9	0.45676354
101	0x3f02eca4	0.51142335
102	0x3ef0b99d	0.47016612
103	0x3eed355a	0.46329767
104	0x3ef0a1bb	0.4699839
105	0x3ecb2fdf	0.3968496
106	0x3ecac313	0.39601955
107	0x3ec42e18	0.38316417
108	0x3ead481b	0.33844075
109	0x3ead00ed	0.3378977
110	0x3eae805e	0.3408231
111	0x3eaba768	0.33526158
112	0x3ee8c99c	0.45466316
113	0x3f010964	0.50404954
114	0x3ef071dc	0.46961868
115	0x3eeb0416	0.45901555
116	0x3ef38b4a	0.47567207
117	0x3ebef735	0.3729798
118	0x3ec6d38b	0.3883327
119	0x3ec29dd9	0.38011053
120	0x3ebc9dc5	0.3683912
121	0x3eb3dc0d	0.35128823
122	0x3eb4f12f	0.35340258
123	0x3ebb7b1c	0.36617362
124	0x3ee9cdab	0.45664725
125	0x3f0188e9	0.50599533
126	0x3ef1cac2	0.47225004
127	0x3ee5d52a	0.44889194
128	0x3ef42ae2	0.47688967
129	0x3ec4a28b	0.3840526
130	0x3ec68382	0.38772207
131	0x3ebf55e9	0.37370232
132	0x3eb08da6	0.3448307
133	0x3eae9ba8	0.3410313
134	0x3ea55231	0.3228927
135	0x3eafce47	0.34337065
136	0x3eead51e	0.4586572
137	0x3f0506b8	0.51963377
138	0x3eef495d	0.4673566
139	0x3ee91deb	0.45530638
140	0x3ef1180e	0.47088665
141	0x3ec7627e	0.3894233
142	0x3ec853c5	0.3912641
143	0x3ebe8348	0.37209535
144	0x3eaeb7f5	0.34124723
145	0x3ea3f5ae	0.32023376
146	0x3eb36712	0.35039574
147	0x3e97f707	0.29680654
148	0x3eeb419a	0.45948488
149	0x3f0356e8	0.51304483
150	0x3ef2e2f8	0.47438788
151	0x3ee628fa	0.44953138
152	0x3ef3caa4	0.4761554
153	0x3ec987d7	0.3936145
154	0x3ec16685	0.3777353
155	0x3ec64dbf	0.3873119
156	0x3eb151cb	0.34632716
157	0x3ea8e933	0.32990417
158	0x3eb3083e	0.34967226
159	0x3eafd9a2	0.34345728
160	0x3eef9818	0.46795726
161	0x3f01b06b	0.5065982
162	0x3ef000f0	0.46875715
163	0x3eea6917	0.45783302
164	0x3ef17fc5	0.47167793
165	0x3ec5fdbd	0.3867015
166	0x3ebfaf00	0.37438202
167	0x3ec06ba0	0.3758211
168	0x3ea23238	0.3167894
169	0x3ebf9719	0.37419966
170	0x3ead61c0	0.3386364
171	0x3eadd199	0.33948973
172	0x3eeb0ab1	0.45906594
173	0x3f033d9a	0.5126587
174	0x3ef38b4a	0.47567207
175	0x3ee7e814	0.4529425
176	0x3ef0329d	0.46913615
177	0x3ec51020	0.38488865
178	0x3ec4f9f8	0.3847196
179	0x3ec2fa4a	0.3808158
180	0x3eb0e214	0.34547484
181	0x3eae7ce0	0.34079647
182	0x3eabe5c8	0.33573747
183	0x3ead3020	0.3382578

alpha_0_A f4 [2944]
0	0x413b30aa	11.699381
1	0x413b30aa	11.699381
2	0x413b30aa	11.699381
3	0x40a66913	5.2003264
4	0x40a66913	5.2003264
5	0x408ff91e	4.49916
6	0x408ff91e	4.49916
7	0x408ff91e	4.49916
8	0x408ff91e	4.49916
9	0x408ff91e	4.49916
10	0x408ff91e	4.49916
11	0x413b30aa	11.699381
12	0x413b30aa	11.699381
13	0x413b30aa	11.699381
14	0x40a66913	5.2003264
15	0x40a66913	5.2003264
16	0x408ff91e	4.49916
17	0x408ff91e	4.49916
18	0x408ff91e	4.49916
19	0x408ff91e	4.49916
20	0x408ff91e	4.49916
21	0x408ff91e	4.49916
22	0x413b30aa	11.699381
23	0x413b30aa	11.699381
24	0x413b30aa	11.699381
25	0x40a66913	5.2003264
26	0x40a66913	5.2003264
27	0x408ff91e	4.49916
28	0x408ff91e	4.49916
29	0x408ff91e	4.49916
30	0x408ff91e	4.49916
31	0x408ff91e	4.49916
32	0x408ff91e	4.49916
33	0x413b30aa	11.699381
34	0x413b30aa	11.699381
35	0x413b30aa	11.699381
36	0x40a66913	5.2003264
37	0x40a66913	5.2003264
38	0x408ff91e	4.49916
39	0x408ff91e	4.49916
40	0x408ff91e	4.49916
41	0x408ff91e	4.49916
42	0x408ff91e	4.49916
43	0x408ff91e	4.49916
44	0x413b30aa	11.699381
45	0x413b30aa	11.699381
46	0x413b30aa	11.699381
47	0x40a66913	5.2003264
48	0x40a66913	5.2003264
49	0x408ff91e	4.49916
50	0x408ff91e	4.49916
51	0x408ff91e	4.49916
52	0x408ff91e	4.49916
53	0x408ff91e	4.49916
54	0x408ff91e	4.49916
55	0x413b30aa	11.699381
56	0x413b30aa	11.699381
57	0x413b30aa	11.699381
58	0x40a66913	5.2003264
59	0x40a66913	5.2003264
60	0x408ff91e	4.49916
61	0x408ff91e	4.49916
62	0x408ff91e	4.49916
63	0x408ff91e	4.49916
64	0x408ff91e	4.49916
65	0x408ff91e	4.49916
66	0x413b30aa	11.699381
67	0x413b30aa	11.699381
68	0x413b30aa	11.699381
69	0x40a66913	5.2003264
70	0x40a66913	5.2003264
71	0x408ff91e	4.49916
72	0x408ff91e	4.49916
73	0x408ff91e	4.49916
74	0x408ff91e	4.49916
75	0x408ff91e	4.49916
76	0x408ff91e	4.49916
77	0x413b30aa	11.699381
78	0x413b30aa	11.699381
79	0x413b30aa	11.699381
80	0x40a66913	5.2003264
81	0x40a66913	5.2003264
82	0x408ff91e	4.49916
83	0x408ff91e	4.49916
84	0x408ff91e	4.49916
85	0x408ff91e	4.49916
86	0x408ff91e	4.49916
87	0x408ff91e	4.49916
88	0x413b30aa	11.699381
89	0x413b30aa	11.699381
90	0x40e8044c	7.2505245
91	0x40e8044c	7.2505245
92	0x40e8044c	7.2505245
93	0x408ff91e	4.49916
94	0x408ff91e	4.49916
95	0x408ff91e	4.49916
96	0x408ff91e	4.49916
97	0x408ff91e	4.49916
98	0x408ff91e	4.49916
99	0x408ff91e	4.49916
100	0x413b30aa	11.699381
101	0x413b30aa	11.699381
102	0x40e8044c	7.2505245
103	0x40e8044c	7.2505245
104	0x40e8044c	7.2505245
105	0x408ff91e	4.49916
106	0x408ff91e	4.49916
107	0x408ff91e	4.49916
108	0x408ff91e	4.49916
109	0x408ff91e	4.49916
110	0x408ff91e	4.49916
111	0x408ff91e	4.49916
112	0x413b30aa	11.699381
113	0x413b30aa	11.699381
114	0x40e8044c	7.2505245
115	0x40e8044c	7.2505245
116	0x40e8044c	7.2505245
117	0x408ff91e	4.49916
118	0x408ff91e	4.49916
119	0x408ff91e	4.49916
120	0x408ff91e	4.49916
121	0x408ff91e	4.49916
122	0x408ff91e	4.49916
123	0x408ff91e	4.49916
124	0x413b30aa	11.699381
125	0x413b30aa	11.699381
126	0x40e8044c	7.2505245
127	0x40e8044c	7.2505245
128	0x40e8044c	7.2505245
129	0x408ff91e	4.49916
130	0x408ff91e	4.49916
131	0x408ff91e	4.49916
132	0x408ff91e	4.49916
133	0x408ff91e	4.49916
134	0x408ff91e	4.49916
135	0x408ff91e	4.49916
136	0x413b30aa	11.699381
137	0x413b30aa	11.699381
138	0x40e8044c	7.2505245
139	0x40e8044c	7.2505245
140	0x40e8044c	7.2505245
141	0x408ff91e	4.49916
142	0x408ff91e	4.49916
143	0x408ff91e	4.49916
144	0x408ff91e	4.49916
145	0x408ff91e	4.49916
146	0x408ff91e	4.49916
147	0x408ff91e	4.49916
148	0x413b30aa	11.699381
149	0x413b30aa	11.699381
150	0x40e8044c	7.2505245
151	0x40e8044c	7.2505245
152	0x40e8044c	7.2505245
153	0x408ff91e	4.49916
154	0x408ff91e	4.49916
155	0x408ff91e	4.49916
156	0x408ff91e	4.49916
157	0x408ff91e	4.49916
158	0x408ff91e	4.49916
159	0x408ff91e	4.49916
160	0x413b30aa	11.699381
161	0x413b30aa	11.699381
162	0x40e8044c	7.2505245
163	0x40e8044c	7.2505245
164	0x40e8044c	7.2505245
165	0x408ff91e	4.49916
166	0x408ff91e	4.49916
167	0x408ff91e	4.49916
168	0x408ff91e	4.49916
169	0x408ff91e	4.49916
170	0x408ff91e	4.49916
171	0x408ff91e	4.49916
172	0x413b30aa	11.699381
173	0x413b30aa	11.699381
174	0x40e8044c	7.2505245
175	0x40e8044c	7.2505245
176	0x40e8044c	7.2505245
177	0x408ff91e	4.49916
178	0x408ff91e	4.49916
179	0x408ff91e	4.49916
180	0x408ff91e	4.49916
181	0x408ff91e	4.49916
182	0x408ff91e	4.49916
183	0x408ff91e	4.49916
184	0x413b30aa	11.699381
185	0x413b30aa	11.699381
186	0x413b30aa	11.699381
187	0x40a66913	5.2003264
188	0x40a66913	5.2003264
189	0x408ff91e	4.49916
190	0x408ff91e	4.49916
191	0x408ff91e	4.49916
192	0x408ff91e	4.49916
193	0x408ff91e	4.49916
194	0x408ff91e	4.49916
195	0x413b30aa	11.699381
196	0x413b30aa	11.699381
197	0x413b30aa	11.699381
198	0x40a66913	5.2003264
199	0x40a66913	5.2003264
200	0x408ff91e	4.49916
201	0x408ff91e	4.49916
202	0x408ff91e	4.49916
203	0x408ff91e	4.49916
204	0x408ff91e	4.49916
205	0x408ff91e	4.49916
206	0x413b30aa	11.699381
207	0x413b30aa	11.699381
208	0x413b30aa	11.699381
209	0x40a66913	5.2003264
210	0x40a66913	5.2003264
211	0x408ff91e	4.49916
212	0x408ff91e	4.49916
213	0x408ff91e	4.49916
214	0x408ff91e	4.49916
215	0x408ff91e	4.49916
216	0x408ff91e	4.49916
217	0x413b30aa	11.699381
218	0x413b30aa	11.699381
219	0x413b30aa	11.699381
220	0x40a66913	5.2003264
221	0x40a66913	5.2003264
222	0x408ff91e	4.49916
223	0x408ff91e	4.49916
224	0x408ff91e	4.49916
225	0x408ff91e	4.49916
226	0x408ff91e	4.49916
227	0x408ff91e	4.49916
228	0x413b30aa	11.699381
229	0x413b30aa	11.699381
230	0x413b30aa	11.699381
231	0x40a66913	5.2003264
232	0x40a66913	5.2003264
233	0x408ff91e	4.49916
234	0x408ff91e	4.49916
235	0x408ff91e	4.49916
236	0x408ff91e	4.49916
237	0x408ff91e	4.49916
238	0x408ff91e	4.49916
239	0x413b30aa	11.699381
240	0x413b30aa	11.699381
241	0x413b30aa	11.699381
242	0x40a66913	5.2003264
243	0x40a66913	5.2003264
244	0x408ff91e	4.49916
245	0x408ff91e	4.49916
246	0x408ff91e	4.49916
247	0x408ff91e	4.49916
248	0x408ff91e	4.49916
249	0x408ff91e	4.49916
250	0x413b30aa	11.699381
251	0x413b30aa	11.699381
252	0x413b30aa	11.699381
253	0x40a66913	5.2003264
254	0x40a66913	5.2003264
255	0x408ff91e	4.49916
