tests/test_data_path/og_processed/dimer_ap3_train_spec_7_516.pt (torch, 252562 bytes, 17 tensors)

y f4 [16, 4]
0.023985766 0.07612939 -1.1059178 -0.88000405 0.29757616 0.037690204 -0.27370197 -0.51926106
-9.095211 20.026072 -8.632106 -5.5166063 0.69399464 0.13826254 -1.1024941 -0.6898577
-6.072204 21.131813 -2.7842288 -5.9779353 -2.3538249 4.993202 -1.4533659 -3.9167948
-0.027777484 0.00033254147 -0.10161539 -0.05835824 -11.220832 34.34527 -5.032455 -10.257565
-0.59518695 1.5979868 -1.0215527 -2.3778975 -0.0009934583 0.010352659 -0.27147266 -0.28434414
-4.0975533 8.292049 -4.4615965 -7.290841 -1.0111881 2.1515214 -0.6517472 -2.6707103
-1.0908363 4.3574553 -2.9224906 -3.7846713 -6.2203956 8.877794 -5.8012557 -5.6921144
-0.33647317 1.4052484 -0.5491222 -1.9411684 -3.590946 8.367193 -4.0918 -7.5302753
00000000: cc7d c43c bae9 9b3d b78e 8dbf f247 61bf
00000010: e75b 983e 0b61 1a3d aa22 8cbe 4bee 04bf
00000020: fc85 11c1 6535 a041 1b1d 0ac1 0a88 b0c0
00000030: a2a9 313f b294 0d3e 871e 8dbf 849a 30bf
00000040: 7f4f c2c0 f40d a941 ce30 32c0 3f4b bfc0
00000050: 11a5 16c0 50c8 9f40 e507 babf c4ac 7ac0
00000060: 9b8d e3bc f658 ae39 bb1b d0bd 0d09 6fbd
00000070: 8788 33c1 8e61 0942 df09 a1c0 fc1e 24c1
00000080: 2c5e 18bf d58a cc3f 3dc2 82bf 792f 18c0
00000090: ee36 82ba 339e 293c 77fe 8abe 8e95 91be
000000a0: 281f 83c0 3cac 0441 66c5 8ec0 924e e9c0
000000b0: 9d6e 81bf 87b2 0940 e8d8 26bf ebec 2ac0
000000c0: 86a0 8bbf 4670 8b40 160a 3bc0 0e38 72c0
000000d0: 7b0d c7c0 720b 0e41 e3a3 b9c0 cd25 b6c0
000000e0: 3646 acbe 2edf b33f 4693 0cbf 3578 f8bf
000000f0: 0fd2 65c0 06e0 0541 07f0 82c0 04f8 f0c0

RA f4 [224, 3]
0.293399 -1.396489 -0.332183 0.26126 0.019606 0.252261 0.522283 1.068166
-0.804351 -1.094181 0.291436 0.867546 -0.453185 -1.463333 -1.132009 1.061086
0.065728 1.043334 0.566517 2.084262 -0.388791 1.561309 0.920562 -1.265747
-0.210987 1.044125 -1.627985 -1.108874 1.31102 1.4056 -1.911868 0.274611
0.194808 -1.262285 -0.49617 1.737015 0.122397 -2.101814 0.433823 1.325856
-1.679883 -0.799187 0.358538 -1.354553 -0.284064 0.249427 -0.010326 0.295005
0.605312 1.15988 -0.828138 -1.017791 0.291427 0.992009 -0.49149 -1.520899
-1.100418 1.062236 0.077709 1.024651 0.529308 2.082055 -0.393137 1.55427
0.877999 -1.330341 -0.18551 1.120994 -1.603253 -1.099364 1.319729 1.405187
-1.925556 0.239025 0.219634 -1.288793 -0.415112 1.726664 0.124038 -2.153023
0.388799 1.261128 -1.612662 -0.802659 0.284017 -1.387572 -0.37812 0.239042
-0.001559 0.229595 0.555255 1.120804 -0.787845 -1.07713 0.229352 0.961224
-0.47464 -1.539838 -1.082033 1.030148 0.041876 1.001846 0.583332 2.087402
-0.444185 1.529275 0.890662 -1.308728 -0.210871 1.079283 -1.62105 -1.098245
1.311314 1.396228 -1.919982 0.252089 0.213165 -1.296702 -0.439007 1.755473
0.081872 -2.167417 0.434561 1.269064 -1.632739 -0.820303 0.277469 -1.452491
-0.370405 0.26441 -0.01408 0.210713 0.607351 1.107648 -0.770147 -1.048471
0.320804 0.906155 -0.480872 -1.535283 -1.109653 1.084659 0.097773 1.028643
0.567559 2.092338 -0.400919 1.534479 0.945533 -1.322801 -0.230212 1.014377
-1.62696 -1.071372 1.356755 1.431868 -1.869169 0.21316 0.276604 -1.299417
-0.441539 1.746105 0.10894 -2.154697 0.438879 1.222038 -1.695224 -0.781711
0.29519 -1.372547 -0.311958 0.280394 -0.005637 0.235405 0.566446 1.130919
-0.814465 -1.141363 0.325873 0.984007 -0.44862 -1.582032 -1.091375 1.013354
0.015053 0.998686 0.578078 2.097713 -0.396664 1.536367 0.944258 -1.370881
-0.222953 1.073843 -1.6436 -1.111775 1.251922 1.371376 -1.895188 0.245995
0.245646 -1.287582 -0.48985 1.692236 0.059253 -2.122969 0.407197 1.263691
-1.626664 -0.80483 0.283903 -1.371966 -0.32611 0.317788 0.007278 0.191658
0.541827 1.060195 -0.814616 -1.074028 0.303615 0.947969 -0.461121 -1.56442
-1.156928 1.079942 0.057326 0.983132 0.555587 2.122923 -0.406162 1.540665
0.89743 -1.283036 -0.202754 1.046184 -1.620584 -1.108567 1.304926 1.391014
-1.889048 0.26183 0.170946 -1.261528 -0.420396 1.778408 0.12674 -2.170208
0.403287 1.255535 -1.613197 -0.814361 0.356107 -1.373031 -0.33386 0.209187
00000000: 6538 963e 27c0 b2bf e413 aabe dfc3 853e
00000010: c39c a03c 5b28 813e 57b4 053f aab9 883f
00000020: f2e9 4dbf 1f0e 8cbf 1937 953e 7f17 5e3f
00000030: dd07 e8be 7f4e bbbf ace5 90bf abd1 873f
00000040: 679c 863d f88b 853f 4207 113f 8c64 0540
00000050: 9d0f c7be f9d8 c73f f4a9 6b3f ff03 a2bf
00000060: fa0c 58be e3a5 853f d061 d0bf 95ef 8dbf
00000070: 81cf a73f b3ea b33f 17b8 f4bf d099 8c3e
00000080: c07b 473e 8e92 a1bf ff09 febe 8256 de3f
00000090: 47ab fa3d 1f84 06c0 0c1e de3e a6b5 a93f
000000a0: 6806 d7bf 8597 4cbf 4b92 b73e fe61 adbf
000000b0: d670 91be cb69 7f3e 622e 29bc e50a 973e
000000c0: baf5 1a3f f376 943f da00 54bf fa46 82bf
000000d0: eb35 953e 4df4 7d3f 94a4 fbbe d2ac c2bf
000000e0: 7fda 8cbf 59f7 873f e525 9f3d c427 833f
000000f0: bb80 073f 6440 0540 4149 c9be 52f2 c63f
00000100: 8bc4 603f 9d48 aabf 55f6 3dbe bb7c 8f3f
00000110: 6537 cdbf f6b7 8cbf e1ec a83f 2bdd b33f
00000120: 9e78 f6bf f8c2 743e bce7 603e 2bf7 a4bf
00000130: 8f89 d4be 5303 dd3f a307 fe3d 21cb 09c0
00000140: aa10 c73e a46c a13f b56b cebf 0f7b 4dbf
00000150: ad6a 913e f69b b1bf f298 c1be 6dc7 743e
00000160: 5c57 ccba f41a 6b3e 3125 0e3f 8176 8f3f
00000170: 36b0 49bf 65df 89bf 40db 6a3e c712 763f
00000180: 0404 f3be 6919 c5bf 0f80 8abf e4db 833f
00000190: 2b86 2b3d 7d3c 803f 3f55 153f ff97 0540
000001a0: 376c e3be 48bf c33f 6d02 643f 6684 a7bf
000001b0: 91ee 57be f225 8a3f 917e cfbf 4b93 8cbf
000001c0: 23d9 a73f 99b7 b23f f8c1 f5bf cf11 813e
000001d0: ed47 5a3e 55fa a5bf 87c5 e0be 57b3 e03f
000001e0: 82ac a73d f6b6 0ac0 c87e de3e b070 a23f
000001f0: 97fd d0bf 61ff 51bf 6b10 8e3e 3aeb b9bf
00000200: b9a5 bdbe bf60 873e cdaf 66bc 26c5 573e
00000210: 5b7b 1b3f 69c7 8d3f 5b28 45bf 4c34 86bf
00000220: 6c40 a43e c6f9 673f db34 f6be 2784 c4bf
00000230: 1c09 8ebf 1bd6 8a3f 363d c83d 93aa 833f
00000240: 8c4b 113f dee8 0540 4145 cdbe cf69 c43f
00000250: 730e 723f 8b51 a9bf b2bc 6bbe 1bd7 813f
00000260: 3a40 d0bf b822 89bf 26aa ad3f 7347 b73f
00000270: ee40 efbf 9d46 5a3e 0a9f 8d3e 4c53 a6bf
00000280: 6611 e2be 5e80 df3f ef1b df3d 8ee6 09c0
00000290: c0b4 e03e be6b 9c3f 1afd d8bf 361e 48bf
000002a0: 2523 973e 9faf afbf f5b8 9fbe cd8f 8f3e
000002b0: 95b6 b8bb 020e 713e 9b02 113f f4c1 903f
000002c0: c780 50bf 2f18 92bf d3d8 a63e e2e7 7b3f
000002d0: 85b1 e5be 0680 cabf 2db2 8bbf 95b5 813f
000002e0: dca0 763c e3a9 7f3f ebfc 133f ee40 0640
000002f0: 8b17 cbbe ada7 c43f e4ba 713f 0779 afbf
00000300: cb4d 64be b073 893f 7c61 d2bf a54e 8ebf
00000310: fb3e a03f 4089 af3f 8595 f2bf 1de6 7b3e
00000320: a08a 7b3e 7dcf a4bf 9fcd fabe 309b d83f
00000330: 46b3 723d b9de 07c0 207c d03e a0c0 a13f
00000340: 8736 d0bf 5709 4ebf bc5b 913e 959c afbf
00000350: e4f7 a6be 1cb5 a23e 4a7c ee3b ff41 443e
00000360: 2db5 0a3f 78b4 873f ad8a 50bf c079 89bf
00000370: 6d73 9b3e 19ae 723f 0d18 ecbe ea3e c8bf
00000380: 3716 94bf 8a3b 8a3f abce 6a3d 8aae 7b3f
00000390: f33a 0e3f f8dd 0740 77f4 cfbe 8334 c53f
000003a0: f9bd 653f 863a a4bf bf9e 4fbe 5be9 853f
000003b0: 4c6f cfbf 86e5 8dbf d107 a73f bf0c b23f
000003c0: 53cc f1bf 950e 863e 780c 2f3e c079 a1bf
000003d0: 253e d7be e0a2 e33f 21c8 013e b0e4 0ac0
000003e0: a27b ce3e 5fb5 a03f 3d7d cebf f679 50bf
000003f0: a853 b63e 7bbf afbf b3ef aabe 1e35 563e

RB f4 [176, 3]
-5.194329 -2.913257 3.298189 -5.312293 -2.968411 1.882708 -4.09766 -3.400028
3.955312 -4.172533 -3.61913 1.242006 -2.976114 -4.009992 3.226376 -3.10881
-4.111306 1.824368 -1.975155 -4.401179 3.889257 -6.017126 -2.41974 3.826838
-6.034974 -2.651982 1.320109 -4.01212 -3.327969 5.059451 -4.206295 -3.694856
0.154516 -2.999769 -0.104073 -4.638765 -4.100073 0.60917 -4.13797 -2.936701
-0.521409 -5.925969 -5.188431 0.621532 -5.015852 -4.137774 -0.403584 -6.863956
-5.229878 0.211991 -6.345102 -4.177017 -0.854892 -8.024349 -2.094421 -0.163891
-4.107794 -4.15245 0.885416 -3.193268 -2.078188 -1.030721 -6.428032 -6.129887
1.113052 -4.676205 5.544716 -1.29735 -2.740209 5.568824 -1.565094 -4.092911
4.31205 -1.63874 -2.050633 4.467499 -2.118881 -4.759103 3.251109 -2.275754
-2.684935 3.325952 -2.496254 -4.006006 2.209412 -2.57852 -2.082685 6.360321
-0.878019 -2.15347 6.43046 -1.269776 -4.71089 4.241614 -1.494535 -0.878623
4.443571 -2.329198 -5.749761 -1.63302 0.844602 -6.699043 -1.169911 1.401434
-7.945038 -1.408145 1.525269 -5.518685 -0.543841 2.683106 -7.794586 -0.689308
2.768012 -5.520357 -0.204499 3.351444 -6.774848 -0.46665 3.342792 -4.357599
-2.165763 -0.180823 -6.724866 -1.300466 0.977188 -8.852167 -1.727658 1.080263
-4.574323 -0.054748 3.104202 -8.717428 -2.486424 1.099745 4.23533 -2.939458
1.684952 2.927723 -3.280004 1.323053 5.33069 -4.039902 2.550021 3.021538
-4.479334 2.13668 5.325073 -4.804913 2.729715 4.084172 -5.202961 2.380474
6.396322 -1.671871 0.494804 4.173587 -2.370409 1.595477 2.079541 -3.046995
0.81988 6.244432 -4.363527 3.035948 2.10403 3.107076 1.162707 2.214193
4.52301 1.251495 2.054473 2.578637 0.503246 3.265219 5.301133 0.599979
2.965928 3.522206 -0.21093 4.295913 4.909519 -0.14664 3.981768 3.101343
-0.859509 5.277134 2.418152 1.640427 1.510757 4.958781 1.743758 1.227829
1.531499 0.435738 3.438793 6.416237 0.681598 2.803149 -2.16412 -8.720111
2.291078 -2.218193 -7.974177 1.125147 -2.135371 -10.006989 2.225723 -2.184559
-8.742238 -0.11045 -2.199838 -10.815901 1.017681 -2.22451 -10.090866 -0.202268
-2.246069 -12.098659 1.017302 -2.129092 -8.148924 3.251881 -2.173132 -6.876093
1.043586 -2.201777 -10.636089 3.228308 -2.214836 -8.208688 -1.056624 1.948639
2.669898 -4.251349 0.788413 2.386888 -3.553619 2.566672 1.546454 -4.784399
0.282282 1.127481 -3.582265 2.048472 0.200681 -4.825923 0.804419 0.059456
-4.204312 2.589098 -0.739572 -5.414902 2.411949 3.567122 -4.216368 0.241379
00000000: f137 a6c0 cd72 3ac0 8715 5340 4efe a9c0
00000010: 72fa 3dc0 93fc f03f 0820 83c0 0f9a 59c0
00000020: d523 7d40 6485 85c0 d39f 67c0 0dfa 9e3f
00000030: a778 3ec0 db51 80c0 f27c 4e40 bef6 46c0
00000040: d28f 83c0 e484 e93f e1d1 fcbf 75d6 8cc0
00000050: 96e9 7840 4c8c c0c0 05dd 1ac0 eaea 7440
00000060: 821e c1c0 13ba 29c0 55f9 a83f 4963 80c0
00000070: 72fd 54c0 06e7 a140 f899 86c0 8578 6cc0
00000080: 7139 1e3e 37fc 3fc0 3a24 d5bd c370 94c0
00000090: cc33 83c0 91f2 1b3f 406a 84c0 e9f2 3bc0
000000a0: 0f7b 05bf 8aa1 bdc0 a007 a6c0 b91c 1f3f
000000b0: dc81 a0c0 a568 84c0 90a2 cebe 87a5 dbc0
000000c0: 295b a7c0 2b14 593e 130b cbc0 20aa 85c0
000000d0: 34da 5abf bc63 00c1 fe0a 06c0 0bd3 27be
000000e0: 0c73 83c0 dfe0 84c0 9faa 623f 815e 4cc0
000000f0: 0801 05c0 aaee 83bf 70b2 cdc0 0928 c4c0
00000100: 7d78 8e3f 79a3 95c0 506e b140 910f a6bf
00000110: 965f 2fc0 ce33 b240 0055 c8bf 20f9 82c0
00000120: 50fc 8940 3bc2 d1bf 923d 03c0 c0f5 8e40
00000130: bf9b 07c0 924a 98c0 2b12 5040 f4a5 11c0
00000140: fad5 2bc0 66dc 5440 a0c2 1fc0 3331 80c0
00000150: 0267 0d40 7906 25c0 b64a 05c0 c087 cb40
00000160: dac5 60bf 74d2 09c0 54c6 cd40 0588 a2bf
00000170: 9cbf 96c0 4dbb 8740 ec4c bfbf 70ed 60bf
00000180: bc31 8e40 9411 15c0 0bfe b7c0 cd06 d1bf
00000190: d637 583f 8f5e d6c0 a5bf 95bf 3062 b33f
000001a0: c03d fec0 183e b4bf 043c c33f 1199 b0c0
000001b0: 2a39 0bbf 02b8 2b40 406d f9c0 7d76 30bf
000001c0: 1c27 3140 c4a6 b0c0 3068 51be 0f7e 5640
000001d0: 8ecb d8c0 c0ec eebe 4ef0 5540 7371 8bc0
000001e0: dc9b 0ac0 aa29 39be 1a32 d7c0 ab75 a6bf
000001f0: fe28 7a3f 7aa2 0dc1 e623 ddbf 0f46 8a3f
00000200: db60 92c0 703f 60bd 3fab 4640 967a 0bc1
00000210: 9221 1fc0 72c4 8c3f d387 8740 1420 3cc0
00000220: 82ac d73f d05f 3b40 96eb 51c0 cd59 a93f
00000230: 0395 aa40 e146 81c0 8b33 2340 e160 4140
00000240: b456 8fc0 5dbf 0840 ff66 aa40 d9c1 99c0
00000250: a7b3 2e40 89b1 8240 a87e a6c0 b059 1840
00000260: abae cc40 deff d5bf f356 fd3e 068e 8540
00000270: c8b4 17c0 9738 cc3f 3317 0540 f701 43c0
00000280: a8e3 513f 63d2 c740 03a2 8bc0 f94c 4240
00000290: 6da8 0640 55da 4640 95d3 943f 57b5 0d40
000002a0: 7fbc 9040 fd30 a03f 7c7c 0340 6308 2540
000002b0: bbd4 003f 59f9 5040 e2a2 a940 3998 193f
000002c0: c4d1 3d40 d36b 6140 09fe 57be 1f78 8940
000002d0: c81a 9d40 cc28 16be 49d5 7e40 677c 4640
000002e0: c808 5cbf 48de a840 01c3 1a40 83f9 d13f
000002f0: 7c60 c13f 55ae 9e40 7633 df3f 8029 9d3f
00000300: 2908 c43f 0d19 df3e 2f15 5c40 d051 cd40
00000310: 357d 2e3f cb66 3340 f180 0ac0 9385 0bc1
00000320: 06a1 1240 e0f6 0dc0 752c ffc0 d104 903f
00000330: eba9 08c0 a01c 20c1 3f72 0e40 d1cf 0bc0
00000340: 35e0 0bc1 9c33 e2bd 25ca 0cc0 ee0d 2dc1
00000350: 5f43 823f 5f5e 0ec0 3074 21c1 581f 4fbe
00000360: 98bf 0fc0 1b94 41c1 f436 823f 0b43 08c0
00000370: fe61 02c1 d11e 5040 9814 0bc0 f408 dcc0
00000380: 3a94 853f eae9 0cc0 6c2d 2ac1 999c 4e40
00000390: dfbf 0dc0 c956 03c1 753f 87bf 016d f93f
000003a0: 9cdf 2a40 0d0b 88c0 6fd5 493f c6c2 1840
000003b0: 7e6e 63c0 5b44 2440 34f2 c53f cc19 99c0
000003c0: 4487 903e 4c51 903f d443 65c0 2a1a 0340
000003d0: 527f 4d3e f66d 9ac0 67ee 4d3f 2288 733d
000003e0: b989 86c0 c8b3 2540 9754 3dbf e146 adc0
000003f0: 5f5d 1a40 ba4b 6440 7dec 86c0 0e2c 773e

qA f4 [224, 1]
-0.47343832 0.07456994 -0.47028452 -0.48255616 0.14882377 0.102595985 0.14708474 0.12425271
0.14900899 0.12732908 0.17127389 0.11594987 0.15709758 0.10829279 -0.44544655 0.060837984
-0.4826575 -0.45124733 0.08312565 0.09731281 0.17181468 0.14896184 0.1268113 0.14569247
0.08651778 0.15791768 0.14858556 0.15177357 -0.46945906 0.06457883 -0.4649461 -0.47216815
0.15370235 0.102032274 0.1589812 0.1342819 0.120880425 0.11711207 0.12744704 0.15979737
0.12657985 0.1411801 -0.46349162 0.055508107 -0.45884937 -0.4691649 0.15137246 0.0928911
0.16319844 0.14647466 0.09054488 0.12461087 0.16080356 0.116609395 0.1431089 0.14638326
-0.45194465 0.05295053 -0.4808901 -0.48382598 0.12173748 0.10895786 0.16176894 0.12820265
0.12255168 0.16511634 0.13848707 0.14030507 0.14385289 0.13273022 -0.46136558 0.07206407
-0.4699812 -0.49072403 0.123586684 0.103331715 0.13056153 0.13786599 0.14292607 0.14907545
0.13757923 0.14618433 0.14621958 0.1326763 -0.4521249 0.07215223 -0.47434968 -0.47139782
0.122024596 0.09189424 0.11204368 0.15014982 0.15746778 0.13192654 0.13521773 0.1534788
0.1162163 0.15529981 -0.47997928 0.054546535 -0.46233314 -0.48492038 0.17338234 0.10856259
0.13968259 0.120587915 0.15035883 0.14291894 0.14786515 0.15028995 0.16280127 0.076236546
-0.4622774 0.04930225 -0.46442264 -0.47140282 0.13488838 0.10771504 0.1535185 0.11986333
0.12691727 0.14938194 0.14491925 0.14201328 0.14904991 0.12053347 -0.48382235 0.075534105
-0.4876334 -0.4810797 0.15613529 0.110987514 0.12940463 0.14822134 0.14812878 0.15193847
0.116472214 0.14655307 0.1545631 0.114596754 -0.46594065 0.05854827 -0.46974206 -0.46691865
0.1254001 0.09800419 0.1471377 0.11336756 0.14267251 0.15811893 0.13854149 0.1227684
0.15140218 0.14664039 -0.495475 0.083682954 -0.46022576 -0.48736793 0.11525163 0.11159146
0.14544758 0.1501247 0.11200556 0.14549044 0.14240387 0.1416355 0.15465462 0.14078051
-0.4623056 0.083052754 -0.47536993 -0.48143423 0.14227313 0.100173205 0.13705337 0.15681669
0.116148174 0.1566092 0.12616548 0.1453431 0.10573718 0.14973801 -0.4879387 0.06919703
-0.49397343 -0.47518057 0.13465461 0.120508224 0.13949385 0.13418135 0.14517891 0.14257476
0.1306715 0.14347789 0.14353603 0.15361843 -0.47739625 0.07460591 -0.47050864 -0.46780664
0.13310021 0.108122855 0.15787151 0.13170254 0.13648906 0.1382437 0.15478817 0.10903177
0.12352356 0.1482324 -0.47854024 0.062568426 -0.47881258 -0.4787917 0.13812071 0.10269219
0.14219931 0.14263129 0.13903102 0.14259642 0.138765 0.14241278 0.1429052 0.14222348
00000000: 8266 f2be 20b8 983d 22c9 f0be 9a11 f7be
00000010: 4265 183e d81d d23d 629d 163e 3478 fe3d
00000020: d095 183e 8e62 023e 6c62 2f3e 2077 ed3d
00000030: 30de 203e 9cc8 dd3d 9211 e4be 4031 793d
00000040: e21e f7be e409 e7be c83d aa3d f04b c73d
00000050: 30f0 2f3e 7489 183e d2da 013e 6830 153e
00000060: 3c30 b13d 2cb5 213e d026 183e 886a 1b3e
00000070: f05c f0be e841 843d 6a0d eebe 06c0 f1be
00000080: 2664 1d3e 4cf6 d03d f8cb 223e 3281 093e
00000090: 2890 f73d 74d8 ef3d 7a81 023e eca1 233e
000000a0: 269e 013e 8491 103e c64e edbe 785c 633d
000000b0: 4eee eabe 6236 f0be 6201 1b3e b03d be3d
000000c0: 7e1d 273e 74fd 153e 986f b93d fc33 ff3d
000000d0: b0a9 243e e8d0 ee3d 248b 123e 7ee5 153e
000000e0: 4a65 e7be a8e2 583d 3a37 f6be 0ab8 f7be
000000f0: 8051 f93d 4c25 df3d c2a6 253e 8e47 033e
00000100: 60fc fa3d 4214 293e 8ecf 0d3e 22ac 0f3e
00000110: 2c4e 133e 6eea 073e 1c38 ecbe 5496 933d
00000120: 60a1 f0be 2e40 fbbe 041b fd3d 949f d33d
00000130: ecb1 053e be2c 0d3e 365b 123e 3ca7 183e
00000140: 92e1 0c3e 58b1 153e 96ba 153e 4cdc 073e
00000150: ea7c e7be 8cc4 933d f6dd f2be 0e5b f1be
00000160: 08e8 f93d 0c33 bc3d 2877 e53d e0c0 193e
00000170: 3c3f 213e c017 073e 8476 0a3e 8c29 1d3e
00000180: d002 ee3d ea06 1f3e d8bf f5be 306c 5f3d
00000190: eeb6 ecbe 7c47 f8be 248b 313e 1056 de3d
000001a0: f408 0f3e ccf6 f63d aaf7 193e 5859 123e
000001b0: f669 173e 9ce5 193e 60b5 263e e821 9c3d
000001c0: a0af ecbe 28f1 493d cec8 edbe b65b f1be
000001d0: 2e20 0a3e b499 dc3d f433 1d3e e87a f53d
000001e0: 9af6 013e 94f7 183e b665 143e ee6b 113e
000001f0: 8aa0 183e 40da f63d 90b7 f7be a0b1 9a3d
00000200: 16ab f9be 1450 f6be eee1 1f3e 6c4d e33d
00000210: a682 043e 56c7 173e 12af 173e c295 1b3e
00000220: fc88 ee3d 0212 163e ca45 1e3e b4b1 ea3d
00000230: c68f eebe 50d0 6f3d 0882 f0be f60f efbe
00000240: e268 003e 6cb6 c83d 44ab 163e 402d e83d
00000250: be18 123e eee9 213e d2dd 0d3e 006e fb3d
00000260: 2c09 1b3e e628 163e e6ae fdbe f861 ab3d
00000270: b6a2 ebbe 4a88 f9be 0c09 ec3d 108a e43d
00000280: 36f0 143e 4aba 193e 2c63 e53d 72fb 143e
00000290: 52d2 113e e608 113e c85d 1e3e c428 103e
000002a0: 52b3 ecbe 9017 aa3d b063 f3be 8c7e f6be
000002b0: 0cb0 113e 9c27 cd3d b857 0c3e 8e94 203e
000002c0: 18df ed3d 2a5e 203e 8631 013e d2d4 143e
000002d0: bc8c d83d ec54 193e 1ad3 f9be 2cb7 8d3d
000002e0: 16ea fcbe de4a f3be e6e2 093e 04cd f63d
000002f0: 7ad7 0e3e d666 093e c8a9 143e 1eff 113e
00000300: c0ce 053e deeb 123e 1cfb 123e 264e 1d3e
00000310: 486d f4be fcca 983d 82e6 f0be 5a84 efbe
00000320: 6c4b 083e 846f dd3d 12a9 213e 08dd 063e
00000330: cac3 0b3e c28f 0d3e ca80 1e3e 0c4c df3d
00000340: ecf9 fc3d 3cca 173e 3a03 f5be e023 803d
00000350: ec26 f5be 3024 f5be 846f 0d3e 4850 d23d
00000360: b29c 113e f00d 123e 265e 0e3e cc04 123e
00000370: 6a18 0e3e a8d4 113e be55 123e 08a3 113e

muA f4 [224, 3]
-0.01719892 0.06232366 0.021634638 -0.043616205 -5.3554773e-05 -0.042524904 -0.030206174 -0.051041216
0.043877587 0.048092484 -0.012008309 -0.056398094 -0.032954276 0.009058207 -0.029973298 0.034526825
0.0021422207 0.033436775 0.0015871227 0.039734304 0.025777936 0.046129823 -0.012989283 -0.011679918
-0.034466058 -0.0077582 -0.03002271 0.00885281 0.044076532 0.020159125 -0.027376622 -0.001268208
-0.034237415 0.003522247 -0.03668812 0.035182476 -0.007348448 -0.020616472 0.039911628 0.047909588
-0.0064047277 -0.017196417 0.0070632994 0.07998818 0.037515074 -0.043429792 -0.0064358413 -0.038510203
-0.010304779 -0.041032016 0.053312615 0.07180713 -0.017832965 -0.026589006 -0.03561479 0.0034449995
-0.027217448 0.033107966 0.0017192066 0.03200078 -0.006974995 0.03782007 0.026125908 0.0437873
-0.019533426 -0.018936962 -0.036725014 -0.006456971 -0.02716282 0.004994184 0.043726236 0.015003294
-0.027624667 -0.006772548 -0.036651313 -0.0026641488 -0.033886015 0.027718931 -0.011370659 -0.025286913
0.032136947 0.040193647 -0.0038838089 -0.01900059 -0.011767685 0.06942779 0.011038989 -0.042099714
0.0014276206 -0.042122573 -0.02146393 -0.04016787 0.057360962 0.057335526 -0.02823469 -0.033096462
-0.03314331 0.004632145 -0.023860663 0.030801445 0.00103423 0.032339394 0.00012537837 0.0396761
0.021095812 0.040977776 -0.016992778 -0.015609235 -0.033676118 -0.00902769 -0.026698291 0.008614063
0.049194634 0.014004886 -0.025108248 0.0008881986 -0.038731962 -0.0017550886 -0.032413363 0.033307463
-0.010910869 -0.0244793 0.040974975 0.04371059 -0.0016007423 -0.016127288 -0.008703947 0.068794355
0.014783978 -0.041353106 -0.0061216354 -0.04473582 -0.008636355 -0.042603135 0.059687406 0.059823304
-0.008434057 -0.053297788 -0.0320459 0.0074079335 -0.027942717 0.031021655 0.011217594 0.03156665
-0.0029433966 0.039937615 0.023747742 0.04096973 -0.014684051 -0.019113809 -0.039747924 -0.015425533
-0.029682636 0.006799549 0.046374112 0.021211177 -0.024311364 -0.008315891 -0.03163615 -0.003750205
-0.037037134 0.03181559 -0.0060688853 -0.02054739 0.03910142 0.04167676 -0.0016467869 -0.014136344
-0.0015069544 0.078658015 0.02848944 -0.032627374 0.003634125 -0.043470204 -0.019312084 -0.04149908
0.056570128 0.048785254 0.0031030178 -0.029882789 -0.029115617 -0.00024425983 -0.025543451 0.03628978
-0.0017499328 0.038612902 0.00010702014 0.03896469 0.026060104 0.042349607 -0.014729321 -0.019064546
-0.03552884 -0.011721313 -0.029466987 0.009671837 0.042595983 0.013084084 -0.022033572 -0.0057287514
-0.037672013 0.002505511 -0.03975907 0.027490318 -0.012278289 -0.02144739 0.033266336 0.04099101
-0.00021591783 -0.017815202 -0.015167236 0.07810348 0.032150477 -0.04352829 -0.0029478073 -0.04344204
-0.025161594 -0.052758783 0.045746416 0.06201464 -0.017659992 -0.04183358 -0.030055314 0.0007146597
-0.03212729 0.03106606 0.00020164251 0.03370434 -0.0005259514 0.041088432 0.02491346 0.04167822
-0.016567856 -0.0113220215 -0.033076733 -0.009300411 -0.02596575 0.004560977 0.04597479 0.018045187
-0.02671647 -0.0025477111 -0.04050103 -0.0018284619 -0.03456393 0.037051857 -0.005848378 -0.026741534
0.035797983 0.04095179 0.00092175603 -0.016255468 0.010033995 0.067364275 0.020326346 -0.047264785
00000000: c0e4 8cbc 1847 7f3d 203b b13c e8a6 32bd
00000010: 00a0 60b8 982e 2ebd f072 f7bc 9810 51bd
00000020: fcb8 333d a0fc 443d 80be 44bc b001 67bd
00000030: 10fb 06bd e068 143c 908a f5bc 006c 0d3d
00000040: 8064 0c3b 00f5 083d 0007 d03a 70c0 223d
00000050: 402c d33c a0f2 3c3d 00d1 54bc 205d 3fbc
00000060: 482c 0dbd 8038 febb 30f2 f5bc 600b 113c
00000070: 9889 343d c024 a53c f044 e0bc 003a a6ba
00000080: 883c 0cbd 80d5 663b 4846 16bd 801b 103d
00000090: 40cb f0bb e0e3 a8bc 607a 233d d83c 443d
000000a0: c0de d1bb 80df 8cbc 4073 e73b d8d0 a33d
000000b0: 68a9 193d 70e3 31bd c0e3 d2bb e0bc 1dbd
000000c0: 60d5 28bc 3011 28bd 545e 5a3d 9e0f 933d
000000d0: 7016 92bc 30d1 d9bc d0e0 11bd 80c5 613b
000000e0: 20f7 debc 389c 073d 0057 e13a 4013 033d
000000f0: 808e e4bb 38e9 1a3d 0006 d63c 505a 333d
00000100: 9004 a0bc b021 9bbc f86c 16bd 0095 d3bb
00000110: 9084 debc 40a6 a33b 481a 333d 60d0 753c
00000120: 204d e2bc 40ec ddbb b01f 16bd 0099 2ebb
00000130: 10cc 0abd d012 e33c 004c 3abc 8026 cfbc
00000140: 08a2 033d 18a2 243d 8087 7ebb 20a7 9bbc
00000150: 40cd 40bc 2830 8e3d e0dc 343c c070 2cbd
00000160: 001f bb3a b888 2cbd 20d5 afbc 1087 24bd
00000170: 54f3 6a3d a8d8 6a3d 704c e7bc 2890 07bd
00000180: 48c1 07bd 40c9 973b 7077 c3bc 5053 fc3c
00000190: 008f 873a 5076 043d 0078 0339 6883 223d
000001a0: 20d1 ac3c 50d8 273d 7034 8bbc e0bd 7fbc
000001b0: f8ef 09bd e0e8 13bc 60b6 dabc 0022 0d3c
000001c0: 5080 493d c074 653c d0af cdbc 00d6 683a
000001d0: 68a5 1ebd 000b e6ba e0c3 04bd 686d 083d
000001e0: 80c3 32bc d088 c8bc 60d5 273d e009 333d
000001f0: 00d0 d1ba 601d 84bc 009b 0ebc 0ee4 8c3d
00000200: 8038 723c e061 29bd 0098 c8bb e83c 37bd
00000210: 807f 0dbc a080 2ebd c87a 743d 4809 753d
00000220: 002f 0abc c84e 5abd 9042 03bd 40be f23b
00000230: 20e8 e4bc 2021 fe3c 00ca 373c 084c 013d
00000240: 00e6 40bb a095 233d a08a c23c e0cf 273d
00000250: 6095 70bc 9094 9cbc b8ce 22bd 60bb 7cbc
00000260: 0029 f3bc c0ce de3b c8f2 3d3d 10c3 ad3c
00000270: a028 c7bc 603f 08bc e894 01bd 00c6 75bb
00000280: 40b4 17bd 1051 023d 80dd c6bb 0053 a8bc
00000290: d028 203d 40b5 2a3d 00d9 d7ba 209c 67bc
000002a0: 0085 c5ba 7417 a13d b062 e93c 48a4 05bd
000002b0: 802a 6e3b d00d 32bd 6034 9ebc f0fa 29bd
000002c0: 14b6 673d 0cd3 473d 005c 4b3b c0cc f4bc
000002d0: e083 eebc 0010 80b9 8040 d1bc 98a4 143d
000002e0: 005e e5ba 9028 1e3d 0070 e038 7099 1f3d
000002f0: 007c d53c c876 2d3d 4053 71bc 402d 9cbc
00000300: b086 11bd c00a 40bc c064 f1bc a076 1e3c
00000310: 2079 2e3d a05e 563c c07f b4bc 40b8 bbbb
00000320: f84d 1abd 8033 243b 68da 22bd 6033 e13c
00000330: e02a 49bc 70b2 afbc 4842 083d 30e6 273d
00000340: 0068 62b9 30f1 91bc 0080 78bc b8f4 9f3d
00000350: 38b0 033d b84a 32bd 0030 41bb 48f0 31bd
00000360: b01f cebc 9819 58bd 9860 3b3d 1003 7e3d
00000370: b0ab 90bc b059 2bbd 9036 f6bc 0058 3b3a
00000380: e897 03bd 407e fe3c 0070 5339 900d 0a3d
00000390: 00e0 09ba 584c 283d 5017 cc3c c8b6 2a3d
000003a0: 50b9 87bc 0080 39bc 787b 07bd c060 18bc
000003b0: 20b6 d4bc 4074 953b 1050 3c3d 80d3 933c
000003c0: 80dc dabc 80f7 26bb 68e4 25bd 00a9 efba
000003d0: e892 0dbd b0c3 173d c0a3 bfbb 1011 dbbc
000003e0: e8a0 123d 10bd 273d 00a2 713a 302a 85bc
000003f0: a065 243c 48f6 893d 7083 a63c b898 41bd

quadA f4 [224, 3, 3]
0.037706297 -0.007958487 -0.0059460253 -0.007958487 -0.047751714 -0.046515092 -0.0059460253 -0.046515092
0.01004542 0.008143619 0.002449885 0.008528918 0.002449885 -0.015602738 0.0014261752 0.008528918
0.0014261752 0.007459119 0.037743863 -0.0041986853 0.0023305267 -0.0041986853 -0.01169074 0.055752367
0.0023305267 0.055752367 -0.02605312 -0.05948131 0.016069263 0.030680284 0.016069263 0.032551687
-0.003914118 0.030680284 -0.003914118 0.026929628 -0.0057496624 -0.004029125 -0.0058749765 -0.004029125
0.012321035 0.0031655729 -0.0058749765 0.0031655729 -0.006571372 -0.0058015333 -0.0011668801 -0.017231956
-0.0011668801 0.011687676 -0.0015250593 -0.017231956 -0.0015250593 -0.005886142 0.0023043007 0.002125457
-0.0020360649 0.002125457 -0.011494473 -0.007089749 -0.0020360649 -0.007089749 0.009190172 -0.0120462775
0.00017729402 0.010018647 0.00017729402 0.010971487 -0.00592494 0.010018647 -0.00592494 0.001074791
-0.004221067 0.0063987076 -0.009845659 0.0063987076 0.008285433 -0.0062258393 -0.009845659 -0.0062258393
-0.004064366 0.011585916 0.00433892 -0.0022874177 0.00433892 -0.012799148 -0.0076934844 -0.0022874177
-0.0076934844 0.0012132326 0.001830091 -0.0017254055 -0.009791061 -0.0017254055 -0.0026251327 0.0024008602
-0.009791061 0.0024008602 0.00079504144 0.009138837 -0.006607026 0.0027877986 -0.006607026 -0.0033536106
0.0123582035 0.0027877986 0.0123582035 -0.005785227 -9.386742e-05 -0.0023308247 0.00083194673 -0.0023308247
-0.00039569044 0.0076960027 0.00083194673 0.0076960027 0.00048955774 -0.009718965 0.0077234656 0.008233324
0.0077234656 0.010261853 -6.03199e-05 0.008233324 -6.03199e-05 -0.0005428891 0.04474253 -0.006678462
-0.009524047 -0.006678462 -0.055968817 -0.060992643 -0.009524047 -0.060992643 0.011226285 0.0069335303
-0.0130073875 0.019353405 -0.0130073875 -0.018522272 0.0024416149 0.019353405 0.0024416149 0.011588742
0.017089406 -0.001872465 0.0020751655 -0.001872465 0.0058844034 0.033584222 0.0020751655 0.033584222
-0.022973811 -0.0775529 0.024564937 0.040823087 0.024564937 0.046961665 -0.009154186 0.040823087
-0.009154186 0.030591235 -0.007040744 -0.005983487 -0.010211036 -0.005983487 0.014654617 0.00087048113
-0.010211036 0.00087048113 -0.0076138726 -0.006097789 0.0009571761 -0.014927506 0.0009571761 0.011355509
-0.0013655126 -0.014927506 -0.0013655126 -0.005257721 0.0008683404 0.0027572364 -0.0023701042 0.0027572364
-0.0037635067 -0.005568281 -0.0023701042 -0.005568281 0.0028951666 -0.007662291 0.00067706406 0.0070741475
0.00067706406 0.0077078096 -0.005279392 0.0070741475 -0.005279392 -4.55181e-05 -0.0035639058 0.0034266114
-0.010637939 0.0034266114 0.0048531345 -0.008230448 -0.010637939 -0.008230448 -0.0012892287 0.011380528
0.0049147606 -0.0020222068 0.0049147606 -0.012401159 -0.005957067 -0.0020222068 -0.005957067 0.0010206301
-0.0052782246 -0.0021618754 -0.01778476 -0.0021618754 0.0026602647 0.002875194 -0.01778476 0.002875194
0.0026179603 0.0053543 -0.00590156 0.0013320744 -0.00590156 -0.0014344454 0.0055013746 0.0013320744
0.0055013746 -0.0039198548 -8.697307e-05 -0.0022376776 0.0011533797 -0.0022376776 -0.00031640625 0.009279087
0.0011533797 0.009279087 0.00040337944 -0.0068118274 0.0055720955 0.006112486 0.0055720955 0.008297056
0.0017350912 0.006112486 0.0017350912 -0.0014852285 0.04026114 -0.011096567 -0.0071719736 -0.011096567
00000000: eb71 1a3d 5064 02bc e0d6 c2bb 5064 02bc
00000010: 4d97 43bd 9c86 3ebd e0d6 c2bb 9c86 3ebd
00000020: 8c95 243c d06c 053c 408e 203b e0bc 0b3c
00000030: 408e 203b a0a2 7fbc 80ee ba3a e0bc 0b3c
00000040: 80ee ba3a a06b f43b 4f99 1a3d 2095 89bb
00000050: c0bb 183b 2095 89bb 848a 3fbc 985c 643d
00000060: c0bb 183b 985c 643d 5a6d d5bc ada2 73bd
00000070: b0a3 833c 3855 fb3c b0a3 833c eb54 053d
00000080: 0042 80bb 3855 fb3c 0042 80bb 869b dc3c
00000090: aa67 bcbb c006 84bb e082 c0bb c006 84bb
000000a0: 2bde 493c 8075 4f3b e082 c0bb 8075 4f3b
000000b0: aa54 d7bb ca1a bebb 00f2 98ba 082a 8dbc
000000c0: 00f2 98ba ab7d 3f3c 80e4 c7ba 082a 8dbc
000000d0: 80e4 c7ba 8ae0 c0bb c003 173b 404b 0b3b
000000e0: 806f 05bb 404b 0b3b 5053 3cbc 2051 e8bb
000000f0: 806f 05bb 2051 e8bb 6092 163c c05d 45bc
00000100: 00e8 3939 4025 243c 00e8 3939 c0c1 333c
00000110: 0026 c2bb 4025 243c 0026 c2bb 00e0 8c3a
00000120: e050 8abb 40ac d13b b04f 21bc 40ac d13b
00000130: a0bf 073c 2002 ccbb b04f 21bc 2002 ccbb
00000140: 602e 85bb dbd2 3d3c 802d 8e3b 80e8 15bb
00000150: 802d 8e3b 85b3 51bc a019 fcbb 80e8 15bb
00000160: a019 fcbb 5505 9f3a aadf ef3a 0027 e2ba
00000170: b06a 20bc 0027 e2ba 6b0a 2cbb c057 1d3b
00000180: b06a 20bc c057 1d3b 546a 503a 10bb 153c
00000190: c07f d8bb 80b3 363b c07f d8bb 40c8 5bbb
000001a0: 107a 4a3c 80b3 363b 107a 4a3c 0092 bdbb
000001b0: b0da c4b8 c0c0 18bb 0017 5a3a c0c0 18bb
000001c0: ac74 cfb9 c02e fc3b 0017 5a3a c02e fc3b
000001d0: aa55 003a 4b3c 1fbc 2015 fd3b 10e5 063c
000001e0: 2015 fd3b 5521 283c 0000 7db8 10e5 063c
000001f0: 0000 7db8 ac50 0eba f143 373d 00d7 dabb
00000200: c00a 1cbc 00d7 dabb 8f3f 65bd 6cd3 79bd
00000210: c00a 1cbc 6cd3 79bd 74ee 373c ab32 e33b
00000220: f01c 55bc 088b 9e3c f01c 55bc 05bc 97bc
00000230: 8003 203b 088b 9e3c 8003 203b b5de 3d3c
00000240: 15ff 8b3c 806d f5ba 80ff 073b 806d f5ba
00000250: f4d1 c03b 9c8f 093d 80ff 073b 9c8f 093d
00000260: 9333 bcbc 0ed4 9ebd 683c c93c 1c36 273d
00000270: 683c c93c e05a 403d 70fb 15bc 1c36 273d
00000280: 70fb 15bc 789a fa3c 0bb6 e6bb 2011 c4bb
00000290: 304c 27bc 2011 c4bb eb19 703c 0031 643a
000002a0: 304c 27bc 0031 643a cb7d f9bb f6cf c7bb
000002b0: 00eb 7a3a 8092 74bc 00eb 7a3a 750c 3a3c
000002c0: 00fb b2ba 8092 74bc 00fb b2ba f648 acbb
000002d0: 56a1 633a c0b2 343b c053 1bbb c0b2 343b
000002e0: 2aa5 76bb 2076 b6bb c053 1bbb 2076 b6bb
000002f0: d6bc 3d3b f513 fbbb 007d 313a 40ce e73b
00000300: 007d 313a cb91 fc3b c0fe acbb 40ce e73b
00000310: c0fe acbb b0ea 3eb8 6b90 69bb 0091 603b
00000320: c04a 2ebc 0091 603b 0b07 9f3b 00d9 06bc
00000330: c04a 2ebc 00d9 06bc 56fb a8ba 6575 3a3c
00000340: 000c a13b 0087 04bb 000c a13b 3b2e 4bbc
00000350: 8033 c3bb 0087 04bb 8033 c3bb aac6 853a
00000360: f5f4 acbb 40ae 0dbb 58b1 91bc 40ae 0dbb
00000370: d657 2e3b c06d 3c3b 58b1 91bc c06d 3c3b
00000380: 1692 2b3b 2073 af3b e061 c1bb 0099 ae3a
00000390: e061 c1bb 0004 bcba e044 b43b 0099 ae3a
000003a0: e044 b43b 2072 80bb 5065 b6b8 00a6 12bb
000003b0: 002d 973a 00a6 12bb 54e3 a5b9 5007 183c
000003c0: 002d 973a 5007 183c ac7c d339 c035 dfbb
000003d0: 2096 b63b 404b c83b 2096 b63b 60f0 073c
000003e0: 006c e33a 404b c83b 006c e33a 00ac c2ba
000003f0: dde8 243d 60ce 35bc e002 ebbb 60ce 35bc

hfvrA f4 [224, 1]
1.1455495 0.85499114 1.1476547 1.1707307 0.34286362 0.36473322 0.34331083 0.39122844
0.34637064 0.39270258 0.30714548 0.41557604 0.31076705 0.41304278 1.1263995 0.85763806
1.145725 1.1376852 0.45813495 0.3589546 0.28344214 0.34772956 0.36516875 0.3531186
0.45387596 0.30974835 0.33081365 0.32876676 1.1376572 0.85572165 1.1315883 1.1500133
0.31703192 0.36304647 0.29093015 0.37532914 0.39641386 0.41250092 0.38046676 0.308456
0.39458632 0.35192466 1.1111374 0.8782032 1.1392624 1.154364 0.32900602 0.4176237
0.30409765 0.3403272 0.45613348 0.3972807 0.3059953 0.40781468 0.3397839 0.3232898
1.1204334 0.8597781 1.1526706 1.1232648 0.36781216 0.33162123 0.30294502 0.37747633
0.39981598 0.2768588 0.33077866 0.34193563 0.32855213 0.36759853 1.1375118 0.8476904
1.1464077 1.1703802 0.38666552 0.3532278 0.3773561 0.36258072 0.34674156 0.33503467
0.36202294 0.35120648 0.34055656 0.36832666 1.1117576 0.8651185 1.1583477 1.1567881
0.3478253 0.42864865 0.4183082 0.34217936 0.32797503 0.38072807 0.3797778 0.33137995
0.39890754 0.30730784 1.1443781 0.8725333 1.1414992 1.1637678 0.28501534 0.35437977
0.35472625 0.3961352 0.33222073 0.35408074 0.351691 0.34057575 0.307876 0.48464936
1.1492444 0.87422955 1.1603485 1.1321118 0.37489635 0.37322843 0.334229 0.40093905
0.3908134 0.3349387 0.34180796 0.34111476 0.33044457 0.40090287 1.1429516 0.84082645
1.1665487 1.1643435 0.32496548 0.3195548 0.38946462 0.3456934 0.3392191 0.3330716
0.40867746 0.35129052 0.31535363 0.40043557 1.1355889 0.8683212 1.1421287 1.121673
0.38773543 0.38970703 0.33347273 0.40412498 0.3307953 0.30413675 0.34277678 0.38138396
0.3335014 0.33911026 1.1801904 0.8257332 1.111281 1.1461251 0.4059028 0.30104822
0.31946695 0.31844783 0.39441437 0.33742875 0.33601993 0.34674203 0.32619166 0.3718425
1.1427543 0.84462184 1.1635638 1.1712371 0.34116292 0.37533653 0.37095958 0.32656866
0.41019827 0.32884252 0.39380383 0.35545933 0.4261247 0.3402971 1.130342 0.83725435
1.1511407 1.1260107 0.3592283 0.27673554 0.3478756 0.3592474 0.32834643 0.33027142
0.3674124 0.332197 0.31939316 0.29864663 1.1675345 0.8424504 1.121158 1.1330396
0.3817839 0.34671688 0.28936523 0.3609208 0.3548138 0.3495611 0.3007353 0.4168929
0.4000485 0.3481577 1.1440872 0.85929304 1.1442081 1.1449796 0.34978187 0.35668677
0.34652293 0.34369838 0.34896272 0.34598106 0.34975332 0.34592408 0.3456856 0.3439703
00000000: 5ea1 923f b3e0 5a3f 59e6 923f 81da 953f
00000010: d28b af3e 50be ba3e 70c6 af3e 184f c83e
00000020: 7e57 b13e 5010 c93e 2c42 9d3e 62c6 d43e
00000030: dc1c 9f3e 587a d33e dc2d 903f 2b8e 5b3f
00000040: 1ea7 923f ab9f 913f aa90 ea3e e6c8 b73e
00000050: 541f 913e 9c09 b23e 66f7 ba3e f6cb b43e
00000060: 6e62 e83e 5697 9e3e 6860 a93e 1e54 a83e
00000070: c09e 913f 9310 5b3f e3d7 903f a333 933f
00000080: 0252 a23e 3ae1 b93e ccf4 943e 242b c03e
00000090: c2f6 ca3e 5233 d33e 8acc c23e f2ed 9d3e
000000a0: 3807 ca3e 782f b43e c039 8e3f edd1 603f
000000b0: 5ad3 913f 33c2 933f 7a73 a83e c6d2 d53e
000000c0: b0b2 9b3e 5e3f ae3e 548a e93e 6068 cb3e
000000d0: 6aab 9c3e 16cd d03e 28f8 ad3e 3e86 a53e
000000e0: 5d6a 8f3f 6b1a 5c3f b68a 933f 24c7 8f3f
000000f0: e051 bc3e 42ca a93e 9c1b 9b3e 9444 c13e
00000100: aeb4 cc3e 70c0 8d3e d25b a93e 3012 af3e
00000110: fc37 a83e e035 bc3e fd99 913f 3d02 593f
00000120: 7dbd 923f 05cf 953f 06f9 c53e 46da b43e
00000130: d234 c13e 2ea4 b93e 1c88 b13e aa89 ab3e
00000140: 125b b93e 56d1 b33e 6e5d ae3e 5095 bc3e
00000150: 134e 8e3f 6878 5d3f bd44 943f a211 943f
00000160: 2816 b23e d677 db3e 7e2c d63e 2232 af3e
00000170: 58ec a73e caee c23e 3c72 c23e a2aa a93e
00000180: 9c3d cc3e 7457 9d3e fb7a 923f 585e 5f3f
00000190: a51c 923f 58f6 943f 88ed 913e 4471 b53e
000001a0: ae9e b53e 3cd2 ca3e d618 aa3e 124a b53e
000001b0: d810 b43e f25f ae3e eca1 9d3e f623 f83e
000001c0: 711a 933f 82cd 5f3f 4d86 943f 0ae9 903f
000001d0: 6af2 bf3e cc17 bf3e 1020 ab3e e247 cd3e
000001e0: b218 c83e 167d ab3e 7401 af3e 98a6 ae3e
000001f0: 0830 a93e 2443 cd3e 3d4c 923f 6740 573f
00000200: 7851 953f 3509 953f e061 a63e b09c a33e
00000210: e867 c73e bafe b03e 20ae ad3e 5c88 aa3e
00000220: 2c3e d13e 5adc b33e 0876 a13e e405 cd3e
00000230: fa5a 913f 4c4a 5e3f 4631 923f fb92 8f3f
00000240: 4285 c63e ae87 c73e f0bc aa3e 78e9 ce3e
00000250: 005e a93e d0b7 9b3e 7080 af3e c244 c33e
00000260: b2c0 aa3e dc9f ad3e 7b10 973f 4063 533f
00000270: 753e 8e3f 3ab4 923f 7ed2 cf3e fe22 9a3e
00000280: 2c91 a33e 980b a33e aef0 c93e 76c3 ac3e
00000290: ce0a ac3e 2c88 b13e 9802 a73e 2462 be3e
000002a0: c645 923f 2339 583f a9ef 943f 19eb 953f
000002b0: e8ac ae3e 1c2c c03e 6aee bd3e 0234 a73e
000002c0: 8205 d23e 0c5e a83e a8a0 c93e c4fe b53e
000002d0: 042d da3e 6c3b ae3e 0caf 903f 4d56 563f
000002e0: 9458 933f 1e21 903f c6ec b73e 48b0 8d3e
000002f0: c01c b23e 46ef b73e 061d a83e 5619 a93e
00000300: 7a1d bc3e ba15 aa3e 8087 a33e 36e8 983e
00000310: c571 953f d4aa 573f 1b82 8f3f 7107 913f
00000320: 2e79 c33e e084 b13e ae27 943e 9cca b83e
00000330: 28aa b53e acf9 b23e faf9 993e fc72 d53e
00000340: 28d3 cc3e ba41 b23e 7371 923f a1fa 5b3f
00000350: 6975 923f b18e 923f 9c16 b33e a69f b63e
00000360: 746b b13e 3cf9 af3e 3eab b23e 6e24 b13e
00000370: de12 b33e f61c b13e b4fd b03e e01c b03e

vwA f4 [224, 1]
0.5243172 0.4986157 0.5250149 0.5296564 0.38474354 0.3882198 0.3848742 0.39798546
0.3857536 0.3976895 0.37328297 0.40556902 0.37427175 0.40276596 0.52165484 0.49950492
0.5244427 0.5234041 0.4090603 0.38436973 0.3652896 0.38623172 0.39100882 0.3882301
0.40852383 0.37423232 0.38008106 0.38005435 0.52327746 0.49903226 0.5224662 0.52541476
0.3740095 0.3854647 0.36743912 0.392786 0.39774215 0.4029714 0.39416847 0.37400228
0.39907742 0.3869924 0.51874876 0.5016856 0.52383065 0.5265793 0.37825406 0.39891198
0.3721878 0.3835799 0.4095465 0.4000992 0.37146568 0.40179825 0.38341957 0.3777701
0.52090645 0.49987847 0.52589273 0.5205806 0.39135733 0.37683037 0.37229222 0.39375085
0.399101 0.3626781 0.3783544 0.3843755 0.37982064 0.3909629 0.5234594 0.49777615
0.52471364 0.52902544 0.39646342 0.3834753 0.39497817 0.3890086 0.3854455 0.38330048
0.39091334 0.38743323 0.38417447 0.39044225 0.51866835 0.49983108 0.5260683 0.5265844
0.3830313 0.39912513 0.40369022 0.38535348 0.37998274 0.39637482 0.3953437 0.38182393
0.39955324 0.37323236 0.52444303 0.5006129 0.52414215 0.52769023 0.36452243 0.3844411
0.38803992 0.3998623 0.38073778 0.3877596 0.38875657 0.38453653 0.37296322 0.4155488
0.52605414 0.50060344 0.5291401 0.5224272 0.39392105 0.38957512 0.38326418 0.4004811
0.39813143 0.3822376 0.38355315 0.3835905 0.3812739 0.4002249 0.52411526 0.4969734
0.530315 0.5298548 0.3782504 0.37221932 0.4004403 0.38481474 0.3837011 0.3825677
0.40255815 0.38724422 0.37606263 0.40081865 0.5230003 0.50056386 0.52332413 0.5201879
0.39606568 0.38988557 0.38235396 0.4001866 0.37907818 0.37206832 0.38265583 0.39231402
0.38210866 0.38344458 0.53187513 0.4951994 0.51892674 0.52385587 0.40055412 0.36741748
0.37616548 0.3761571 0.39712596 0.3832405 0.38147086 0.38580832 0.38107082 0.3926437
0.52370995 0.49707338 0.5278679 0.52961314 0.38315997 0.38840356 0.39160684 0.380942
0.40368986 0.3820853 0.40022066 0.388914 0.40575 0.38463172 0.5218792 0.4962751
0.5254265 0.5217276 0.38939896 0.36177668 0.38608676 0.38962263 0.37927845 0.38024062
0.3915064 0.38086575 0.3762544 0.37010935 0.52936965 0.49759987 0.51995015 0.5214106
0.3954549 0.3803075 0.36671016 0.388757 0.387171 0.38606587 0.36844903 0.40260926
0.40163988 0.38581693 0.5241101 0.4995643 0.52413535 0.5243984 0.38668123 0.38471544
0.38572475 0.3848965 0.38647464 0.38557732 0.38677627 0.38557962 0.38560462 0.38498563
00000000: a739 063f 8f4a ff3e 6067 063f 9097 073f
00000010: 1bfd c43e bfc4 c63e 3b0e c53e c0c4 cb3e
00000020: 7f81 c53e f59d cb3e f21e bf3e bea6 cf3e
00000030: 8ca0 bf3e 5737 ce3e 2c8b 053f 1cbf ff3e
00000040: e041 063f d0fd 053f 5a70 d13e 1ccc c43e
00000050: 3d07 bb3e 2ac0 c53e 4f32 c83e 18c6 c63e
00000060: 092a d13e 619b bf3e fc99 c23e 7c96 c23e
00000070: 83f5 053f 2881 ff3e 58c0 053f 9581 063f
00000080: 2c7e bf3e a15b c53e fb20 bc3e 3f1b c93e
00000090: dca4 cb3e 4452 ce3e 73d0 c93e 3a7d bf3e
000000a0: e053 cc3e de23 c63e b8cc 043f 786e 003f
000000b0: c419 063f e7cd 063f 84aa c13e 313e cc3e
000000c0: 668f be3e 9664 c43e 14b0 d13e cdd9 cc3e
000000d0: c030 be3e 80b8 cd3e 924f c43e 156b c13e
000000e0: 205a 053f 12f0 ff3e e8a0 063f c544 053f
000000f0: fd5f c83e e9ef c03e 169d be3e b699 c93e
00000100: f756 cc3e f2b0 b93e abb7 c13e decc c43e
00000110: da77 c23e 4a2c c83e 6f01 063f 84dc fe3e
00000120: a253 063f 366e 073f 41fd ca3e e056 c43e
00000130: 943a ca3e 232c c73e 1d59 c53e f63f c43e
00000140: cb25 c83e a65d c63e 84b2 c43e 0ce8 c73e
00000150: 73c7 043f dce9 ff3e 69ac 063f 3cce 063f
00000160: ae1c c43e 215a cc3e 7cb0 ce3e 0d4d c53e
00000170: 198d c23e a4f1 ca3e 7d6a ca3e 6d7e c33e
00000180: 3e92 cc3e 5018 bf3e e641 063f 2b28 003f
00000190: 2e2e 063f b516 073f afa2 ba3e 77d5 c43e
000001a0: 2bad c63e c0ba cc3e 10f0 c23e 6d88 c63e
000001b0: 1a0b c73e f9e1 c43e 09f5 be3e d0c2 d43e
000001c0: 7cab 063f 8c27 003f ba75 073f cabd 053f
000001d0: 05b0 c93e 6476 c73e 343b c43e dc0b cd3e
000001e0: e2d7 cb3e a6b4 c33e 1461 c43e f965 c43e
000001f0: 5536 c33e 47ea cc3e 6b2c 063f 4c73 fe3e
00000200: b9c2 073f 90a4 073f 09aa c13e 8893 be3e
00000210: 8306 cd3e 7006 c53e 7874 c43e eadf c33e
00000220: 1a1c ce3e e044 c63e 488b c03e 1a38 cd3e
00000230: 59e3 053f f424 003f 92f8 053f 092b 053f
00000240: 1fc9 ca3e 159f c73e e6c3 c33e 42e5 cc3e
00000250: 8916 c23e bd7f be3e 77eb c33e 62dd c83e
00000260: bfa3 c33e d952 c43e f828 083f c78a fd3e
00000270: 62d8 043f 6b1b 063f 6e15 cd3e 251e bc3e
00000280: c398 c03e aa97 c03e 1854 cb3e 1938 c43e
00000290: 2650 c33e ab88 c53e b71b c33e 9808 c93e
000002a0: db11 063f 6780 fe3e 5a22 073f ba94 073f
000002b0: 8b2d c43e d5dc c63e b180 c83e d40a c33e
000002c0: 70b0 ce3e afa0 c33e b9e9 cc3e bc1f c73e
000002d0: 77be cf3e 73ee c43e e099 053f c517 fe3e
000002e0: 5a82 063f f18f 053f 4d5f c73e cb3a b93e
000002f0: 2aad c53e 9e7c c73e c930 c23e e6ae c23e
00000300: 8773 c83e d600 c33e 6ba4 c03e f97e bd3e
00000310: c584 073f 69c5 fe3e 741b 053f 2a7b 053f
00000320: 1179 ca3e aab7 c23e 6fc1 bb3e 280b c73e
00000330: 473b c63e 6daa c53e 5aa5 bc3e cd22 ce3e
00000340: bea3 cd3e cc89 c53e 142c 063f e4c6 ff3e
00000350: bc2d 063f f93e 063f 15fb c53e 6cf9 c43e
00000360: b77d c53e 2711 c53e 01e0 c53e 646a c53e
00000370: 8a07 c63e b16a c53e f86d c53e d61c c53e

alpha_0_A f4 [3584]
11.699381 11.699381 11.699381 11.699381 4.49916 4.49916 4.49916 4.49916
4.49916 4.49916 4.49916 4.49916 4.49916 4.49916 11.699381 11.699381
11.699381 11.699381 4.49916 4.49916 4.49916 4.49916 4.49916 4.49916
4.49916 4.49916 4.49916 4.49916 11.699381 11.699381 11.699381 11.699381
4.49916 4.49916 4.49916 4.49916 4.49916 4.49916 4.49916 4.49916
4.49916 4.49916 11.699381 11.699381 11.699381 11.699381 4.49916 4.49916
4.49916 4.49916 4.49916 4.49916 4.49916 4.49916 4.49916 4.49916
11.699381 11.699381 11.699381 11.699381 4.49916 4.49916 4.49916 4.49916
4.49916 4.49916 4.49916 4.49916 4.49916 4.49916 11.699381 11.699381
11.699381 11.699381 4.49916 4.49916 4.49916 4.49916 4.49916 4.49916
4.49916 4.49916 4.49916 4.49916 11.699381 11.699381 11.699381 11.699381
4.49916 4.49916 4.49916 4.49916 4.49916 4.49916 4.49916 4.49916
4.49916 4.49916 11.699381 11.699381 11.699381 11.699381 4.49916 4.49916
4.49916 4.49916 4.49916 4.49916 4.49916 4.49916 4.49916 4.49916
11.699381 11.699381 11.699381 11.699381 4.49916 4.49916 4.49916 4.49916
4.49916 4.49916 4.49916 4.49916 4.49916 4.49916 11.699381 11.699381
11.699381 11.699381 4.49916 4.49916 4.49916 4.49916 4.49916 4.49916
4.49916 4.49916 4.49916 4.49916 11.699381 11.699381 11.699381 11.699381
4.49916 4.49916 4.49916 4.49916 4.49916 4.49916 4.49916 4.49916
4.49916 4.49916 11.699381 11.699381 11.699381 11.699381 4.49916 4.49916
4.49916 4.49916 4.49916 4.49916 4.49916 4.49916 4.49916 4.49916
11.699381 11.699381 11.699381 11.699381 4.49916 4.49916 4.49916 4.49916
4.49916 4.49916 4.49916 4.49916 4.49916 4.49916 11.699381 11.699381
11.699381 11.699381 4.49916 4.49916 4.49916 4.49916 4.49916 4.49916
4.49916 4.49916 4.49916 4.49916 11.699381 11.699381 11.699381 11.699381
4.49916 4.49916 4.49916 4.49916 4.49916 4.49916 4.49916 4.49916
4.49916 4.49916 11.699381 11.699381 11.699381 11.699381 4.49916 4.49916
4.49916 4.49916 4.49916 4.49916 4.49916 4.49916 4.49916 4.49916
11.699381 11.699381 11.699381 11.699381 4.49916 4.49916 4.49916 4.49916
4.49916 4.49916 4.49916 4.49916 4.49916 4.49916 11.699381 11.699381
11.699381 11.699381 4.49916 4.49916 4.49916 4.49916 4.49916 4.49916
4.49916 4.49916 4.49916 4.49916 11.699381 11.699381 11.699381 11.699381
00000000: aa30 3b41 aa30 3b41 aa30 3b41 aa30 3b41
00000010: 1ef9 8f40 1ef9 8f40 1ef9 8f40 1ef9 8f40
00000020: 1ef9 8f40 1ef9 8f40 1ef9 8f40 1ef9 8f40
00000030: 1ef9 8f40 1ef9 8f40 aa30 3b41 aa30 3b41
00000040: aa30 3b41 aa30 3b41 1ef9 8f40 1ef9 8f40
00000050: 1ef9 8f40 1ef9 8f40 1ef9 8f40 1ef9 8f40
00000060: 1ef9 8f40 1ef9 8f40 1ef9 8f40 1ef9 8f40
00000070: aa30 3b41 aa30 3b41 aa30 3b41 aa30 3b41
00000080: 1ef9 8f40 1ef9 8f40 1ef9 8f40 1ef9 8f40
00000090: 1ef9 8f40 1ef9 8f40 1ef9 8f40 1ef9 8f40
000000a0: 1ef9 8f40 1ef9 8f40 aa30 3b41 aa30 3b41
000000b0: aa30 3b41 aa30 3b41 1ef9 8f40 1ef9 8f40
000000c0: 1ef9 8f40 1ef9 8f40 1ef9 8f40 1ef9 8f40
000000d0: 1ef9 8f40 1ef9 8f40 1ef9 8f40 1ef9 8f40
000000e0: aa30 3b41 aa30 3b41 aa30 3b41 aa30 3b41
000000f0: 1ef9 8f40 1ef9 8f40 1ef9 8f40 1ef9 8f40
00000100: 1ef9 8f40 1ef9 8f40 1ef9 8f40 1ef9 8f40
00000110: 1ef9 8f40 1ef9 8f40 aa30 3b41 aa30 3b41
00000120: aa30 3b41 aa30 3b41 1ef9 8f40 1ef9 8f40
00000130: 1ef9 8f40 1ef9 8f40 1ef9 8f40 1ef9 8f40
00000140: 1ef9 8f40 1ef9 8f40 1ef9 8f40 1ef9 8f40
00000150: aa30 3b41 aa30 3b41 aa30 3b41 aa30 3b41
00000160: 1ef9 8f40 1ef9 8f40 1ef9 8f40 1ef9 8f40
00000170: 1ef9 8f40 1ef9 8f40 1ef9 8f40 1ef9 8f40
00000180: 1ef9 8f40 1ef9 8f40 aa30 3b41 aa30 3b41
00000190: aa30 3b41 aa30 3b41 1ef9 8f40 1ef9 8f40
000001a0: 1ef9 8f40 1ef9 8f40 1ef9 8f40 1ef9 8f40
000001b0: 1ef9 8f40 1ef9 8f40 1ef9 8f40 1ef9 8f40
000001c0: aa30 3b41 aa30 3b41 aa30 3b41 aa30 3b41
000001d0: 1ef9 8f40 1ef9 8f40 1ef9 8f40 1ef9 8f40
000001e0: 1ef9 8f40 1ef9 8f40 1ef9 8f40 1ef9 8f40
000001f0: 1ef9 8f40 1ef9 8f40 aa30 3b41 aa30 3b41
00000200: aa30 3b41 aa30 3b41 1ef9 8f40 1ef9 8f40
00000210: 1ef9 8f40 1ef9 8f40 1ef9 8f40 1ef9 8f40
00000220: 1ef9 8f40 1ef9 8f40 1ef9 8f40 1ef9 8f40
00000230: aa30 3b41 aa30 3b41 aa30 3b41 aa30 3b41
00000240: 1ef9 8f40 1ef9 8f40 1ef9 8f40 1ef9 8f40
00000250: 1ef9 8f40 1ef9 8f40 1ef9 8f40 1ef9 8f40
00000260: 1ef9 8f40 1ef9 8f40 aa30 3b41 aa30 3b41
00000270: aa30 3b41 aa30 3b41 1ef9 8f40 1ef9 8f40
00000280: 1ef9 8f40 1ef9 8f40 1ef9 8f40 1ef9 8f40
00000290: 1ef9 8f40 1ef9 8f40 1ef9 8f40 1ef9 8f40
000002a0: aa30 3b41 aa30 3b41 aa30 3b41 aa30 3b41
000002b0: 1ef9 8f40 1ef9 8f40 1ef9 8f40 1ef9 8f40
000002c0: 1ef9 8f40 1ef9 8f40 1ef9 8f40 1ef9 8f40
000002d0: 1ef9 8f40 1ef9 8f40 aa30 3b41 aa30 3b41
000002e0: aa30 3b41 aa30 3b41 1ef9 8f40 1ef9 8f40
000002f0: 1ef9 8f40 1ef9 8f40 1ef9 8f40 1ef9 8f40
00000300: 1ef9 8f40 1ef9 8f40 1ef9 8f40 1ef9 8f40
00000310: aa30 3b41 aa30 3b41 aa30 3b41 aa30 3b41
00000320: 1ef9 8f40 1ef9 8f40 1ef9 8f40 1ef9 8f40
00000330: 1ef9 8f40 1ef9 8f40 1ef9 8f40 1ef9 8f40
00000340: 1ef9 8f40 1ef9 8f40 aa30 3b41 aa30 3b41
00000350: aa30 3b41 aa30 3b41 1ef9 8f40 1ef9 8f40
00000360: 1ef9 8f40 1ef9 8f40 1ef9 8f40 1ef9 8f40
00000370: 1ef9 8f40 1ef9 8f40 1ef9 8f40 1ef9 8f40
00000380: aa30 3b41 aa30 3b41 aa30 3b41 aa30 3b41
00000390: 1ef9 8f40 1ef9 8f40 1ef9 8f40 1ef9 8f40
000003a0: 1ef9 8f40 1ef9 8f40 1ef9 8f40 1ef9 8f40
000003b0: 1ef9 8f40 1ef9 8f40 aa30 3b41 aa30 3b41
000003c0: aa30 3b41 aa30 3b41 1ef9 8f40 1ef9 8f40
000003d0: 1ef9 8f40 1ef9 8f40 1ef9 8f40 1ef9 8f40
000003e0: 1ef9 8f40 1ef9 8f40 1ef9 8f40 1ef9 8f40
000003f0: aa30 3b41 aa30 3b41 aa30 3b41 aa30 3b41
