tests/test_data_path/og_processed/dimer_ap3_train_spec_7_207.pt (torch, 326226 bytes, 17 tensors)

y f4 [16, 4]
-6.6679487 0.0452792 -1.1505507 -0.47883365 -2.7425022 0.00066116464 -0.5639137 -0.1582457
-2.4993556 0.0016285299 -0.5184627 -0.20552446 1.3045228 0.0023401028 -0.41221794 -0.14269103
1.0446421 0.00022390008 -0.40092313 -0.107703894 -3.7423322 33.788006 -11.101194 -9.528731
-11.977124 6.431881 -4.949818 -4.2441382 -1.4125414 8.075145 -4.330067 -4.634944
-33.564137 91.22465 -30.292442 -15.618261 1.0875114 8.603112e-06 -0.21636935 -0.06186862
-0.16525678 0.21339038 -1.681958 -1.1771529 -2.5071826 0.57038337 -1.3027233 -0.93125457
0.55310464 8.502916e-07 -0.14433181 -0.031594437 2.0067956 0.014952394 -0.784732 -0.566324
1.5402937 0.4243545 -0.94236594 -0.8098689 -1.045277 0.0003108553 -0.36343765 -0.11425684
00000000: d65f d5c0 af76 393d 3f45 93bf af29 f5be
00000010: 2885 2fc0 0252 2d3a a65c 10bf 290b 22be
00000020: 71f5 1fc0 6574 d53a f9b9 04bf 0175 52be
00000030: 9afa a63f 695c 193b 3b0e d3be 991d 12be
00000040: d5b6 853f b8c6 6a39 cc45 cdbe dc93 dcbd
00000050: 5f82 6fc0 eb26 0742 7e9e 31c1 af75 18c1
00000060: 4da2 3fc1 f8d1 cd40 e964 9ec0 fbcf 87c0
00000070: 28ce b4bf cb33 0141 e98f 8ac0 7651 94c0
00000080: ad41 06c2 0573 b642 ec56 f2c1 66e4 79c1
00000090: 9333 8b3f 1656 1037 ed8f 5dbe f369 7dbd
000000a0: 1339 29be 0283 5a3e 664a d7bf f2ac 96bf
000000b0: ae75 20c0 a504 123f a3bf a6bf b366 6ebf
000000c0: 4498 0d3f 983f 6435 b8cb 13be 2b69 01bd
000000d0: 576f 0040 e3fa 743c 32e4 48bf 9cfa 10bf
000000e0: 5828 c53f fe44 d93e e53e 71bf 9153 4fbf
000000f0: a3cb 85bf 4bfa a239 8014 babe 7dff e9bd

RA f4 [208, 3]
0.177438 0.238161 -0.38503 -0.729803 -0.938114 1.617681 0.958841 1.130449
-0.915246 0.059056 0.129889 0.942802 -0.470801 -0.596488 -1.236463 -1.777383
-0.730947 1.429562 -0.401212 -1.915878 1.229069 -0.48451 -0.895062 2.677289
1.675547 1.716297 -0.37013 0.991291 1.369462 -1.904492 0.500924 0.856496
1.511585 -0.232615 -0.5932 -2.23189 -1.228604 -1.204043 -0.869342 0.179699
0.237232 -0.384807 -0.70101 -0.959089 1.648138 0.929727 1.19544 -0.910096
0.029852 0.056304 0.893442 -0.471664 -0.550417 -1.211954 -1.815225 -0.787851
1.492037 -0.448197 -1.937618 1.198387 -0.464326 -0.872098 2.687856 1.537004
1.685535 -0.269636 0.983285 1.390584 -1.94328 0.451545 0.879562 1.545036
-0.334166 -0.579441 -2.180749 -1.181459 -1.18396 -0.832246 0.174808 0.245876
-0.405062 -0.735565 -0.956296 1.612126 1.016799 1.198593 -0.814386 0.040884
0.123034 0.934598 -0.509579 -0.566464 -1.272005 -1.817995 -0.784554 1.509476
-0.422587 -1.926666 1.230528 -0.505664 -0.943243 2.634436 1.576686 1.675639
-0.2668 0.992205 1.352093 -1.880796 0.43292 0.856732 1.5147 -0.289595
-0.59296 -2.207711 -1.223606 -1.179591 -0.859362 0.136963 0.22085 -0.362376
-0.731645 -0.950193 1.613394 0.996072 1.173778 -0.900024 0.084437 0.181722
0.886797 -0.480414 -0.577038 -1.200838 -1.805707 -0.760091 1.550075 -0.373482
-1.944975 1.176384 -0.529386 -0.887424 2.701624 1.607512 1.683705 -0.307449
1.00505 1.369098 -1.887787 0.480654 0.864578 1.518238 -0.323099 -0.556746
-2.21409 -1.21846 -1.188685 -0.869625 0.180218 0.2294 -0.375273 -0.707828
-0.931471 1.617984 1.025851 1.109836 -0.931142 0.033147 0.123682 0.950099
-0.499097 -0.577639 -1.220231 -1.869813 -0.821861 1.431089 -0.473702 -1.870494
1.175864 -0.424086 -0.844803 2.696664 1.618522 1.718539 -0.320354 1.037612
1.299434 -1.876336 0.401238 0.830615 1.521236 -0.257786 -0.622127 -2.204578
-1.208157 -1.201466 -0.836808 0.205629 0.300115 -0.37819 -0.685274 -0.895831
1.563113 1.003197 1.195265 -0.880091 0.127718 0.136193 0.924129 -0.513244
-0.583593 -1.174482 -1.851921 -0.750897 1.476649 -0.501818 -1.916415 1.258913
-0.521818 -0.91634 2.704176 1.641311 1.694838 -0.209673 1.02353 1.388711
-1.878921 0.414656 0.827918 1.519231 -0.297093 -0.585977 -2.204802 -1.238134
-1.270678 -0.864255 0.164938 0.237172 -0.407439 -0.682128 -0.88886 1.545816
0.937922 1.258399 -0.874047 0.044056 0.118415 0.937121 -0.468931 -0.586459
-1.194295 -1.823871 -0.831953 1.549558 -0.448615 -1.899952 1.262604 -0.487276
00000000: 4fb2 353e 7ae0 733e a722 c5be 5fd4 3abf
00000010: 3d28 70bf 2c10 cf3f 9b76 753f 8eb2 903f
00000020: 904d 6abf b4e4 713d 9f01 053e 795b 713f
00000030: d40c f1be 70b3 18bf 6b44 9ebf 4981 e3bf
00000040: 581f 3bbf e3fb b63f a96b cdbe 7e3b f5bf
00000050: 2252 9d3f b211 f8be c922 65bf b458 2b40
00000060: 5378 d63f 9faf db3f ae81 bdbe 3fc5 7d3f
00000070: 884a af3f 65c6 f3bf 8e3c 003f 5243 5b3f
00000080: 9e7b c13f a032 6ebe f5db 17bf 49d7 0ec0
00000090: e542 9dbf 151e 9abf 338d 5ebf 0403 383e
000000a0: f2ec 723e 6c05 c5be 6475 33bf db86 75bf
000000b0: 30f6 d23f 9702 6e3f 2e04 993f 0dfc 68bf
000000c0: 2e8c f43c 069f 663d 9db8 643f f27d f1be
000000d0: 21e8 0cbf 4f21 9bbf 4b59 e8bf 9ab0 49bf
000000e0: 12fb be3f 147a e5be de03 f8bf bf64 993f
000000f0: 23bc edbe d141 5fbf d505 2c40 8cbc c43f
00000100: 9cbf d73f bb0d 8abe 91b8 7b3f a8fe b13f
00000110: 66bd f8bf e830 e73e fa2a 613f bdc3 c53f
00000120: ce17 abbe 3f56 14bf 6491 0bc0 0c3a 97bf
00000130: 008c 97bf 130e 55bf de00 333e ebc6 7b3e
00000140: 4964 cfbe fd4d 3cbf d1cf 74bf 255a ce3f
00000150: 7826 823f 7f6b 993f 9a7b 50bf fb75 273d
00000160: 40f9 fb3d d141 6f3f c573 02bf c903 11bf
00000170: 0fd1 a2bf 0fb4 e8bf 88d8 48bf 8236 c13f
00000180: 535d d8be fe9c f6bf f181 9d3f 3273 01bf
00000190: 6078 71bf 999a 2840 d9d0 c93f 577b d63f
000001a0: 029a 88be 2601 7e3f 6211 ad3f ecbd f0bf
000001b0: b1a7 dd3e ca52 5b3f b1e1 c13f cc45 94be
000001c0: 3acc 17bf 234b 0dc0 1f9f 9cbf d6fc 96bf
000001d0: 26ff 5bbf 0740 0c3e 8126 623e 5989 b9be
000001e0: 164d 3bbf d93f 73bf b283 ce3f 93fe 7e3f
000001f0: 5c3e 963f f967 66bf 4eed ac3d 5515 3a3e
00000200: 2105 633f d3f8 f5be c3b8 13bf 0fb5 99bf
00000210: 6821 e7bf 5395 42bf dc68 c63f 0839 bfbe
00000220: f1f4 f8bf c093 963f d785 07bf 382e 63bf
00000230: 68e7 2c40 f4c2 cd3f a583 d73f f569 9dbe
00000240: 7aa5 803f 9a3e af3f 01a3 f1bf 4818 f63e
00000250: fc54 5d3f 9f55 c23f 3b6d a5be e886 0ebf
00000260: a7b3 0dc0 7ff6 9bbf d526 98bf be9f 5ebf
00000270: 118b 383e d5e7 6a3e c823 c0be 3734 35bf
00000280: e274 6ebf 1a1a cf3f 164f 833f 1b0f 8e3f
00000290: 525f 6ebf 26c5 073d fd4c fd3d b039 733f
000002a0: a489 ffbe 26e0 13bf 8830 9cbf 0856 efbf
000002b0: 7c65 52bf ed2d b73f 1289 f2be 596c efbf
000002c0: b682 963f cd21 d9be 0245 58bf 2596 2c40
000002d0: bb2b cf3f 16f9 db3f 7105 a4be 78d0 843f
000002e0: da53 a63f c72b f0bf 116f cd3e 2fa3 543f
000002f0: dcb7 c23f 87fc 83be b743 1fbf ce17 0dc0
00000300: e3a4 9abf a3c9 99bf 0d39 56bf 6990 523e
00000310: aca8 993e 1fa2 c1be 1e6e 2fbf 2e55 65bf
00000320: 1614 c83f c268 803f 72fe 983f a54d 61bf
00000330: 82c8 023e 2e76 0b3e b893 6c3f f563 03bf
00000340: 5a66 15bf 6d55 96bf bf0b edbf c93a 40bf
00000350: d602 bd3f 2577 00bf 164d f5bf 1024 a13f
00000360: dd95 05bf 4295 6abf 3811 2d40 7b16 d23f
00000370: 74f0 d83f 85b4 56be 0803 833f 48c1 b13f
00000380: 7c80 f0bf cb4d d43e 6ff2 533f 2976 c23f
00000390: 931c 98be 9702 16bf 7a1b 0dc0 2d7b 9ebf
000003a0: 94a5 a2bf d13f 5dbf 82e5 283e 37dd 723e
000003b0: d89b d0be f19f 2ebf 548c 63bf 4cdd c53f
000003c0: a81b 703f 3813 a13f 8bc1 5fbf 1074 343d
000003d0: 9083 f23d 29e7 6f3f b917 f0be 2d22 16bf
000003e0: a9de 98bf 9b74 e9bf dffa 54bf eb57 c63f
000003f0: deb0 e5be a131 f3bf 029d a13f 3d7c f9be

RB f4 [272, 3]
-1.372762 1.567805 -4.713398 -2.052163 2.288891 -5.416221 -2.207299 1.934201
-6.768022 -1.544514 0.74257 -7.285708 -0.158429 1.043074 -7.653459 -2.530026
0.249397 -8.440727 -1.654864 -0.031332 -6.443958 -0.113915 1.795581 -8.449168
0.459543 1.393206 -6.835201 -3.508223 0.040169 -8.060711 -2.500818 0.948234
-9.233647 -2.719194 3.515128 -5.083232 -3.277984 4.009705 -5.960818 -3.478519
3.22488 -4.253298 -1.947171 4.193418 -4.652569 0.366988 0.077133 -8.102805
-2.105113 -0.732082 -8.797186 1.668287 1.158958 -6.657779 1.892541 0.247889
-7.493414 3.12053 -0.406454 -7.441448 3.957695 -0.261407 -6.320871 4.892204
0.898731 -6.553478 4.689571 -1.629075 -6.042373 3.284257 -0.022689 -5.386245
5.448076 0.654273 -7.437729 4.253956 1.811146 -6.59367 3.943211 -2.500655
-5.939684 5.313529 -1.847492 -6.911472 1.083471 -0.051275 -8.705303 1.623494
-0.823371 -9.38173 0.124468 -0.334602 -8.434999 0.944444 0.88628 -9.297614
5.587089 1.064408 -5.724138 5.314035 -1.582536 -5.16575 -4.877535 -4.136315
1.376964 -6.050994 -3.894752 1.543615 -6.980553 -4.063468 0.584666 -6.493173
-4.583264 -0.619398 -5.994137 -3.428634 -1.502969 -7.698827 -5.373258 -1.321742
-5.721944 -5.314637 -0.534852 -6.770543 -2.675947 -1.727933 -5.124583 -2.952706
-1.088876 -8.117876 -6.124811 -0.641875 -8.555148 -4.580011 -1.49349 -6.677058
-3.301097 2.793916 -7.713239 -3.203264 2.728458 -6.48108 -4.114529 3.553193
-6.133142 -2.40826 3.091163 -5.718781 -3.882366 -2.554956 -7.460548 -5.747912
-2.291714 8.599257 2.384462 -5.653074 7.619731 3.055194 -5.418949 6.740375
2.854132 -4.3998 6.931403 1.617101 -3.627025 6.334781 0.405368 -4.417663
6.26567 1.832739 -2.326171 8.01564 1.489166 -3.497804 5.250237 0.506809
-4.561034 6.894209 0.301296 -5.33176 6.783412 2.712365 -1.793058 5.182829
2.009065 -2.398711 7.281581 4.394256 -6.103874 6.417269 4.874932 -5.682204
8.137253 5.123553 -5.996138 7.215895 4.189646 -7.104596 6.403001 -0.547426
-3.807024 6.460309 0.926584 -1.686422 -2.565533 -3.447624 -7.346071 -1.531697
-2.79095 -7.309522 -0.304217 -3.419111 -7.270052 -0.213907 -4.829661 -7.382483
-0.411864 -5.476626 -6.116761 1.079624 -5.193084 -8.099826 -1.077412 -5.141697
-8.062502 0.295677 -5.166752 -5.353035 -1.405755 -5.293155 -5.616729 1.134056
-4.625567 -8.972233 1.908381 -4.857464 -7.405239 -1.419482 -1.399569 -7.156537
-0.447989 -0.990038 -7.07713 -1.875343 -0.838692 -7.941953 -1.960129 -1.029176
-6.230184 -0.384553 -6.596452 -6.11154 1.193305 -6.251281 -8.230169 -1.417863
00000000: aab6 afbf d6ad c83f 28d4 96c0 a356 03c0
00000010: 317d 1240 af51 adc0 6344 0dc0 e693 f73f
00000020: a393 d8c0 a2b2 c5bf 1119 3e3f 8524 e9c0
00000030: 363b 22be 7383 853f 23e9 f4c0 f2eb 21c0
00000040: ed61 7f3e 380d 07c1 95d2 d3bf fc55 00bd
00000050: e734 cec0 444c e9bd 99d5 e53f cb2f 07c1
00000060: 3849 eb3e 9354 b23f f7b9 dac0 ba86 60c0
00000070: 4088 243d acf8 00c1 670d 20c0 77bf 723f
00000080: 05bd 13c1 4607 2ec0 dbf7 6040 d6a9 a2c0
00000090: 7dca 51c0 814f 8040 05bf bec0 0ea0 5ec0
000000a0: 6f64 4e40 041b 88c0 e63c f9bf 7b30 8640
000000b0: d8e1 94c0 dae5 bb3e e8f7 9d3d 17a5 01c1
000000c0: 2cba 06c0 ba69 3bbf 46c1 0cc1 6e8a d53f
000000d0: bc58 943f 870c d5c0 c93e f23f 9dd6 7d3e
000000e0: 0cca efc0 c3b6 4740 bd1a d0be 5820 eec0
000000f0: e04a 7d40 23d7 85be 9344 cac0 ef8c 9c40
00000100: 3c13 663f 17b6 d1c0 f710 9640 8885 d0bf
00000110: 1f5b c1c0 4431 5240 48de b9bc 1e5c acc0
00000120: a356 ae40 6f7e 273f e001 eec0 6820 8840
00000130: a2d3 e73f 58ff d2c0 925d 7c40 bb0a 20c0
00000140: e411 bec0 6e08 aa40 9e7a ecbf c72a ddc0
00000150: 2daf 8a3f bc05 52bd ec48 0bc1 a7ce cf3f
00000160: 71c8 52bf 911b 16c1 14e9 fe3d f450 abbe
00000170: c2f5 06c1 15c7 713f 3fe3 623f 07c3 14c1
00000180: 6fc9 b240 853e 883f 232c b7c0 930c aa40
00000190: 8a90 cabf d34d a5c0 c414 9cc0 b15c 84c0
000001a0: 5b40 b03f bea1 c1c0 9e43 79c0 2d95 c53f
000001b0: b160 dfc0 ee07 82c0 acac 153f 13c8 cfc0
000001c0: 19aa 92c0 de90 1ebf f8cf bfc0 bd6e 5bc0
000001d0: 4a61 c0bf ca5c f6c0 bbf1 abc0 d82e a9bf
000001e0: 2a1a b7c0 8211 aac0 10ec 08bf 4aa8 d8c0
000001f0: b742 2bc0 e92c ddbf 95fc a3c0 23f9 3cc0
00000200: 4a60 8bbf d2e2 01c1 74fe c3c0 ec51 24bf
00000210: e3e1 08c1 738f 92c0 ae2a bfbf 76aa d5c0
00000220: 2c45 53c0 85cf 3240 dbd2 f6c0 4702 4dc0
00000230: 0e9f 2e40 0265 cfc0 39aa 83c0 8467 6340
00000240: b342 c4c0 ef20 1ac0 9dd5 4540 4100 b7c0
00000250: af78 78c0 6684 23c0 cfbc eec0 e5ee b7c0
00000260: 71ab 12c0 8f96 0941 079b 1840 fbe5 b4c0
00000270: d6d4 f340 4c88 4340 0868 adc0 27b1 d740
00000280: 19aa 3640 29cb 8cc0 0ece dd40 2afd ce3f
00000290: 2d21 68c0 87b6 ca40 658c cf3e 7f5d 8dc0
000002a0: 5e80 c840 3197 ea3f fcdf 14c0 1040 0041
000002b0: fe9c be3f 05dc 5fc0 f101 a840 3cbe 013f
000002c0: fef3 91c0 5c9d dc40 7843 9a3e c79d aac0
000002d0: b611 d940 6397 2d40 ed82 e5bf bcd9 a540
000002e0: 8594 0040 7b84 19c0 b602 e940 bf9d 8c40
000002f0: f052 c3c0 455a cd40 71ff 9b40 9dd4 b5c0
00000300: 3032 0241 25f4 a340 5de0 bfc0 9de8 e640
00000310: 9411 8640 da58 e3c0 62e5 cc40 1c24 0cbf
00000320: 48a6 73c0 daba ce40 9c34 6d3f addc d7bf
00000330: b131 24c0 dfa5 5cc0 0313 ebc0 a60e c4bf
00000340: ed9e 32c0 9be7 e9c0 55c2 9bbe b7d2 5ac0
00000350: 44a4 e8c0 700a 5bbe 958c 9ac0 4d3d ecc0
00000360: d7df d2be 8540 afc0 82bc c3c0 1f31 8a3f
00000370: be2d a6c0 e398 01c1 a3e8 89bf c888 a4c0
00000380: 0200 01c1 fa62 973e 0856 a5c0 104c abc0
00000390: c8ef b3bf 8761 a9c0 3ebc b3c0 bf28 913f
000003a0: a504 94c0 448e 0fc1 d445 f43f 5870 9bc0
000003b0: b8f7 ecc0 96b1 b5bf 1425 b3bf 5a02 e5c0
000003c0: d05e e5be 2173 7dbf d977 e2c0 3d0b f0bf
000003d0: 85b4 56bf 7b24 fec0 82e5 fabf 0abc 83bf
000003e0: ab5d c7c0 21e4 c4be 2316 d3c0 bc91 c3c0
000003f0: 38be 983f 7e0a c8c0 c6ae 03c1 897c b5bf

qA f4 [208, 1]
0.98652446 -0.19854867 -0.9497961 -0.6007203 -0.9509653 0.14537814 0.15736762 0.18199709
0.44771495 0.45542824 0.40209442 0.4575377 0.46598768 0.99229586 -0.19791716 -0.95205766
-0.5690568 -0.94765824 0.13568735 0.16610822 0.19130844 0.4435927 0.46129614 0.36747292
0.45473924 0.45418912 0.95486224 -0.17311406 -0.9367075 -0.6074867 -0.9557482 0.12690043
0.15417999 0.16096935 0.47600895 0.44357812 0.4082071 0.4825558 0.46579516 0.99728715
-0.23190373 -0.98393303 -0.58613783 -0.9481365 0.15340531 0.17263398 0.172265 0.45276147
0.47061875 0.41014212 0.4628085 0.45818916 0.9685758 -0.22221142 -0.95190054 -0.577004
-0.95185095 0.13394845 0.17136127 0.17536962 0.4502026 0.46777427 0.40167347 0.46352786
0.4705337 0.96870893 -0.2225135 -0.9370274 -0.5559611 -0.9574042 0.12863639 0.17022178
0.17661732 0.43512136 0.47625697 0.40447026 0.4556864 0.45718697 0.9816179 -0.1650368
-0.9552151 -0.5845337 -0.93767667 0.10641235 0.15169126 0.15007329 0.4816902 0.45068252
0.40842628 0.45446035 0.45740813 0.9665772 -0.15551066 -0.97364485 -0.6317619 -0.93338144
0.13944143 0.1487014 0.14751822 0.48581466 0.45824304 0.41694927 0.4513394 0.4797149
0.95742863 -0.14231575 -0.9588331 -0.5746945 -0.94417655 0.14126676 0.1369642 0.15236178
0.43884388 0.48120084 0.40289873 0.47310075 0.43595394 0.96927327 -0.13975173 -0.9251488
-0.6502326 -0.946466 0.109740734 0.15392712 0.15147677 0.46358576 0.46380115 0.39900863
0.4522511 0.49853483 0.96603274 -0.16273767 -0.94206953 -0.621529 -0.96436536 0.17228556
0.14286974 0.14159408 0.4573673 0.47378257 0.41821653 0.4566337 0.46191964 0.95365655
-0.15868187 -0.9658776 -0.6012594 -0.9101828 0.10102153 0.16103858 0.15125385 0.4770925
0.45651293 0.42022815 0.43789047 0.47730714 0.9848021 -0.16979814 -0.9104847 -0.6149738
-0.97215843 0.09005582 0.17831883 0.16212308 0.44624025 0.4616346 0.41634253 0.46178865
0.46610928 0.98770297 -0.16847974 -0.9473096 -0.6189743 -0.93141735 0.13042694 0.15065342
0.16092512 0.4519712 0.46648476 0.40990794 0.4321187 0.47598973 0.955738 -0.24283862
-0.97701836 -0.55531764 -0.9554672 0.16914782 0.15960288 0.16076952 0.45861396 0.46583924
0.4192053 0.48596793 0.45575666 0.98066723 -0.16486579 -0.9441726 -0.60523796 -0.9319233
0.113432705 0.1508151 0.16595846 0.45166498 0.4649531 0.4048708 0.43427163 0.47956482
00000000: de8c 7c3f 5850 4bbe d625 73bf cec8 19bf
00000010: 7672 73bf 02de 143e fa24 213e 725d 3a3e
00000020: e53a e53e e42d e93e 52df cd3e 6242 ea3e
00000030: f095 ee3e 1a07 7e3f ccaa 4abe 0dba 73bf
00000040: b5ad 11bf bb99 72bf a0f1 0a3e 4618 2a3e
00000050: 5ce6 433e 951e e33e 022f ec3e 6925 bc3e
00000060: 95d3 e83e 7a8b e83e da71 743f d044 31be
00000070: 10cc 6fbf 4084 1bbf eaab 74bf 30f2 013e
00000080: 5ce1 1d3e 26d5 243e 72b7 f33e ac1c e33e
00000090: 8500 d13e 8e11 f73e b47c ee3e 364e 7f3f
000000a0: 2c78 6dbe 09e3 7bbf 210d 16bf 13b9 72bf
000000b0: 4816 1d3e f6c6 303e 3c66 303e 5ad0 e73e
000000c0: f1f4 f03e 26fe d13e 3cf5 ec3e c597 ea3e
000000d0: 95f4 773f 648b 63be c1af 73bf 89b6 13bf
000000e0: 81ac 73bf c829 093e 5479 2f3e 1894 333e
000000f0: f580 e63e 1c80 ef3e 25a8 cd3e 8653 ed3e
00000100: cbe9 f03e 4ffd 773f 94da 63be 07e1 6fbf
00000110: 7753 0ebf 7118 75bf 42b9 033e 9e4e 2e3e
00000120: 2cdb 343e 3ac8 de3e f4d7 f33e ba16 cf3e
00000130: ba4f e93e 6914 ea3e 504b 7b3f 68ff 28be
00000140: fa88 74bf 00a4 15bf 940b 70bf b8ee d93d
00000150: f454 1b3e d0ac 193e 19a0 f63e dcbf e63e
00000160: 401d d13e 07af e83e 6631 ea3e 9a71 773f
00000170: 303e 1fbe ca40 79bf 26bb 21bf 16f2 6ebf
00000180: bcc9 0e3e 2e45 183e 040f 173e b3bc f83e
00000190: d59e ea3e 607a d53e f515 e73e 319d f53e
000001a0: 0b1a 753f 38bb 11be 1676 75bf 2e1f 13bf
000001b0: 8eb5 71bf 3ca8 103e 5840 0c3e ba04 1c3e
000001c0: 25b0 e03e f55f f63e be48 ce3e 433a f23e
000001d0: 5b35 df3e 4b22 783f 141b 0fbe 8dd6 6cbf
000001e0: a575 26bf 994b 72bf c0bf e03d 129f 1d3e
000001f0: ba1c 1b3e 1d5b ed3e 5877 ed3e dc4a cc3e
00000200: 758d e73e f53f ff3e ec4d 773f b4a4 26be
00000210: 782b 71bf 861c 1fbf a6e0 76bf a06b 303e
00000220: 724c 123e 0afe 103e 0c2c ea3e a193 f23e
00000230: 7a20 d63e e4cb e93e bb80 ec3e d622 743f
00000240: 807d 22be c143 77bf 23ec 19bf bd01 69bf
00000250: 60e4 ce3d 4ce7 243e 4ae2 1a3e 7845 f43e
00000260: 10bc e93e 2528 d73e 2e33 e03e 9a61 f43e
00000270: fe1b 7c3f 90df 2dbe 8615 69bf ec6e 1dbf
00000280: 60df 78bf 306f b83d 3699 363e 9803 263e
00000290: 9a79 e43e 5f5b ec3e d92a d53e 906f ec3e
000002a0: e0a5 ee3e 1ada 7c3f f485 2cbe e282 72bf
000002b0: 1a75 1ebf 5e71 6ebf a48e 053e e444 1a3e
000002c0: 8ec9 243e c568 e73e 17d7 ee3e 74df d13e
000002d0: aa3e dd3e edb4 f33e 3fab 743f b0aa 78be
000002e0: e01d 7abf 4c29 0ebf 8099 74bf 1635 2d3e
000002f0: f06e 233e c4a0 243e 73cf ea3e 7b82 ee3e
00000300: 14a2 d63e cad0 f83e f058 e93e 020d 7b3f
00000310: 94d2 28be 4cb5 71bf e0f0 1abf 8692 6ebf
00000320: 684f e83d 466f 1a3e 04f1 293e a240 e73e
00000330: 550e ee3e 3a4b cf3e da58 de3e 8589 f53e

muA f4 [208, 3]
-0.00786674 -0.016461134 -0.01867804 0.07814713 0.1107136 -0.058704287 -0.0028812587 -0.0016366839
-0.015640616 -0.07870728 -0.11020775 0.0734123 0.0008674562 -0.007894605 -0.0011442304 -0.053976685
0.022277981 -0.00593701 0.02717191 -0.04631874 -0.018000335 0.017223477 0.0058712065 0.056312233
0.023480445 0.018186718 0.017396867 -0.0016050041 0.0056981444 -0.02741474 0.0137037635 0.024058133
0.023953438 0.0076910555 -8.878112e-05 -0.026713341 -0.020709544 -0.015576452 0.009298205 -0.010518163
-0.015773684 -0.01991406 0.09106219 0.112028554 -0.07148281 -5.748868e-05 0.014817089 -0.014510244
-0.086413994 -0.12543137 0.06795752 0.0050892234 0.0029506385 0.007408589 -0.055172086 0.020052195
-0.0076559484 0.023380399 -0.046254516 -0.022714972 0.016066492 0.009090185 0.054160833 0.01703623
0.013294578 0.01649782 0.0022535324 0.008018881 -0.026671857 0.011673689 0.024882466 0.023717672
0.0054087937 -0.00021252036 -0.026444227 -0.01892069 -0.015301108 0.013284713 -0.0024785995 -0.008378953
-0.027418852 0.07802796 0.11057386 -0.053497016 0.02689609 0.023322463 0.008160621 -0.07768564
-0.111565694 0.08750981 -0.016118497 -0.015503824 -0.008657932 -0.05741918 0.016822577 -5.6177378e-05
0.025896877 -0.049174726 -0.013949394 0.015550822 0.003829211 0.058156416 0.01721859 0.013724536
0.015056998 -0.00061300397 0.005899638 -0.029255927 0.01165238 0.024157941 0.02606818 0.0067000687
-0.0010282397 -0.027205974 -0.02050057 -0.01569271 0.0119514465 0.0037789047 -0.0064933 -0.02910626
0.07352272 0.10403474 -0.063384295 0.0052393377 -0.0014562309 -0.011571348 -0.054765105 -0.083701774
0.06777649 0.0053762496 -0.011567414 -0.0021815002 -0.060777247 0.015785247 0.0012490451 0.026541114
-0.0533565 -0.020288259 0.00824669 0.0039574206 0.0612773 0.018106014 0.014201909 0.018992692
0.00087440014 0.0073174834 -0.028565973 0.012277991 0.023311287 0.026079357 0.005653858 0.00016099215
-0.027592719 -0.019331902 -0.014675856 0.011218786 -0.002699107 -0.012913078 -0.028246015 0.08338447
0.101276636 -0.049164146 0.02152446 0.00036993623 -0.032234997 -0.076354116 -0.11073692 0.08597931
-0.015634298 -0.0054315925 -0.0014358461 -0.069275856 0.012423784 -0.0042478144 0.020140797 -0.046676576
-0.028789014 0.021327317 0.009482384 0.05744195 0.02015856 0.018467516 0.017329246 -0.0008546114
0.0041003227 -0.026926368 0.010611743 0.022954166 0.025108099 0.0073316097 -0.001038909 -0.028463691
-0.019800276 -0.01487118 0.012100339 -0.021799892 -0.033756852 -0.02029115 0.102987885 0.108508274
-0.07303399 0.019938111 0.021540433 -0.030602127 -0.07662311 -0.11214127 0.07169756 -0.0008045435
0.004694909 0.023940623 -0.065853894 0.012519121 0.00046417117 0.016743481 -0.05806592 -0.011971712
0.010181129 -0.0019071102 0.062467933 0.019354343 0.0144221485 0.017088264 0.001706481 0.007666439
-0.02472803 0.0085403025 0.022118062 0.024863064 0.006057143 -0.00080165267 -0.029554248 -0.019849688
-0.017373532 0.0081245005 0.0035639405 0.00025877357 -0.012401789 0.09336451 0.12541334 -0.080770075
0.0024197996 0.036544323 -0.0003619194 -0.08108164 -0.118888855 0.074552864 -0.0085069835 -0.029830635
-0.0015862882 -0.060142696 0.007927269 0.0022000968 0.021125287 -0.052678287 -0.011693597 0.013001174
00000000: 80e3 00bc 80d9 86bc b002 99bc 9a0b a03d
00000010: d0bd e23d e873 70bd 80d3 3cbb 0086 d6ba
00000020: c020 80bc 4831 a1bd 9ab4 e1bd 3059 963d
00000030: 0066 633a 6058 01bc 00fa 95ba a816 5dbd
00000040: 5080 b63c 408b c2bb a097 de3c b8b8 3dbd
00000050: 7075 93bc 4018 8d3c 4063 c03b a8a7 663d
00000060: 105a c03c 50fc 943c e083 8e3c 005f d2ba
00000070: 80b7 ba3b e094 e0bc c085 603c 9015 c53c
00000080: 003a c43c 4005 fc3b 0030 bab8 f0d5 dabc
00000090: 10a7 a9bc 6034 7fbc 8057 183c 6054 2cbc
000000a0: d037 81bc d022 a3bc d07e ba3d 3a6f e53d
000000b0: 9465 92bd 0020 71b8 60c3 723c 60bc 6dbc
000000c0: d2f9 b0bd 1571 00be 502d 8b3d 80c3 a63b
000000d0: 805f 413b c0c3 f23b 20fc 61bd 8044 a43c
000000e0: c0de fabb 4088 bf3c 6075 3dbd c014 babc
000000f0: e09d 833c 00ef 143c c0d7 5d3d 908f 8b3c
00000100: 80d1 593c 7026 873c 00b0 133b a061 033c
00000110: f07e dabc 0043 3f3c 50d6 cb3c 904b c23c
00000120: 403c b13b 00d8 5eb9 90a1 d8bc 90ff 9abc
00000130: 80b1 7abc 20a8 593c 0070 22bb e047 09bc
00000140: 809d e0bc 20cd 9f3d 8c74 e23d b01f 5bbd
00000150: 3055 dc3c c00e bf3c 20b4 053c a619 9fbd
00000160: 8e7c e4bd 5838 b33d f00a 84bc c003 7ebc
00000170: 00da 0dbc 6030 6bbd 80cf 893c 00a0 6bb8
00000180: b025 d43c 706b 49bd 008c 64bc e0c8 7e3c
00000190: 80f3 7a3b 6c35 6e3d 000e 8d3c e0dc 603c
000001a0: a0b1 763c 00b2 20ba c051 c13b 20aa efbc
000001b0: a0e9 3e3c e0e6 c53c f08c d53c 408c db3b
000001c0: 00c6 86ba 10df debc d0f0 a7bc 008e 80bc
000001d0: 00d0 433c 80a7 773b c0c5 d4bb 4070 eebc
000001e0: 1493 963d 2a10 d53d a0cf 81bd c0ae ab3b
000001f0: 00df beba c095 3dbc 6051 60bd d66b abbd
00000200: 66ce 8a3d 402b b03b 4085 3dbc 80f7 0ebb
00000210: 90f1 78bd 1050 813c 00b7 a33a c06c d93c
00000220: 588c 5abd 9033 a6bc 201d 073c 40ad 813b
00000230: e8fd 7a3d 1053 943c 20af 683c 9096 9b3c
00000240: 0038 653a 80c7 ef3b 3003 eabc a029 493c
00000250: 50f7 be3c 60a4 d53c 0044 b93b 00d0 2839
00000260: 200a e2bc f05d 9ebc 0073 70bc 00cf 373c
00000270: 80e3 30bb 6091 53bc 3064 e7bc 7ac5 aa3d
00000280: 206a cf3d 5860 49bd 1054 b03c 00f4 c139
00000290: d808 04bd 8c5f 9cbd 0aca e2bd ec15 b03d
000002a0: 8013 80bc 80fb b1bb 0033 bcba 80e0 8dbd
000002b0: 208d 4b3c 4031 8bbb 50fe a43c f02f 3fbd
000002c0: f0d6 ebbc a0b6 ae3c 005c 1b3c 4048 6b3d
000002d0: 9023 a53c 3049 973c 10f6 8d3c 0008 60ba
000002e0: 005c 863b b094 dcbc e0dc 2d3c 600a bc3c
000002f0: 80af cd3c 003e f03b 002c 88ba b02c e9bc
00000300: 3034 a2bc 40a6 73bc 8040 463c b095 b2bc
00000310: a044 0abd a039 a6bc 50eb d23d 9639 de3d
00000320: d892 95bd 4055 a33c 9075 b03c 50b1 fabc
00000330: 94ec 9cbd 52aa e5bd 2cd6 923d 00e8 52ba
00000340: c0d7 993b 201f c43c 68de 86bd 001d 4d3c
00000350: 005c f339 a029 893c 88d6 6dbd 0025 44bc
00000360: c0ce 263c 00f8 f9ba 60de 7f3d 008d 9e3c
00000370: e04a 6c3c b0fc 8b3c 00ac df3a c036 fb3b
00000380: 7092 cabc a0ec 0b3c f030 b53c a0ad cb3c
00000390: 007b c63b 0026 52ba c01b f2bc d09b a2bc
000003a0: f052 8ebc a01c 053c 0091 693b 00ac 8739
000003b0: e030 4bbc e435 bf3d 5b6c 003e c86a a5bd
000003c0: 8095 1e3b 80af 153d 00c0 bdb9 220e a6bd
000003d0: 007c f3bd 2caf 983d e060 0bbc 605f f4bc
000003e0: 00eb cfba 3058 76bd 60e1 013c 802f 103b
000003f0: f00e ad3c 30c5 57bd 8096 3fbc e002 553c

quadA f4 [208, 3, 3]
0.041448466 -0.0297817 0.009962216 -0.0297817 0.03327357 0.00614509 0.009962216 0.00614509
-0.074722044 -0.006016651 0.032478496 -0.06847747 0.032478496 0.02476502 -0.07868804 -0.06847747
-0.07868804 -0.018748367 -0.0049373405 0.0110809505 -0.0026272386 0.0110809505 0.0036249263 -0.008002892
-0.0026272386 -0.008002892 0.0013124151 0.022014823 -0.011325911 0.009814128 -0.011325911 0.017334577
0.013909638 0.009814128 0.013909638 -0.039349396 -0.003826175 0.038977176 0.017700821 0.038977176
0.019895058 0.022831991 0.017700821 0.022831991 -0.01606888 -0.0070002778 0.0065232515 -0.0054011047
0.0065232515 0.0107828425 -0.01029788 -0.0054011047 -0.01029788 -0.0037825657 0.004205833 0.008848399
-0.008716702 0.008848399 -0.00050047506 -0.010463238 -0.008716702 -0.010463238 -0.0037053572 0.0003355546
0.01120837 -0.004009858 0.01120837 0.0048154844 -0.0053832084 -0.004009858 -0.0053832084 -0.005151038
-0.004208748 0.0063230842 -0.0066503584 0.0063230842 -0.0014929967 -0.009312406 -0.0066503584 -0.009312406
0.005701746 0.0016110735 0.013480768 -0.00027287006 0.013480768 0.0030797021 -0.0020734817 -0.00027287006
-0.0020734817 -0.0046907766 -0.008674328 0.0076207668 -0.005714178 0.0076207668 -0.0049564736 -0.0055163056
-0.005714178 -0.0055163056 0.013630803 -0.00046673883 0.010572046 0.006238967 0.010572046 0.0022355868
0.008609116 0.006238967 0.008609116 -0.001768847 -0.0068763746 0.0055924505 0.006905794 0.0055924505
-0.0048134727 0.009470582 0.006905794 0.009470582 0.011689846 0.044386193 -0.0033003986 0.01737754
-0.0033003986 0.041927814 0.022149593 0.01737754 0.022149593 -0.08631401 -0.0075003756 0.015369341
-0.051244795 0.015369341 0.013717313 -0.052083597 -0.051244795 -0.052083597 -0.0062169386 0.0016409606
0.021943286 -0.005384907 0.021943286 0.01088959 -0.004920587 -0.005384907 -0.004920587 -0.01253055
0.032779187 -0.021701127 0.01875262 -0.021701127 0.02537626 0.025011286 0.01875262 0.025011286
-0.058155447 -0.008855918 0.013559893 -0.007591754 0.013559893 5.5035576e-05 -0.0073123425 -0.007591754
-0.0073123425 0.008800885 -0.011521557 0.0032063723 -0.0047391206 0.0032063723 0.012955612 -0.009520307
-0.0047391206 -0.009520307 -0.0014340528 0.0042804927 0.0068163574 -0.008531317 0.0068163574 -0.0006006658
-0.010029241 -0.008531317 -0.010029241 -0.0036798269 -0.00048034918 0.010657877 -0.0051063895 0.010657877
0.00451905 -0.007010117 -0.0051063895 -0.007010117 -0.0040387018 -0.0034569753 0.0063156933 -0.004154086
0.0063156933 -0.0012467755 -0.0069338977 -0.004154086 -0.0069338977 0.00470375 0.0010700226 0.012160271
-0.0019760728 0.012160271 0.004842058 -0.003068447 -0.0019760728 -0.003068447 -0.0059120804 -0.0041516176
0.001566112 -0.00629659 0.001566112 -0.0066510043 -0.008846134 -0.00629659 -0.008846134 0.010802621
0.000649591 0.011601493 0.0028912127 0.011601493 0.0026551383 0.0048635304 0.0028912127 0.0048635304
-0.0033047302 -0.005771607 0.0053849667 0.0065323114 0.0053849667 -0.0056120157 0.009240583 0.0065323114
0.009240583 0.011383623 0.029816166 -0.019794255 0.011454314 -0.019794255 0.02483584 0.0100143105
0.011454314 0.0100143105 -0.054652005 0.003951678 0.03445494 -0.06514022 0.03445494 0.0281441
-0.077499524 -0.06514022 -0.077499524 -0.032095782 -0.0037795063 0.010113835 -0.019534484 0.010113835
00000000: dec5 293d c0f8 f3bc 9038 233c c0f8 f3bc
00000010: de49 083d c05c c93b 9038 233c c05c c93b
00000020: df07 99bd 5427 c5bb 2c08 053d ea3d 8cbd
00000030: 2c08 053d 03e0 ca3c 3227 a1bd ea3d 8cbd
00000040: 3227 a1bd 2d96 99bc 6ac9 a1bb e08c 353c
00000050: c02d 2cbb e08c 353c 2c90 6d3b 901e 03bc
00000060: c02d 2cbb 901e 03bc 5805 ac3a 6e58 b43c
00000070: 5090 39bc 70cb 203c 5090 39bc 3e01 8e3c
00000080: 40e5 633c 70cb 203c 40e5 633c d52c 21bd
00000090: 90c0 7abb 88a6 1f3d 5001 913c 88a6 1f3d
000000a0: f6fa a23c 280a bb3c 5001 913c 280a bb3c
000000b0: e2a2 83bc 9662 e5bb 00c1 d53b c0fb b0bb
000000c0: 00c1 d53b 85aa 303c 70b8 28bc c0fb b0bb
000000d0: 70b8 28bc ece4 77bb 16d1 893b e0f8 103c
000000e0: 80d0 0ebc e0f8 103c 5032 03ba 006e 2bbc
000000f0: 80d0 0ebc 006e 2bbc 94d5 72bb 60ed af39
00000100: 50a3 373c 2065 83bb 50a3 373c 36cb 9d3b
00000110: a065 b0bb 2065 83bb a065 b0bb 0aca a8bb
00000120: 8ae9 89bb e031 cf3b 40eb d9bb e031 cf3b
00000130: a8b0 c3ba 1093 18bc 40eb d9bb 1093 18bc
00000140: b6d5 ba3b a82a d33a 70de 5c3c 0010 8fb9
00000150: 70de 5c3c d4d4 493b 40e3 07bb 0010 8fb9
00000160: 40e3 07bb 16b5 99bb c51e 0ebc a0b7 f93b
00000170: 003e bbbb a0b7 f93b ea69 a2bb 20c2 b4bb
00000180: 003e bbbb 20c2 b4bb bb53 5f3c a0b4 f4b9
00000190: 6036 2d3c 4070 cc3b 6036 2d3c ec82 123b
000001a0: 400d 0d3c 4070 cc3b 400d 0d3c a8d8 e7ba
000001b0: 3653 e1bb e040 b73b 004a e23b e040 b73b
000001c0: 56ba 9dbb 802a 1b3c 004a e23b 802a 1b3c
000001d0: c586 3f3c 4cce 353d 804b 58bb 585b 8e3c
000001e0: 804b 58bb 80bc 2b3d 1073 b53c 585b 8e3c
000001f0: 1073 b53c 66c5 b0bd b6c5 f5bb b0cf 7b3c
00000200: 10e6 51bd b0cf 7b3c 95be 603c 9c55 55bd
00000210: 10e6 51bd 9c55 55bd 76b7 cbbb 8015 d73a
00000220: 68c2 b33c e073 b0bb 68c2 b33c 406a 323c
00000230: e03c a1bb e073 b0bb e03c a1bb f04c 4dbc
00000240: 7843 063d 90c6 b1bc 189f 993c 90c6 b1bc
00000250: e0e1 cf3c 78e4 cc3c 189f 993c 78e4 cc3c
00000260: 6834 6ebd 6a18 11bc 502a 5e3c 40c4 f8bb
00000270: 502a 5e3c 00d6 6638 609c efbb 40c4 f8bb
00000280: 609c efbb 9631 103c eac4 3cbc 0022 523b
00000290: a04a 9bbb 0022 523b c643 543c 10fb 1bbc
000002a0: a04a 9bbb 10fb 1bbc d4f6 bbba 6043 8c3b
000002b0: c05b df3b f0c6 0bbc c05b df3b 0076 1dba
000002c0: b051 24bc f0c6 0bbc b051 24bc 4029 71bb
000002d0: 60d7 fbb9 609e 2e3c 8053 a7bb 609e 2e3c
000002e0: 8a14 943b 20b5 e5bb 8053 a7bb 20b5 e5bb
000002f0: 1657 84bb 6c8e 62bb e0f3 ce3b 001f 88bb
00000300: e0f3 ce3b d86a a3ba c035 e3bb 001f 88bb
00000310: c035 e3bb ea21 9a3b 0040 8c3a e03b 473c
00000320: 0081 01bb e03b 473c 20aa 9e3b 0018 49bb
00000330: 0081 01bb 0018 49bb 20ba c1bb 4b0a 88bb
00000340: 0046 cd3a a053 cebb 0046 cd3a abf0 d9bb
00000350: 60ef 10bc a053 cebb 60ef 10bc 7afd 303c
00000360: 5049 2a3a 3014 3e3c 807a 3d3b 3014 3e3c
00000370: d401 2e3b 405e 9f3b 807a 3d3b 405e 9f3b
00000380: 2c94 58bb c01f bdbb 6074 b03b 000d d63b
00000390: 6074 b03b 00e5 b7bb d065 173c 000d d63b
000003a0: d065 173c 6082 3a3c 0841 f43c 9027 a2bc
000003b0: e0aa 3b3c 9027 a2bc 8874 cb3c 1013 243c
000003c0: e0aa 3b3c 1013 243c c8da 5fbd 147d 813b
000003d0: a020 0d3d 3c68 85bd a020 0d3d 758e e63c
000003e0: 12b8 9ebd 3c68 85bd 12b8 9ebd de76 03bd
000003f0: 98b1 77bb 80b4 253c c806 a0bc 80b4 253c

hfvrA f4 [208, 1]
0.5062724 0.97863257 1.3268603 1.1891713 1.3500097 0.32038164 0.32297254 0.28019482
0.17313552 0.13570333 0.16745454 0.13677227 0.14243811 0.5022353 0.980808 1.3457105
1.1852647 1.3433796 0.3594249 0.33009493 0.2674936 0.13991916 0.15483725 0.23687339
0.12533242 0.14105916 0.54824865 0.9515136 1.3167856 1.1915207 1.3486723 0.33923876
0.32745445 0.27966827 0.09507209 0.16664207 0.1620428 0.10823631 0.1385696 0.49442834
1.0053967 1.3872466 1.1716294 1.3324616 0.32143128 0.32677436 0.29689234 0.13305873
0.13053977 0.16206437 0.13852215 0.13217139 0.5258267 0.9910516 1.3307142 1.1651361
1.3278263 0.4064576 0.29613853 0.29252058 0.15504867 0.10974312 0.15056777 0.1307196
0.12577516 0.51967 0.99125385 1.3182197 1.144921 1.3692397 0.3770749 0.30422086
0.32614022 0.15844327 0.13014507 0.13977623 0.15245116 0.15199715 0.52618957 0.96610165
1.3479785 1.184116 1.2950088 0.3911932 0.32310104 0.3621139 0.14112145 0.15767962
0.18689078 0.11722362 0.13754904 0.54543316 0.94047403 1.3556242 1.2142794 1.3061879
0.29328424 0.33503377 0.33259547 0.117191374 0.12026048 0.16552323 0.1532976 0.11753005
0.5360582 0.9411625 1.347419 1.1840255 1.3169767 0.30211818 0.36376548 0.3128066
0.17279881 0.10872358 0.20171416 0.085639775 0.1647309 0.53837085 0.92179316 1.2994168
1.2358446 1.3634729 0.36441606 0.2833267 0.3074323 0.13039118 0.14044148 0.18535489
0.1783598 0.09928787 0.5321393 0.93545187 1.3371599 1.1934565 1.3794117 0.23800713
0.35265368 0.34934133 0.13969958 0.16444737 0.14088112 0.13968688 0.12440705 0.53653157
0.95491 1.3636929 1.1810741 1.2723818 0.378029 0.3023286 0.369604 0.14078456
0.13102287 0.1437698 0.1586392 0.099990666 0.51606506 0.9548203 1.2784276 1.1941895
1.3778512 0.42430627 0.25222546 0.3041833 0.16641593 0.14294088 0.15199375 0.112047136
0.13005984 0.5206549 0.95748335 1.3215864 1.1947781 1.3372952 0.32737225 0.3304882
0.30814266 0.1479547 0.12687969 0.14899665 0.17317921 0.13008058 0.5051428 0.98224217
1.3687956 1.1083156 1.3433172 0.2633044 0.3300199 0.3335709 0.12391341 0.12376654
0.14240801 0.10563916 0.14038604 0.5241786 0.9572227 1.315863 1.185567 1.3419949
0.36646765 0.3216833 0.29380643 0.15331972 0.12778181 0.15083355 0.17812568 0.12454343
00000000: 119b 013f aa87 7a3f 8fd6 a93f c436 983f
00000010: 1ecd ac3f 1009 a43e a85c a53e b275 8f3e
00000020: 704a 313e d0f5 0a3e 3479 2b3e 080e 0c3e
00000030: 4cdb 113e 7e92 003f 3c16 7b3f 3e40 ac3f
00000040: c1b6 973f ddf3 ab3f 8a06 b83e 3402 a93e
00000050: ecf4 883e f846 0f3e a88d 1e3e f08e 723e
00000060: 2457 003e d071 103e 065a 0c3f 6596 733f
00000070: 6e8c a83f c083 983f 4ba1 ac3f b4b0 ad3e
00000080: 1ca8 a73e ae30 8f3e 28b5 c23d 38a4 2a3e
00000090: 8cee 253e 00ab dd3d 30e5 0d3e b625 fd3e
000000a0: d7b0 803f 4c91 b13f f4f7 953f 1a8e aa3f
000000b0: a492 a43e f84e a73e 4602 983e 8c40 083e
000000c0: 38ac 053e 34f4 253e c0d8 0d3e f057 073e
000000d0: 949c 063f 8fb5 7d3f d854 aa3f 2e23 953f
000000e0: 36f6 a93f 361b d03e 789f 973e 42c5 953e
000000f0: 14c5 1e3e 00c1 e03d 702e 1a3e 5cdb 053e
00000100: 34cb 003e 1809 053f d0c2 7d3f 6cbb a83f
00000110: c58c 923f 3f43 af3f f60f c13e d6c2 9b3e
00000120: dafb a63e f43e 223e c044 053e 8021 0f3e
00000130: 281c 1c3e 24a5 1b3e 5cb4 063f 7052 773f
00000140: 8f8a ac3f 1d91 973f d9c2 a53f 7a4a c83e
00000150: 806d a53e fe66 b93e 2482 103e c476 213e
00000160: 4c60 3f3e f012 f03d a8d9 0c3e 82a1 0b3f
00000170: e8c2 703f 1885 ad3f 826d 9b3f 2a31 a73f
00000180: 5a29 963e 8c89 ab3e f449 aa3e 0802 f03d
00000190: 204b f63d ec7e 293e 0cfa 1c3e 98b3 f03d
000001a0: 1c3b 093f 07f0 703f 3a78 ac3f 268e 973f
000001b0: b192 a83f 3caf 9a3e 783f ba3e 3028 a03e
000001c0: 2cf2 303e 78aa de3d 288e 4e3e e863 af3d
000001d0: 38af 283e acd2 093f a3fa 6b3f 4a53 a63f
000001e0: 2830 9e3f 4886 ae3f be94 ba3e 3210 913e
000001f0: c467 9d3e 4485 053e e4cf 0f3e accd 3d3e
00000200: f4a3 363e 7057 cb3d 483a 083f c679 6f3f
00000210: 0e28 ab3f 2fc3 983f 9090 b03f 24b8 733e
00000220: 068f b43e dedc b23e 680d 0f3e e464 283e
00000230: 2443 103e 140a 0f3e 20c9 fe3d 225a 093f
00000240: fb74 743f 7d8d ae3f 702d 973f 68dd a23f
00000250: 048d c13e d0ca 9a3e bc3c bd3e d429 103e
00000260: dc2a 063e 6438 133e 5072 223e e8c7 cc3d
00000270: d71c 043f 1a6f 743f 84a3 a33f 34db 983f
00000280: 6e5d b03f ac3e d93e b223 813e eabd 9b3e
00000290: f068 2a3e 185f 123e 40a4 1b3e f878 e53d
000002a0: 682e 053e a449 053f a11d 753f be29 a93f
000002b0: 7dee 983f 7d2c ab3f 569d a73e c035 a93e
000002c0: e0c4 9d3e 7081 173e c0ec 013e 9492 183e
000002d0: e455 313e d833 053e 0a51 013f 3974 7b3f
000002e0: b234 af3f 49dd 8d3f d1f1 ab3f d6cf 863e
000002f0: 5ef8 a83e cec9 aa3e 50c6 fd3d 5079 fd3d
00000300: 68d3 113e 5859 d83d 5cc1 0f3e 9230 063f
00000310: 8c0c 753f 336e a83f a9c0 973f 7dc6 ab3f
00000320: a6a1 bb3e acb3 a43e cc6d 963e d8ff 1c3e
00000330: 3cd9 023e 1c74 1a3e 9466 363e a010 ff3d

vwA f4 [208, 1]
0.45255774 0.5098543 0.46601695 0.45212582 0.46517137 0.37834617 0.38121626 0.37488666
0.3460418 0.32890284 0.3416078 0.3305168 0.33184782 0.45117217 0.5126133 0.46778187
0.45115077 0.4618678 0.39326492 0.38079247 0.3694133 0.32956243 0.33903754 0.3733893
0.32172912 0.3335933 0.4569671 0.50512403 0.4627294 0.45186839 0.462806 0.38747463
0.3804164 0.37146586 0.2979013 0.34467915 0.3396556 0.31156644 0.33102882 0.4505089
0.51534724 0.4673525 0.4469974 0.46154112 0.38035274 0.38423386 0.3808856 0.32273138
0.324866 0.33836505 0.33104807 0.32791495 0.4544239 0.513361 0.4648262 0.44939452
0.46317378 0.3995797 0.36925334 0.3761053 0.3361261 0.3116526 0.33066505 0.3258912
0.3264817 0.45427728 0.5152178 0.46419442 0.44587106 0.46685618 0.40300012 0.3755619
0.3865693 0.34006783 0.3241521 0.3250908 0.33893844 0.33661664 0.45397872 0.5083657
0.46827126 0.45050907 0.45861712 0.40356642 0.3796376 0.39118344 0.3298718 0.34019625
0.3529689 0.31693658 0.32778403 0.45537013 0.5036296 0.4653461 0.45521748 0.45934734
0.37086645 0.3838667 0.3850364 0.31364292 0.31878975 0.34339118 0.33790287 0.31654456
0.45600265 0.5022849 0.4668678 0.45155156 0.45970523 0.3724876 0.39057362 0.37892792
0.34542245 0.30969536 0.3598405 0.29262596 0.34203085 0.45667434 0.5019955 0.46031225
0.459399 0.46454987 0.39816225 0.36531037 0.37536356 0.3247331 0.33232832 0.34964177
0.35391843 0.3067609 0.45636436 0.50244486 0.46712878 0.4515254 0.4637292 0.3514788
0.3890663 0.38887954 0.32695162 0.34515613 0.32590002 0.33157763 0.31618533 0.45635098
0.50681794 0.46758944 0.4500696 0.4535163 0.39958224 0.37109444 0.39117727 0.32860824
0.32454988 0.33043113 0.3411353 0.30615193 0.45372432 0.5061064 0.45985907 0.4511519
0.46244386 0.41213694 0.35535336 0.3796816 0.34038442 0.33194584 0.3324454 0.31365025
0.31850007 0.4533065 0.50636494 0.4652472 0.4525882 0.4634269 0.3848166 0.3826111
0.3787364 0.33115909 0.3224309 0.33250773 0.3486115 0.32134563 0.45505524 0.5105314
0.46592754 0.44302157 0.46289068 0.35784328 0.3829967 0.38964847 0.31861427 0.3214161
0.33331656 0.31140772 0.33651188 0.45404282 0.50628006 0.4641142 0.45133796 0.46419182
0.40095344 0.3787237 0.3752723 0.33431473 0.32279208 0.3327457 0.3524924 0.3180828
00000000: a6b5 e73e d085 023f c699 ee3e 097d e73e
00000010: f12a ee3e 97b6 c13e c72e c33e 25f1 bf3e
00000020: 642c b13e f465 a83e 38e7 ae3e 7f39 a93e
00000030: f5e7 a93e 0a00 e73e a03a 033f 1b81 ef3e
00000040: 3cfd e63e f079 ec3e 055a c93e 3bf7 c23e
00000050: bd23 bd3e 68bc a83e 5496 ad3e e22c bf3e
00000060: aeb9 a43e becc aa3e 97f7 e93e cf4f 013f
00000070: deea ec3e 4b5b e73e e8f4 ec3e 1363 c63e
00000080: f0c5 c23e c630 be3e 8586 983e c979 b03e
00000090: 57e7 ad3e a385 9f3e 9c7c a93e 1aa9 e63e
000000a0: cced 033f d448 ef3e d8dc e43e 1e4f ec3e
000000b0: 98bd c23e 4dba c43e 7003 c33e 0c3d a53e
000000c0: d654 a63e 2f3e ad3e 227f a93e 78e4 a73e
000000d0: 40aa e83e a06b 033f b3fd ed3e 0a17 e63e
000000e0: 1d25 ed3e b695 cc3e c60e bd3e e090 c03e
000000f0: b818 ac3e ee90 9f3e ee4c a93e 36db a63e
00000100: 9c28 a73e 0897 e83e 50e5 033f e4aa ed3e
00000110: 3649 e43e c607 ef3e 0856 ce3e a649 c03e
00000120: 69ec c53e 5f1d ae3e 44f7 a53e 4d72 a63e
00000130: 5789 ad3e 0459 ac3e e66f e83e 4124 023f
00000140: 40c1 ef3e 20a9 e63e ddcf ea3e 42a0 ce3e
00000150: dc5f c23e 3249 c83e f5e4 a83e 342e ae3e
00000160: 57b8 b43e 8345 a23e 4fd3 a73e 4626 e93e
00000170: dfed 003f d841 ee3e 4412 e93e 932f eb3e
00000180: 35e2 bd3e 2d8a c43e 7e23 c53e ce95 a03e
00000190: 6938 a33e f8d0 af3e 9b01 ad3e 2112 a23e
000001a0: 2e79 e93e be95 003f 4c09 ef3e c431 e73e
000001b0: 7c5e eb3e b2b6 be3e 44f9 c73e d702 c23e
000001c0: 36db b03e 6490 9e3e 043d b83e 12d3 953e
000001d0: ab1e af3e 38d1 e93e c782 003f 0cae eb3e
000001e0: 5936 eb3e 7bd9 ed3e ecdb cb3e f609 bb3e
000001f0: a72f c03e 6b43 a63e f026 aa3e 3f04 b33e
00000200: cc34 b53e c40f 9d3e 97a8 e93e 3aa0 003f
00000210: 812b ef3e 562e e73e ea6d ed3e 07f5 b33e
00000220: b333 c73e 381b c73e 3466 a73e 4eb8 b03e
00000230: 5edc a63e 8bc4 a93e 0be3 a13e d6a6 e93e
00000240: d2be 013f e267 ef3e 866f e63e 4a33 e83e
00000250: 0b96 cc3e 1700 be3e 6348 c83e 573f a83e
00000260: 672b a63e 452e a93e 49a9 ae3e f2bf 9c3e
00000270: 8e4e e83e 3090 013f a672 eb3e 62fd e63e
00000280: 71c5 ec3e 9d03 d33e e0f0 b53e a065 c23e
00000290: de46 ae3e cef4 a93e 4936 aa3e c496 a03e
000002a0: 7112 a33e ca17 e83e 22a1 013f e234 ee3e
000002b0: a4b9 e73e 4a46 ed3e ae06 c53e 9ae5 c33e
000002c0: bde9 c13e af8d a93e aa15 a53e 743e aa3e
000002d0: 357d b23e 6a87 a43e 00fd e83e 30b2 023f
000002e0: 0e8e ee3e b9d3 e23e 0200 ed3e 3c37 b73e
000002f0: 2518 c43e 0180 c73e 6921 a33e a790 a43e
00000300: 78a8 aa3e d570 9f3e 494b ac3e 4d78 e83e
00000310: 929b 013f 60a0 ed3e c515 e73e 8daa ed3e
00000320: c549 cd3e 13e8 c13e b123 c03e 4d2b ab3e
00000330: 0145 a53e a55d aa3e e279 b43e c0db a23e

alpha_0_A f4 [3328]
11.699381 11.699381 7.2505245 7.2505245 7.2505245 4.49916 4.49916 4.49916
4.49916 4.49916 4.49916 4.49916 4.49916 11.699381 11.699381 7.2505245
7.2505245 7.2505245 4.49916 4.49916 4.49916 4.49916 4.49916 4.49916
4.49916 4.49916 11.699381 11.699381 7.2505245 7.2505245 7.2505245 4.49916
4.49916 4.49916 4.49916 4.49916 4.49916 4.49916 4.49916 11.699381
11.699381 7.2505245 7.2505245 7.2505245 4.49916 4.49916 4.49916 4.49916
4.49916 4.49916 4.49916 4.49916 11.699381 11.699381 7.2505245 7.2505245
7.2505245 4.49916 4.49916 4.49916 4.49916 4.49916 4.49916 4.49916
4.49916 11.699381 11.699381 7.2505245 7.2505245 7.2505245 4.49916 4.49916
4.49916 4.49916 4.49916 4.49916 4.49916 4.49916 11.699381 11.699381
7.2505245 7.2505245 7.2505245 4.49916 4.49916 4.49916 4.49916 4.49916
4.49916 4.49916 4.49916 11.699381 11.699381 7.2505245 7.2505245 7.2505245
4.49916 4.49916 4.49916 4.49916 4.49916 4.49916 4.49916 4.49916
11.699381 11.699381 7.2505245 7.2505245 7.2505245 4.49916 4.49916 4.49916
4.49916 4.49916 4.49916 4.49916 4.49916 11.699381 11.699381 7.2505245
7.2505245 7.2505245 4.49916 4.49916 4.49916 4.49916 4.49916 4.49916
4.49916 4.49916 11.699381 11.699381 7.2505245 7.2505245 7.2505245 4.49916
4.49916 4.49916 4.49916 4.49916 4.49916 4.49916 4.49916 11.699381
11.699381 7.2505245 7.2505245 7.2505245 4.49916 4.49916 4.49916 4.49916
4.49916 4.49916 4.49916 4.49916 11.699381 11.699381 7.2505245 7.2505245
7.2505245 4.49916 4.49916 4.49916 4.49916 4.49916 4.49916 4.49916
4.49916 11.699381 11.699381 7.2505245 7.2505245 7.2505245 4.49916 4.49916
4.49916 4.49916 4.49916 4.49916 4.49916 4.49916 11.699381 11.699381
7.2505245 7.2505245 7.2505245 4.49916 4.49916 4.49916 4.49916 4.49916
4.49916 4.49916 4.49916 11.699381 11.699381 7.2505245 7.2505245 7.2505245
4.49916 4.49916 4.49916 4.49916 4.49916 4.49916 4.49916 4.49916
11.699381 11.699381 7.2505245 7.2505245 7.2505245 4.49916 4.49916 4.49916
4.49916 4.49916 4.49916 4.49916 4.49916 11.699381 11.699381 7.2505245
7.2505245 7.2505245 4.49916 4.49916 4.49916 4.49916 4.49916 4.49916
4.49916 4.49916 11.699381 11.699381 7.2505245 7.2505245 7.2505245 4.49916
4.49916 4.49916 4.49916 4.49916 4.49916 4.49916 4.49916 11.699381
11.699381 7.2505245 7.2505245 7.2505245 4.49916 4.49916 4.49916 4.49916
00000000: aa30 3b41 aa30 3b41 4c04 e840 4c04 e840
00000010: 4c04 e840 1ef9 8f40 1ef9 8f40 1ef9 8f40
00000020: 1ef9 8f40 1ef9 8f40 1ef9 8f40 1ef9 8f40
00000030: 1ef9 8f40 aa30 3b41 aa30 3b41 4c04 e840
00000040: 4c04 e840 4c04 e840 1ef9 8f40 1ef9 8f40
00000050: 1ef9 8f40 1ef9 8f40 1ef9 8f40 1ef9 8f40
00000060: 1ef9 8f40 1ef9 8f40 aa30 3b41 aa30 3b41
00000070: 4c04 e840 4c04 e840 4c04 e840 1ef9 8f40
00000080: 1ef9 8f40 1ef9 8f40 1ef9 8f40 1ef9 8f40
00000090: 1ef9 8f40 1ef9 8f40 1ef9 8f40 aa30 3b41
000000a0: aa30 3b41 4c04 e840 4c04 e840 4c04 e840
000000b0: 1ef9 8f40 1ef9 8f40 1ef9 8f40 1ef9 8f40
000000c0: 1ef9 8f40 1ef9 8f40 1ef9 8f40 1ef9 8f40
000000d0: aa30 3b41 aa30 3b41 4c04 e840 4c04 e840
000000e0: 4c04 e840 1ef9 8f40 1ef9 8f40 1ef9 8f40
000000f0: 1ef9 8f40 1ef9 8f40 1ef9 8f40 1ef9 8f40
00000100: 1ef9 8f40 aa30 3b41 aa30 3b41 4c04 e840
00000110: 4c04 e840 4c04 e840 1ef9 8f40 1ef9 8f40
00000120: 1ef9 8f40 1ef9 8f40 1ef9 8f40 1ef9 8f40
00000130: 1ef9 8f40 1ef9 8f40 aa30 3b41 aa30 3b41
00000140: 4c04 e840 4c04 e840 4c04 e840 1ef9 8f40
00000150: 1ef9 8f40 1ef9 8f40 1ef9 8f40 1ef9 8f40
00000160: 1ef9 8f40 1ef9 8f40 1ef9 8f40 aa30 3b41
00000170: aa30 3b41 4c04 e840 4c04 e840 4c04 e840
00000180: 1ef9 8f40 1ef9 8f40 1ef9 8f40 1ef9 8f40
00000190: 1ef9 8f40 1ef9 8f40 1ef9 8f40 1ef9 8f40
000001a0: aa30 3b41 aa30 3b41 4c04 e840 4c04 e840
000001b0: 4c04 e840 1ef9 8f40 1ef9 8f40 1ef9 8f40
000001c0: 1ef9 8f40 1ef9 8f40 1ef9 8f40 1ef9 8f40
000001d0: 1ef9 8f40 aa30 3b41 aa30 3b41 4c04 e840
000001e0: 4c04 e840 4c04 e840 1ef9 8f40 1ef9 8f40
000001f0: 1ef9 8f40 1ef9 8f40 1ef9 8f40 1ef9 8f40
00000200: 1ef9 8f40 1ef9 8f40 aa30 3b41 aa30 3b41
00000210: 4c04 e840 4c04 e840 4c04 e840 1ef9 8f40
00000220: 1ef9 8f40 1ef9 8f40 1ef9 8f40 1ef9 8f40
00000230: 1ef9 8f40 1ef9 8f40 1ef9 8f40 aa30 3b41
00000240: aa30 3b41 4c04 e840 4c04 e840 4c04 e840
00000250: 1ef9 8f40 1ef9 8f40 1ef9 8f40 1ef9 8f40
00000260: 1ef9 8f40 1ef9 8f40 1ef9 8f40 1ef9 8f40
00000270: aa30 3b41 aa30 3b41 4c04 e840 4c04 e840
00000280: 4c04 e840 1ef9 8f40 1ef9 8f40 1ef9 8f40
00000290: 1ef9 8f40 1ef9 8f40 1ef9 8f40 1ef9 8f40
000002a0: 1ef9 8f40 aa30 3b41 aa30 3b41 4c04 e840
000002b0: 4c04 e840 4c04 e840 1ef9 8f40 1ef9 8f40
000002c0: 1ef9 8f40 1ef9 8f40 1ef9 8f40 1ef9 8f40
000002d0: 1ef9 8f40 1ef9 8f40 aa30 3b41 aa30 3b41
000002e0: 4c04 e840 4c04 e840 4c04 e840 1ef9 8f40
000002f0: 1ef9 8f40 1ef9 8f40 1ef9 8f40 1ef9 8f40
00000300: 1ef9 8f40 1ef9 8f40 1ef9 8f40 aa30 3b41
00000310: aa30 3b41 4c04 e840 4c04 e840 4c04 e840
00000320: 1ef9 8f40 1ef9 8f40 1ef9 8f40 1ef9 8f40
00000330: 1ef9 8f40 1ef9 8f40 1ef9 8f40 1ef9 8f40
00000340: aa30 3b41 aa30 3b41 4c04 e840 4c04 e840
00000350: 4c04 e840 1ef9 8f40 1ef9 8f40 1ef9 8f40
00000360: 1ef9 8f40 1ef9 8f40 1ef9 8f40 1ef9 8f40
00000370: 1ef9 8f40 aa30 3b41 aa30 3b41 4c04 e840
00000380: 4c04 e840 4c04 e840 1ef9 8f40 1ef9 8f40
00000390: 1ef9 8f40 1ef9 8f40 1ef9 8f40 1ef9 8f40
000003a0: 1ef9 8f40 1ef9 8f40 aa30 3b41 aa30 3b41
000003b0: 4c04 e840 4c04 e840 4c04 e840 1ef9 8f40
000003c0: 1ef9 8f40 1ef9 8f40 1ef9 8f40 1ef9 8f40
000003d0: 1ef9 8f40 1ef9 8f40 1ef9 8f40 aa30 3b41
000003e0: aa30 3b41 4c04 e840 4c04 e840 4c04 e840
000003f0: 1ef9 8f40 1ef9 8f40 1ef9 8f40 1ef9 8f40
