tests/test_data_path/og_processed/dimer_ap3_train_spec_7_144.pt (torch, 285394 bytes, 17 tensors)

y f4 [16, 4]
000000 19 4e 5e 3f 5d e1 36 3c 90 9c 5a bd 7e c4 2f bf
       0.8683792 0.011162129 -0.053371966 -0.686592
000010 a9 20 ab be f0 a8 e7 3d c9 da 5f bd 67 56 4b bf
       -0.33423355 0.11311519 -0.05465201 -0.79428715
000020 77 95 25 c0 6e 7c d7 40 f8 93 5e bf 88 3b 87 c0
       -2.5872476 6.733939 -0.8694453 -4.226017
000030 d3 82 14 c0 83 c4 33 3f dc f6 bb be e0 28 bf bf
       -2.3204849 0.7022173 -0.36711776 -1.4934349
000040 bc 4a 29 c1 3e 7e cc 41 de 20 2a c0 cc 67 25 c1
       -10.580746 25.561642 -2.658256 -10.337841
000050 16 f3 0f 3d 2e 53 06 3c ce 07 84 bc 3a 98 85 be
       0.035143934 0.0081985425 -0.016117003 -0.26092702
000060 33 52 9b 3f 63 49 89 3e 09 6d 40 be e6 11 e3 bf
       1.213446 0.26813802 -0.18791594 -1.7739837
000070 90 33 d9 bd 15 3d 4c 39 e3 8f 3a bc e8 6d 04 be
       -0.10605538 0.00019477711 -0.011386844 -0.12932551
000080 b0 ee f4 bd 0c ba a8 3b a2 01 fa bb b9 90 9f be
       -0.119595885 0.0051491316 -0.007629589 -0.31165102
000090 0f 78 27 c0 c4 c5 b0 40 5e 9c 2f bf d1 92 8b c0
       -2.6167028 5.5241413 -0.6859797 -4.361672
0000a0 b9 5b 08 c0 ef 68 96 41 0b c3 89 c0 27 b8 c7 c0
       -2.1305983 18.801237 -4.305059 -6.2412295
0000b0 41 eb b0 3f a9 cc 93 3e 05 83 3a be 5b 3b 01 c0
       1.3821794 0.2886708 -0.18214042 -2.0192478
0000c0 0f 7a 0c bf ab c0 c8 39 50 04 c2 bc cb d5 0e be
       -0.54873747 0.00038290521 -0.023683697 -0.13948743
0000d0 1f b6 68 3f 91 5a c7 3f e0 44 c8 be be d8 77 c0
       0.90902895 1.5574514 -0.39115047 -3.872604
0000e0 d0 50 f8 3d 45 d5 91 3d 88 6d 9d bd 30 8b 33 bf
       0.12124789 0.07120756 -0.07686907 -0.7013426
0000f0 7a 3d 10 bf 6d 6a a1 3b 48 81 2e bd b1 ce 8e be
       -0.56343806 0.004926017 -0.04260376 -0.27892068

RA f4 [304, 3]
000000 f2 95 b2 bf 3d d3 0a c0 34 66 c2 3f f5 bc 9f bf
       -1.395201 -2.169143 1.518744 -1.247954
000010 bf ee 7c bf 77 a1 15 3f 17 2c 09 c0 a2 7c 71 be
       -0.988018 0.584495 -2.143316 -0.235827
000020 7f 17 36 bc 29 d0 e7 3d e4 2c a4 be 1b bd aa 3e
       -0.011114 0.11319 -0.320655 0.333474
000030 60 03 c8 bf d2 c7 4c 3f 93 8c 3c bf 0b 63 6b be
       -1.562603 0.799924 -0.73652 -0.22987
000040 37 8e 34 3f 24 b7 1e bf da ca b3 3f 6a 34 19 bf
       0.705295 -0.619982 1.404628 -0.598456
000050 23 2e 24 3f 1c 09 50 3f 38 83 c5 3f 08 59 8e bf
       0.641329 0.812639 1.543067 -1.112092
000060 a8 fc 1a 40 5c e8 2a 3e cf a1 cc 3d 4c 6e 04 40
       2.421671 0.166902 0.099918 2.069232
000070 50 ff a5 3f b5 6f 3e bf 57 ea 19 c0 cc 07 18 c0
       1.296854 -0.743892 -2.404928 -2.375476
000080 e7 c6 ce 3f 06 ba 84 bf 64 07 fd bf 9a 24 20 40
       1.615445 -1.036927 -1.976788 2.502234
000090 b0 3c 4c c0 02 82 d9 be 27 88 3a bc 78 b4 05 c0
       -3.191204 -0.42482 -0.011385 -2.08914
0000a0 05 50 ba 3f 12 a5 a5 bf 36 3f d8 3f 9c fb c1 bf
       1.455567 -1.2941 1.689429 -1.515491
0000b0 a4 89 a5 3f 92 5d f9 3e 0d 19 15 40 f1 82 e8 bf
       1.293263 0.487042 2.329654 -1.816496
0000c0 a1 66 5e 40 b9 6d df bc 56 0e 9d 3e c4 af 3a 40
       3.475014 -0.027274 0.30675 2.916978
0000d0 08 01 f1 3f 6b 0d 97 bf ae 2a 53 bf 00 36 46 c0
       1.882844 -1.180097 -0.82487 -3.097046
0000e0 32 72 98 3f df de a7 bf 46 61 09 c0 39 7b bb 3f
       1.190985 -1.311489 -2.146562 1.464698
0000f0 26 a7 96 bf 54 fc 77 bf 81 ea 23 3f 2f 30 0c c0
       -1.176976 -0.968694 0.640297 -2.190441
000100 09 19 78 be 55 a3 57 3d fd 2f b7 3d 54 70 b0 be
       -0.242283 0.052646 0.089447 -0.344607
000110 ae 9a 8f 3e 75 56 c5 bf 2f 18 48 3f c6 6e 3f bf
       0.280477 -1.541701 0.781619 -0.747784
000120 a2 2a 56 be e9 64 31 3f 32 b0 26 bf 8c 9d ac 3f
       -0.209147 0.692946 -0.651126 1.348558
000130 f0 a6 17 bf e2 3b 25 3f aa 46 4f 3f 2a 1c c7 3f
       -0.592391 0.645445 0.809672 1.555547
000140 98 f6 91 bf b4 71 1c 40 65 6d 53 3e 35 98 46 3d
       -1.140338 2.44444 0.206472 0.048485
000150 f3 20 08 40 61 55 a1 3f 47 75 46 bf 80 2d 1e c0
       2.127011 1.260418 -0.775227 -2.471527
000160 d4 d5 17 c0 20 5e db 3f 0d a7 7c bf 30 67 01 c0
       -2.372426 1.71381 -0.986924 -2.021923
000170 21 e5 20 40 79 3c 4c c0 16 51 c3 be 99 bb 96 bc
       2.513985 -3.191191 -0.381478 -0.0184
000180 06 30 ff bf 46 78 bb 3f 0d 1c a8 bf 90 bf d8 3f
       -1.993653 1.464608 -1.313356 1.693346
000190 37 c4 b2 bf 8a 8f a9 3f 36 c9 0f 3f ee 25 18 40
       -1.396613 1.324693 0.561664 2.377315
0001a0 fc 19 e6 bf f4 c1 5c 40 d5 75 28 bd a3 e8 b1 3e
       -1.797668 3.449338 -0.041128 0.347478
0001b0 5f ed 39 40 72 bf e9 3f 55 da 9a bf 13 49 5c bf
       2.905113 1.826155 -1.209788 -0.86049
0001c0 41 64 42 c0 07 27 94 3f 64 c9 b6 bf f6 41 07 c0
       -3.037369 1.157441 -1.428021 -2.113401
0001d0 77 f8 bf 3f c8 b1 99 bf 26 36 81 bf 33 8d 26 3f
       1.49977 -1.200738 -1.009465 0.650592
0001e0 42 cd 09 c0 92 78 79 be ba a2 14 bb f4 18 25 3d
       -2.153153 -0.243624 -0.002268 0.040307
0001f0 7f c2 a9 be 43 e1 a3 3e 41 b7 c7 bf 39 5e 41 3f
       -0.331562 0.320078 -1.56028 0.755344
000200 8e e8 36 bf 41 d4 4d be b8 58 3d 3f 82 fd 2b bf
       -0.714486 -0.201005 0.739635 -0.671837
000210 0f 9d b0 3f 3b a9 2f bf 8f fb 16 3f 53 3d 39 3f
       1.379793 -0.686176 0.589776 0.723592
000220 a5 15 bf 3f 77 bc 8d bf 0b b8 1b 40 42 08 18 3e
       1.492848 -1.107314 2.433108 0.148469
000230 fa 0d b3 3d c4 05 09 40 d7 6d a4 3f 05 6c 37 bf
       0.087429 2.140977 1.284602 -0.716492
000240 f2 99 1e c0 1c 9a 17 c0 30 d4 d9 3f 6a 85 75 bf
       -2.478146 -2.368781 1.701788 -0.959067
000250 fc fb fc bf a6 ba 21 40 63 5e 4f c0 70 e9 c0 be
       -1.97644 2.527017 -3.240136 -0.376781
000260 5f 7c d1 3b fe ba 05 c0 0e 2d ba 3f 87 86 a5 bf
       0.006393 -2.089538 1.4545 -1.293168
000270 14 92 d4 3f fc a8 b8 bf 2c 7e a3 3f c2 d9 05 3f
       1.660708 -1.442657 1.277288 0.522854
000280 32 c7 15 40 e7 c4 e2 bf eb 35 63 40 8e 8f 16 bd
       2.340283 -1.771634 3.550166 -0.036758
000290 c6 fd 8f 3e 4b c8 3c 40 a0 8b f2 3f f8 71 92 bf
       0.281233 2.949725 1.894886 -1.144103
0002a0 ed 49 50 bf b4 39 42 c0 16 da 99 3f a3 ad ac bf
       -0.813628 -3.034772 1.201968 -1.349049
0002b0 b4 ab 08 c0 81 41 c2 3f 95 45 93 bf ca 1b 84 bf
       -2.13548 1.517624 -1.150561 -1.032098
0002c0 df a9 24 3f db 6a 06 c0 c4 08 41 be ca 6f 51 3d
       0.643217 -2.100272 -0.18851 0.051132
0002d0 5c e7 bf 3d 60 3d c6 be fa 45 79 3e 48 a5 ce bf
       0.093703 -0.387187 0.243431 -1.614419
0002e0 bf 2c 49 3f 89 5f 35 bf c7 d8 39 be 9e 99 30 3f
       0.785839 -0.708489 -0.181491 0.689844
0002f0 9d 80 1a bf 93 e4 b1 3f 63 7d 1f bf 06 11 21 3f
       -0.603525 1.389788 -0.623007 0.629166
000300 03 94 56 3f 2a 38 c4 3f 7e fd 86 bf ac 01 1d 40
       0.838196 1.532964 -1.054611 2.453227
000310 aa 29 69 3e f5 63 b3 3d b7 08 08 40 df fb 9b 3f
       0.227698 0.087593 2.125532 1.218624
000320 c7 0f 45 bf 97 1e 1c c0 5b 22 1a c0 55 33 d1 3f
       -0.769772 -2.439367 -2.408347 1.634379
000330 c7 4a 7c bf 09 18 fb bf 49 49 21 40 d2 89 51 c0
       -0.985516 -1.961671 2.520098 -3.274037
000340 09 fa d3 be 27 67 88 3d a8 19 05 c0 eb e1 bb 3f
       -0.414017 0.066603 -2.079691 1.467832
000350 89 d4 aa bf 17 2c d5 3f bd 34 b3 bf 3f fe 9e 3f
       -1.334611 1.665408 -1.400047 1.242134
000360 ee cd 0b 3f bc 76 15 40 5a bd d9 bf 95 62 5b 40
       0.546111 2.335372 -1.701091 3.427892
000370 7d 91 d0 bc 86 02 b6 3e 25 78 3b 40 43 3a e4 3f
       -0.02546 0.355488 2.929208 1.783028
000380 05 c2 96 bf 37 4f 59 bf ee 04 43 c0 72 4d 91 3f
       -1.177796 -0.848865 -3.047176 1.135176
000390 dc f1 aa bf a5 69 0c c0 7f fa b9 3f d3 4c 99 bf
       -1.335506 -2.193948 1.452957 -1.197657
0003a0 58 1e 82 bf 7d 07 33 3f f5 a1 09 c0 df 53 79 be
       -1.016551 0.699333 -2.15051 -0.243484
0003b0 9d b9 07 3b b6 d6 07 3e 78 5e 9a be 5c c6 6d 3e
       0.002071 0.132655 -0.301502 0.232202
0003c0 e9 9d c8 bf 3a 74 4e 3f a4 c4 3e bf f6 24 50 be
       -1.567319 0.806461 -0.745188 -0.203266
0003d0 87 6b 41 3f 36 23 2b bf c5 ff b7 3f a8 fc 0f bf
       0.755547 -0.668506 1.437493 -0.562449
0003e0 96 5a 27 3f 05 c2 5e 3f 8c 6a c3 3f 1d cb 93 bf
       0.653726 0.870148 1.526689 -1.154636
0003f0 b2 12 1a 40 7e 53 58 3e c6 f9 db 3d f1 84 08 40
       2.407391 0.211256 0.10741 2.133114

RB f4 [144, 3]
000000 bd 00 fb 3d c4 d2 42 40 6c 23 78 40 0f d4 79 be
       0.12256 3.044114 3.877162 -0.243973
000010 bf ba 17 40 cd c8 a0 40 85 09 db 3e 2e 1e c2 3f
       2.370773 5.024512 0.427807 1.516546
000020 0e 9e a5 40 f3 c9 7a be b4 ad 40 40 cc 32 be 40
       5.175544 -0.244911 3.010602 5.943701
000030 fa 9b aa bf 20 7b f5 3f 15 61 9c 40 da e3 39 bf
       -1.332885 1.91782 4.886851 -0.726133
000040 d0 e1 85 40 19 92 69 40 80 d4 76 be ef 3a 94 40
       4.183815 3.649542 -0.241045 4.632194
000050 42 ec 2b 40 64 95 da bf c0 3c 78 40 3c 68 5a 40
       2.686295 -1.707684 3.878708 3.412612
000060 45 f4 27 bf d6 d7 9c 40 a0 fe 8d 40 1c 61 43 40
       -0.656071 4.901347 4.437332 3.052802
000070 dd 53 8e 40 95 d5 7d 40 d4 0b 16 40 37 0c 9a 40
       4.447737 3.966161 2.344472 4.813991
000080 0d 8e 33 40 38 67 2f 40 ff 68 b8 40 ad 6e 1b 40
       2.805545 2.740675 5.762817 2.42863
000090 f6 41 1e 40 dd 5d 82 40 7f 67 ef 3f 80 0b 9c 3f
       2.472776 4.073958 1.870346 1.219101
0000a0 fe ed 9a 40 04 1b 40 40 a0 8d 2e 40 7e 6f 46 40
       4.841552 3.001649 2.727394 3.100555
0000b0 92 e7 8c 40 de 59 52 40 2d 95 38 40 c1 48 aa 40
       4.403268 3.286735 2.884105 5.321381
0000c0 14 79 d6 3f d0 f2 43 40 72 06 97 40 b8 e5 3b 40
       1.67557 3.061695 4.719537 2.935896
0000d0 8c 2b 16 40 15 70 67 40 82 1d ff 3f ce 00 45 40
       2.346408 3.616216 1.993088 3.078174
0000e0 7f da 58 40 99 d6 18 40 66 dd 4e 40 76 38 03 40
       3.388336 2.388098 3.232263 2.050321
0000f0 44 dd b7 3f 5a 2d 5c 40 2f 33 bc 3f df 15 47 40
       1.43644 3.440268 1.470312 3.11071
000100 1e b6 80 40 9a 93 f1 3f 5b 28 2f 40 49 f5 0e 40
       4.022231 1.887317 2.736838 2.233721
000110 46 7e d1 3f ab d1 42 40 01 a3 2e 40 b1 b6 87 40
       1.636666 3.044047 2.728699 4.241051
000120 94 50 2c 40 9b 74 2a 40 17 bb a7 40 85 b6 65 40
       2.692418 2.663367 5.241588 3.589265
000130 bf 62 eb 3f 72 a4 79 40 e0 d9 74 40 0b 7e 62 40
       1.838951 3.900662 3.825798 3.538943
000140 d2 ac 85 40 e8 3e 86 c0 e4 9f 49 40 47 af 7a bf
       4.177346 -4.195179 3.150384 -0.979237
000150 05 24 96 c0 30 01 80 40 8d 61 f4 bf 33 fe 7e c0
       -4.691897 4.000145 -1.909227 -3.984265
000160 e3 53 7b 40 c2 34 32 c0 a1 9f b6 c0 5a 7e 71 40
       3.926995 -2.78447 -5.706986 3.773337
000170 19 03 0c c0 f6 fc 92 c0 7a d1 a1 40 bb 7e bb bf
       -2.187689 -4.593379 5.056821 -1.464805
000180 bc 30 9f c0 9d f7 4a 40 60 8f 29 3e 49 9d 91 c0
       -4.974699 3.171363 0.165586 -4.55045
000190 13 9c 16 40 89 5d 73 3f 06 e5 9f c0 39 df 81 40
       2.353276 0.950646 -4.996707 4.058499
0001a0 db 30 36 3f d4 1c c1 c0 48 17 3a 40 f7 39 be bc
       0.711683 -6.034769 2.907671 -0.023221
0001b0 ad de e1 be 86 93 86 3f a6 46 53 c0 39 60 95 bf
       -0.441152 1.051377 -3.301187 -1.166999
0001c0 9f e8 ec 3f 22 44 86 c0 b0 59 fa bf c8 b6 17 40
       1.850849 -4.195817 -1.955862 2.370531
0001d0 fe d6 6c c0 74 7a 1e bf bb 7f 21 40 0c b2 9b c0
       -3.700622 -0.619056 2.523421 -4.865484
0001e0 a2 b2 df bf eb 39 91 3f 58 9b 9e c0 b0 af 0d 3f
       -1.747639 1.13458 -4.956463 0.553462
0001f0 34 d5 bb 3e b4 72 7c c0 7e 8d 8c 3f 46 9a d8 bd
       0.366861 -3.944501 1.098068 -0.105763
000200 9d b9 4b c0 35 99 01 3e df 4e da be d4 e5 94 c0
       -3.183204 0.126561 -0.426383 -4.653055
000210 1a a8 9c 3f 84 0c 7c 3f ae 45 91 c0 cd ab 4a bf
       1.22388 0.984566 -4.539756 -0.791684
000220 46 a7 d4 40 a3 76 bf 3f 43 1b 9a bf cc c2 fd 40
       6.645419 1.495808 -1.203957 7.930029
000230 27 c2 66 3f ff 97 15 c0 94 42 01 41 b4 3e 95 3f
       0.9014 -2.337402 8.078754 1.165976
000240 17 83 1f bf a7 59 0d 41 5c 3e ac 3f 8e 78 90 bf
       -0.623094 8.834388 1.345653 -1.128679
000250 6f 1c 00 41 6b 49 e7 bd 2d 25 1f 3f 9b 2c d0 40
       8.006942 -0.112933 0.621661 6.505445
000260 de c9 97 3f 5a 63 50 3f b7 b2 af 40 cb f7 cc 3f
       1.185848 0.814016 5.490566 1.601312
000270 bf 45 53 3f f1 f1 cd 40 a5 15 ff 3d 64 91 a0 3f
       0.825283 6.435784 0.124553 1.254437
000280 71 4a e6 40 59 a4 d1 3f a7 74 50 bf cd e7 10 40
       7.196587 1.637828 -0.81428 2.264148
000290 39 d0 48 40 5f 44 5b 3d 84 0f 35 40 52 b6 81 40
       3.137709 0.053532 2.829072 4.053506
0002a0 77 be 85 3f 4d c0 1e 40 00 aa 75 40 1d 1f ad 3d
       1.044875 2.480487 3.838501 0.084532
0002b0 79 5c 7c 40 40 34 80 40 9f 59 82 be ba 4a 23 40
       3.943144 4.006378 -0.25459 2.551436
0002c0 64 d9 a2 40 d7 18 0d c0 f9 dc 2e 40 42 77 54 40
       5.089037 -2.204641 2.732237 3.319779
0002d0 1a 4e 32 c0 d0 7f 16 40 c8 5e 23 40 dd 79 24 c0
       -2.786017 2.351551 2.55266 -2.569938
0002e0 ad 50 23 40 83 6a 89 40 7a 19 0f c0 34 d7 75 40
       2.551799 4.294252 -2.23593 3.84126
0002f0 bf 9c 48 40 ff eb 5d c0 f0 5d c4 40 f9 a0 23 3f
       3.134567 -3.467529 6.136467 0.639175
000300 93 72 96 c0 32 10 c9 40 01 8a 95 3f 74 54 a3 c0
       -4.701486 6.283227 1.168274 -5.104059
000310 53 4b a8 40 66 4c a9 3f da 73 94 c0 c0 77 db 40
       5.259195 1.322644 -4.639142 6.858368
000320 b0 ae 04 40 62 cd ab c0 d4 39 da 40 51 67 f6 3e
       2.073162 -5.368821 6.819559 0.481257
000330 ed f0 34 c0 7c c4 eb 40 ae 65 f2 3e 07 5f e6 bf
       -2.827205 7.367735 0.473432 -1.799775
000340 b0 d7 e4 40 1c b5 42 3d d4 7c 57 c0 bb 1a 00 41
       7.151329 0.047536 -3.366994 8.006526
000350 c8 cd b8 be 68 04 32 c0 61 1a ff 40 94 dd a8 3f
       -0.360945 -2.781519 7.97197 1.319262
000360 6e 69 e1 3f de c7 87 3f 2e 0c e0 40 5b 97 ec 3f
       1.76103 1.060787 7.001487 1.848369
000370 04 fe 08 40 56 3b c3 40 78 44 0a 40 6c 43 46 40
       2.140504 6.100993 2.160429 3.097865
000380 21 db d3 40 06 66 23 40 a3 c9 f3 3f 52 36 a9 40
       6.620499 2.553102 1.904591 5.287881
000390 78 7a 4d 3f e8 6b 16 40 f3 73 b5 40 24 99 a1 3f
       0.80265 2.350336 5.670404 1.262486
0003a0 68 7a 09 bd 09 0d d0 40 36 e8 a1 3f ca e0 54 bf
       -0.033564 6.501591 1.264899 -0.831555
0003b0 eb 9d e7 40 a9 a3 8b 3e 95 f1 2f 3d 66 be c1 40
       7.238027 0.272733 0.042955 6.054492
0003c0 b0 37 00 40 c9 cb ea be 47 77 b6 40 20 9a 49 3e
       2.003399 -0.458586 5.70206 0.196877
0003d0 87 df 8e 40 f2 60 13 40 76 e1 53 3f 3c 67 7b 40
       4.464786 2.302792 0.827659 3.928176
0003e0 6d 8d 94 3f 63 d0 89 3e a9 e7 8c 40 a4 70 7d 3e
       1.160566 0.269168 4.403279 0.2475
0003f0 3d d2 ee 3f c9 5a 83 40 4f 95 8f 3f b0 e7 1b 3f
       1.865791 4.104832 1.121744 0.609004

qA f4 [304, 1]
000000 f8 0d d9 be e0 3b e7 bc f0 bf b1 bd 40 38 53 bd
       -0.4239347 -0.028226793 -0.08679187 -0.051567316
000010 fc 1b da be d6 56 82 3e 8c fe 08 be 94 19 8c be
       -0.42599475 0.25456876 -0.13378352 -0.27363265
000020 00 7f 53 be 20 29 d9 bd f0 fa 18 3e 76 b3 14 3e
       -0.20653915 -0.10603547 0.14939475 0.14521584
000030 22 d4 19 3e 81 6a b6 3e b4 14 f0 3d 66 2a 1b 3e
       0.15022328 0.3562813 0.11722699 0.15152892
000040 b8 e0 1a 3e 38 e1 03 3e 02 33 07 3e b8 f4 d4 be
       0.15124786 0.12878883 0.13203052 -0.41592956
000050 00 be 8f ba cc 56 01 be 40 83 d2 bc 06 50 df be
       -0.0010966659 -0.12630767 -0.02569735 -0.4361574
000060 e4 e4 8b 3e f4 32 26 be ee eb a0 be d4 b3 5c be
       0.27323067 -0.16230375 -0.3143 -0.21552974
000070 10 ae bd bd 88 3f dc 3d 76 2c 0a 3e 52 af 25 3e
       -0.092617154 0.10754305 0.13493523 0.1618016
000080 ed c5 bb 3e ee ae 0b 3e 58 d6 26 3e cc 9c 1b 3e
       0.36674443 0.13640949 0.16292703 0.15196532
000090 b2 ad 0a 3e 9c c4 22 3e aa d5 da be a0 81 75 3c
       0.13542822 0.15895313 -0.42741138 0.014984518
0000a0 30 ce c5 bd e8 7f 8b bd 84 17 d6 be b8 fc 9f 3e
       -0.09658468 -0.068115056 -0.41814816 0.31247497
0000b0 18 a6 24 be 88 de 95 be 5c 63 48 be 9c a9 16 be
       -0.16078985 -0.2927134 -0.19569153 -0.14713138
0000c0 a2 5c 19 3e 38 70 fe 3d 62 22 1a 3e 5e 8c ab 3e
       0.14976743 0.12423748 0.15052179 0.3350553
0000d0 96 fc 13 3e 04 d2 1f 3e 16 a1 0c 3e 0e 31 1a 3e
       0.14451823 0.15607458 0.13733324 0.15057775
0000e0 70 2f 06 3e 84 fa d6 be 20 df 88 bc 60 76 5c bd
       0.13104033 -0.41988003 -0.016707957 -0.05382383
0000f0 c0 ee d0 bc 22 06 e1 be d2 9c 60 3e 54 7f 30 be
       -0.02550447 -0.4394999 0.21934822 -0.17236072
000100 ee 3b 88 be 2c 51 4d be 70 9b c0 bd 54 13 05 3e
       -0.26608223 -0.20050496 -0.09404647 0.12995654
000110 f8 b6 16 3e e8 d1 f7 3d 2a 4b b5 3e 8a 75 15 3e
       0.14718235 0.12100583 0.35408908 0.14595619
000120 88 a0 1c 3e 2e 8e 18 3e 40 95 05 3e 1c cf 0d 3e
       0.15295613 0.14897987 0.13045216 0.13848537
000130 c2 a3 d2 be 80 6d 7e bc 40 79 fe bd e0 72 8a bd
       -0.41140562 -0.0155290365 -0.1242547 -0.06760192
000140 58 8a db be 9f 08 88 3e bc ef 1a be b8 bd 8f be
       -0.42878985 0.26569077 -0.15130514 -0.2807443
000150 98 34 35 be f0 3a c8 bd 08 0c 0c 3e 98 9c e2 3d
       -0.17695844 -0.097768664 0.13676465 0.11065024
000160 98 e9 17 3e 9a 5c ba 3e 66 5a 08 3e 80 e7 12 3e
       0.14835203 0.36398774 0.13315734 0.14346123
000170 28 e7 06 3e 24 df 08 3e cc 5f 3f 3e 20 4e df be
       0.13174117 0.13366371 0.18688887 -0.43614292
000180 70 c0 c5 3c 60 5c e2 bd 10 9e 81 bd 74 b5 f4 be
       0.024139613 -0.110527754 -0.06328976 -0.47794688
000190 dd da 8e 3e 40 6c 38 be 5c 0e 9a be e8 8e 30 be
       0.27901354 -0.18010044 -0.3008908 -0.17242014
0001a0 60 f2 f3 bd 22 c7 1c 3e 44 6a 14 3e 62 07 0d 3e
       -0.11911464 0.15310338 0.14493662 0.13772348
0001b0 8c ca bd 3e 32 cc 1c 3e 44 7c 22 3e c0 09 0e 3e
       0.37068594 0.1531227 0.15867716 0.13870907
0001c0 00 01 25 3e 44 86 0e 3e fe 31 dd be 80 3c 85 3b
       0.16113663 0.13918406 -0.43202204 0.00406605
0001d0 28 13 9f bd f0 aa 34 bd a8 0f e4 be f6 ee 81 3e
       -0.07767326 -0.04410833 -0.44543195 0.25377625
0001e0 54 88 0c be aa 1e 94 be 58 af 41 be e8 cd bf bd
       -0.1372388 -0.28929645 -0.18914545 -0.093654454
0001f0 c8 0a 01 3e 2e b7 1e 3e 5e ac 19 3e f3 e0 b3 3e
       0.12601769 0.15499565 0.15007159 0.3513256
000200 10 b1 fa 3d 02 e3 15 3e 28 9d 08 3e 54 aa 04 3e
       0.12240803 0.14637378 0.133412 0.129556
000210 9c d8 0b 3e 30 27 dc be 70 59 3e 3d 1c 39 25 be
       0.13656849 -0.42998648 0.046472013 -0.16135067
000220 70 49 47 bd e8 d2 f1 be 3a fc a0 3e 08 60 24 be
       -0.04865402 -0.4723122 0.31442434 -0.16052258
000230 88 08 95 be 44 d8 3a be 88 aa 0e be 18 eb 13 3e
       -0.2910807 -0.18246561 -0.1393224 0.1444515
000240 e2 33 06 3e ac c0 2c 3e df c0 be 3e 5e 95 0d 3e
       0.13105729 0.16870373 0.37256524 0.1382651
000250 f8 39 1a 3e 62 df 0d 3e be 9f 1a 3e 60 b5 04 3e
       0.15061176 0.13854745 0.151 0.12959814
000260 04 d5 d7 be 00 1c 85 bc 70 83 9c bd a0 2f 43 bd
       -0.42154706 -0.016248703 -0.07642257 -0.04765284
000270 c4 e4 db be 1e 35 6c 3e 98 ea 1b be 24 86 7c be
       -0.42947972 0.23067138 -0.15226209 -0.24660546
000280 a8 66 2b be 40 a7 dd bd 86 0a 16 3e be 45 07 3e
       -0.16738379 -0.10822916 0.14652452 0.13210198
000290 ac df 1d 3e 7a c1 b5 3e a0 12 08 3e 2c 88 0f 3e
       0.15417355 0.35499173 0.13288355 0.14016789
0002a0 38 08 ed 3d 14 71 e7 3d 5a 10 15 3e 1e b1 de be
       0.11573833 0.11300865 0.14557019 -0.43494505
0002b0 00 b8 b6 bc a0 06 f9 bd 20 25 06 bd 5e 2a db be
       -0.022304535 -0.12159467 -0.03275025 -0.4280576
0002c0 0a f9 7c 3e 98 a5 0f be 8c cb 91 be 74 2a 3b be
       0.24704376 -0.14028013 -0.28475606 -0.18277913
0002d0 18 1c 0e be 2c 80 1d 3e ec b3 0c 3e 58 3d 21 3e
       -0.13877904 0.15380925 0.1374051 0.15746057
0002e0 c3 20 b7 3e ba f8 0c 3e da c5 1e 3e 54 4e 12 3e
       0.35767183 0.13766757 0.15505162 0.14287692
0002f0 10 d6 0a 3e ac 8e 25 3e de 2a e8 be 00 b8 e7 3a
       0.13558221 0.16167706 -0.45345205 0.0017678738
000300 48 38 e6 bd 30 23 53 bd 9e 30 f3 be c8 2a 99 3e
       -0.112412035 -0.05154723 -0.4749803 0.29915452
000310 a4 21 1f be 82 76 95 be 9c c4 52 be 40 0a cd bd
       -0.15540177 -0.29191977 -0.20582813 -0.10011721
000320 ec 69 0f 3e 34 23 1d 3e 26 e8 24 3e ab 7a bb 3e
       0.1400525 0.1534546 0.16104183 0.36617026
000330 ee ce 16 3e 80 ad 1f 3e 24 5a 0a 3e b8 19 f7 3d
       0.14727375 0.15593529 0.13510948 0.12065452
000340 50 01 29 3e e2 91 e0 be 00 68 90 ba b8 db e6 bd
       0.16504407 -0.438613 -0.0011017323 -0.11272377
000350 b0 15 09 bd b0 aa d2 be 76 63 6f 3e 84 90 36 be
       -0.03346795 -0.4114585 0.23377785 -0.17828566
000360 4c 65 9c be 5c e8 5a be a0 3a 62 bd 4c 44 27 3e
       -0.30546033 -0.213777 -0.05523169 0.16334647
000370 88 7c 0b 3e 56 4b 14 3e 0e 65 b9 3e 34 ed 0b 3e
       0.13621724 0.14481863 0.3620991 0.13664705
000380 96 d8 1d 3e f0 b8 20 3e 8c 75 01 3e 70 f1 0a 3e
       0.15414652 0.15695548 0.12642497 0.13568664
000390 14 56 df be 50 03 87 3c 08 2c 13 be 70 34 33 bd
       -0.4362036 0.016481072 -0.14372265 -0.04375118
0003a0 68 95 ce be 4e 43 8a 3e bc 54 35 be f6 e1 9b be
       -0.40348363 0.27004474 -0.17708105 -0.30445832
0003b0 c0 88 2e be c8 e9 ed bd d6 39 2b 3e 50 7b fd 3d
       -0.17044353 -0.11616856 0.16721281 0.123770356
0003c0 38 90 1d 3e de bd b4 3e 88 01 19 3e d6 5e 1f 3e
       0.15387046 0.35301107 0.1494199 0.15563521
0003d0 ac 63 0c 3e b8 fb 13 3e c8 77 fe 3d cc 99 e1 be
       0.13709897 0.14451492 0.1242519 -0.4406265
0003e0 c0 25 0a bd 10 bf 63 bd 60 b6 43 bd e4 eb f0 be
       -0.033727407 -0.055602133 -0.04778135 -0.4705497
0003f0 44 03 a4 3e 90 86 1b be 24 64 9f be 3c 3b 5b be
       0.3203374 -0.1518805 -0.3113109 -0.21409315

muA f4 [304, 3]
000000 c0 b3 67 3c 4e f1 87 3d 90 0b 54 bd 70 76 62 3d
       0.014141977 0.06637822 -0.05176884 0.055288732
000010 5a ed 95 bd e8 6c 40 3d 00 e1 d4 3a 56 31 e9 3d
       -0.07320662 0.04697886 0.0016241372 0.11386363
000020 46 a4 99 bd 00 a4 e2 3a 80 98 8f bc 10 c4 13 3d
       -0.07502036 0.0017291307 -0.017528772 0.03607565
000030 a0 d2 79 3c 60 d5 4f bd b0 0c 29 3d fc 30 87 bd
       0.015247971 -0.0507406 0.041271865 -0.0660114
000040 00 4c 10 3c 60 56 a4 bc a0 a5 08 bc 10 c6 88 3c
       0.008807182 -0.020060718 -0.008340269 0.016696006
000050 80 07 0f bb c0 72 93 3b 00 9c c0 ba c0 73 27 3c
       -0.0021824539 0.0044997633 -0.0014694929 0.010220468
000060 70 6e 19 bd d0 52 95 3c b0 75 8f bc 00 3f b2 bc
       -0.037458837 0.018227965 -0.017512172 -0.021758556
000070 50 a8 bb bc 08 26 05 3d 90 6e 35 bd 00 2b 88 3a
       -0.022907406 0.032506973 -0.044294894 0.0010388792
000080 00 70 7d b9 90 f3 8b 3c 10 89 8d 3c d0 ed 20 3d
       -0.00024169683 0.017083913 0.01727727 0.039289296
000090 d0 2d 68 bd a0 14 81 bc c0 65 82 3b d0 df a5 bc
       -0.056684315 -0.015756905 0.0039794147 -0.020248324
0000a0 20 8a c4 3c f0 f5 9f bc c0 cc 79 3c 80 28 3e bd
       0.023991644 -0.019526452 0.01524657 -0.046425343
0000b0 60 2f 07 3d a0 9f 3e bc e8 29 15 3d 38 23 03 bd
       0.033004165 -0.011634737 0.036416918 -0.03201601
0000c0 20 5e 64 3d a0 0a 16 bc 20 60 34 3c d0 7a 34 3d
       0.055753827 -0.009157807 0.011009246 0.044062436
0000d0 80 aa fc 3c 20 6f c0 bc d0 08 f8 3c 20 32 13 bd
       0.03084302 -0.023490489 0.03027764 -0.035936475
0000e0 60 cf ae bc 98 b1 03 3d 10 6a 96 3d bc a0 9a bd
       -0.021339118 0.03215179 0.073444486 -0.07550189
0000f0 f0 78 2d 3d 04 d4 80 bd 88 36 3f 3d 40 76 ad bb
       0.042351663 -0.06290439 0.046682864 -0.0052936375
000100 26 70 bf 3d 88 66 6e bd 00 17 3e bb c0 43 82 bc
       0.093475625 -0.05820325 -0.0029005408 -0.015901446
000110 e0 2a 91 3c 30 69 ab 3c d8 c9 4a bd 70 25 33 3d
       0.01772064 0.02092418 -0.0495089 0.043736875
000120 58 88 69 bd 00 e4 17 3b 50 d7 88 bc 80 52 fa bb
       -0.057014793 0.002317667 -0.016704232 -0.0076392293
000130 50 d5 93 3c 00 eb d4 bb e0 91 c6 3c 80 ab 10 3b
       0.018046051 -0.0064977407 0.02423948 0.0022074878
000140 40 98 18 3c a0 6d 0e bd 00 0a ad 3a 40 4c 22 bc
       0.009313643 -0.034772515 0.0013201833 -0.009905875
000150 90 0d fa bc c0 80 f1 bb 80 df 55 3c e0 04 53 bd
       -0.030524045 -0.0073700845 0.013053775 -0.05151832
000160 00 74 56 3a c0 53 ed 3b 30 eb 81 3c e0 db 82 3c
       0.00081807375 0.00724265 0.015859216 0.015973985
000170 38 db 27 3d 08 67 63 bd 80 31 0e bc 40 1b 83 bb
       0.040980548 -0.05551818 -0.008678794 -0.004001051
000180 20 80 75 bc 30 e1 d8 3c d0 a4 ac bc 60 e0 91 3c
       -0.014984161 0.026474565 -0.021074682 0.017807186
000190 40 47 1c bd 10 ce 04 3d 80 40 de bb b0 a8 22 3d
       -0.038153887 0.03242308 -0.0067825913 0.039711654
0001a0 50 ad fc bc 58 97 57 3d 80 96 4e bc b0 4d 88 3c
       -0.03084436 0.052634567 -0.012609124 0.016638607
0001b0 18 e7 1c 3d 60 1a d8 3c 80 8e a9 bc 10 56 d0 3c
       0.038306326 0.026379764 -0.020697832 0.025431663
0001c0 68 14 05 bd 00 3c a3 bc 00 13 82 3b 54 87 92 3d
       -0.032490164 -0.019926071 0.00396955 0.07154718
0001d0 ac 09 88 bd 90 ba ec 3c 00 34 92 bd a0 fe 4b 3d
       -0.0664247 0.028897554 -0.071388245 0.049803376
0001e0 10 64 fe 3c 58 db 9a 3d 18 b2 5b bd 80 65 36 bb
       0.031053573 0.07561368 -0.05363664 -0.0027831495
0001f0 80 10 54 bb a0 bb d5 3c c0 4d cf 3c 88 42 48 bd
       -0.0032358468 0.026090443 0.025305629 -0.048891574
000200 34 43 22 3d a0 7e 8a bd 40 b4 37 bc 80 a1 04 bc
       0.03961487 -0.06762433 -0.011212409 -0.008095145
000210 80 74 2d bc 00 64 fa 3b 10 bd d4 bc a0 48 6c 3d
       -0.010586858 0.0076413155 -0.025969058 0.057686448
000220 80 e8 2a 3b 00 bc be 3b 20 d6 41 bd 40 95 8e bb
       0.0026078522 0.005820751 -0.047323346 -0.004351288
000230 00 7c 0b ba 50 08 4d bd 00 a6 11 bc 70 e8 8c 3c
       -0.00053209066 -0.050056756 -0.008889675 0.017200679
000240 b8 ce 41 bd 80 81 1f bb 00 05 8e 3b d0 72 c3 3c
       -0.047316283 -0.0024338663 0.004334092 0.023858458
000250 90 b6 82 3c 88 32 0c 3d 98 03 7b bd 80 cd 28 bc
       0.015956193 0.034227878 -0.061282724 -0.010302901
000260 80 42 4d 3b 30 7c ac bc d0 f9 d8 3c c0 30 ad bc
       0.0031320155 -0.021055311 0.026486307 -0.02114141
000270 60 5e 7b 3c d8 83 0f bd a0 21 0d 3d 80 5e 8d bb
       0.015342325 -0.035037845 0.034455895 -0.004314244
000280 a8 44 17 3d e0 63 e2 bc 60 7f 70 3d 80 97 a1 bb
       0.03693071 -0.027635515 0.058715224 -0.0049313903
000290 c0 ef ee 3b 00 a1 46 3d d8 42 00 3d 90 0e b3 bc
       0.007291764 0.048493385 0.031313747 -0.02185753
0002a0 80 17 0d 3d 60 19 f2 bc e0 a1 af bc a0 9e b0 3c
       0.03444624 -0.029553115 -0.021439493 0.021560013
0002b0 be a9 95 3d 98 5d 53 bd 10 b0 07 3d f0 9d 8f bd
       0.073077664 -0.05160293 0.03312689 -0.07012546
0002c0 50 1f 3d 3d a0 c5 cb 3c 3a 08 c1 3d 58 b5 50 bd
       0.04617244 0.024874508 0.09425397 -0.050954193
0002d0 40 3c 88 bb c0 83 e0 bc 80 90 61 3c d0 5f 0e 3d
       -0.004157573 -0.027406573 0.013767362 0.034759343
0002e0 18 b7 42 bd 24 ea 32 3d e4 b8 b5 bd 80 29 3b 3b
       -0.047537893 0.043680325 -0.08873156 0.0028558671
0002f0 60 c6 59 bc a0 90 17 bc 80 ab 7e 3c 00 cd a5 bb
       -0.013291925 -0.00925079 0.0155438185 -0.0050598383
000300 70 06 a1 3c 60 38 69 3c 40 3d 33 3c 50 13 94 bc
       0.01965639 0.014234632 0.010939896 -0.018075615
000310 c0 71 81 3b c0 5a 96 3b d0 07 c9 bc a0 c4 32 bc
       0.0039503276 0.004588455 -0.024539858 -0.010911137
000320 00 b0 96 3a 68 2c 3e bd c0 47 83 bb 00 e0 96 b8
       0.0011496544 -0.046429068 -0.004006356 -7.1942806e-05
000330 60 cb a4 3c 40 cc a2 3c 18 f9 19 3d 9c 08 8a bd
       0.020116508 0.019872785 0.03759107 -0.06739923
000340 40 6e 76 bc 80 e0 16 3b 50 a6 87 bc 40 f5 e2 3c
       -0.015040934 0.0023021996 -0.016558796 0.027704835
000350 50 1f c7 bc 40 bc 54 3c e0 7a 19 bd b0 24 f2 3c
       -0.024306923 0.012984335 -0.0374707 0.02955851
000360 60 82 38 bc 78 46 16 3d f0 c1 f2 bc dc e7 4d 3d
       -0.011261553 0.036688298 -0.029633492 0.050269946
000370 60 04 6d bc 60 7e 73 3c e8 ca 24 3d 60 b2 c7 3c
       -0.014466375 0.014861673 0.04023257 0.024377048
000380 60 79 83 bc 40 1a de 3c f0 17 ea bc a0 a2 d9 bc
       -0.016049087 0.027112126 -0.028575867 -0.026566803
000390 50 22 dd 3c b0 ea 48 3d d8 96 83 bd f8 5b 53 3d
       0.0269939 0.04905194 -0.064252555 0.05160138
0003a0 38 75 4f bd 58 90 3a 3d 14 f5 03 3d 14 02 c4 3d
       -0.050648898 0.045547813 0.032216147 0.09570709
0003b0 1a 53 8c bd c0 19 ff bb 00 ee c7 bc d0 3f a7 3c
       -0.06851788 -0.007785052 -0.02440548 0.02041617
0003c0 30 10 d9 3c a8 fb 6e bd 88 64 44 3d 6c a9 a7 bd
       0.026496977 -0.058345467 0.047947437 -0.081866115
0003d0 80 f2 1f 3c 50 f8 96 bc e0 6e 58 bc 60 1f 8c 3c
       0.009762406 -0.018428952 -0.013210028 0.017104805
0003e0 b0 5e 86 3c 30 0c a2 3c e0 de 0b bc 00 3e 2d bb
       0.016402572 0.019781202 -0.008537024 -0.002643466
0003f0 58 68 0a bd d0 84 cb 3c 20 65 5e bc 80 eb 0e bc
       -0.033790916 0.024843603 -0.013573915 -0.00872314

quadA f4 [304, 3, 3]
000000 a1 2c 06 3d 00 4f 75 ba 40 87 5c bb 00 4f 75 ba
       0.032757405 -0.000935778 -0.0033649951 -0.000935778
000010 76 e1 b7 bc f0 15 54 3d 40 87 5c bb f0 15 54 3d
       -0.022446375 0.051778734 -0.0033649951 0.051778734
000020 9c ef 28 bc c8 3f 89 bd 50 78 a6 3c 74 82 17 bd
       -0.010311034 -0.067016184 0.020321041 -0.036989644
000030 50 78 a6 3c 40 99 79 3b f2 8b bf 3d 74 82 17 bd
       0.020321041 0.003808573 0.09352864 -0.036989644
000040 f2 8b bf 3d 00 73 81 3d fe 44 85 bd 98 1d 34 3d
       0.09352864 0.06320763 -0.065073 0.043973535
000050 c8 bd 27 bd 98 1d 34 3d 58 5a bc 3c d0 12 18 3d
       -0.040952474 0.043973535 0.022992298 0.037127316
000060 c8 bd 27 bd d0 12 18 3d d0 5c 2c 3d 99 5c 17 be
       -0.040952474 0.037127316 0.0420807 -0.14781417
000070 a0 74 cd 3c c0 e8 53 bd a0 74 cd 3c d4 15 81 3d
       0.025080025 -0.05173564 0.025080025 0.063029915
000080 50 65 a5 3d c0 e8 53 bd 50 65 a5 3d 60 a3 ad 3d
       0.080759645 -0.05173564 0.080759645 0.08478427
000090 5e aa d8 bc 08 ae dc 3c 98 0a bd bc 08 ae dc 3c
       -0.026448425 0.026938453 -0.02307634 0.026938453
0000a0 00 92 a3 38 fc 9f 1a 3d 98 0a bd bc fc 9f 1a 3d
       7.79964e-05 0.03775023 -0.02307634 0.03775023
0000b0 ca 06 d8 3c 3c 58 14 bd 88 db b8 bc 00 fa 55 ba
       0.026370425 -0.03621696 -0.022565618 -0.0008162558
0000c0 88 db b8 bc 00 4e cb bb e8 2a e1 3d 00 fa 55 ba
       -0.022565618 -0.0062043667 0.10994512 -0.0008162558
0000d0 e8 2a e1 3d fc c1 2d 3d 7a dc e5 bd 30 ac 3d bc
       0.10994512 0.042421326 -0.11223693 -0.011576697
0000e0 40 e6 dc bb 30 ac 3d bc 7c 9a 07 3d 6e 18 b3 3d
       -0.006741315 -0.011576697 0.033106312 0.08744894
0000f0 40 e6 dc bb 6e 18 b3 3d 3e 0f a2 3d b1 f6 09 be
       -0.006741315 0.08744894 0.079130635 -0.13473012
000100 c0 60 c9 bc 30 80 8a bc c0 60 c9 bc b4 73 48 3d
       -0.024582267 -0.016906828 -0.024582267 0.048938468
000110 3a 95 9c 3d 30 80 8a bc 3a 95 9c 3d 8a b3 af 3d
       0.0764565 -0.016906828 0.0764565 0.08579166
000120 48 f9 b2 bc fc 27 27 bd e0 3e c6 3c fc 27 27 bd
       -0.021847382 -0.040809616 0.024199903 -0.040809616
000130 80 2a e5 bc 40 56 fd 3d e0 3e c6 3c 40 56 fd 3d
       -0.027974367 0.123699665 0.024199903 0.123699665
000140 e4 11 4c 3d ba d2 9f bd 00 07 2f 3d 80 32 73 bd
       0.04982175 -0.07803865 0.042731285 -0.059374332
000150 00 07 2f 3d 30 df 7e 3c 9a 0d de 3d 80 32 73 bd
       0.042731285 0.015556142 0.10842438 -0.059374332
000160 9a 0d de 3d a4 ed 7f 3d f0 5d 05 bc 00 c5 f2 ba
       0.10842438 0.06248249 -0.008140072 -0.0018521845
000170 00 76 bb 3a 00 c5 f2 ba e0 2e c8 3b 20 f1 fa bb
       0.0014302135 -0.0018521845 0.0061091036 -0.007658139
000180 00 76 bb 3a 20 f1 fa bb 00 1a 05 3b ab 54 41 bb
       0.0014302135 -0.007658139 0.0020309687 -0.002949993
000190 80 09 6e 3b 40 6a 74 bb 80 09 6e 3b 4a 01 e3 3b
       0.003632158 -0.0037294775 0.003632158 0.006927644
0001a0 00 12 84 bb 40 6a 74 bb 00 12 84 bb f6 56 82 bb
       -0.004030466 -0.0037294775 -0.004030466 -0.0039776517
0001b0 20 bd 9f bb e0 0b 07 3c 40 9e 96 bb e0 0b 07 3c
       -0.0048748404 0.008242577 -0.0045965016 0.008242577
0001c0 80 e7 f0 3b e0 80 67 bc 40 9e 96 bb e0 80 67 bc
       0.0073518157 -0.014129847 -0.0045965016 -0.014129847
0001d0 c0 54 22 bb 20 3e 42 3c 40 c2 5a 3b 00 c9 0a ba
       -0.0024769753 0.011855632 0.0033379942 -0.00052942336
0001e0 40 c2 5a 3b c0 4a a2 bb 40 2b 14 bb 00 c9 0a ba
       0.0033379942 -0.0049527586 -0.0022608787 -0.00052942336
0001f0 40 2b 14 bb 80 31 e2 bb 0a 7c 7b 3c c0 f3 b4 3b
       -0.0022608787 -0.0069028735 0.015349397 0.0055222213
000200 00 95 c6 ba c0 f3 b4 3b cb 51 fe bb 00 9c c6 3a
       -0.0015150607 0.0055222213 -0.0077612153 0.0015152693
000210 00 95 c6 ba 00 9c c6 3a 4b a6 f8 bb 35 25 38 3c
       -0.0015150607 0.0015152693 -0.007588183 0.01123934
000220 00 7e c3 3b 00 d7 ee ba 00 7e c3 3b d6 eb 95 bb
       0.005965948 -0.0018222034 0.005965948 -0.004575233
000230 80 c7 0b bb 00 d7 ee ba 80 c7 0b bb 96 5e da bb
       -0.0021328628 -0.0018222034 -0.0021328628 -0.0066641076
000240 50 a2 34 ba 60 19 ca 3b 40 cc 52 bb 60 19 ca 3b
       -0.00068906415 0.0061675757 -0.00321652 0.0061675757
000250 ec be 5e 3b 70 ee 11 bc 40 cc 52 bb 70 ee 11 bc
       0.003398831 -0.008906946 -0.00321652 -0.008906946
000260 54 96 31 bb 6a 07 9c 3b 60 87 08 bc 60 f6 0f 3c
       -0.002709766 0.004761626 -0.008333057 0.008786768
000270 60 87 08 bc d8 e9 c8 ba 40 ea cf bb 60 f6 0f 3c
       -0.008333057 -0.001532848 -0.0063450634 0.008786768
000280 40 ea cf bb ec 99 53 bb ab 99 eb ba f0 7e 05 3c
       -0.0063450634 -0.003228779 -0.0017974874 0.00814794
000290 c0 75 2d bb f0 7e 05 3c 2b f6 80 bb 20 bf d6 bb
       -0.002646789 0.00814794 -0.0039355955 -0.0065535456
0002a0 c0 75 2d bb 20 bf d6 bb 95 dc bb 3b 1f 19 1a 3d
       -0.002646789 -0.0065535456 0.0057330825 0.037621614
0002b0 80 75 fd 3b 70 6c 10 bc 80 75 fd 3b a1 e7 25 bd
       0.0077349544 -0.008814916 0.0077349544 -0.0405041
0002c0 c8 00 8f 3d 70 6c 10 bc c8 00 8f 3d 30 e8 3c 3b
       0.06982571 -0.008814916 0.06982571 0.0028824918
0002d0 42 70 b8 bd 80 4a f4 3c 90 bb 24 bd 80 4a f4 3c
       -0.090057865 0.02982068 -0.040217936 0.02982068
0002e0 78 9e bf 3c 0a e4 a1 3d 90 bb 24 bd 0a e4 a1 3d
       0.023390993 0.07904823 -0.040217936 0.07904823
0002f0 a6 88 88 3d 2c 61 a1 bd 00 6b 37 3d 58 37 21 bd
       0.066666886 -0.07879862 0.044779778 -0.03935942
000300 00 6b 37 3d 09 fe 20 3d 00 48 51 3c 58 37 21 bd
       0.044779778 0.039304767 0.012773514 -0.03935942
000310 00 48 51 3c 4d c4 21 3d 41 f7 01 be 80 6d b9 3b
       0.012773514 0.039493848 -0.12691976 0.0056588054
000320 78 e6 20 bd 80 6d b9 3b 3c dc 40 3d 5c 23 d4 3d
       -0.039282292 0.0056588054 0.047085032 0.10358307
000330 78 e6 20 bd 5c 23 d4 3d 62 80 a3 3d ad 12 21 bd
       -0.039282292 0.10358307 0.079834715 -0.03932445
000340 b8 bd 8f 3c 98 17 8e bc b8 bd 8f 3c 4c 39 61 3c
       0.01754652 -0.017345235 0.01754652 0.013746571
000350 90 7d e1 3c 98 17 8e bc 90 7d e1 3c b6 88 d1 3c
       0.027525693 -0.017345235 0.027525693 0.025577884
000360 b8 bc 9b bc 90 00 86 bc 00 1e 9d bb 90 00 86 bc
       -0.019010887 -0.01635769 -0.004794836 -0.01635769
000370 68 d7 99 bc 08 ad e2 3d 00 1e 9d bb 08 ad e2 3d
       -0.018779472 0.11068159 -0.004794836 0.11068159
000380 14 ca 1a 3d ea 79 0b be 80 fa 41 bc 20 30 97 bc
       0.037790373 -0.13620725 -0.011839509 -0.018455565
000390 80 fa 41 bc 68 1f 6a 3d 24 9c 9b 3d 20 30 97 bc
       -0.011839509 0.057158858 0.07598141 -0.018455565
0003a0 24 9c 9b 3d 20 e4 a1 3d 72 da e1 bd e8 cf c0 bc
       0.07598141 0.079048395 -0.11027993 -0.023536637
0003b0 c0 26 cb bb e8 cf c0 bc e4 a4 01 3d c8 f7 90 3d
       -0.0061996877 -0.023536637 0.031651393 0.070785105
0003c0 c0 26 cb bb c8 f7 90 3d fe 07 a1 3d 00 c4 31 ba
       -0.0061996877 0.070785105 0.078628525 -0.00067812204
0003d0 60 a4 ab bc a0 26 15 3c 60 a4 ab bc e0 99 00 bd
       -0.020952404 0.009103447 -0.020952404 -0.031396747
0003e0 82 26 05 3e a0 26 15 3c 82 26 05 3e f0 60 03 3d
       0.13002971 0.009103447 0.13002971 0.03207487
0003f0 74 7f 69 bd a4 aa 65 3d d8 8b 74 bd a4 aa 65 3d
       -0.057006314 0.05607094 -0.059703678 0.05607094

hfvrA f4 [304, 1]
000000 be 8d 89 3f 2a b7 67 3f 84 45 74 3f 63 01 65 3f
       1.0746381 0.9051386 0.9541857 0.8945524
000010 bf 94 8e 3f 62 08 43 3f c4 d7 79 3f 04 ee 82 3f
       1.1139144 0.76184666 0.9759486 1.0228887
000020 56 6d 82 3f 8b 06 76 3f ec 16 9b 3e cc f9 a7 3e
       1.0189617 0.96103734 0.30290926 0.32807767
000030 36 57 a4 3e 24 45 40 3e 5e b8 ca 3e 72 87 ab 3e
       0.32097787 0.18776375 0.39593786 0.33501774
000040 ba 5e a7 3e b2 44 b8 3e b2 7b c0 3e 31 3f 8c 3f
       0.32689458 0.3598991 0.37594372 1.0956784
000050 b2 eb 61 3f d3 94 7e 3f d8 c6 5a 3f 0f 73 90 3f
       0.8825027 0.9944584 0.8545966 1.1285113
000060 cc 47 40 3f 15 ae 7d 3f 8c 7e 88 3f 36 e3 82 3f
       0.75109553 0.99093753 1.0663619 1.0225589
000070 4e c9 6f 3f 36 40 e6 3e 80 d5 b7 3e 22 02 91 3e
       0.9366654 0.44970864 0.35905075 0.2832194
000080 b8 8f 36 3e e4 f9 ad 3e 06 7c a4 3e f8 91 a3 3e
       0.17828262 0.33979714 0.32125872 0.31947303
000090 ae 62 a7 3e d8 13 9e 3e 5e af 8c 3f 28 61 5b 3f
       0.32692474 0.30874515 1.0991018 0.85695124
0000a0 f3 d9 7a 3f 2c 09 68 3f 69 0c 90 3f f0 d6 39 3f
       0.97988814 0.90638995 1.1253787 0.72593594
0000b0 4f 14 7b 3f 06 c0 81 3f c0 fd 83 3f 24 9d 81 3f
       0.98077863 1.0136726 1.0311813 1.012608
0000c0 1e 40 a9 3e 4c f0 c5 3e 6e 47 a9 3e 18 41 59 3e
       0.3305673 0.38659894 0.3306231 0.21216238
0000d0 78 ae a0 3e 76 0e a7 3e d4 2c c3 3e b8 80 a8 3e
       0.3138311 0.3262822 0.3812014 0.32910705
0000e0 06 62 c4 3e 84 c1 8a 3f aa 24 62 3f 26 ef 7a 3f
       0.38356036 1.0840306 0.88337195 0.9802116
0000f0 46 a6 5c 3f 6d ea 8f 3f 60 c8 47 3f 4c e2 79 3f
       0.86191213 1.1243416 0.78040123 0.97610927
000100 bb 0c 82 3f 6d 73 7f 3f de 6f 6a 3f 78 3c bc 3e
       1.0160135 0.997855 0.91576946 0.36764884
000110 0a 10 ac 3e 10 6a d5 3e 2c 81 4c 3e de c1 98 3e
       0.33605987 0.41682482 0.1997115 0.2983541
000120 ee ae a2 3e 0c 04 9b 3e 48 a0 aa 3e a8 20 b5 3e
       0.31774086 0.30276525 0.3332541 0.35376477
000130 12 08 8d 3f 2d cf 69 3f 71 de 80 3f e6 bc 68 3f
       1.1018088 0.9133175 1.0067884 0.90913236
000140 a5 d4 8e 3f da 63 43 3f fd 3d 7a 3f 98 33 84 3f
       1.1158644 0.76324236 0.97750837 1.0328245
000150 80 b0 7d 3f 7a cb 6c 3f ae 3c b7 3e 12 47 e2 3e
       0.9909744 0.9249798 0.35788482 0.44194847
000160 d0 28 b0 3e 38 a6 37 3e 72 69 b3 3e 76 3b b4 3e
       0.34406137 0.17934501 0.35041386 0.35201615
000170 e2 6b b0 3e 54 8e a7 3e 2c c9 8b 3e 38 e6 8c 3f
       0.34457308 0.32725775 0.2730192 1.1007757
000180 a8 2e 5b 3f f5 46 7e 3f 5a f1 67 3f 7e 36 94 3f
       0.85618067 0.9932702 0.9060265 1.157913
000190 46 9d 41 3f e2 ee 80 3f 12 ec 88 3f 2e 7a 81 3f
       0.75630605 1.0072901 1.0697043 1.0115411
0001a0 18 41 76 3f 3a 65 aa 3e 8a 90 b3 3e 1c 67 bb 3e
       0.96193075 0.33280355 0.35071212 0.36602104
0001b0 d8 50 34 3e ac 16 a3 3e ba 7d a5 3e 56 60 b1 3e
       0.17608964 0.31853235 0.32322484 0.3464381
0001c0 e6 ad 92 3e 16 11 b9 3e c8 42 8d 3f c2 ed 61 3f
       0.286483 0.36145848 1.1036005 0.88253415
0001d0 22 52 76 3f fe 04 59 3f 56 82 91 3f c6 ae 3f 3f
       0.96219075 0.8477324 1.13679 0.7487606
0001e0 aa 83 74 3f 22 a3 84 3f ec 84 80 3f b8 cf 6b 3f
       0.95513403 1.0362284 1.0040565 0.9211383
0001f0 48 0f c7 3e 96 0b a7 3e 5c 05 a6 3e 14 98 4a 3e
       0.38878846 0.32626027 0.32425964 0.19784576
000200 66 3d bf 3e c6 03 b3 3e d6 f9 b8 3e 34 9a ad 3e
       0.3735153 0.34963816 0.3612811 0.3390671
000210 2e bb c0 3e 89 c4 8c 3f 27 c4 5a 3f cf 77 84 3f
       0.37642807 1.0997478 0.85455555 1.0349063
000220 23 1e 5e 3f fa ae 91 3f 70 dd 39 3f 18 57 7b 3f
       0.86764735 1.1381524 0.7260351 0.9817977
000230 07 88 85 3f 49 1d 82 3f a1 89 7a 3f ca f6 aa 3e
       1.0432137 1.0165187 0.97866255 0.3339141
000240 d0 5a c5 3e 8a d6 a1 3e e4 9f 26 3e 4a 92 ac 3e
       0.38545847 0.31608993 0.16271931 0.3370536
000250 be a2 ab 3e 4e 06 b1 3e ac 72 9f 3e b4 66 c5 3e
       0.335226 0.34575123 0.31142175 0.3855492
000260 ee d1 8a 3f 22 4a 6d 3f d7 d5 79 3f 72 59 63 3f
       1.0845315 0.9269124 0.9759192 0.8880836
000270 33 20 8f 3f 00 09 47 3f 72 10 71 3f 71 b6 7f 3f
       1.1181701 0.7774811 0.9416572 0.9988776
000280 41 25 7f 3f 6a 12 74 3f 64 d9 a5 3e 46 50 c6 3e
       0.9966622 0.953406 0.32392418 0.3873312
000290 92 98 a5 3e f4 5d 45 3e 66 65 ab 3e ea b0 b4 3e
       0.32342964 0.19274122 0.33475798 0.35291225
0002a0 50 7f c9 3e bc cc ce 3e 28 41 aa 3e ea 3b 8c 3f
       0.39354944 0.40390575 0.33252835 1.0955784
0002b0 7e 9c 6b 3f ae 95 80 3f 05 d4 5c 3f 0d 3e 91 3f
       0.92035663 1.0045679 0.86261016 1.1347061
0002c0 4a 33 44 3f 09 d2 72 3f 54 ff 83 3f a1 e6 81 3f
       0.7664076 0.9485174 1.0312295 1.0148507
0002d0 8b 3a 7f 3f 68 41 a3 3e 60 d7 bc 3e 3e f4 a3 3e
       0.99698704 0.31885839 0.36883068 0.3202228
0002e0 94 ee 4a 3e 12 ba a6 3e a2 c0 a5 3e 96 4c af 3e
       0.19817573 0.32563835 0.3237353 0.34238118
0002f0 be 05 b2 3e 58 53 9d 3e a6 56 8f 3f 3b 99 66 3f
       0.34770006 0.3072765 1.1198318 0.9007756
000300 ef 83 7d 3f 5a 2d 65 3f 32 23 94 3f 65 76 3c 3f
       0.9902944 0.89522326 1.1573241 0.73618156
000310 64 32 7e 3f 5f 84 80 3f 58 e6 83 3f b7 cd 78 3f
       0.9929564 1.0040396 1.030467 0.97188896
000320 d4 18 bb 3e 08 61 ad 3e 08 b8 8f 3e d4 51 34 3e
       0.3654238 0.3386309 0.28070092 0.1760934
000330 1a 6c a8 3e 5e 3d a3 3e 42 57 c3 3e 96 fa c5 3e
       0.32894975 0.31882757 0.3815251 0.38667744
000340 a6 a5 a2 3e 62 4b 8c 3f b0 a2 5f 3f 97 51 7d 3f
       0.31767005 1.0960505 0.87357616 0.9895262
000350 ce ad 5d 3f 72 e8 8d 3f ba ca 45 3f 34 27 82 3f
       0.8659333 1.1086562 0.7726246 1.0168214
000360 b3 16 88 3f f2 c8 81 3f 95 b2 66 3f 12 a6 95 3e
       1.0631927 1.0139449 0.90116245 0.29228264
000370 9a f5 bb 3e e2 a4 ac 3e 94 54 3b 3e f6 f5 b1 3e
       0.36710817 0.33719546 0.18293983 0.34757966
000380 42 df ad 3e 3a f4 9a 3e c0 84 a8 3e 08 e4 bb 3e
       0.33959395 0.30264455 0.3291378 0.36697412
000390 5d ba 8e 3f 5c 60 62 3f 2f 54 81 3f 42 3b 65 3f
       1.1150624 0.8842828 1.0103816 0.89543545
0003a0 d7 18 8e 3f b4 71 41 3f 1f ee 7f 3f 57 a8 87 3f
       1.110133 0.7556412 0.9997272 1.0598248
0003b0 d1 78 7d 3f a8 65 75 3f 3a 03 95 3e 52 15 d1 3e
       0.99012476 0.9585824 0.29104024 0.4083658
0003c0 f2 c6 a3 3e 90 23 5b 3e 6a 76 a2 3e cc fe a5 3e
       0.3198772 0.21400285 0.31730968 0.32420957
0003d0 1e 28 ac 3e d0 15 9f 3e b0 f4 d1 3e 18 28 8c 3f
       0.33624357 0.3107133 0.41006994 1.0949736
0003e0 6f 6b 6a 3f 3e 68 72 3f c3 7a 5b 3f dc ae 94 3f
       0.9157018 0.9469031 0.85734195 1.1615863
0003f0 7c c3 32 3f e7 bd 7f 3f a7 72 83 3f c8 0a 82 3f
       0.69829535 0.99899143 1.0269364 1.015954

vwA f4 [304, 1]
000000 c9 cc 03 3f 15 6d 00 3f fe 79 02 3f 6f 07 00 3f
       0.5148435 0.50166446 0.50967395 0.5001134
000010 42 fe e3 3e ec b6 f8 3e 4d 1c 02 3f 2c 97 03 3f
       0.4452992 0.48577058 0.50824434 0.51402545
000020 35 d2 03 3f 36 4a 02 3f 55 32 be 3e 24 4a c2 3e
       0.51492625 0.50894487 0.37147775 0.3794719
000030 99 1d c1 3e 01 0b b2 3e 2c 27 cd 3e 5d 9a c5 3e
       0.37717894 0.3477402 0.40068948 0.38594332
000040 92 19 c3 3e 9b ca c7 3e f2 48 ca 3e 75 55 04 3f
       0.38105446 0.39021763 0.39508778 0.516929
000050 68 d4 fe 3e bd e6 02 3f 1e e5 fc 3e 16 4e e5 3e
       0.49771428 0.5113333 0.49393553 0.44786137
000060 c1 28 f8 3e 44 c0 02 3f 16 08 05 3f ae 14 04 3f
       0.48468593 0.51074624 0.51965463 0.51594055
000070 f9 8c 01 3f 0b 8d d1 3e 0b 0b c7 3e 08 99 b9 3e
       0.5060573 0.4092792 0.38875613 0.36249566
000080 ea 60 b0 3e 07 89 c5 3e ea 0a c2 3e d1 a5 c1 3e
       0.3444894 0.38581106 0.37898952 0.3782182
000090 12 e2 c0 3e 74 e2 be 3e 5b d8 04 3f 7c 14 fe 3e
       0.37672478 0.37282145 0.5189263 0.49625003
0000a0 28 4e 03 3f a0 78 00 3f f9 12 e5 3e bf f3 f5 3e
       0.5129113 0.5018406 0.44741037 0.48037526
0000b0 ac 73 02 3f eb 61 03 3f 21 88 04 3f 32 0c 04 3f
       0.5095775 0.51321286 0.51770216 0.5158111
0000c0 47 b1 c3 3e dd 3f ca 3e 50 c5 c3 3e c1 72 b7 3e
       0.3822119 0.3950185 0.38236475 0.35829738
0000d0 f0 96 c0 3e 13 fd c3 3e a8 d9 cb 3e 24 c9 c3 3e
       0.37615156 0.38279018 0.39814496 0.38239396
0000e0 c7 19 cb 3e e5 29 04 3f 86 5b ff 3e 6b 92 03 3f
       0.39668104 0.51626426 0.49874514 0.5139529
0000f0 5e 3f fd 3e 3c 68 e5 3e f7 7d fa 3e d4 6c 02 3f
       0.49462408 0.44806087 0.4892423 0.5094731
000100 e0 23 03 3f 43 fe 02 3f 86 c7 00 3f 91 bb c8 3e
       0.51226616 0.5116922 0.5030445 0.39205602
000110 b7 7e c3 3e a4 95 d0 3e b4 4f b5 3e bc 23 bd 3e
       0.38182613 0.40739167 0.3541237 0.36941326
000120 5d 85 c1 3e 99 0e be 3e 5d f5 c1 3e 56 75 c6 3e
       0.3779706 0.37120512 0.3788251 0.38761395
000130 c0 74 04 3f 3e 00 01 3f c9 bf 03 3f e0 b9 00 3f
       0.51740646 0.50390995 0.51464516 0.5028362
000140 82 cc e4 3e 5e 13 f9 3e 3d 0b 02 3f a9 e7 03 3f
       0.44687277 0.48647588 0.507984 0.5152536
000150 c3 a5 02 3f 00 02 01 3f 51 72 c8 3e 97 97 d1 3e
       0.5103418 0.50393677 0.39149716 0.40935966
000160 ef b1 c5 3e 76 cd af 3e c8 b5 c6 3e 20 a0 c7 3e
       0.38612315 0.34336442 0.38810563 0.38989353
000170 04 6f c5 3e d5 19 c1 3e 2c 91 b9 3e 8d 29 05 3f
       0.3856126 0.3771502 0.3624357 0.52016526
000180 e1 34 fe 3e 53 6f 03 3f fd 54 00 3f 72 70 e6 3e
       0.49649718 0.5134174 0.5012968 0.45007664
000190 3d 49 f8 3e 12 75 03 3f 18 27 05 3f 07 c4 03 3f
       0.48493376 0.5135051 0.5201278 0.5147099
0001a0 a0 4b 02 3f 18 b2 c3 3e 04 99 c6 3e 46 58 c8 3e
       0.50896645 0.38221812 0.38788617 0.39129847
0001b0 d6 6e ae 3e b1 7b c1 3e 65 46 c2 3e 7d 1a c6 3e
       0.34068936 0.37789682 0.37944332 0.38692084
0001c0 3c 21 ba 3e bf 2b c8 3e fd 17 05 3f 3f 4a ff 3e
       0.3635348 0.39095876 0.5198973 0.49861333
0001d0 cd c5 02 3f f6 8f fc 3e 5c 93 e5 3e 5e f2 f7 3e
       0.5108307 0.49328583 0.4483899 0.484271
0001e0 7a 82 01 3f 67 fb 03 3f 82 38 03 3f a0 e8 00 3f
       0.50589716 0.51555485 0.512581 0.5035496
0001f0 06 5d cc 3e 0a d6 c2 3e 2d d9 c1 3e 5a 55 b5 3e
       0.3991472 0.38053924 0.37861004 0.3541668
000200 fe 65 c8 3e 62 6c c6 3e 5c 09 c9 3e c4 3f c3 3e
       0.39140314 0.38754565 0.39264953 0.38134587
000210 84 2f ca 3e 19 ce 04 3f 87 06 fe 3e d3 00 05 3f
       0.39489377 0.5187698 0.49614355 0.5195438
000220 d2 16 fe 3e a2 b5 e5 3e 4c e0 f5 3e f7 6d 02 3f
       0.49626786 0.44865137 0.48022687 0.50949043
000230 2f 2f 04 3f 90 cc 03 3f 56 e2 02 3f 8d 8a c4 3e
       0.51634496 0.5148401 0.5112661 0.38386956
000240 66 c3 ca 3e b1 13 c2 3e 79 df aa 3e b5 03 c5 3e
       0.39602202 0.37905648 0.3337362 0.3847939
000250 87 f9 c4 3e 42 81 c6 3e 85 a4 bf 3e f2 7f ca 3e
       0.38471624 0.3877049 0.37430206 0.3955074
000260 8b 3b 04 3f 4f e1 01 3f 1e 65 03 3f 19 e7 ff 3e
       0.51653355 0.5073442 0.5132617 0.49981
000270 c8 5e e5 3e 9e aa fa 3e e0 09 01 3f e7 8a 02 3f
       0.44798875 0.48958296 0.50405693 0.509932
000280 ba f7 02 3f 9f eb 01 3f 06 89 c2 3e 28 77 cc 3e
       0.5115925 0.50750154 0.37995166 0.3993466
000290 a8 46 c2 3e b3 2b b3 3e d5 83 c4 3e 2b d0 c8 3e
       0.3794453 0.34994277 0.3838183 0.3922132
0002a0 ee cb cd 3e 95 03 ce 3e 31 71 c3 3e 32 bc 04 3f
       0.40194649 0.40237108 0.38172296 0.51849663
0002b0 e0 38 01 3f 6f f4 03 3f 37 fd fd 3e ce c0 e5 3e
       0.5047741 0.5154485 0.4960725 0.4487366
0002c0 d2 bd f9 3e b7 42 01 3f 61 f4 03 3f 9c b4 03 3f
       0.48777634 0.50492424 0.5154477 0.51447463
0002d0 21 9b 03 3f 8d 56 c2 3e ff 69 c9 3e b7 9b c2 3e
       0.5140858 0.37956658 0.3933868 0.38009426
0002e0 c9 f8 b4 3e 11 10 c3 3e ed 2b c2 3e 3e 88 c5 3e
       0.35346058 0.38098195 0.37924138 0.38580507
0002f0 5c 9c c6 3e f6 40 bf 3e fd 35 06 3f 61 c6 00 3f
       0.38791168 0.3735425 0.5242613 0.503027
000300 15 12 03 3f 4d ff ff 3e b0 89 e6 3e 2f f4 f6 3e
       0.51199466 0.49999467 0.45026922 0.48233172
000310 54 e7 02 3f 0c 82 02 3f f2 62 04 3f b2 a0 02 3f
       0.5113423 0.50979686 0.5171348 0.5102645
000320 83 39 ca 3e eb ae c4 3e 56 ac b9 3e 6c 4c af 3e
       0.39497003 0.38414702 0.36264294 0.34237993
000330 02 93 c3 3e 5c c2 c1 3e 68 79 cc 3e fe b8 cb 3e
       0.38198096 0.37843597 0.39936376 0.39789575
000340 8a 34 c1 3e b9 c2 04 3f 7a e9 fe 3e 0f 53 03 3f
       0.37735397 0.51859623 0.49787503 0.5129861
000350 10 b6 fd 3e 00 0f e4 3e a0 86 f9 3e b9 e3 03 3f
       0.49552965 0.44542694 0.48735523 0.5151935
000360 b4 e9 04 3f 88 6d 03 3f b3 10 00 3f f2 33 bd 3e
       0.519191 0.51339006 0.5002548 0.36953694
000370 d3 7e c8 3e 5f 99 c5 3e 90 e6 b0 3e ca 83 c6 3e
       0.3915926 0.38593575 0.34550905 0.38772422
000380 29 27 c5 3e 18 c4 be 3e a1 80 c1 3e 69 eb c7 3e
       0.3850644 0.37258983 0.3779345 0.3904679
000390 0d c1 05 3f 96 08 00 3f de 19 04 3f 4a 1b 00 3f
       0.522477 0.500131 0.5160197 0.5004164
0003a0 bd 81 e4 3e 72 3b f8 3e 10 36 03 3f a2 b1 04 3f
       0.44630232 0.48482853 0.5125437 0.51833546
0003b0 39 cf 02 3f 08 25 02 3f 0f 61 bd 3e 3a 78 ce 3e
       0.51097447 0.50837755 0.36988112 0.403261
0003c0 23 1b c3 3e af 5c b7 3e fb a4 c1 3e b7 5e c2 3e
       0.3810664 0.358129 0.37821183 0.37962887
0003d0 29 fa c2 3e b5 78 be 3e c1 e6 ce 3e 4a 0b 05 3f
       0.38081482 0.37201467 0.40410426 0.5197035
0003e0 1a 2c 01 3f f8 42 02 3f 71 32 fd 3e 38 df e6 3e
       0.5045792 0.50883436 0.49452546 0.45092177
0003f0 57 20 f4 3e ab 22 03 3f 18 a7 03 3f 7c fb 03 3f
       0.47680923 0.51224774 0.5142684 0.5155561
